cnn saved models/cnn_epoch11.pt (torch, 609343 bytes, 16 tensors)

conv1.weight f4 [32, 1, 3, 3]
0.32924405 0.31725767 -0.23834307 -0.35863495 -0.25038213 -0.19388455 0.058283046 -0.0016375615
0.3008823 0.56419903 -0.23866113 0.5298248 -0.06566251 -0.12275266 -0.1781724 0.052842554
0.2600335 -0.12861869 0.092334904 0.0027630434 0.372654 -0.25123718 -0.46261314 0.07797766
0.22161095 0.27270168 -0.3483834 -0.121780306 0.33128762 0.25748593 0.07256563 -0.23679495
-0.4073555 -0.13569388 0.27316004 -0.15681207 -0.07985828 -0.1941643 0.18049817 -0.27651522
0.23283073 0.11294107 0.2719389 0.11056786 -0.2855606 0.18630642 -0.30990577 -0.38084632
0.1415057 0.28922525 -0.06592563 -0.3029178 -0.06058231 -0.59008193 0.14413862 -0.18213536
-0.28866202 0.130042 0.25116062 0.39751178 -0.38170066 0.026362471 -0.06774716 0.32137853
-0.2541344 -0.3110411 0.29688895 -0.075589076 -0.34767616 0.28632474 -0.06772579 0.14299999
0.0657127 -0.042220186 -0.6684808 -0.040812694 -0.01021143 0.033099063 0.2524557 0.12621859
0.0070547 0.19513348 -0.30489883 0.43551335 -0.3127078 -0.00043086312 -0.43603715 0.22116452
0.14282645 -0.11497101 -0.005521469 -0.21773845 -0.056312 -0.21802749 0.12871876 -0.43895444
0.29542762 0.32583562 -0.030817574 -0.12650758 0.24924645 -0.1953414 0.08693176 0.24265996
-0.19295958 0.4072689 -0.12955229 -0.20332175 0.4225871 0.13667595 -0.02888091 0.17419322
-0.18771897 -0.14931409 -0.17616023 -0.033423908 -0.25808898 -0.39801225 0.020354647 -0.40453893
-0.22807069 0.103816226 0.047536675 0.020058269 0.13099502 0.33690622 0.38056996 -0.3663431
-0.0439213 0.243896 0.18163128 -0.439706 0.33448896 0.051506776 -0.37605146 -0.007885366
0.045002993 -0.5697674 0.09615889 -0.3390399 -0.0985442 0.48648486 0.108491756 -0.13236724
0.27545053 0.14622582 -0.34996635 -0.076385155 -0.19578435 0.3928945 -0.42753655 0.40719855
-0.07297973 -0.2245016 -0.029399013 0.10230823 0.07704938 -0.4723616 -0.38574463 0.16966914
0.3707247 0.29927617 0.08968237 0.3975053 0.09254255 0.19608149 -0.17607147 -0.06315341
-0.067676485 -0.36541453 0.0018984078 0.33729744 0.22207877 0.054952327 -0.5801205 -0.38196602
0.03691726 0.21119547 0.12341939 0.17730232 0.059390046 -0.44058236 0.36847892 -0.28082338
-0.097376585 0.19998331 -0.17603356 -0.014848758 0.21024857 -0.2938843 0.30268475 0.38140085
0.13986887 -0.10095479 -0.20059624 0.14442709 -0.08540834 -0.38260132 0.1155033 -0.110749245
-0.20952469 0.41783434 -0.100491285 -0.11737101 -0.45046318 0.25947395 0.30789176 -0.14758833
-0.03633968 0.049056564 -0.07030598 -0.23488192 0.32830435 -0.32704628 0.0060268063 0.4219408
-0.31862724 -0.11296567 0.30689985 -0.4190404 -0.09761379 0.252849 -0.013475008 0.31122312
0.04676438 0.21960956 -0.2816652 0.03803852 0.2766015 -0.5796975 0.31844985 0.14947368
-0.38658682 0.23690344 0.028059065 -0.4870078 -0.2644996 0.23810676 -0.38216522 -0.12983322
-0.09679646 0.3851185 0.12876973 -0.47340605 -0.35747877 0.104629695 0.056009457 0.0047233505
-0.10067694 0.16612913 -0.10055303 0.3278919 -0.30926064 0.25893492 0.477283 -0.32797465
00000000: ad92 a83e 996f a23e 3510 74be 009f b7be
00000010: 1632 80be ac89 46be 34ba 6e3d 72a3 d6ba
00000020: 3f0d 9a3e 596f 103f 9563 74be 99a2 073f
00000030: 117a 86bd bf65 fbbd d372 36be 6f71 583d
00000040: 1c23 853e 9eb4 03be 151a bd3d 2d14 353b
00000050: 81cc be3e 29a2 80be a1db ecbe c0b2 9f3d
00000060: fbed 623e 8e9f 8b3e 4f5f b2be f467 f9bd
00000070: 889e a93e 32d5 833e 4a9d 943d 607a 72be
00000080: e690 d0be 56f3 0abe a2db 8b3e 5893 20be
00000090: bd8c a3bd 02d3 46be 83d4 383e 6793 8dbe
000000a0: 2e6b 6e3e a64d e73d 933b 8b3e 6771 e23d
000000b0: 0035 92be 1cc7 3e3e f8ab 9ebe 4afe c2be
000000c0: dfe6 103e 5515 943e 0404 87bd 0b18 9bbe
000000d0: 2825 78bd 9c0f 17bf 1399 133e b181 3abe
000000e0: 82cb 93be bb29 053e 2098 803e aa86 cb3e
000000f0: 456e c3be 1cf6 d73c 06bf 8abd ba8b a43e
00000100: e71d 82be c740 9fbe d401 983e 72ce 9abd
00000110: 9c02 b2be 2899 923e d2b3 8abd 976e 123e
00000120: 6194 863d 13ef 2cbd 8f21 2bbf 362b 27bd
00000130: d74d 27bc e292 073d e041 813e 723f 013e
00000140: 1d2b e73b 12d1 473e b31b 9cbe 9bfb de3e
00000150: 3d1b a0be 78e5 e1b9 4340 dfbe f478 623e
00000160: 1941 123e ec75 ebbd 70ed b4bb d4f6 5ebe
00000170: 69a7 66bd 9942 5fbe dace 033e a3be e0be
00000180: 4a42 973e edd3 a63e 2375 fcbc 348b 01be
00000190: 763a 7f3e 9307 48be 4709 b23d da7b 783e
000001a0: 3297 45be 8d85 d03e 5ba9 04be 9433 50be
000001b0: 565d d83e c8f4 0b3e a897 ecbc b55f 323e
000001c0: 6739 40be cbe5 18be 5963 34be 82e7 08bd
000001d0: 3d24 84be 43c8 cbbe cabe a63c ba1f cfbe
000001e0: 5d8b 69be 9a9d d43d d1b5 423d 3d51 a43c
000001f0: 8f23 063e f97e ac3e 11da c23e 5391 bbbe
00000200: d2e6 33bd dfbf 793e 8dfd 393e 2521 e1be
00000210: 2342 ab3e c5f8 523d d189 c0be 9f31 01bc
00000220: 0f55 383d 47dc 11bf f4ee c43d a396 adbe
00000230: 8bd1 c9bd 8b14 f93e ed30 de3d 478b 07be
00000240: da07 8d3e 39bc 153e ca2e b3be d26f 9cbd
00000250: b17b 48be 7829 c93e 12e6 dabe 547c d03e
00000260: 6676 95bd bfe3 65be 33d6 f0bc fa86 d13d
00000270: 11cc 9d3d 61d9 f1be 5280 c5be bfbd 2d3e
00000280: a1cf bd3e ba3a 993e 64ab b73d d185 cb3e
00000290: f386 bd3d 96c9 483e 144c 34be 9356 81bd
000002a0: f899 8abd 9d17 bbbe ffd3 f83a 40b2 ac3e
000002b0: 9e68 633e b115 613d c782 14bf 0d91 c3be
000002c0: 8e36 173d a043 583e 4ec3 fc3d bd8e 353e
000002d0: fa42 733d 0394 e1be 45a9 bc3e 15c8 8fbe
000002e0: 606d c7bd 6dc8 4c3e 2442 34be 3448 73bc
000002f0: 674b 573e 0178 96be 7ff9 9a3e f946 c33e
00000300: c939 0f3e 63c1 cebd 1a69 4dbe b2e4 133e
00000310: 91ea aebd 52e4 c3be ff8c ec3d 80d0 e2bd
00000320: a48d 56be 62ee d53e 60ce cdbd 3660 f0bd
00000330: 1ca3 e6be c5d9 843e fda3 9d3e 6521 17be
00000340: ebd8 14bd 89ef 483d 95fc 8fbd e384 70be
00000350: 8217 a83e 9c72 a7be 847c c53b a008 d83e
00000360: 1c23 a3be 8c5a e7bd fa21 9d3e 778c d6be
00000370: bde9 c7bd 6d75 813e 48c6 5cbc a358 9f3e
00000380: 028c 3f3d 54e1 603e 6c36 90be 47ce 1b3d
00000390: b69e 8d3e 0e67 14bf dc0b a33e a10f 193e
000003a0: b5ee c5be d196 723e 20dc e53c 1659 f9be
000003b0: 7e6c 87be 42d2 733e 29ab c3be 00f3 04be
000003c0: 393d c6bd 412e c53e 36dc 033e 4762 f2be
000003d0: 7507 b7be 1848 d63d 2c6a 653d 56c6 9a3b
000003e0: b62f cebd c11d 2a3e bfee cdbd 72e1 a73e
000003f0: 6957 9ebe 1e93 843e 705e f43e 4bec a7be

conv1.bias f4 [32]
0.2620559 0.35616857 0.12314817 -0.20073484 0.6122891 0.3221474 0.2420174 -0.023307486
0.2437622 0.21900782 0.16647565 0.60768956 0.3172738 0.2819819 -0.10505508 -0.24369547
-0.0074217557 0.42329818 -0.6293558 0.14255802 0.19658235 -0.3029705 0.34323758 -0.10372033
0.5219415 -0.33005306 -0.028446918 -0.03527958 0.12521291 -0.06196905 -0.28286016 0.004534391
00000000: 312c 863e ba5b b63e 1c35 fc3d 6f8d 4dbe
00000010: fabe 1c3f 81f0 a43e 69d3 773e 57ef bebc
00000020: cc9c 793e 9643 603e 9878 2a3e 8b91 1b3f
00000030: b671 a23e ee5f 903e 1e27 d7bd 4e8b 79be
00000040: 3332 f3bb 8aba d83e 761d 21bf bbfa 113e
00000050: e24c 493e f31e 9bbe d6bc af3e 536b d4bd
00000060: f59d 053f b7fc a8be 8309 e9bc 5281 10bd
00000070: d037 003e 42d3 7dbd 0cd3 90be 3b95 943b

BN1.weight f4 [32]
1.3467385 0.3787516 1.12571 0.83862627 0.91231376 0.7684666 1.1440873 0.80372876
0.901508 1.1639132 0.8831258 0.4006963 0.9895382 0.88377404 0.7906801 0.99439836
0.8682506 0.4326332 0.6812689 0.76922107 0.9701455 0.8685994 1.06169 0.55490834
0.70156735 1.2691262 1.064163 0.78866404 0.9952833 0.65505147 0.89595926 0.84492666
00000000: ed61 ac3f bbeb c13e 4417 903f 36b0 563f
00000010: 658d 693f 3aba 443f 7471 923f 2bc1 4d3f
00000020: 3ac9 663f 1cfb 943f 8814 623f 1128 cd3e
00000030: 6052 7d3f 043f 623f 036a 4a3f e490 7e3f
00000040: ac45 5e3f 1982 dd3e a367 2e3f aceb 443f
00000050: 755b 783f 885c 5e3f 75e5 873f 790e 0e3f
00000060: eb99 333f ba72 a23f 7e36 883f e3e5 493f
00000070: e3ca 7e3f 74b1 273f 965d 653f 1d4d 583f

BN1.bias f4 [32]
-0.39573514 -0.1879266 -0.22178228 -0.097156905 -0.98675156 -0.3350988 -0.15406793 -0.121660896
-0.49382374 -0.6139736 -0.43725348 -0.17913154 -0.023336666 -0.423455 -0.15504785 -0.7074861
-0.86894256 -0.09338557 -0.5014392 -0.5763053 -0.46094576 -0.3766541 -1.238423 -0.059047356
-0.06319391 -0.35203147 -0.7472686 -0.08859058 -0.093781166 -0.04817897 -0.67089736 -0.18812001
00000000: cc9d cabe d56f 40be e51a 63be 33fa c6bd
00000010: c09b 7cbf 1292 abbe fcc3 1dbe 5929 f9bd
00000020: 77d6 fcbe 602d 1dbf b0df dfbe 426e 37be
00000030: 892c bfbc 18cf d8be ddc4 1ebe cf1d 35bf
00000040: 0573 5ebf ef40 bfbd 525e 00bf bf88 13bf
00000050: 1501 ecbe ced8 c0be a584 9ebf a4db 71bd
00000060: cf6b 81bd 783d b4be ff4c 3fbf fa6e b5bd
00000070: 5710 c0bd 5057 45bd eebf 2bbf 88a2 40be

BN1.running_mean f4 [32]
0.25177452 0.48362452 0.11507808 -0.22715898 0.627357 0.11276744 0.25208676 -0.026437864
0.19028148 0.18044415 0.12203773 0.63674533 0.2962838 0.21022747 -0.11075139 -0.32580054
0.013237574 0.40095896 -0.6106481 0.17511682 0.1598887 -0.3221763 0.36596465 -0.10696139
0.5114076 -0.33609304 -0.14420982 -0.109837554 0.087980375 -0.123023644 -0.28317225 -0.0106400335
00000000: 97e8 803e a29d f73e 0eae eb3d 5d9c 68be
00000010: 789a 203f 9ef2 e63d 8411 813e 3894 d8bc
00000020: 26d9 423e 5ac6 383e ebee f93d be01 233f
00000030: 83b2 973e df45 573e a0d1 e2bd 54cf a6be
00000040: 69e2 583c 7e4a cd3e 6f53 1cbf d351 333e
00000050: ddb9 233e 4bf4 a4be b85f bb3e 930e dbbd
00000060: 9ceb 023f 6314 acbe bdab 13be 83f2 e0bd
00000070: 0e2f b43d d2f3 fbbd f4fb 90be 8953 2ebc

BN1.running_var f4 [32]
0.0039299116 0.017416118 0.0028930607 0.0041491743 0.0007887125 0.040992625 0.0034644569 0.0048241913
0.00969781 0.0044569867 0.008546153 0.0020658073 0.0077869287 0.015351092 0.0037083933 0.014441274
0.0010871749 0.010196679 0.007005597 0.005508482 0.0029923953 0.0041338475 0.0015988231 0.0023939349
0.004316404 0.0023417647 0.020674532 0.012956871 0.008496877 0.01001642 0.00016413718 0.015710823
00000000: 7dc6 803b 3fac 8e3c 8199 3d3b ccf5 873b
00000010: 9ac1 4e3a e2e7 273d f10b 633b 4014 9e3b
00000020: 90e3 1e3c ea0b 923b 2a05 0c3c 7f62 073b
00000030: 7e29 ff3b 2683 7b3c 8408 733b 189b 6c3c
00000040: 897f 8e3a f90f 273c 358f e53b 7f80 b43b
00000050: 101c 443b 3a75 873b 9a8f d13a 90e3 1c3b
00000060: 9f70 8d3b 4b78 193b a35d a93c 0e49 543c
00000070: 7c36 0b3c e91b 243c 3d1c 2c39 fcb3 803c

conv2.weight f4 [64, 32, 3, 3]
-0.15165074 0.087629534 -0.06939764 -0.0562419 -0.05227372 -0.23316939 -0.06104479 0.06676873
-0.08438178 -0.0417537 0.032321308 0.09972685 -0.25739542 -0.3071431 -0.22455496 0.14244375
0.13285717 0.15916918 0.078665 0.093039475 0.097649984 -0.12911828 -0.04789074 -0.089778
-0.061399795 -0.061330404 0.091263086 -0.36663458 0.021960726 0.03824193 -0.43211153 0.04186169
-0.27787173 -0.0039471737 0.31872275 0.20064242 0.2747694 -0.113270156 -0.08778285 -0.01977956
-0.19132017 -0.18320656 0.017650561 -0.057870287 -0.09137443 -0.20336954 -0.056349657 -0.11290969
-0.16420417 -0.07543312 -0.06566876 0.15125483 0.17570248 0.19498622 0.03110708 -0.028964601
-0.13873746 0.027885294 0.09227467 0.17918096 -0.20860717 -0.2208869 -0.22608018 -0.018778756
0.09733119 0.030878184 -0.05298123 -0.01978373 -0.17855234 0.14757939 0.14466953 0.20152137
-0.24403293 -0.060743153 -0.23160343 -0.1449564 0.06733621 -0.12929557 0.040187906 0.10004709
-0.06119305 -0.35702196 -0.48277968 -0.56526756 0.119992755 0.15508656 0.092630886 -0.3735426
-0.4371679 -0.55077994 0.34527153 0.25594786 0.14211021 -0.05175425 0.028696777 -0.042144533
0.011124866 0.033843167 0.0038489185 -0.040039167 0.06719202 -0.012249504 -0.11179139 -0.002201011
-0.20121518 0.18429391 0.06336871 -0.047503226 -0.009987487 0.09583782 -0.07044864 0.14346153
-0.022323962 -0.46663934 -0.11615445 0.10730659 0.17718244 0.13021426 0.04558201 -0.09894888
-0.05735998 0.06426839 -0.117677085 0.0105721485 0.12766702 0.12856264 -0.10987539 -0.0008927858
-0.08662815 0.070721686 -0.010645967 -0.32343456 -0.041468613 0.032809407 -0.14041616 -0.30588573
-0.068802804 -0.4423639 0.018474985 0.084641665 0.063831165 0.14156906 0.0614451 -0.20142885
-0.50662833 -0.36809462 -0.36862856 0.2245103 0.18559162 0.048132792 -0.16906404 -0.13162224
0.18529497 0.43303514 0.2980546 0.36704007 -0.013250005 0.009931874 0.10045816 0.06699301
0.0944725 0.1066876 -0.16955253 -0.051292498 0.191052 0.0026192402 -0.33139068 -0.4514479
0.070770994 0.08380151 0.14153877 -0.33634663 -0.1344052 -0.08108678 -0.061588496 -0.09431557
-0.14949797 0.15722094 0.11849231 0.27906725 0.32155743 0.14236529 -0.04487909 -0.31163627
-0.11570451 -0.25594974 -0.27117002 0.0056570647 -0.3106403 -0.024875384 0.11162745 0.21870929
-0.37920702 -0.21174772 -0.31109592 -0.0705003 0.23987007 0.19344914 -0.084027804 0.037515447
0.09098173 0.0090611465 -0.064814754 -0.0893781 -0.017184753 -0.15820572 0.038617756 0.17568387
0.08003303 0.16620345 -0.13600764 -0.08342435 -0.1969553 -0.23573212 -0.057569176 -0.19000706
0.16850461 0.013005942 0.15907168 -0.15724136 -0.167703 -0.11948473 -0.011139624 0.09610746
0.20147496 0.11304925 -0.07522257 -0.070648484 0.039774098 -0.07736823 0.0061911144 -0.38513628
-0.53342533 -0.5614769 -0.6575655 -0.69487333 -0.74965215 -0.14334866 -0.06730981 -0.05023721
-0.4248918 -0.5078649 -0.50842935 0.056106202 -0.09955751 -0.3693599 -0.11712493 -0.086086996
-0.008301982 0.060437776 0.15695918 0.20770882 0.10611613 0.13667297 0.45148462 -0.10421695
00000000: 554a 1bbe 1d77 b33d 5a20 8ebd e85d 66bd
00000010: f81c 56bd f5c3 6ebe 1a0a 7abd 0bbe 883d
00000020: 5bd0 acbd ed05 2bbd 5963 043d 973d cc3d
00000030: 55c9 83be dc41 9dbe bcf1 65be c6dc 113e
00000040: b60b 083e 3ffd 223e 1e1b a13d 7b8b be3d
00000050: b7fc c73d 9537 04be 1529 44bd 87dd b7bd
00000060: 5a7e 7bbd 9735 7bbd 24e8 ba3d 87b7 bbbe
00000070: fbe6 b33c 92a3 1c3d b93d ddbe 2a77 2b3d
00000080: 3445 8ebe 4b57 81bb a12f a33e 3575 4d3e
00000090: 93ae 8c3e 2ffa e7bd 7fc7 b3bd be08 a2bc
000000a0: 6fe9 43be 809a 3bbe e997 903c 6509 6dbd
000000b0: 8422 bbbd 1b40 50be e6ce 66bd 323d e7bd
000000c0: 2325 28be ae7c 9abd 587d 86bd 8ce2 1a3e
000000d0: 5aeb 333e 78aa 473e 46d4 fe3c 2c47 edbc
000000e0: 3111 0ebe b36f e43c 81fa bc3d 377b 373e
000000f0: 1e9d 55be 2d30 62be 9081 67be e8d5 99bc
00000100: 9355 c73d 3ff4 fc3c d902 59bd 7d11 a2bc
00000110: 6dd6 36be 0d1f 173e 4024 143e 9e5b 4e3e
00000120: c5e3 79be d0cd 78bd 7329 6dbe 736f 14be
00000130: 91e7 893d 0f66 04be 139c 243d 7de5 cc3d
00000140: 90a5 7abd 95cb b6be e62e f7be 60b5 10bf
00000150: c3be f53d 03cf 1e3e 43b5 bd3d fa40 bfbe
00000160: 79d4 dfbe eaff 0cbf 6ec7 b03e 990b 833e
00000170: 5785 113e 44fc 53bd 8115 eb3c bf9f 2cbd
00000180: 1245 363c 229f 0a3d 233e 7c3b 1c00 24bd
00000190: f89b 893d 25b2 48bc e2f2 e4bd d63e 10bb
000001a0: 5a0b 4ebe 8bb7 3c3e 74c7 813d be92 42bd
000001b0: 8fa2 23bc 9e46 c43d 6047 90bd 94e7 123e
000001c0: bee0 b6bc 5aeb eebe 62e2 edbd 8fc3 db3d
000001d0: 506f 353e e356 053e 34b4 3a3d b6a5 cabd
000001e0: 4cf2 6abd 259f 833d af00 f1bd ce36 2d3c
000001f0: 25bb 023e eda5 033e 5906 e1bd d709 6aba
00000200: 196a b1bd 88d6 903d 6c6c 2ebc 3799 a5be
00000210: feda 29bd 2863 063d 41c9 0fbe 0e9d 9cbe
00000220: 7ce8 8cbd 857d e2be da58 973c 9c58 ad3d
00000230: eab9 823d 7bf7 103e dbad 7b3d 5d43 4ebe
00000240: 65b2 01bf e676 bcbe e2bc bcbe 07e6 653e
00000250: bb0b 3e3e e426 453d 201f 2dbe fbc7 06be
00000260: f7bd 3d3e c8b6 dd3e 9d9a 983e adec bb3e
00000270: 8d16 59bc 4db9 223c 02bd cd3d a233 893d
00000280: cc7a c13d 077f da3d 2e9f 2dbe 1518 52bd
00000290: 23a3 433e 8fa7 2b3b 0aac a9be 2e24 e7be
000002a0: 62f0 903d 20a0 ab3d 8aef 103e a035 acbe
000002b0: 84a1 09be d310 a6bd 3844 7cbd 8628 c1bd
000002c0: ff15 19be 87fe 203e 19ac f23d e7e1 8e3e
000002d0: 2da3 a43e 35c8 113e 23d3 37bd ca8e 9fbe
000002e0: 7cf6 ecbd d80b 83be ccd6 8abe e65e b93b
000002f0: 3f0c 9fbe 76c7 cbbc ef9c e43d 54f5 5f3e
00000300: 6c27 c2be 65d4 58be f747 9fbe 7662 90bd
00000310: 80a0 753e 8817 463e c516 acbd cca9 193d
00000320: a154 ba3d 3475 143c 99bd 84bd de0b b7bd
00000330: 0ac7 8cbc ae00 22be a72d 1e3d 79e6 333e
00000340: 5be8 a33d 3d31 2a3e 9645 0bbe 63da aabd
00000350: a6ae 49be c363 71be a8cd 6bbd 3691 42be
00000360: 798c 2c3e e016 553c b0e3 223e e103 21be
00000370: 56ba 2bbe 69b4 f4bd f882 36bc fdd3 c43d
00000380: 744f 4e3e 5d86 e73d 4a0e 9abd 27b0 90bd
00000390: 2aea 223d 3c73 9ebd d5de ca3b 9530 c5be
000003a0: 908e 08bf f3bc 0fbf 3656 28bf 38e3 31bf
000003b0: 34e9 3fbf fec9 12be bad9 89bd 88c5 4dbd
000003c0: 6b8b d9be 6f03 02bf 6d28 02bf 9ecf 653d
000003d0: cfe4 cbbd be1c bdbe 32df efbd 614e b0bd
000003e0: 0905 08bc 9a8d 773d e8b9 203e 9fb1 543e
000003f0: 6a53 d93d 00f4 0b3e fe28 e73e b26f d5bd

conv2.bias f4 [64]
-0.012632881 0.00043309398 -0.017209461 -0.033210035 0.0773868 -0.0055922708 0.052286945 0.05589148
0.022805676 -0.056861743 0.114901915 0.0043418896 0.045012508 -0.10980798 0.03331168 -0.007574463
-0.008373145 -0.08240536 -0.045050304 0.044087633 0.13572693 0.021120073 -0.11020724 -0.09164897
-0.025853172 -0.010854141 0.025383905 0.04861165 -0.0028171309 0.010896988 0.031510387 0.053881392
0.020459803 -0.03886677 0.0011028168 -0.06005539 -0.018653406 -0.036615446 -0.11212516 -0.085863106
0.049753204 -0.030665485 0.013375228 0.014556019 -0.04302371 0.050141267 0.023361566 -0.09699532
0.0022877206 -0.027345827 -0.06514599 0.028457362 0.050998848 0.061882228 0.05804749 0.1299114
0.09471858 0.0019512464 0.08951478 -0.027861448 0.05875699 -0.02705155 0.021038504 0.011428614
00000000: 25fa 4ebc e410 e339 dbfa 8cbc 3f07 08bd
00000010: f87c 9e3d 5e3f b7bb d62a 563d 77ee 643d
00000020: f8d2 ba3c dce7 68bd b251 eb3d 6946 8e3b
00000030: 095f 383d 02e3 e0bd d471 083d 3333 f8bb
00000040: 842f 09bc 24c4 a8bd ab86 38bd 3c95 343d
00000050: 00fc 0a3e 0104 ad3c 55b4 e1bd 75b2 bbbd
00000060: 08ca d3bc 91d5 31bc e8f1 cf3c 021d 473d
00000070: 9d9f 38bb 4889 323c 0911 013d bcb2 5c3d
00000080: 519b a73c c332 1fbd 648c 903a a4fc 75bd
00000090: 07cf 98bc 14fa 15bd e0a1 e5bd ffd8 afbd
000000a0: 04ca 4b3d 2f36 fbbc c623 5b3c 5e7c 6e3c
000000b0: a139 30bd ee60 4d3d c160 bf3c 7ba5 c6bd
000000c0: 95ed 153b 5b04 e0bc 436b 85bd 6a1f e93c
000000d0: 2be4 503d 3878 7d3d 34c3 6d3d 7e07 053e
000000e0: d1fb c13d f7c0 ff3a 8653 b73d b13d e4bc
000000f0: 2bab 703d 369b ddbc f158 ac3c 153f 3b3c

BN2.weight f4 [64]
1.2714291 1.0639583 1.1881784 1.1392686 1.0045646 1.2737472 0.83461714 1.0818992
1.1793486 1.2839053 1.0907965 1.1025174 1.1982741 1.3153772 1.116097 1.0923673
1.3181655 1.2519537 1.5345489 2.0335782 1.1579075 1.242416 1.9119214 1.2175268
1.1758045 1.9315232 1.1971557 1.3151256 1.364953 1.2640532 1.3219516 1.1006399
1.3303072 1.2044666 1.1374485 1.1906306 1.6612291 1.0489103 0.79169804 1.1343441
1.0516777 0.9562408 1.0535712 1.6598723 1.4625682 1.2490242 1.3754054 0.9510082
1.5101699 1.0568982 1.1560513 1.1876806 1.4119323 0.89360183 1.2518489 1.1056101
1.0806906 1.3952903 1.1648115 0.9776628 1.3959712 1.3528646 1.4620863 1.302693
00000000: 30be a23f c92f 883f 3b16 983f 8ed3 913f
00000010: 9395 803f 260a a33f 78a9 553f ac7b 8a3f
00000020: e5f4 963f 0257 a43f 389f 8b3f 4a1f 8d3f
00000030: 0c61 993f 485e a83f 44dc 8e3f b1d2 8b3f
00000040: a6b9 a83f 0540 a03f 196c c43f 2526 0240
00000050: 5036 943f 7d07 9f3f d7b9 f43f ebd7 9b3f
00000060: c380 963f 273c f73f 663c 993f 0956 a83f
00000070: c8b6 ae3f 7fcc a13f b635 a93f c5e1 8c3f
00000080: 8247 aa3f f62b 9a3f ea97 913f 9566 983f
00000090: 28a3 d43f b142 863f b9ac 4a3f 3032 913f
000000a0: 609d 863f 32cc 743f 6cdb 863f b276 d43f
000000b0: 6f35 bb3f 06e0 9f3f 490d b03f 4675 733f
000000c0: 3f4d c13f 7148 873f 7df9 933f eb05 983f
000000d0: 33ba b43f 17c3 643f 963c a03f a284 8d3f
000000e0: 1254 8a3f df98 b23f 8b18 953f 1c48 7a3f
000000f0: 2faf b23f ab2a ad3f a525 bb3f a5be a63f

BN2.bias f4 [64]
-0.584396 -0.5347548 -0.590663 -0.51197416 -0.533503 -0.5972671 -0.37754 -0.44410843
-0.53732795 -0.62059313 -0.4278778 -0.5379053 -0.57885855 -0.56688654 -0.4683001 -0.50875866
-0.52922064 -0.6211744 -0.9814402 -1.4291546 -0.4369753 -0.614116 -1.2562144 -0.4904664
-0.5146061 -1.0733818 -0.6749504 -0.5753092 -0.6535761 -0.49422598 -0.5816882 -0.53348696
-0.7422574 -0.56395984 -0.4842699 -0.52623695 -0.8389935 -0.43514195 -0.32681614 -0.5068156
-0.43492347 -0.3714675 -0.51041865 -1.337691 -0.66032296 -0.55822396 -0.7106457 -0.4816199
-0.58876264 -0.5174363 -0.5401855 -0.58724487 -0.71003246 -0.393229 -0.5454496 -0.57186943
-0.45634544 -0.60523367 -0.48945835 -0.43079326 -0.759926 -0.6823095 -0.94096404 -0.52658755
00000000: fa9a 15bf b1e5 08bf b135 17bf bd10 03bf
00000010: a793 08bf 7fe6 18bf ec4c c1be 2e62 e3be
00000020: 538e 09bf 31df 1ebf cd12 dbbe 29b4 09bf
00000030: 1330 14bf 7a1f 11bf 08c5 efbe 023e 02bf
00000040: 017b 07bf 4905 1fbf aa3f 7bbf 8aee b6bf
00000050: 3abb dfbe b536 1dbf a2cb a0bf 691e fbbe
00000060: 3abd 03bf 9364 89bf 8dc9 2cbf 7747 13bf
00000070: c350 27bf 300b fdbe 85e9 14bf 9a92 08bf
00000080: 9504 3ebf ac5f 10bf 39f2 f7be 77b7 06bf
00000090: 47c8 56bf edca debe 7254 a7be abbe 01bf
000000a0: 4aae debe fd30 bebe ccaa 02bf 7539 abbf
000000b0: ed0a 29bf c4e7 0ebf e0ec 35bf e296 f6be
000000c0: 26b9 16bf b576 04bf 9949 0abf ae55 16bf
000000d0: b0c4 35bf 5055 c9be 96a2 0bbf 0966 12bf
000000e0: 1ca6 e9be 98f0 1abf 499a fabe ef90 dcbe
000000f0: 838a 42bf d6ab 2ebf 05e3 70bf 71ce 06bf

BN2.running_mean f4 [64]
-0.93357635 -1.5853511 -1.0958312 -1.4001284 -1.5133975 -0.7955665 -0.87606865 -0.8062417
-0.7769185 -1.1312276 -1.913444 -1.2917525 -1.1393661 -0.83167773 -1.4645402 -0.54751825
-1.0742157 -1.0683372 -0.4886131 -0.527752 -1.5997118 -1.285752 -0.7528757 -1.0631708
-1.4871619 -0.59898204 -1.0101717 -1.0716032 -0.80300194 -0.88763106 -0.9830496 -1.1448376
-0.615132 -0.7899337 -1.3701744 -1.3614277 -0.6170911 -2.2076354 -1.2000916 -0.892269
-1.3702244 -1.2305827 -1.1739486 -0.32583052 -0.87676287 -0.9274941 -0.70274615 -1.1642642
-0.8728836 -0.6597744 -1.7407454 -1.010035 -1.2566609 -0.75485075 -1.1752342 -0.27161282
-1.6846162 -1.0041306 -1.6760658 -1.5898991 -0.4596986 -0.7127951 -0.40979338 -0.65878093
00000000: dcfe 6ebf c9ec cabf 3244 8cbf 6837 b3bf
00000010: 02b7 c1bf 3faa 4bbf 0946 60bf db65 4ebf
00000020: 21e4 46bf 11cc 90bf bceb f4bf 2558 a5bf
00000030: c0d6 91bf d5e8 54bf 0e76 bbbf 282a 0cbf
00000040: e67f 89bf 46bf 88bf 7f2b fabe c11a 07bf
00000050: 5bc3 ccbf 8693 a4bf 76bc 40bf fb15 88bf
00000060: 525b bebf e356 19bf 4e4d 81bf 4b2a 89bf
00000070: 8991 4dbf ca3b 63bf 23a9 7bbf 0a8a 92bf
00000080: 4a79 1dbf 1839 4abf e061 afbf 4343 aebf
00000090: aff9 1dbf e649 0dc0 9a9c 99bf be6b 64bf
000000a0: 8363 afbf bc83 9dbf f343 96bf 42d3 a6be
000000b0: 8873 60bf 4170 6dbf 2ce7 33bf 9c06 95bf
000000c0: 4d75 5fbf fae6 28bf bfd0 debf d448 81bf
000000d0: 44da a0bf e63d 41bf 136e 96bf d610 8bbe
000000e0: 81a1 d7bf 5a87 80bf 5389 d6bf d081 cbbf
000000f0: 9d5d ebbe bd79 36bf 70d0 d1be dea5 28bf

BN2.running_var f4 [64]
4.882985 9.844386 6.616562 6.666046 5.550052 5.0246806 9.87963 4.911359
4.43449 5.9108 15.499097 8.795306 5.913327 3.3491068 16.064241 6.4283633
10.425446 3.6814537 1.4154295 1.8076168 12.26942 7.0971355 2.2115753 5.4548297
9.785195 2.4805264 4.4382267 5.7534623 6.224336 5.0801277 6.211502 7.290001
2.591682 3.29002 8.058888 7.2100677 1.9004195 12.601796 9.253977 5.381087
9.169855 11.263509 5.448204 1.2745956 4.09217 5.1367393 2.7506793 8.199887
9.064045 5.8994966 5.41669 5.0062184 5.5115013 8.790261 6.1019187 3.6924427
10.961467 5.288446 8.236745 8.0303135 1.8885002 2.7950075 1.2900146 7.3303366
00000000: 6a41 9c40 9b82 1d41 e0ba d340 4050 d540
00000010: 079a b140 2fca a040 f712 1e41 da29 9d40
00000020: 58e7 8d40 4625 bd40 4dfc 7741 93b9 0c41
00000030: fa39 bd40 c457 5640 9183 8041 27b5 cd40
00000040: a0ce 2641 f09c 6b40 cb2c b53f fd5f e73f
00000050: 8b4f 4441 bc1b e340 738a 0d40 f78d ae40
00000060: 2990 1c41 f2c0 1e40 f405 8e40 5d1c b840
00000070: c32d c740 6890 a240 a0c4 c640 b047 e940
00000080: 1ede 2540 b08f 5240 35f1 0041 e0b8 e640
00000090: f240 f33f f5a0 4941 4a10 1441 dd31 ac40
000000a0: bab7 1241 5537 3441 b057 ae40 f325 a33f
000000b0: 0ef3 8240 2b60 a440 210b 3040 bd32 0341
000000c0: 5406 1141 adc8 bc40 8655 ad40 f132 a040
000000d0: 385e b040 e9a4 0c41 eb42 c340 fb50 6c40
000000e0: 2b62 2f41 f33a a940 b5c9 0341 2a7c 0041
000000f0: 60ba f13f 67e1 3240 331f a53f 1e92 ea40

fc1.weight f4 [128, 1024]
-0.0013794283 -0.03071892 -0.012555347 -0.020488491 -0.00078105176 -0.009513141 -0.03547275 -0.007853119
-0.029326625 -0.017449105 0.009207134 0.023725988 0.005390879 0.017481465 0.019017946 -0.035462484
-0.012611282 -0.013438031 0.009495336 -0.015995976 -0.0006753754 -0.010362061 -0.012299116 0.013813245
0.013892157 -0.007868636 -0.028206194 0.004391563 -0.0016448444 -0.027991733 -0.018988393 0.0031031088
0.0010460888 -0.02276056 0.015338772 -0.015340787 0.0121873235 -0.0200361 -0.02922228 0.0016071543
0.02463431 0.013198701 -0.021127932 -0.03000736 -0.013014363 -0.017011201 0.006063958 -0.0343745
-0.016604798 -0.010441827 0.014904053 0.006053587 0.022328883 -0.0046937075 -0.019620784 0.0021138922
-0.0025178343 -0.03294417 -0.026199473 -0.031164104 -0.013302252 -0.03380005 -0.002069263 0.013822817
0.009853566 0.022872452 -0.016180195 -0.021814192 -0.005158855 -0.0073632584 0.019485448 -0.03387704
-0.036590748 -0.029991066 -0.019787678 0.010287367 -0.013998146 0.0048903953 -0.028832646 0.024681816
0.0027254398 0.0029000773 0.024241181 0.008411535 0.0045713484 -0.008011166 0.0020678435 -0.008217371
-0.005177515 -0.027253607 0.01799752 0.010446023 -0.022644795 0.018306304 -0.02273144 -0.009252847
-0.016466603 0.009232698 0.002878606 -0.020208407 0.0044673057 0.0059954384 -0.0014711764 0.010313295
-0.01060589 0.010492986 0.023361342 -0.019258037 0.0074900035 0.007210709 -0.0056204973 -0.014599528
0.009251049 0.011218656 0.015163276 -0.011705279 -0.033552196 -0.016986892 -0.03414555 0.02395109
-0.035359345 0.01163664 -0.025785416 -0.032256234 0.009953532 -0.03037639 -0.028011668 0.001220467
-0.03193786 0.019503139 -0.0013190999 -0.0058554416 0.022073725 -0.020862034 -0.023226002 -0.003225331
0.013300852 0.00038775094 0.009406554 -0.036122274 -0.01173711 -0.00047752052 0.010321811 -0.02107967
-0.021982431 -0.0017319027 -0.01009959 -0.015610171 0.018285586 -0.020694602 0.008561692 0.018386828
-0.021444617 0.017410483 0.0059444997 -0.004077379 -0.034478027 0.0040289117 0.01933911 -0.00876382
0.018492866 -0.0063155396 -0.013261183 -0.014655858 -0.008151379 -0.018945679 -0.0053305766 -0.006387784
-0.03203619 -0.020590773 0.022802133 -0.0058823857 -0.0060385605 0.009442328 0.01798272 -0.03693626
-0.035070315 -0.00852266 -0.01726651 -0.031892203 -0.030344002 0.006231367 0.0109011205 -0.007877199
-0.0036346014 -0.028007256 -0.027321374 -0.033126365 -0.007439348 -0.03566368 -0.0064324546 0.01649391
-0.017654981 -0.03224951 -0.024234785 0.0087488545 -0.024018975 -0.023523457 -0.022016663 -0.02163998
0.018063935 -0.015755754 0.022940483 0.008694423 -0.010655363 -0.03161459 0.017120948 0.02100808
-0.009894612 0.019331452 -0.011685158 -0.03328361 -0.035317827 -0.016207661 0.0045612818 0.015553012
0.020890562 0.023256281 0.005990676 -0.031841874 0.0055995504 -0.007570959 -0.012964621 0.019155094
-0.006686675 -0.02204469 0.021876158 0.011916981 -0.0015469141 0.018222328 -0.03053108 -0.0063742492
-0.032486588 -0.0027445464 0.0029218758 -0.0010494686 -0.03214438 -0.026310159 -0.034509763 0.02008757
-0.01891657 0.017738102 -0.030654658 -0.0010939797 0.022138914 -0.012189849 -0.027341135 -0.010001719
0.0044646217 -0.011800499 0.002781561 -0.0038906913 -0.031085286 -0.0102558555 -0.018137617 0.021473467
00000000: efcd b4ba 3fa6 fbbc f1b4 4dbc 7bd7 a7bc
00000010: 7fbf 4cba 01dd 1bbc e04b 11bd 5eaa 00bc
00000020: 643e f0bc 6df1 8ebc 85d9 163c 015d c23c
00000030: f9a5 b03b 4a35 8f3c 86cb 9b3c 1c41 11bd
00000040: 8d9f 4ebc 302b 5cbc 5392 1b3c fe09 83bc
00000050: ad0b 31ba a2c5 29bc 3b82 49bc f350 623c
00000060: ee9b 633c 74eb 00bc ad10 e7bc 1ae7 8f3b
00000070: d297 d7ba eb4e e5bc 8c8d 9bbc 875d 4b3b
00000080: ea1c 893a 5b74 babc 794f 7b3c ed57 7bbc
00000090: 57ad 473c bf22 a4bc 9063 efbc 26a7 d23a
000000a0: e4cd c93c 5d3f 583c 7c14 adbc ffd1 f5bc
000000b0: 323a 55bc 135b 8bbc 2bb4 c63b 47cc 0cbd
000000c0: c906 88bc 3214 2bbc 2130 743c 2b5d c63b
000000d0: 10eb b63c accd 99bb c4bb a0bc 3a89 0a3b
000000e0: 4002 25bb 77f0 06bd 47a0 d6bc dd4b ffbc
000000f0: b0f1 59bc ec71 0abd 799c 07bb 1979 623c
00000100: da70 213c 025f bb3c 548c 84bc adb3 b2bc
00000110: 9d0b a9bb 7d47 f1bb f29f 9f3c a7c2 0abd
00000120: 2ee0 15bd d3af f5bc c519 a2bc 588c 283c
00000130: 7b58 65bc 9c3f a03b 7132 ecbc 8531 ca3c
00000140: 4b9d 323b 390f 3e3b 7195 c63c 89d0 093c
00000150: 40cb 953b 4441 03bc a884 073b 27a2 06bc
00000160: 25a8 a9bb f542 dfbc 896f 933c cc25 2b3c
00000170: 9481 b9bc 1af7 953c 4937 babc 4199 17bc
00000180: f8e4 86bc be44 173c ffa6 3c3b 1a8c a5bc
00000190: 7a62 923b 6275 c43b 7dd4 c0ba 18f9 283c
000001a0: 54c4 2dbc c6ea 2b3c 4960 bf3c 08c3 9dbc
000001b0: b46e f53b d047 ec3b 262c b8bb dc32 6fbc
000001c0: b691 173c 74ce 373c 646f 783c 80c7 3fbc
000001d0: 076e 09bd 1828 8bbc 34dc 0bbd 1435 c43c
000001e0: f6d4 10bd 9ba7 3e3c f03b d3bc 1d1f 04bd
000001f0: 2414 233c e8d7 f8bc ba78 e5bc 14f8 9f3a
00000200: 46d1 02bd 0cc5 9f3c a6e5 acba 01df bfbb
00000210: f5d3 b43c dbe6 aabc 7544 bebc 1360 53bb
00000220: d1eb 593c 0d4b cb39 f21d 1a3c f3f4 13bd
00000230: 024d 40bc b85b fab9 d01c 293c 46af acbc
00000240: 8014 b4bc 0301 e3ba c078 25bc cdc1 7fbc
00000250: a7cb 953c ba87 a9bc 5746 0c3c f99f 963c
00000260: 9fac afbc 6ea0 8e3c 14ca c23b 899b 85bb
00000270: d538 0dbd f604 843b 0e6d 9e3c 2096 0fbc
00000280: 5a7e 973c 96f2 cebb 6f45 59bc 201f 70bc
00000290: 5d8d 05bc f833 9bbc 1eac aebb 9e50 d1bb
000002a0: 6138 03bd fbad a8bc 8acb ba3c 07c1 c0bb
000002b0: 1edf c5bb feb3 1a3c 7f50 933c 7a4a 17bd
000002c0: e4a5 0fbd a0a2 0bbc 7f72 8dbc 66a1 02bd
000002d0: fc93 f8bc 7f30 cc3b 9d9a 323c 5e0f 01bc
000002e0: 7e32 6ebb 796f e5bc 13d1 dfbc 83af 07bd
000002f0: c6c5 f3bb 1414 12bd 57c7 d2bb 3d1e 873c
00000300: 2ea1 90bc 1018 04bd 0788 c6bc 5b57 0f3c
00000310: 71c3 c4bc 44b4 c0bc 4a5c b4bc 5446 b1bc
00000320: d1fa 933c 3612 81bc aeed bb3c 0e73 0e3c
00000330: d593 2ebc 4d7e 01bd 3b41 8c3c 2319 ac3c
00000340: 031d 22bc fe5c 9e3c 1b73 3fbc 6554 08bd
00000350: 6da9 10bd eec5 84bc ce76 953b 0fd2 7e3c
00000360: af22 ab3c f583 be3c 6f4d c43b a06c 02bd
00000370: 6f7c b73b cf15 f8bb 9069 54bc 25eb 9c3c
00000380: e51b dbbb 1197 b4bc a135 b33c 713f 433c
00000390: d3c1 caba fe46 953c 511c fabc 14df d0bb
000003a0: a810 05bd d9dd 33bb f17c 3f3b 538e 89ba
000003b0: d3a9 03bd 6788 d7bc 1c5a 0dbd b08e a43c
000003c0: ecf6 9abc 7f4f 913c 7a1f fbbc de63 8fba
000003d0: ab5c b53c efb7 47bc 84fa dfbc 40de 23bc
000003e0: f64b 923b e156 41bc da4a 363b f8fa 7ebb
000003f0: 92a6 febc 2d08 28bc 5795 94bc 20e9 af3c

fc1.bias f4 [128]
0.0102592455 -0.012652707 0.25545695 0.09369523 0.006766152 -0.04054907 0.0012751527 -0.035473045
-0.0154196285 0.002154832 -0.009617079 0.10069799 0.013641885 -0.03132205 -0.03449493 0.0063856407
-0.025155373 -0.018046916 -0.031287782 -0.03576347 -0.08804452 -0.01364204 0.3003941 0.01797998
0.021824844 0.17844519 -0.020208774 0.052432835 -0.023570145 0.011135584 -0.02398627 -0.035729103
0.015860066 0.0042432994 -0.020329412 -0.004474388 0.31326032 -0.0345615 -0.011938493 -0.029004684
-0.0104768155 -0.013054734 0.0101533085 0.0045977663 0.14096576 -0.02197917 -0.014145319 -0.005126155
0.0082567 -0.0014558823 -0.025133913 -0.015840858 -0.0071672555 -0.0046098577 0.2371126 -0.030690538
-0.03367625 0.022571562 0.021953348 0.04892255 0.13336603 0.0016691316 0.14845756 -0.02866201
0.0018263183 0.09464145 0.006687473 -0.031422533 0.018273003 0.008157259 0.018032378 0.058338866
-0.03602201 -0.018733185 -0.0045630126 0.055940337 -0.014747418 -0.012720612 0.006917476 -0.011242229
0.14999579 0.043543063 -0.024935948 -0.012016429 -0.035392735 0.009835864 -0.005034096 -0.02593079
0.008435319 -0.029262543 -0.0055674035 0.1546065 -0.03512413 -0.0041373647 -0.02094118 -0.023564862
-0.027449945 -0.030575207 0.042670634 -0.018646866 0.29750845 0.10557583 -0.03464747 -0.00875854
-0.02573714 -0.03525896 -0.0081835035 -0.05042922 0.27145225 -0.03446238 0.27905244 -0.029057054
-0.11210977 0.007965051 -0.0473145 -0.01648801 0.13153249 0.0060810065 -0.0017839229 -0.036331907
0.32188332 0.024414653 0.017882032 0.18649589 0.003999439 -0.01758046 -0.019158872 0.2454771
00000000: 6516 283c 4d4d 4fbc 41cb 823e 49e3 bf3d
00000010: 99b6 dd3b c816 26bd 0623 a73a 2f4c 11bd
00000020: 9ca2 7cbc 1538 0d3b f490 1dbc bf3a ce3d
00000030: 3682 5f3c 8d4b 00bd 8e4a 0dbd a33e d13b
00000040: a412 cebc 20d7 93bc 9e27 00bd b77c 12bd
00000050: af50 b4bd dd82 5fbc 41cd 993e c04a 933c
00000060: 04ca b23c 56ba 363e df8c a5bc d0c3 563d
00000070: 2d16 c1bc 0672 363c db7e c4bc ae58 12bd
00000080: f8ec 813c 600b 8b3b de89 a6bc e39d 92bb
00000090: a863 a03e 5c90 0dbd ab99 43bc 3b9b edbc
000000a0: f3a6 2bbc 86e3 55bc 105a 263c dca8 963b
000000b0: 5459 103e a90d b4bc c5c1 67bc 4ef9 a7bb
000000c0: 1c47 073c 4ed3 beba a3e5 cdbc b0c4 81bc
000000d0: 4cdb eabb 4a0e 97bb a5cd 723e b96a fbbc
000000e0: 1cf0 09bd ffe7 b83c 82d7 b33c 0363 483d
000000f0: 1b91 083e c3c6 da3a 4205 183e 97cc eabc
00000100: 1361 ef3a 60d3 c13d 9722 db3b eab4 00bd
00000110: 44b1 953c 06a6 053c a3b8 933c bcf4 6e3d
00000120: d18b 13bd 5676 99bc 5385 95bb b221 653d
00000130: 289f 71bc 1d6a 50bc ffab e23b 5331 38bc
00000140: 7f98 193e 365a 323d 7946 ccbc 8ee0 44bc
00000150: f9f7 10bd 9b26 213c 0ff5 a4bb cf6c d4bc
00000160: 4b34 0a3c 00b8 efbc c46e b6bb 2b51 1e3e
00000170: 52de 0fbd bb92 87bb d68c abbc 190b c1bc
00000180: b5de e0bc db78 fabc 67c7 2e3d 50c1 98bc
00000190: 0753 983e 2438 d83d 81ea 0dbd fb7f 0fbc
000001a0: b2d6 d2bc b36b 10bd 1a14 06bc df8e 4ebd
000001b0: cafb 8a3e 6d28 0dbd f6df 8e3e 0f09 eebc
000001c0: cf99 e5bd d87f 023c d9cc 41bd dd11 87bc
000001d0: 74b0 063e 2e43 c73b 85d2 e9ba c4d0 14bd
000001e0: e4cd a43e 3d01 c83c 577d 923c c7f8 3e3e
000001f0: ba0d 833b e604 90bc 11f3 9cbc 595e 7b3e

fc2.weight f4 [4, 128]
-0.054088812 -0.04066941 0.04058134 -0.89316237 -0.059518036 0.027793374 0.032707848 0.007635086
0.064046964 -0.07979923 0.016082807 0.49685228 -0.036955673 -0.016443595 0.29352403 0.03657354
0.02168705 0.021436952 0.0512003 0.018564971 -0.040776376 -0.06117874 -0.9075914 0.05166799
-0.024389664 0.27954665 -0.022327494 0.51649714 -0.0016652524 -0.07181856 -0.024835648 0.014776718
0.012316892 0.006003699 0.019319637 -0.11032107 0.42619863 -0.027445514 -0.05623672 -0.040159438
-0.0668954 -0.010998018 0.049479276 0.06372835 -0.77070534 -0.022016268 0.07704018 -0.038325176
-0.06996694 0.004090557 -0.05025934 -0.071244374 0.021055385 -0.06226455 0.8202123 -0.021493122
-0.0033914095 0.0067622624 -0.0815725 0.291029 0.68719834 0.01936391 -0.7816817 -0.04192296
-0.009926463 0.3610892 -0.07423377 -0.035141986 -0.016288066 -0.06113709 -0.02761291 -0.7207537
0.0329061 0.026144255 0.04512721 0.18506119 -0.060280114 0.053305734 0.06636447 -0.0760143
-0.52100945 -0.13830996 -0.042574834 0.17846099 -0.014567237 0.01665997 -0.051756784 0.0237055
-0.05032237 0.078954436 0.049798343 0.7289212 -0.03136575 -0.06461038 -0.14064996 -0.015871119
-0.020920273 -0.065360725 0.07365694 0.0034306082 0.53602016 0.21204107 0.011530457 0.0060927984
0.024744822 -0.03070459 -0.08290653 0.063884914 -1.3304985 0.04492784 -0.19640492 0.059374202
0.12741022 -0.029966429 -0.74988353 -0.046923168 0.49787256 0.47733352 0.03354291 -0.015473613
0.22298299 -0.08163341 -0.07389804 0.92806536 -0.07591959 -0.033064198 -0.04914566 -0.9446068
-0.06594212 -0.03144972 0.62544847 0.54227686 -0.025899224 -0.048793208 -0.044253368 -0.052817725
0.025633397 -0.00026371135 0.02466319 -0.9096188 0.036995474 -0.061442796 -0.86232644 0.06200673
-0.042436756 0.01793649 0.29232454 0.02819661 0.009711675 0.019877372 -0.2118755 0.04533575
0.0041257143 0.6445146 0.021081068 -1.3244994 -0.030479295 0.07310202 0.015605252 0.0084379455
-0.07311592 0.013505936 0.07036202 -0.023695165 -0.1743137 0.024061242 -0.060824096 -0.058050543
0.016075088 -0.030707294 0.04822559 -0.04145465 0.414969 0.00095714745 -0.034396116 -0.05726273
0.069910355 0.053502973 -0.058016967 -0.06659366 0.018626468 0.011470295 -0.0018307987 -0.037818935
0.022526415 0.046924654 0.06985211 -0.82141227 -0.056097142 0.047667097 0.12181727 -0.015336825
0.052732736 -1.1627847 -0.05360103 -0.058634903 0.015919268 0.052436285 -0.0076213344 0.24315669
0.03761618 -0.027529364 0.008136058 -1.1038264 0.016760105 0.006642186 0.01620703 0.058069546
-0.7082271 -1.1347305 -0.0418668 -0.7649897 0.06358716 -0.06100801 0.038959812 -0.016544668
-0.039746255 0.035060182 -0.07766703 -0.734647 -0.03963117 0.026215056 0.59348696 0.017117757
0.08204224 0.059620358 0.52080363 0.051927283 0.107156 0.40887123 -0.025820928 -0.0009915079
0.002594797 0.06490734 0.056230728 -0.0081081875 0.053413715 -0.052655373 0.45988467 -0.014588464
0.059232663 0.001871918 0.7483638 0.028640335 -0.055907983 -0.6188276 0.033136263 -0.059732027
-0.029251125 -0.06677437 -0.03235373 -0.8427922 -0.07567409 0.017611736 -0.034832634 -0.5499985
00000000: 3b8c 5dbd f894 26bd 9f38 263d 4aa6 64bf
00000010: 2fc9 73bd eeae e33c aaf8 053d be2f fa3b
00000020: 0e2b 833d c76d a3bd 17c0 833c 6c63 fe3e
00000030: d55e 17bd b8b4 86bc c848 963e 23ce 153d
00000040: 0aa9 b13c 8c9c af3c 68b7 513d 9115 983c
00000050: 2105 27bd 8f96 7abd e957 68bf d0a1 533d
00000060: d5cc c7bc bd20 8f3e 26e8 b6bc 2839 043f
00000070: 9944 daba 9c15 93bd 2174 cbbc 0c1a 723c
00000080: cacc 493c adba c43b 3744 9e3c 03f0 e1bd
00000090: b536 da3e 6ad5 e0bc 7a58 66bd 397e 24bd
000000a0: 7500 89bd 0831 34bc c8aa 4a3d 0284 823d
000000b0: f24c 45bf 765b b4bc 3ec7 9d3d dcfa 1cbd
000000c0: d44a 8fbd 140a 863b bddc 4dbd 92e8 91bd
000000d0: 587c ac3c 1d09 7fbd 6ff9 513f 5812 b0bc
000000e0: 6942 5ebb f895 dd3b 7c0f a7bd c101 953e
000000f0: 3bec 2f3f 10a1 9e3c 4b1c 48bf 69b7 2bbd
00000100: 9aa2 22bc afe0 b83e e007 98bd 0bf1 0fbd
00000110: 8d6e 85bc e36a 7abd 7834 e2bc 5183 38bf
00000120: 8cc8 063d 7a2c d63c 4fd7 383d ae80 3d3e
00000130: 48e8 76bd 1d57 5a3d 18ea 873d 63ad 9bbd
00000140: e060 05bf 20a1 0dbe f362 2ebd 7abe 363e
00000150: 6cab 6ebc 7d7a 883c ecfe 53bd 0932 c23c
00000160: d41e 4ebd ddb2 a13d 59f9 4b3d 949a 3a3f
00000170: 5f79 00bd 7252 84bd 8b06 10be 2604 82bc
00000180: fe60 abbc d8db 85bd 73d9 963d 0ed4 603b
00000190: 9e38 093f 4b21 593e 3eea 3c3c 19a6 c73b
000001a0: a7b5 ca3c 3188 fbbc e6ca a9bd 18d6 823d
000001b0: c64d aabf 4106 383d 5f1e 49be 5d32 733d
000001c0: d377 023e 287c f5bc 5ef8 3fbf 8232 40bd
000001d0: 27e9 fe3e 0f65 f43e 4a64 093d 0985 7dbc
000001e0: a755 643e 6b2f a7bd db57 97bd b195 6d3f
000001f0: bb7b 9bbd 536e 07bd f64c 49bd c0d1 71bf
00000200: aa0c 87bd 6cd1 00bd 641d 203f a8d2 0a3f
00000210: 9c2a d4bc 63db 47bd 0543 35bd 6657 58bd
00000220: 21fd d13c bd42 8ab9 750a ca3c c7dc 68bf
00000230: 9188 173d 71ab 7bbd 6dc1 5cbf c5fa 7d3d
00000240: 2ad2 2dbd 8cef 923c 90ab 953e 94fc e63c
00000250: b81d 1f3c dfd5 a23c e4f5 58be fbb1 393d
00000260: 0031 873b e9fe 243f 34b2 ac3c 3289 a9bf
00000270: b7af f9bc 83b6 953d 2cad 7f3c 4f3f 0a3c
00000280: cdbd 95bd 0048 5d3c f619 903d 5d1c c2bc
00000290: 4a7f 32be 151c c53c b022 79bd 68c6 6dbd
000002a0: e7af 833c dd8d fbbc 3288 453d 5acc 29bd
000002b0: d176 d43e 14e9 7a3a f1e2 0cbd 538c 6abd
000002c0: 292d 8f3d ef25 5b3d 33a3 6dbd 4262 88bd
000002d0: 8996 983c e7ed 3b3c 69f7 efba 07e8 1abd
000002e0: 5189 b83c 1134 403d a00e 8f3d 1348 52bf
000002f0: 1ec6 65bd 933e 433d 557b f93d 4e47 7bbc
00000300: 48fe 573d 21d6 94bf c18c 5bbd 272b 70bd
00000310: 2069 823c 6ec7 563d 63bc f9bb 11fe 783e
00000320: 6c13 1a3d 4385 e1bc 1a4d 053c 2f4a 8dbf
00000330: 7d4c 893c b2a6 d93b 9bc4 843c 55da 6d3d
00000340: 5f4e 35bf d93e 91bf 867c 2bbd 5dd6 43bf
00000350: fc39 823d 89e3 79bd 5394 1f3d af88 87bc
00000360: f8cc 22bd 449b 0f3d e40f 9fbd d311 3cbf
00000370: 4b54 22bd f5c0 d63c c3ee 173f 8a3a 8c3c
00000380: c305 a83d 7a34 743d 6353 053f b4b1 543d
00000390: 9b74 db3d 9257 d13e 6986 d3bc 7cf5 81ba
000003a0: 780d 2a3b 24ee 843d 3152 663d 34d8 04bc
000003b0: 57c8 5a3d 29ad 57bd 0176 eb3e 7404 6fbc
000003c0: f39d 723d 255b f53a c594 3f3f 239f ea3c
000003d0: c5ff 64bd 7c6b 1ebf e4b9 073d 92a9 74bd
000003e0: 0ea0 efbc 00c1 88bd 5885 04bd 3bc1 57bf
000003f0: 04fb 9abd 7d46 903c aaac 0ebd b4cc 0cbf

fc2.bias f4 [4]
0.013791873 0.035475872 -0.16824652 0.010048763
00000000: 4ff7 613c 264f 113d d148 2cbe 91a3 243c
