cnn saved models/cnn_epoch0.pt (torch, 609323 bytes, 16 tensors)

conv1.weight f4 [32, 1, 3, 3]
00000000: dcfb 943e 145a 923e 9f20 78be e311 7bbe
00000010: 7173 9fbd 2c2e 1abe eea9 383d 8c83 17be
00000020: 8bb5 fb3d d404 9f3e 709b 6abc 4b9f 963e
00000030: bdb2 6d3e 0ee3 0d3e e5fe 12bb 447b 6b3d
00000040: 70cf 7d3e 0b70 ddbd eab2 513e 3dc6 0fbd
00000050: 717c 743e 310e 4bbe f9bb 9cbe ca30 983d
00000060: 911d 133d 9e47 7a3e 3e72 b3be 6dd4 f0bd
00000070: b609 7f3e 6ba3 403e 548b f63d a050 2dbe
00000080: 2d82 7ebe 319a 37be 36b4 723e 8488 21be
00000090: 1ba8 a2bc 2671 f8bd 53e0 b23d a32b 8dbe
000000a0: d001 383e 479d 693d 896a a03d 79fc 0bbb
000000b0: c1d6 573d 1f9b a03e fb9c 94be 9bfd 15be
000000c0: 5688 ee3d 957d 073e 2ed9 48bd f427 a3be
000000d0: c92a 5ebe b1dd 32be 8af4 3b3e da10 9abd
000000e0: 7e8a 9abe 5cae 763e eba2 9f3d f8fb 353e
000000f0: e388 33be f339 63bc 0d2b 1dbe 454e 6b3e
00000100: c1b3 2bbe cd5b 57be 1758 903e d0b3 093d
00000110: ee27 59be 42b7 6a3e 7009 5dbe 625a c73c
00000120: c427 8c3c 10db e63d 1345 d1be 9ca1 30be
00000130: 19be f3bd d5cb 833d 1cfb 5c3e 3a38 d53d
00000140: 961b 543d 5ea4 7a3d 52da 86be 2088 953e
00000150: 7a12 91be 51f1 363e f29d 95be b1e2 383e
00000160: 67a6 c93d aad4 21be ceb7 9a3c 2c77 7abe
00000170: fe18 573d 7851 10be df3d dc3d a733 a4be
00000180: 2b45 803e 061d 5c3e 016a af3b 491c 1a3a
00000190: 7cb3 bc3d dbe1 3abe 9b97 403e b95c 0d3e
000001a0: 22d5 ecbd 211c 843e 50b5 ef3d acf2 abbd
000001b0: 86fa 8b3e 3b0d a83d 854e 86bd c896 9b3d
000001c0: fdd7 22be c851 1dbd bbd0 11bd 692b 943d
000001d0: 1e91 71be 1052 2bbe cbec 023e 0abd b9be
000001e0: 7bf5 5bbe b4ac a63b cd5d 523c ccef 4b3d
000001f0: 7102 a83d 70ae 903e 0abe 9d3e 62b1 a8be
00000200: 4c80 abbd b91d 7a3e b0fc 583e fa5b b4be
00000210: 80be 903e 9a7e d0bc 7b97 97be 7c95 0abe
00000220: 22de 6c3e 4ad9 bdbe ce25 573d 3a77 9cbe
00000230: 0e9d 2abd 2ab1 cc3e 0f9b 813d 195a 0abe
00000240: 2e39 2f3e 148f 473e 38a9 83be aa7b acbd
00000250: f84b 71be 164c 843e 242a b8be a0f4 b63e
00000260: b402 73bc 4a5d 78be b532 2fbd eba9 e33d
00000270: 489b 023e 3639 9ebe 53e8 9cbe 2277 d13d
00000280: cccf a43e f0f6 7c3e f49b 1fbd 0719 a03e
00000290: b388 4c3c 214b 623d fa42 eebd 7cf9 40bd
000002a0: a75a eabb faf3 69be c958 b1bb 8339 4d3e
000002b0: 6e48 483e df02 303e d849 07bf 30f9 5abe
000002c0: e1d6 093e 97dc b93d 3b43 443d 1c14 d03d
000002d0: 03de 7f3c 53e8 a3be 442c 823e 229e 2cbe
000002e0: b922 4e3d 5b19 203e 6192 5abe 55ee f83b
000002f0: b506 4f3e 4093 28be 3352 953e f9ec 963e
00000300: 5efa cd3d 9554 12be 9919 86be c43e 973d
00000310: d187 1dbd f727 8bbe 9b96 173e 6b1a c13d
00000320: 68ff 30be b2e0 b23e 6183 a0be ce73 0bbe
00000330: af5d 78be 8f15 1a3d 4b81 793e 7a6c 01be
00000340: 6f7d 17bd b877 5b3d 66f7 2fbd d2ef 21be
00000350: 0d2e 983e 8580 84be 039f ef3c 3d3f 723e
00000360: e694 65be 42dd f0bd a396 743e 2ebb 82be
00000370: 4fd7 fabc 2373 803e 4944 25be 941d 533e
00000380: 5666 ce3d 6660 b13e b309 71be 07fe 43be
00000390: a077 8b3e 8815 bbbe 83d3 593e 2a31 92bc
000003a0: afc6 a2be b800 853e c961 87bd d2a7 87be
000003b0: 23a7 4abe cb85 b43e 7ca4 5dbe 9e52 a6bc
000003c0: 3a7d 2fbe 895a 823e 99d4 a5bc 4948 9cbe
000003d0: f394 4dbe fc64 ca3d c06b c7ba 8075 313c
000003e0: 798f 1ebe 98ea ef3d 2635 a7bd 6f9e 993e
000003f0: 4978 92be 108b 5a3e 8994 c13e b1c6 7dbe
0.29098403 0.2858435 -0.24231194 -0.24518542 -0.077856906 -0.15056676 0.045083933 -0.14796275
0.12290486 0.3105837 -0.014319286 0.29418406 0.23212714 0.13856146 -0.002242976 0.057490602
0.24786162 -0.10812386 0.20478407 -0.035101164 0.23875596 -0.19829632 -0.30612162 0.07431181
0.03591687 0.24441382 -0.35048097 -0.11759267 0.24906048 0.18812339 0.120382935 -0.16925287
-0.24854346 -0.17929913 0.23701558 -0.15774733 -0.01985555 -0.12130956 0.08734193 -0.27572355
0.17969441 0.057034757 0.0783282 -0.0021360202 0.05269504 0.31368348 -0.29026017 -0.14647524
0.11647098 0.132315 -0.049035244 -0.3186642 -0.21696009 -0.17467381 0.18355003 -0.075227454
-0.30183786 0.2408995 0.07794746 0.177719 -0.17532687 -0.013868797 -0.15348454 0.22979076
-0.1676779 -0.21031113 0.28192207 0.03361875 -0.21206638 0.2292147 -0.21585631 0.02433509
0.017108805 0.112722516 -0.40873012 -0.17249149 -0.119014926 0.06435362 0.21580166 0.10411115
0.05178412 0.06119191 -0.2633844 0.29205418 -0.2833441 0.17865492 -0.29222065 0.18055226
0.09846192 -0.15803781 0.018886473 -0.24459523 0.05251407 -0.14093578 0.107539885 -0.32070658
0.2505277 0.21495447 0.005353213 0.00058788486 0.092139214 -0.1825022 0.18807833 0.13804902
-0.11564089 0.2580271 0.117045045 -0.08395895 0.27339572 0.082056485 -0.06557945 0.075971186
-0.15902705 -0.03840807 -0.03559945 0.07234842 -0.23590514 -0.16730523 0.12785642 -0.36277038
-0.21480362 0.005086506 0.012839747 0.049789235 0.08203591 0.28258085 0.3080905 -0.32947832
-0.0837408 0.24425401 0.21190143 -0.35226423 0.2827034 -0.025450993 -0.29607758 -0.13533586
0.23131612 -0.3707984 0.052526288 -0.30559713 -0.041653685 0.39978915 0.06328403 -0.13510932
0.17111656 0.19488174 -0.2571504 -0.084220245 -0.23564136 0.258393 -0.3596965 0.3573351
-0.014832187 -0.24254337 -0.042772967 0.11116394 0.12754548 -0.30903023 -0.30646 0.10227801
0.32189786 0.24703574 -0.038967088 0.31269094 0.0124837635 0.05524743 -0.116338685 -0.047112927
-0.00715192 -0.22846976 -0.0054121953 0.2004147 0.1955888 0.17188595 -0.5284705 -0.2138412
0.13460876 0.09075277 0.04791568 0.101600856 0.015616897 -0.32013187 0.25424397 -0.16857198
0.050326083 0.15634672 -0.21344902 0.0075967708 0.20217402 -0.16462421 0.29164276 0.2947767
0.100575194 -0.14290078 -0.26191404 0.073850185 -0.038459603 -0.27178928 0.14803545 0.09428867
-0.1728493 0.34937054 -0.31350234 -0.13618395 -0.24254487 0.037618216 0.24365728 -0.12639037
-0.036984857 0.05358097 -0.042960547 -0.1581414 0.29722634 -0.25879303 0.029250627 0.23656936
-0.22420081 -0.117609516 0.23885588 -0.25533432 -0.030620245 0.25087842 -0.1613933 0.20616752
0.10078113 0.3464386 -0.23538856 -0.19139872 0.27239704 -0.36539865 0.21272092 -0.017845709
-0.3179221 0.2597711 -0.06610448 -0.26495224 -0.1979032 0.35258326 -0.21644777 -0.020303067
-0.17137614 0.25459698 -0.020242976 -0.305239 -0.20076351 0.098825425 -0.0015214607 0.010831237
-0.15484418 0.11714667 -0.08164434 0.30003688 -0.28607395 0.2134211 0.37808636 -0.24782826

conv1.bias f4 [32]
00000000: 4642 8fbe db62 273e 0a2d 933e b01e 0ebe
00000010: c494 bd3e 2717 823e caa2 503e fa98 8d3e
00000020: 83fe 443e 8d47 583e caca ec3d 9cd7 0d3e
00000030: 3fc1 a43e e997 a03d 2acf 5ebd b2a5 45be
00000040: be8e 6e3d 09e5 953e ff4b acbe 862e 0d3e
00000050: 82fe 963e f5b5 e93c 7f88 bd3e 0d71 b4bd
00000060: c51c 343e 38ce 56bd 3708 4ebe 3993 3f3d
00000070: 0852 233e 05d9 b6bc ce7f 55be f66c 853d
-0.2798025 0.16346304 0.287453 -0.13878894 0.37027562 0.2540829 0.20374599 0.27655774
0.19237714 0.21121044 0.115621164 0.1385178 0.32178685 0.078414746 -0.054396786 -0.19301489
0.0582416 0.29276302 -0.3365173 0.13787279 0.2949105 0.028529147 0.370182 -0.08810625
0.175891 -0.05244276 -0.20120321 0.04677126 0.15949261 -0.02232028 -0.20849535 0.06514923

BN1.weight f4 [32]
00000000: 5689 803f 7f12 333f ce59 743f ecca 823f
00000010: e7fc 5a3f ab82 683f 0903 823f dee5 8d3f
00000020: f0ce 823f dc17 643f 3c69 763f 1857 463f
00000030: e638 813f 5ae4 823f df7f 893f 64b6 6d3f
00000040: 0c00 4d3f 217a 4f3f 1ab6 6e3f 8058 423f
00000050: 7ba8 873f 7e75 743f e6f7 883f 4848 883f
00000060: 9e5c 813f 85f7 8d3f edf7 5f3f 4b85 823f
00000070: cdcd 7e3f 3d38 833f 2e30 813f ebd0 793f
1.0041912 0.699501 0.9544953 1.0218177 0.8554215 0.90824383 1.0157176 1.1085775
1.0219402 0.89098907 0.96254325 0.77476645 1.0095489 1.0225937 1.0742148 0.9285643
0.80078197 0.8104573 0.93246615 0.7591629 1.0598291 0.9549178 1.0700653 1.0647058
1.010639 1.1091162 0.8748768 1.0196928 0.9953278 1.0251538 1.0092828 0.9758441

BN1.bias f4 [32]
00000000: 63ba cabd 08de e7bd 49fe 83be 5018 1dbe
00000010: 4c34 4bbd 6cc4 2abe 6f5a 123c 0741 94bd
00000020: 26dc 2bbe 2364 29be 01ae 86be c839 9cbd
00000030: bda2 eabd 82b6 02be 8d9f b7bd 34aa 23be
00000040: fb2a 29be eff2 2cbe d2b1 41be 4266 32be
00000050: ab2c 41be 23cf 54be 5efb 7bbe f5ca c4bd
00000060: d174 27bd 3749 63be 693d 60be 8960 04be
00000070: 9830 9dbb ec14 c9bd 4bef 88be 824b 3dbe
-0.09898832 -0.11321646 -0.25779942 -0.15341306 -0.04961042 -0.16676491 0.008932694 -0.072389655
-0.16783199 -0.16542105 -0.2630463 -0.076282084 -0.11456821 -0.12764934 -0.08965979 -0.15982896
-0.16520302 -0.16889547 -0.1891549 -0.17421821 -0.18864696 -0.20782141 -0.24607608 -0.096090235
-0.04088289 -0.22195898 -0.21898426 -0.1292745 -0.0047970526 -0.09818444 -0.26745066 -0.18485835

BN1.running_mean f4 [32]
00000000: 5f7d 9bbe 6f98 c03e d786 893e 4725 1dbe
00000010: 54b3 c03e 1d3f 103e f5e4 4b3e acb3 8c3e
00000020: 57b5 293e fca0 333e a563 d13d f604 5c3e
00000030: dfc4 a13e 833b 303d 9bb1 7abd 8392 75be
00000040: 677d 833d 2d9a 943e 98fb b1be ed25 2e3e
00000050: 6733 953e 414a cc3b 4ac1 bd3e 798b b6bd
00000060: 1cb1 343e 97c6 7abd d25a 87be 2023 953b
00000070: 629e 103e 190c 77bd ecd6 56be 5379 1e3d
-0.30369088 0.37616298 0.26860687 -0.15346251 0.37636817 0.14086576 0.19911559 0.2748083
0.16573082 0.1754188 0.10224084 0.21486267 0.31595513 0.043025505 -0.061204534 -0.23981671
0.06420403 0.29023877 -0.34762263 0.17006655 0.2914078 0.0062344377 0.3706153 -0.08913321
0.17645687 -0.061224546 -0.26436478 0.0045513064 0.14122918 -0.06031427 -0.20980424 0.038689923

BN1.running_var f4 [32]
00000000: 3d5f 433b 7957 3e3d 9322 573b a26f 123b
00000010: 2d8b ef39 ead1 713c c90b dd3a 48ba ea3a
00000020: 005b 763b b3f2 183b 44bb 6a3b 1002 fe3b
00000030: 36c8 0b3b 9c99 bd3b d4e9 2d3b 1ff5 b93b
00000040: ecae 163a 9c4b b63b 3477 0f3b 4a71 8f3b
00000050: 3865 8a3a 5a86 933b 067f 033a 498e 9e3a
00000060: 6e00 fe3a ab62 ac3a 66bf d93b 39bf b63b
00000070: b348 8e3b b743 913b 1abe 3f3a 986e 173c
0.0029811405 0.04647014 0.0032827004 0.002234437 0.00045689326 0.01475952 0.0016864474 0.0017908299
0.0037590861 0.002333802 0.0035817185 0.0077517107 0.0021329052 0.005786134 0.0026537078 0.0056749727
0.0005748111 0.0055632126 0.002189112 0.004377519 0.001055873 0.0045021 0.00050161814 0.0012096848
0.001937879 0.0013151964 0.006645131 0.0055769947 0.0043421625 0.004433121 0.0007314399 0.009242676

conv2.weight f4 [64, 32, 3, 3]
00000000: 5d74 0bbc 72dc c43d 6089 42ba b9c0 1e3c
00000010: a79e e8bb 2e7f eabd 1799 2cbc db15 a73d
00000020: 894e 2abd af17 d839 167a 13bb d2af 6ebb
00000030: a6ec dd3b 03a5 87bd 2353 98bc bae1 073d
00000040: 86f7 0a3c ea8c dcbc 1635 ea3d 627f 173e
00000050: 0d3b 803d 6822 cd3c 1546 6a3d b212 173c
00000060: d36b 7c3d 0976 d03d 652b 043e b514 b13c
00000070: f9d2 023e 3361 a53c 38bd c6bd c8d9 ad3d
00000080: 3435 573d 613d 153c 754f d83d 1f44 bb3d
00000090: 35e3 863d b9f7 86bc cdf8 bbbc 16d5 7abc
000000a0: 219e aebc e07e 443c dc63 5d3d 1eb8 b43c
000000b0: 0d1c 3f3d 734b c6bd f3be 81bd 062a a4bd
000000c0: 0fcd 20bc c179 32bd 6669 313c 9aa9 943d
000000d0: 66ec b83c 0e56 02bc e652 3c3d 5ff6 db3d
000000e0: 0f46 6e3c c020 113d 8145 093d fb32 d03d
000000f0: 8241 bfbd 7907 c0bd e71d 04be f698 f9bc
00000100: 3342 c43c ee19 0f3d fef6 0cbc d4d9 aa3b
00000110: 8483 50bd f2a8 5e3d 81d9 df3c 7653 cf3c
00000120: 0b01 1c3c ca90 eb3a 63ea bebb d4ca 053d
00000130: e097 583d ef38 083d d81d 43bc 4043 8d3c
00000140: dd9c 7bbc 759e 8bbd 2cee 51bd 5dc7 fabd
00000150: 3827 c2bd dbe9 a5bc f6cd 54bd 8fde a73c
00000160: 7a69 49bd fb5d 06bd 4648 303e 4a49 1a3e
00000170: 9fa9 ea3d 81c4 103d 09c1 ac3d 61de d73d
00000180: cee0 1d3d 7965 603d 673c be3d 0fd6 80bd
00000190: deca b63b 0ae6 d03c 42b6 e1bc c259 5a3d
000001a0: f65a 1e3d 2ff0 1d3d f2cb 363c e9e5 083c
000001b0: d326 aa3b d7b7 3f3d e20e 34bc 1f73 8e3a
000001c0: 1866 13bd 4026 ecbd f65c 633b 58d4 393d
000001d0: de69 e03d fc54 e83c 215b 4bbd a837 a8bd
000001e0: 9151 d4bc 017f d63b db91 54bd 9acf 1fbd
000001f0: 10fa 993d 0eac 4a3c aede 20be c6b5 37bd
00000200: 5472 b5bd 1884 09bc 67a4 72bc c8be 03be
00000210: ae2f faba b306 0b3d cdd1 5bbc 5fd5 b8bc
00000220: a6db 183d dd6c c4bd b039 39bd 940d 033d
00000230: 49bf be3c a02e a03c fd2f 3d3d dd8e 21bc
00000240: 77a7 e13b 0345 aebc 0c72 1bbc 1411 d4bc
00000250: 2c48 01bd e95a 97bc f9f1 b4bd a397 85bc
00000260: 498a b1b9 3ee6 583d 0935 7c3c 9af1 d63d
00000270: 09ab a53c 6dda 923d 875b 963d 8651 f63d
00000280: 9c56 053e 575a 1d3d 778c 11bc df3e 823c
00000290: 48f6 12bc 653a bfbd b67c 03be a287 02be
000002a0: 4d8c d43d 3439 603d b2fc 2d3d 122e e2bc
000002b0: 862d f73c 4b56 7abd d84d 44bd 2c57 88bd
000002c0: d5c1 c8bd b29e f03c 26d3 3abd ccea b43c
000002d0: d701 f13c 742c 2bbd 7326 4abe 81b8 02be
000002e0: 0a3d 7ebd 401c c7bd 2939 65bc a452 a63a
000002f0: 0547 3dbd bdd4 e13d d44c e03d d679 b33d
00000300: d926 4bbc 5f16 973b 12ef 4a3d c472 ed3d
00000310: f147 283e df1e 0e3e 3873 a23b b933 7d3d
00000320: 7ff0 713d 1d2e c1bd cb81 9fbd ec33 d7bd
00000330: 9d31 3cbd 91c9 a1bd 4676 99bd 9519 0fbc
00000340: 0b1e 98bc d320 f4bc 55f9 43bd dc70 2cbc
00000350: 9f1b aabc 5217 a3bd bfcd 91bc d956 53bd
00000360: 80af 4b3d 44f5 e23c 140c c43d 3603 72bd
00000370: 6e4c 24bd e087 613d f738 fabb cb63 e53c
00000380: 51f1 f13c 00bb 56bc 592a 133c 4a26 d33c
00000390: cf31 43bd 2186 3fbd cfba 82bd 6f4b 78be
000003a0: 1da0 5fbe 9122 53be d497 9ebd 160f c1bd
000003b0: 44ea d8bd b577 febd 3fb1 53bd 0c2e 17bd
000003c0: 6b93 aabc 1373 e7bd b4ce e0bd 6696 56bd
000003d0: a11a 83bd 855c 2cbe ea22 893c 202c 0ebc
000003e0: 5847 453d 2a0f 143c 568a 1c3c ed88 26bd
000003f0: 767b 5d3c 3586 ce3c 4b94 723c 14cb debb
-0.00851163 0.09612359 -0.0007420983 0.009689503 -0.007098991 -0.11450039 -0.010534546 0.081584655
-0.041578803 0.00041216376 -0.0022503189 -0.0036420715 0.0067725955 -0.0662327 -0.01859433 0.033174254
0.008481866 -0.026922662 0.114359066 0.14794686 0.06261263 0.02504082 0.05719574 0.009220766
0.061626267 0.101787634 0.12907179 0.02161632 0.12775792 0.02018795 -0.09704059 0.08488804
0.052540973 0.009108872 0.1056203 0.091438524 0.06586305 -0.016475545 -0.022945786 -0.015309593
-0.021315636 0.01199314 0.05405031 0.02206045 0.04665761 -0.096823595 -0.06335249 -0.08015828
-0.009814515 -0.043573145 0.010828352 0.072589114 0.022573661 -0.007955087 0.045977496 0.10740351
0.01454307 0.035431623 0.03351355 0.10165974 -0.093386665 -0.09376425 -0.12902032 -0.030468445
0.023957347 0.034936838 -0.008603809 0.0052139554 -0.050906673 0.054360338 0.027325394 0.025308352
0.009521733 0.0017972228 -0.005826281 0.032664135 0.052879214 0.03325742 -0.011908971 0.017243981
-0.015357223 -0.06817333 -0.05125253 -0.12245057 -0.09480137 -0.020253113 -0.051954232 0.020491866
-0.049172856 -0.03280447 0.1721507 0.1506702 0.11458134 0.03534365 0.08435256 0.10540462
0.03854447 0.054784272 0.092888646 -0.062908284 0.005578383 0.025500316 -0.027552728 0.053308256
0.038660966 0.038559135 0.011157023 0.008355596 0.0051926165 0.046806183 -0.010989876 0.0010868049
-0.035986036 -0.11530733 0.003469286 0.045368522 0.109576926 0.028360836 -0.049647454 -0.082137406
-0.0259178 0.0065459018 -0.05189691 -0.039016344 0.07518399 0.012370123 -0.15709946 -0.044851087
-0.08859697 -0.00839331 -0.014809704 -0.12865746 -0.0019087696 0.033941936 -0.01341672 -0.02256268
0.037318848 -0.095910765 -0.04522103 0.03199537 0.023284571 0.019553483 0.046188343 -0.009860721
0.0068864184 -0.021273142 -0.00948764 -0.02588705 -0.03156297 -0.018475967 -0.08835215 -0.016307658
-0.000338631 0.05295395 0.015393504 0.104953006 0.020223157 0.07170568 0.07341676 0.12027268
0.1302132 0.038416233 -0.008883587 0.01589912 -0.008969851 -0.0933731 -0.12840542 -0.12747052
0.10378323 0.054742053 0.042477317 -0.027609859 0.030173074 -0.06111745 -0.0479258 -0.06657252
-0.098025955 0.029372547 -0.045611523 0.022084616 0.029419823 -0.04179044 -0.1974123 -0.12765695
-0.06206993 -0.09722185 -0.013990679 0.0012689424 -0.046210308 0.11026905 0.10952154 0.08763473
-0.012399399 0.004610821 0.0495444 0.115941554 0.16433693 0.13878964 0.004957583 0.061816905
0.059067246 -0.094326235 -0.07788428 -0.1050795 -0.045945752 -0.07899774 -0.07493262 -0.008734127
-0.018569013 -0.029800808 -0.047845203 -0.010524955 -0.020765124 -0.07963432 -0.017798303 -0.051596496
0.049727917 0.027704842 0.09572616 -0.059085093 -0.04011195 0.05506122 -0.0076361853 0.028001687
0.029534014 -0.013106108 0.008982264 0.025775094 -0.047654923 -0.046758775 -0.06383287 -0.24247526
-0.21838422 -0.20618655 -0.07743803 -0.094267055 -0.105915576 -0.12425176 -0.051682707 -0.036909148
-0.020822247 -0.113012455 -0.109769255 -0.052389525 -0.064015634 -0.16832168 0.016740281 -0.008677512
0.04816374 0.0090368185 0.009554466 -0.040657926 0.013518205 0.02521048 0.014805864 -0.006799111

conv2.bias f4 [64]
00000000: 287f 4ebd dbcc 133b f502 e5bc 67e3 4cbc
00000010: 8da9 073d 38a3 0fbc 340c ab3c d775 9f3d
00000020: b1d6 cabc 5acf d4bc 302b 7fbc 168d 9e3c
00000030: b9fb 8e3d 1e39 55bb a2c2 e13c e7d1 5bbd
00000040: c799 363c fa26 c7bc 5a04 2bbd 3708 033d
00000050: a9a6 573d 3e77 883c f8f3 21bd 84f8 05bd
00000060: c50d d2ba e3f2 393d e4f6 613b 9b1d 373d
00000070: 6e61 18bd ec86 ff3b 38e6 10bc 64b5 903d
00000080: 23a8 16ba 8837 753c 9ecd d7bc c297 1bbd
00000090: dff7 453c 968d 1d3d 0829 33bd 28c6 48bd
000000a0: d161 023d 69c8 01bc 8f14 fbbc 904e 0abd
000000b0: b0a1 febc 9447 0a3d d91c 963b 7c19 82bd
000000c0: 5f96 a53c e798 c83c 522c f6bc 78a0 fc3b
000000d0: d210 b53c 8a93 663c 4d2c 203d 1556 a43d
000000e0: 47b8 7fbc 1a09 c13c b1cc 03bd 8c57 f1bc
000000f0: ac70 613d adc5 1a3d 2f55 c63b d572 debc
-0.050414234 0.0022552523 -0.027955512 -0.012505389 0.03312068 -0.008766942 0.020879842 0.07786148
-0.024760576 -0.02597778 -0.015574262 0.019354384 0.06981606 -0.0032535265 0.027558628 -0.053666975
0.011145062 -0.024310578 -0.041752197 0.031990256 0.052649174 0.016658422 -0.039539307 -0.032707706
-0.0016025832 0.04539765 0.0034479434 0.04470597 -0.03720229 0.0077980664 -0.008843951 0.070658475
-0.00057471 0.014966853 -0.026343163 -0.037986524 0.012083023 0.038465105 -0.043740302 -0.0490171
0.031831566 -0.007921317 -0.030649452 -0.03376633 -0.031082958 0.03375967 0.0045810756 -0.06352517
0.020213304 0.024486972 -0.03005043 0.007709559 0.022102747 0.014073262 0.03910475 0.08024231
-0.0156079 0.02356391 -0.03217763 -0.02946069 0.055039093 0.037786175 0.006052635 -0.027154366

BN2.weight f4 [64]
00000000: bb38 943f d976 7d3f 4b76 993f 480b 8b3f
00000010: adb5 803f e0d1 8b3f 559a 6c3f e4c6 843f
00000020: caea 8d3f 9522 9c3f 8ea4 7b3f 97fe 7d3f
00000030: bee3 a33f e199 8e3f bba1 903f b760 7e3f
00000040: 1ece 8c3f a370 853f 625f 8c3f 66c3 8e3f
00000050: dfa7 893f 5b31 843f 1858 893f 057f 903f
00000060: e688 903f 083a 9d3f 63db 853f 39b1 963f
00000070: 99c6 8d3f c5a0 913f 5b22 973f bb8e 783f
00000080: 715d 853f cec6 7c3f 0de6 873f 99bf a43f
00000090: f7fc 813f da60 883f 4a2b 803f e84f 933f
000000a0: d525 8d3f efdd 843f ff5b 853f 6a0d 883f
000000b0: 3fa6 963f 8077 8f3f 9d7d 823f d232 893f
000000c0: 7e41 8f3f f729 893f 9ea3 823f 701a 863f
000000d0: 2ed7 923f 58fc 6b3f b58e 8e3f a1e7 8c3f
000000e0: b515 7c3f e4cf 9b3f a6af 833f 12de 853f
000000f0: a8a8 853f f433 963f 3f8a 923f 63b6 8d3f
1.1579813 0.9900947 1.1989225 1.0862818 1.0055443 1.0923424 0.9242299 1.0373197
1.1087277 1.2198054 0.98297966 0.992166 1.2803876 1.114071 1.1299356 0.99366325
1.1000402 1.0424999 1.0966609 1.1153381 1.0754355 1.0327562 1.0730009 1.1288763
1.1291778 1.2283335 1.0457577 1.1772834 1.1076232 1.1377188 1.180736 0.9709279
1.0419141 0.9874085 1.0617081 1.2870971 1.0155324 1.0654557 1.0013211 1.150876
1.102717 1.0380229 1.04187 1.0629094 1.1769484 1.1208344 1.0194584 1.0718634
1.1191862 1.0715932 1.0206182 1.0476818 1.1471918 0.9218192 1.1137301 1.1008188
0.9847062 1.2172818 1.0287979 1.0458395 1.0442095 1.1734605 1.1448439 1.1071285

BN2.bias f4 [64]
00000000: b410 c5bd 8aee bfbd 4c2f 1abe 9443 c0bd
00000010: f888 cdbd 8f7b 0dbe 67a2 fbbd 080e 02be
00000020: 6ee7 b2bd ec8e 50be d380 b8bd 81f2 01be
00000030: baed 7dbd 5815 97bd 5cca 07be dc20 15be
00000040: 0bc6 eebd 730c 07be 5926 ccbd 5c50 06be
00000050: f1a9 10be 203c 29be 38a3 d6bd de46 87bd
00000060: dd49 88bd 9eeb f4bd 9b56 25be b98f 05be
00000070: ca9a 25be 6a49 0dbe 5b3a b6bd ce17 d7bd
00000080: 5e86 15be 0165 15be 1412 01be 9410 1bbd
00000090: ee01 0cbe 5940 7ebd 34b7 b4bc dd51 22be
000000a0: a044 97bd d4c9 c8bd 602c 0abe 6e90 1dbe
000000b0: fe52 d7bd a61a f2bd e9c0 0bbe 281a 32be
000000c0: 91fb bcbd 95a7 96bd 3227 c9bd 6f03 1bbe
000000d0: 41b7 60be cbc0 d6bd 0860 30be 671b ecbd
000000e0: fcdf a3bd 54b6 41be cb4e e8bd a645 a9bd
000000f0: 710d e3bd e165 bfbd a7a8 b9bd 0da4 05be
-0.096223265 -0.093716696 -0.15057105 -0.093878895 -0.1003589 -0.13816665 -0.12286835 -0.12700665
-0.08735548 -0.2036702 -0.09008946 -0.12690164 -0.06199429 -0.07377118 -0.13260788 -0.14563316
-0.116588674 -0.13188343 -0.09968252 -0.13116592 -0.14127328 -0.16526842 -0.1048035 -0.06605314
-0.06654713 -0.11959003 -0.16146319 -0.13043107 -0.16172329 -0.13797536 -0.08897849 -0.10502587
-0.14602038 -0.14589311 -0.12604553 -0.037857607 -0.13672611 -0.062073085 -0.022060014 -0.15851541
-0.07386136 -0.09804121 -0.1349349 -0.15387127 -0.105138764 -0.11821489 -0.13647808 -0.1739279
-0.0922767 -0.073561825 -0.09821929 -0.15138029 -0.21944906 -0.10485991 -0.17224133 -0.11528664
-0.08001706 -0.18917209 -0.113431536 -0.082652375 -0.11086548 -0.09345604 -0.09065371 -0.13050862

BN2.running_mean f4 [64]
00000000: f64c d1be 40bb 95bf 3c89 8cbd 8aa2 83bf
00000010: 6ba3 25bf efe6 ce3d 9210 50be 1faa e4be
00000020: d435 743b ffb4 673d 93ca 9bbf 6b6e 8bbf
00000030: 1bea a93d 5de1 babe 2ae1 ab3e d5fb 983e
00000040: 9f6b ae3e 8b59 74bf d98f febd 7feb 50be
00000050: d3c8 3bbf a322 dfbe ff4b abbd 39f9 b3bd
00000060: 97f3 f3bc 5078 103e 0358 1abf 0aba 833d
00000070: de14 fc3d 0bd9 093e 47fc 57be ac5d 03bf
00000080: aad6 9ebe f688 09bb f7a6 28bf 298c ac3d
00000090: b504 97be 20e9 93bf fc52 863d 5c20 c53d
000000a0: 6df9 0fbe 985f e5be 0efb e0be 13dc e8bd
000000b0: fd68 f73a 8bb5 e03d 00f1 00be f093 2a3e
000000c0: 50cf 95be 01d7 d13d 3846 66bf a267 42bf
000000d0: d9fe f3bd ce06 a43d 4d7b 87bc b86d 033f
000000e0: 5f57 b9bf 70b0 e63d 361a 84bf ed93 0abf
000000f0: 6188 1bbb 365c 94be 3cb5 4fbd d0a5 ad3e
-0.4087903 -1.1697769 -0.06862113 -1.0283978 -0.6470248 0.10102641 -0.20318821 -0.44661042
0.003726353 0.056569096 -1.2171196 -1.0893072 0.08296605 -0.36500064 0.33570224 0.29879633
0.34066483 -0.9544913 -0.124297805 -0.20402335 -0.7335331 -0.43581113 -0.083641045 -0.0878777
-0.029779239 0.14108396 -0.60290545 0.064319685 0.123086676 0.13461702 -0.2109233 -0.51314807
-0.3102315 -0.0020986176 -0.6587977 0.08425171 -0.2949578 -1.1555519 0.06558797 0.09625313
-0.14059992 -0.44799495 -0.4394154 -0.11370101 0.0018875893 0.109721266 -0.12591934 0.16657996
-0.2925973 0.10246087 -0.89950895 -0.7593938 -0.11913843 0.080091104 -0.016538287 0.5133929
-1.4479789 0.112641215 -1.0320499 -0.54131967 -0.0023732411 -0.289766 -0.050709948 0.33915567

BN2.running_var f4 [64]
00000000: 03ad 2f3f e0ec 3540 4423 863f 0f05 b93f
00000010: 7cfd e13f c52a 3e3f 05d7 f03f 4be9 6d3f
00000020: 2323 773f a781 7d3f 9988 2f40 bfe2 0a40
00000030: 1d97 723f 6ae5 953f 7759 c23f 073f 8e3f
00000040: 9fe9 963f f990 353f d180 4c3f 0c8f 303f
00000050: 383a b43f 0d54 9a3f ea49 423f 8603 813f
00000060: 527b c53f c4c7 473f 8a08 8b3f ea41 993f
00000070: b97f 663f bbc4 3d3f b021 6a3f 433f b13f
00000080: 5daa 9e3f 4124 323f 0b91 773f 8c91 ac3f
00000090: 5a32 953f 74cc dd3f 0dfe b13f 3c17 3c3f
000000a0: d335 863f 2e68 953f 2064 8e3f 30ea 443f
000000b0: 3b64 9f3f 3c21 7b3f 0320 7d3f 8aa7 663f
000000c0: 07c8 8d3f f46e b83f 44cb 9f3f f7fb bc3f
000000d0: 868d 5a3f e21f a73f 7c3f 483f 7773 683f
000000e0: 4376 6940 de1a 573f d2eb 9a3f b1a4 bc3f
000000f0: da9f 7a3f be64 4a3f 3bf7 413f 2572 843f
0.6862337 2.8425827 1.0479512 1.4454669 1.7655482 0.7428401 1.8815619 0.929341
0.9653799 0.9902596 2.7427123 2.1700895 0.9476183 1.1710637 1.5183553 1.1112984
1.1790045 0.70924336 0.7988406 0.6896827 1.4080267 1.20569 0.75894034 1.00792
1.5428259 0.78039193 1.0861981 1.197324 0.9003864 0.7412831 0.91457653 1.3847431
1.2395741 0.6958657 0.96705693 1.3481917 1.1655991 1.7328019 1.3905655 0.7347295
1.0485176 1.1672418 1.1124306 0.7691984 1.2452463 0.98097587 0.9887697 0.90099394
1.1076669 1.440886 1.2483907 1.4764394 0.853722 1.3056605 0.7822187 0.90801185
3.6478431 0.8402537 1.2103217 1.473776 0.97900164 0.7905997 0.7576787 1.0347334

fc1.weight f4 [128, 1024]
00000000: efcd b4ba 3fa6 fbbc f1b4 4dbc 7bd7 a7bc
00000010: 7fbf 4cba 01dd 1bbc e04b 11bd 5eaa 00bc
00000020: 643e f0bc 6df1 8ebc 85d9 163c 015d c23c
00000030: f9a5 b03b 4a35 8f3c 86cb 9b3c 1c41 11bd
00000040: 8d9f 4ebc 302b 5cbc 5392 1b3c fe09 83bc
00000050: ad0b 31ba a2c5 29bc 3b82 49bc f350 623c
00000060: ee9b 633c 74eb 00bc ad10 e7bc 1ae7 8f3b
00000070: d297 d7ba eb4e e5bc 8c8d 9bbc 875d 4b3b
00000080: ea1c 893a 5b74 babc 794f 7b3c ed57 7bbc
00000090: 57ad 473c bf22 a4bc 9063 efbc 26a7 d23a
000000a0: e4cd c93c 5d3f 583c 7c14 adbc ffd1 f5bc
000000b0: 323a 55bc 135b 8bbc 2bb4 c63b 47cc 0cbd
000000c0: c906 88bc 3214 2bbc 2130 743c 2b5d c63b
000000d0: 10eb b63c accd 99bb c4bb a0bc 3a89 0a3b
000000e0: 4002 25bb 77f0 06bd 47a0 d6bc dd4b ffbc
000000f0: b0f1 59bc ec71 0abd 799c 07bb 1979 623c
00000100: da70 213c 025f bb3c 548c 84bc adb3 b2bc
00000110: 9d0b a9bb 7d47 f1bb f29f 9f3c a7c2 0abd
00000120: 2ee0 15bd d3af f5bc c519 a2bc 588c 283c
00000130: 7b58 65bc 9c3f a03b 7132 ecbc 8531 ca3c
00000140: 4b9d 323b 390f 3e3b 7195 c63c 89d0 093c
00000150: 40cb 953b 4441 03bc a884 073b 27a2 06bc
00000160: 25a8 a9bb f542 dfbc 896f 933c cc25 2b3c
00000170: 9481 b9bc 1af7 953c 4937 babc 4199 17bc
00000180: f8e4 86bc be44 173c ffa6 3c3b 1a8c a5bc
00000190: 7a62 923b 6275 c43b 7dd4 c0ba 18f9 283c
000001a0: 54c4 2dbc c6ea 2b3c 4960 bf3c 08c3 9dbc
000001b0: b46e f53b d047 ec3b 262c b8bb dc32 6fbc
000001c0: b691 173c 74ce 373c 646f 783c 80c7 3fbc
000001d0: 076e 09bd 1828 8bbc 34dc 0bbd 1435 c43c
000001e0: f6d4 10bd 9ba7 3e3c f03b d3bc 1d1f 04bd
000001f0: 2414 233c e8d7 f8bc ba78 e5bc 14f8 9f3a
00000200: 46d1 02bd 0cc5 9f3c a6e5 acba 01df bfbb
00000210: f5d3 b43c dbe6 aabc 7544 bebc 1360 53bb
00000220: d1eb 593c 0d4b cb39 f21d 1a3c f3f4 13bd
00000230: 024d 40bc b85b fab9 d01c 293c 46af acbc
00000240: 8014 b4bc 0301 e3ba c078 25bc cdc1 7fbc
00000250: a7cb 953c ba87 a9bc 5746 0c3c f99f 963c
00000260: 9fac afbc 6ea0 8e3c 14ca c23b 899b 85bb
00000270: d538 0dbd f604 843b 0e6d 9e3c 2096 0fbc
00000280: 5a7e 973c 96f2 cebb 6f45 59bc 201f 70bc
00000290: 5d8d 05bc f833 9bbc 1eac aebb 9e50 d1bb
000002a0: 6138 03bd fbad a8bc 8acb ba3c 07c1 c0bb
000002b0: 1edf c5bb feb3 1a3c 7f50 933c 7a4a 17bd
000002c0: e4a5 0fbd a0a2 0bbc 7f72 8dbc 66a1 02bd
000002d0: fc93 f8bc 7f30 cc3b 9d9a 323c 5e0f 01bc
000002e0: 7e32 6ebb 796f e5bc 13d1 dfbc 83af 07bd
000002f0: c6c5 f3bb 1414 12bd 57c7 d2bb 3d1e 873c
00000300: 2ea1 90bc 1018 04bd 0788 c6bc 5b57 0f3c
00000310: 71c3 c4bc 44b4 c0bc 4a5c b4bc 5446 b1bc
00000320: d1fa 933c 3612 81bc aeed bb3c 0e73 0e3c
00000330: d593 2ebc 4d7e 01bd 3b41 8c3c 2319 ac3c
00000340: 031d 22bc fe5c 9e3c 1b73 3fbc 6554 08bd
00000350: 6da9 10bd eec5 84bc ce76 953b 0fd2 7e3c
00000360: af22 ab3c f583 be3c 6f4d c43b a06c 02bd
00000370: 6f7c b73b cf15 f8bb 9069 54bc 25eb 9c3c
00000380: e51b dbbb 1197 b4bc a135 b33c 713f 433c
00000390: d3c1 caba fe46 953c 511c fabc 14df d0bb
000003a0: a810 05bd d9dd 33bb f17c 3f3b 538e 89ba
000003b0: d3a9 03bd 6788 d7bc 1c5a 0dbd b08e a43c
000003c0: ecf6 9abc 7f4f 913c 7a1f fbbc de63 8fba
000003d0: ab5c b53c efb7 47bc 84fa dfbc 40de 23bc
000003e0: f64b 923b e156 41bc da4a 363b f8fa 7ebb
000003f0: 92a6 febc 2d08 28bc 5795 94bc 20e9 af3c
-0.0013794283 -0.03071892 -0.012555347 -0.020488491 -0.00078105176 -0.009513141 -0.03547275 -0.007853119
-0.029326625 -0.017449105 0.009207134 0.023725988 0.005390879 0.017481465 0.019017946 -0.035462484
-0.012611282 -0.013438031 0.009495336 -0.015995976 -0.0006753754 -0.010362061 -0.012299116 0.013813245
0.013892157 -0.007868636 -0.028206194 0.004391563 -0.0016448444 -0.027991733 -0.018988393 0.0031031088
0.0010460888 -0.02276056 0.015338772 -0.015340787 0.0121873235 -0.0200361 -0.02922228 0.0016071543
0.02463431 0.013198701 -0.021127932 -0.03000736 -0.013014363 -0.017011201 0.006063958 -0.0343745
-0.016604798 -0.010441827 0.014904053 0.006053587 0.022328883 -0.0046937075 -0.019620784 0.0021138922
-0.0025178343 -0.03294417 -0.026199473 -0.031164104 -0.013302252 -0.03380005 -0.002069263 0.013822817
0.009853566 0.022872452 -0.016180195 -0.021814192 -0.005158855 -0.0073632584 0.019485448 -0.03387704
-0.036590748 -0.029991066 -0.019787678 0.010287367 -0.013998146 0.0048903953 -0.028832646 0.024681816
0.0027254398 0.0029000773 0.024241181 0.008411535 0.0045713484 -0.008011166 0.0020678435 -0.008217371
-0.005177515 -0.027253607 0.01799752 0.010446023 -0.022644795 0.018306304 -0.02273144 -0.009252847
-0.016466603 0.009232698 0.002878606 -0.020208407 0.0044673057 0.0059954384 -0.0014711764 0.010313295
-0.01060589 0.010492986 0.023361342 -0.019258037 0.0074900035 0.007210709 -0.0056204973 -0.014599528
0.009251049 0.011218656 0.015163276 -0.011705279 -0.033552196 -0.016986892 -0.03414555 0.02395109
-0.035359345 0.01163664 -0.025785416 -0.032256234 0.009953532 -0.03037639 -0.028011668 0.001220467
-0.03193786 0.019503139 -0.0013190999 -0.0058554416 0.022073725 -0.020862034 -0.023226002 -0.003225331
0.013300852 0.00038775094 0.009406554 -0.036122274 -0.01173711 -0.00047752052 0.010321811 -0.02107967
-0.021982431 -0.0017319027 -0.01009959 -0.015610171 0.018285586 -0.020694602 0.008561692 0.018386828
-0.021444617 0.017410483 0.0059444997 -0.004077379 -0.034478027 0.0040289117 0.01933911 -0.00876382
0.018492866 -0.0063155396 -0.013261183 -0.014655858 -0.008151379 -0.018945679 -0.0053305766 -0.006387784
-0.03203619 -0.020590773 0.022802133 -0.0058823857 -0.0060385605 0.009442328 0.01798272 -0.03693626
-0.035070315 -0.00852266 -0.01726651 -0.031892203 -0.030344002 0.006231367 0.0109011205 -0.007877199
-0.0036346014 -0.028007256 -0.027321374 -0.033126365 -0.007439348 -0.03566368 -0.0064324546 0.01649391
-0.017654981 -0.03224951 -0.024234785 0.0087488545 -0.024018975 -0.023523457 -0.022016663 -0.02163998
0.018063935 -0.015755754 0.022940483 0.008694423 -0.010655363 -0.03161459 0.017120948 0.02100808
-0.009894612 0.019331452 -0.011685158 -0.03328361 -0.035317827 -0.016207661 0.0045612818 0.015553012
0.020890562 0.023256281 0.005990676 -0.031841874 0.0055995504 -0.007570959 -0.012964621 0.019155094
-0.006686675 -0.02204469 0.021876158 0.011916981 -0.0015469141 0.018222328 -0.03053108 -0.0063742492
-0.032486588 -0.0027445464 0.0029218758 -0.0010494686 -0.03214438 -0.026310159 -0.034509763 0.02008757
-0.01891657 0.017738102 -0.030654658 -0.0010939797 0.022138914 -0.012189849 -0.027341135 -0.010001719
0.0044646217 -0.011800499 0.002781561 -0.0038906913 -0.031085286 -0.0102558555 -0.018137617 0.021473467

fc1.bias f4 [128]
00000000: 6516 283c 4d4d 4fbc dfe5 6b3c 6220 af3c
00000010: 99b6 dd3b cef3 c63c 2405 ad3c 24c9 fbbb
00000020: 9ca2 7cbc 1538 0d3b 5ce4 a03c a8a2 bb3c
00000030: 3682 5f3c 8d4b 00bd 87ac 3ebc 0aaa 973c
00000040: a412 cebc 20d7 93bc b3ce 7abc b77c 12bd
00000050: 229f 10bd dd82 5fbc 73c6 703d c04a 933c
00000060: 04ca b23c a6cb 893d df8c a5bc 237f 2c3c
00000070: 2d16 c1bc 0672 363c db7e c4bc ae58 12bd
00000080: f8ec 813c 600b 8b3b de89 a6bc a9d6 b73c
00000090: d40a 803d 5c90 0dbd ab99 43bc 3b9b edbc
000000a0: f3a6 2bbc 86e3 55bc 105a 263c dca8 963b
000000b0: 4db9 ee3b a90d b4bc c5c1 67bc 4ef9 a7bb
000000c0: 1c47 073c 4ed3 beba a3e5 cdbc b0c4 81bc
000000d0: 65dd 8a3c 4a0e 97bb 8c2d 4e3d 0276 e9bb
000000e0: 1cf0 09bd ffe7 b83c 82d7 b33c 6fba 6c3c
000000f0: 9843 d73b c3c6 da3a 697e e63c 97cc eabc
00000100: 1361 ef3a b28f 103d 9722 db3b bfcb cdbb
00000110: 44b1 953c 06a6 053c a3b8 933c 8e97 e63b
00000120: d18b 13bd f802 453c d2b6 58ba 4a28 2b3d
00000130: 289f 71bc ea7a 13bc 7432 863c 5331 38bc
00000140: dd46 013d 45aa e53c 2662 de3b a23f fe3b
00000150: f9f7 10bd 9b26 213c 0ff5 a4bb cf6c d4bc
00000160: 4b34 0a3c aa20 fa3b c46e b6bb f6e6 e23c
00000170: 52de 0fbd bb92 87bb cc4a dfbc 190b c1bc
00000180: b5de e0bc db78 fabc e8aa d93c 50c1 98bc
00000190: f0e2 7e3d 6ede 833c 81ea 0dbd fb7f 0fbc
000001a0: 05b6 293c b36b 10bd cf6b 953c 395a 9abc
000001b0: 413c f13c 6d28 0dbd 22da 193d 0f09 eebc
000001c0: 2e32 79bc 631a 973c 91a0 11bc dd11 87bc
000001d0: b938 353c 0f08 bc3c 85d2 e9ba c4d0 14bd
000001e0: 9e16 843d 3d01 c83c 577d 923c d31f 153d
000001f0: ba0d 833b e604 90bc 11f3 9cbc 6f25 3d3d
0.0102592455 -0.012652707 0.014398067 0.021377746 0.006766152 0.024286177 0.021120615 -0.00768389
-0.0154196285 0.002154832 0.01964014 0.022904709 0.013641885 -0.03132205 -0.011637813 0.018513698
-0.025155373 -0.018046916 -0.01530807 -0.03576347 -0.03530801 -0.01364204 0.058783006 0.01797998
0.021824844 0.06728296 -0.020208774 0.010528359 -0.023570145 0.011135584 -0.02398627 -0.035729103
0.015860066 0.0042432994 -0.020329412 0.022441225 0.06252065 -0.0345615 -0.011938493 -0.029004684
-0.0104768155 -0.013054734 0.0101533085 0.0045977663 0.007285273 -0.02197917 -0.014145319 -0.005126155
0.0082567 -0.0014558823 -0.025133913 -0.015840858 0.016951272 -0.0046098577 0.050336406 -0.0071246633
-0.03367625 0.022571562 0.021953348 0.014448746 0.006569337 0.0016691316 0.028136449 -0.02866201
0.0018263183 0.03529329 0.006687473 -0.006280392 0.018273003 0.008157259 0.018032378 0.0070371097
-0.03602201 0.012024634 -0.00082669884 0.04178647 -0.014747418 -0.009001473 0.01638148 -0.011242229
0.03156172 0.028035292 0.0067866025 0.0077590505 -0.035392735 0.009835864 -0.005034096 -0.02593079
0.008435319 0.0076332884 -0.0055674035 0.027698021 -0.03512413 -0.0041373647 -0.027257346 -0.023564862
-0.027449945 -0.030575207 0.026570752 -0.018646866 0.062228143 0.016097274 -0.03464747 -0.00875854
0.010358338 -0.03525896 0.018239884 -0.01884185 0.029447677 -0.03446238 0.037561543 -0.029057054
-0.015209718 0.0184452 -0.00888838 -0.01648801 0.011060887 0.022953061 -0.0017839229 -0.036331907
0.064496264 0.024414653 0.017882032 0.036407303 0.003999439 -0.01758046 -0.019158872 0.046178278

fc2.weight f4 [4, 128]
00000000: 3b8c 5dbd f894 26bd 7420 8a3c a3f1 90be
00000010: 2fc9 73bd d5a2 863d f362 71bc ddda 5c3c
00000020: 0e2b 833d c76d a3bd 2e9e 0d3d a58b 333e
00000030: d55e 17bd b8b4 86bc cdbe 373e e3bd 6c3d
00000040: 0aa9 b13c 8c9c af3c c148 193d 9115 983c
00000050: c478 95bb 8f96 7abd 2dc3 9ebd d0a1 533d
00000060: d5cc c7bc a382 d93d 26e8 b6bc 9e29 3a3e
00000070: 9944 daba 9c15 93bd 2174 cbbc 0c1a 723c
00000080: cacc 493c adba c43b 3744 9e3c 9e96 a1bd
00000090: ced9 933d 6ad5 e0bc 7a58 66bd 397e 24bd
000000a0: 7500 89bd 0831 34bc c8aa 4a3d 0284 823d
000000b0: 7aba 7bbe 765b b4bc 3ec7 9d3d dcfa 1cbd
000000c0: d44a 8fbd 140a 863b bddc 4dbd 92e8 91bd
000000d0: 1e3f 523d 1d09 7fbd f43e 293e 509d 1abc
000000e0: 6942 5ebb f895 dd3b 7c0f a7bd 7ad5 123e
000000f0: 496b d93d 10a1 9e3c 2be0 73be 69b7 2bbd
00000100: 9aa2 22bc 11fc 0d3e e007 98bd cd07 71bd
00000110: 8d6e 85bc e36a 7abd 7834 e2bc 58fd 51be
00000120: 8cc8 063d d06f 093d 3326 563d d253 d23d
00000130: 48e8 76bd 4687 863d 6338 883d 63ad 9bbd
00000140: a1ee 00be ce38 fc3c 5fd4 97bd b9c0 393e
00000150: 6cab 6ebc 7d7a 883c ecfe 53bd 0932 c23c
00000160: d41e 4ebd 0e2a 953d 59f9 4b3d e45c 253e
00000170: 5f79 00bd 7252 84bd 0f06 16ba 2604 82bc
00000180: fe60 abbc d8db 85bd edb8 623d 0ed4 603b
00000190: 5471 b53d 57e3 0d3e 3eea 3c3c 19a6 c73b
000001a0: 0e5b 013d 3188 fbbc 6b48 a9bd 0f4a 833d
000001b0: a0f4 7ebe 4106 383d 3ce6 7bbd 5d32 733d
000001c0: 81a7 223e a405 8ebc 82cd e7bd 8232 40bd
000001d0: 86d3 133e c8da 513e 4a64 093d 0985 7dbc
000001e0: b3eb 733d 6b2f a7bd db57 97bd e3b2 0c3e
000001f0: bb7b 9bbd 536e 07bd f64c 49bd c46d 95bd
00000200: aa0c 87bd 6cd1 00bd 2f69 553d 4808 ab3d
00000210: 9c2a d4bc d3d0 3abd d2c8 93bd 0edc 29bd
00000220: 21fd d13c bd42 8ab9 bc3f 883d 01ce 37be
00000230: 9188 173d 71ab 7bbd 8161 07be 015c 923c
00000240: 2ad2 2dbd 8cef 923c 2573 fa3d 94fc e63c
00000250: c3ad 663d dfd5 a23c 4dbb deba fbb1 393d
00000260: 0031 873b ab5c c33d 34b2 ac3c 719e 04be
00000270: b7af f9bc 83b6 953d 2cad 7f3c 4f3f 0a3c
00000280: cdbd 95bd 0048 5d3c f619 903d b7d4 62bd
00000290: 00f4 9fbd 151c c53c b022 79bd 68c6 6dbd
000002a0: e7af 833c dd8d fbbc 3288 453d 5acc 29bd
000002b0: 1b0a e53d 14e9 7a3a f1e2 0cbd 538c 6abd
000002c0: 292d 8f3d ef25 5b3d 33a3 6dbd 4262 88bd
000002d0: 647f 4d3d e7ed 3b3c 5fdc a2bd ffff 013c
000002e0: 5189 b83c 1134 403d a00e 8f3d 2b33 21be
000002f0: 562e 0a3d 933e 433d 71ac 213c 4e47 7bbc
00000300: 48fe 573d fee0 f7bd c18c 5bbd 7c3a 1cbd
00000310: 2069 823c 6ec7 563d 63bc f9bb dfe9 373d
00000320: 6c13 1a3d c9ff f03c 0082 0fbd f63f 77be
00000330: 7d4c 893c d273 e2b8 896e 6d3c 55da 6d3d
00000340: c23c 11be 7486 16be 64ab 26bc 6b32 1cbe
00000350: fc39 823d 89e3 79bd 5394 1f3d af88 87bc
00000360: f8cc 22bd a95a eb3c e40f 9fbd 86e1 f0bd
00000370: 4b54 22bd f5c0 d63c fed2 72bc 8a3a 8c3c
00000380: c305 a83d 7a34 743d 0ac1 e23d b4b1 543d
00000390: 95ba ac3c 24ea 7a3d 6986 d3bc 7cf5 81ba
000003a0: 4331 17bb 24ee 843d 0ab3 853d 0c74 a93c
000003b0: 3583 61bc 29ad 57bd f282 793d 7404 6fbc
000003c0: 3162 3f3d a257 38bd e407 273e 239f ea3c
000003d0: 50a7 12bd f206 1dbe e4b9 073d 92a9 74bd
000003e0: 6852 ea3b 00c1 88bd 5885 04bd 2f7e b1bd
000003f0: 04fb 9abd 7d46 903c aaac 0ebd d75a 4fbd
-0.054088812 -0.04066941 0.016861178 -0.28309354 -0.059518036 0.065740265 -0.014733064 0.013479915
0.064046964 -0.07979923 0.03457468 0.17533739 -0.036955673 -0.016443595 0.17943878 0.057798278
0.02168705 0.021436952 0.0374229 0.018564971 -0.0045615155 -0.06117874 -0.077520706 0.05166799
-0.024389664 0.1062062 -0.022327494 0.18179938 -0.0016652524 -0.07181856 -0.024835648 0.014776718
0.012316892 0.006003699 0.019319637 -0.07890056 0.07219277 -0.027445514 -0.05623672 -0.040159438
-0.0668954 -0.010998018 0.049479276 0.06372835 -0.24582854 -0.022016268 0.07704018 -0.038325176
-0.06996694 0.004090557 -0.05025934 -0.071244374 0.051329724 -0.06226455 0.16527921 -0.00943692
-0.0033914095 0.0067622624 -0.0815725 0.14339247 0.10616166 0.01936391 -0.23815982 -0.04192296
-0.009926463 0.13865687 -0.07423377 -0.05884533 -0.016288066 -0.06113709 -0.02761291 -0.20506799
0.0329061 0.0335539 0.052282523 0.10269894 -0.060280114 0.0656877 0.0665138 -0.0760143
-0.1259103 0.030788805 -0.074135534 0.18139924 -0.014567237 0.01665997 -0.051756784 0.0237055
-0.05032237 0.07283412 0.049798343 0.16148716 -0.03136575 -0.06461038 -0.00057229487 -0.015871119
-0.020920273 -0.065360725 0.05535214 0.0034306082 0.08859506 0.13856255 0.011530457 0.0060927984
0.031580977 -0.03070459 -0.08265766 0.0641061 -0.24898005 0.04492784 -0.061498865 0.059374202
0.1588421 -0.017336674 -0.113184944 -0.046923168 0.14436159 0.20493615 0.03354291 -0.015473613
0.059550952 -0.08163341 -0.07389804 0.13740115 -0.07591959 -0.033064198 -0.04914566 -0.07296327
-0.06594212 -0.03144972 0.052102264 0.08351189 -0.025899224 -0.045609307 -0.07216038 -0.041469626
0.025633397 -0.00026371135 0.06652781 -0.17949678 0.036995474 -0.061442796 -0.13220789 0.017866137
-0.042436756 0.01793649 0.12228993 0.02819661 0.056318056 0.019877372 -0.0016993076 0.04533575
0.0041257143 0.095391594 0.021081068 -0.12951066 -0.030479295 0.07310202 0.015605252 0.0084379455
-0.07311592 0.013505936 0.07036202 -0.055378642 -0.07810211 0.024061242 -0.060824096 -0.058050543
0.016075088 -0.030707294 0.04822559 -0.04145465 0.11183568 0.00095714745 -0.034396116 -0.05726273
0.069910355 0.053502973 -0.058016967 -0.06659366 0.050170317 0.011470295 -0.07952189 0.007934569
0.022526415 0.046924654 0.06985211 -0.15742175 0.033735596 0.047667097 0.009867773 -0.015336825
0.052732736 -0.12103461 -0.05360103 -0.038141713 0.015919268 0.052436285 -0.0076213344 0.04490077
0.03761618 0.029418843 -0.035036087 -0.24145493 0.016760105 -0.00010798093 0.014491686 0.058069546
-0.14183334 -0.14699727 -0.010172699 -0.15253608 0.06358716 -0.06100801 0.038959812 -0.016544668
-0.039746255 0.028729754 -0.07766703 -0.11761765 -0.03963117 0.026215056 -0.014820812 0.017117757
0.08204224 0.059620358 0.110719755 0.051927283 0.021085063 0.06125845 -0.025820928 -0.0009915079
-0.0023070134 0.06490734 0.065282896 0.020685218 -0.013764192 -0.052655373 0.060915895 -0.014588464
0.046724502 -0.04500545 0.16311604 0.028640335 -0.035804093 -0.1533468 0.033136263 -0.059732027
0.007150937 -0.06677437 -0.03235373 -0.08666646 -0.07567409 0.017611736 -0.034832634 -0.05062374

fc2.bias f4 [4]
00000000: 47ee 923c 9737 96bc ad9b a9bd 2594 9fbc
0.017935885 -0.018337054 -0.08281646 -0.01947982
