cnn saved models/cnn_epoch1.pt (torch, 609323 bytes, 16 tensors)

conv1.weight f4 [32, 1, 3, 3]
000000 02 d2 97 3e 12 70 93 3e 22 9d 74 be aa 79 83 be
       0.2965241 0.2879644 -0.23888066 -0.2567876
000010 1c ad c0 bd 27 69 25 be 88 c3 93 3d 77 78 df bd
       -0.09408018 -0.16153394 0.07215029 -0.10911649
000020 3a 78 1c 3e 29 52 b3 3e 5a 62 39 3d 3e 39 ca 3e
       0.15280238 0.3502362 0.04525981 0.39496797
000030 04 8b 02 3e 88 0e c2 3d 60 23 5a 3d f0 f0 1d 3d
       0.12748343 0.09475428 0.053256392 0.038559854
000040 c2 4d 68 3e 56 c8 dd bd 09 aa 3c 3e c0 09 06 bd
       0.22685912 -0.10829227 0.18424238 -0.032724142
000050 bb 03 7d 3e 04 e1 61 be 54 c7 a3 be bb c1 a1 3d
       0.24708454 -0.22058493 -0.31988013 0.07898279
000060 17 f7 a2 3d 6d 10 86 3e 4b 80 a9 be 32 36 f1 bd
       0.07957285 0.26184407 -0.33105692 -0.11777915
000070 9c 1f 85 3e 80 2a 4f 3e 06 cb e4 3d 1f 93 35 be
       0.2600068 0.20231056 0.11171536 -0.17731903
000080 f1 cd 80 be a7 c8 31 be 38 24 6e 3e d1 fa 1e be
       -0.2515712 -0.17361699 0.23256004 -0.15525366
000090 db e9 2c bd ae 66 0c be 43 8b d0 3d 5b 0b 99 be
       -0.04221521 -0.13711044 0.10182812 -0.29891476
0000a0 ce 2f 42 3e 1c 51 98 3d bc 42 99 3d a4 28 d9 3c
       0.18963549 0.074373454 0.07483432 0.026508637
0000b0 9a 7e 2d 3d ce 75 8d 3e cb ba 9e be be 31 2c be
       0.042357065 0.2762894 -0.31001887 -0.1681585
0000c0 7d b0 fe 3d 82 64 31 3e 77 a5 c3 bc be 3b ac be
       0.12436006 0.17323497 -0.02388261 -0.3363933
0000d0 49 80 3f be 8b 5c 8f be 58 ed 12 3e ec 2f bf bd
       -0.1870128 -0.28000292 0.14348352 -0.09335312
0000e0 50 45 9d be 8c ca 73 3e 00 bd ea 3d 3d 66 6c 3e
       -0.30716944 0.23807734 0.1146183 0.23085876
0000f0 4b dd 57 be 12 b5 81 bc d3 69 00 be 21 0a 63 3e
       -0.2108051 -0.015833411 -0.12540369 0.22171833
000100 fa 3d 3a be bb a8 69 be 21 f3 8c 3e f9 64 69 3c
       -0.18187705 -0.22818272 0.27529243 0.014245265
000110 2d 6d 66 be fc 60 82 3e 2d 1b 53 be a4 65 06 3d
       -0.22502585 0.25464618 -0.20615835 0.032811776
000120 67 f3 08 3c ef 4d bc 3d f0 e9 e4 be db 88 24 be
       0.008358813 0.09194552 -0.4470973 -0.16067831
000130 21 08 e0 bd a0 07 66 3d 68 ea 54 3e f1 1d cf 3d
       -0.109390505 0.056159616 0.20792544 0.10113133
000140 ff ba 3e 3d 08 80 bc 3d a7 4c 88 be eb 25 a1 3e
       0.046565052 0.092041075 -0.2662098 0.31474242
000150 87 60 93 be 5d e6 0f 3e e5 d2 a0 be 1d b3 4b 3e
       -0.28784582 0.1405272 -0.314109 0.19892545
000160 33 01 d5 3d 13 21 1f be 4c 3b 23 3c c9 44 77 be
       0.10400619 -0.1553996 0.009962868 -0.24147333
000170 dd ce a9 3c cb a7 00 be 20 5a f0 3d 79 b7 b0 be
       0.020728523 -0.12564008 0.1173594 -0.3451498
000180 da 43 89 3e f4 58 5c 3e ba 48 d6 bc f3 a7 1b 3c
       0.2680958 0.21518308 -0.026157726 0.009500491
000190 b7 2c fd 3d ca 36 47 be 97 78 13 3e 2e c0 e4 3d
       0.12362044 -0.19454494 0.1440147 0.11169468
0001a0 f3 ed 3e be 37 9b 89 3e c2 d1 20 3d 15 96 15 be
       -0.18645458 0.26876232 0.03926254 -0.14608033
0001b0 ac b1 92 3e 1d 9f bf 3d 74 57 72 bd 61 5c 92 3d
       0.28651178 0.0935652 -0.059165433 0.07146526
0001c0 1a 6a 2d be e8 7f 6c bd 95 5d 77 bd b9 3d 3b 3d
       -0.16935006 -0.05773917 -0.06039198 0.04571316
0001d0 5a ec 82 be 60 21 4a be 4e 8d d1 3d 59 e2 c0 be
       -0.25570947 -0.19739294 0.1023203 -0.3767269
0001e0 2d 6f 58 be 65 69 29 3c 99 e6 41 3c c7 b4 60 3d
       -0.2113616 0.010340069 0.011834764 0.054859903
0001f0 24 b0 b6 3d 11 c4 90 3e c3 ee 9b 3e d3 6e ac be
       0.08920315 0.28274587 0.30455598 -0.33678302
000200 04 c0 aa bd 6e f8 70 3e ae ff 51 3e c4 8c b9 be
       -0.08337405 0.23532268 0.2050769 -0.36240208
000210 be ab 9c 3e 95 72 86 bb bb 22 98 be 92 18 ff bd
       0.3059978 -0.0041030147 -0.29713997 -0.12455858
000220 5e d5 62 3e 12 6a d1 be 4d ad 93 3d 94 01 93 be
       0.22151706 -0.40901238 0.07210789 -0.28712142
000230 a0 9c 2a bd 2f 34 d3 3e 51 3f 99 3d 53 50 04 be
       -0.041653275 0.4125075 0.0748278 -0.12921266
000240 da c9 51 3e 2e fc 43 3e 89 f3 8b be 09 a6 96 bd
       0.20487157 0.19139168 -0.2733424 -0.073558874
000250 c9 4d 80 be 60 f4 84 3e f7 17 b2 be 57 6d c2 3e
       -0.25059345 0.25967693 -0.3478391 0.37974045
000260 e5 3d b2 bc 07 a2 7c be b2 14 0f bd 36 a2 f9 3d
       -0.02175803 -0.24671184 -0.034931846 0.121891424
000270 98 32 f4 3d af 7b 9f be c9 6f 9c be ec 0a c5 3d
       0.119237125 -0.3114905 -0.30554035 0.09621224
000280 1d be ab 3e 43 3c 86 3e 6d 1a 10 bd b3 3d a7 3e
       0.33543482 0.2621785 -0.03518145 0.3266426
000290 4a 1e bc 3c 4f f1 6d 3d ce 7c f8 bd e5 0d 7b bd
       0.022963662 0.058091458 -0.121331796 -0.061292548
0002a0 2e 62 85 bc 22 d9 74 be 40 1e 9e bc 31 ba 61 3e
       -0.016282167 -0.23910955 -0.019301534 0.22043683
0002b0 ff 6b 3b 3e 66 57 13 3e e9 ea 06 bf 6a ab 72 be
       0.18302916 0.14388809 -0.52702194 -0.23698202
0002c0 ec 33 f8 3d d5 79 16 3e 3d f3 9a 3d 9b 66 0d 3e
       0.12119278 0.14694913 0.07565925 0.13808672
0002d0 63 5f 94 3c df 34 ad be 6d 21 83 3e 13 1f 2f be
       0.01811189 -0.338294 0.2561144 -0.17101698
0002e0 d9 e4 11 3d 5c c0 25 3e 99 e2 51 be 5b 76 04 3c
       0.035618637 0.1618666 -0.20496596 0.008084859
0002f0 67 25 55 3e f5 bb 2c be b7 96 98 3e 22 90 98 3e
       0.20815049 -0.16868575 0.29802486 0.29797465
000300 2a 09 d8 3d 4d bc 0a be 02 72 87 be 87 88 9f 3d
       0.10548623 -0.13548394 -0.2645417 0.077897124
000310 2e 65 21 bd 75 40 8f be 33 d7 07 3e 6b 68 d0 3d
       -0.039403133 -0.27978864 0.13265686 0.10176166
000320 ed 96 47 be 5d 34 be 3e 3b 3b 96 be 51 77 fa bd
       -0.19491167 0.37149325 -0.29342064 -0.12229789
000330 62 0a 87 be a6 64 76 3d 5e 0d 83 3e c4 03 05 be
       -0.2637511 0.06015458 0.25596136 -0.12989718
000340 c7 8d 35 bd dd 7c 67 3d 97 df 55 bd 81 e3 38 be
       -0.044324663 0.056515563 -0.052215185 -0.18055536
000350 26 3a 96 3e 39 11 7e be 0b 29 17 3d e0 5a 86 3e
       0.2934124 -0.24811257 0.036904376 0.26241207
000360 1a cc 67 be 51 a2 fb bd 10 a0 7b 3e 6d 5b 8a be
       -0.22636452 -0.12286819 0.24572778 -0.27022877
000370 da c5 21 bd 40 9c 83 3e d7 14 23 be 68 c0 5a 3e
       -0.039495327 0.25705147 -0.15925919 0.2136246
000380 55 8c e3 3d e2 d3 a4 3e d2 ba 80 be 1d 76 26 be
       0.111107506 0.32192904 -0.25142533 -0.16255994
000390 09 37 90 3e 8c 99 ca be 74 4d 60 3e 4e ef 78 3c
       0.28166988 -0.39570272 0.21904546 0.015193773
0003a0 eb 7e a9 be 33 17 85 3e 06 2f b0 bd 3e 8a a8 be
       -0.33104643 0.25994262 -0.08602719 -0.3291797
0003b0 69 1b 48 be e6 4a b8 3e 11 6c 6d be 8b 09 ab bc
       -0.19541706 0.35994643 -0.23185755 -0.020878574
0003c0 fd c3 10 be 45 5b 8a 3e 57 6d 7a bc 0c 00 a8 be
       -0.14137264 0.27022758 -0.015284858 -0.32812536
0003d0 1e e5 65 be 52 42 b5 3d d4 d9 8f 3b 02 19 41 3c
       -0.22450683 0.0885054 0.004389981 0.0117857475
0003e0 c2 9c 23 be ee 84 fd 3d 1d 05 a7 bd 84 96 95 3e
       -0.15977767 0.1237887 -0.08155272 0.29216397
0003f0 86 08 91 be 0d 86 66 3e 9f 7f cc 3e 96 e8 7b be
       -0.28326815 0.22512074 0.39941117 -0.24600443

conv1.bias f4 [32]
000000 e6 41 45 be 44 e7 34 3e 81 f7 95 3e 13 3b f8 bd
       -0.1926342 0.17666346 0.29290393 -0.121206425
000010 f4 dc 8e 3e ec f1 83 3e 66 a7 89 3e 38 48 77 3e
       0.2790295 0.2577051 0.26885527 0.24148643
000020 a8 e3 61 3e 85 80 13 3e 6f 93 06 3e 7e 8b 28 3e
       0.220595 0.14404495 0.13142179 0.16459462
000030 40 7d 89 3e a6 b6 d7 3d 5e a7 ac 3b 29 64 2d be
       0.2685337 0.10532884 0.005268975 -0.1693274
000040 5e b8 da 3d 84 84 bd 3e 54 15 af be 69 50 bc 3d
       0.106796965 0.37015164 -0.3419596 0.091950245
000050 bf ea 6a 3e c6 84 c2 bc 66 0b c4 3e 84 f1 1c be
       0.22941111 -0.023744952 0.38289946 -0.15326506
000060 d5 7f f1 3d 03 7c 90 3d 84 8a 64 be 6a 61 f5 3d
       0.1179196 0.07054903 -0.22318465 0.11981471
000070 04 40 7d 3e 93 ac ae bc 65 07 91 be 44 5a ba 3d
       0.24731451 -0.021322524 -0.28325954 0.09099248

BN1.weight f4 [32]
000000 e3 60 8a 3f 21 62 1c 3f 94 0b 7b 3f 45 23 7d 3f
       1.0810817 0.6108723 0.9806454 0.9888194
000010 c6 7d 60 3f ae 36 65 3f eb bb 85 3f 3f 60 91 3f
       0.87691915 0.8953656 1.0447973 1.1357497
000020 c7 ec 7a 3f d7 b4 5e 3f c2 3b 76 3f 1b d0 29 3f
       0.98017544 0.8699469 0.96184933 0.6633317
000030 7f 09 7f 3f 25 01 7b 3f 11 ec 88 3f 6b 37 5f 3f
       0.99623865 0.9804862 1.0697042 0.87193936
000040 19 5b 4b 3f 16 23 38 3f ff a8 64 3f 20 3c 40 3f
       0.7943588 0.71928537 0.8932037 0.75091743
000050 00 73 85 3f 8a e4 72 3f cf 9a 8b 3f fa 7b 87 3f
       1.042572 0.9487997 1.0906619 1.058471
000060 a8 b1 83 3f 7a 96 95 3f 62 2d 5a 3f d8 30 82 3f
       1.0288591 1.1686547 0.852255 1.0171156
000070 b2 32 83 3f 6c b9 80 3f ea c6 81 3f e6 b9 76 3f
       1.0249846 1.0056586 1.0138829 0.9637741

BN1.bias f4 [32]
000000 a8 97 db bd 92 bf d7 bd 33 67 7a be 4e fc 2a be
       -0.107222855 -0.10534586 -0.2445343 -0.16697809
000010 1b fa 1f be 94 a9 4d be 59 3a 28 bd a2 2f 5d bd
       -0.15622751 -0.2008422 -0.04107127 -0.054000504
000020 04 97 74 be d1 c8 76 be 2a 96 9a be be 4b d3 bd
       -0.23885733 -0.24100043 -0.3019269 -0.10317181
000030 88 92 ef bd 80 3b 47 be cc 17 f2 bd 6b c5 9d be
       -0.116978705 -0.19456291 -0.11820945 -0.3081468
000040 f3 85 aa be 63 61 23 be 0e 06 65 be b7 a0 a8 be
       -0.3330532 -0.15955119 -0.22365591 -0.32935116
000050 89 d5 5c be 36 60 70 be a2 dd dc be ed 7e fb bd
       -0.21565832 -0.23474202 -0.43137842 -0.122800685
000060 35 75 43 bc c3 47 88 be ba ff 96 be e0 e0 09 be
       -0.0119298 -0.2661725 -0.2949198 -0.13464689
000070 4a 4e 90 bd ef 21 d0 bd ef 61 a3 be 01 87 36 be
       -0.070461825 -0.10162722 -0.31910655 -0.17824937

BN1.running_mean f4 [32]
000000 63 96 51 be f1 05 dc 3e 4b db 8f 3e e4 45 0a be
       -0.20467524 0.42973283 0.28096995 -0.13503224
000010 b4 42 92 3e 6a e4 e2 3d 6e b7 88 3e 6f 88 6d 3e
       0.28566515 0.11078723 0.26702446 0.23196577
000020 48 99 34 3e 07 69 d8 3d 54 d1 da 3d d0 c1 4d 3e
       0.17636597 0.105669074 0.106844574 0.20093465
000030 c8 be 7d 3e 5c ad 60 3d 86 a7 ef ba 44 de 5b be
       0.24779809 0.05485283 -0.0018284179 -0.21471506
000040 51 32 f8 3d d4 7b bf 3e 54 ca b7 be 5c 9f 12 3e
       0.12118972 0.3739916 -0.35896552 0.14318603
000050 03 38 64 3e 87 4e 3a bd 57 7a c8 3e 95 7d 1e be
       0.22286992 -0.045485046 0.39155838 -0.15477593
000060 f9 fe f1 3d a0 46 70 3d d9 63 9c be 82 a4 77 3d
       0.1181621 0.058661103 -0.30544928 0.06045962
000070 8e 5f 65 3e c5 87 91 bd f3 0e 92 be 52 15 91 3d
       0.22399732 -0.07105974 -0.2852703 0.07084145

BN1.running_var f4 [32]
000000 59 9e 13 3b fd df 9a 3d 0c 13 29 3b 4f 9c 15 3b
       0.0022524802 0.075622536 0.0025798706 0.0022828763
000010 a8 7e 16 3a 6d 24 db 3c 5d 60 e5 3a a5 65 0b 3b
       0.0005740919 0.026750768 0.0017500032 0.0021270302
000020 32 cc a4 3b 9d 42 3a 3b ec 60 69 3b 7c 7d 33 3b
       0.005029225 0.0028421052 0.0035610748 0.0027388027
000030 51 ef 4d 3b 39 f9 ec 3b 58 1a 37 3b 55 57 ba 3b
       0.0031423161 0.007231858 0.0027939286 0.0056866803
000040 29 8f 30 3a 69 e4 8a 3b a4 22 29 3b 60 60 c1 3b
       0.00067352 0.0042386544 0.0025808 0.0059013814
000050 1a a6 93 3a 91 e7 8b 3b f7 b3 04 3a 3c 2f ac 3a
       0.0011264712 0.004269548 0.0005062217 0.0013136636
000060 f9 bc 03 3b e9 60 9e 3a 75 86 38 3c 1e ba f5 3b
       0.002010165 0.0012083325 0.011262526 0.0074989935
000070 94 e2 a3 3b c2 4f b6 3b 74 87 25 3a b8 31 01 3c
       0.0050013755 0.005563707 0.00063144346 0.007885389

conv2.weight f4 [64, 32, 3, 3]
000000 df bd 37 bd 47 e7 bb 3d e6 a5 79 bd 83 fe 88 3c
       -0.04485881 0.09174972 -0.06094923 0.016722923
000010 c2 a1 e9 3b 0a 3a 4a be dc 20 27 bd 66 c2 b5 3d
       0.0071298787 -0.19748703 -0.04080282 0.08874969
000020 9b 01 96 bd 5b 64 33 bd 8f 02 2a bd ae e2 11 bd
       -0.07324525 -0.04379688 -0.041506346 -0.03561657
000030 29 2a 13 bd df ab e7 bd bd f0 84 bd 30 b4 fe 3c
       -0.03592888 -0.11312079 -0.0649123 0.03109178
000040 da 1a 6f 3b c1 78 f9 bc f6 6b 8f 3d 56 4c 00 3e
       0.003648451 -0.030453088 0.07003014 0.1252912
000050 fd 3d 35 3d e2 8e b0 bb 3b 9f 51 3c f7 02 be bc
       0.04424857 -0.0053881267 0.012794311 -0.023194773
000060 3c d8 5d b9 00 c6 91 3d b0 f5 eb 3d 3e ee c8 bc
       -0.00021156756 0.07117844 0.115214705 -0.024527665
000070 2a 01 12 3e e4 c9 b1 3c 10 90 0f be 23 29 c4 3d
       0.14258257 0.021702714 -0.14019799 0.09578159
000080 f1 a6 75 3d ce c2 6a bb 43 34 0b 3e 26 1d ca 3d
       0.05997366 -0.003582168 0.13594155 0.09868841
000090 91 79 ab 3d 3a 02 5e bc 0a ba 3e bd ed 03 30 bd
       0.08372796 -0.013550336 -0.04656414 -0.042972494
0000a0 8e cc 46 bd 74 3f bd bc 27 04 02 3d 93 93 1e 3d
       -0.048534922 -0.023101546 0.03174224 0.038714956
0000b0 ec f4 7f 3d e3 a3 cb bd 1f 92 64 bd b4 af b9 bd
       0.062489435 -0.09943368 -0.055803414 -0.09066716
0000c0 c6 84 b1 3c 34 e2 21 bc 60 35 0a 3d a5 94 09 3e
       0.021669757 -0.009880591 0.03374231 0.1343561
0000d0 f2 9b ab 3d 1b 98 3b 3d 85 b2 c2 3d 33 e2 fa 3d
       0.083793536 0.045799356 0.09506706 0.12250175
0000e0 17 d5 4d bd 8e 01 22 3c 9a d1 54 3d e0 12 db 3d
       -0.050252046 0.009888066 0.051957704 0.106969595
0000f0 a6 7c 08 be 80 d1 c3 bd 53 eb 2c be 75 3f 11 bd
       -0.133288 -0.09561443 -0.16886644 -0.035460908
000100 e4 32 11 3d 76 a6 1b ba 1d 5c a5 3c bc f3 54 3c
       0.035448924 -0.00059375854 0.020185525 0.012997564
000110 83 ab 7d bd 4e 32 5c 3d 9f 34 37 3d 96 ef ac 3d
       -0.061931144 0.05375891 0.044727918 0.08444135
000120 70 6a 2c bd dd 5b e1 bb 60 b3 86 bd fe e4 2a bb
       -0.042093694 -0.006877406 -0.06577182 -0.0026076431
000130 6b 80 83 3d 6e fd 99 3c 55 a2 4d bd f6 f7 be 3c
       0.06420978 0.018797603 -0.05020364 0.023311596
000140 a3 e0 35 bd 00 01 78 bd 55 86 57 bd 56 f5 20 be
       -0.044403683 -0.06054783 -0.052618343 -0.15718588
000150 0f 2f e9 bd 59 0a c0 bc 3f 9b 82 bd 87 e0 9c 3a
       -0.11385929 -0.023442434 -0.06377267 0.001196877
000160 f6 bd 4e bd 2e f7 59 bd cb 99 44 3e 14 8d 32 3e
       -0.05047413 -0.053214245 0.19199292 0.1743663
000170 11 dc e0 3d 00 f0 a4 3c 49 87 d0 3d 5d de d8 3d
       0.10979474 0.020133972 0.101820536 0.105892874
000180 15 6c c9 bc 95 17 28 3d 5b b6 88 3d 8b e4 be bd
       -0.02458767 0.041038115 0.066754065 -0.09320935
000190 cb 25 12 bc 81 cc 83 bc 5e f9 b9 bc 8e e0 73 3d
       -0.008920143 -0.016088726 -0.022701915 0.059540324
0001a0 e8 ec bd 3c 29 5f 83 3d 05 7e 2a 3d 52 2d 23 3d
       0.023184255 0.06414635 0.041624088 0.039838143
0001b0 75 10 79 3c a2 ec a0 3d b1 cd 83 bc 8f 20 5e 3d
       0.015201678 0.07857634 -0.016089292 0.05423027
0001c0 72 96 a2 bb e5 4c 31 be 20 b1 0c bc 49 b3 89 3d
       -0.004961782 -0.17314489 -0.008587152 0.06723649
0001d0 08 3d e6 3d 50 ae 32 3c c1 02 9e bd 7d 0b 02 be
       0.112421095 0.010905817 -0.07715369 -0.12699695
0001e0 a9 c1 b1 bc 59 ec 8b 3c db 0b 2e bd 73 2f 18 bd
       -0.02169879 0.017080473 -0.042491775 -0.037154626
0001f0 3a 83 c4 3d e7 66 04 3d 26 2c 01 be b4 63 9f bc
       0.09595342 0.032324698 -0.12614498 -0.019456722
000200 d4 80 8b bd 85 2b 26 3d 12 27 12 3b 61 f6 19 be
       -0.068116814 0.040568847 0.002230112 -0.15035392
000210 f0 92 81 bc e5 15 57 3d 62 3e d4 3c a4 5d e1 bc
       -0.015817136 0.052511115 0.025908653 -0.027510472
000220 aa a0 70 3d 6a cc ed bd b5 66 27 bd 18 d9 88 3d
       0.05874697 -0.116112545 -0.040869433 0.06682032
000230 3b 34 1d 3d 40 6f fe 39 c0 c1 78 3d 38 61 bc bc
       0.03837989 0.00048529543 0.06073165 -0.022995576
000240 6c 5a 8e bd 8c d1 92 bd 20 ab 54 bd 76 da 9c 3b
       -0.0695084 -0.07168874 -0.05192101 0.0047867848
000250 ed c4 9f 3b e6 5b 80 bd 58 03 f5 bd b9 41 8e bc
       0.0048757703 -0.06267528 -0.119635284 -0.017365323
000260 97 5a 99 3c dc ea a3 3d 9e 20 5c 3c 76 c3 cf 3d
       0.018719954 0.0800378 0.013435511 0.10144703
000270 95 ed b1 3b 11 e6 64 3d a1 e8 95 3d b4 68 c8 3d
       0.0054299333 0.05588347 0.07319761 0.097855955
000280 78 80 fc 3d ba cc 37 3d 43 e4 79 bc cf 41 1d 3d
       0.12329191 0.044872977 -0.015252176 0.038392838
000290 b1 c9 5b 3d 2d 96 ec bd c6 73 46 be ae ee 4e be
       0.053659145 -0.11552081 -0.19380102 -0.20208237
0002a0 c8 c7 c4 3d 32 4d 88 3d bd 89 83 3d 4a ea ab bc
       0.09608418 0.06655349 0.06422756 -0.020985741
0002b0 01 2b 86 3d f8 2d 30 3c 35 72 02 bd 5f eb 9b bd
       0.06551171 0.010753147 -0.031847198 -0.07613253
0002c0 d9 b7 d4 bd f7 cd 03 3d da 1b e8 bc 62 e5 47 3d
       -0.10386629 0.032178845 -0.028333593 0.04880274
0002d0 77 86 ea 3d 5f 4a 44 bd f8 08 4f be 5d 5b 14 be
       0.114514284 -0.04792249 -0.20218265 -0.14487977
0002e0 39 8a df bd f0 eb f3 bd 89 67 3f 3c 5e 7d b1 3b
       -0.10915036 -0.11910236 0.0116824 0.0054165563
0002f0 63 ad b3 bc e7 e9 f9 3d 82 45 39 3e 46 ec 17 3e
       -0.021933263 0.122028165 0.18092921 0.14836225
000300 7d 33 45 bd 8d ec df 3c ff 8f 86 3d 53 ee d0 3d
       -0.048144806 0.027334476 0.06570434 0.10201707
000310 b6 c1 54 3e e4 aa 19 3e e2 29 a1 3c 9a 65 b2 3d
       0.2077702 0.15006596 0.019673292 0.08710785
000320 3e 1c c7 3d 66 87 9e bd 32 05 b2 bd e2 5b 84 bd
       0.09722184 -0.07740669 -0.08692397 -0.06462838
000330 92 a5 1a bd 66 72 ec bd 8c 16 bb bd f7 93 9c 3c
       -0.037755556 -0.11545257 -0.0913516 0.019113524
000340 66 02 9b bc d7 8c 62 bd 80 ae c1 bd 1d 71 22 bd
       -0.018922042 -0.055310097 -0.09457111 -0.039658654
000350 16 15 94 bd 2e a2 d3 bd 2f 01 49 bc f8 24 74 bd
       -0.07230584 -0.10333668 -0.012268349 -0.05960557
000360 42 e3 c0 3d 9c 9d 42 3d 28 01 e5 3d 8c f6 88 bd
       0.09418346 0.04751359 0.11181861 -0.0668765
000370 9d 7e 6a bd 63 ea 05 3d 6d 4b d3 bb e3 2b 36 3d
       -0.057249654 0.03269423 -0.0064482004 0.044475447
000380 e1 5a 64 3d 6e 53 d4 bc ac 5f ec bd 73 fc 0b be
       0.05575073 -0.025918689 -0.115416855 -0.1367052
000390 69 78 0c bd ec 8c 8d bd a3 2e a1 bd 00 73 84 be
       -0.03429452 -0.06911644 -0.078702234 -0.25868988
0003a0 c9 ef a1 be 20 ba 97 be d4 10 c8 bd d4 9f cc bd
       -0.31628254 -0.2963419 -0.09768835 -0.09991422
0003b0 59 98 eb bd a2 25 09 be 52 27 5e bd 7b 20 5d bd
       -0.115036674 -0.13393262 -0.054236718 -0.053986054
0003c0 7e 49 84 bd 0a db 05 be ca e1 0c be 06 19 71 bd
       -0.0645933 -0.13071838 -0.13758007 -0.058861755
0003d0 b7 51 c4 bd fc f9 62 be 3c d4 0e 3d 6f 08 1f 3c
       -0.09585898 -0.22165674 0.03487037 0.009706601
0003e0 eb 71 8e 3d dc fc e0 3b 6f be fa 3c 29 82 9a bb
       0.06955322 0.0068660807 0.030608384 -0.0047152233
0003f0 fa 2d fb 3b 00 45 69 3d e0 6b dd 3d cd 6c d8 bc
       0.007665393 0.05695057 0.10811591 -0.026419068

conv2.bias f4 [64]
000000 a8 08 50 bd c4 60 95 3c 49 43 a4 bc cf 9a 38 bc
       -0.050789505 0.018234618 -0.020051615 -0.011267378
000010 d9 c5 14 3d 6b 10 12 bc d9 48 b5 3c 05 c4 ac 3d
       0.036321495 -0.008915047 0.022129463 0.08435825
000020 1e e3 cd bc 87 a0 1b bd a1 ae 47 bc 03 63 0e 3d
       -0.025132712 -0.037994888 -0.012187631 0.034762394
000030 29 23 72 3d cb d3 f2 bc 1c 70 9d 3c 68 0a 3e bd
       0.059115563 -0.029642006 0.019218497 -0.046396643
000040 e9 bf 95 3c 8b a9 1a bd e7 14 e3 bc 4d e2 d8 3c
       0.018279986 -0.037759345 -0.027719928 0.026475096
000050 e1 e9 a1 3d 5a 6f 00 3d 94 c2 04 bd d1 a3 f8 bc
       0.07905937 0.031356193 -0.032412127 -0.030351551
000060 7b 44 88 bc e4 84 fc 3c cb 78 bf 39 43 7b 0b 3d
       -0.016634217 0.030825086 0.00036520357 0.0340531
000070 0d 39 2f bd 15 b3 19 3c be 15 ff bc bb 11 ae 3d
       -0.042779017 0.009381075 -0.031138297 0.084994756
000080 2a e2 d8 3b 9d 84 70 3b fe a6 91 3b 4f cd 06 bd
       0.0066187577 0.0036700137 0.004444956 -0.03291064
000090 4e 62 fb 3c 09 5f 23 3c 51 65 4a bd 5c c7 82 bd
       0.030686524 0.009971389 -0.04941303 -0.06385681
0000a0 2c f2 29 3d a1 65 ce bc 1f 1a c3 bc 5b af b8 bc
       0.04149072 -0.025194945 -0.023816166 -0.022544554
0000b0 e2 04 bb bc 88 7d 2e 3d 3a fb 92 3c e0 f4 a3 bd
       -0.022829477 0.042600185 0.01794206 -0.080056906
0000c0 7d da 02 3c a0 25 5d 3c 2d 36 72 bd cc c8 e6 3a
       0.007986662 0.01349774 -0.059133697 0.001760745
0000d0 95 24 2a 3d 41 bc 96 ba 91 5f 55 3d cc 85 91 3d
       0.041538794 -0.0011500196 0.052093092 0.07105598
0000e0 07 da 4c bc 15 34 9f 3c c3 f7 a7 bc ae 96 12 bd
       -0.012503154 0.019434014 -0.020503884 -0.03578823
0000f0 22 b1 61 3d d6 3d 00 3d 81 3b 14 3d 45 bd 0b bd
       0.055100568 0.03130897 0.03618956 -0.03411605

BN2.weight f4 [64]
000000 26 b3 97 3f ee 94 85 3f 4d 5f 9a 3f b3 60 8c 3f
       1.1851547 1.0436075 1.2060333 1.096701
000010 d5 92 80 3f 23 52 8f 3f b1 f9 69 3f f4 45 87 3f
       1.004481 1.1196941 0.91396624 1.0568223
000020 24 8a 8f 3f f3 f6 a2 3f 22 ef 82 3f f7 86 83 3f
       1.1214032 1.2731613 1.0229228 1.0275563
000030 19 da 9f 3f b3 89 91 3f c8 b4 93 3f d2 a5 80 3f
       1.2488433 1.1370147 1.1539545 1.0050604
000040 ee 1d 8e 3f 61 91 8c 3f 99 fe 90 3f 83 cd a1 3f
       1.1102884 1.0981866 1.1327697 1.2640842
000050 d8 a8 8b 3f 8a 82 81 3f 4a d8 9a 3f 68 58 93 3f
       1.0910902 1.0117962 1.2097256 1.1511354
000060 07 31 92 3f e8 40 b7 3f ca c1 86 3f 0b 91 9c 3f
       1.1421212 1.4316683 1.052789 1.2231764
000070 92 53 91 3f b6 a4 93 3f 8f d8 9b 3f 4f 01 7e 3f
       1.1353629 1.1534641 1.2175463 0.99220747
000080 f2 c0 84 3f e3 22 77 3f fc 15 86 3f bc e2 ab 3f
       1.0371382 0.9653761 1.0475459 1.3428569
000090 a7 73 86 3f 81 62 83 3f 39 23 80 3f 98 2a 95 3f
       1.0504044 1.0264436 1.0010749 1.1653624
0000a0 1c 15 8f 3f da ae 82 3f 15 3d 82 3f e5 65 87 3f
       1.1178317 1.020961 1.0174891 1.0577971
0000b0 99 f4 9c 3f ee aa 97 3f 99 bd 84 3f 99 15 88 3f
       1.2262145 1.1849039 1.0370361 1.0631591
0000c0 d7 f9 98 3f 1c 59 90 3f 54 61 7d 3f 61 0f 84 3f
       1.1951245 1.1277194 0.98976636 1.0317193
0000d0 83 d3 96 3f 4c f7 76 3f 30 73 90 3f 76 28 93 3f
       1.1783298 0.96471095 1.1285152 1.1496723
0000e0 48 e1 84 3f 5a 57 a8 3f 40 d1 84 3f 38 b8 82 3f
       1.038125 1.3151658 1.0376358 1.0212469
0000f0 91 c7 86 3f 71 c5 98 3f 29 32 95 3f 2c e5 91 3f
       1.0529653 1.1935254 1.1655933 1.1398063

BN2.bias f4 [64]
000000 c3 5d 66 be 37 d4 1a be 20 08 8e be 4e 90 51 be
       -0.22496705 -0.15120016 -0.27740574 -0.20465204
000010 5e 8f 40 be 8b 86 72 be 9e 8d 2d be db ea 66 be
       -0.1880469 -0.23684137 -0.16948554 -0.22550528
000020 10 40 45 be 30 31 9a be c2 f0 15 be 63 3d 59 be
       -0.19262719 -0.30115652 -0.14642623 -0.21214823
000030 dd 07 4e be 48 ba 31 be 9a c3 48 be 63 60 53 be
       -0.20120187 -0.17356217 -0.19605866 -0.20642237
000040 c2 9e 6d be 20 de 83 be 03 45 57 be 72 2e 95 be
       -0.23205093 -0.25755405 -0.2102242 -0.29136997
000050 a2 36 55 be cb 1e 9e be 5d a7 6a be 12 b3 30 be
       -0.20821622 -0.30882868 -0.22915407 -0.1725581
000060 63 9a 1f be a4 e5 6d be 75 cf 97 be 6a 43 6c be
       -0.15586238 -0.23232132 -0.29650465 -0.23072591
000070 49 06 8d be 5d a8 81 be 39 4c 3b be 5e ae 42 be
       -0.27543858 -0.25323763 -0.18290795 -0.19011828
000080 98 b2 86 be 5a 6a 7f be 44 24 58 be c0 50 eb bd
       -0.2630813 -0.24942914 -0.21107584 -0.11490011
000090 c2 10 87 be 06 7c 3b be 1d df 3e bd d1 f5 8a be
       -0.26379973 -0.1830903 -0.046599496 -0.27140668
0000a0 23 61 19 be 8c 47 30 be c4 e7 6a be ec ae 94 be
       -0.14978461 -0.17214793 -0.22939974 -0.29039705
0000b0 c0 3e 4d be 34 f5 4e be 0c 30 6c be d3 40 90 be
       -0.20043468 -0.20210725 -0.23065203 -0.28174457
0000c0 5b af 41 be 4d db 30 be a9 4e 6b be 65 4e 8c be
       -0.18914549 -0.17271157 -0.22979225 -0.2740356
0000d0 b0 70 a2 be 65 c8 c8 bd 5d 31 96 be df a8 42 be
       -0.317266 -0.09803847 -0.29334536 -0.19009732
0000e0 78 5b 0d be 17 87 a2 be 08 57 6f be be c6 33 be
       -0.13804424 -0.3174369 -0.23373044 -0.17556283
0000f0 b7 c3 52 be 74 6e 6e be 1b 41 58 be 3f ce 81 be
       -0.20582472 -0.23284322 -0.21118586 -0.25352666

BN2.running_mean f4 [64]
000000 5a a3 f3 be bf 27 9f bf 48 9e a9 be 3e 1c 88 bf
       -0.47585565 -1.2434005 -0.33128572 -1.0633619
000010 4c 35 45 bf 3a c7 47 3c 0f 33 15 3e c4 7c 35 bf
       -0.7703445 0.012193495 0.14570259 -0.708935
000020 9a e8 de bd 1a 76 9d bd 16 7e c1 bf f2 be 8b bf
       -0.10884209 -0.07688542 -1.5116603 -1.0917647
000030 6a 17 fa be 07 01 d1 be c1 90 88 3d 89 ad af 3e
       -0.4884599 -0.40821096 0.066682346 0.34312084
000040 45 9b 83 3d 6f ca 7a bf e1 60 28 be dd ff 47 be
       0.064261 -0.9796514 -0.16443206 -0.19531198
000050 f2 02 91 bf 47 12 2a bf 19 56 bc bd 50 03 08 bf
       -1.1329024 -0.6643414 -0.09196109 -0.53130054
000060 52 83 02 bf 2d ef 02 be 31 86 08 bf 2c f4 7d be
       -0.5098163 -0.12786551 -0.5332976 -0.24800175
000070 63 3e 09 be d2 49 08 be 9f c1 24 bf eb ff 20 bf
       -0.13402705 -0.1330941 -0.6435794 -0.628905
000080 54 c6 b9 be 66 66 f8 bd a6 a7 75 bf a9 c7 53 be
       -0.36284125 -0.12128906 -0.95958936 -0.20681633
000090 0b ab ad be e2 1d ae bf e6 76 91 3d 34 74 19 3e
       -0.33919558 -1.360287 0.07102756 0.14985734
0000a0 4f ca 45 bf 63 81 17 bf a5 d3 1f bf a0 6b 20 be
       -0.77261823 -0.59181803 -0.6243232 -0.15666056
0000b0 dd e9 e5 be 48 02 71 be 60 04 fb bd 84 fd 1c be
       -0.44904986 -0.23536026 -0.12256694 -0.15331084
0000c0 fa fe b3 be 2f c9 bb 3c 32 96 82 bf e1 b9 3c bf
       -0.3515547 0.02292308 -1.0202086 -0.7372113
0000d0 fb 27 b7 be 5f 02 71 3d 62 f9 81 be 25 57 10 3f
       -0.3577269 0.058840152 -0.25385576 0.5638297
0000e0 5d 9d bf bf da be 26 be 50 35 89 bf 62 22 51 bf
       -1.4969898 -0.16283742 -1.0719395 -0.8169309
0000f0 3a b0 4c be e5 b5 c1 be e4 19 9c bd ef f3 97 3e
       -0.199891 -0.37834087 -0.07622126 0.29678294

BN2.running_var f4 [64]
000000 e3 75 80 3f e5 01 37 40 d6 d3 12 40 ee c2 f2 3f
       1.0035976 2.8594906 2.2941794 1.8965738
000010 9f 8d b1 3f 89 d4 56 3f e1 d9 02 40 fb 17 c0 3f
       1.3871344 0.8391805 2.0445483 1.5007318
000020 43 4c ca 3f e5 01 e9 3f 39 dd 84 40 7f 36 19 40
       1.5804523 1.8203703 4.1520047 2.3939512
000030 7f 0d c2 3f 6b ca 95 3f 05 9b 38 40 54 78 ba 3f
       1.5160369 1.1702398 2.8844616 1.4567971
000040 75 b5 90 3f 9a ee 72 3f 7e 89 68 3f 50 fc 47 3f
       1.1305376 0.9489533 0.90834796 0.78119373
000050 52 6b 32 40 d7 16 05 40 91 c9 4b 3f ab a2 0c 40
       2.7878003 2.079519 0.7960444 2.1974285
000060 9b ce 67 40 45 09 82 3f b7 31 e0 3f a3 0b f8 3f
       3.6219852 1.0159079 1.7515172 1.9378551
000070 d2 10 af 3f 2c 2c 78 3f 6f 28 fa 3f b6 6e d5 3f
       1.3677008 0.969424 1.9543589 1.6674411
000080 84 61 08 40 ff f3 48 3f 46 dd 15 40 44 06 d3 3f
       2.130952 0.7849731 2.3416305 1.6486287
000090 b1 99 a9 3f 10 28 04 40 7c 54 4f 40 af 27 57 3f
       1.3250028 2.0649452 3.2395315 0.8404493
0000a0 22 6f 2b 40 3b a3 e9 3f 29 fc 10 40 fb 02 57 3f
       2.678658 1.8252939 2.2653906 0.8398892
0000b0 c0 c5 f8 3f 3d c3 c1 3f ef f8 87 3f a0 14 89 3f
       1.9435349 1.5137707 1.0622844 1.0709419
0000c0 75 02 c6 3f 3e 10 22 40 ea ab bd 3f b4 3f 2f 40
       1.54695 2.5322413 1.4818089 2.7382631
0000d0 6f 64 a5 3f 5e 21 6a 40 2a 52 a9 3f e2 5a 43 3f
       1.2921275 3.6582866 1.32282 0.7631055
0000e0 ba 86 81 40 04 b1 84 3f ff a0 94 3f 11 10 f6 3f
       4.047696 1.0366521 1.1611632 1.9223653
0000f0 07 88 a1 3f 93 fa 80 3f 5c bf 97 3f c2 68 4a 3f
       1.2619637 1.0076469 1.1855273 0.790661

fc1.weight f4 [128, 1024]
000000 ef cd b4 ba 3f a6 fb bc f1 b4 4d bc 7b d7 a7 bc
       -0.0013794283 -0.03071892 -0.012555347 -0.020488491
000010 7f bf 4c ba 01 dd 1b bc e0 4b 11 bd 5e aa 00 bc
       -0.00078105176 -0.009513141 -0.03547275 -0.007853119
000020 64 3e f0 bc 6d f1 8e bc 85 d9 16 3c 01 5d c2 3c
       -0.029326625 -0.017449105 0.009207134 0.023725988
000030 f9 a5 b0 3b 4a 35 8f 3c 86 cb 9b 3c 1c 41 11 bd
       0.005390879 0.017481465 0.019017946 -0.035462484
000040 8d 9f 4e bc 30 2b 5c bc 53 92 1b 3c fe 09 83 bc
       -0.012611282 -0.013438031 0.009495336 -0.015995976
000050 ad 0b 31 ba a2 c5 29 bc 3b 82 49 bc f3 50 62 3c
       -0.0006753754 -0.010362061 -0.012299116 0.013813245
000060 ee 9b 63 3c 74 eb 00 bc ad 10 e7 bc 1a e7 8f 3b
       0.013892157 -0.007868636 -0.028206194 0.004391563
000070 d2 97 d7 ba eb 4e e5 bc 8c 8d 9b bc 87 5d 4b 3b
       -0.0016448444 -0.027991733 -0.018988393 0.0031031088
000080 ea 1c 89 3a 5b 74 ba bc 79 4f 7b 3c ed 57 7b bc
       0.0010460888 -0.02276056 0.015338772 -0.015340787
000090 57 ad 47 3c bf 22 a4 bc 90 63 ef bc 26 a7 d2 3a
       0.0121873235 -0.0200361 -0.02922228 0.0016071543
0000a0 e4 cd c9 3c 5d 3f 58 3c 7c 14 ad bc ff d1 f5 bc
       0.02463431 0.013198701 -0.021127932 -0.03000736
0000b0 32 3a 55 bc 13 5b 8b bc 2b b4 c6 3b 47 cc 0c bd
       -0.013014363 -0.017011201 0.006063958 -0.0343745
0000c0 c9 06 88 bc 32 14 2b bc 21 30 74 3c 2b 5d c6 3b
       -0.016604798 -0.010441827 0.014904053 0.006053587
0000d0 10 eb b6 3c ac cd 99 bb c4 bb a0 bc 3a 89 0a 3b
       0.022328883 -0.0046937075 -0.019620784 0.0021138922
0000e0 40 02 25 bb 77 f0 06 bd 47 a0 d6 bc dd 4b ff bc
       -0.0025178343 -0.03294417 -0.026199473 -0.031164104
0000f0 b0 f1 59 bc ec 71 0a bd 79 9c 07 bb 19 79 62 3c
       -0.013302252 -0.03380005 -0.002069263 0.013822817
000100 da 70 21 3c 02 5f bb 3c 54 8c 84 bc ad b3 b2 bc
       0.009853566 0.022872452 -0.016180195 -0.021814192
000110 9d 0b a9 bb 7d 47 f1 bb f2 9f 9f 3c a7 c2 0a bd
       -0.005158855 -0.0073632584 0.019485448 -0.03387704
000120 2e e0 15 bd d3 af f5 bc c5 19 a2 bc 58 8c 28 3c
       -0.036590748 -0.029991066 -0.019787678 0.010287367
000130 7b 58 65 bc 9c 3f a0 3b 71 32 ec bc 85 31 ca 3c
       -0.013998146 0.0048903953 -0.028832646 0.024681816
000140 4b 9d 32 3b 39 0f 3e 3b 71 95 c6 3c 89 d0 09 3c
       0.0027254398 0.0029000773 0.024241181 0.008411535
000150 40 cb 95 3b 44 41 03 bc a8 84 07 3b 27 a2 06 bc
       0.0045713484 -0.008011166 0.0020678435 -0.008217371
000160 25 a8 a9 bb f5 42 df bc 89 6f 93 3c cc 25 2b 3c
       -0.005177515 -0.027253607 0.01799752 0.010446023
000170 94 81 b9 bc 1a f7 95 3c 49 37 ba bc 41 99 17 bc
       -0.022644795 0.018306304 -0.02273144 -0.009252847
000180 f8 e4 86 bc be 44 17 3c ff a6 3c 3b 1a 8c a5 bc
       -0.016466603 0.009232698 0.002878606 -0.020208407
000190 7a 62 92 3b 62 75 c4 3b 7d d4 c0 ba 18 f9 28 3c
       0.0044673057 0.0059954384 -0.0014711764 0.010313295
0001a0 54 c4 2d bc c6 ea 2b 3c 49 60 bf 3c 08 c3 9d bc
       -0.01060589 0.010492986 0.023361342 -0.019258037
0001b0 b4 6e f5 3b d0 47 ec 3b 26 2c b8 bb dc 32 6f bc
       0.0074900035 0.007210709 -0.0056204973 -0.014599528
0001c0 b6 91 17 3c 74 ce 37 3c 64 6f 78 3c 80 c7 3f bc
       0.009251049 0.011218656 0.015163276 -0.011705279
0001d0 07 6e 09 bd 18 28 8b bc 34 dc 0b bd 14 35 c4 3c
       -0.033552196 -0.016986892 -0.03414555 0.02395109
0001e0 f6 d4 10 bd 9b a7 3e 3c f0 3b d3 bc 1d 1f 04 bd
       -0.035359345 0.01163664 -0.025785416 -0.032256234
0001f0 24 14 23 3c e8 d7 f8 bc ba 78 e5 bc 14 f8 9f 3a
       0.009953532 -0.03037639 -0.028011668 0.001220467
000200 46 d1 02 bd 0c c5 9f 3c a6 e5 ac ba 01 df bf bb
       -0.03193786 0.019503139 -0.0013190999 -0.0058554416
000210 f5 d3 b4 3c db e6 aa bc 75 44 be bc 13 60 53 bb
       0.022073725 -0.020862034 -0.023226002 -0.003225331
000220 d1 eb 59 3c 0d 4b cb 39 f2 1d 1a 3c f3 f4 13 bd
       0.013300852 0.00038775094 0.009406554 -0.036122274
000230 02 4d 40 bc b8 5b fa b9 d0 1c 29 3c 46 af ac bc
       -0.01173711 -0.00047752052 0.010321811 -0.02107967
000240 80 14 b4 bc 03 01 e3 ba c0 78 25 bc cd c1 7f bc
       -0.021982431 -0.0017319027 -0.01009959 -0.015610171
000250 a7 cb 95 3c ba 87 a9 bc 57 46 0c 3c f9 9f 96 3c
       0.018285586 -0.020694602 0.008561692 0.018386828
000260 9f ac af bc 6e a0 8e 3c 14 ca c2 3b 89 9b 85 bb
       -0.021444617 0.017410483 0.0059444997 -0.004077379
000270 d5 38 0d bd f6 04 84 3b 0e 6d 9e 3c 20 96 0f bc
       -0.034478027 0.0040289117 0.01933911 -0.00876382
000280 5a 7e 97 3c 96 f2 ce bb 6f 45 59 bc 20 1f 70 bc
       0.018492866 -0.0063155396 -0.013261183 -0.014655858
000290 5d 8d 05 bc f8 33 9b bc 1e ac ae bb 9e 50 d1 bb
       -0.008151379 -0.018945679 -0.0053305766 -0.006387784
0002a0 61 38 03 bd fb ad a8 bc 8a cb ba 3c 07 c1 c0 bb
       -0.03203619 -0.020590773 0.022802133 -0.0058823857
0002b0 1e df c5 bb fe b3 1a 3c 7f 50 93 3c 7a 4a 17 bd
       -0.0060385605 0.009442328 0.01798272 -0.03693626
0002c0 e4 a5 0f bd a0 a2 0b bc 7f 72 8d bc 66 a1 02 bd
       -0.035070315 -0.00852266 -0.01726651 -0.031892203
0002d0 fc 93 f8 bc 7f 30 cc 3b 9d 9a 32 3c 5e 0f 01 bc
       -0.030344002 0.006231367 0.0109011205 -0.007877199
0002e0 7e 32 6e bb 79 6f e5 bc 13 d1 df bc 83 af 07 bd
       -0.0036346014 -0.028007256 -0.027321374 -0.033126365
0002f0 c6 c5 f3 bb 14 14 12 bd 57 c7 d2 bb 3d 1e 87 3c
       -0.007439348 -0.03566368 -0.0064324546 0.01649391
000300 2e a1 90 bc 10 18 04 bd 07 88 c6 bc 5b 57 0f 3c
       -0.017654981 -0.03224951 -0.024234785 0.0087488545
000310 71 c3 c4 bc 44 b4 c0 bc 4a 5c b4 bc 54 46 b1 bc
       -0.024018975 -0.023523457 -0.022016663 -0.02163998
000320 d1 fa 93 3c 36 12 81 bc ae ed bb 3c 0e 73 0e 3c
       0.018063935 -0.015755754 0.022940483 0.008694423
000330 d5 93 2e bc 4d 7e 01 bd 3b 41 8c 3c 23 19 ac 3c
       -0.010655363 -0.03161459 0.017120948 0.02100808
000340 03 1d 22 bc fe 5c 9e 3c 1b 73 3f bc 65 54 08 bd
       -0.009894612 0.019331452 -0.011685158 -0.03328361
000350 6d a9 10 bd ee c5 84 bc ce 76 95 3b 0f d2 7e 3c
       -0.035317827 -0.016207661 0.0045612818 0.015553012
000360 af 22 ab 3c f5 83 be 3c 6f 4d c4 3b a0 6c 02 bd
       0.020890562 0.023256281 0.005990676 -0.031841874
000370 6f 7c b7 3b cf 15 f8 bb 90 69 54 bc 25 eb 9c 3c
       0.0055995504 -0.007570959 -0.012964621 0.019155094
000380 e5 1b db bb 11 97 b4 bc a1 35 b3 3c 71 3f 43 3c
       -0.006686675 -0.02204469 0.021876158 0.011916981
000390 d3 c1 ca ba fe 46 95 3c 51 1c fa bc 14 df d0 bb
       -0.0015469141 0.018222328 -0.03053108 -0.0063742492
0003a0 a8 10 05 bd d9 dd 33 bb f1 7c 3f 3b 53 8e 89 ba
       -0.032486588 -0.0027445464 0.0029218758 -0.0010494686
0003b0 d3 a9 03 bd 67 88 d7 bc 1c 5a 0d bd b0 8e a4 3c
       -0.03214438 -0.026310159 -0.034509763 0.02008757
0003c0 ec f6 9a bc 7f 4f 91 3c 7a 1f fb bc de 63 8f ba
       -0.01891657 0.017738102 -0.030654658 -0.0010939797
0003d0 ab 5c b5 3c ef b7 47 bc 84 fa df bc 40 de 23 bc
       0.022138914 -0.012189849 -0.027341135 -0.010001719
0003e0 f6 4b 92 3b e1 56 41 bc da 4a 36 3b f8 fa 7e bb
       0.0044646217 -0.011800499 0.002781561 -0.0038906913
0003f0 92 a6 fe bc 2d 08 28 bc 57 95 94 bc 20 e9 af 3c
       -0.031085286 -0.0102558555 -0.018137617 0.021473467

fc1.bias f4 [128]
000000 65 16 28 3c 4d 4d 4f bc ab d5 ab 3c 89 8e e5 3c
       0.0102592455 -0.012652707 0.020975908 0.028022068
000010 99 b6 dd 3b ce f3 c6 3c 24 05 ad 3c b8 f1 5a bc
       0.006766152 0.024286177 0.021120615 -0.013363294
000020 9c a2 7c bc 15 38 0d 3b 5c e4 a0 3c e9 e5 00 3d
       -0.0154196285 0.002154832 0.01964014 0.03146926
000030 36 82 5f 3c 8d 4b 00 bd 6f 37 b6 bc 0a aa 97 3c
       0.013641885 -0.03132205 -0.02224323 0.018513698
000040 a4 12 ce bc 20 d7 93 bc 63 47 16 bc b7 7c 12 bd
       -0.025155373 -0.018046916 -0.009172293 -0.03576347
000050 22 9f 10 bd dd 82 5f bc b4 93 af 3d c0 4a 93 3c
       -0.03530801 -0.01364204 0.08573094 0.01797998
000060 04 ca b2 3c 72 aa ab 3d df 8c a5 bc 4f 10 16 3c
       0.021824844 0.08382119 -0.020208774 0.009159162
000070 2d 16 c1 bc 06 72 36 3c db 7e c4 bc ae 58 12 bd
       -0.023570145 0.011135584 -0.02398627 -0.035729103
000080 f8 ec 81 3c 60 0b 8b 3b de 89 a6 bc a9 d6 b7 3c
       0.015860066 0.0042432994 -0.020329412 0.022441225
000090 f0 a8 d8 3d 5c 90 0d bd ab 99 43 bc 3b 9b ed bc
       0.10579097 -0.0345615 -0.011938493 -0.029004684
0000a0 f3 a6 2b bc 86 e3 55 bc 10 5a 26 3c dc a8 96 3b
       -0.0104768155 -0.013054734 0.0101533085 0.0045977663
0000b0 56 3b 3e 3c a9 0d b4 bc c5 c1 67 bc 4e f9 a7 bb
       0.0116108265 -0.02197917 -0.014145319 -0.005126155
0000c0 1c 47 07 3c 4e d3 be ba a3 e5 cd bc b0 c4 81 bc
       0.0082567 -0.0014558823 -0.025133913 -0.015840858
0000d0 65 dd 8a 3c 4a 0e 97 bb 73 fb b6 3d e7 ea 07 bc
       0.016951272 -0.0046098577 0.08934679 -0.008295751
0000e0 1c f0 09 bd ff e7 b8 3c 82 d7 b3 3c 28 08 18 3c
       -0.03367625 0.022571562 0.021953348 0.009279288
0000f0 94 04 00 3d c3 c6 da 3a 82 de fb 3c 97 cc ea bc
       0.031254366 0.0016691316 0.030745748 -0.02866201
000100 13 61 ef 3a f2 59 04 3d 97 22 db 3b bf cb cd bb
       0.0018263183 0.03231234 0.006687473 -0.006280392
000110 44 b1 95 3c 06 a6 05 3c a3 b8 93 3c b5 3f 72 ba
       0.018273003 0.008157259 0.018032378 -0.00092410605
000120 d1 8b 13 bd f8 02 45 3c d2 b6 58 ba 7f c9 4f 3d
       -0.03602201 0.012024634 -0.00082669884 0.05072927
000130 28 9f 71 bc ea 7a 13 bc ff ab e2 3b 53 31 38 bc
       -0.014747418 -0.009001473 0.006917476 -0.011242229
000140 53 e1 2b 3d 46 f4 b6 3c 26 62 de 3b 51 20 28 bb
       0.041962933 0.022333276 0.0067866025 -0.0025654028
000150 f9 f7 10 bd 9b 26 21 3c 0f f5 a4 bb cf 6c d4 bc
       -0.035392735 0.009835864 -0.005034096 -0.02593079
000160 4b 34 0a 3c aa 20 fa 3b c4 6e b6 bb bb e6 62 3d
       0.008435319 0.0076332884 -0.0055674035 0.055395823
000170 52 de 0f bd bb 92 87 bb 68 dd 4b bc 19 0b c1 bc
       -0.03512413 -0.0041373647 -0.012442924 -0.023564862
000180 b5 de e0 bc db 78 fa bc 66 34 02 3d 50 c1 98 bc
       -0.027449945 -0.030575207 0.031788252 -0.018646866
000190 bf 66 d7 3d 10 39 0e 3d 81 ea 0d bd fb 7f 0f bc
       0.10517644 0.034722388 -0.03464747 -0.00875854
0001a0 05 b6 29 3c b3 6b 10 bd cf 6b 95 3c 39 5a 9a bc
       0.010358338 -0.03525896 0.018239884 -0.01884185
0001b0 58 b4 65 3d 6d 28 0d bd 10 53 9b 3d 0f 09 ee bc
       0.056080192 -0.03446238 0.07584202 -0.029057054
0001c0 3c de 54 bc 63 1a 97 3c 98 8f 00 bc dd 11 87 bc
       -0.012992438 0.0184452 -0.007846735 -0.01648801
0001d0 08 c6 9c 3c 06 6b a6 3c 85 d2 e9 ba c4 d0 14 bd
       0.019137397 0.020314705 -0.0017839229 -0.036331907
0001e0 a9 1e e9 3d 3d 01 c8 3c 57 7d 92 3c 4f 9d 7f 3d
       0.11382801 0.024414653 0.017882032 0.06240588
0001f0 ba 0d 83 3b e6 04 90 bc 11 f3 9c bc 9f 83 5f 3d
       0.003999439 -0.01758046 -0.019158872 0.054568883

fc2.weight f4 [4, 128]
000000 3b 8c 5d bd f8 94 26 bd ce de 07 3d bd 98 bb be
       -0.054088812 -0.04066941 0.033171467 -0.36639968
000010 2f c9 73 bd d5 a2 86 3d f3 62 71 bc 2a 94 72 3c
       -0.059518036 0.065740265 -0.014733064 0.014805833
000020 0e 2b 83 3d c7 6d a3 bd 2e 9e 0d 3d 14 6d 55 3e
       0.064046964 -0.07979923 0.03457468 0.20842391
000030 d5 5e 17 bd b8 b4 86 bc f0 72 41 3e e3 bd 6c 3d
       -0.036955673 -0.016443595 0.18891501 0.057798278
000040 0a a9 b1 3c 8c 9c af 3c 1d 22 1d 3d 91 15 98 3c
       0.02168705 0.021436952 0.03836261 0.018564971
000050 c4 78 95 bb 8f 96 7a bd e6 d5 ff bd d0 a1 53 3d
       -0.0045615155 -0.06117874 -0.1249197 0.05166799
000060 d5 cc c7 bc ee d1 e8 3d 26 e8 b6 bc f6 47 5e 3e
       -0.024389664 0.11368166 -0.022327494 0.21707138
000070 99 44 da ba 9c 15 93 bd 21 74 cb bc 0c 1a 72 3c
       -0.0016652524 -0.07181856 -0.024835648 0.014776718
000080 ca cc 49 3c ad ba c4 3b 37 44 9e 3c 9e 96 a1 bd
       0.012316892 0.006003699 0.019319637 -0.07890056
000090 9f 71 c2 3d 6a d5 e0 bc 7a 58 66 bd 39 7e 24 bd
       0.09494328 -0.027445514 -0.05623672 -0.040159438
0000a0 75 00 89 bd 08 31 34 bc c8 aa 4a 3d 02 84 82 3d
       -0.0668954 -0.010998018 0.049479276 0.06372835
0000b0 ef f3 8f be 76 5b b4 bc 3e c7 9d 3d dc fa 1c bd
       -0.28115794 -0.022016268 0.07704018 -0.038325176
0000c0 d4 4a 8f bd 14 0a 86 3b bd dc 4d bd 92 e8 91 bd
       -0.06996694 0.004090557 -0.05025934 -0.071244374
0000d0 1e 3f 52 3d 1d 09 7f bd df 9e 5d 3e f2 b7 1a bc
       0.051329724 -0.06226455 0.21642636 -0.00944327
0000e0 69 42 5e bb f8 95 dd 3b 7c 0f a7 bd 58 c4 1d 3e
       -0.0033914095 0.0067622624 -0.0815725 0.1540693
0000f0 3b 17 37 3e 10 a1 9e 3c db 53 8b be 69 b7 2b bd
       0.17879955 0.01936391 -0.27212414 -0.04192296
000100 9a a2 22 bc aa cb 31 3e e0 07 98 bd cd 07 71 bd
       -0.009926463 0.17362848 -0.07423377 -0.05884533
000110 8d 6e 85 bc e3 6a 7a bd 78 34 e2 bc 74 25 88 be
       -0.016288066 -0.06113709 -0.02761291 -0.26591074
000120 8c c8 06 3d d0 6f 09 3d 33 26 56 3d db b5 f0 3d
       0.0329061 0.0335539 0.052282523 0.11753436
000130 48 e8 76 bd 46 87 86 3d 18 ea 87 3d 63 ad 9b bd
       -0.060280114 0.0656877 0.06636447 -0.0760143
000140 ab c5 45 be b6 82 fb 3c 5f d4 97 bd 35 af 40 3e
       -0.19313686 0.030701976 -0.074135534 0.18816836
000150 6c ab 6e bc 7d 7a 88 3c ec fe 53 bd 09 32 c2 3c
       -0.014567237 0.01665997 -0.051756784 0.0237055
000160 d4 1e 4e bd 0e 2a 95 3d 59 f9 4b 3d 45 c2 73 3e
       -0.05032237 0.07283412 0.049798343 0.23804577
000170 5f 79 00 bd 72 52 84 bd fc 5c 95 3c 26 04 82 bc
       -0.03136575 -0.06461038 0.018232815 -0.015871119
000180 fe 60 ab bc d8 db 85 bd b9 33 09 3d 0e d4 60 3b
       -0.020920273 -0.065360725 0.033496592 0.0034306082
000190 79 8f 01 3e 08 31 07 3e 3e ea 3c 3c 19 a6 c7 3b
       0.12652387 0.13202298 0.011530457 0.0060927984
0001a0 0e 5b 01 3d 31 88 fb bc 6b 48 a9 bd 0f 4a 83 3d
       0.031580977 -0.03070459 -0.08265766 0.0641061
0001b0 c1 6b b3 be 41 06 38 3d cd a7 8b bd 5d 32 73 3d
       -0.35043147 0.04492784 -0.06819115 0.059374202
0001c0 6d 5d 21 3e a4 05 8e bc 77 81 47 be 82 32 40 bd
       0.15758295 -0.017336674 -0.1948298 -0.046923168
0001d0 a2 bb 2e 3e 89 10 7a 3e 4a 64 09 3d 09 85 7d bc
       0.17063764 0.2442037 0.03354291 -0.015473613
0001e0 5b 0c ae 3d 6b 2f a7 bd db 57 97 bd 15 65 49 3e
       0.0849845 -0.08163341 -0.07389804 0.19667466
0001f0 bb 7b 9b bd 53 6e 07 bd f6 4c 49 bd d6 f5 f8 bd
       -0.07591959 -0.033064198 -0.04914566 -0.121562645
000200 aa 0c 87 bd 6c d1 00 bd 3d 50 4b 3d d7 2b 14 3e
       -0.06594212 -0.03144972 0.049637068 0.14469849
000210 9c 2a d4 bc d3 d0 3a bd d2 c8 93 bd 69 f4 34 bd
       -0.025899224 -0.045609307 -0.07216038 -0.0441784
000220 21 fd d1 3c bd 42 8a b9 bc 3f 88 3d 6a a3 71 be
       0.025633397 -0.00026371135 0.06652781 -0.23597494
000230 91 88 17 3d 71 ab 7b bd d3 6d 6e be 01 5c 92 3c
       0.036995474 -0.061442796 -0.23284082 0.017866137
000240 2a d2 2d bd 8c ef 92 3c c8 a4 16 3e 94 fc e6 3c
       -0.042436756 0.01793649 0.14711297 0.02819661
000250 c3 ad 66 3d df d5 a2 3c 75 97 1c bd fb b1 39 3d
       0.056318056 0.019877372 -0.03823038 0.04533575
000260 00 31 87 3b 37 e4 0a 3e 34 b2 ac 3c f3 97 53 be
       0.0041257143 0.1356362 0.021081068 -0.20663433
000270 b7 af f9 bc 83 b6 95 3d 2c ad 7f 3c 4f 3f 0a 3c
       -0.030479295 0.07310202 0.015605252 0.0084379455
000280 cd bd 95 bd 00 48 5d 3c f6 19 90 3d b7 d4 62 bd
       -0.07311592 0.013505936 0.07036202 -0.055378642
000290 40 dc a0 bd 15 1c c5 3c b0 22 79 bd 68 c6 6d bd
       -0.07854509 0.024061242 -0.060824096 -0.058050543
0002a0 e7 af 83 3c dd 8d fb bc 32 88 45 3d 5a cc 29 bd
       0.016075088 -0.030707294 0.04822559 -0.04145465
0002b0 d5 08 17 3e 14 e9 7a 3a f1 e2 0c bd 53 8c 6a bd
       0.14749463 0.00095714745 -0.034396116 -0.05726273
0002c0 29 2d 8f 3d ef 25 5b 3d 33 a3 6d bd 42 62 88 bd
       0.069910355 0.053502973 -0.058016967 -0.06659366
0002d0 64 7f 4d 3d e7 ed 3b 3c f3 c2 8e bd d2 bd 12 3c
       0.050170317 0.011470295 -0.06970777 0.0089563895
0002e0 51 89 b8 3c 11 34 40 3d a0 0e 8f 3d 5c 26 3e be
       0.022526415 0.046924654 0.06985211 -0.1856932
0002f0 54 09 80 3d 93 3e 43 3d 94 b1 1c 3d 4e 47 7b bc
       0.06251779 0.047667097 0.03825529 -0.015336825
000300 48 fe 57 3d 8a 1f 4e be c1 8c 5b bd 7c 3a 1c bd
       0.052732736 -0.20129219 -0.05360103 -0.038141713
000310 20 69 82 3c 6e c7 56 3d 63 bc f9 bb db 1b 99 3d
       0.015919268 0.052436285 -0.0076213344 0.07476016
000320 6c 13 1a 3d c9 ff f0 3c 00 82 0f bd 8c 03 c0 be
       0.03761618 0.029418843 -0.035036087 -0.37502706
000330 7d 4c 89 3c d2 73 e2 b8 9b c4 84 3c 55 da 6d 3d
       0.016760105 -0.00010798093 0.01620703 0.058069546
000340 94 22 76 be 43 ec 4b be 64 ab 26 bc 88 ac 4a be
       -0.24036628 -0.19914345 -0.010172699 -0.19792378
000350 fc 39 82 3d 89 e3 79 bd 53 94 1f 3d af 88 87 bc
       0.06358716 -0.06100801 0.038959812 -0.016544668
000360 f8 cc 22 bd a9 5a eb 3c e4 0f 9f bd 1c 9a 38 be
       -0.039746255 0.028729754 -0.07766703 -0.18027538
000370 4b 54 22 bd f5 c0 d6 3c 18 ed 06 3d 8a 3a 8c 3c
       -0.03963117 0.026215056 0.032940954 0.017117757
000380 c3 05 a8 3d 7a 34 74 3d 71 e3 32 3e b4 b1 54 3d
       0.08204224 0.059620358 0.17469575 0.051927283
000390 52 31 f0 3c 69 a5 cb 3d 69 86 d3 bc 7c f5 81 ba
       0.029320393 0.09943659 -0.025820928 -0.0009915079
0003a0 43 31 17 bb 24 ee 84 3d 0a b3 85 3d 0c 74 a9 3c
       -0.0023070134 0.06490734 0.065282896 0.020685218
0003b0 8e da 69 bc 29 ad 57 bd c8 56 b7 3d 74 04 6f bc
       -0.014273299 -0.052655373 0.08952099 -0.014588464
0003c0 91 39 a6 3d a2 57 38 bd 2b 74 6f 3e 23 9f ea 3c
       0.08116449 -0.04500545 0.23384158 0.028640335
0003d0 eb 62 31 bd fd 02 41 be e4 b9 07 3d 92 a9 74 bd
       -0.043307226 -0.18848796 0.033136263 -0.059732027
0003e0 00 ba 51 bc 00 c1 88 bd 58 85 04 bd 20 6d 09 be
       -0.0128006935 -0.06677437 -0.03235373 -0.13420534
0003f0 04 fb 9a bd 7d 46 90 3c aa ac 0e bd 7f b0 cb bd
       -0.07567409 0.017611736 -0.034832634 -0.09945773

fc2.bias f4 [4]
000000 09 7b 08 3d 8e 49 91 bb 66 fc f4 bd 23 d6 80 bc
       0.03332046 -0.004433817 -0.11962204 -0.015727108
