cnn saved models/cnn_epoch10.pt (torch, 609343 bytes, 16 tensors)

conv1.weight f4 [32, 1, 3, 3]
00000000: 3939 a83e 876e a03e e364 78be 867c b0be
00000010: f21e 72be 1b0f 4abe 3d36 8e3d 619f 823a
00000020: c59f 933e 91e0 043f 1763 6dbe db5f 043f
00000030: 6971 45bd a28b dbbd e852 20be b91a ae3d
00000040: 9230 943e d6c0 c8bd e5de b23d 6399 7abb
00000050: 520a b83e 43d9 82be 1643 e7be ad35 913d
00000060: 9cca 5b3e 8335 8a3e 6b8e b3be 9d9c fabd
00000070: 23dc a73e 1920 873e 8f8d 9c3d 5999 6bbe
00000080: cf73 c4be d20d 1abe c841 833e 0f97 26be
00000090: 8c90 a7bd 56ae 4fbe 45d7 313e 0790 90be
000000a0: d4ee 5d3e 4ec4 c83d 6961 803e e2d2 c43d
000000b0: e198 92be 4728 2e3e 70be a0be 6db8 b9be
000000c0: 796c fb3d 1208 903e 3c04 63bd 52c3 a6be
000000d0: 04c8 92bd c78a 13bf fe7c 013e 1da4 37be
000000e0: b964 95be f24d fd3d 805d 753e 1147 c73e
000000f0: 8a32 c3be c45a 9b3c 5e6f 99bd a2f9 9e3e
00000100: 0f34 7fbe abe8 9abe 83c7 983e 40d6 89bd
00000110: 5a25 abbe 33ae 933e 87cc a0bd 4d6b 0d3e
00000120: e76b 833d 89d2 d8bc ed4a 27bf 4135 39bd
00000130: 6ddd 52bc 716e eb3c 17ee 7c3e 23db 033e
00000140: 6904 683c 3b1c 383e 561b 9bbe 46c9 d83e
00000150: 2ae2 a2be e39c a03c 1abe d9be 33ee 643e
00000160: 37e7 0b3e a958 07be 9f1c abbb d561 57be
00000170: ceec 6ebd 4ef6 57be 4f72 0b3e 2f4f dfbe
00000180: fb95 923e 0bab a23e c08d 0ebd 5b82 dfbd
00000190: 12ca 833e 21cf 42be 971a b03d 4782 743e
000001a0: f1af 44be 28d4 ca3e a9b4 eabd b447 46be
000001b0: e612 d33e 1bbc 063e 0b45 f6bc bf62 2e3e
000001c0: 4e3b 3ebe 055b 11be 43a9 2abe 4d7e e9bc
000001d0: d5b5 84be e14b c5be 8fea 333d bb96 c6be
000001e0: 69bd 6bbe 7939 de3d cbc8 5f3d 0b0e 973c
000001f0: 84b8 043e 7faa a93e ee28 bc3e c77e babe
00000200: 857b 33bd 9119 713e ad72 353e fc64 e1be
00000210: a3d9 ab3e 41d3 563d f2be bcbe 80ad dbbb
00000220: 7139 8a3d 7c4a 0ebf 6fa2 e03d 96e2 a1be
00000230: cd60 acbd 870f fb3e 59eb f63d 722b fabd
00000240: b82d 843e 3091 0a3e 0975 b2be ddf9 aabd
00000250: 7e79 5bbe b79b c53e c251 dabe 744d cb3e
00000260: be5b a1bd c32f 61be 500b a1bc 77fb ee3d
00000270: e151 a83d 76e9 e7be 1e1c bebe 76bc 283e
00000280: 1316 c03e 5cda 9d3e 7700 9d3d 5d2b c43e
00000290: b4e1 963d 25aa 453e befb 2cbe d555 86bd
000002a0: a8fc 92bd 2351 babe 1683 d6bb 8f32 a73e
000002b0: fa69 5f3e 5155 3d3d 82d2 13bf 60ce bdbe
000002c0: 1856 f53c 3a23 5b3e e04d f93d b46e 293e
000002d0: 839b 883d 1e36 ddbe fca8 b53e 83ab 8cbe
000002e0: 350b c9bd 7569 3f3e d05e 3cbe 12e3 6bbc
000002f0: ffd2 553e 8686 90be 24b1 9b3e 3516 bf3e
00000300: a0ab 0b3e e6df c4bd 5a02 50be f893 0c3e
00000310: b5c8 abbd f500 c3be 7410 f43d 3853 b3bd
00000320: e271 54be c9eb d43e 041d e4bd 38ad e7bd
00000330: e966 e1be 930a 823e bbbf 9a3e c8e0 14be
00000340: 4e87 26bd b05c 3a3d 0a3c 7ebd 0f8d 64be
00000350: 22d0 a93e 4cea 9ebe 8a61 803c dd84 d53e
00000360: 43f9 98be bfe6 ebbd d166 9d3e c974 c8be
00000370: fde5 b9bd b21a 853e 096b 19bb 2c0e a43e
00000380: 6f16 923d 1350 643e 12b1 8fbe a558 013d
00000390: 1779 8e3e 397f 11bf b62b 9e3e 5322 163e
000003a0: c35c c4be fe30 723e e569 ac3b d591 f6be
000003b0: 2055 85be c3b5 6e3e 6d17 c2be 9de6 fdbd
000003c0: 845a c4bd edcf c23e 824a f93d 6f33 edbe
000003d0: d479 b2be 325f c83d 6d7c 413d d083 f23b
000003e0: ac78 dbbd 0b75 283e 56b0 c3bd ad94 a53e
000003f0: 060e 9ebe 2e2b 843e b8fb f13e 2ac9 a5be
0.32856157 0.31334326 -0.24257235 -0.34470004 -0.23644617 -0.19732325 0.06943939 0.0009965712
0.28832832 0.5190516 -0.23182331 0.51708764 -0.04820386 -0.10719992 -0.15656626 0.08501191
0.28943306 -0.098024055 0.0873392 -0.0038238398 0.35945374 -0.25556383 -0.4516837 0.07090316
0.21464008 0.2699395 -0.35069594 -0.12236903 0.32785138 0.26391676 0.07644188 -0.23007716
-0.38369605 -0.15044335 0.25636125 -0.16268562 -0.08181867 -0.20281348 0.17367275 -0.28234884
0.21673137 0.09803067 0.25074318 0.09610535 -0.28632262 0.17007552 -0.31395292 -0.36273518
0.12276549 0.28131157 -0.05542396 -0.32570893 -0.07167056 -0.5763363 0.12645337 -0.17933698
-0.29178408 0.123683825 0.23961449 0.38921407 -0.38124496 0.018964179 -0.07491945 0.3104983
-0.24922203 -0.30255637 0.29839715 -0.06730318 -0.33426934 0.2884384 -0.078515105 0.13810463
0.06417065 -0.026467578 -0.653487 -0.045216803 -0.012870175 0.028739186 0.24700199 0.12876563
0.014161208 0.17979519 -0.30294293 0.4234106 -0.31813174 0.01960606 -0.42527848 0.22356491
0.1366242 -0.13217415 -0.0052219178 -0.21033414 -0.058331303 -0.21090052 0.13617824 -0.436151
0.2863005 0.3177112 -0.034803152 -0.10913535 0.25740105 -0.19024326 0.085988216 0.23877822
-0.19207741 0.39614987 -0.114602394 -0.1936329 0.41225356 0.13157694 -0.03006222 0.17029856
-0.1857731 -0.14194877 -0.1666613 -0.028502608 -0.25919977 -0.38534454 0.043924864 -0.38786873
-0.23021473 0.10850806 0.05463485 0.018439313 0.12961012 0.3313789 0.36749977 -0.36424848
-0.04381897 0.23544909 0.17719527 -0.44022357 0.3356448 0.05244756 -0.3686443 -0.0067040324
0.06749237 -0.55582404 0.10968482 -0.31618184 -0.08416901 0.49035284 0.12056608 -0.12215318
0.2581613 0.13531947 -0.34854916 -0.08348439 -0.21433064 0.38595363 -0.426405 0.3970753
-0.078788266 -0.21990876 -0.019658715 0.11669057 0.08218742 -0.45295304 -0.37130827 0.16478142
0.3751684 0.30830657 0.07666104 0.38314334 0.07367268 0.19303186 -0.16892907 -0.0655934
-0.071770966 -0.36390027 -0.0065463884 0.3265576 0.2181777 0.046223942 -0.57743084 -0.37071514
0.02994828 0.21400157 0.121730566 0.16546136 0.066702865 -0.4320535 0.35480487 -0.27474603
-0.09816591 0.18692572 -0.18395543 -0.0143973995 0.2088127 -0.28227633 0.30408585 0.3732163
0.13639688 -0.09613018 -0.20313397 0.1372832 -0.08387891 -0.38086668 0.11917201 -0.08756107
-0.20746568 0.4158614 -0.11138347 -0.11312336 -0.44023827 0.25398692 0.30224404 -0.14538872
-0.04065638 0.04549855 -0.062068976 -0.22319435 0.33166605 -0.3103813 0.01567151 0.4170293
-0.29877672 -0.11518621 0.30742505 -0.391516 -0.0907707 0.2599693 -0.0023409745 0.32042062
0.07133185 0.22296171 -0.2806478 0.03157868 0.2782676 -0.5683475 0.30892724 0.14661531
-0.38352022 0.23651502 0.005261647 -0.48158136 -0.26041508 0.23311524 -0.37908497 -0.123975016
-0.09587577 0.3804926 0.12172414 -0.46328303 -0.34858572 0.09783782 0.047237802 0.007400967
-0.10716376 0.16450898 -0.09555118 0.32339993 -0.30870074 0.25814193 0.4726236 -0.32380038

conv1.bias f4 [32]
00000000: 172e 803e 135d 9c3e 2904 2b3e 1cbe 5ebe
00000010: db75 073f 2c2a 983e ad66 643e 56a3 46bd
00000020: 72a0 383e dba4 4f3e a632 fe3d 45a3 073f
00000030: bea6 b93e f660 923e 346a 01be d49e 31be
00000040: 8d60 8fbd 103d f93e 3d43 10bf ef1e 2c3e
00000050: 9210 1d3e d55f a0be 1a90 d43e 3fea 14be
00000060: b48e 023f 999d 84be 9ba0 ffbc 3605 073b
00000070: dfc3 b13d 900d 8ebd ed34 bdbe 3e8f a63d
0.25035164 0.3053976 0.16700806 -0.21752208 0.5291421 0.29719675 0.22304793 -0.048495613
0.18029955 0.20277731 0.12412004 0.52983505 0.36260027 0.285896 -0.1263817 -0.17345744
-0.070008375 0.486794 -0.563526 0.16808675 0.15338352 -0.31323114 0.4151619 -0.14542483
0.50999 -0.25901487 -0.031204512 0.0020602471 0.086799376 -0.069361806 -0.36954442 0.0813279

BN1.weight f4 [32]
00000000: f000 aa3f fb4f cb3e e620 8b3f 7b54 563f
00000010: dbe4 653f 1087 483f 097d 983f 9652 583f
00000020: bf28 663f bc8a 8e3f 377a 5e3f 070d cb3e
00000030: 07e5 7b3f d8a1 653f d83a 553f b19b 7d3f
00000040: 45a5 5b3f feb0 ea3e 2618 2b3f 5d0f 423f
00000050: fe79 7a3f a7cb 613f 4caa 883f 678c 113f
00000060: cd11 2e3f 8f4c a33f 800a 873f a386 4c3f
00000070: e83c 813f 3414 2d3f 0298 613f b8dc 533f
1.3281536 0.39709458 1.0869415 0.83722657 0.8980233 0.7833109 1.1913158 0.84501016
0.89905924 1.1136088 0.86905235 0.39658377 0.98396343 0.8970008 0.83292913 0.9906569
0.85799056 0.4583816 0.6683372 0.7580469 0.97842395 0.88201374 1.067697 0.5685486
0.6799591 1.2757739 1.0550079 0.7989294 1.0096712 0.6760895 0.8812257 0.82758665

BN1.bias f4 [32]
00000000: 8642 ccbe 0bf3 2cbe 00e9 81be 94ec b1bd
00000010: cb67 76bf fb3a a5be 2b65 06be 0a09 f3bd
00000020: 5fea f8be 364d 17bf 66d6 e3be 7e10 2dbe
00000030: f0c1 3ebc 0912 dbbe ce2a 05be 7ea0 32bf
00000040: ccd9 62bf d5df 9bbd 3d63 f8be 85f4 15bf
00000050: 8cce d9be 921f b1be 362c 9ebf a16b 98bd
00000060: 3955 82bd 48f2 abbe 585d 36bf 0c02 edbd
00000070: f63c b8bd 57c4 22bd 5462 27bf 0662 45be
-0.39894503 -0.16889589 -0.25373077 -0.08687702 -0.96252126 -0.3227156 -0.1312453 -0.118669584
-0.4861631 -0.5910219 -0.4449951 -0.16900823 -0.011642918 -0.42787197 -0.1300461 -0.6977614
-0.8861358 -0.07611052 -0.48513213 -0.5857623 -0.42540395 -0.345944 -1.2357242 -0.074424036
-0.06363911 -0.33583283 -0.7123618 -0.11572656 -0.089960024 -0.039738026 -0.6538441 -0.19275674

BN1.running_mean f4 [32]
00000000: 8d4b 793e 72e4 e33e 46ca 1b3e 7bb6 78be
00000010: 0cad 063f befd ba3d 6b08 633e 2b6d 46bd
00000020: b01d 083e fab1 263e cc28 a83d 8d5d 103f
00000030: 3fbe af3e 7221 693e 38bf 09be cff1 6abe
00000040: f5a4 85bd 4634 f63e 544b 0ebf 4874 473e
00000050: cbdb ec3d 9de3 a9be 549d e13e 9686 10be
00000060: 7c4b 053f 13dd 86be 78e9 12be bd20 8cbd
00000070: 6023 613d 3934 00be 8e59 bebe ba6e 5d3d
0.24345227 0.44510227 0.1521388 -0.24288361 0.526078 0.09130429 0.2217118 -0.048443954
0.13292575 0.1627883 0.082109064 0.5639275 0.34324834 0.22766665 -0.1345185 -0.22943805
-0.06525604 0.48086756 -0.5558369 0.19477952 0.1156536 -0.33181468 0.44065344 -0.1411384
0.52068305 -0.2634054 -0.14346874 -0.06842182 0.054965377 -0.12519921 -0.371777 0.054060675

BN1.running_var f4 [32]
00000000: bff2 443b 91cd ad3c 4601 493b 78ad 7a3b
00000010: cf49 e439 a4a4 3a3d 59f9 493b cc67 973b
00000020: d386 153c 3e0d 963b 8308 0b3c aebe 143b
00000030: f621 d43b 2f5c 493c fab3 513b dba9 3f3c
00000040: d26b 3f3a 7b03 183c c50f c13b ae59 983b
00000050: 2d77 383b e29b 863b 10ac fc3a 7b5f fc3a
00000060: 05ea 663b 5dab b43a 5076 b33c e874 4c3c
00000070: 0a84 063c 392f 163c 6235 4b39 4199 6f3c
0.0030051915 0.021216186 0.0030670925 0.0038250368 0.0004354254 0.04556717 0.0030818789 0.004620528
0.009126383 0.0045792153 0.008485916 0.0022696662 0.006473775 0.012290045 0.0031998144 0.011698212
0.0007302138 0.009278174 0.0058917725 0.0046493625 0.0028147206 0.004107938 0.0019277353 0.001925453
0.0035234701 0.001378398 0.021907002 0.0124790445 0.0082101915 0.009166532 0.00019379475 0.014623941

conv2.weight f4 [64, 32, 3, 3]
00000000: d8bd 14be f999 993d 7bd8 65bd 1713 16bd
00000010: 1dda 34bd b6ed 57be a03c 8abd cef1 5e3d
00000020: 9858 c3bd bb3d cdbc c4ae 3f3d 360c ea3d
00000030: 693e 68be be5e 8ebe cc0b 4bbe 853f 083e
00000040: 43b3 013e 0519 183e 4c10 bf3d f8d9 d23d
00000050: ef35 ca3d f6af f9bd 2a34 06bd 6e7d b7bd
00000060: 3c6e debd ca46 babd 17ab a03d 94f9 adbe
00000070: ab83 2e3d 01ee 273d c938 afbe 68d5 8a3d
00000080: 62a5 7abe ded8 23bc f329 9d3e ea62 473e
00000090: f7b6 7c3e 1451 ebbd aefc bebd 735a 4ebd
000000a0: 19c0 5abe 02ee 48be 54d1 c2bc 1157 98bd
000000b0: db91 c8bd bc2e 53be b73e 7cbd 9d9e f8bd
000000c0: 86b9 19be a299 8dbd ef18 6cbd acdc 1a3e
000000d0: 29ac 2f3e 59f8 3c3e 9aaf 45ba b764 6bbd
000000e0: b5c1 32be c04a 4c3d fe64 e33d fa4e 483e
000000f0: 3f6a 5bbe afc6 7ebe 957d 8cbe d9a9 b2bc
00000100: da3f b43d 8df9 f33c 269b 0cbd 5066 4ebc
00000110: 43f2 08be f079 f63d 8614 f53d 3a2e 3f3e
00000120: 6f19 6cbe e4b9 41bd 405a 60be 46fa f5bd
00000130: 74eb a73d 0b89 b2bd 1a7c f53c d3ec d83d
00000140: df47 39bd 3094 a5be 620b d8be 23d7 02bf
00000150: e9d2 a63d 32c0 083e e9f4 7a3d 025e bfbe
00000160: 3e3c d9be 2801 08bf 2f44 b53e 5051 8a3e
00000170: 9a4e 2a3e 7744 41bd 2ad5 1a3d 0fa7 46bc
00000180: d586 8b3b 4c30 053d 0762 063b bbea 25bd
00000190: 369f 823d 8491 bbbc 15cd aabd 0f98 7b3c
000001a0: e6db 2fbe 13d1 1a3e ece2 773d e9a0 0cbd
000001b0: 45c4 01bd a527 cf3d 0539 93bd ac05 043e
000001c0: e024 f2ba 9938 e0be 318d f9bd 598c cd3d
000001d0: 83b5 1d3e 2dc2 063e 1e0c 0a3d 9dd8 ccbd
000001e0: 00d6 15bd ddb7 463d d974 e5bd cc30 203c
000001f0: 2c56 f33d ebd5 ff3d 1650 04be ee62 c43b
00000200: d4f4 3cbd 58b4 933d 9db8 df3a 760a 97be
00000210: 3048 3ebd 0c52 383d e81c ecbd b025 83be
00000220: c12f 0dbd bd51 cabe 25ff d9bc 4394 ae3d
00000230: ca99 633d 652a bc3d 4276 363d 1bcd 5bbe
00000240: 0b9f f3be eaba aebe 2a16 a9be 9a3b 543e
00000250: a299 313e c46d 313d a480 2dbe f876 13be
00000260: d6bc 323e 0898 e63e 9d9f a33e 660f c73e
00000270: 4bef 1f3c 9e60 123d 8f60 fb3d d469 963d
00000280: 6c6c cd3d 3c79 d43d 9dd3 fabd f3eb 403b
00000290: 94f5 6a3e 6db4 1cbd 89b3 b3be 6851 ebbe
000002a0: 006a 9c3d e493 b63d 617e 183e 6536 9cbe
000002b0: bb74 ddbd 286c 41bd acce f5bc f1fa 89bd
000002c0: c9ef 00be 5ee5 db3d a997 a13d d733 763e
000002d0: 9509 923e 4bab f23d bf77 67bd 4f3a 9abe
000002e0: 7691 f8bd 0c57 7fbe b436 6fbe 34aa 5b3b
000002f0: 6d60 96be ceb9 043c 2fa2 143e bb5b 703e
00000300: 1d90 b9be 55c0 46be c384 98be 7a0d 86bd
00000310: 9987 773e 2ebc 4a3e 6088 83bd 6e9d 683d
00000320: 0fae bd3d 8e53 dd3c 06f7 28bd df14 2dbd
00000330: 274a be3b 6152 24be acb9 1d3d 991a 203e
00000340: b808 673d 5df4 2e3e 1788 0cbe 3dce b9bd
00000350: a87b 37be d7c8 44be 8171 4abd 7baf 11be
00000360: 083a 133e 9f11 793c be0b 2d3e b924 2dbe
00000370: 9840 1ebe 3572 c4bd 50cd 543b ff27 e73d
00000380: 3eaf 553e e13a dc3d 2e60 c2bd e92b 36bd
00000390: 77cd 8e3d 555f 47bd 71df 283d 1ce5 bdbe
000003a0: 11cf 01bf 2f78 0dbf dafd 15bf 1d56 1abf
000003b0: 69c1 25bf 1d2b 35be 6399 b2bd a4a0 82bd
000003c0: 6700 e9be 67cf 06bf ce9b 06bf bd22 1e3d
000003d0: fd84 e1bd d6ae bcbe 240e bebd e358 96bd
000003e0: 956b aa3b c218 233d 2335 013e 3acb 333e
000003f0: 2930 e93d e59a 0d3e 6c74 e73e 7565 d9bd
-0.14525545 0.07500071 -0.056114655 -0.0366393 -0.04415332 -0.21086773 -0.067498446 0.05442982
-0.09538382 -0.02505385 0.04679753 0.1142811 -0.22680058 -0.27806658 -0.19828719 0.13305481
0.12666039 0.14853294 0.0932928 0.102954805 0.09873568 -0.12191765 -0.03276459 -0.08959471
-0.10860869 -0.09095533 0.07845133 -0.33979475 0.042606037 0.040998463 -0.3422301 0.06778985
-0.24477151 -0.010000436 0.30696067 0.19471326 0.2467917 -0.11490074 -0.093255386 -0.050379228
-0.21362342 -0.19622043 -0.023781456 -0.074384816 -0.09793445 -0.20623296 -0.061583247 -0.12139628
-0.15012178 -0.06914069 -0.057640966 0.15123242 0.17155518 0.18454112 -0.000754112 -0.057469096
-0.17456706 0.049875975 0.11103247 0.19561377 -0.21427248 -0.2488048 -0.2743956 -0.021809505
0.08801241 0.029782081 -0.03432765 -0.012597635 -0.13373666 0.120349765 0.11966805 0.18669978
-0.23056577 -0.04729642 -0.21909428 -0.120106265 0.08199206 -0.08717545 0.029966403 0.10592046
-0.045234557 -0.3233962 -0.42196184 -0.5110952 0.08145697 0.13354567 0.06126872 -0.3737641
-0.42428774 -0.53126764 0.35403582 0.27015162 0.16631547 -0.047184434 0.037800945 -0.012124791
0.0042580166 0.032516763 0.0020505206 -0.04050706 0.06378023 -0.022896536 -0.083398975 0.015356078
-0.17173728 0.15118818 0.060519144 -0.034333143 -0.031681318 0.101149835 -0.0718861 0.12892789
-0.0018474124 -0.4379318 -0.12185133 0.10036535 0.15401272 0.1316001 0.033702962 -0.10002253
-0.03658104 0.04851519 -0.112039275 0.009777259 0.1188167 0.124919735 -0.12921175 0.0059932387
-0.046131924 0.07212132 0.0017068569 -0.2950017 -0.046455562 0.04500012 -0.11528951 -0.2561469
-0.03446937 -0.39515486 -0.02661092 0.085243724 0.055566587 0.091877736 0.044546373 -0.2146496
-0.47582278 -0.3412698 -0.33024722 0.20725861 0.17343763 0.04331757 -0.16943604 -0.14400852
0.17454848 0.45037866 0.31957713 0.38878936 0.009761642 0.035736673 0.122742765 0.07344404
0.100304455 0.10374686 -0.12247393 0.0029437512 0.22945243 -0.038258005 -0.35097912 -0.45960546
0.076374054 0.08914927 0.1489196 -0.3051025 -0.1081328 -0.047222286 -0.030005775 -0.067373164
-0.12591471 0.10737108 0.07890255 0.24043213 0.28522936 0.11849078 -0.056510683 -0.3012261
-0.121371195 -0.2493555 -0.23360711 0.0033518197 -0.29370442 0.00810094 0.14514993 0.23472492
-0.36242762 -0.19409306 -0.2978879 -0.06545539 0.2417282 0.19798347 -0.06422496 0.05679076
0.09261715 0.027017381 -0.041251205 -0.042256232 0.0058071795 -0.1604705 0.03850715 0.15635146
0.0564048 0.17085405 -0.13723789 -0.0907254 -0.17918265 -0.1921724 -0.049424652 -0.14227097
0.14377606 0.015201955 0.1689901 -0.1690854 -0.15454328 -0.09592096 0.0032471009 0.112869255
0.20867631 0.10753418 -0.09491001 -0.04447547 0.06972783 -0.0486749 0.041228715 -0.3708886
-0.50706583 -0.5526151 -0.5859047 -0.6028765 -0.64748245 -0.17692228 -0.087206624 -0.06378296
-0.4550812 -0.5266022 -0.5258149 0.038607348 -0.110116936 -0.3685214 -0.09280041 -0.073411725
0.005200813 0.039818533 0.12617926 0.17557994 0.11386139 0.13828619 0.4520601 -0.106150545

conv2.bias f4 [64]
00000000: 7469 08bd be92 b93a b07b 6bbc 7833 02bd
00000010: 4fd7 9c3d f695 c5bb c9b2 513d ae16 3c3d
00000020: a317 e43c aee1 3fbd e759 f73d 434c 473c
00000030: 9d8c 473d 74f5 b3bd a5c9 f83c cf1c a93b
00000040: bdae 0d3b 63d3 8dbd b985 23bd 4157 be3c
00000050: a265 003e e665 a13c 4916 d4bd 0e27 d3bd
00000060: ce44 c1bc 2d51 02bc 7bfe a43c a287 533d
00000070: 4fa8 2dba dad9 223c a6fa 4f3c 0445 563d
00000080: f8a9 253d d99d f0bc f369 38bb 0579 a0bd
00000090: 301a f7bc 73a4 c4bc ffca c6bd 77c7 b5bd
000000a0: 9050 613d a7d0 fabc 4eb7 9c3c 86c1 f33b
000000b0: a72d 06bd 0fe4 1f3d 5a15 903c e5ec c1bd
000000c0: 3bb8 f23b c8d7 0dbd 34a4 a6bd 999b cd3b
000000d0: 2179 2e3d c163 873d 0da5 643d 3693 a03d
000000e0: 10cd ab3d 9038 443c 771d b03c 9e9b 12bd
000000f0: 8aea 6b3d 8322 25bd f632 0f3c 2742 cf3b
-0.033303693 0.0014158112 -0.014372751 -0.031787366 0.07658254 -0.0060298396 0.051195893 0.045920067
0.027843302 -0.046846084 0.120776944 0.012164178 0.048718084 -0.08787051 0.03036959 0.005160905
0.0021619045 -0.069250844 -0.03992245 0.023234965 0.1253877 0.01970191 -0.10355813 -0.103101835
-0.023592379 -0.007953924 0.020140877 0.05164302 -0.0006624506 0.009939635 0.012694037 0.052311912
0.040445298 -0.029372143 -0.0028139323 -0.07835583 -0.030163854 -0.024004197 -0.09706687 -0.088759355
0.05500847 -0.030617071 0.019130375 0.0074388413 -0.03275838 0.039035853 0.017588306 -0.09469012
0.007407216 -0.034629613 -0.08136788 0.006274652 0.042595986 0.066108234 0.055821467 0.07840578
0.08388722 0.011976376 0.021498425 -0.03579294 0.05759672 -0.040316116 0.008740177 0.0063250246

BN2.weight f4 [64]
00000000: cd92 a33f 45a9 873f 6a64 983f 3de4 913f
00000010: db4f 803f c394 a13f 04a9 563f a2a6 8a3f
00000020: 4b69 933f 29b6 a53f 5c57 8c3f b116 8c3f
00000030: 077f 993f 77e3 a43f e0e3 8f3f becb 8c3f
00000040: 5d57 a63f b1fc 9f3f 8490 c13f 9f8b fe3f
00000050: 52f8 933f 711a 9b3f dc34 f03f 3970 9a3f
00000060: eedc 943f aeff f43f 433f 963f 22e7 a73f
00000070: 8690 ad3f 2c3c 9e3f ffbf a43f 9983 8b3f
00000080: 7b8b a63f b776 953f ca68 913f 6db5 973f
00000090: d86f ce3f 9b29 853f bd4c 463f cf7d 913f
000000a0: 17c0 843f 4e6d 723f d456 853f b310 ce3f
000000b0: eff2 b73f f6eb 9a3f 1af3 aa3f 4ea0 713f
000000c0: 7d1e c03f 0927 863f 3ecd 923f cf44 963f
000000d0: 2f58 b33f f10e 653f 74fd 9e3f 367f 8b3f
000000e0: a24e 8c3f 4d8e af3f 1113 953f 014b 773f
000000f0: a74c af3f 9f34 ac3f 9435 b63f 8256 a63f
1.2779175 1.0598532 1.1905644 1.1397778 1.002437 1.2623523 0.8385165 1.0832102
1.1516508 1.2946216 1.096416 1.0944425 1.1991891 1.2881917 1.1241417 1.0999677
1.2995411 1.249899 1.5122228 1.9886359 1.1560156 1.2117444 1.8766131 1.2065498
1.1629922 1.9140527 1.1738056 1.3117411 1.355973 1.2362113 1.2871093 1.0899535
1.3011316 1.1676854 1.1360104 1.1852242 1.6127882 1.0403322 0.77460843 1.1366519
1.0371121 0.94698036 1.0417123 1.6098846 1.4371012 1.210326 1.3355439 0.9438523
1.5009304 1.0480663 1.1468885 1.1739749 1.4011286 0.89475924 1.2421098 1.0898197
1.0961497 1.3715302 1.1646444 0.9659882 1.3695267 1.3453559 1.4235101 1.299515

BN2.bias f4 [64]
00000000: c0f8 0bbf 4f22 04bf 65c1 0ebf 1ed0 f9be
00000010: a8a4 03bf 445d 18bf f27e bebe fd09 dcbe
00000020: be14 0bbf 52f7 1bbf 2974 cfbe 9a0f 05bf
00000030: 45a2 0dbf fcfc 0dbf a142 eabe 7b96 fbbe
00000040: 6713 07bf 30e9 17bf 1ce2 73bf cb6d b1bf
00000050: 51b4 d7be aa7b 1dbf fceb 9bbf d173 f6be
00000060: 1e98 ffbe e506 86bf b334 28bf b179 0dbf
00000070: f27e 2abf 4152 fdbe a6a5 11bf ca51 04bf
00000080: 3f05 38bf 5e19 0cbf 800b edbe 5a83 01bf
00000090: f0ac 4dbf aa67 dcbe 5e41 a8be b885 f4be
000000a0: d0e0 dfbe ae9f bdbe f37c 00bf 86d6 a6bf
000000b0: 0f6d 24bf 4d35 13bf 7755 34bf 0c7f f9be
000000c0: 3bae 0dbf d49a 04bf a2ac 01bf f135 0fbf
000000d0: 3f73 2ebf b030 c0be 6304 0bbf f227 0cbf
000000e0: 02b4 d9be 22c4 19bf 3f4e f3be 7bf9 dbbe
000000f0: 414d 3dbf 77c6 28bf 7b58 64bf 696c 04bf
-0.5467644 -0.5161485 -0.55763847 -0.48791593 -0.5142312 -0.5951731 -0.37206227 -0.4297637
-0.54328525 -0.60924256 -0.4051831 -0.5197693 -0.5532573 -0.5546415 -0.4575396 -0.49138245
-0.5276398 -0.5934019 -0.9526689 -1.3861631 -0.42129758 -0.6151682 -1.2181392 -0.48135236
-0.49920744 -1.0470854 -0.6570541 -0.5526381 -0.66599953 -0.49476817 -0.56893384 -0.516873
-0.71883005 -0.5472621 -0.46297836 -0.5059105 -0.80342007 -0.4304784 -0.3286237 -0.4775827
-0.43726206 -0.37035888 -0.5019066 -1.3034217 -0.6422891 -0.57503206 -0.7044291 -0.48729742
-0.5534398 -0.5179875 -0.5065404 -0.55941683 -0.681446 -0.37537146 -0.5430357 -0.5474845
-0.42520148 -0.600649 -0.47520635 -0.42963776 -0.73946005 -0.65927833 -0.8919751 -0.5172792

BN2.running_mean f4 [64]
00000000: 05ed 4dbf 74c3 b7bf 8172 78bf bd80 93bf
00000010: a177 b4bf afce 41bf 9d01 3ebf 6708 6bbf
00000020: 9f11 4abf 36df 42bf 2d15 c0bf 0e0a 90bf
00000030: 98e6 9bbf 0d3b 22bf 6528 87bf 5159 babe
00000040: afef 48bf 4801 89bf 1c6f f7be 0da0 e9be
00000050: cba9 bcbf 1d87 c6bf 397f 3bbf 7d83 7bbf
00000060: 0722 b4bf 50d0 f3be ddd7 98bf 6464 8dbf
00000070: 0c22 0cbf 3736 1cbf ffd2 7bbf 83c2 9bbf
00000080: e737 30bf bf57 3fbf 919d 9bbf b708 9abf
00000090: ea7d 0ebf 8870 09c0 8970 49bf 584e 83bf
000000a0: bb61 94bf d076 b9bf 212b 91bf 8935 debe
000000b0: c5c3 56bf efff 37bf 0269 2abf c6e2 acbf
000000c0: 289d 3abf 2e98 3ebf a05c dfbf 0cb2 8fbf
000000d0: c662 8dbf 1433 12bf f0dc 58bf b287 87be
000000e0: 2e5e cebf f71b a0bf a933 bcbf 438c c3bf
000000f0: fed7 d2be d305 39bf e3d5 bdbe 68a1 1cbf
-0.8043979 -1.4356523 -0.9704972 -1.1523663 -1.4099008 -0.75706 -0.7422121 -0.91809696
-0.7893314 -0.7612184 -1.5006462 -1.1253068 -1.2179747 -0.63371354 -1.0559202 -0.36396268
-0.7849073 -1.0703516 -0.48326957 -0.45629922 -1.4739317 -1.5509983 -0.73241 -0.9824751
-1.4072884 -0.47619867 -1.1940876 -1.1046262 -0.5473945 -0.61020225 -0.9836883 -1.2168735
-0.688353 -0.74743265 -1.215746 -1.203391 -0.5566088 -2.1474934 -0.7868734 -1.0258284
-1.1592325 -1.4489384 -1.1341287 -0.4340022 -0.8389247 -0.718749 -0.6656648 -1.3506706
-0.7289605 -0.7445096 -1.7450142 -1.122621 -1.1045768 -0.5710919 -0.84712124 -0.26470715
-1.6122491 -1.2508534 -1.4703265 -1.527718 -0.41180414 -0.7227451 -0.37077245 -0.61183786

BN2.running_var f4 [64]
00000000: c3ff 6840 2cad 0841 0b49 ac40 277b 9040
00000010: 1054 8f40 6b97 9f40 8851 1841 a8c8 9e40
00000020: abf2 6b40 79f7 9640 a671 4441 596a e440
00000030: 85b0 a640 37ba 1140 0fa2 3141 041c a240
00000040: edd0 f340 8fd8 5240 1e15 9f3f 9f78 a63f
00000050: 26d1 2641 dd08 0141 46da ea3f 6253 7e40
00000060: 076a 0941 c09e df3f 8d0f 9940 a371 8e40
00000070: c2d7 9040 b554 8940 8626 b640 1058 e740
00000080: ce3e 1940 5db4 5140 cf44 bf40 5d72 b840
00000090: 31de 0a40 2bb8 4041 6f2a 0141 26d8 cf40
000000a0: 3d01 d540 7ae2 4441 ea8e 9e40 e698 be3f
000000b0: a0a0 3d40 acb6 5a40 4ef9 1e40 4a91 a240
000000c0: e25d 0c41 e80b 9b40 3172 a940 1f98 9a40
000000d0: cccc 9540 cab5 eb40 d5ca ae40 7017 5e40
000000e0: 7aa7 2741 a64f da40 27e2 ba40 6b4b e640
000000f0: f664 bb3f 651c 2d40 5999 9b3f b750 cf40
3.6406105 8.542278 5.3839164 4.5150332 4.4790115 4.9872336 9.519905 4.961994
3.6866863 4.717709 12.277746 7.137982 5.209048 2.2769907 11.102065 5.06592
7.6192536 3.2944677 1.242832 1.3005561 10.426062 8.064664 1.8347862 3.9738393
8.588386 1.7470322 4.7831483 4.4513717 4.5263376 4.29159 5.6922026 7.2295
2.3944583 3.2766335 5.9771495 5.7639604 2.1698115 12.044963 8.07286 6.4951353
6.656401 12.305292 4.9549456 1.4890411 2.9629288 3.4173994 2.4839664 5.0802355
8.772921 4.8452034 5.2951894 4.8310695 4.6812496 7.365941 5.46226 3.4701805
10.478388 6.8222227 5.8401065 7.1967063 1.4640186 2.704858 1.2156173 6.478603

fc1.weight f4 [128, 1024]
00000000: efcd b4ba 3fa6 fbbc f1b4 4dbc 7bd7 a7bc
00000010: 7fbf 4cba 01dd 1bbc e04b 11bd 5eaa 00bc
00000020: 643e f0bc 6df1 8ebc 85d9 163c 015d c23c
00000030: f9a5 b03b 4a35 8f3c 86cb 9b3c 1c41 11bd
00000040: 8d9f 4ebc 302b 5cbc 5392 1b3c fe09 83bc
00000050: ad0b 31ba a2c5 29bc 3b82 49bc f350 623c
00000060: ee9b 633c 74eb 00bc ad10 e7bc 1ae7 8f3b
00000070: d297 d7ba eb4e e5bc 8c8d 9bbc 875d 4b3b
00000080: ea1c 893a 5b74 babc 794f 7b3c ed57 7bbc
00000090: 57ad 473c bf22 a4bc 9063 efbc 26a7 d23a
000000a0: e4cd c93c 5d3f 583c 7c14 adbc ffd1 f5bc
000000b0: 323a 55bc 135b 8bbc 2bb4 c63b 47cc 0cbd
000000c0: c906 88bc 3214 2bbc 2130 743c 2b5d c63b
000000d0: 10eb b63c accd 99bb c4bb a0bc 3a89 0a3b
000000e0: 4002 25bb 77f0 06bd 47a0 d6bc dd4b ffbc
000000f0: b0f1 59bc ec71 0abd 799c 07bb 1979 623c
00000100: da70 213c 025f bb3c 548c 84bc adb3 b2bc
00000110: 9d0b a9bb 7d47 f1bb f29f 9f3c a7c2 0abd
00000120: 2ee0 15bd d3af f5bc c519 a2bc 588c 283c
00000130: 7b58 65bc 9c3f a03b 7132 ecbc 8531 ca3c
00000140: 4b9d 323b 390f 3e3b 7195 c63c 89d0 093c
00000150: 40cb 953b 4441 03bc a884 073b 27a2 06bc
00000160: 25a8 a9bb f542 dfbc 896f 933c cc25 2b3c
00000170: 9481 b9bc 1af7 953c 4937 babc 4199 17bc
00000180: f8e4 86bc be44 173c ffa6 3c3b 1a8c a5bc
00000190: 7a62 923b 6275 c43b 7dd4 c0ba 18f9 283c
000001a0: 54c4 2dbc c6ea 2b3c 4960 bf3c 08c3 9dbc
000001b0: b46e f53b d047 ec3b 262c b8bb dc32 6fbc
000001c0: b691 173c 74ce 373c 646f 783c 80c7 3fbc
000001d0: 076e 09bd 1828 8bbc 34dc 0bbd 1435 c43c
000001e0: f6d4 10bd 9ba7 3e3c f03b d3bc 1d1f 04bd
000001f0: 2414 233c e8d7 f8bc ba78 e5bc 14f8 9f3a
00000200: 46d1 02bd 0cc5 9f3c a6e5 acba 01df bfbb
00000210: f5d3 b43c dbe6 aabc 7544 bebc 1360 53bb
00000220: d1eb 593c 0d4b cb39 f21d 1a3c f3f4 13bd
00000230: 024d 40bc b85b fab9 d01c 293c 46af acbc
00000240: 8014 b4bc 0301 e3ba c078 25bc cdc1 7fbc
00000250: a7cb 953c ba87 a9bc 5746 0c3c f99f 963c
00000260: 9fac afbc 6ea0 8e3c 14ca c23b 899b 85bb
00000270: d538 0dbd f604 843b 0e6d 9e3c 2096 0fbc
00000280: 5a7e 973c 96f2 cebb 6f45 59bc 201f 70bc
00000290: 5d8d 05bc f833 9bbc 1eac aebb 9e50 d1bb
000002a0: 6138 03bd fbad a8bc 8acb ba3c 07c1 c0bb
000002b0: 1edf c5bb feb3 1a3c 7f50 933c 7a4a 17bd
000002c0: e4a5 0fbd a0a2 0bbc 7f72 8dbc 66a1 02bd
000002d0: fc93 f8bc 7f30 cc3b 9d9a 323c 5e0f 01bc
000002e0: 7e32 6ebb 796f e5bc 13d1 dfbc 83af 07bd
000002f0: c6c5 f3bb 1414 12bd 57c7 d2bb 3d1e 873c
00000300: 2ea1 90bc 1018 04bd 0788 c6bc 5b57 0f3c
00000310: 71c3 c4bc 44b4 c0bc 4a5c b4bc 5446 b1bc
00000320: d1fa 933c 3612 81bc aeed bb3c 0e73 0e3c
00000330: d593 2ebc 4d7e 01bd 3b41 8c3c 2319 ac3c
00000340: 031d 22bc fe5c 9e3c 1b73 3fbc 6554 08bd
00000350: 6da9 10bd eec5 84bc ce76 953b 0fd2 7e3c
00000360: af22 ab3c f583 be3c 6f4d c43b a06c 02bd
00000370: 6f7c b73b cf15 f8bb 9069 54bc 25eb 9c3c
00000380: e51b dbbb 1197 b4bc a135 b33c 713f 433c
00000390: d3c1 caba fe46 953c 511c fabc 14df d0bb
000003a0: a810 05bd d9dd 33bb f17c 3f3b 538e 89ba
000003b0: d3a9 03bd 6788 d7bc 1c5a 0dbd b08e a43c
000003c0: ecf6 9abc 7f4f 913c 7a1f fbbc de63 8fba
000003d0: ab5c b53c efb7 47bc 84fa dfbc 40de 23bc
000003e0: f64b 923b e156 41bc da4a 363b f8fa 7ebb
000003f0: 92a6 febc 2d08 28bc 5795 94bc 20e9 af3c
-0.0013794283 -0.03071892 -0.012555347 -0.020488491 -0.00078105176 -0.009513141 -0.03547275 -0.007853119
-0.029326625 -0.017449105 0.009207134 0.023725988 0.005390879 0.017481465 0.019017946 -0.035462484
-0.012611282 -0.013438031 0.009495336 -0.015995976 -0.0006753754 -0.010362061 -0.012299116 0.013813245
0.013892157 -0.007868636 -0.028206194 0.004391563 -0.0016448444 -0.027991733 -0.018988393 0.0031031088
0.0010460888 -0.02276056 0.015338772 -0.015340787 0.0121873235 -0.0200361 -0.02922228 0.0016071543
0.02463431 0.013198701 -0.021127932 -0.03000736 -0.013014363 -0.017011201 0.006063958 -0.0343745
-0.016604798 -0.010441827 0.014904053 0.006053587 0.022328883 -0.0046937075 -0.019620784 0.0021138922
-0.0025178343 -0.03294417 -0.026199473 -0.031164104 -0.013302252 -0.03380005 -0.002069263 0.013822817
0.009853566 0.022872452 -0.016180195 -0.021814192 -0.005158855 -0.0073632584 0.019485448 -0.03387704
-0.036590748 -0.029991066 -0.019787678 0.010287367 -0.013998146 0.0048903953 -0.028832646 0.024681816
0.0027254398 0.0029000773 0.024241181 0.008411535 0.0045713484 -0.008011166 0.0020678435 -0.008217371
-0.005177515 -0.027253607 0.01799752 0.010446023 -0.022644795 0.018306304 -0.02273144 -0.009252847
-0.016466603 0.009232698 0.002878606 -0.020208407 0.0044673057 0.0059954384 -0.0014711764 0.010313295
-0.01060589 0.010492986 0.023361342 -0.019258037 0.0074900035 0.007210709 -0.0056204973 -0.014599528
0.009251049 0.011218656 0.015163276 -0.011705279 -0.033552196 -0.016986892 -0.03414555 0.02395109
-0.035359345 0.01163664 -0.025785416 -0.032256234 0.009953532 -0.03037639 -0.028011668 0.001220467
-0.03193786 0.019503139 -0.0013190999 -0.0058554416 0.022073725 -0.020862034 -0.023226002 -0.003225331
0.013300852 0.00038775094 0.009406554 -0.036122274 -0.01173711 -0.00047752052 0.010321811 -0.02107967
-0.021982431 -0.0017319027 -0.01009959 -0.015610171 0.018285586 -0.020694602 0.008561692 0.018386828
-0.021444617 0.017410483 0.0059444997 -0.004077379 -0.034478027 0.0040289117 0.01933911 -0.00876382
0.018492866 -0.0063155396 -0.013261183 -0.014655858 -0.008151379 -0.018945679 -0.0053305766 -0.006387784
-0.03203619 -0.020590773 0.022802133 -0.0058823857 -0.0060385605 0.009442328 0.01798272 -0.03693626
-0.035070315 -0.00852266 -0.01726651 -0.031892203 -0.030344002 0.006231367 0.0109011205 -0.007877199
-0.0036346014 -0.028007256 -0.027321374 -0.033126365 -0.007439348 -0.03566368 -0.0064324546 0.01649391
-0.017654981 -0.03224951 -0.024234785 0.0087488545 -0.024018975 -0.023523457 -0.022016663 -0.02163998
0.018063935 -0.015755754 0.022940483 0.008694423 -0.010655363 -0.03161459 0.017120948 0.02100808
-0.009894612 0.019331452 -0.011685158 -0.03328361 -0.035317827 -0.016207661 0.0045612818 0.015553012
0.020890562 0.023256281 0.005990676 -0.031841874 0.0055995504 -0.007570959 -0.012964621 0.019155094
-0.006686675 -0.02204469 0.021876158 0.011916981 -0.0015469141 0.018222328 -0.03053108 -0.0063742492
-0.032486588 -0.0027445464 0.0029218758 -0.0010494686 -0.03214438 -0.026310159 -0.034509763 0.02008757
-0.01891657 0.017738102 -0.030654658 -0.0010939797 0.022138914 -0.012189849 -0.027341135 -0.010001719
0.0044646217 -0.011800499 0.002781561 -0.0038906913 -0.031085286 -0.0102558555 -0.018137617 0.021473467

fc1.bias f4 [128]
00000000: 6516 283c 4d4d 4fbc 1aeb 6c3e 8ddf af3d
00000010: 99b6 dd3b cef3 c63c 0623 a73a 2f4c 11bd
00000020: 9ca2 7cbc 1538 0d3b f490 1dbc ad7f d53d
00000030: 3682 5f3c 8d4b 00bd 19eb 6dbd a33e d13b
00000040: a412 cebc 20d7 93bc 027a fabc b77c 12bd
00000050: af50 b4bd dd82 5fbc 5b97 933e c04a 933c
00000060: 04ca b23c 64b9 383e df8c a5bc 5879 443d
00000070: 2d16 c1bc 0672 363c db7e c4bc ae58 12bd
00000080: f8ec 813c 600b 8b3b de89 a6bc e39d 92bb
00000090: 4b30 a33e 5c90 0dbd ab99 43bc 3b9b edbc
000000a0: f3a6 2bbc 86e3 55bc 105a 263c dca8 963b
000000b0: 4353 073e a90d b4bc c5c1 67bc 4ef9 a7bb
000000c0: 1c47 073c 4ed3 beba a3e5 cdbc b0c4 81bc
000000d0: 4cdb eabb 4a0e 97bb bb23 6f3e b96a fbbc
000000e0: 1cf0 09bd ffe7 b83c 82d7 b33c c1f1 263d
000000f0: f908 f13d c3c6 da3a 29f0 173e 97cc eabc
00000100: 1361 ef3a 863e cb3d 9722 db3b eab4 00bd
00000110: 44b1 953c 06a6 053c a3b8 933c c393 293d
00000120: d18b 13bd 2484 67bc 1ed7 ffbb 9304 963d
00000130: 289f 71bc ea7a 13bc ffab e23b 5331 38bc
00000140: 377b 1a3e fa6d d93c 7946 ccbc 6e95 d7bc
00000150: f9f7 10bd 9b26 213c 0ff5 a4bb cf6c d4bc
00000160: 4b34 0a3c 00b8 efbc c46e b6bb 1081 233e
00000170: 52de 0fbd bb92 87bb 4132 f2bc 190b c1bc
00000180: b5de e0bc db78 fabc 27f1 1a3d 50c1 98bc
00000190: e6bb 9a3e 8584 da3d 81ea 0dbd fb7f 0fbc
000001a0: b2d6 d2bc b36b 10bd 1a14 06bc df8e 4ebd
000001b0: a03d 863e 6d28 0dbd 453c 8c3e 0f09 eebc
000001c0: 832f e9bd d87f 023c 9d8a 3dbd dd11 87bc
000001d0: cd86 f83d 3ba1 233c 85d2 e9ba c4d0 14bd
000001e0: 671b 9e3e 3d01 c83c 577d 923c 475a 3d3e
000001f0: ba0d 833b e604 90bc 11f3 9cbc 53e8 723e
0.0102592455 -0.012652707 0.23136559 0.08587561 0.006766152 0.024286177 0.0012751527 -0.035473045
-0.0154196285 0.002154832 -0.009617079 0.10424743 0.013641885 -0.03132205 -0.058085535 0.0063856407
-0.025155373 -0.018046916 -0.030575756 -0.03576347 -0.08804452 -0.01364204 0.28826413 0.01797998
0.021824844 0.18039471 -0.020208774 0.047967285 -0.023570145 0.011135584 -0.02398627 -0.035729103
0.015860066 0.0042432994 -0.020329412 -0.004474388 0.31872782 -0.0345615 -0.011938493 -0.029004684
-0.0104768155 -0.013054734 0.0101533085 0.0045977663 0.13215356 -0.02197917 -0.014145319 -0.005126155
0.0082567 -0.0014558823 -0.025133913 -0.015840858 -0.0071672555 -0.0046098577 0.23353474 -0.030690538
-0.03367625 0.022571562 0.021953348 0.0407579 0.117692895 0.0016691316 0.14837708 -0.02866201
0.0018263183 0.09924035 0.006687473 -0.031422533 0.018273003 0.008157259 0.018032378 0.041400682
-0.03602201 -0.014130626 -0.0078076264 0.07325091 -0.014747418 -0.009001473 0.006917476 -0.011242229
0.15086065 0.026541699 -0.024935948 -0.02631637 -0.035392735 0.009835864 -0.005034096 -0.02593079
0.008435319 -0.029262543 -0.0055674035 0.15967202 -0.03512413 -0.0041373647 -0.029564979 -0.023564862
-0.027449945 -0.030575207 0.037827637 -0.018646866 0.3022148 0.10669807 -0.03464747 -0.00875854
-0.02573714 -0.03525896 -0.0081835035 -0.05042922 0.2621889 -0.03446238 0.27389732 -0.029057054
-0.11386015 0.007965051 -0.04627477 -0.01648801 0.12135086 0.009987171 -0.0017839229 -0.036331907
0.3088028 0.024414653 0.017882032 0.1849147 0.003999439 -0.01758046 -0.019158872 0.23721437

fc2.weight f4 [4, 128]
00000000: 3b8c 5dbd f894 26bd d13b 653d 1016 57bf
00000010: 2fc9 73bd d5a2 863d aaf8 053d be2f fa3b
00000020: 0e2b 833d c76d a3bd 17c0 833c 9716 f73e
00000030: d55e 17bd b8b4 86bc d83a 9a3e 23ce 153d
00000040: 0aa9 b13c 8c9c af3c ad63 613d 9115 983c
00000050: 2105 27bd 8f96 7abd 16fe 5cbf d0a1 533d
00000060: d5cc c7bc 6965 833e 26e8 b6bc 4189 f03e
00000070: 9944 daba 9c15 93bd 2174 cbbc 0c1a 723c
00000080: cacc 493c adba c43b 3744 9e3c 03f0 e1bd
00000090: 2d7c cf3e 6ad5 e0bc 7a58 66bd 397e 24bd
000000a0: 7500 89bd 0831 34bc c8aa 4a3d 0284 823d
000000b0: 9616 31bf 765b b4bc 3ec7 9d3d dcfa 1cbd
000000c0: d44a 8fbd 140a 863b bddc 4dbd 92e8 91bd
000000d0: 587c ac3c 1d09 7fbd 96f8 3d3f 5812 b0bc
000000e0: 6942 5ebb f895 dd3b 7c0f a7bd fe30 953e
000000f0: af8c 263f 10a1 9e3c 25e1 32bf 69b7 2bbd
00000100: 9aa2 22bc 292f b73e e007 98bd 0bf1 0fbd
00000110: 8d6e 85bc e36a 7abd 7834 e2bc 07b9 2cbf
00000120: 8cc8 063d 2321 fa3b ca4c 763d 1fe0 413e
00000130: 48e8 76bd 4687 863d 18ea 873d 63ad 9bbd
00000140: 32e5 fbbe a0e9 f7bd f362 2ebd 42cf 473e
00000150: 6cab 6ebc 7d7a 883c ecfe 53bd 0932 c23c
00000160: d41e 4ebd ddb2 a13d 59f9 4b3d b91b 323f
00000170: 5f79 00bd 7252 84bd 936d 00be 2604 82bc
00000180: fe60 abbc d8db 85bd 0f5b af3d 0ed4 603b
00000190: 2482 fe3e 2931 583e 3eea 3c3c 19a6 c73b
000001a0: a7b5 ca3c 3188 fbbc e6ca a9bd 18d6 823d
000001b0: eeb4 a3bf 4106 383d 9d52 2abe 5d32 733d
000001c0: ac69 0b3e 287c f5bc f390 33bf 8232 40bd
000001d0: f753 ea3e 5bbc e83e 4a64 093d 0985 7dbc
000001e0: 56d0 563e 6b2f a7bd db57 97bd c273 613f
000001f0: bb7b 9bbd 536e 07bd f64c 49bd a8fd 55bf
00000200: aa0c 87bd 6cd1 00bd f117 143f f3e9 013f
00000210: 9c2a d4bc d3d0 3abd 0543 35bd 6657 58bd
00000220: 21fd d13c bd42 8ab9 750a ca3c 69bf 53bf
00000230: 9188 173d 71ab 7bbd 72d4 4ebf c5fa 7d3d
00000240: 2ad2 2dbd 8cef 923c 505b 8e3e 94fc e63c
00000250: b81d 1f3c dfd5 a23c ccc9 38be fbb1 393d
00000260: 0031 873b 6d80 183f 34b2 ac3c af07 99bf
00000270: b7af f9bc 83b6 953d 2cad 7f3c 4f3f 0a3c
00000280: cdbd 95bd 0048 5d3c f619 903d 5d1c c2bc
00000290: 18b5 3abe 151c c53c b022 79bd 68c6 6dbd
000002a0: e7af 833c dd8d fbbc 3288 453d 5acc 29bd
000002b0: 4ebf c43e 14e9 7a3a f1e2 0cbd 538c 6abd
000002c0: 292d 8f3d ef25 5b3d 33a3 6dbd 4262 88bd
000002d0: 8996 983c e7ed 3b3c a934 c23a 07e8 1abd
000002e0: 5189 b83c 1134 403d a00e 8f3d dadb 43bf
000002f0: e740 57bd 933e 433d 94b4 d33d 4e47 7bbc
00000300: 48fe 573d 5cc3 8cbf c18c 5bbd 272b 70bd
00000310: 2069 823c 6ec7 563d 63bc f9bb aaa6 6c3e
00000320: 6c13 1a3d c128 a03b 7ac9 f5b9 1366 84bf
00000330: 7d4c 893c d273 e2b8 9bc4 843c 55da 6d3d
00000340: 7e78 2bbf 411f 85bf 867c 2bbd 4f40 35bf
00000350: fc39 823d 89e3 79bd 5394 1f3d af88 87bc
00000360: f8cc 22bd 449b 0f3d e40f 9fbd 3621 33bf
00000370: 4b54 22bd f5c0 d63c 8f4a 0f3f 8a3a 8c3c
00000380: c305 a83d 7a34 743d 5dd4 f73e b4b1 543d
00000390: a552 b43d d413 bf3e 6986 d3bc 7cf5 81ba
000003a0: 780d 2a3b 24ee 843d 3152 663d 34d8 04bc
000003b0: 2d06 b03c 29ad 57bd af9e d93e 7404 6fbc
000003c0: 82bb 6f3d 255b f53a 72c7 323f 239f ea3c
000003d0: 6e54 6dbd d821 19bf e4b9 073d 92a9 74bd
000003e0: 62b0 78bc 00c1 88bd 5885 04bd a555 45bf
000003f0: 04fb 9abd 7d46 903c aaac 0ebd d002 05bf
-0.054088812 -0.04066941 0.05596525 -0.8401804 -0.059518036 0.065740265 0.032707848 0.007635086
0.064046964 -0.07979923 0.016082807 0.48259422 -0.036955673 -0.016443595 0.3012302 0.03657354
0.02168705 0.021436952 0.0550267 0.018564971 -0.040776376 -0.06117874 -0.86325204 0.05166799
-0.024389664 0.25663307 -0.022327494 0.46979716 -0.0016652524 -0.07181856 -0.024835648 0.014776718
0.012316892 0.006003699 0.019319637 -0.11032107 0.40524426 -0.027445514 -0.05623672 -0.040159438
-0.0668954 -0.010998018 0.049479276 0.06372835 -0.6917509 -0.022016268 0.07704018 -0.038325176
-0.06996694 0.004090557 -0.05025934 -0.071244374 0.021055385 -0.06226455 0.7420744 -0.021493122
-0.0033914095 0.0067622624 -0.0815725 0.2913894 0.65058416 0.01936391 -0.69874793 -0.04192296
-0.009926463 0.35778168 -0.07423377 -0.035141986 -0.016288066 -0.06113709 -0.02761291 -0.6746983
0.0329061 0.0076333447 0.060131826 0.18933152 -0.060280114 0.0656877 0.06636447 -0.0760143
-0.491983 -0.12105107 -0.042574834 0.19512656 -0.014567237 0.01665997 -0.051756784 0.0237055
-0.05032237 0.078954436 0.049798343 0.6957355 -0.03136575 -0.06461038 -0.12541799 -0.015871119
-0.020920273 -0.065360725 0.0856229 0.0034306082 0.49708664 0.21112503 0.011530457 0.0060927984
0.024744822 -0.03070459 -0.08290653 0.063884914 -1.278959 0.04492784 -0.16633077 0.059374202
0.1361453 -0.029966429 -0.7014305 -0.046923168 0.45767185 0.45456204 0.03354291 -0.015473613
0.20977911 -0.08163341 -0.07389804 0.8806726 -0.07591959 -0.033064198 -0.04914566 -0.83590174
-0.06594212 -0.03144972 0.5784903 0.50747603 -0.025899224 -0.045609307 -0.044253368 -0.052817725
0.025633397 -0.00026371135 0.02466319 -0.82713944 0.036995474 -0.061442796 -0.80792916 0.06200673
-0.042436756 0.01793649 0.2780404 0.02819661 0.009711675 0.019877372 -0.1804573 0.04533575
0.0041257143 0.5957096 0.021081068 -1.195547 -0.030479295 0.07310202 0.015605252 0.0084379455
-0.07311592 0.013505936 0.07036202 -0.023695165 -0.18233144 0.024061242 -0.060824096 -0.058050543
0.016075088 -0.030707294 0.04822559 -0.04145465 0.38427204 0.00095714745 -0.034396116 -0.05726273
0.069910355 0.053502973 -0.058016967 -0.06659366 0.018626468 0.011470295 0.0014816719 -0.037818935
0.022526415 0.046924654 0.06985211 -0.7650734 -0.05255213 0.047667097 0.10337177 -0.015336825
0.052732736 -1.0997119 -0.05360103 -0.058634903 0.015919268 0.052436285 -0.0076213344 0.23110452
0.03761618 0.0048876707 -0.00046880153 -1.034365 0.016760105 -0.00010798093 0.01620703 0.058069546
-0.6698073 -1.0400163 -0.0418668 -0.7080125 0.06358716 -0.06100801 0.038959812 -0.016544668
-0.039746255 0.035060182 -0.07766703 -0.6997255 -0.03963117 0.026215056 0.5597314 0.017117757
0.08204224 0.059620358 0.48404208 0.051927283 0.08804826 0.37319815 -0.025820928 -0.0009915079
0.002594797 0.06490734 0.056230728 -0.0081081875 0.02148732 -0.052655373 0.42503878 -0.014588464
0.05852843 0.001871918 0.6983558 0.028640335 -0.057941847 -0.59817266 0.033136263 -0.059732027
-0.015178772 -0.06677437 -0.03235373 -0.7708381 -0.07567409 0.017611736 -0.034832634 -0.51957417

fc2.bias f4 [4]
00000000: 3ddc f13c bbae 063d 7f08 40be fd23 843c
0.029523963 0.03288148 -0.18753241 0.016130442
