cnn saved models/cnn_epoch17.pt (torch, 609343 bytes, 16 tensors)

conv1.weight f4 [32, 1, 3, 3]
0	0x3eae215c	0.34009826
1	0x3ec391b2	0.38197094
2	0xbe7ab2f1	-0.24482323
3	0xbebf427a	-0.37355405
4	0xbe9dbb1c	-0.30806816
5	0xbe6b88b3	-0.23001365
6	0x3d7f19fc	0.06228064
7	0x3c5d9f53	0.013526755
8	0x3eaa3e00	0.33250427
9	0x3f4d541d	0.8020647
10	0xbe4b8731	-0.1987579
11	0x3ed11df1	0.40843156
12	0xbe050b49	-0.12992586
13	0xbde635ee	-0.11240755
14	0xbe82ccf0	-0.2554698
15	0x3cbdfde8	0.023192361
16	0x3e919a8e	0.28438228
17	0xbe036780	-0.12832451
18	0x3dd07df4	0.10180274
19	0x3cf6f662	0.030146781
20	0x3ec48efa	0.38390332
21	0xbe8f2198	-0.27955317
22	0xbf06c6d8	-0.5264716
23	0x3da83773	0.08213701
24	0x3e82c73c	0.2554263
25	0x3e9844f1	0.29740098
26	0xbebf7f7b	-0.37401947
27	0xbd9a14eb	-0.07523521
28	0x3ecb6085	0.39722076
29	0x3e82d416	0.25552434
30	0x3d777d93	0.06042249
31	0xbe82a942	-0.25519758
32	0xbf01d66c	-0.50717807
33	0xbe01827e	-0.12647435
34	0x3e91f3c8	0.28506303
35	0xbe1517e0	-0.14559889
36	0xbdf09227	-0.11746626
37	0xbe68fb89	-0.22752203
38	0x3e60c154	0.21948749
39	0xbeaa4407	-0.33255026
40	0x3e6385b5	0.22218974
41	0x3e157c1e	0.14598128
42	0x3e9feea0	0.31236744
43	0x3dacd97c	0.08439919
44	0xbeab1716	-0.3341605
45	0x3e3c35fb	0.18379967
46	0xbea6abb7	-0.32552883
47	0xbef94b10	-0.4869008
48	0x3e29a925	0.1656843
49	0x3e9f381c	0.31097496
50	0xbdacb1de	-0.08432363
51	0xbe9cb8bc	-0.3060969
52	0xbd974c8c	-0.07387647
53	0xbf1bf059	-0.60913616
54	0x3e06507f	0.13116644
55	0xbe74d99f	-0.23911141
56	0xbe94cd36	-0.29062814
57	0x3dfc0bf0	0.123069644
58	0x3e96577e	0.29363626
59	0x3ed671cf	0.41883704
60	0xbee31bb4	-0.44357073
61	0x3d0ae316	0.033907972
62	0xbdaed166	-0.08536033
63	0x3ec9354f	0.39298484
64	0xbe9961f8	-0.29957557
65	0xbead507b	-0.33850464
66	0x3ea2b213	0.31776485
67	0xbe00f5e8	-0.12593806
68	0xbebfe839	-0.3748186
69	0x3e87883d	0.2647113
70	0xbd35f705	-0.04442503
71	0x3e298200	0.16553497
72	0x3db856ba	0.09000917
73	0xbdf6f7d1	-0.12058986
74	0xbf4418c8	-0.76600313
75	0xbcf24793	-0.029575145
76	0x3bfac92a	0.007653375
77	0x3d553f25	0.052062172
78	0x3e879421	0.264802
79	0x3dff32fb	0.12460896
80	0xbca46457	-0.020067377
81	0x3e6d1ca2	0.23155454
82	0xbeabdbd4	-0.33566153
83	0x3ef9e73e	0.48809236
84	0xbe8acc12	-0.27108818
85	0xbdc032b4	-0.09384671
86	0xbf01a3ae	-0.5064038
87	0x3e66bbea	0.22532621
88	0x3e20f14d	0.15717049
89	0xbde54f54	-0.11196771
90	0xbcc2bbbd	-0.023771161
91	0xbe7bc72c	-0.24587697
92	0xbd864680	-0.065564156
93	0xbe8daa62	-0.27669054
94	0x3dd9894b	0.1062189
95	0xbeec09d3	-0.46101245
96	0x3ea15f1c	0.31517875
97	0x3ec63f68	0.3872025
98	0xbc7c1009	-0.015384682
99	0xbe41157a	-0.18855849
100	0x3e708a4f	0.2349026
101	0xbe1fabd0	-0.15592885
102	0x3de3d4ad	0.11124549
103	0x3e80cc8c	0.25156057
104	0xbe4b68ed	-0.19864245
105	0x3efc9333	0.49331054
106	0xbe59fbef	-0.21287511
107	0xbe820cab	-0.2540029
108	0x3ef46160	0.4773054
109	0x3e19bdd6	0.15013823
110	0xb9c21b3c	-0.00037022855
111	0x3e4fcba1	0.20292522
112	0xbe5c7aaf	-0.21531175
113	0xbe3d2bcb	-0.18473737
114	0xbe73c8ee	-0.23807117
115	0xbdb1afc8	-0.08676106
116	0xbe8d0e65	-0.27550045
117	0xbeec2835	-0.46124426
118	0xbc8bb452	-0.017053757
119	0xbeda60d0	-0.42651987
120	0xbe804820	-0.25055027
121	0x3e06f4b7	0.13179289
122	0x3d1b9007	0.037979152
123	0x3c47b085	0.012188082
124	0x3e277dd9	0.16356601
125	0x3ebf1895	0.37323442
126	0x3ed3b663	0.41350088
127	0xbec4f64e	-0.38469166
128	0xbd81ab8d	-0.06331549
129	0x3e87660d	0.26445046
130	0x3e36d994	0.17856437
131	0xbef37d5d	-0.47556582
132	0x3ebe180d	0.37127724
133	0x3d98e99d	0.07466433
134	0xbecbf686	-0.3983652
135	0x3c74abcd	0.014933539
136	0xbd12ce80	-0.035841465
137	0xbf15139a	-0.58233035
138	0x3defec96	0.11715047
139	0xbebfcfdb	-0.3746327
140	0xbdc85fc3	-0.0978389
141	0x3f0c4193	0.5478756
142	0x3e00f337	0.12592779
143	0xbe001cf9	-0.12511052
144	0x3e9e63e5	0.30935588
145	0x3e227eb8	0.15868652
146	0xbec42a61	-0.38313583
147	0xbe0095b3	-0.12557106
148	0xbe50dba6	-0.20396289
149	0x3eda8e0b	0.42686495
150	0xbef3d107	-0.47620413
151	0x3eca96ea	0.39568263
152	0xbdaa9414	-0.08329025
153	0xbe662c9c	-0.22477955
154	0xbcbbd140	-0.022926927
155	0x3df3fd97	0.11913603
156	0x3d9a32e6	0.07529239
157	0xbf0a377b	-0.53990906
158	0xbecdfcda	-0.40231973
159	0x3e60f176	0.2196711
160	0x3ec28421	0.3799143
161	0x3ea1fb38	0.31636977
162	0x3e3823ff	0.17982481
163	0x3eeae168	0.45875096
164	0x3de5da5d	0.1122329
165	0x3e71670b	0.23574464
166	0xbe5aae1e	-0.21355483
167	0xbde8847f	-0.113533966
168	0xbd7ebfb1	-0.06219453
169	0xbec2c28c	-0.38039052
170	0xbb6289da	-0.003456703
171	0x3ec9bee7	0.3940346
172	0x3e701360	0.23444891
173	0x3d0e0396	0.03467139
174	0xbf1c53dd	-0.61065465
175	0xbee4ea2d	-0.44709912
176	0x3d6fa625	0.058508057
177	0x3e353a58	0.17698038
178	0x3e09352b	0.13399188
179	0x3e6debdb	0.23234503
180	0x3d467dd1	0.04845983
181	0xbef336ed	-0.47502843
182	0x3edc371c	0.43010795
183	0xbeaa803e	-0.33300966
184	0xbe1275e5	-0.14302786
185	0x3e6e2432	0.23255995
186	0xbe1870a9	-0.14886726
187	0xbc84fcd1	-0.016233834
188	0x3e6e3934	0.23264009
189	0xbeb37c86	-0.3505594
190	0x3ea7abd9	0.32748297
191	0x3ed6da0e	0.41963238
192	0x3e1d004a	0.15332142
193	0xbddc398b	-0.10753163
194	0xbe39433c	-0.18092054
195	0x3e3a9160	0.18219519
196	0xbd94e2f5	-0.07269851
197	0xbee0105d	-0.43762484
198	0x3e1b8590	0.15187669
199	0xbe3bb495	-0.18330605
200	0xbe50a6e3	-0.20376162
201	0x3eda788b	0.42670092
202	0xbdb4dd5f	-0.08831286
203	0xbe116a6c	-0.14200753
204	0xbf020e09	-0.50802666
205	0x3e928059	0.28613546
206	0x3eaa3b36	0.332483
207	0xbe3b5914	-0.182957
208	0xbc81de1b	-0.015852978
209	0x3da2c0cb	0.079469286
210	0xbd3b36d5	-0.04570659
211	0xbe70e127	-0.23523389
212	0x3eb41d12	0.3517843
213	0xbec4e64e	-0.3845696
214	0xbc07a1a0	-0.0082782805
215	0x3efa3279	0.48866633
216	0xbeb2fe67	-0.3495972
217	0xbdcb5d62	-0.09929921
218	0x3eaa28bb	0.332342
219	0xbef1dc5c	-0.47238433
220	0xbda4d66d	-0.08048711
221	0x3e8f70df	0.280158
222	0x3d182cb2	0.037152
223	0x3eb8f591	0.36124852
224	0x3d39dc08	0.045375854
225	0x3e587f5e	0.21142337
226	0xbe928dcd	-0.2862381
227	0x3d803910	0.06260884
228	0x3e95f577	0.29288837
229	0xbf26187f	-0.6488113
230	0x3eb7e814	0.3591925
231	0x3e2c284a	0.16812244
232	0xbecc3fea	-0.39892513
233	0x3e7108ec	0.2353856
234	0x3e02fdcb	0.12792127
235	0xbf03dd93	-0.5150997
236	0xbe94ed3c	-0.29087245
237	0x3e79e308	0.24403012
238	0xbed100db	-0.40820965
239	0xbe3296b5	-0.17440303
240	0xbdeede8a	-0.1166354
241	0x3ed6c97f	0.41950604
242	0x3e1b4b03	0.15165333
243	0xbf075fc4	-0.528805
244	0xbec646ea	-0.38725978
245	0x3e3cd498	0.18440473
246	0x3ddc84d2	0.10767521
247	0xbc90c414	-0.017671622
248	0xbd9fafea	-0.07797225
249	0x3e491f09	0.19640745
250	0xbe0080cf	-0.12549137
251	0x3eb159c6	0.34638804
252	0xbe9ad0fe	-0.30237573
253	0x3e8a9f46	0.2707464
254	0x3eff6aee	0.49886268
255	0xbebfb70d	-0.37444344

conv1.bias f4 [32]
0	0x3eb42312	0.35183007
1	0x3e97093f	0.29499242
2	0x3d28edbb	0.041242342
3	0xbeb0cb4a	-0.34530097
4	0x3f1371fa	0.5759579
5	0x3ed51fe8	0.41625905
6	0x3d8d247c	0.068917245
7	0x3e23a647	0.15981399
8	0x3e9bdc0e	0.30441326
9	0x3e65c431	0.22438122
10	0x3e2d99eb	0.16953246
11	0x3f3ef2ae	0.7458905
12	0x3edba7fc	0.429016
13	0x3e94c2a5	0.29054752
14	0xbe48bb2a	-0.19602647
15	0xbd8fc51e	-0.07020019
16	0x3cafa6fc	0.021441929
17	0x3ed5b675	0.41740766
18	0xbf494849	-0.78625923
19	0x3e4df920	0.20114565
20	0x3e56af82	0.20965388
21	0xbdc63403	-0.09677889
22	0x3ea10675	0.3145024
23	0xbe1123be	-0.14173791
24	0x3f2202db	0.6328561
25	0xbeca4c99	-0.39511564
26	0x3cbc7236	0.023003679
27	0xbd89592b	-0.067064606
28	0x3dfcea81	0.123494156
29	0xbc9d992f	-0.019238083
30	0xbeadaa04	-0.33918774
31	0xbb403895	-0.00293306

BN1.weight f4 [32]
0	0x3fae4d57	1.3617352
1	0x3ed0dd89	0.40794018
2	0x3f961b65	1.172711
3	0x3f5d2fa9	0.8640085
4	0x3f66201a	0.89892733
5	0x3f42a1cb	0.76028126
6	0x3f8a7a42	1.081856
7	0x3f333523	0.70002955
8	0x3f767123	0.9626638
9	0x3fab8c66	1.3402221
10	0x3f62a36b	0.88530606
11	0x3ed7b248	0.42128205
12	0x3f797bbf	0.97454447
13	0x3f5a3916	0.85243356
14	0x3f2a0491	0.6641322
15	0x3f83109c	1.0239444
16	0x3f59a5d7	0.85018677
17	0x3ed40b56	0.414149
18	0x3f2ee206	0.68313634
19	0x3f4e7c6f	0.8065862
20	0x3f7ccb74	0.98747945
21	0x3f734b0d	0.95036393
22	0x3f87e16b	1.0615667
23	0x3ef54b9f	0.47909257
24	0x3f151081	0.5822831
25	0x3fa1134d	1.2584015
26	0x3f98ed3a	1.1947396
27	0x3f3c932f	0.73662084
28	0x3f7aed42	0.98018277
29	0x3f2b8797	0.6700377
30	0x3f613754	0.8797505
31	0x3f605bf2	0.876403

BN1.bias f4 [32]
0	0xbed75ebd	-0.42064467
1	0xbe33c7d1	-0.17556693
2	0xbe635609	-0.22200789
3	0xbdc6a894	-0.097001225
4	0xbf8c6a0f	-1.0969867
5	0xbeafcf9a	-0.34338075
6	0xbe0fe188	-0.14050877
7	0xbd9fab78	-0.07796377
8	0xbf0f1e52	-0.5590564
9	0xbf393979	-0.7235332
10	0xbed9dd06	-0.4255144
11	0xbe1acaef	-0.15116476
12	0x3b50c8ac	0.003185789
13	0xbee4c384	-0.44680417
14	0xbe01c9bf	-0.12674616
15	0xbf4a6e62	-0.7907468
16	0xbf5fd66b	-0.8743655
17	0xbd7bdc36	-0.061489306
18	0xbf23eb40	-0.6403084
19	0xbf17e38c	-0.59331584
20	0xbf098334	-0.53715825
21	0xbeea994e	-0.45820087
22	0xbfa0372a	-1.2516835
23	0xbcdeb27b	-0.027184715
24	0xbd997d60	-0.074946165
25	0xbeb21324	-0.34780228
26	0xbf5394a5	-0.8264869
27	0xbdd4fb06	-0.103994414
28	0xbd8575b7	-0.06516593
29	0xbd3a0214	-0.045412138
30	0xbf35e47c	-0.71051764
31	0xbe1f9113	-0.15582685

BN1.running_mean f4 [32]
0	0x3eaecfc9	0.34142902
1	0x3ed9f290	0.42567873
2	0x3cf66a84	0.030080087
3	0xbebd35f9	-0.3695524
4	0x3f1218e2	0.5706922
5	0x3e3aab8b	0.18229501
6	0x3d82974d	0.063765146
7	0x3e17927a	0.1480197
8	0x3e690e54	0.22759372
9	0x3e34071f	0.17580841
10	0x3de6188f	0.11235153
11	0x3f436b80	0.76335907
12	0x3eca1782	0.3947106
13	0x3e5389b1	0.20657994
14	0xbe4e5485	-0.20149429
15	0xbe1c92bf	-0.15290354
16	0x3cd79c88	0.026319757
17	0x3ecab3fc	0.39590442
18	0xbf3eea30	-0.7457609
19	0x3e6f9f20	0.23400545
20	0x3e3106eb	0.17287795
21	0xbddec046	-0.10876517
22	0x3ea8c824	0.32965195
23	0xbe0755b2	-0.13216284
24	0x3f247984	0.6424792
25	0xbecd0c14	-0.40048277
26	0xbdb6cf76	-0.08926289
27	0xbe019901	-0.12656023
28	0x3db12c52	0.086510316
29	0xbd931433	-0.07181587
30	0xbeaa22a6	-0.3322956
31	0xbcc7afec	-0.024375878

BN1.running_var f4 [32]
0	0x3bb45969	0.0055038226
1	0x3cc958fb	0.024578562
2	0x3b95d5d4	0.0045726094
3	0x3bdb6a6d	0.0066960366
4	0x3a2640b2	0.0006342038
5	0x3d7d2064	0.06179847
6	0x3b9513d5	0.0045494833
7	0x3bca40a2	0.0061722556
8	0x3c917aa7	0.01775868
9	0x3bfed91e	0.007777347
10	0x3c713229	0.014721432
11	0x3b096299	0.002096331
12	0x3c61bacc	0.013777446
13	0x3cc3d7f7	0.023906691
14	0x3b92746d	0.0044694454
15	0x3ca847d8	0.02054207
16	0x3a8fd858	0.001097451
17	0x3c5e88eb	0.0135824485
18	0x3c526097	0.012840412
19	0x3bf3c219	0.0074389097
20	0x3b9199aa	0.004443367
21	0x3b9e64b5	0.0048337826
22	0x3af9d658	0.0019061072
23	0x3b59ad05	0.00332147
24	0x3bb027ab	0.0053758225
25	0x3b1c45c2	0.002384529
26	0x3cca4d70	0.024695128
27	0x3c6bc3c1	0.014389933
28	0x3c552786	0.013009911
29	0x3c2d95b1	0.010594771
30	0x39789688	0.000237072
31	0x3cb36a62	0.021901313

conv2.weight f4 [64, 32, 3, 3]
0	0xbe0c9a76	-0.13730797
1	0x3e451761	0.192472
2	0xbdb18c6f	-0.08669364
3	0xbb9f25f9	-0.0048568216
4	0x3cc80458	0.024416134
5	0xbe87cc7e	-0.26523203
6	0xbd6dc089	-0.058044944
7	0x3d974935	0.0738701
8	0xbdd34bce	-0.10317193
9	0xbd9279e6	-0.071521565
10	0xbc361cbf	-0.011115252
11	0x3d0f52c5	0.034991045
12	0xbebf4545	-0.37357536
13	0xbee97036	-0.45593423
14	0xbed43829	-0.41449097
15	0x3e40bf78	0.1882304
16	0x3e1ccb82	0.15312007
17	0x3e4af15f	0.19818638
18	0xbcfa8880	-0.030582666
19	0x3cbc530a	0.022988815
20	0x3db37fef	0.08764636
21	0xbdebd777	-0.11515706
22	0xbd48888b	-0.048958343
23	0xbd4a39ab	-0.049371403
24	0xbd88d87b	-0.066819154
25	0xbdba7dab	-0.091060005
26	0x3da5065c	0.080578536
27	0xbe9e56e2	-0.3092566
28	0x3c5518d0	0.013006404
29	0x3e37072c	0.1787383
30	0xbefa3181	-0.48865893
31	0x3cbb9fbf	0.022903321
32	0xbe41266b	-0.18862312
33	0xbbaa135d	-0.0051902966
34	0x3e9ee4fa	0.3103407
35	0x3e219d10	0.15782571
36	0x3eaa2256	0.3322932
37	0xbe77d30d	-0.24201603
38	0xbe42ae7f	-0.19011877
39	0xbc2e96b2	-0.010656046
40	0xbe723ddb	-0.23656408
41	0xbe36faf8	-0.17869174
42	0xbd37dd3c	-0.04488872
43	0xbe48d595	-0.19612725
44	0xbe4985b3	-0.19679908
45	0xbe872e32	-0.26402432
46	0xbd7d2528	-0.061803013
47	0xbe45c196	-0.19312128
48	0xbe8695a9	-0.26286057
49	0xbde346fe	-0.11097525
50	0xbe26dd03	-0.16295247
51	0x3e483723	0.19552283
52	0x3e6c67ef	0.23086523
53	0x3e70ebaf	0.23527406
54	0xbd89c88d	-0.06727705
55	0xbdf4ed2b	-0.11959299
56	0xbe5ab404	-0.21357733
57	0x3d68c937	0.05683252
58	0x3e1395aa	0.14412561
59	0x3e864930	0.26227713
60	0xbe7de79e	-0.24795386
61	0xbe8532f5	-0.2601544
62	0xbe3c5829	-0.18393005
63	0xbced5e38	-0.028975591
64	0x3e01f346	0.12690458
65	0x3da3ce31	0.07998312
66	0xbdd8f64c	-0.105938524
67	0xbd31fabb	-0.043452006
68	0xbea86767	-0.3289139
69	0x3e3d6673	0.18496113
70	0x3e383bb2	0.17991522
71	0x3e5c198b	0.21494119
72	0xbe83b9e2	-0.25727755
73	0xbcb30bbb	-0.02185618
74	0xbe48d51c	-0.19612545
75	0xbe218a3a	-0.15775385
76	0x3df44942	0.11928035
77	0xbe408c5d	-0.18803544
78	0x3e4fe4b6	0.2030209
79	0x3e53e7a3	0.20693831
80	0xbcc2f4b2	-0.02379832
81	0xbefa8124	-0.4892665
82	0xbf1eb883	-0.6200029
83	0xbf144a7d	-0.5792616
84	0x3ea1c71e	0.31597227
85	0x3e6090f1	0.21930291
86	0x3db4de6b	0.08831485
87	0xbebc4aae	-0.36775726
88	0xbee8ab85	-0.4544336
89	0xbf0fe495	-0.56208163
90	0x3ebf0400	0.3730774
91	0x3e85383a	0.2601946
92	0x3e3c6ffb	0.18402092
93	0xbdfcaeaf	-0.12338006
94	0xbdb54308	-0.08850676
95	0xbe91e283	-0.28493127
96	0x3d7e55df	0.06209361
97	0x3cf8b5de	0.030360159
98	0xbbf6a127	-0.007526535
99	0xbc0a9df2	-0.008460509
100	0x3d9b182a	0.07572968
101	0xbd4dbdfa	-0.050230004
102	0xbde8413b	-0.11340567
103	0xbc64eaba	-0.013971979
104	0xbe66ffec	-0.22558564
105	0x3e976b21	0.2957392
106	0x3d95c7ce	0.073135
107	0xbde5e0b4	-0.11224499
108	0x3e3de698	0.18544996
109	0x3e322868	0.17398226
110	0xbd755d9d	-0.05990373
111	0x3e044f3f	0.12920855
112	0xbdb17b28	-0.08666068
113	0xbf31fd97	-0.6952757
114	0xbdcb6e77	-0.09933179
115	0x3df63a55	0.12022845
116	0x3e504bbd	0.20341392
117	0x3d8ad02b	0.06777986
118	0x3b45b480	0.00301674
119	0xbe35849a	-0.17726365
120	0xbdf5bcc3	-0.11998894
121	0x3da8a575	0.082346834
122	0xbe5eb03d	-0.21746917
123	0xbd8b6b6d	-0.06807599
124	0x3c6ce679	0.014459246
125	0x3d15c32d	0.036563087
126	0xb865f909	-5.4829787e-05
127	0x3cca7e75	0.024718503
128	0xbd8d4d93	-0.06899562
129	0x3d8cb9d0	0.068713784
130	0xbad86d78	-0.0016512116
131	0xbee1eb9b	-0.44125065
132	0xbb9b79c0	-0.0047447383
133	0x3d1da725	0.03848948
134	0xbe4f3af2	-0.2023733
135	0xbee54c80	-0.44784927
136	0xbe379a6a	-0.17929998
137	0xbf25661f	-0.6460895
138	0x3a5494a5	0.0008109308
139	0x3d5770f3	0.05259795
140	0xbb872557	-0.0041243243
141	0x3e7a928c	0.24469966
142	0x3d2f2221	0.042757157
143	0xbe9f20a6	-0.31079596
144	0xbf12ef54	-0.57396436
145	0xbeb0e72d	-0.34551373
146	0xbed52ad1	-0.4163423
147	0x3e6266c8	0.2210952
148	0x3e5f0619	0.2177967
149	0x3d7823ba	0.060580947
150	0xbe1478b2	-0.14499167
151	0xbe13d379	-0.14436139
152	0x3e765e00	0.24059296
153	0x3ed4b8b8	0.4154718
154	0x3e941cbb	0.2892817
155	0x3ecbfe45	0.3984243
156	0xbdeefaf4	-0.11668959
157	0xbdefd386	-0.11710267
158	0xbcaa1575	-0.020762185
159	0x3d9268b5	0.071488775
160	0x3dc59d04	0.09649089
161	0x3e1ab798	0.15109098
162	0xbeb5f867	-0.35541078
163	0xbe7b6626	-0.24550685
164	0x3d834144	0.06408933
165	0x3d96931b	0.07352277
166	0xbeabd3f3	-0.33560142
167	0xbf017384	-0.5056689
168	0x3e40a2bc	0.18812078
169	0x3e468e49	0.19390215
170	0x3e85a2a4	0.26100647
171	0xbec287e4	-0.379943
172	0xbe0adb70	-0.13560271
173	0xbdf0eb5c	-0.11763641
174	0xbd078df6	-0.03309437
175	0xbdea4a13	-0.1143991
176	0xbe7b90c5	-0.24566944
177	0x3e56e0ee	0.20984241
178	0x3e10e28c	0.14148921
179	0x3ea30c3b	0.3184527
180	0x3eee0d4d	0.46494523
181	0x3e5eab6d	0.21745081
182	0xbbc1f7b4	-0.005919421
183	0xbe51f0cd	-0.20502014
184	0xbd3d64d7	-0.046238746
185	0xbe96f4bd	-0.29483595
186	0xbe8ea205	-0.27857986
187	0x3d741824	0.059593335
188	0xbec4c67e	-0.38432688
189	0xbe4d62dd	-0.20057245
190	0xbd6759cd	-0.056482125
191	0x3e69ec19	0.2284397
192	0xbee31d8c	-0.4435848
193	0xbea9b14f	-0.33143088
194	0xbed575f5	-0.41691557
195	0xbdf9b5bc	-0.12192866
196	0x3e754d22	0.23955205
197	0x3e486afa	0.19572058
198	0xbe1fde84	-0.15612227
199	0x3d269c87	0.04067662
200	0x3e026b28	0.1273619
201	0x3e572c6d	0.21013041
202	0x3d068995	0.032846052
203	0xbcf56d46	-0.029959332
204	0xbddd0276	-0.10791485
205	0xbe20fd2b	-0.15721576
206	0x3d269d47	0.040677335
207	0x3e5d3f21	0.21606113
208	0x3dd95645	0.10612158
209	0x3e489c0e	0.1959078
210	0xbdbb080a	-0.09132393
211	0xbc8dc17c	-0.017304175
212	0xbe00d53e	-0.12581345
213	0xbe933138	-0.28748488
214	0xbd018e68	-0.03162995
215	0xbe867370	-0.26259947
216	0x3e6034a3	0.2189508
217	0xbb802140	-0.0039102137
218	0x3e6b5347	0.22980987
219	0xbe27cf21	-0.16387607
220	0xbe501365	-0.20319898
221	0xbe35e08a	-0.17761436
222	0xbc4ac716	-0.012376567
223	0x3ddf53d1	0.109046586
224	0x3e8aa82b	0.27081427
225	0x3e167236	0.14692006
226	0x3d68d708	0.056845695
227	0x3d04558b	0.032308143
228	0x3cc7a27a	0.024369467
229	0xbd2afaac	-0.041742966
230	0x3d0120ec	0.031525537
231	0xbea5390d	-0.3227009
232	0xbede01a0	-0.43360615
233	0xbf13c863	-0.5772764
234	0xbf708788	-0.93956804
235	0xbf85e17b	-1.0459436
236	0xbf8be4a8	-1.0929155
237	0xbe1bdf45	-0.1522189
238	0xbde661e2	-0.112491384
239	0xbdbb8169	-0.091555424
240	0xbea5cc4e	-0.32382435
241	0xbeed0c02	-0.46298224
242	0xbef47a62	-0.4774962
243	0x3dc59d22	0.09649111
244	0xbe1e0748	-0.15432465
245	0xbeefeb12	-0.46859032
246	0xbe3ca374	-0.18421727
247	0xbe1d059e	-0.15334174
248	0xbd9fd70e	-0.0780469
249	0x3e10a32e	0.14124748
250	0x3e6264ca	0.2210876
251	0x3e739695	0.23787911
252	0x3e59563d	0.21224304
253	0x3e40d088	0.18829548
254	0x3f19dd0c	0.60102916
255	0xbd88c416	-0.066780254

conv2.bias f4 [64]
0	0xbcd7d3ff	-0.026346205
1	0x3ca528d0	0.020161062
2	0xbba170d5	-0.0049267807
3	0xbcef506d	-0.029213155
4	0x3df0bafa	0.11754413
5	0x3b7a2d6e	0.003817405
6	0x3d3bea4a	0.045877732
7	0x3d9d5366	0.076819226
8	0x3cb907b8	0.022586688
9	0xbd2a12f4	-0.04152198
10	0x3dc01e49	0.093807764
11	0x3c5b5997	0.013388059
12	0x3d47a0c4	0.048737302
13	0xbe62a92f	-0.22134851
14	0x3cba1956	0.02271716
15	0x3ca50bd1	0.020147236
16	0xbc94da07	-0.01817037
17	0xbd9c32eb	-0.07626899
18	0xbd670a37	-0.056406226
19	0x3d1eb0ba	0.03874276
20	0x3de9335b	0.113867484
21	0x3c8a9b27	0.016919686
22	0xbe02be46	-0.12767896
23	0xbe1c2982	-0.15250209
24	0xbcdbf2a2	-0.026849095
25	0xbd157fdf	-0.0364989
26	0x3d2e626b	0.042574327
27	0x3cc52f22	0.024070326
28	0x3d54c260	0.051943183
29	0x3c83b56f	0.016077725
30	0x3d88a62b	0.06672319
31	0x3d8f0d36	0.06984942
32	0x3cc016f1	0.02344844
33	0xbca490e6	-0.020088624
34	0xbbd8557e	-0.0066019883
35	0xbdb78236	-0.08960383
36	0x3dd92ae3	0.10603883
37	0xbcec45e9	-0.02884193
38	0xbdba52e4	-0.090978414
39	0xbd9626be	-0.07331608
40	0x3d36fdc0	0.04467559
41	0xbd0e6053	-0.03475983
42	0x3ce84557	0.028353376
43	0x3c8f375d	0.017482454
44	0x3c906fe1	0.017631473
45	0xbc7463ea	-0.0149163995
46	0x3cd29f18	0.025710627
47	0xbdd2dd12	-0.10296072
48	0x3d7a43a6	0.06109967
49	0xbd2a1c5f	-0.041530963
50	0xbd088bfc	-0.033336625
51	0x3c8b31b3	0.016991472
52	0x3d8d760e	0.06907283
53	0x3d8a0821	0.06739832
54	0x3d20dc8a	0.039272822
55	0x3e27adaa	0.16374841
56	0x3e0900cb	0.13379209
57	0x3cdcb21e	0.026940402
58	0x3be0fa20	0.0068657547
59	0xbd5ecbbe	-0.054393522
60	0x3d4b8420	0.04968655
61	0xbd49307f	-0.049118515
62	0x3d3ec4d8	0.046574444
63	0xbd199ed2	-0.03750498

BN2.weight f4 [64]
0	0x3fa9b76b	1.32591
1	0x3f8e5520	1.1119728
2	0x3fa27aa3	1.2693676
3	0x3f9dbc8a	1.2323163
4	0x3f87f145	1.0620505
5	0x3fa79a5b	1.309398
6	0x3f5515c5	0.8323634
7	0x3f8aeb74	1.0853105
8	0x3f997e57	1.1991681
9	0x3fa5aa8e	1.2942674
10	0x3f8edd6f	1.1161326
11	0x3f980a2e	1.1878107
12	0x3fa433f9	1.2828361
13	0x3fb4c2bd	1.412193
14	0x3f90778d	1.1286484
15	0x3f8f1071	1.1176893
16	0x3face01c	1.3505893
17	0x3fab72bc	1.3394389
18	0x3fd86006	1.6904304
19	0x4011353a	2.2688737
20	0x3f9a7f3b	1.2070078
21	0x3fabbf3c	1.3417735
22	0x4008432b	2.1290996
23	0x3fa21e92	1.2665579
24	0x3fa507f5	1.2893053
25	0x4001dfad	2.029277
26	0x3fadcd38	1.3578253
27	0x3fac2ea5	1.3451735
28	0x3fb98e88	1.4496622
29	0x3fa85c22	1.3153117
30	0x3fb63ffc	1.4238276
31	0x3f951728	1.1647692
32	0x3fb9b3f9	1.4508048
33	0x3faf0ff3	1.3676742
34	0x3f9d5516	1.2291591
35	0x3fa4a9ea	1.2864354
36	0x3febc12a	1.8418324
37	0x3f892435	1.0714175
38	0x3f466987	0.7750477
39	0x3f958fd1	1.1684514
40	0x3f87f1dc	1.0620685
41	0x3f7c3faf	0.98534673
42	0x3f929ffc	1.1455073
43	0x3fef83bb	1.8712076
44	0x3fcaec5b	1.585338
45	0x3fa73abd	1.30648
46	0x3fbc87ad	1.4728905
47	0x3f78b242	0.97147
48	0x3fccb560	1.5992851
49	0x3f909f26	1.1298568
50	0x3f9fe0f9	1.2490531
51	0x3fa77e3c	1.3085399
52	0x3fbff3eb	1.4996313
53	0x3f6c6c22	0.923525
54	0x3fa2d1c3	1.2720264
55	0x3f965e72	1.1747572
56	0x3f8dc24f	1.1074923
57	0x3fb6c279	1.4278098
58	0x3f972c50	1.1810398
59	0x3f825f4a	1.018533
60	0x3fbf2aba	1.4934914
61	0x3fb813f9	1.4381095
62	0x3fd816dd	1.6881977
63	0x3fa45602	1.2838748

BN2.bias f4 [64]
0	0xbf24eba5	-0.64422065
1	0xbf137edf	-0.57615465
2	0xbf124292	-0.5713283
3	0xbf1dddb4	-0.6166642
4	0xbf1679fd	-0.5877989
5	0xbf29f312	-0.6638652
6	0xbedc48ff	-0.43024442
7	0xbeef2c28	-0.46713376
8	0xbf1e70ff	-0.6189117
9	0xbf2bc804	-0.67102075
10	0xbefc8f18	-0.49327922
11	0xbf19cea1	-0.60080916
12	0xbf1d2e93	-0.6139919
13	0xbf28f44f	-0.65997785
14	0xbf0608e9	-0.52357346
15	0xbef1a95c	-0.47199523
16	0xbf16578d	-0.5872734
17	0xbf2e3066	-0.680426
18	0xbf8acec6	-1.0844352
19	0xbfd3d0bf	-1.6548079
20	0xbf030bac	-0.51189685
21	0xbf317501	-0.6931916
22	0xbfb5c51a	-1.4200776
23	0xbf0e8c11	-0.55682474
24	0xbf162f06	-0.586655
25	0xbf990ea2	-1.195759
26	0xbf350dc2	-0.7072412
27	0xbf255405	-0.6458133
28	0xbf34457a	-0.7041851
29	0xbf0a24bb	-0.53962296
30	0xbf2e7f0a	-0.68162596
31	0xbf16e1e7	-0.5893845
32	0xbf62b6b6	-0.88560045
33	0xbf2da9d7	-0.6783728
34	0xbf09e12e	-0.5385922
35	0xbf154269	-0.5830446
36	0xbf819ab1	-1.0125333
37	0xbee861fa	-0.4538725
38	0xbed030d3	-0.4066225
39	0xbf0fe4c0	-0.5620842
40	0xbeee6b15	-0.46566072
41	0xbed3bd7c	-0.41355503
42	0xbf1863b9	-0.59527165
43	0xbfba70ac	-1.4565635
44	0xbf440632	-0.76571953
45	0xbf217f9c	-0.6308534
46	0xbf4faf3c	-0.8112676
47	0xbeed9b9c	-0.46407783
48	0xbf36dde3	-0.7143232
49	0xbf159b0e	-0.5843972
50	0xbf206a8b	-0.6266257
51	0xbf2668d3	-0.650037
52	0xbf4a69e3	-0.7906782
53	0xbee9de78	-0.45677543
54	0xbf12e2da	-0.573774
55	0xbf1ebbad	-0.6200512
56	0xbef7dfea	-0.4841302
57	0xbf2b2ba9	-0.66863495
58	0xbf09758c	-0.5369499
59	0xbefb0400	-0.4902649
60	0xbf647974	-0.8924782
61	0xbf3f67d9	-0.74767834
62	0xbf8afc0b	-1.0858167
63	0xbf0f3ffd	-0.55957013

BN2.running_mean f4 [64]
0	0xbf8a316f	-1.0796336
1	0xbfe67ef5	-1.8007494
2	0xbfa82aec	-1.3138099
3	0xbfd0bfd9	-1.6308547
4	0xbfeb67d3	-1.839106
5	0xbfa31391	-1.2740346
6	0xbf8f3163	-1.1186947
7	0xbf839d88	-1.028245
8	0xbf65bd94	-0.897424
9	0xbfd05392	-1.6275504
10	0xbffa12dc	-1.9537005
11	0xbfb9de1a	-1.4520905
12	0xbfde52c6	-1.736901
13	0xbf8450be	-1.033714
14	0xc000dbfc	-2.0134268
15	0xbf53ab12	-0.8268291
16	0xbf9e4543	-1.2364887
17	0xbfab8907	-1.3401192
18	0xbf4cf800	-0.8006592
19	0xbf239b9d	-0.6390932
20	0xbfcc99ac	-1.5984397
21	0xbfd16557	-1.6359051
22	0xbf5f3df2	-0.87203896
23	0xbfc9ea0d	-1.5774552
24	0xbfea1335	-1.8287112
25	0xbf301d3e	-0.6879462
26	0xbfbe75a0	-1.4879646
27	0xbfb2c7b2	-1.3967192
28	0xbf977b71	-1.1834546
29	0xbfada6bb	-1.3566507
30	0xbfad79db	-1.3552812
31	0xbf8014c5	-1.0006338
32	0xbf6cf760	-0.92564964
33	0xbf552fa4	-0.8327582
34	0xbfb8db6d	-1.4441963
35	0xbfca2ebb	-1.5795511
36	0xbf22720a	-0.6345526
37	0xc021d269	-2.5284674
38	0xbfc410b9	-1.5317603
39	0xbf8ee33e	-1.1163099
40	0xbfdcff4f	-1.7265414
41	0xbfdb1975	-1.7117144
42	0xbf95553e	-1.1666639
43	0xbf2dab83	-0.6783983
44	0xbfa7b0af	-1.3100795
45	0xbf43acae	-0.76435363
46	0xbf75d123	-0.9602224
47	0xbff94453	-1.9473976
48	0xbf56b6b1	-0.83872515
49	0xbf8565be	-1.0421674
50	0xbfc08a2f	-1.504217
51	0xbfb5b199	-1.4194824
52	0xbfc63a69	-1.5486575
53	0xbf82df8d	-1.0224472
54	0xbfc2808d	-1.519548
55	0xbee0266c	-0.43779314
56	0xc00718e7	-2.110895
57	0xbfcbb1b8	-1.591361
58	0xc00d6231	-2.2091181
59	0xbff3f09f	-1.9057807
60	0xbf0388e8	-0.5138078
61	0xbf829407	-1.0201424
62	0xbee9e20a	-0.45680267
63	0xbfacf623	-1.3512615

BN2.running_var f4 [64]
0	0x4108e45a	8.55575
1	0x4150fde0	13.061981
2	0x4100e950	8.056961
3	0x412ee4e5	10.930882
4	0x4111c72b	9.111125
5	0x4122b64d	10.169507
6	0x41311d9d	11.06973
7	0x410229ed	8.135236
8	0x40b036e3	5.5067
9	0x4138d44d	11.551831
10	0x416b2ff5	14.699208
11	0x413ff253	11.996661
12	0x413048a1	11.017732
13	0x40a186a6	5.0476866
14	0x41c0e00e	24.109402
15	0x415935ae	13.575605
16	0x415d08c6	13.814642
17	0x40c421f0	6.1291428
18	0x40275e87	2.6151445
19	0x402ccc5f	2.6999738
20	0x415b6ab7	13.713553
21	0x41472cff	12.448485
22	0x40591d70	3.3924217
23	0x40f60a04	7.6887226
24	0x4172b535	15.16924
25	0x405c371f	3.4408643
26	0x411c2433	9.758838
27	0x4116b8a7	9.420081
28	0x4137d533	11.489551
29	0x413f61cd	11.961377
30	0x410dcf87	8.863166
31	0x40e89533	7.268213
32	0x407d3f51	3.9569895
33	0x407b7d96	3.9295402
34	0x412afb13	10.686297
35	0x411f5d6c	9.960308
36	0x40449336	3.071485
37	0x41965e48	18.796036
38	0x41330c05	11.190434
39	0x40d6c8df	6.7120204
40	0x413e9ca0	11.913239
41	0x415b2d88	13.698616
42	0x40d3233e	6.598052
43	0x4023c7f1	2.5590785
44	0x40dfb6e1	6.991074
45	0x40955e9b	4.6677985
46	0x40a32210	5.097908
47	0x418053fb	16.041006
48	0x4116ff90	9.437393
49	0x4111f50a	9.122324
50	0x40b9c171	5.8048635
51	0x41100c51	9.003007
52	0x4112db4e	9.178541
53	0x4155f518	13.372337
54	0x41356ef5	11.339589
55	0x40da360c	6.8190975
56	0x419140ee	18.156704
57	0x410e206f	8.882918
58	0x418b2462	17.392765
59	0x41513fb2	13.078051
60	0x4012c888	2.2934895
61	0x4095f241	4.685822
62	0x3fd7ce7a	1.6859887
63	0x415ee367	13.930518

fc1.weight f4 [128, 1024]
0	0xbab4cdef	-0.0013794283
1	0xbcfba63f	-0.03071892
2	0xbc4db4f1	-0.012555347
3	0xbca7d77b	-0.020488491
4	0xba4cbf7f	-0.00078105176
5	0xbc1bdd01	-0.009513141
6	0xbd114be0	-0.03547275
7	0xbc00aa5e	-0.007853119
8	0xbcf03e64	-0.029326625
9	0xbc8ef16d	-0.017449105
10	0x3c16d985	0.009207134
11	0x3cc25d01	0.023725988
12	0x3bb0a5f9	0.005390879
13	0x3c8f354a	0.017481465
14	0x3c9bcb86	0.019017946
15	0xbd11411c	-0.035462484
16	0xbc4e9f8d	-0.012611282
17	0xbc5c2b30	-0.013438031
18	0x3c1b9253	0.009495336
19	0xbc8309fe	-0.015995976
20	0xba310bad	-0.0006753754
21	0xbc29c5a2	-0.010362061
22	0xbc49823b	-0.012299116
23	0x3c6250f3	0.013813245
24	0x3c639bee	0.013892157
25	0xbc00eb74	-0.007868636
26	0xbce710ad	-0.028206194
27	0x3b8fe71a	0.004391563
28	0xbad797d2	-0.0016448444
29	0xbce54eeb	-0.027991733
30	0xbc9b8d8c	-0.018988393
31	0x3b4b5d87	0.0031031088
32	0x3a891cea	0.0010460888
33	0xbcba745b	-0.02276056
34	0x3c7b4f79	0.015338772
35	0xbc7b57ed	-0.015340787
36	0x3c47ad57	0.0121873235
37	0xbca422bf	-0.0200361
38	0xbcef6390	-0.02922228
39	0x3ad2a726	0.0016071543
40	0x3cc9cde4	0.02463431
41	0x3c583f5d	0.013198701
42	0xbcad147c	-0.021127932
43	0xbcf5d1ff	-0.03000736
44	0xbc553a32	-0.013014363
45	0xbc8b5b13	-0.017011201
46	0x3bc6b42b	0.006063958
47	0xbd0ccc47	-0.0343745
48	0xbc8806c9	-0.016604798
49	0xbc2b1432	-0.010441827
50	0x3c743021	0.014904053
51	0x3bc65d2b	0.006053587
52	0x3cb6eb10	0.022328883
53	0xbb99cdac	-0.0046937075
54	0xbca0bbc4	-0.019620784
55	0x3b0a893a	0.0021138922
56	0xbb250240	-0.0025178343
57	0xbd06f077	-0.03294417
58	0xbcd6a047	-0.026199473
59	0xbcff4bdd	-0.031164104
60	0xbc59f1b0	-0.013302252
61	0xbd0a71ec	-0.03380005
62	0xbb079c79	-0.002069263
63	0x3c627919	0.013822817
64	0x3c2170da	0.009853566
65	0x3cbb5f02	0.022872452
66	0xbc848c54	-0.016180195
67	0xbcb2b3ad	-0.021814192
68	0xbba90b9d	-0.005158855
69	0xbbf1477d	-0.0073632584
70	0x3c9f9ff2	0.019485448
71	0xbd0ac2a7	-0.03387704
72	0xbd15e02e	-0.036590748
73	0xbcf5afd3	-0.029991066
74	0xbca219c5	-0.019787678
75	0x3c288c58	0.010287367
76	0xbc65587b	-0.013998146
77	0x3ba03f9c	0.0048903953
78	0xbcec3271	-0.028832646
79	0x3cca3185	0.024681816
80	0x3b329d4b	0.0027254398
81	0x3b3e0f39	0.0029000773
82	0x3cc69571	0.024241181
83	0x3c09d089	0.008411535
84	0x3b95cb40	0.0045713484
85	0xbc034144	-0.008011166
86	0x3b0784a8	0.0020678435
87	0xbc06a227	-0.008217371
88	0xbba9a825	-0.005177515
89	0xbcdf42f5	-0.027253607
90	0x3c936f89	0.01799752
91	0x3c2b25cc	0.010446023
92	0xbcb98194	-0.022644795
93	0x3c95f71a	0.018306304
94	0xbcba3749	-0.02273144
95	0xbc179941	-0.009252847
96	0xbc86e4f8	-0.016466603
97	0x3c1744be	0.009232698
98	0x3b3ca6ff	0.002878606
99	0xbca58c1a	-0.020208407
100	0x3b92627a	0.0044673057
101	0x3bc47562	0.0059954384
102	0xbac0d47d	-0.0014711764
103	0x3c28f918	0.010313295
104	0xbc2dc454	-0.01060589
105	0x3c2beac6	0.010492986
106	0x3cbf6049	0.023361342
107	0xbc9dc308	-0.019258037
108	0x3bf56eb4	0.0074900035
109	0x3bec47d0	0.007210709
110	0xbbb82c26	-0.0056204973
111	0xbc6f32dc	-0.014599528
112	0x3c1791b6	0.009251049
113	0x3c37ce74	0.011218656
114	0x3c786f64	0.015163276
115	0xbc3fc780	-0.011705279
116	0xbd096e07	-0.033552196
117	0xbc8b2818	-0.016986892
118	0xbd0bdc34	-0.03414555
119	0x3cc43514	0.02395109
120	0xbd10d4f6	-0.035359345
121	0x3c3ea79b	0.01163664
122	0xbcd33bf0	-0.025785416
123	0xbd041f1d	-0.032256234
124	0x3c231424	0.009953532
125	0xbcf8d7e8	-0.03037639
126	0xbce578ba	-0.028011668
127	0x3a9ff814	0.001220467
128	0xbd02d146	-0.03193786
129	0x3c9fc50c	0.019503139
130	0xbaace5a6	-0.0013190999
131	0xbbbfdf01	-0.0058554416
132	0x3cb4d3f5	0.022073725
133	0xbcaae6db	-0.020862034
134	0xbcbe4475	-0.023226002
135	0xbb536013	-0.003225331
136	0x3c59ebd1	0.013300852
137	0x39cb4b0d	0.00038775094
138	0x3c1a1df2	0.009406554
139	0xbd13f4f3	-0.036122274
140	0xbc404d02	-0.01173711
141	0xb9fa5bb8	-0.00047752052
142	0x3c291cd0	0.010321811
143	0xbcacaf46	-0.02107967
144	0xbcb41480	-0.021982431
145	0xbae30103	-0.0017319027
146	0xbc2578c0	-0.01009959
147	0xbc7fc1cd	-0.015610171
148	0x3c95cba7	0.018285586
149	0xbca987ba	-0.020694602
150	0x3c0c4657	0.008561692
151	0x3c969ff9	0.018386828
152	0xbcafac9f	-0.021444617
153	0x3c8ea06e	0.017410483
154	0x3bc2ca14	0.0059444997
155	0xbb859b89	-0.004077379
156	0xbd0d38d5	-0.034478027
157	0x3b8404f6	0.0040289117
158	0x3c9e6d0e	0.01933911
159	0xbc0f9620	-0.00876382
160	0x3c977e5a	0.018492866
161	0xbbcef296	-0.0063155396
162	0xbc59456f	-0.013261183
163	0xbc701f20	-0.014655858
164	0xbc058d5d	-0.008151379
165	0xbc9b33f8	-0.018945679
166	0xbbaeac1e	-0.0053305766
167	0xbbd1509e	-0.006387784
168	0xbd033861	-0.03203619
169	0xbca8adfb	-0.020590773
170	0x3cbacb8a	0.022802133
171	0xbbc0c107	-0.0058823857
172	0xbbc5df1e	-0.0060385605
173	0x3c1ab3fe	0.009442328
174	0x3c93507f	0.01798272
175	0xbd174a7a	-0.03693626
176	0xbd0fa5e4	-0.035070315
177	0xbc0ba2a0	-0.00852266
178	0xbc8d727f	-0.01726651
179	0xbd02a166	-0.031892203
180	0xbcf893fc	-0.030344002
181	0x3bcc307f	0.006231367
182	0x3c329a9d	0.0109011205
183	0xbc010f5e	-0.007877199
184	0xbb6e327e	-0.0036346014
185	0xbce56f79	-0.028007256
186	0xbcdfd113	-0.027321374
187	0xbd07af83	-0.033126365
188	0xbbf3c5c6	-0.007439348
189	0xbd121414	-0.03566368
190	0xbbd2c757	-0.0064324546
191	0x3c871e3d	0.01649391
192	0xbc90a12e	-0.017654981
193	0xbd041810	-0.03224951
194	0xbcc68807	-0.024234785
195	0x3c0f575b	0.0087488545
196	0xbcc4c371	-0.024018975
197	0xbcc0b444	-0.023523457
198	0xbcb45c4a	-0.022016663
199	0xbcb14654	-0.02163998
200	0x3c93fad1	0.018063935
201	0xbc811236	-0.015755754
202	0x3cbbedae	0.022940483
203	0x3c0e730e	0.008694423
204	0xbc2e93d5	-0.010655363
205	0xbd017e4d	-0.03161459
206	0x3c8c413b	0.017120948
207	0x3cac1923	0.02100808
208	0xbc221d03	-0.009894612
209	0x3c9e5cfe	0.019331452
210	0xbc3f731b	-0.011685158
211	0xbd085465	-0.03328361
212	0xbd10a96d	-0.035317827
213	0xbc84c5ee	-0.016207661
214	0x3b9576ce	0.0045612818
215	0x3c7ed20f	0.015553012
216	0x3cab22af	0.020890562
217	0x3cbe83f5	0.023256281
218	0x3bc44d6f	0.005990676
219	0xbd026ca0	-0.031841874
220	0x3bb77c6f	0.0055995504
221	0xbbf815cf	-0.007570959
222	0xbc546990	-0.012964621
223	0x3c9ceb25	0.019155094
224	0xbbdb1be5	-0.006686675
225	0xbcb49711	-0.02204469
226	0x3cb335a1	0.021876158
227	0x3c433f71	0.011916981
228	0xbacac1d3	-0.0015469141
229	0x3c9546fe	0.018222328
230	0xbcfa1c51	-0.03053108
231	0xbbd0df14	-0.0063742492
232	0xbd0510a8	-0.032486588
233	0xbb33ddd9	-0.0027445464
234	0x3b3f7cf1	0.0029218758
235	0xba898e53	-0.0010494686
236	0xbd03a9d3	-0.03214438
237	0xbcd78867	-0.026310159
238	0xbd0d5a1c	-0.034509763
239	0x3ca48eb0	0.02008757
240	0xbc9af6ec	-0.01891657
241	0x3c914f7f	0.017738102
242	0xbcfb1f7a	-0.030654658
243	0xba8f63de	-0.0010939797
244	0x3cb55cab	0.022138914
245	0xbc47b7ef	-0.012189849
246	0xbcdffa84	-0.027341135
247	0xbc23de40	-0.010001719
248	0x3b924bf6	0.0044646217
249	0xbc4156e1	-0.011800499
250	0x3b364ada	0.002781561
251	0xbb7efaf8	-0.0038906913
252	0xbcfea692	-0.031085286
253	0xbc28082d	-0.0102558555
254	0xbc949557	-0.018137617
255	0x3cafe920	0.021473467

fc1.bias f4 [128]
0	0x3c281665	0.0102592455
1	0xbd3eaaef	-0.046549734
2	0x3e7322d5	0.23743756
3	0x3e2e0f8f	0.16998123
4	0x3bddb699	0.006766152
5	0xbd2616c8	-0.04054907
6	0x3aa72306	0.0012751527
7	0xbd114c2f	-0.035473045
8	0xbc7ca29c	-0.0154196285
9	0x3b0d3815	0.002154832
10	0xbc1d90f4	-0.009617079
11	0x3dc50d56	0.09621684
12	0x3c5f8236	0.013641885
13	0xbd5e73cb	-0.054309648
14	0x3d1c5e08	0.038175613
15	0x3bd13ea3	0.0063856407
16	0xbcce12a4	-0.025155373
17	0xbc93d720	-0.018046916
18	0x3b8edcb8	0.004359808
19	0xbd127cb7	-0.03576347
20	0xbdb450af	-0.08804452
21	0xbc5f82dd	-0.01364204
22	0x3ea898aa	0.32928973
23	0xbc60b00f	-0.013713851
24	0x3cb2ca04	0.021824844
25	0x3e432d6a	0.19060293
26	0xbca58cdf	-0.020208774
27	0x3dc09a41	0.094044216
28	0xbcc1162d	-0.023570145
29	0xbc723ca8	-0.014784969
30	0xbcc47edb	-0.02398627
31	0xbd1258ae	-0.035729103
32	0x3c81ecf8	0.015860066
33	0x3b8b0b60	0.0042432994
34	0xbd5529bb	-0.05204175
35	0xbb929de3	-0.004474388
36	0x3e9a935b	0.30190548
37	0xbd0d905c	-0.0345615
38	0xbc4399ab	-0.011938493
39	0xbced9b3b	-0.029004684
40	0xbc2ba6f3	-0.0104768155
41	0xbc55e386	-0.013054734
42	0x3c265a10	0.0101533085
43	0x3b96a8dc	0.0045977663
44	0x3e34a610	0.17641473
45	0xbcb40da9	-0.02197917
46	0xbc67c1c5	-0.014145319
47	0xbd9e24b7	-0.077218466
48	0x3c07471c	0.0082567
49	0xbabed34e	-0.0014558823
50	0xbccde5a3	-0.025133913
51	0xbc81c4b0	-0.015840858
52	0xbbeadb4c	-0.0071672555
53	0xbd19ef16	-0.037581526
54	0x3e734b6e	0.23759243
55	0xbcfb6ab9	-0.030690538
56	0xbd09f01c	-0.03367625
57	0xbc167303	-0.009182694
58	0x3cb3d782	0.021953348
59	0x3e084894	0.13308936
60	0x3e029578	0.1275233
61	0x3adac6c3	0.0016691316
62	0x3e5f81cb	0.21826856
63	0xbd1413e8	-0.036151797
64	0x3aef6113	0.0018263183
65	0x3ddaf440	0.10691118
66	0x3bdb2297	0.006687473
67	0xbd00b4ea	-0.031422533
68	0x3cc090ce	0.023506548
69	0x3c05a606	0.008157259
70	0x3c93b8a3	0.018032378
71	0x3dfbdbeb	0.122978054
72	0xbd138bd1	-0.03602201
73	0xbd3c7a9d	-0.04601537
74	0x3c1ac239	0.00944572
75	0x3cdb58d5	0.026775757
76	0xbc719f28	-0.014747418
77	0x3ce5661b	0.02800279
78	0x3be2abff	0.006917476
79	0xbc383153	-0.011242229
80	0x3e1fffb7	0.15624891
81	0x3de738d4	0.11290136
82	0xbccc4679	-0.024935948
83	0x3d503f47	0.050841596
84	0xbd10f7f9	-0.035392735
85	0x3c21269b	0.009835864
86	0xbba4f50f	-0.005034096
87	0xbcd46ccf	-0.02593079
88	0x3c0a344b	0.008435319
89	0xbcefb800	-0.029262543
90	0xbbb66ec4	-0.0055674035
91	0x3e1c0399	0.15235747
92	0xbd0fde52	-0.03512413
93	0xbb8792bb	-0.0041373647
94	0x3b4c6fb2	0.0031194505
95	0xbcc10b19	-0.023564862
96	0xbce0deb5	-0.027449945
97	0xbcfa78db	-0.030575207
98	0x3dc4ebd4	0.09615293
99	0xbc98c150	-0.018646866
100	0x3e89ee71	0.2693973
101	0x3de418d8	0.11137551
102	0xbd0dea81	-0.03464747
103	0xbc0f7ffb	-0.00875854
104	0xbcd2d6b2	-0.02573714
105	0xbd106bb3	-0.03525896
106	0xbc06141a	-0.0081835035
107	0xbd4e8edf	-0.05042922
108	0x3e95a2f7	0.29225895
109	0xbe093fc2	-0.13403228
110	0x3e839d24	0.25705826
111	0xbcee090f	-0.029057054
112	0xbd80a51f	-0.06281494
113	0x3c027fd8	0.007965051
114	0xbd7e4c40	-0.062084436
115	0xbc8711dd	-0.01648801
116	0x3e4f44e0	0.20241117
117	0x3d443e28	0.04791084
118	0xbae9d285	-0.0017839229
119	0xbd14d0c4	-0.036331907
120	0x3e8ece1d	0.27891627
121	0x390e383e	0.00013563127
122	0x3c927d57	0.017882032
123	0x3e3b5421	0.18293811
124	0x3b830dba	0.003999439
125	0xbc9004e6	-0.01758046
126	0xbc9cf311	-0.019158872
127	0x3e78459f	0.24245308

fc2.weight f4 [4, 128]
0	0xbd5d8c3b	-0.054088812
1	0xbd4d3567	-0.050099757
2	0x3d891ef7	0.06695359
3	0xbf8f41ed	-1.1191994
4	0xbd73c92f	-0.059518036
5	0x3ce3aeee	0.027793374
6	0x3d05f8aa	0.032707848
7	0x3bfa2fbe	0.007635086
8	0x3d832b0e	0.064046964
9	0xbda36dc7	-0.07979923
10	0x3c83c017	0.016082807
11	0x3f25c288	0.64749956
12	0xbd175ed5	-0.036955673
13	0x3c0163fa	0.007897371
14	0x3ea53da2	0.32273585
15	0x3d15ce23	0.03657354
16	0x3cb1a90a	0.02168705
17	0x3caf9c8c	0.021436952
18	0x3d904b48	0.07045609
19	0x3c981591	0.018564971
20	0xbd270521	-0.040776376
21	0xbd7a968f	-0.06117874
22	0xbfa327b1	-1.2746488
23	0x3d477c8e	0.04870277
24	0xbcc7ccd5	-0.024389664
25	0x3eafca94	0.34334242
26	0xbcb6e826	-0.022327494
27	0x3f26562f	0.64975256
28	0xbada4499	-0.0016652524
29	0xbda1b810	-0.07896435
30	0xbccb7421	-0.024835648
31	0x3c721a0c	0.014776718
32	0x3c49ccca	0.012316892
33	0x3bc4baad	0.006003699
34	0x3d50e142	0.050996073
35	0xbde1f003	-0.11032107
36	0x3f11d91a	0.56971896
37	0xbce0d56a	-0.027445514
38	0xbd66587a	-0.05623672
39	0xbd247e39	-0.040159438
40	0xbd890075	-0.0668954
41	0xbc343108	-0.010998018
42	0x3d4aaac8	0.049479276
43	0x3d828402	0.06372835
44	0xbf891930	-1.0710812
45	0xbcb45b76	-0.022016268
46	0x3d9dc73e	0.07704018
47	0xbd0cafeb	-0.034347456
48	0xbd8f4ad4	-0.06996694
49	0x3b860a14	0.004090557
50	0xbd4ddcbd	-0.05025934
51	0xbd91e892	-0.071244374
52	0x3cac7c58	0.021055385
53	0xbd15733b	-0.036486845
54	0x3f9608d4	1.1721444
55	0xbcb01258	-0.021493122
56	0xbb5e4269	-0.0033914095
57	0xbc30a915	-0.0107825
58	0xbda70f7c	-0.0815725
59	0x3ec533b3	0.38516006
60	0x3f71a99e	0.9439944
61	0x3c9ea110	0.01936391
62	0xbf97aa5c	-1.1848865
63	0xbd0c2a44	-0.034219995
64	0xbc22a29a	-0.009926463
65	0x3ed06a5a	0.4070614
66	0xbd9807e0	-0.07423377
67	0xbd0ff10b	-0.035141986
68	0xbc1af541	-0.009457887
69	0xbd7a6ae3	-0.06113709
70	0xbce23478	-0.02761291
71	0xbf773667	-0.96567386
72	0x3d06c88c	0.0329061
73	0x3e8c6fae	0.27428955
74	0x3e5e3bf1	0.21702553
75	0x3e268af5	0.16263945
76	0xbd76e848	-0.060280114
77	0x3ea2cadc	0.31795394
78	0x3d87ea18	0.06636447
79	0xbd9bad63	-0.0760143
80	0xbf25d81b	-0.64782876
81	0xbe4ca253	-0.19983797
82	0xbd2e62f3	-0.042574834
83	0x3e1b7d18	0.15184438
84	0xbc6eab6c	-0.014567237
85	0x3c887a7d	0.01665997
86	0xbd53feec	-0.051756784
87	0x3cc23209	0.0237055
88	0xbd4e1ed4	-0.05032237
89	0x3da1b2dd	0.078954436
90	0x3d4bf959	0.049798343
91	0x3f67c2b9	0.905315
92	0xbd00795f	-0.03136575
93	0xbd845272	-0.06461038
94	0xbe317f43	-0.17333703
95	0xbc820426	-0.015871119
96	0xbcab60fe	-0.020920273
97	0xbd85dbd8	-0.065360725
98	0x3db86137	0.09002917
99	0x3b60d40e	0.0034306082
100	0x3f4a6abb	0.7906911
101	0x3e8dc9ca	0.27693015
102	0x3c3cea3e	0.011530457
103	0x3bc7a619	0.0060927984
104	0x3ccab5a7	0.024744822
105	0xbcfb8831	-0.03070459
106	0xbda9cae6	-0.08290653
107	0x3d82d618	0.063884914
108	0xbfe06f5c	-1.7533984
109	0xbd193445	-0.037403364
110	0xbe414c4d	-0.18876763
111	0x3d73325d	0.059374202
112	0x3e0f64b6	0.14003262
113	0xbcf57c28	-0.029966429
114	0xbf87b2df	-1.0601462
115	0xbd403282	-0.046923168
116	0x3f2da155	0.678243
117	0x3f21939e	0.6311587
118	0x3d09644a	0.03354291
119	0xbc7d8509	-0.015473613
120	0x3e88166e	0.26579612
121	0xbde7fdf3	-0.11327734
122	0xbd9757db	-0.07389804
123	0x3f9fbbcf	1.247919
124	0xbd9b7bbb	-0.07591959
125	0xbd076e53	-0.033064198
126	0xbd494cf6	-0.04914566
127	0xbfb5a426	-1.4190719
128	0xbd870caa	-0.06594212
129	0x3c930561	0.0179469
130	0x3f528c6c	0.82245517
131	0x3f332355	0.6997579
132	0xbcd42a9c	-0.025899224
133	0xbd47db63	-0.048793208
134	0xbd354305	-0.044253368
135	0xbd585766	-0.052817725
136	0x3cd1fd21	0.025633397
137	0xb98a42bd	-0.00026371135
138	0x3cca0a75	0.02466319
139	0xbf9f471b	-1.2443575
140	0x3d178891	0.036995474
141	0xbd3d39e0	-0.046197772
142	0xbf8cdee3	-1.100552
143	0x3d7dfac5	0.06200673
144	0xbd2dd22a	-0.042436756
145	0x3c92ef8c	0.01793649
146	0x3ebdfdce	0.371077
147	0x3ce6fc94	0.02819661
148	0x3c1f1db8	0.009711675
149	0x3ca2d5df	0.019877372
150	0xbed01ec0	-0.4064846
151	0x3c8df163	0.017327016
152	0x3b873100	0.0041257143
153	0x3f64d17d	0.89382154
154	0x3cacb234	0.021081068
155	0xbff1c91e	-1.8889501
156	0xbcf9afb7	-0.030479295
157	0x3d98f8f7	0.07469361
158	0x3c7fad2c	0.015605252
159	0x3c0a3f4f	0.0084379455
160	0xbd95bdcd	-0.07311592
161	0x3c5d4800	0.013505936
162	0x3d1e82a2	0.0386988
163	0xbcc21c5d	-0.023695165
164	0xbe415565	-0.18880232
165	0x3cc51c15	0.024061242
166	0xbd7922b0	-0.060824096
167	0xbd6dc668	-0.058050543
168	0x3c83afe7	0.016075088
169	0xbcfb8ddd	-0.030707294
170	0x3d458832	0.04822559
171	0xbd29cc5a	-0.04145465
172	0x3f156bc9	0.5836759
173	0x3a7ae914	0.00095714745
174	0xbd0ce2f1	-0.034396116
175	0xbd54a2b3	-0.051912975
176	0x3d8f2d29	0.069910355
177	0x3d5b25ef	0.053502973
178	0xbd6da333	-0.058016967
179	0xbd886242	-0.06659366
180	0x3c989689	0.018626468
181	0xbbd1c29e	-0.006401374
182	0x3dc1a874	0.09455958
183	0xbd1ae807	-0.037818935
184	0x3cb88951	0.022526415
185	0x3c97b2ff	0.01851797
186	0x3d8f0ea0	0.06985211
187	0xbf8f6d22	-1.120518
188	0xbe13a003	-0.14416508
189	0x3d433e93	0.047667097
190	0x3e6813ed	0.22663851
191	0xbc95e8aa	-0.01829942
192	0x3d57fe48	0.052732736
193	0xbfcc0e2e	-1.5941827
194	0xbd5b8cc1	-0.05360103
195	0xbd702b27	-0.058634903
196	0xba648931	-0.0008717953
197	0x3d56c76e	0.052436285
198	0xbbf9bc63	-0.0076213344
199	0x3e9f1339	0.31069353
200	0x3d1a136c	0.03761618
201	0xbf0cb742	-0.5496713
202	0xbd04eb81	-0.032451157
203	0xbfaa1e1e	-1.3290441
204	0x3c894c7d	0.016760105
205	0xbe3e8c0c	-0.18608111
206	0x3c84c49b	0.01620703
207	0x3d6dda55	0.058069546
208	0xbf72fe8e	-0.9491967
209	0xbfc7a403	-1.5596927
210	0xbd2b7c86	-0.0418668
211	0xbf70a92b	-0.9400813
212	0x3d8239fc	0.06358716
213	0xbd79e389	-0.06100801
214	0x3d1f9453	0.038959812
215	0xbc8788af	-0.016544668
216	0xbd22ccf8	-0.039746255
217	0x3d0f9b44	0.035060182
218	0xbd9f0fe4	-0.07766703
219	0xbf808871	-1.0041639
220	0xbd22544b	-0.03963117
221	0x3cd6c0f5	0.026215056
222	0x3f50c714	0.8155377
223	0x3c8c3a8a	0.017117757
224	0x3da805c3	0.08204224
225	0x3d74347a	0.059620358
226	0x3f302d73	0.6881935
227	0x3d54b1b4	0.051927283
228	0x3d701720	0.058615804
229	0x3f0efda3	0.5585577
230	0xbcd38669	-0.025820928
231	0xba81f57c	-0.0009915079
232	0x3b2a0d78	0.002594797
233	0x3d84ee24	0.06490734
234	0x3d665231	0.056230728
235	0xbc04d834	-0.0081081875
236	0x3e7fc18f	0.2497618
237	0x3b30d38c	0.002698156
238	0x3f0eb428	0.55743647
239	0xbc6f0474	-0.014588464
240	0x3d7e84a1	0.062138204
241	0x3af55b25	0.001871918
242	0x3f76ecea	0.9645525
243	0x3cea9f23	0.028640335
244	0xbd8643cb	-0.06555899
245	0xbf5a2ae6	-0.8522171
246	0x3d07b9e4	0.033136263
247	0xbd74a992	-0.059732027
248	0xbc989d45	-0.01862968
249	0xbd87af5d	-0.06625245
250	0xbd048558	-0.03235373
251	0xbf8c71a5	-1.0972182
252	0xbd9afb04	-0.07567409
253	0x3c90467d	0.017611736
254	0xbd0eacaa	-0.034832634
255	0xbf48f6ab	-0.78501385

fc2.bias f4 [4]
0	0xbd3a2c1a	-0.045452215
1	0x3d84ef4e	0.06490956
2	0xbe03df8b	-0.12878244
3	0x3b310218	0.0027009305
