cnn saved models/cnn_epoch21.pt (torch, 609343 bytes, 16 tensors)

conv1.weight f4 [32, 1, 3, 3]
00000000: bf80 ae3e 2c39 d33e 826d 87be eb07 c8be
00000010: 2fde aabe 376f 75be 28e7 7b3d d0d3 d23c
00000020: 3e00 b53e e577 603f 6d69 35be 3d60 c63e
00000030: 3acd 3fbe 035d dfbd 9cec 92be c3d6 a53c
00000040: 72e8 9e3e f842 fbbd e5ac da3d b70d 0f3d
00000050: 8e4e ca3e 36bd 92be 1e44 12bf 2095 ce3d
00000060: ca67 8f3e 6b19 a13e 9c40 bdbe 2480 89bd
00000070: 61e0 df3e 8ee7 843e 2514 353d 5482 83be
00000080: 488b 0ebf 253b ffbd 65b2 953e 924d 0bbe
00000090: e3ea 09be 4670 51be 1098 733e b81b b4be
000000a0: 2bb1 823e aa93 203e 3439 bc3e b208 d23d
000000b0: 79cf aebe e3c7 133e 54a3 cabe 21f6 0fbf
000000c0: b405 433e f757 a83e f86a a5bc 6c08 a1be
000000d0: 3bfe b4bd 0fba 0bbf f4d5 1e3e e2a6 99be
000000e0: b4f7 94be 2d07 193e 950c 9c3e a4f5 d93e
000000f0: 8204 efbe b1e2 473d 9701 a9bd ea0d d43e
00000100: fe46 afbe ea00 babe f23e a73e b09e 1bbe
00000110: a043 c3be 76c7 883e d799 aabc 7070 483e
00000120: c665 db3d 0002 17be efa7 50bf a535 1ebd
00000130: cf1a 013d db71 a83d 0d0e 8c3e c567 173e
00000140: 4e58 9cbb 7d47 813e 115c b8be 8d72 053f
00000150: 2a78 68be 6d87 08be 3083 09bf 802b 6c3e
00000160: 0a99 3e3e f1c9 a4bd 9a41 b6bc f907 7ebe
00000170: e962 96bd b646 9ebe 6829 d43d f7bc f5be
00000180: 84b2 a63e 2398 d93e 6b49 6cbc 06db 5bbe
00000190: f452 553e 708f 0dbe da2b f63d f1d7 833e
000001a0: 5efd 46be fdb9 103f 4d86 7cbe c383 8cbe
000001b0: 34db 043f 906b 2f3e 2999 1b3d 8926 643e
000001c0: 8aa0 60be 30f1 43be 043f 8abe f255 debd
000001d0: 1911 8bbe 0e4e fbbe d35e d0bc a553 dfbe
000001e0: 9d72 86be 623d 1f3e 23eb fa3c c8bc c83b
000001f0: 5423 3e3e 059a cb3e 2d6e dc3e ddd8 cebe
00000200: bd5d 97bd 883b 923e 76ae 403e 4edf fabe
00000210: a9ff bc3e 5128 8b3d 579b dcbe 09d7 223d
00000220: 15b8 9cbd c8fb 17bf cae7 0e3e 7a45 c6be
00000230: 3a74 c3bd 77a3 143f 0260 073e 30e0 01be
00000240: e1bf ad3e c8f0 2c3e 5f32 d5be 934e ecbd
00000250: a000 35be 4633 e73e 16a4 fdbe 4b74 cd3e
00000260: 867d a6bd 7a1d 66be ecb9 cc3a 47f4 1b3e
00000270: cf9d 773d 69a2 15bf 39b6 d5be bd2f 733e
00000280: cd47 c43e 1e66 a03e f16f 7c3e b8af ff3e
00000290: d478 e13d c5a1 7f3e c948 72be ea8c 25be
000002a0: b7c9 63bd 83b3 c1be 919d 56bc debd d73e
000002b0: a18d 813e 20d9 2e3d 445a 20bf 23d5 f6be
000002c0: 272b 813d 202e 223e c36e 0f3e 7512 833e
000002d0: 63eb 043d 094b 05bf 7f64 e33e 7081 bcbe
000002e0: 3ce5 2bbe af97 813e 8471 e9bd 37dc 64b9
000002f0: 6798 7c3e 0384 c2be 66ed ac3e e23b e63e
00000300: 2e05 1a3e 38b0 02be 4527 2ebe 20e9 3f3e
00000310: f604 8abd 2ea7 f0be 6097 293e ef58 5cbe
00000320: 7429 55be 56d3 e23e 8270 8ebd c3b4 15be
00000330: fb11 01bf 4a1e a63e 67bb bc3e a3a5 49be
00000340: 1df1 bb3a e22e dd3d efc8 4fbd 75da 7abe
00000350: cc09 b23e 0120 dabe a4da 6dbc 66c5 053f
00000360: eb1d b7be 15a4 b0bd e9cb b93e 81ea 07bf
00000370: 162f d9bd d9a3 8e3e 95bf 323d e5f5 b93e
00000380: e3de cf3c c479 5c3e 861e 90be 71d6 9a3d
00000390: e502 993e aae6 30bf 9090 c33e 4b3f 2c3e
000003a0: f0bc d2be ab8e 733e 3177 1a3e 7f37 0cbf
000003b0: 566d a3be 6cff 663e bcd1 d9be a5c4 48be
000003c0: 44f8 f0bd bc60 e23e a144 313e 8e6c 0fbf
000003d0: cdb7 cdbe 0491 543e 5d78 003e c9b0 5cbd
000003e0: 0866 d4bd 4275 593e dff8 0ebe 3052 b93e
000003f0: e1cb 9bbe 1a72 8b3e cb7c 043f 22d1 c7be
0.340826 0.41254556 -0.26450735 -0.3906854 -0.33372638 -0.23968206 0.061499745 0.025735766
0.35351747 0.87682945 -0.17715998 0.387453 -0.18730631 -0.109064125 -0.28696144 0.020244008
0.31036717 -0.12268633 0.10677508 0.03492519 0.39513057 -0.2865998 -0.5713519 0.10087037
0.28008872 0.31464705 -0.36963356 -0.06713894 0.43725875 0.25957912 0.044208664 -0.2568537
-0.55681276 -0.12462453 0.29237667 -0.1360381 -0.13468508 -0.20452985 0.23788476 -0.35177398
0.25525793 0.1568133 0.36762393 0.10255565 -0.34142664 0.1443172 -0.39577734 -0.5623494
0.19045144 0.32879612 -0.020192608 -0.31451738 -0.08837553 -0.5458078 0.15511304 -0.30010134
-0.29095232 0.14944144 0.3047835 0.4257022 -0.46683127 0.048800174 -0.08252256 0.41416866
-0.3423385 -0.36328822 0.3266521 -0.15197253 -0.3813753 0.26714677 -0.02082531 0.19574142
0.10712771 -0.14746857 -0.81506246 -0.03862538 0.031519707 0.08224841 0.2735447 0.14785679
-0.004771269 0.25249854 -0.3600774 0.52127916 -0.22702089 -0.13332911 -0.537158 0.23063469
0.18613067 -0.0804633 -0.022248078 -0.24807729 -0.07343084 -0.30913323 0.1035946 -0.4799573
0.32558072 0.42498884 -0.014421801 -0.2147027 0.20832425 -0.13824248 0.12020083 0.25750688
-0.1943259 0.56533796 -0.24660607 -0.27444276 0.5189698 0.17130876 0.03798786 0.22280325
-0.21936241 -0.19134974 -0.27001202 -0.108562365 -0.27161482 -0.49082989 -0.02543584 -0.43618503
-0.26259318 0.1555076 0.0306297 0.00612602 0.18568164 0.39765945 0.43052807 -0.4039983
-0.07390926 0.28561044 0.18816552 -0.48998493 0.36913803 0.06794799 -0.43087265 0.039755855
-0.07652298 -0.5936856 0.13955608 -0.3872488 -0.09543653 0.5806193 0.13220218 -0.12683177
0.33935454 0.16888726 -0.41639993 -0.11538424 -0.1767602 0.45156306 -0.4953925 0.40127787
-0.081294104 -0.22472182 0.0015619374 0.15229903 0.060453232 -0.58450943 -0.41740587 0.2374868
0.3833603 0.3132791 0.24652077 0.4993875 0.11009374 0.24964054 -0.23660578 -0.16167036
-0.055612292 -0.3783227 -0.01309909 0.42137045 0.25303367 0.042687535 -0.62637734 -0.48209485
0.06307059 0.15837908 0.14007096 0.2560002 0.032451045 -0.5206762 0.4441261 -0.36817503
-0.16786665 0.25311038 -0.113986045 -0.00021825811 0.24667512 -0.37991342 0.3377487 0.44967562
0.15041038 -0.12762535 -0.17007168 0.18741274 -0.067392275 -0.47002548 0.16561651 -0.215183
-0.20816594 0.44301862 -0.06955053 -0.14619736 -0.5041806 0.32444984 0.36861727 -0.19692092
0.0014338825 0.10799958 -0.050728735 -0.24497397 0.347731 -0.42602542 -0.01451746 0.5225433
-0.35765013 -0.08625046 0.36288384 -0.530922 -0.10604684 0.2785938 0.043639738 0.36320415
0.025374835 0.21530825 -0.28148288 0.07560433 0.2988502 -0.69101965 0.3819623 0.1682102
-0.41159773 0.23784892 0.1508453 -0.5477218 -0.31919354 0.22558373 -0.42542827 -0.19606264
-0.11766103 0.44214427 0.17311336 -0.56025016 -0.4017929 0.20758444 0.12545915 -0.053879533
-0.103710234 0.21236137 -0.13962124 0.36195517 -0.30428985 0.2723549 0.5175292 -0.39026743

conv1.bias f4 [32]
00000000: 4035 bb3e d5ee 9f3e 7308 3cbd 9f50 b7be
00000010: dd8d 203f 72f1 a03e 7261 24bd a71c af3d
00000020: f682 d73e 6e39 5b3e 2499 5c3e 10db 263f
00000030: 53b8 0f3f 758b 953e 7752 1ebe 23f5 adbd
00000040: ec59 26bd e907 013f 923a 58bf f649 b93e
00000050: 7ebc 883d caa6 68bb c23a d13e 2439 2cbe
00000060: 6ab8 2f3f f308 26be 3fb7 80bd 58f7 043e
00000070: 7e3d e33d 8468 83bd c7ed abbe 8cce 243e
0.36564064 0.31236902 -0.045906495 -0.35803697 0.62716466 0.31434208 -0.040131994 0.08550387
0.42092103 0.21408626 0.21542794 0.6517801 0.5614063 0.2920796 -0.15461145 -0.08494022
-0.0406131 0.50402695 -0.8446437 0.3618924 0.06676577 -0.0035499805 0.4086514 -0.16818672
0.6864077 -0.16214351 -0.062849514 0.12984979 0.11095713 -0.06416419 -0.33579847 0.16094416

BN1.weight f4 [32]
00000000: e3d7 ae3f 09f6 d63e a94a 993f 221e 5b3f
00000010: 7ead 6c3f a99a 403f 41d1 843f 46b6 273f
00000020: 9798 7f3f f628 b73f 7f46 633f e82f dd3e
00000030: ae8d 713f 03f1 573f 5a98 253f c47c 8a3f
00000040: 153f 593f 41c3 c63e ba2b 373f d025 4e3f
00000050: b7f3 803f 8c6c 773f cd8e 853f 7747 ef3e
00000060: c5a5 123f ee5c a33f c5ed a33f 12a1 3a3f
00000070: 696d 783f 40e6 2f3f 2d88 563f d8bb 6b3f
1.3659633 0.41984585 1.197591 0.85592854 0.9245223 0.7523599 1.0376359 0.655125
0.9984221 1.4309375 0.88779444 0.43200612 0.9435681 0.8435213 0.64685595 1.0819325
0.8486188 0.38820842 0.71551096 0.8052645 1.0074376 0.96650004 1.0434204 0.4673421
0.57284194 1.2762735 1.2806937 0.72902024 0.97041947 0.6871071 0.8380154 0.920835

BN1.bias f4 [32]
00000000: 6291 d0be 0f8d 22be 9067 5dbe 3454 bbbd
00000010: 5523 88bf bea1 aebe f326 f3bd fd4c c1bd
00000020: 477a 0fbf a1d3 43bf 50a9 e3be 3d90 12be
00000030: 91b8 1c3d f140 dcbe ce1c cfbd 4610 4ebf
00000040: f8ee 5bbf 4039 cebd 283c 34bf 6ccb 25bf
00000050: 6251 11bf a26d 07bf a04b 9cbf 9077 52bd
00000060: 6202 9bbd 6685 b6be 619b 5ebf 3191 9fbd
00000070: 83e3 febc 7f00 54bd c34d 3cbf db1a 22be
-0.40735918 -0.15874122 -0.21621537 -0.0914692 -1.0635782 -0.34107774 -0.11872663 -0.094385125
-0.56045955 -0.76494795 -0.44465113 -0.14312835 0.038261954 -0.43018296 -0.10112916 -0.8049358
-0.8591151 -0.10069513 -0.7040429 -0.6476352 -0.56764805 -0.5290166 -1.2210579 -0.051383555
-0.07568814 -0.3564865 -0.8695584 -0.07791365 -0.031114345 -0.051758286 -0.73556155 -0.15830557

BN1.running_mean f4 [32]
00000000: 3733 b53e beaa ec3e b145 4dbd 2e2b c4be
00000010: cc74 253f ad08 4b3d e1c4 3fbd 2dd6 903d
00000020: febc ae3e dd4c 343e 8377 173e 910c 2c3f
00000030: 6a6a 093f 2709 483e fb6e 29be a348 31be
00000040: 0d6a b0bc 13bc f53e 879e 49bf db75 cf3e
00000050: 44c1 a53c a041 b2bc 30dd e23e 96b7 23be
00000060: a097 2e3f c220 2dbe 1f5d 4cbe 36c2 4c3d
00000070: b1fb 8e3d f182 00be f239 aabe 332f 123e
0.35390636 0.46224016 -0.05011529 -0.38314193 0.6463134 0.04956882 -0.046818618 0.07072101
0.34128565 0.17607446 0.14791684 0.67206675 0.53678 0.19534741 -0.16546242 -0.17312865
-0.021534944 0.47995052 -0.7875752 0.40519604 0.020233758 -0.021759808 0.44309378 -0.15988001
0.6820011 -0.16907027 -0.19957398 0.0499899 0.069816 -0.1254995 -0.33247334 0.14275818

BN1.running_var f4 [32]
00000000: bb71 a73b f3c8 033d 2007 913b 59ed f53b
00000010: e9e4 b73a 9167 a33d 350b 883b 859f 053c
00000020: 4d80 9f3c a25b cf3b 3439 773c decc 373b
00000030: d03b 713c c918 db3c a6f7 cd3b ece6 b33c
00000040: 8946 fd3a aced 2e3c 740a 813c c9b4 033c
00000050: 44cb c73b 5e26 b13b 583b 803b 2b22 863b
00000060: 9125 ba3b a30d 803b acfb 023d 6468 8c3c
00000070: a484 713c 732f 3d3c a01c 8839 bbc6 a93c
0.0051099933 0.032174062 0.004425898 0.0075051007 0.0014030013 0.07978738 0.0041517266 0.008155708
0.019470358 0.006328062 0.015089322 0.0028045694 0.014723733 0.026745217 0.0062856255 0.021960698
0.0019323389 0.010676783 0.015752055 0.008038708 0.006097229 0.005406185 0.0039133243 0.0040934286
0.005680748 0.0039078756 0.031978294 0.017139621 0.014741097 0.011546957 0.0002596127 0.020724645

conv2.weight f4 [64, 32, 3, 3]
00000000: f483 a1bd e437 8d3e c0dd 85bd d339 9c3d
00000010: f928 e43d 06db 7bbe 0715 8fbd 6b25 a63d
00000020: 5dfa a1bd 8daf b2bd 62b9 39bd 6716 7ebc
00000030: 877d a6be 2ec1 ddbe 6696 d6be e20a 8b3e
00000040: 7229 5a3e 66f2 893e f5b0 8bbc a22f 043d
00000050: 8ac5 f13d 3b8a b7bd d643 64bd 4bc7 cdbb
00000060: 81c7 61bd bb40 bebd d5d4 703d 8c2f 8bbe
00000070: e33f 5f3d dc68 623e 4325 03bf e426 453d
00000080: 9a83 3dbe 7ded 75bd f367 a13e 9218 ed3d
00000090: 59f0 c13e dc1c 91be 795e 0ebe ab38 02be
000000a0: dab7 9bbe 980e 40be d726 89bc d2a7 88be
000000b0: 248b 64be d510 8dbe fb33 6aba 3773 6bbe
000000c0: 90f4 8ebe 6e42 5abd 4678 3dbe e3b1 4f3e
000000d0: 6a48 9a3e b565 703e 5839 e6bd 4617 18be
000000e0: 9f44 7ebe 867b c53b 4114 fa3d a682 823e
000000f0: f6ef 94be 9f4c 96be 8bef 54be 6d61 e6bb
00000100: f40c 363e 7082 1b3e fd77 48be 60a1 78bd
00000110: 6ff2 e8be 8a18 2a3e 3b46 463e 5495 6e3e
00000120: 1689 a1be 247c b4bc 2138 70be bd60 94be
00000130: 9e5f b73d 0c21 c4be 0dbc 6e3e a6b5 6e3e
00000140: 82b4 66bd 0342 01bf 5995 39bf 99fc 30bf
00000150: 8a73 b03e a0a4 3b3e 0467 093d 1c9c bcbe
00000160: 2ed7 eebe c7dd 12bf 7715 f33e dabe aa3e
00000170: 7a96 7e3e 058d 37be d9c3 f2bd 5969 e3be
00000180: 8be5 ba3d 602b e63c 3c7e afbc c44d 6f3d
00000190: e0a3 0b3e 72cb 1ebd 1592 2fbe a221 003c
000001a0: 0ffd 71be 069c b13e efde e33d 6d37 37be
000001b0: f226 a53e 0613 883e e0fd 17bd 2c70 023e
000001c0: 10e8 8abd 74d9 56bf 0d6c e1bd 7ec0 f63d
000001d0: 260b 463e f257 443d 067e 8b3c 5128 17be
000001e0: 486d 7dbe 2276 06bd 266a bebe 64ad bcbc
000001f0: b9b0 223d 12d6 973d bacd a9bc 51ad 343d
00000200: 83ca b5bd 0227 24bc a2aa 19bb cbd4 11bf
00000210: ef5d 99bc 5aa2 193d 96a4 93be 4346 d0be
00000220: c9dd 28be 9055 24bf 74eb 6e3c 8b48 5c3d
00000230: 1d31 30bd 32d9 9b3e 0ece 353d 00c8 aebe
00000240: 2447 1fbf dd0c 87be 30da b9be ac61 643e
00000250: fbb5 8e3e d3e1 a73d f160 98bd 3448 0bbe
00000260: 884b 593e a404 eb3e 8768 af3e d837 f03e
00000270: ae8a ebbd d35d f2bd 1261 19bd e6b4 a43d
00000280: 01d1 de3d f3e7 473e 781d e7be 00d6 b4be
00000290: 74c3 10bd 26dc 2b3e c6e9 8dbe 34c1 03bf
000002a0: ef71 7c3e 48fe 833e a93e ab3e fdd1 cfbe
000002b0: aa01 04be 691f 15be c896 c23c b5fe 1fbd
000002c0: 9191 58be 4fe1 5a3e 1e53 033e 628a ad3e
000002d0: 4cb6 cd3e 41f2 3b3e 9b11 1abc 7e7e 73be
000002e0: dc8c b8bd 8c75 bbbe fc6a b9be 5517 38bc
000002f0: 6bca 19bf eda0 a6be 4ee4 13be e763 643e
00000300: e3cb f6be 653e c5be 48a7 f0be 9013 12be
00000310: af0e 933e 11f1 7c3e f797 26be 8246 ab3d
00000320: f18b 583e 7a01 873e db56 953b b7c2 e2bd
00000330: 0659 54be 27e0 17be 6fdf 963b 9128 613e
00000340: 39c8 e03d d999 853e 47ce d2bd 2b5e 5abc
00000350: 4085 8cbd a112 b0be 3d49 59bd d94a 94be
00000360: 6ab5 303e 13d0 c8bc 5f56 863e 8f2d 7cbe
00000370: 9e07 6cbe 1352 66be 3442 bfbc 584a 003e
00000380: 200d 9c3e 797d 423e 6706 233e 2589 bb3d
00000390: d970 a13d f4d8 c83c 7642 313d c082 73be
000003a0: 2572 b9be 0fe9 25bf 3bff 7cbf a288 90bf
000003b0: 9fe1 9bbf 4997 01be fdf2 19be 0534 2dbe
000003c0: 5b2e 8bbe c452 d3be c02c dbbe 3260 393e
000003d0: 8c3e ecbd 3e54 dbbe 4d91 b7be 45bd 9ebe
000003e0: e77c 62be 94c3 633e 9199 943e aadd 963e
000003f0: ef5c 863e 1f80 273e fb85 1d3f b538 9fbd
-0.07886496 0.27581704 -0.06536436 0.076282166 0.111406274 -0.2459527 -0.069864325 0.08112606
-0.07909081 -0.0872489 -0.04534281 -0.015508271 -0.32517645 -0.43311447 -0.4191162 0.2715674
0.21304873 0.26942748 -0.017052153 0.03227199 0.11805256 -0.08961912 -0.055728756 -0.006279861
-0.055121902 -0.0928969 0.058796722 -0.27184713 0.054504286 0.22110313 -0.5122873 0.048132792
-0.18507233 -0.06004094 0.3152462 0.11576952 0.37878683 -0.2834233 -0.13903226 -0.1271693
-0.30413705 -0.18755567 -0.016742153 -0.26690537 -0.22318703 -0.27551904 -0.00089341373 -0.2299317
-0.2792096 -0.05328601 -0.18502912 0.20282702 0.30133373 0.23476298 -0.11241406 -0.14852628
-0.24830864 0.006026688 0.122108944 0.25490302 -0.29089326 -0.29355332 -0.20794503 -0.007030657
0.17778379 0.15186477 -0.19577022 -0.060700774 -0.45497462 0.16610923 0.19362728 0.23299152
-0.315499 -0.022031851 -0.23458911 -0.28980055 0.089537844 -0.38306463 0.23313923 0.23311481
-0.05632449 -0.5049135 -0.7249351 -0.69135433 0.3446315 0.18324518 0.03354551 -0.36837852
-0.46648544 -0.57369655 0.47477314 0.33348733 0.2486209 -0.17924888 -0.11853761 -0.4441631
0.09125813 0.028096855 -0.021422498 0.058423772 0.13636732 -0.03876824 -0.1714557 0.007820519
-0.2363169 0.3468935 0.111265056 -0.17892237 0.32256275 0.26577014 -0.03710735 0.12738103
-0.06782544 -0.8392556 -0.11006937 0.12048434 0.1934019 0.047935434 0.017027866 -0.14761473
-0.24748719 -0.032827504 -0.3719036 -0.023031898 0.039719317 0.074138775 -0.02072798 0.0441106
-0.08876517 -0.010019066 -0.0023447652 -0.5696532 -0.018721549 0.037508346 -0.28836507 -0.40678605
-0.16490854 -0.6419306 0.014582504 0.05378012 -0.043015588 0.30439144 0.044385962 -0.34136963
-0.62217927 -0.26377 -0.36299276 0.22302884 0.27873215 0.081973694 -0.07440365 -0.13601762
0.21220219 0.45901978 0.34259436 0.46917605 -0.115010604 -0.11834302 -0.03744609 0.08042316
0.10879708 0.19522075 -0.4513967 -0.3531952 -0.03534265 0.16783199 -0.27717417 -0.5146668
0.24652837 0.2577994 0.33446243 -0.40589896 -0.1289126 -0.14562763 0.023753539 -0.039061267
-0.21149279 0.21375011 0.12824675 0.3389464 0.40178144 0.18354131 -0.0094036115 -0.23778722
-0.09011242 -0.3661312 -0.36214435 -0.011236032 -0.6007449 -0.32544652 -0.1444256 0.22303735
-0.48202428 -0.38524166 -0.47002625 -0.14265275 0.2872214 0.24701335 -0.16268907 0.08363058
0.21147133 0.26368314 0.004557473 -0.11072295 -0.20737085 -0.14831601 0.004604272 0.21988131
0.109756894 0.2609394 -0.102932505 -0.013328115 -0.06861353 -0.34389213 -0.05304836 -0.28963354
0.17256704 -0.02451328 0.2623777 -0.24626754 -0.2304978 -0.22492246 -0.023346998 0.1252836
0.30478764 0.18993177 0.15920411 0.091570176 0.07882852 0.024517514 0.043276273 -0.23780346
-0.36219898 -0.64808744 -0.9882695 -1.1291697 -1.2178229 -0.12655367 -0.15034099 -0.16914375
-0.27183804 -0.41274083 -0.4280758 0.18103102 -0.11535367 -0.4283771 -0.35853043 -0.31003776
-0.22117959 0.22242576 0.29023412 0.2946599 0.26242778 0.16357468 0.6153256 -0.07774488

conv2.bias f4 [64]
00000000: 5bd1 1abd 87d2 073d 8381 073c e9fb 27bd
00000010: 0f6e f63d 1c4c ef3b a12d 533d d41e a83d
00000020: 54c0 cf3c 2970 48bd 72a0 963d 54ac 9a3c
00000030: aa59 553d 04c9 77be 0b77 b13c 3139 493d
00000040: e362 ddbb e6a9 cfbd e671 85bd 1899 453d
00000050: 5368 ca3d fdf8 ae3c 04b7 22be 816d 00be
00000060: 9472 22bd 5741 4ebd f2f6 493d d627 953b
00000070: 354d 183d 8cc0 0a3c a3c5 403d 2b2f a23d
00000080: 853f 133d 25e2 82bc a9d2 0bbd 7c8e c0bd
00000090: 13ab 963d 0d53 37bd 1527 dbbd 5540 b3bd
000000a0: 79d1 363d c168 32bd d5ae 4b3d fead 9f3c
000000b0: 0b5b bfbb 42dc 17bd 2745 043d 1d48 bcbd
000000c0: 55e8 cc3c 98e6 3ebd f96b 04bc 76ca 313c
000000d0: cca7 953d c3f4 723d 559c a33c bcff 343e
000000e0: 1a46 453e dc32 1c3d 1e5c f1bb 66a0 5abd
000000f0: 2af3 683d 426b c9bc 0d89 ba3c 0cf9 79bd
-0.037797313 0.03315976 0.008270624 -0.041011725 0.12032711 0.007302774 0.051557187 0.08209005
0.025360264 -0.04893509 0.07354821 0.018881 0.052087463 -0.24197775 0.02166321 0.049126808
-0.006756173 -0.101398274 -0.06515865 0.048241705 0.098831795 0.021358961 -0.15890127 -0.12541772
-0.03966005 -0.05035528 0.04930777 0.004551868 0.037183005 0.008468758 0.04706348 0.07919153
0.03594925 -0.015976975 -0.034136448 -0.09402177 0.073568486 -0.044756938 -0.10700814 -0.08752505
0.044633362 -0.043556932 0.04972728 0.019492146 -0.0058397106 -0.03707529 0.03229251 -0.09193442
0.025013128 -0.04660663 -0.008082383 0.010851493 0.07307395 0.059315454 0.019972006 0.1767568
0.19265023 0.03813444 -0.0073657176 -0.053375624 0.056872524 -0.024587277 0.022770429 -0.061028525

BN2.weight f4 [64]
00000000: 21e9 ac3f 14f3 903f 495d a33f f3cb a73f
00000010: e5a4 8a3f 1d38 a83f c4f0 5e3f 256f 8a3f
00000020: f2ee a03f b037 aa3f 0e9e 903f 8079 9c3f
00000030: 8b3a aa3f 0b18 be3f 0474 953f a941 8c3f
00000040: 1436 b03f a713 b03f ebff e03f dd96 1840
00000050: 62db 9f3f ce73 b33f 09d1 0e40 f963 a33f
00000060: 7bd1 a93f 3010 0540 797c b73f 7927 b03f
00000070: e68a bb3f 8197 a83f 08d1 bd3f 3292 9b3f
00000080: 3ab6 bf3f 789d b73f 9061 a33f 3775 ac3f
00000090: 3d17 f63f 48b8 883f f3cf 4d3f 3b3b 993f
000000a0: 2f0d 8c3f 4cf1 7c3f 913e 9b3f 7349 0040
000000b0: 5744 d43f b424 ac3f 7a8b c63f 54c2 7c3f
000000c0: e930 d53f 1f70 963f 0670 a63f 486c b13f
000000d0: 3030 c43f 114b 783f 4b9b a03f 0bee 993f
000000e0: 07f6 8e3f 9b68 b83f d839 983f 21d3 873f
000000f0: 73ea c63f 9553 bc3f dec3 e73f 0979 a33f
1.3508645 1.1324182 1.2762843 1.3109115 1.0831572 1.3142124 0.8708613 1.0815169
1.257292 1.3298244 1.1298234 1.2224579 1.3299116 1.4851087 1.167603 1.0957538
1.3766503 1.3755997 1.75781 2.384208 1.2488825 1.4019716 2.2315085 1.2764884
1.3267053 2.079113 1.4334861 1.3762046 1.4651763 1.3171235 1.4829416 1.215399
1.4977486 1.4344931 1.2764149 1.3473271 1.9225842 1.0681238 0.8039543 1.1971201
1.0941523 0.9880569 1.2128469 2.004483 1.6583356 1.3448701 1.5511315 0.9873402
1.6655551 1.1752967 1.3002937 1.386117 1.5327206 0.9698954 1.2547392 1.202577
1.1168832 1.4406923 1.1892653 1.0611306 1.5540298 1.4713007 1.8106649 1.2771312

BN2.bias f4 [64]
00000000: ae37 2abf 430a 1abf 68ec 1bbf 494c 25bf
00000010: 5d88 1dbf 70a8 32bf 6831 d3be 04b6 f6be
00000020: f4a3 25bf 6ab9 2bbf f06c 07bf 96f9 22bf
00000030: 596a 24bf 7fc8 2fbf 5dd2 0bbf 59c2 fbbe
00000040: da06 19bf 19fd 36bf 1971 92bf c557 e5bf
00000050: 0604 08bf c807 39bf 1c78 c1bf 12ea 1bbf
00000060: f946 25bf 4b7f a2bf 8da5 3bbf 703a 2cbf
00000070: 79e1 3cbf fabb 10bf 05a1 3abf 145d 18bf
00000080: 5072 78bf 4cd8 42bf 2257 13bf 0532 21bf
00000090: 517f 8abf f8e2 f7be 1be7 dabe 0304 16bf
000000a0: 5b50 f0be 18fb e6be 6c0b 22bf 3887 bebf
000000b0: c8e6 4fbf 05de 30bf f729 55bf f711 e9be
000000c0: 9698 47bf 37e2 25bf 8c23 2bbf b1a8 2ebf
000000d0: 772a 52bf 3d60 f1be 3eea 1dbf a1b0 29bf
000000e0: 2025 01bf 3b6c 36bf c35d 0dbf 41ed 03bf
000000f0: 5e49 79bf 52bf 49bf ced5 93bf 6d5a 10bf
-0.6649121 -0.6017191 -0.609076 -0.64569527 -0.615362 -0.69788265 -0.4124863 -0.48185742
-0.647033 -0.67079794 -0.529006 -0.6366209 -0.64224774 -0.6866531 -0.54617864 -0.49171713
-0.5977608 -0.71479946 -1.1440765 -1.791741 -0.5313114 -0.722775 -1.511478 -0.6090404
-0.6456142 -1.2695097 -0.73299485 -0.6727667 -0.73781544 -0.5653683 -0.72901946 -0.59517026
-0.9704943 -0.7611129 -0.5755483 -0.6296695 -1.0820104 -0.4841535 -0.42754444 -0.5859987
-0.46936306 -0.45113444 -0.6329868 -1.4885015 -0.8121152 -0.69088775 -0.8326716 -0.4552152
-0.779672 -0.647983 -0.66851115 -0.6822615 -0.82096046 -0.47143736 -0.6168555 -0.6628514
-0.50447273 -0.71258897 -0.55221194 -0.51533896 -0.97377574 -0.78807557 -1.1549623 -0.5638798

BN2.running_mean f4 [64]
00000000: 1348 acbf 061f f8bf 20f0 c9bf e162 f2bf
00000010: 33d0 17c0 6663 d4bf 1cb9 b5bf 522e d2bf
00000020: f7d3 6dbf 1c85 aebf 8491 14c0 30be f0bf
00000030: 7b4e e5bf 4769 aebf daf4 11c0 b752 a7bf
00000040: d215 d6bf d94c c6bf c22c 4abf 998c 63bf
00000050: 07ff f4bf 1a6e 02c0 79ff a0bf c3bc d5bf
00000060: 59e9 01c0 fba8 75bf b0ac c7bf 555c b2bf
00000070: fcd5 b1bf f79e c5bf 83c8 b4bf cd58 cdbf
00000080: 624e 89bf 861e 87bf 062e e4bf 9ae3 d3bf
00000090: 3ef0 6bbf 997e 40c0 7f31 aabf a130 a0bf
000000a0: e112 d8bf e460 08c0 fcd5 a1bf 4edb 2abf
000000b0: 15b2 a1bf db5c 91bf afdf 99bf 010e 28c0
000000c0: 5220 aabf e16d b1bf 0498 06c0 8568 bbbf
000000d0: 9437 07c0 834c a6bf 8a3c ddbf 85fe 46bf
000000e0: cb6a 1ac0 2df7 f1bf c56c 21c0 aeac ffbf
000000f0: 64c5 25bf c1da 9fbf 2792 4bbf eb6e e0bf
-1.3459495 -1.9384468 -1.5776405 -1.8936425 -2.3720825 -1.6592834 -1.4197116 -1.6420386
-0.9290156 -1.3634372 -2.3213816 -1.8808041 -1.7914575 -1.3625878 -2.2805696 -1.3072118
-1.6725409 -1.5492202 -0.78974545 -0.8888641 -1.9140328 -2.03797 -1.2577964 -1.669823
-2.0298674 -0.9596097 -1.5599575 -1.3934427 -1.3893428 -1.5439137 -1.4123691 -1.6042725
-1.0727046 -1.055619 -1.7826545 -1.6553833 -0.92163455 -3.007727 -1.3296355 -1.251484
-1.6880761 -2.1309137 -1.2643428 -0.6674088 -1.2632471 -1.1356462 -1.2021388 -2.6258547
-1.3291113 -1.3861657 -2.1030283 -1.4641272 -2.1127672 -1.29921 -1.72841 -0.77732116
-2.4127681 -1.8903557 -2.5222638 -1.9974573 -0.6475432 -1.2488633 -0.79519886 -1.753385

BN2.running_var f4 [64]
00000000: bd8f 2341 2e30 7441 c5ec 3641 9bb9 2a41
00000010: e440 2b41 71b3 4241 52c0 5a41 3319 5241
00000020: 8638 c040 0a63 3b41 39ee 8b41 6f5a 7741
00000030: d50d 2a41 803a a640 295a ca41 ad2e 9c41
00000040: a7ce 9a41 9c02 ef40 d5ff 3740 2d4b 6940
00000050: 9456 8441 da53 6e41 4e2d 9240 aac5 1f41
00000060: 070f 8441 3a37 9540 82f4 2141 3d28 0741
00000070: ad53 6041 67f3 4a41 48de 0741 9e94 2a41
00000080: 6e7d 8740 619d ab40 1d64 4741 5162 2041
00000090: d9cd 8b40 f654 9e41 03ca 3341 a153 e540
000000a0: e063 2c41 e2bd 8e41 71a3 d640 a379 2e40
000000b0: 7c35 c340 d965 cd40 f2aa bf40 4fc4 bd41
000000c0: 72c6 2d41 adb9 3441 8afc 0341 a9c8 0a41
000000d0: 23e5 5e41 e9cb 6241 f845 5041 9b16 2741
000000e0: 5e3e a841 f0c1 4941 7ade 8a41 d6eb 4541
000000f0: fc46 3c40 95d8 e340 3f41 4940 6969 8941
10.222592 15.261763 11.432805 10.670314 10.703342 12.168809 13.671953 13.131152
6.0069 11.711679 17.49132 15.4595785 10.628377 5.194641 25.294024 19.52279
19.350904 7.4690685 2.8749897 3.6452134 16.542274 14.895472 4.5680304 9.985758
16.507338 4.6629915 10.122194 8.447324 14.020429 12.684424 8.491768 10.6612835
4.2340612 5.3629613 12.461942 10.024003 4.368878 19.791485 11.236819 7.1664586
10.774384 17.842716 6.7074513 2.726174 6.100279 6.4186826 5.9896173 23.720854
10.860949 11.295331 8.249155 8.673989 13.930942 14.174783 13.017082 10.443019
21.030453 12.609848 17.358631 12.370077 2.9418325 7.120188 3.1446073 17.17647

fc1.weight f4 [128, 1024]
00000000: efcd b4ba 3fa6 fbbc f1b4 4dbc 7bd7 a7bc
00000010: 7fbf 4cba 01dd 1bbc e04b 11bd 5eaa 00bc
00000020: 643e f0bc 6df1 8ebc 85d9 163c 015d c23c
00000030: f9a5 b03b 4a35 8f3c 86cb 9b3c 1c41 11bd
00000040: 8d9f 4ebc 302b 5cbc 5392 1b3c fe09 83bc
00000050: ad0b 31ba a2c5 29bc 3b82 49bc f350 623c
00000060: ee9b 633c 74eb 00bc ad10 e7bc 1ae7 8f3b
00000070: d297 d7ba eb4e e5bc 8c8d 9bbc 875d 4b3b
00000080: ea1c 893a 5b74 babc 794f 7b3c ed57 7bbc
00000090: 57ad 473c bf22 a4bc 9063 efbc 26a7 d23a
000000a0: e4cd c93c 5d3f 583c 7c14 adbc ffd1 f5bc
000000b0: 323a 55bc 135b 8bbc 2bb4 c63b 47cc 0cbd
000000c0: c906 88bc 3214 2bbc 2130 743c 2b5d c63b
000000d0: 10eb b63c accd 99bb c4bb a0bc 3a89 0a3b
000000e0: 4002 25bb 77f0 06bd 47a0 d6bc dd4b ffbc
000000f0: b0f1 59bc ec71 0abd 799c 07bb 1979 623c
00000100: da70 213c 025f bb3c 548c 84bc adb3 b2bc
00000110: 9d0b a9bb 7d47 f1bb f29f 9f3c a7c2 0abd
00000120: 2ee0 15bd d3af f5bc c519 a2bc 588c 283c
00000130: 7b58 65bc 9c3f a03b 7132 ecbc 8531 ca3c
00000140: 4b9d 323b 390f 3e3b 7195 c63c 89d0 093c
00000150: 40cb 953b 4441 03bc a884 073b 27a2 06bc
00000160: 25a8 a9bb f542 dfbc 896f 933c cc25 2b3c
00000170: 9481 b9bc 1af7 953c 4937 babc 4199 17bc
00000180: f8e4 86bc be44 173c ffa6 3c3b 1a8c a5bc
00000190: 7a62 923b 6275 c43b 7dd4 c0ba 18f9 283c
000001a0: 54c4 2dbc c6ea 2b3c 4960 bf3c 08c3 9dbc
000001b0: b46e f53b d047 ec3b 262c b8bb dc32 6fbc
000001c0: b691 173c 74ce 373c 646f 783c 80c7 3fbc
000001d0: 076e 09bd 1828 8bbc 34dc 0bbd 1435 c43c
000001e0: f6d4 10bd 9ba7 3e3c f03b d3bc 1d1f 04bd
000001f0: 2414 233c e8d7 f8bc ba78 e5bc 14f8 9f3a
00000200: 46d1 02bd 0cc5 9f3c a6e5 acba 01df bfbb
00000210: f5d3 b43c dbe6 aabc 7544 bebc 1360 53bb
00000220: d1eb 593c 0d4b cb39 f21d 1a3c f3f4 13bd
00000230: 024d 40bc b85b fab9 d01c 293c 46af acbc
00000240: 8014 b4bc 0301 e3ba c078 25bc cdc1 7fbc
00000250: a7cb 953c ba87 a9bc 5746 0c3c f99f 963c
00000260: 9fac afbc 6ea0 8e3c 14ca c23b 899b 85bb
00000270: d538 0dbd f604 843b 0e6d 9e3c 2096 0fbc
00000280: 5a7e 973c 96f2 cebb 6f45 59bc 201f 70bc
00000290: 5d8d 05bc f833 9bbc 1eac aebb 9e50 d1bb
000002a0: 6138 03bd fbad a8bc 8acb ba3c 07c1 c0bb
000002b0: 1edf c5bb feb3 1a3c 7f50 933c 7a4a 17bd
000002c0: e4a5 0fbd a0a2 0bbc 7f72 8dbc 66a1 02bd
000002d0: fc93 f8bc 7f30 cc3b 9d9a 323c 5e0f 01bc
000002e0: 7e32 6ebb 796f e5bc 13d1 dfbc 83af 07bd
000002f0: c6c5 f3bb 1414 12bd 57c7 d2bb 3d1e 873c
00000300: 2ea1 90bc 1018 04bd 0788 c6bc 5b57 0f3c
00000310: 71c3 c4bc 44b4 c0bc 4a5c b4bc 5446 b1bc
00000320: d1fa 933c 3612 81bc aeed bb3c 0e73 0e3c
00000330: d593 2ebc 4d7e 01bd 3b41 8c3c 2319 ac3c
00000340: 031d 22bc fe5c 9e3c 1b73 3fbc 6554 08bd
00000350: 6da9 10bd eec5 84bc ce76 953b 0fd2 7e3c
00000360: af22 ab3c f583 be3c 6f4d c43b a06c 02bd
00000370: 6f7c b73b cf15 f8bb 9069 54bc 25eb 9c3c
00000380: e51b dbbb 1197 b4bc a135 b33c 713f 433c
00000390: d3c1 caba fe46 953c 511c fabc 14df d0bb
000003a0: a810 05bd d9dd 33bb f17c 3f3b 538e 89ba
000003b0: d3a9 03bd 6788 d7bc 1c5a 0dbd b08e a43c
000003c0: ecf6 9abc 7f4f 913c 7a1f fbbc de63 8fba
000003d0: ab5c b53c efb7 47bc 84fa dfbc 40de 23bc
000003e0: f64b 923b e156 41bc da4a 363b f8fa 7ebb
000003f0: 92a6 febc 2d08 28bc 5795 94bc 20e9 af3c
-0.0013794283 -0.03071892 -0.012555347 -0.020488491 -0.00078105176 -0.009513141 -0.03547275 -0.007853119
-0.029326625 -0.017449105 0.009207134 0.023725988 0.005390879 0.017481465 0.019017946 -0.035462484
-0.012611282 -0.013438031 0.009495336 -0.015995976 -0.0006753754 -0.010362061 -0.012299116 0.013813245
0.013892157 -0.007868636 -0.028206194 0.004391563 -0.0016448444 -0.027991733 -0.018988393 0.0031031088
0.0010460888 -0.02276056 0.015338772 -0.015340787 0.0121873235 -0.0200361 -0.02922228 0.0016071543
0.02463431 0.013198701 -0.021127932 -0.03000736 -0.013014363 -0.017011201 0.006063958 -0.0343745
-0.016604798 -0.010441827 0.014904053 0.006053587 0.022328883 -0.0046937075 -0.019620784 0.0021138922
-0.0025178343 -0.03294417 -0.026199473 -0.031164104 -0.013302252 -0.03380005 -0.002069263 0.013822817
0.009853566 0.022872452 -0.016180195 -0.021814192 -0.005158855 -0.0073632584 0.019485448 -0.03387704
-0.036590748 -0.029991066 -0.019787678 0.010287367 -0.013998146 0.0048903953 -0.028832646 0.024681816
0.0027254398 0.0029000773 0.024241181 0.008411535 0.0045713484 -0.008011166 0.0020678435 -0.008217371
-0.005177515 -0.027253607 0.01799752 0.010446023 -0.022644795 0.018306304 -0.02273144 -0.009252847
-0.016466603 0.009232698 0.002878606 -0.020208407 0.0044673057 0.0059954384 -0.0014711764 0.010313295
-0.01060589 0.010492986 0.023361342 -0.019258037 0.0074900035 0.007210709 -0.0056204973 -0.014599528
0.009251049 0.011218656 0.015163276 -0.011705279 -0.033552196 -0.016986892 -0.03414555 0.02395109
-0.035359345 0.01163664 -0.025785416 -0.032256234 0.009953532 -0.03037639 -0.028011668 0.001220467
-0.03193786 0.019503139 -0.0013190999 -0.0058554416 0.022073725 -0.020862034 -0.023226002 -0.003225331
0.013300852 0.00038775094 0.009406554 -0.036122274 -0.01173711 -0.00047752052 0.010321811 -0.02107967
-0.021982431 -0.0017319027 -0.01009959 -0.015610171 0.018285586 -0.020694602 0.008561692 0.018386828
-0.021444617 0.017410483 0.0059444997 -0.004077379 -0.034478027 0.0040289117 0.01933911 -0.00876382
0.018492866 -0.0063155396 -0.013261183 -0.014655858 -0.008151379 -0.018945679 -0.0053305766 -0.006387784
-0.03203619 -0.020590773 0.022802133 -0.0058823857 -0.0060385605 0.009442328 0.01798272 -0.03693626
-0.035070315 -0.00852266 -0.01726651 -0.031892203 -0.030344002 0.006231367 0.0109011205 -0.007877199
-0.0036346014 -0.028007256 -0.027321374 -0.033126365 -0.007439348 -0.03566368 -0.0064324546 0.01649391
-0.017654981 -0.03224951 -0.024234785 0.0087488545 -0.024018975 -0.023523457 -0.022016663 -0.02163998
0.018063935 -0.015755754 0.022940483 0.008694423 -0.010655363 -0.03161459 0.017120948 0.02100808
-0.009894612 0.019331452 -0.011685158 -0.03328361 -0.035317827 -0.016207661 0.0045612818 0.015553012
0.020890562 0.023256281 0.005990676 -0.031841874 0.0055995504 -0.007570959 -0.012964621 0.019155094
-0.006686675 -0.02204469 0.021876158 0.011916981 -0.0015469141 0.018222328 -0.03053108 -0.0063742492
-0.032486588 -0.0027445464 0.0029218758 -0.0010494686 -0.03214438 -0.026310159 -0.034509763 0.02008757
-0.01891657 0.017738102 -0.030654658 -0.0010939797 0.022138914 -0.012189849 -0.027341135 -0.010001719
0.0044646217 -0.011800499 0.002781561 -0.0038906913 -0.031085286 -0.0102558555 -0.018137617 0.021473467

fc1.bias f4 [128]
00000000: 6516 283c ee4c 95bd d9c1 4c3e 3d17 483e
00000010: 99b6 dd3b c816 26bd 0623 a73a 2f4c 11bd
00000020: 9ca2 7cbc 1538 0d3b f490 1dbc e018 dd3d
00000030: 3682 5f3c cb73 5ebd 875c 813d a33e d13b
00000040: a412 cebc 20d7 93bc af86 fa3c b77c 12bd
00000050: af50 b4bd dd82 5fbc 024b a83e 0fb0 60bc
00000060: 4b8b 20bc 6d9c 513e df8c a5bc 9900 db3d
00000070: 2d16 c1bc a83c 72bc db7e c4bc ae58 12bd
00000080: f8ec 813c 600b 8b3b bb29 55bd e39d 92bb
00000090: a112 9e3e 5c90 0dbd ab99 43bc 3b9b edbc
000000a0: f3a6 2bbc 86e3 55bc 105a 263c dca8 963b
000000b0: bd7b 3c3e a90d b4bc c5c1 67bc d9bd afbd
000000c0: 1c47 073c 4ed3 beba a3e5 cdbc b0c4 81bc
000000d0: 4cdb eabb 16ef 19bd 5ae8 6c3e b96a fbbc
000000e0: 1cf0 09bd 0373 16bc 7951 1dbc 48b8 2f3e
000000f0: c701 d23d c3c6 da3a e8a3 583e e813 14bd
00000100: 1361 ef3a 0dd3 113e 9722 db3b eab4 00bd
00000110: fbdd 5e3c 06a6 053c a3b8 933c bc59 2c3e
00000120: d18b 13bd 31f8 abbc c345 dc3b ced1 d33c
00000130: 289f 71bc 5a79 0a3e ffab e23b 5331 38bc
00000140: 8a3f 1b3e 3085 193e 7946 ccbc e78a ae3d
00000150: f9f7 10bd 9b26 213c 0ff5 a4bb cf6c d4bc
00000160: 4b34 0a3c 00b8 efbc c46e b6bb a44f 083e
00000170: 52de 0fbd bb92 87bb 1c53 363d 190b c1bc
00000180: b5de e0bc db78 fabc 6417 e03d 50c1 98bc
00000190: d24d 803e 6702 d03d 81ea 0dbd fb7f 0fbc
000001a0: b2d6 d2bc b36b 10bd 1a14 06bc df8e 4ebd
000001b0: 183c 973e c23f 09be c5b3 7f3e 602a 26bd
000001c0: 3e8f 32bd d87f 023c 4f25 90bd dd11 87bc
000001d0: b169 6d3e 97ae 7e3d 85d2 e9ba c4d0 14bd
000001e0: 6524 853e 3e38 0e39 6063 15bc 2ebb 393e
000001f0: b5a6 4ebc e604 90bc 11f3 9cbc 6234 6e3e
0.0102592455 -0.07290064 0.19995822 0.19540115 0.006766152 -0.04054907 0.0012751527 -0.035473045
-0.0154196285 0.002154832 -0.009617079 0.1079576 0.013641885 -0.054309648 0.06316476 0.0063856407
-0.025155373 -0.018046916 0.0305818 -0.03576347 -0.08804452 -0.01364204 0.32869726 -0.013713851
-0.009798835 0.20469828 -0.020208774 0.10693473 -0.023570145 -0.014784969 -0.02398627 -0.035729103
0.015860066 0.0042432994 -0.05204175 -0.004474388 0.30873588 -0.0345615 -0.011938493 -0.029004684
-0.0104768155 -0.013054734 0.0101533085 0.0045977663 0.18406577 -0.02197917 -0.014145319 -0.085811324
0.0082567 -0.0014558823 -0.025133913 -0.015840858 -0.0071672555 -0.037581526 0.2313551 -0.030690538
-0.03367625 -0.009182694 -0.009601944 0.17160141 0.10254245 0.0016691316 0.21156275 -0.036151797
0.0018263183 0.14240666 0.006687473 -0.031422533 0.013602729 0.008157259 0.018032378 0.16831106
-0.03602201 -0.02099237 0.0067221834 0.025856879 -0.014747418 0.13522854 0.006917476 -0.011242229
0.15160957 0.14992213 -0.024935948 0.08522587 -0.035392735 0.009835864 -0.005034096 -0.02593079
0.008435319 -0.029262543 -0.0055674035 0.1331163 -0.03512413 -0.0041373647 0.044512853 -0.023564862
-0.027449945 -0.030575207 0.109419614 -0.018646866 0.25059372 0.10156708 -0.03464747 -0.00875854
-0.02573714 -0.03525896 -0.0081835035 -0.05042922 0.29538035 -0.13403228 0.2497092 -0.040567756
-0.043593638 0.007965051 -0.07038366 -0.01648801 0.2318485 0.06217822 -0.0017839229 -0.036331907
0.2600433 0.00013563127 -0.009117931 0.1813781 -0.012612988 -0.01758046 -0.019158872 0.2326217

fc2.weight f4 [4, 128]
00000000: 3b8c 5dbd 2eca e0bc 5664 6f3d 9368 a1bf
00000010: 2fc9 73bd eeae e33c aaf8 053d be2f fa3b
00000020: 0e2b 833d c76d a3bd 17c0 833c c729 3f3f
00000030: d55e 17bd fa63 013c b5e2 ad3e 23ce 153d
00000040: 0aa9 b13c 8c9c af3c 52a1 413d 9115 983c
00000050: 2105 27bd 8f96 7abd 2755 b6bf 8e7c 473d
00000060: 1997 39bd 1644 bb3e 26e8 b6bc 0351 373f
00000070: 9944 daba 10b8 a1bd 2174 cbbc 0c1a 723c
00000080: cacc 493c adba c43b 42e1 503d 03f0 e1bd
00000090: bf52 2d3f 6ad5 e0bc 7a58 66bd 397e 24bd
000000a0: 7500 89bd 0831 34bc c8aa 4a3d 0284 823d
000000b0: 86c9 a4bf 765b b4bc 3ec7 9d3d 249e 8abd
000000c0: d44a 8fbd 140a 863b bddc 4dbd 92e8 91bd
000000d0: 587c ac3c 3b73 15bd e512 b43f 5812 b0bc
000000e0: 6942 5ebb 15a9 30bc ab50 73bd e219 ef3e
000000f0: 808d 883f 10a1 9e3c 4d12 b8bf 442a 0cbd
00000100: 9aa2 22bc 6e44 e13e e007 98bd 0bf1 0fbd
00000110: 276f 86bc e36a 7abd 7834 e2bc a4ef 9fbf
00000120: 8cc8 063d 9437 d93e f6aa 0f3f b1f5 093e
00000130: 48e8 76bd 72b9 ff3e 18ea 873d 63ad 9bbd
00000140: 2d9f 42bf adae 50be f362 2ebd 7016 1e3e
00000150: 6cab 6ebc 7d7a 883c ecfe 53bd 0932 c23c
00000160: d41e 4ebd ddb2 a13d 59f9 4b3d 27ef 813f
00000170: 5f79 00bd 7252 84bd 6819 4bbe 2604 82bc
00000180: fe60 abbc d8db 85bd c982 8d3d 0ed4 603b
00000190: 9423 6c3f 49dd 8f3e 3eea 3c3c 19a6 c73b
000001a0: a7b5 ca3c 3188 fbbc e6ca a9bd 18d6 823d
000001b0: 43c0 f7bf 4534 19bd 1e6c 3abe cd47 213c
000001c0: ea6c 0e3e 287c f5bc 7062 9dbf 8232 40bd
000001d0: daad 403f 9332 393f 4a64 093d 0985 7dbc
000001e0: 1cb6 853e f3fd e7bd 46cc 97bd 0c4f af3f
000001f0: e282 8cbd 536e 07bd f64c 49bd 41bc d1bf
00000200: aa0c 87bd 5e1f ca3c e8a1 6b3f 6dc3 493f
00000210: 9c2a d4bc 63db 47bd 0543 35bd 6657 58bd
00000220: 21fd d13c bd42 8ab9 750a ca3c 4c45 c1bf
00000230: 9188 173d e039 3dbd faf9 98bf c5fa 7d3d
00000240: 2ad2 2dbd 8cef 923c d3ad d63e 94fc e63c
00000250: b81d 1f3c dfd5 a23c ea22 19bf 63f1 8d3c
00000260: 7be2 a0bc 9455 7d3f 34b2 ac3c b941 0ec0
00000270: b7af f9bc f7f8 983d 2cad 7f3c 4f3f 0a3c
00000280: cdbd 95bd 0048 5d3c a282 1e3d 5d1c c2bc
00000290: 6d5f 48be 151c c53c b022 79bd 68c6 6dbd
000002a0: e7af 833c dd8d fbbc 3288 453d 5acc 29bd
000002b0: 156b 303f 14e9 7a3a f1e2 0cbd dfd6 a5bd
000002c0: 292d 8f3d ef25 5b3d 33a3 6dbd 4262 88bd
000002d0: 8996 983c 9ec2 d1bb 04ab 1a3e 07e8 1abd
000002e0: 5189 b83c ffb2 973c 10c3 573d 737d aabf
000002f0: 9aa7 49be 933e 433d de99 943e aae8 95bc
00000300: 48fe 573d 7c92 ebbf c18c 5bbd 272b 70bd
00000310: 7bdb 1cbd 6ec7 563d 63bc f9bb dcba b83e
00000320: 6c13 1a3d 75aa 47bf 97ea 7ebe 8b3a bdbf
00000330: 7d4c 893c 7e04 7abe 9bc4 843c 55da 6d3d
00000340: 3243 86bf 9953 e6bf 867c 2bbd dc51 85bf
00000350: fc39 823d 89e3 79bd 5394 1f3d af88 87bc
00000360: f8cc 22bd 449b 0f3d e40f 9fbd 60a8 92bf
00000370: 4b54 22bd f5c0 d63c 4e42 6f3f 8a3a 8c3c
00000380: c305 a83d 7a34 743d 91bb 4b3f b4b1 543d
00000390: 2c59 263d 96da 203f 6986 d3bc 7cf5 81ba
000003a0: 780d 2a3b 24ee 843d 3152 663d 34d8 04bc
000003b0: d888 be3e 8cd3 303b 11f8 1e3f 436a a1bb
000003c0: e416 5b3d 255b f53a 7879 8b3f 239f ea3c
000003d0: f07d 3ebd 2b75 7abf e4b9 073d 92a9 74bd
000003e0: a09f 723b 5daf 87bd 0998 0cbd 9eed a2bf
000003f0: 8f93 babd 7d46 903c aaac 0ebd 1dfa 64bf
-0.054088812 -0.027440157 0.058445297 -1.2610039 -0.059518036 0.027793374 0.032707848 0.007635086
0.064046964 -0.07979923 0.016082807 0.7467312 -0.036955673 0.007897371 0.33962026 0.03657354
0.02168705 0.021436952 0.047272988 0.018564971 -0.040776376 -0.06117874 -1.4244736 0.04870277
-0.045310114 0.36575383 -0.022327494 0.7160799 -0.0016652524 -0.07896435 -0.024835648 0.014776718
0.012316892 0.006003699 0.050996073 -0.11032107 0.67704386 -0.027445514 -0.05623672 -0.040159438
-0.0668954 -0.010998018 0.049479276 0.06372835 -1.2874 -0.022016268 0.07704018 -0.06768444
-0.06996694 0.004090557 -0.05025934 -0.071244374 0.021055385 -0.036486845 1.4068266 -0.021493122
-0.0033914095 -0.0107825 -0.059403103 0.46699435 1.0668182 0.01936391 -1.4380585 -0.034219995
-0.009926463 0.4399752 -0.07423377 -0.035141986 -0.016410423 -0.06113709 -0.02761291 -1.2495008
0.0329061 0.42425215 0.5612024 0.1347263 -0.060280114 0.4994617 0.06636447 -0.0760143
-0.7602413 -0.20379134 -0.042574834 0.15438247 -0.014567237 0.01665997 -0.051756784 0.0237055
-0.05032237 0.078954436 0.049798343 1.0151109 -0.03136575 -0.06461038 -0.1983391 -0.015871119
-0.020920273 -0.065360725 0.06909711 0.0034306082 0.9224179 0.28098515 0.011530457 0.0060927984
0.024744822 -0.03070459 -0.08290653 0.063884914 -1.9355549 -0.037403364 -0.18205306 0.009843779
0.13908735 -0.029966429 -1.2295666 -0.046923168 0.75265276 0.72342795 0.03354291 -0.015473613
0.261155 -0.11327734 -0.07412009 1.3695998 -0.068609014 -0.033064198 -0.04914566 -1.6385576
-0.06594212 0.02467316 0.92043924 0.7881382 -0.025899224 -0.048793208 -0.044253368 -0.052817725
0.025633397 -0.00026371135 0.02466319 -1.5099273 0.036995474 -0.046197772 -1.1951287 0.06200673
-0.042436756 0.01793649 0.41929492 0.02819661 0.009711675 0.019877372 -0.598189 0.017327016
-0.019639244 0.98958707 0.021081068 -2.2227614 -0.030479295 0.07469361 0.015605252 0.0084379455
-0.07311592 0.013505936 0.0386988 -0.023695165 -0.19567652 0.024061242 -0.060824096 -0.058050543
0.016075088 -0.030707294 0.04822559 -0.04145465 0.68913394 0.00095714745 -0.034396116 -0.08097624
0.069910355 0.053502973 -0.058016967 -0.06659366 0.018626468 -0.006401374 0.151043 -0.037818935
0.022526415 0.01851797 0.05267626 -1.3319534 -0.19692841 0.047667097 0.2902364 -0.01829942
0.052732736 -1.8404078 -0.05360103 -0.058634903 -0.03829525 0.052436285 -0.0076213344 0.36080062
0.03761618 -0.7799447 -0.24894176 -1.4783491 0.016760105 -0.24415776 0.01620703 0.058069546
-1.0489256 -1.7994262 -0.0418668 -1.0415606 0.06358716 -0.06100801 0.038959812 -0.016544668
-0.039746255 0.035060182 -0.07766703 -1.1457634 -0.03963117 0.026215056 0.9346055 0.017117757
0.08204224 0.059620358 0.7958308 0.051927283 0.040612385 0.62833536 -0.025820928 -0.0009915079
0.002594797 0.06490734 0.056230728 -0.0081081875 0.37213778 0.002698156 0.6209727 -0.0049259975
0.053488627 0.001871918 1.0896444 0.028640335 -0.046506822 -0.97835034 0.033136263 -0.059732027
0.0037021413 -0.06625245 -0.03432468 -1.2728765 -0.09110176 0.017611736 -0.034832634 -0.8944414

fc2.bias f4 [4]
00000000: b76e cabd f1bf 9c3d 0f87 95bd 3e38 33bc
-0.098843984 0.076537974 -0.07301151 -0.010938702
