cnn saved models/cnn_epoch22.pt (torch, 609343 bytes, 16 tensors)

conv1.weight f4 [32, 1, 3, 3]
00000000: c810 b63e aa14 d43e 9901 89be 7473 c4be
00000010: 0e74 b2be 8258 77be c91b 913d 926f a73c
00000020: b5c2 b63e eb00 5d3f e101 41be 5bce c33e
00000030: 61db 44be 1a8c d8bd def0 96be deb8 3a3d
00000040: 94f1 ab3e 8c85 e6bd 8362 e33d ed85 113d
00000050: ba22 c83e 4c1e 96be 7133 14bf c6a5 cf3d
00000060: c78e 923e abb7 a63e a19a bebe 9140 72bd
00000070: c41b e23e 4a62 8a3e 8c72 323d 7201 88be
00000080: a1ab 11bf 4fa4 fdbd a9ed 933e f025 08be
00000090: 2c57 14be b8f4 56be b0c9 6e3e 35c3 b7be
000000a0: e26f 803e 4d74 223e 9a2b c23e 22ea c93d
000000b0: e9d3 b3be 9854 173e 5763 c8be 2997 18bf
000000c0: 5d1a 453e 5764 a93e cf02 0cbd 221b 9fbe
000000d0: 7db2 aebd 513f 0fbf 6971 1d3e 5c20 9fbe
000000e0: cd70 93be de84 1b3e da35 9f3e 2dbf e03e
000000f0: 4f62 efbe 396a 703d 28be a0bd 9244 da3e
00000100: 8ad6 b1be 2765 babe 7675 aa3e 0221 22be
00000110: 287e c3be b14d 8a3e b3e1 b2bc 0dab 483e
00000120: 3d6c f93d 4393 1cbe 8f79 54bf 30af 0ebd
00000130: 11f4 113d d552 a33d 89d9 8c3e ced9 173e
00000140: 137a 23bc 9df7 883e 056a b9be 9bc3 083f
00000150: ff52 60be a4e7 14be 7b03 0cbf 74aa 593e
00000160: b03b 2e3e 3de6 dbbd 8091 dabc 379a 7cbe
00000170: 6629 9abd f010 9ebe 48ed f33d 7424 f5be
00000180: b8b7 a73e 1617 e23e 2330 60bc d561 49be
00000190: c487 633e 9843 f4bd b420 063e 19e7 853e
000001a0: 3ca8 3fbe 30cc 133f d80e 87be bcd7 92be
000001b0: 3158 043f 3c40 263e 7df0 f63c e69c 643e
000001c0: 2ec2 67be 14af 53be da40 90be 50f8 fbbd
000001d0: 65eb 93be 2b37 00bf 8617 00bd f831 e3be
000001e0: 1743 89be 8abe 223e 9fec ca3c 5d47 1e3b
000001f0: 45bf 3f3e 2102 cd3e 7be7 dd3e 2d40 cebe
00000200: 7d30 92bd 0ef3 973e 1c1a 4a3e 7932 fbbe
00000210: 45cb c43e abd5 a93d e324 dbbe e6c3 1b3d
00000220: 9c79 c2bd a35d 1abf 591e 0c3e 7b24 cdbe
00000230: 68de cfbd 49c5 143f 793f ff3d 8fc9 0abe
00000240: f97a b13e 6807 293e e353 dabe 684f 08be
00000250: 74af 48be bcfe e73e c6a2 ffbe 1a53 c93e
00000260: c01b a8bd 75e1 6fbe 3494 edba dbcb 223e
00000270: 5ee3 913d e3db 14bf 7d85 cdbe fa0d 813e
00000280: 98a3 ca3e 6a1f aa3e 8e9d 823e 7e48 023f
00000290: 064e e73d edf4 823e 8879 73be 8623 2fbe
000002a0: c2a8 5bbd 1de2 c0be 2b1c 76bc 078c d83e
000002b0: 438e 7f3e 07be 1c3d 2c74 22bf e2c0 febe
000002c0: 3766 883d de77 173e 58d0 063e fda5 863e
000002d0: 916f cb3c a583 06bf aa30 e93e 378c c7be
000002e0: cee2 37be 9e40 823e f2b4 fdbd b499 92bc
000002f0: 267e 6e3e 6a01 cbbe 9929 a73e d3b9 e13e
00000300: 2e1d 243e 2528 09be db7a 34be 90d5 563e
00000310: 4ca9 7dbd 268f f4be 4d69 303e a4af 64be
00000320: c4c1 53be 0962 de3e 60fb b0bd b36f 24be
00000330: 3383 06bf 7f3c a13e c66b bc3e a055 55be
00000340: 441c 02bc dfa2 c33d 8f74 70bd feae 82be
00000350: 5509 ac3e 7545 e2be 5d6e c6bc 4fe7 063f
00000360: 78ed bcbe b846 b5bd 60ec b83e 4937 09bf
00000370: 272c ccbd b54b 953e e426 273d 62bc ba3e
00000380: 4f08 fa3c b4b6 5b3e da15 90be d583 943d
00000390: 4fba 973e 2860 34bf 5d11 c43e 588f 2c3e
000003a0: 0a48 d6be b936 713e 59e9 2f3e cea7 0abf
000003b0: afac a1be 32d4 623e ccc4 dfbe 425e 5dbe
000003c0: 2bff f3bd 43cd e43e 25a1 313e e16a 12bf
000003d0: adf8 cdbe 167b 653e 1170 063e 7d59 65bd
000003e0: 2feb cbbd d639 583e 6fc7 14be b58a ba3e
000003f0: 4848 96be 57d0 913e b99f 073f f355 c9be
0.35559678 0.41422015 -0.2675903 -0.38369334 -0.34854168 -0.24154857 0.07085378 0.020438943
0.35695425 0.86329526 -0.18848373 0.38243374 -0.19224311 -0.10573597 -0.29480642 0.04558646
0.33582747 -0.11255941 0.11102774 0.035528112 0.39088994 -0.2931999 -0.57890993 0.10139041
0.28624555 0.32562003 -0.37227347 -0.059143607 0.44161808 0.27028114 0.04356627 -0.26563603
-0.5690251 -0.12384855 0.28892258 -0.13295722 -0.14486378 -0.2099179 0.23319125 -0.3589112
0.2508536 0.15864678 0.3792389 0.098591104 -0.35122612 0.14778364 -0.3913829 -0.5960565
0.19248338 0.33084366 -0.034182366 -0.31075388 -0.08530138 -0.5595599 0.15375294 -0.31079376
-0.28796998 0.15187404 0.31095773 0.43895856 -0.4675469 0.05869505 -0.078487694 0.4263044
-0.34733993 -0.36405298 0.3329274 -0.15832904 -0.38182187 0.270124 -0.021836137 0.195965
0.12178848 -0.15290551 -0.82997984 -0.03483504 0.03563315 0.07974783 0.27509716 0.1482918
-0.009977835 0.26751414 -0.362137 0.5342347 -0.2190666 -0.14541489 -0.5469281 0.21256429
0.17014956 -0.10737274 -0.026680708 -0.24668203 -0.075274274 -0.30872297 0.11910492 -0.47879374
0.32757354 0.44158238 -0.013683352 -0.19666226 0.22219759 -0.11926955 0.13098413 0.26152876
-0.1871652 0.5773344 -0.26378512 -0.28680217 0.5169707 0.16235441 0.03014397 0.22325477
-0.22632667 -0.20672256 -0.28174478 -0.12303221 -0.2889053 -0.5008418 -0.031272434 -0.4437406
-0.26808998 0.15892997 0.024771033 0.0024151423 0.18725307 0.40040687 0.43340668 -0.40283337
-0.07138155 0.29677624 0.19736522 -0.49061945 0.38436332 0.08292707 -0.4280158 0.03802862
-0.094958514 -0.6029913 0.13683452 -0.40066895 -0.101498425 0.58113533 0.12463278 -0.13553451
0.34664133 0.16506732 -0.42642125 -0.13311541 -0.1959818 0.45311534 -0.49928874 0.39321214
-0.08208418 -0.23425849 -0.0018125833 0.15898077 0.07123445 -0.5814802 -0.40140906 0.25205976
0.39577937 0.33227092 0.2551083 0.50891864 0.11294179 0.2557749 -0.23776829 -0.17103395
-0.053627737 -0.3767251 -0.015021364 0.42294332 0.24956612 0.03826716 -0.63458514 -0.49756533
0.06660121 0.1479182 0.13165414 0.26298514 0.024833472 -0.52544624 0.4554494 -0.38974163
-0.17957613 0.25439924 -0.12388028 -0.017895557 0.2329031 -0.39649516 0.32648924 0.44087085
0.16026756 -0.1339422 -0.1762499 0.20979905 -0.061929032 -0.47765464 0.17227669 -0.22332627
-0.20679384 0.4343417 -0.08641696 -0.16058235 -0.52543944 0.31491467 0.36800975 -0.20833445
-0.007941309 0.095525496 -0.05870491 -0.25524133 0.3360087 -0.44193617 -0.024222547 0.526967
-0.36899924 -0.08851379 0.3611784 -0.53599983 -0.09969359 0.29159322 0.040808573 0.3647185
0.03052154 0.21456414 -0.2814167 0.072517075 0.2963433 -0.7045922 0.38294497 0.16851556
-0.41851836 0.23556031 0.17178859 -0.541623 -0.3157706 0.22151259 -0.43704832 -0.21617988
-0.11913904 0.44687852 0.17346628 -0.57194334 -0.40228787 0.22410235 0.13128687 -0.055993546
-0.09956967 0.21115813 -0.14529203 0.3643395 -0.2935202 0.28479263 0.5297809 -0.39323387

conv1.bias f4 [32]
00000000: 565f ca3e 5a28 a93e 6464 8dbd c2d2 debe
00000010: 0a94 183f 0929 993e faf2 e3bd ad88 eebc
00000020: f4d3 f13e d467 1a3e 4853 4a3e da47 183f
00000030: d04f 063f eed6 aa3e 6723 6ebe b856 f8bd
00000040: 85f4 f6bd 81b6 033f 15c6 61bf 3b97 c03e
00000050: 476f 613d 23ee 5a3d 9964 d63e b27d 1bbe
00000060: d8e6 343f 10f7 4ebe f653 49bd d044 173e
00000070: 4b31 f23d f99e db3b 02e4 97be 6846 323e
0.3952586 0.33038598 -0.069039136 -0.4352017 0.5960089 0.2991412 -0.111303285 -0.029117906
0.4723202 0.1507867 0.19758332 0.59484637 0.52465534 0.33367103 -0.23255692 -0.12125915
-0.12058357 0.51450354 -0.88192874 0.3761538 0.055037763 0.05344976 0.41873625 -0.15184668
0.7066474 -0.20211434 -0.049152337 0.14772344 0.11825808 0.0067023006 -0.29666144 0.1740967

BN1.weight f4 [32]
00000000: aa7e b13f 07b6 d83e 3a5d 973f 373b 623f
00000010: da3c 663f 404d 403f c109 813f 73e7 243f
00000020: cffa 803f d092 b83f d650 643f d2ec dc3e
00000030: 1cae 6a3f 1b75 593f ce25 233f 2db6 8a3f
00000040: 3544 613f 0d46 ce3e 5408 373f 0e11 573f
00000050: 1811 823f 87a9 7b3f cdec 843f 2860 e83e
00000060: 282d 0d3f 844a 9f3f cff1 a43f 8e44 413f
00000070: f890 6a3f f3c6 333f 73ba 553f ef30 6c3f
1.386678 0.42326376 1.1825325 0.88371605 0.899366 0.75117874 1.0081102 0.64415663
1.0076541 1.4419804 0.89185846 0.4314943 0.9167192 0.84944314 0.6372956 1.0836846
0.879947 0.4028782 0.7149708 0.840104 1.0161467 0.98305553 1.0384766 0.4538586
0.5514703 1.2444615 1.2886294 0.7549523 0.91627455 0.7022545 0.83487624 0.92262167

BN1.bias f4 [32]
00000000: bac5 c7be e64e 19be ca2d 5fbe 2ee0 62bd
00000010: 024f 8cbf ba23 afbe 259d 06be e475 d1bd
00000020: 479e 11bf f30a 44bf 6a1a e7be 35c8 36be
00000030: 23c0 893b 254e ddbe bf56 c8bd e0e1 53bf
00000040: da2c 57bf a63e bfbd c0c1 43bf 19e5 1cbf
00000050: 33ba 14bf 0a5a 09bf 11c7 9bbf 31be 00bd
00000060: a311 adbd d87b cbbe 4b70 66bf e4e6 83bd
00000070: 411a 99bd 7bb3 24bd 3467 3cbf e892 24be
-0.3901804 -0.14971504 -0.21794811 -0.055389576 -1.0961611 -0.34206945 -0.13145883 -0.10227564
-0.5688214 -0.7657921 -0.4513734 -0.1784981 0.0042038127 -0.43223682 -0.097821705 -0.8276653
-0.84052813 -0.09338121 -0.76467514 -0.61287075 -0.5809662 -0.53653014 -1.2170125 -0.03143138
-0.084506296 -0.39742923 -0.90015095 -0.06440523 -0.07475711 -0.04021023 -0.73594975 -0.16071665

BN1.running_mean f4 [32]
00000000: 380c c63e fbf4 f23e d449 96bd f9c9 eabe
00000010: 3cbe 1b3f 02b8 273d 4459 e6bd d1ce 27bd
00000020: 0500 cd3e 3e6c d93d e3a5 123e 9e15 203f
00000030: 4c1b f83e 0cf4 753e 4217 6dbe 8198 5bbe
00000040: 4453 e8bd 0bc8 013f 42b5 53bf 57ee d03e
00000050: 0bf4 85bb 67c8 013d 4883 df3e b8f1 25be
00000060: b135 343f f3a0 5bbe 3422 34be e624 9a3d
00000070: 1350 b73d 533c 4bbd da9f 95be ac39 1d3e
0.38681197 0.4745253 -0.073383 -0.45857218 0.6083715 0.040946968 -0.11247495 -0.04096872
0.40039077 0.10616349 0.14321093 0.62532985 0.48458326 0.24018878 -0.23153403 -0.21444894
-0.11344007 0.50695866 -0.8269845 0.4080684 -0.00408793 0.03168526 0.43654847 -0.1620549
0.70394427 -0.21448116 -0.17591172 0.07526569 0.0895082 -0.049618077 -0.2922352 0.15354031

BN1.running_var f4 [32]
00000000: 5080 ac3b 9603 fd3c 2236 843b e1c5 df3b
00000010: 224e 923a 9962 ac3d 384c 913b 5801 f03b
00000020: 9257 903c 4ac7 ed3b cc11 643c 9408 453b
00000030: d938 783c 8a89 d63c f06b ad3b 294e bf3c
00000040: ff37 b23a 1877 373c 3d57 743c bd9d f93b
00000050: 3d9c ed3b 96ea 933b 2f12 163b 62d8 623b
00000060: 98b8 b33b 9df4 463b f54c f53c 3d67 783c
00000070: d3f6 503c 94ad 273c e3a8 8239 6e06 a93c
0.0052643195 0.030885499 0.0040347734 0.006829009 0.0011162201 0.084172435 0.004434135 0.007324379
0.017619882 0.007256423 0.013920259 0.0030064927 0.015150272 0.02618863 0.005292408 0.0233527
0.001359701 0.011197828 0.014913377 0.007617681 0.007251291 0.004514049 0.0022899022 0.0034613837
0.005484652 0.0030358203 0.029943923 0.015161333 0.01275416 0.010234255 0.00024921363 0.020632949

conv2.weight f4 [64, 32, 3, 3]
00000000: f9f8 8abd 4008 893e f7c7 90bd c3e3 a83d
00000010: a3ca d83d 5145 85be a5ee a2bd e786 883d
00000020: 5342 b0bd 4288 04be 47df c6bd 9039 43bd
00000030: 39c9 b3be c050 edbe a593 dfbe 1cb4 823e
00000040: 79ac 3c3e 7333 7f3e 029d 173d b9c0 bd3d
00000050: 88ef 2c3e a790 8abd 8140 47bb 37a6 593d
00000060: fc68 8fbd 1996 cabd cf8b 873d 5b8b 64be
00000070: fbb6 4a3d 65b2 843e 481b 04bf 543f db3c
00000080: 2789 24be 201f 9abd 4dcb 903e 4fac cd3d
00000090: ed48 b73e 2f6d a6be 1ad3 35be 3409 09be
000000a0: 9ded a1be cec4 58be ae2b 95bd 1886 9abe
000000b0: fe29 74be 834f 9dbe 0cf6 8ebb 7f78 82be
000000c0: 3cb8 90be 815b 39bd e7c5 36be 8b86 303e
000000d0: 3581 983e 6e42 5b3e fb83 04be 1ade 1abe
000000e0: 4544 66be 395a 953c 746b 093e cb91 873e
000000f0: 1eec adbe 4678 a5be 8566 6cbe 088b 72bd
00000100: b33a 013e a8cf de3d d1c7 58be fa8d bcbd
00000110: f498 ffbe 2118 273e 7829 3e3e 6e6f 783e
00000120: 2970 a7be e3b5 e8bc 36c6 68be f562 65be
00000130: e481 ed3d 8a19 adbe 5fae 873e 5d65 833e
00000140: 50b4 b6bc a7f6 f9be 3e66 30bf 5f9f 28bf
00000150: 6e99 ca3e 52cf 6b3e 2bf9 8f3d a8de b0be
00000160: 69ed d1be f410 02bf 6a2c e63e 41bd 993e
00000170: a667 5b3e 71cb 3abe 54ca 0cbe 82e5 f3be
00000180: a35d a83d b5df a23c 6ae5 b0bc b6af 9a3c
00000190: b714 bd3d e7ac 9bbd 612f 53be 7f5f f1bc
000001a0: 1179 80be dea3 a33e e42c 9f3d e619 3cbe
000001b0: 5a7a c13e 3802 9b3e 5a23 8d3c a234 023e
000001c0: 7343 9dbd 3a09 59bf 1f89 ccbd 5ecc ed3d
000001d0: d430 4d3e af1a d33c a988 01bc 9078 2bbe
000001e0: 6842 4cbe 23aa 133b 7065 b1be 7237 0bbd
000001f0: b1dd 163c 36d1 623d 33a2 3dbd fc54 a83c
00000200: 29ad 04be da92 b8bc d17b b7bc f0bf 1cbf
00000210: 2b56 ddbc b8fe c23c 822e 83be f6ca f1be
00000220: 0d55 49be d29e 2ebf d88c 9dbb 9215 4e3d
00000230: fc0c 08bd 1fa0 963e f823 473d c5d8 aabe
00000240: 1227 2bbf 91f8 9ebe b3c1 bebe aae3 4a3e
00000250: e82e 7b3e a065 463d ad8c ccbd a4f3 33be
00000260: 4335 3c3e dacd d83e c1bd 9b3e 2158 de3e
00000270: 9c84 cfbd 9b4e edbd 4dab 3ebd 7c7e 853d
00000280: 14ec d93d 27e7 523e 7063 f6be ee1f d4be
00000290: 7c46 a2bd 24b4 183e c51b a1be 515d 0ebf
000002a0: e98a 803e db40 803e bfa7 a83e c364 e0be
000002b0: 44df 23be dd88 49be d69f 47bc 0c23 3abd
000002c0: 0f9e 5abe 2747 423e 68df e33d defb ab3e
000002d0: d3c2 bf3e f173 273e c585 2bbd 7fb8 80be
000002e0: ae24 e0bd cdff cabe cb1c c8be 02cb 20bd
000002f0: 6695 28bf 72ad b5be fcb6 47be ecee 5f3e
00000300: 540c fabe 34d3 d7be feaa f8be 4f5a 1dbe
00000310: b935 923e ff90 863e 4eac 37be 910b 923d
00000320: f5ca 573e d323 9f3e 5c16 023d 7555 e7bd
00000330: a22a 20be 27ed bfbd 5eea 453d 5358 463e
00000340: 2e87 ce3d bc88 873e bf87 0abe 2a6c a3bc
00000350: 84b3 79bd bf1f c7be 5991 7cbd 71ad 94be
00000360: f45d 1b3e 30b4 b7bc 5a62 8c3e 0390 8abe
00000370: 1ca2 6abe 5a56 66be 4a81 88bd acc9 d33d
00000380: 1d12 9a3e 8859 3a3e 2290 3b3e f732 c93d
00000390: 836f 943d 252c 0d3d 2d29 9c3d b75d 7ebe
000003a0: b84d b3be 8f2c 18bf 5a38 7dbf 868c 93bf
000003b0: 1a82 a1bf a8e3 09be 6c94 21be caff 31be
000003c0: 1bbd 8dbe becb d4be bcfe d8be 0aa4 fb3d
000003d0: b59f 30be b353 f8be f2ed c4be f8e5 9ebe
000003e0: dd8f 6dbe 0233 633e 4b4c 9a3e d966 9b3e
000003f0: ef2d 953e 6a41 3a3e cf8e 283f e053 bfbd
-0.06785769 0.26764107 -0.0706939 0.08246567 0.10585525 -0.26029447 -0.07955674 0.066663556
-0.086064 -0.12942603 -0.097105555 -0.047662318 -0.35114458 -0.4635067 -0.4366733 0.25528038
0.18425168 0.2492197 0.03701497 0.092652746 0.16888249 -0.067658715 -0.0030403438 0.05313703
-0.07002446 -0.0989191 0.06618463 -0.22318785 0.04949091 0.25917354 -0.5160413 0.026763596
-0.16067944 -0.07525468 0.28280106 0.10042631 0.35797825 -0.32505175 -0.1775631 -0.13382417
-0.31626597 -0.21168825 -0.07283722 -0.3018043 -0.23844144 -0.30724725 -0.004362827 -0.25482556
-0.2826556 -0.04525328 -0.17848931 0.17238824 0.29786077 0.2141206 -0.12940972 -0.15123788
-0.2248698 0.018231498 0.13419896 0.2647842 -0.33969206 -0.32318324 -0.23085983 -0.05921462
0.12620048 0.10879451 -0.21169974 -0.092067674 -0.4992138 0.16317798 0.18570507 0.24261257
-0.3270276 -0.028407043 -0.22731861 -0.2240103 0.1159704 -0.33808547 0.26500222 0.25663272
-0.022302777 -0.48820993 -0.6890601 -0.6586818 0.39570183 0.23028305 0.07029947 -0.34544873
-0.41001442 -0.5080712 0.4495576 0.30027202 0.21426257 -0.18241669 -0.13749057 -0.47636038
0.08220985 0.019882062 -0.021593768 0.018882614 0.09232467 -0.07601338 -0.20623542 -0.029464481
-0.25092366 0.31960958 0.07772234 -0.18369254 0.3778866 0.3027513 0.017228771 0.1271539
-0.076788805 -0.84779704 -0.09987091 0.116112456 0.20038158 0.02576956 -0.0079061175 -0.1674521
-0.19947207 0.002253183 -0.34647703 -0.033988424 0.009208129 0.0553753 -0.046297263 0.020548336
-0.1295668 -0.022530962 -0.022397907 -0.61230373 -0.027018627 0.0238031 -0.2562142 -0.4722516
-0.1966135 -0.6821109 -0.0048080496 0.05031354 -0.033215508 0.29419038 0.048618287 -0.33368507
-0.6685649 -0.31049016 -0.37257156 0.1981341 0.24529612 0.04843676 -0.09987769 -0.1757341
0.18379693 0.42344552 0.30418208 0.43426612 -0.10132715 -0.115872584 -0.046550084 0.065182656
0.106407315 0.2059599 -0.4812274 -0.4143061 -0.079236 0.14912468 -0.314665 -0.5561114
0.2510598 0.2504948 0.3294048 -0.43826875 -0.16003138 -0.19681115 -0.012184104 -0.04544358
-0.21349357 0.18972455 0.11126596 0.33590597 0.37453327 0.16352822 -0.04187562 -0.2514076
-0.10944496 -0.39648286 -0.39084467 -0.039256103 -0.65852964 -0.3548389 -0.19503397 0.21868485
-0.4883753 -0.42153323 -0.48567957 -0.15366481 0.28556612 0.26282498 -0.17936823 0.07131112
0.21073516 0.3108202 0.031759605 -0.112955965 -0.15641263 -0.09371405 0.048319213 0.1936963
0.10084377 0.26471508 -0.13528346 -0.019949038 -0.060962215 -0.38891408 -0.06166205 -0.29038575
0.15172559 -0.022424787 0.27418786 -0.27062997 -0.22913402 -0.22493878 -0.06665285 0.103412
0.30091944 0.18198216 0.18316701 0.09824174 0.07247832 0.034465928 0.07625041 -0.24840437
-0.35020232 -0.5944299 -0.9891411 -1.1527259 -1.2617829 -0.1346575 -0.15779275 -0.17382732
-0.2768334 -0.41561693 -0.42381847 0.12287147 -0.17248423 -0.48501357 -0.38462788 -0.31034827
-0.2319941 0.22187427 0.30136332 0.30351904 0.29136607 0.18189016 0.6584291 -0.0934217

conv2.bias f4 [64]
00000000: d3bf 13bd f689 173d 180e 7e3c 78e6 05bd
00000010: c284 e53d 8fa8 4d3c d6fb 3d3d 2b55 8b3d
00000020: ed46 d03c f04f 34bd c008 7b3d da9c 6b3c
00000030: 4678 513d e587 63be 0e1b b33c 9489 7b3d
00000040: 30b8 083d be49 06be ada5 68bd efbb 163d
00000050: 662d cf3d 6983 ef3c a557 1fbe 9a16 18be
00000060: 7ee1 4cbd e284 2fbd ee30 373d 27b4 593c
00000070: fc40 213d aba0 b23c 171a 3e3d a6b4 893d
00000080: aaf1 f33c 0e2b c2bc 375a c7bc d728 04be
00000090: 31f4 573d 3874 0ebd e5a8 f5bd a986 c5bd
000000a0: f61e 703c caaf 10bd b408 553d 76a7 863c
000000b0: bb53 b63c a40c 56bd 6ad2 f83c ec15 bbbd
000000c0: e171 353d 1e52 42bd 7b1b 28bc b1ad 9237
000000d0: e9d4 ac3d d214 763d 9d33 6f3c 5483 423e
000000e0: d202 4b3e 896d 163d f8b5 54bc 68eb 7bbd
000000f0: fc7a 833d c764 c5bc c5e3 663c 2d41 91bd
-0.03607161 0.036996804 0.01550629 -0.032690495 0.11206962 0.0125523945 0.046382748 0.06803354
0.025424445 -0.044021547 0.06128764 0.014380658 0.051140092 -0.22219808 0.021863487 0.0614105
0.03337878 -0.13114068 -0.056798626 0.03680032 0.10116081 0.029237466 -0.15560777 -0.14852372
-0.050019734 -0.042851336 0.044724397 0.013287581 0.039368615 0.021805128 0.0464116 0.06723909
0.02977832 -0.02370217 -0.02433501 -0.12906204 0.052723113 -0.034778804 -0.11995105 -0.09644825
0.014655819 -0.035323896 0.052010253 0.016437273 0.022256723 -0.05225815 0.03037377 -0.09135041
0.044298057 -0.047441594 -0.010260458 1.7485438e-05 0.08439047 0.06007845 0.014599708 0.1899541
0.19825295 0.036725555 -0.012982838 -0.061503798 0.06419942 -0.024095906 0.01409239 -0.070925094

BN2.weight f4 [64]
00000000: ffae ae3f e764 923f 7ee3 a53f c752 a63f
00000010: 9421 8d3f f33d a93f 3df7 573f 22e4 8b3f
00000020: 206d a43f d3ee a63f 352e 933f fdcb 9d3f
00000030: c2ea aa3f f332 be3f d80c 933f c203 8b3f
00000040: 7a95 b03f 03c3 b13f 9b19 e33f 1c9c 1a40
00000050: a2ae 9f3f 3afe b23f 9116 1040 ef72 a73f
00000060: 2efd aa3f 9fa5 0540 39f2 b83f 2a4f b13f
00000070: 1cdd be3f 1397 aa3f 5413 bd3f 82c3 993f
00000080: c149 c03f 4874 b93f a647 a53f de4f ae3f
00000090: d581 f63f 7066 8d3f c137 4e3f 5746 993f
000000a0: f942 893f 2288 7f3f 5e3f 9d3f c62f 0140
000000b0: cab0 d33f 64d4 ad3f aa97 c83f f9e3 763f
000000c0: 2766 d73f 039d 983f be56 a83f 9604 b23f
000000d0: e2f2 c43f 9b69 763f c49b a33f b151 9b3f
000000e0: fe01 8e3f 2111 b73f 3492 993f 76e3 873f
000000f0: 995c c73f f5ca c03f 9741 ea3f 7866 a43f
1.3647155 1.1437043 1.296005 1.2994012 1.1025872 1.322203 0.8436163 1.0928996
1.2845802 1.3041633 1.1498476 1.2327877 1.3352892 1.4859298 1.1488295 1.0860522
1.3795617 1.3887638 1.7742189 2.4157782 1.2475169 1.3983834 2.2513773 1.308195
1.3358514 2.0882337 1.444892 1.3852284 1.4911227 1.3327354 1.4771523 1.2012789
1.5022508 1.4488611 1.291249 1.3618124 1.9258372 1.1046886 0.80553824 1.1974591
1.0723563 0.998171 1.2284963 2.0185409 1.6538327 1.3580441 1.5671284 0.9644161
1.682805 1.1922916 1.3151472 1.390765 1.5386622 0.9625489 1.2781911 1.2134305
1.1094358 1.4302102 1.1997743 1.061629 1.5575134 1.5061938 1.8301266 1.2843771

BN2.bias f4 [64]
00000000: 366c 29bf 2f35 1abf 48f7 17bf d588 30bf
00000010: 15b5 1abf 98f1 30bf 2738 e2be 0a81 f7be
00000020: d1df 24bf 2c45 33bf 6a53 06bf 6656 24bf
00000030: bf5d 26bf 3488 34bf 2ae3 13bf ffae 02bf
00000040: 0d4a 1abf 8c67 37bf e919 94bf 9b9e e9bf
00000050: 3605 0dbf 34a4 3ebf 05e4 c3bf 402b 19bf
00000060: e82a 26bf 2c42 a5bf 3454 40bf d070 2bbf
00000070: d25c 3dbf 3ac1 0ebf f52e 40bf 96e3 1ebf
00000080: 98da 7ebf 6395 47bf 57bf 13bf fe2c 22bf
00000090: 0e6f 8ebf f7ef e7be 5fe4 debe 265a 19bf
000000a0: 7213 febe 08bb e7be 71c8 22bf 7af2 c0bf
000000b0: 5aba 56bf 02f7 33bf 7760 56bf cf58 f6be
000000c0: 6204 4bbf 805e 28bf 4b9b 2cbf 9df9 30bf
000000d0: deba 56bf dba2 f9be 834d 1bbf 8535 2abf
000000e0: 6943 04bf 766f 40bf 3cd0 0bbf 36d7 08bf
000000f0: ce5c 81bf a030 43bf 08a4 96bf 459e 0ebf
-0.6618074 -0.602374 -0.59361696 -0.6895879 -0.6043256 -0.6911864 -0.44183466 -0.48340636
-0.64404017 -0.7002742 -0.5247103 -0.64194334 -0.64986795 -0.7052033 -0.577685 -0.5104827
-0.6026924 -0.71642375 -1.1570407 -1.8251528 -0.55086076 -0.74469304 -1.5303961 -0.5983162
-0.6490922 -1.2910819 -0.75128484 -0.66969013 -0.7396976 -0.5576359 -0.7507165 -0.6206602
-0.995523 -0.7796232 -0.57713836 -0.633499 -1.1127641 -0.45300266 -0.43533608 -0.5990318
-0.4962421 -0.4525988 -0.635871 -1.5073998 -0.838781 -0.7029878 -0.83740944 -0.4811463
-0.7930356 -0.65769196 -0.6742446 -0.6913088 -0.83878887 -0.4875706 -0.6066515 -0.66487914
-0.5166536 -0.75170076 -0.54614615 -0.53453386 -1.0106447 -0.7624607 -1.1768808 -0.5571025

BN2.running_mean f4 [64]
00000000: 2a29 bdbf 73a2 f4bf 0e67 a1bf c147 dbbf
00000010: 8b04 29c0 5575 c2bf 154e b6bf 67ab adbf
00000020: 6bf3 84bf 40ae cabf 4be0 0bc0 8d65 f8bf
00000030: 6095 05c0 fc98 9bbf da4f 21c0 d2d2 8cbf
00000040: 7d2d c1bf 366b cdbf 76ee 76bf c559 3fbf
00000050: da34 02c0 ca91 06c0 273b 88bf d74a d9bf
00000060: d3aa 14c0 3bae 67bf 2559 d4bf afaa d4bf
00000070: 51d9 a5bf ed4a d2bf 79ca d5bf 96e4 e1bf
00000080: c689 91bf b397 8abf 0f41 e1bf b2a6 d3bf
00000090: e71e 87bf ff37 56c0 6ac3 9bbf f960 b3bf
000000a0: 64a7 f6bf 3c3d 02c0 4c36 c0bf c31c 38bf
000000b0: f3ea b2bf 711c 76bf 52c3 92bf ac9d 26c0
000000c0: 87c0 adbf 4495 9fbf 9eee 02c0 8cf4 ddbf
000000d0: 6ec6 d2bf 76be 9ebf a04f aabf 3990 3fbf
000000e0: babc 1dc0 590e c0bf fe4a 19c0 b426 13c0
000000f0: 87b9 14bf 5443 92bf 9ab3 34bf bd2d cfbf
-1.4778187 -1.9112076 -1.2609575 -1.7131273 -2.6409023 -1.5192057 -1.4242579 -1.3567933
-1.0386785 -1.5834427 -2.1855648 -1.9405991 -2.0872421 -1.2156062 -2.5204988 -1.1001837
-1.5092007 -1.6048343 -0.9645761 -0.7474635 -2.0344758 -2.1026483 -1.0643052 -1.6975964
-2.3229263 -0.9050023 -1.6589705 -1.6614588 -1.2956945 -1.6429116 -1.6702415 -1.7647884
-1.137017 -1.0827545 -1.7597979 -1.6535246 -1.0556306 -3.3471677 -1.2169011 -1.4013969
-1.9269834 -2.0349874 -1.501657 -0.71918887 -1.3977951 -0.9613715 -1.1465857 -2.6033735
-1.357438 -1.2467427 -2.045814 -1.7340255 -1.6466806 -1.2401874 -1.330555 -0.7482944
-2.464644 -1.5004379 -2.3952022 -2.2992373 -0.5809559 -1.1426797 -0.7058655 -1.6185833

BN2.running_var f4 [64]
00000000: b2fd 3141 ea19 6041 4516 1241 db3a 1e41
00000010: 8fa0 3c41 3539 2d41 2ddd 5841 20a3 3b41
00000020: 1399 ab40 5f4d 4f41 c830 7c41 a77b 7741
00000030: 7256 5841 c20d aa40 afb5 e441 e6a2 7c41
00000040: 9908 9241 0a8c f340 1c87 4640 d5ff 4740
00000050: 7bed 8b41 3c4a 6341 bcc1 7f40 db76 0941
00000060: 46c4 9341 c96b 8a40 2633 3041 316f 1241
00000070: 0826 5a41 a183 6c41 5747 2b41 b6ed 4341
00000080: dbeb 9240 0c10 ac40 ad12 4741 7ca0 1941
00000090: 7008 9e40 41e0 a641 4f00 3041 472c 1141
000000a0: 6467 4341 4dbf 9141 330a ee40 8e98 6140
000000b0: 6265 d740 d15c b040 84b8 b840 a06d af41
000000c0: dc40 3441 40c9 1541 4849 0941 dc5a 2641
000000d0: 24b5 2441 5909 7a41 36db 2e41 0df1 3441
000000e0: f3ea b841 bd59 1541 3534 6a41 bff3 6d41
000000f0: f278 2040 2d44 b940 5944 2e40 4c5b 8641
11.124437 14.006327 9.130437 9.889369 11.789199 10.826467 13.553998 11.727325
5.362436 12.956389 15.7619095 15.467689 13.521105 5.3141794 28.588713 15.78977
18.254198 7.6108446 3.1019964 3.1249897 17.490957 14.205624 3.9961996 8.591517
18.470837 4.3256574 11.012487 9.152146 13.634285 14.782136 10.704917 12.245535
4.591291 5.376959 12.4420595 9.601681 4.93853 20.859499 11.000075 9.07331
12.212742 18.218409 7.438745 3.5249362 6.731126 5.51133 5.772524 21.928528
11.265835 9.361633 8.580391 10.397182 10.294224 15.627282 10.928518 11.30885
23.114721 9.334409 14.637746 14.872008 2.507382 5.7895722 2.7229216 16.794579

fc1.weight f4 [128, 1024]
00000000: efcd b4ba 3fa6 fbbc f1b4 4dbc 7bd7 a7bc
00000010: 7fbf 4cba 01dd 1bbc e04b 11bd 5eaa 00bc
00000020: 643e f0bc 6df1 8ebc 85d9 163c 015d c23c
00000030: f9a5 b03b 4a35 8f3c 86cb 9b3c 1c41 11bd
00000040: 8d9f 4ebc 302b 5cbc 5392 1b3c fe09 83bc
00000050: ad0b 31ba a2c5 29bc 3b82 49bc f350 623c
00000060: ee9b 633c 74eb 00bc ad10 e7bc 1ae7 8f3b
00000070: d297 d7ba eb4e e5bc 8c8d 9bbc 875d 4b3b
00000080: ea1c 893a 5b74 babc 794f 7b3c ed57 7bbc
00000090: 57ad 473c bf22 a4bc 9063 efbc 26a7 d23a
000000a0: e4cd c93c 5d3f 583c 7c14 adbc ffd1 f5bc
000000b0: 323a 55bc 135b 8bbc 2bb4 c63b 47cc 0cbd
000000c0: c906 88bc 3214 2bbc 2130 743c 2b5d c63b
000000d0: 10eb b63c accd 99bb c4bb a0bc 3a89 0a3b
000000e0: 4002 25bb 77f0 06bd 47a0 d6bc dd4b ffbc
000000f0: b0f1 59bc ec71 0abd 799c 07bb 1979 623c
00000100: da70 213c 025f bb3c 548c 84bc adb3 b2bc
00000110: 9d0b a9bb 7d47 f1bb f29f 9f3c a7c2 0abd
00000120: 2ee0 15bd d3af f5bc c519 a2bc 588c 283c
00000130: 7b58 65bc 9c3f a03b 7132 ecbc 8531 ca3c
00000140: 4b9d 323b 390f 3e3b 7195 c63c 89d0 093c
00000150: 40cb 953b 4441 03bc a884 073b 27a2 06bc
00000160: 25a8 a9bb f542 dfbc 896f 933c cc25 2b3c
00000170: 9481 b9bc 1af7 953c 4937 babc 4199 17bc
00000180: f8e4 86bc be44 173c ffa6 3c3b 1a8c a5bc
00000190: 7a62 923b 6275 c43b 7dd4 c0ba 18f9 283c
000001a0: 54c4 2dbc c6ea 2b3c 4960 bf3c 08c3 9dbc
000001b0: b46e f53b d047 ec3b 262c b8bb dc32 6fbc
000001c0: b691 173c 74ce 373c 646f 783c 80c7 3fbc
000001d0: 076e 09bd 1828 8bbc 34dc 0bbd 1435 c43c
000001e0: f6d4 10bd 9ba7 3e3c f03b d3bc 1d1f 04bd
000001f0: 2414 233c e8d7 f8bc ba78 e5bc 14f8 9f3a
00000200: 46d1 02bd 0cc5 9f3c a6e5 acba 01df bfbb
00000210: f5d3 b43c dbe6 aabc 7544 bebc 1360 53bb
00000220: d1eb 593c 0d4b cb39 f21d 1a3c f3f4 13bd
00000230: 024d 40bc b85b fab9 d01c 293c 46af acbc
00000240: 8014 b4bc 0301 e3ba c078 25bc cdc1 7fbc
00000250: a7cb 953c ba87 a9bc 5746 0c3c f99f 963c
00000260: 9fac afbc 6ea0 8e3c 14ca c23b 899b 85bb
00000270: d538 0dbd f604 843b 0e6d 9e3c 2096 0fbc
00000280: 5a7e 973c 96f2 cebb 6f45 59bc 201f 70bc
00000290: 5d8d 05bc f833 9bbc 1eac aebb 9e50 d1bb
000002a0: 6138 03bd fbad a8bc 8acb ba3c 07c1 c0bb
000002b0: 1edf c5bb feb3 1a3c 7f50 933c 7a4a 17bd
000002c0: e4a5 0fbd a0a2 0bbc 7f72 8dbc 66a1 02bd
000002d0: fc93 f8bc 7f30 cc3b 9d9a 323c 5e0f 01bc
000002e0: 7e32 6ebb 796f e5bc 13d1 dfbc 83af 07bd
000002f0: c6c5 f3bb 1414 12bd 57c7 d2bb 3d1e 873c
00000300: 2ea1 90bc 1018 04bd 0788 c6bc 5b57 0f3c
00000310: 71c3 c4bc 44b4 c0bc 4a5c b4bc 5446 b1bc
00000320: d1fa 933c 3612 81bc aeed bb3c 0e73 0e3c
00000330: d593 2ebc 4d7e 01bd 3b41 8c3c 2319 ac3c
00000340: 031d 22bc fe5c 9e3c 1b73 3fbc 6554 08bd
00000350: 6da9 10bd eec5 84bc ce76 953b 0fd2 7e3c
00000360: af22 ab3c f583 be3c 6f4d c43b a06c 02bd
00000370: 6f7c b73b cf15 f8bb 9069 54bc 25eb 9c3c
00000380: e51b dbbb 1197 b4bc a135 b33c 713f 433c
00000390: d3c1 caba fe46 953c 511c fabc 14df d0bb
000003a0: a810 05bd d9dd 33bb f17c 3f3b 538e 89ba
000003b0: d3a9 03bd 6788 d7bc 1c5a 0dbd b08e a43c
000003c0: ecf6 9abc 7f4f 913c 7a1f fbbc de63 8fba
000003d0: ab5c b53c efb7 47bc 84fa dfbc 40de 23bc
000003e0: f64b 923b e156 41bc da4a 363b f8fa 7ebb
000003f0: 92a6 febc 2d08 28bc 5795 94bc 20e9 af3c
-0.0013794283 -0.03071892 -0.012555347 -0.020488491 -0.00078105176 -0.009513141 -0.03547275 -0.007853119
-0.029326625 -0.017449105 0.009207134 0.023725988 0.005390879 0.017481465 0.019017946 -0.035462484
-0.012611282 -0.013438031 0.009495336 -0.015995976 -0.0006753754 -0.010362061 -0.012299116 0.013813245
0.013892157 -0.007868636 -0.028206194 0.004391563 -0.0016448444 -0.027991733 -0.018988393 0.0031031088
0.0010460888 -0.02276056 0.015338772 -0.015340787 0.0121873235 -0.0200361 -0.02922228 0.0016071543
0.02463431 0.013198701 -0.021127932 -0.03000736 -0.013014363 -0.017011201 0.006063958 -0.0343745
-0.016604798 -0.010441827 0.014904053 0.006053587 0.022328883 -0.0046937075 -0.019620784 0.0021138922
-0.0025178343 -0.03294417 -0.026199473 -0.031164104 -0.013302252 -0.03380005 -0.002069263 0.013822817
0.009853566 0.022872452 -0.016180195 -0.021814192 -0.005158855 -0.0073632584 0.019485448 -0.03387704
-0.036590748 -0.029991066 -0.019787678 0.010287367 -0.013998146 0.0048903953 -0.028832646 0.024681816
0.0027254398 0.0029000773 0.024241181 0.008411535 0.0045713484 -0.008011166 0.0020678435 -0.008217371
-0.005177515 -0.027253607 0.01799752 0.010446023 -0.022644795 0.018306304 -0.02273144 -0.009252847
-0.016466603 0.009232698 0.002878606 -0.020208407 0.0044673057 0.0059954384 -0.0014711764 0.010313295
-0.01060589 0.010492986 0.023361342 -0.019258037 0.0074900035 0.007210709 -0.0056204973 -0.014599528
0.009251049 0.011218656 0.015163276 -0.011705279 -0.033552196 -0.016986892 -0.03414555 0.02395109
-0.035359345 0.01163664 -0.025785416 -0.032256234 0.009953532 -0.03037639 -0.028011668 0.001220467
-0.03193786 0.019503139 -0.0013190999 -0.0058554416 0.022073725 -0.020862034 -0.023226002 -0.003225331
0.013300852 0.00038775094 0.009406554 -0.036122274 -0.01173711 -0.00047752052 0.010321811 -0.02107967
-0.021982431 -0.0017319027 -0.01009959 -0.015610171 0.018285586 -0.020694602 0.008561692 0.018386828
-0.021444617 0.017410483 0.0059444997 -0.004077379 -0.034478027 0.0040289117 0.01933911 -0.00876382
0.018492866 -0.0063155396 -0.013261183 -0.014655858 -0.008151379 -0.018945679 -0.0053305766 -0.006387784
-0.03203619 -0.020590773 0.022802133 -0.0058823857 -0.0060385605 0.009442328 0.01798272 -0.03693626
-0.035070315 -0.00852266 -0.01726651 -0.031892203 -0.030344002 0.006231367 0.0109011205 -0.007877199
-0.0036346014 -0.028007256 -0.027321374 -0.033126365 -0.007439348 -0.03566368 -0.0064324546 0.01649391
-0.017654981 -0.03224951 -0.024234785 0.0087488545 -0.024018975 -0.023523457 -0.022016663 -0.02163998
0.018063935 -0.015755754 0.022940483 0.008694423 -0.010655363 -0.03161459 0.017120948 0.02100808
-0.009894612 0.019331452 -0.011685158 -0.03328361 -0.035317827 -0.016207661 0.0045612818 0.015553012
0.020890562 0.023256281 0.005990676 -0.031841874 0.0055995504 -0.007570959 -0.012964621 0.019155094
-0.006686675 -0.02204469 0.021876158 0.011916981 -0.0015469141 0.018222328 -0.03053108 -0.0063742492
-0.032486588 -0.0027445464 0.0029218758 -0.0010494686 -0.03214438 -0.026310159 -0.034509763 0.02008757
-0.01891657 0.017738102 -0.030654658 -0.0010939797 0.022138914 -0.012189849 -0.027341135 -0.010001719
0.0044646217 -0.011800499 0.002781561 -0.0038906913 -0.031085286 -0.0102558555 -0.018137617 0.021473467

fc1.bias f4 [128]
00000000: 6516 283c ee4c 95bd a968 523e beed 4a3e
00000010: 99b6 dd3b c816 26bd 0623 a73a 2f4c 11bd
00000020: 9ca2 7cbc 1538 0d3b f490 1dbc bc99 cc3d
00000030: 3682 5f3c cb73 5ebd b3b9 963d a33e d13b
00000040: a412 cebc 20d7 93bc 5e0d 193d b77c 12bd
00000050: af50 b4bd dd82 5fbc e06f ad3e 0fb0 60bc
00000060: 4b8b 20bc 6581 533e df8c a5bc 3edc d53d
00000070: 2d16 c1bc a83c 72bc db7e c4bc ae58 12bd
00000080: f8ec 813c 600b 8b3b bb29 55bd e39d 92bb
00000090: f9c6 9d3e 5c90 0dbd ab99 43bc 3b9b edbc
000000a0: f3a6 2bbc 86e3 55bc 105a 263c dca8 963b
000000b0: 5b2b 413e a90d b4bc c5c1 67bc d9bd afbd
000000c0: 1c47 073c 4ed3 beba a3e5 cdbc b0c4 81bc
000000d0: 4cdb eabb 16ef 19bd 8668 753e b96a fbbc
000000e0: 1cf0 09bd 0373 16bc 7951 1dbc 5f3a 3c3e
000000f0: e8e7 e43d c3c6 da3a 4087 583e e813 14bd
00000100: 1361 ef3a dcb5 0e3e 9722 db3b eab4 00bd
00000110: dc13 ef3b 06a6 053c a3b8 933c e0eb 3a3e
00000120: d18b 13bd 4079 42bd 3870 d03b b4d0 8c3a
00000130: 289f 71bc 8af5 113e ffab e23b 5331 38bc
00000140: 0bc7 263e 78ac 1f3e 7946 ccbc c649 b33d
00000150: f9f7 10bd 9b26 213c 0ff5 a4bb cf6c d4bc
00000160: 4b34 0a3c 00b8 efbc c46e b6bb 7f0e 0e3e
00000170: 52de 0fbd bb92 87bb 26df e53c 190b c1bc
00000180: b5de e0bc db78 fabc 8a04 ed3d 50c1 98bc
00000190: fbf7 843e 21ed e63d 81ea 0dbd fb7f 0fbc
000001a0: e702 0abd b36b 10bd 1a14 06bc df8e 4ebd
000001b0: 2489 983e c23f 09be 1c63 813e 7951 38bd
000001c0: 32ef 10bd d87f 023c f11b 91bd dd11 87bc
000001d0: 48e5 623e 95f6 703d 85d2 e9ba c4d0 14bd
000001e0: 1bf2 823e 3e38 0e39 6063 15bc 0b41 433e
000001f0: ca3a 91bc e604 90bc 11f3 9cbc 7aae 6d3e
0.0102592455 -0.07290064 0.20547737 0.19817254 0.006766152 -0.04054907 0.0012751527 -0.035473045
-0.0154196285 0.002154832 -0.009617079 0.0999026 0.013641885 -0.054309648 0.07359638 0.0063856407
-0.025155373 -0.018046916 0.037366264 -0.03576347 -0.08804452 -0.01364204 0.33874416 -0.013713851
-0.009798835 0.20654829 -0.020208774 0.104423985 -0.023570145 -0.014784969 -0.02398627 -0.035729103
0.015860066 0.0042432994 -0.05204175 -0.004474388 0.30815867 -0.0345615 -0.011938493 -0.029004684
-0.0104768155 -0.013054734 0.0101533085 0.0045977663 0.18864195 -0.02197917 -0.014145319 -0.085811324
0.0082567 -0.0014558823 -0.025133913 -0.015840858 -0.0071672555 -0.037581526 0.23965654 -0.030690538
-0.03367625 -0.009182694 -0.009601944 0.18381642 0.11177045 0.0016691316 0.21145344 -0.036151797
0.0018263183 0.13936561 0.006687473 -0.031422533 0.0072960686 0.008157259 0.018032378 0.18254042
-0.03602201 -0.047478914 0.006361034 0.0010743351 -0.014747418 0.14253822 0.006917476 -0.011242229
0.16286866 0.15593135 -0.024935948 0.087543055 -0.035392735 0.009835864 -0.005034096 -0.02593079
0.008435319 -0.029262543 -0.0055674035 0.13872717 -0.03512413 -0.0041373647 0.028060507 -0.023564862
-0.027449945 -0.030575207 0.115731314 -0.018646866 0.25970444 0.112756975 -0.03464747 -0.00875854
-0.033694174 -0.03525896 -0.0081835035 -0.05042922 0.2979213 -0.13403228 0.25270927 -0.044999573
-0.035384364 0.007965051 -0.070854075 -0.01648801 0.22157776 0.05882891 -0.0017839229 -0.036331907
0.25575337 0.00013563127 -0.009117931 0.1906778 -0.017728228 -0.01758046 -0.019158872 0.23211089

fc2.weight f4 [4, 128]
00000000: 3b8c 5dbd 2eca e0bc 042d 603d 4e9d a2bf
00000010: 2fc9 73bd eeae e33c aaf8 053d be2f fa3b
00000020: 0e2b 833d c76d a3bd 17c0 833c f0b8 423f
00000030: d55e 17bd fa63 013c d0ee b43e 23ce 153d
00000040: 0aa9 b13c 8c9c af3c 3772 533d 9115 983c
00000050: 2105 27bd 8f96 7abd 3287 b4bf 8e7c 473d
00000060: 1997 39bd 304f ca3e 26e8 b6bc fcc2 383f
00000070: 9944 daba 10b8 a1bd 2174 cbbc 0c1a 723c
00000080: cacc 493c adba c43b 42e1 503d 03f0 e1bd
00000090: 80a0 353f 6ad5 e0bc 7a58 66bd 397e 24bd
000000a0: 7500 89bd 0831 34bc c8aa 4a3d 0284 823d
000000b0: 4279 aabf 765b b4bc 3ec7 9d3d 249e 8abd
000000c0: d44a 8fbd 140a 863b bddc 4dbd 92e8 91bd
000000d0: 587c ac3c 3b73 15bd a528 ba3f 5812 b0bc
000000e0: 6942 5ebb 15a9 30bc ab50 73bd 1882 f93e
000000f0: 1a59 8b3f 10a1 9e3c b1d9 bdbf 442a 0cbd
00000100: 9aa2 22bc 42ce dc3e e007 98bd 0bf1 0fbd
00000110: d75e 41bc e36a 7abd 7834 e2bc 098e a7bf
00000120: 8cc8 063d a657 f43e e3b7 203f 025f 083e
00000130: 48e8 76bd b199 133f 18ea 873d 63ad 9bbd
00000140: e5a4 45bf 2aac 6cbe f362 2ebd c4db 1c3e
00000150: 6cab 6ebc 7d7a 883c ecfe 53bd 0932 c23c
00000160: d41e 4ebd ddb2 a13d 59f9 4b3d bf5a 843f
00000170: 5f79 00bd 7252 84bd 4b68 5ebe 2604 82bc
00000180: fe60 abbc d8db 85bd 92b3 823d 0ed4 603b
00000190: 7d45 703f a555 973e 3eea 3c3c 19a6 c73b
000001a0: 17fb afbc 3188 fbbc e6ca a9bd 18d6 823d
000001b0: 3bd2 fabf 4534 19bd 63f6 1abe 54f7 243c
000001c0: 8ba8 063e 287c f5bc bc88 9fbf 8232 40bd
000001d0: 75d6 463f a11d 383f 4a64 093d 0985 7dbc
000001e0: 2b25 933e f3fd e7bd 46cc 97bd 0763 b23f
000001f0: 471c 99bd 536e 07bd f64c 49bd 54b5 d7bf
00000200: aa0c 87bd 5e1f ca3c 4a35 723f 8301 4e3f
00000210: 9c2a d4bc 63db 47bd 0543 35bd 6657 58bd
00000220: 21fd d13c bd42 8ab9 750a ca3c 91c1 c6bf
00000230: 9188 173d e039 3dbd 4621 9cbf c5fa 7d3d
00000240: 2ad2 2dbd 8cef 923c efac df3e 94fc e63c
00000250: b81d 1f3c dfd5 a23c 44a5 21bf 63f1 8d3c
00000260: 7be2 a0bc 08e4 813f 34b2 ac3c e999 11c0
00000270: b7af f9bc f7f8 983d 2cad 7f3c 4f3f 0a3c
00000280: cdbd 95bd 0048 5d3c a282 1e3d 5d1c c2bc
00000290: a981 4cbe 151c c53c b022 79bd 68c6 6dbd
000002a0: e7af 833c dd8d fbbc 3288 453d 5acc 29bd
000002b0: 6cb7 363f 14e9 7a3a f1e2 0cbd dfd6 a5bd
000002c0: 292d 8f3d ef25 5b3d 33a3 6dbd 4262 88bd
000002d0: 8996 983c 9ec2 d1bb 05ca 0e3e 07e8 1abd
000002e0: 5189 b83c ffb2 973c 10c3 573d 5d50 adbf
000002f0: 0e3e 54be 933e 433d 509b 943e aae8 95bc
00000300: 48fe 573d 80e4 f2bf c18c 5bbd 272b 70bd
00000310: 6483 13bd 6ec7 563d 63bc f9bb 462f b43e
00000320: 6c13 1a3d f208 55bf 5a65 97be 38bb c2bf
00000330: 7d4c 893c 82b6 a0be 9bc4 843c 55da 6d3d
00000340: 6026 8abf 074c edbf 867c 2bbd 3c2f 8abf
00000350: fc39 823d 89e3 79bd 5394 1f3d af88 87bc
00000360: f8cc 22bd 449b 0f3d e40f 9fbd e052 9dbf
00000370: 4b54 22bd f5c0 d63c 0d32 763f 8a3a 8c3c
00000380: c305 a83d 7a34 743d 4698 533f b4b1 543d
00000390: 3c30 7a3d 8710 243f 6986 d3bc 7cf5 81ba
000003a0: d8cb e73b 24ee 843d 3152 663d 34d8 04bc
000003b0: 4bab cf3e 8cd3 303b bb60 213f 61ad 44ba
000003c0: 3529 7a3d 255b f53a 4125 8f3f 239f ea3c
000003d0: 65c7 a3bc a868 80bf e4b9 073d 92a9 74bd
000003e0: c60a aabb 5daf 87bd 0998 0cbd 98e5 a2bf
000003f0: a56a 9dbd 7d46 903c aaac 0ebd 4269 72bf
-0.054088812 -0.027440157 0.05473043 -1.2704256 -0.059518036 0.027793374 0.032707848 0.007635086
0.064046964 -0.07979923 0.016082807 0.7606344 -0.036955673 0.007897371 0.3533845 0.03657354
0.02168705 0.021436952 0.051622596 0.018564971 -0.040776376 -0.06117874 -1.4103758 0.04870277
-0.045310114 0.3951354 -0.022327494 0.7217252 -0.0016652524 -0.07896435 -0.024835648 0.014776718
0.012316892 0.006003699 0.050996073 -0.11032107 0.7094803 -0.027445514 -0.05623672 -0.040159438
-0.0668954 -0.010998018 0.049479276 0.06372835 -1.3318255 -0.022016268 0.07704018 -0.06768444
-0.06996694 0.004090557 -0.05025934 -0.071244374 0.021055385 -0.036486845 1.4543654 -0.021493122
-0.0033914095 -0.0107825 -0.059403103 0.48732066 1.0886567 0.01936391 -1.4832059 -0.034219995
-0.009926463 0.43126112 -0.07423377 -0.035141986 -0.011802397 -0.06113709 -0.02761291 -1.3090221
0.0329061 0.4772312 0.6278059 0.13317493 -0.060280114 0.5765639 0.06636447 -0.0760143
-0.77204734 -0.2311255 -0.042574834 0.15318209 -0.014567237 0.01665997 -0.051756784 0.0237055
-0.05032237 0.078954436 0.049798343 1.0340194 -0.03136575 -0.06461038 -0.21719472 -0.015871119
-0.020920273 -0.065360725 0.063819066 0.0034306082 0.9385603 0.2955753 0.011530457 0.0060927984
-0.021482034 -0.03070459 -0.08290653 0.063884914 -1.9595407 -0.037403364 -0.15133052 0.010068733
0.13150232 -0.029966429 -1.2463603 -0.046923168 0.77670985 0.7192021 0.03354291 -0.015473613
0.28739294 -0.11327734 -0.07412009 1.3936471 -0.074760966 -0.033064198 -0.04914566 -1.6852212
-0.06594212 0.02467316 0.9461256 0.80471057 -0.025899224 -0.048793208 -0.044253368 -0.052817725
0.025633397 -0.00026371135 0.02466319 -1.5527822 0.036995474 -0.046197772 -1.2197654 0.06200673
-0.042436756 0.01793649 0.43686625 0.02819661 0.009711675 0.019877372 -0.631428 0.017327016
-0.019639244 1.0147715 0.021081068 -2.275019 -0.030479295 0.07469361 0.015605252 0.0084379455
-0.07311592 0.013505936 0.0386988 -0.023695165 -0.19971336 0.024061242 -0.060824096 -0.058050543
0.016075088 -0.030707294 0.04822559 -0.04145465 0.7137363 0.00095714745 -0.034396116 -0.08097624
0.069910355 0.053502973 -0.058016967 -0.06659366 0.018626468 -0.006401374 0.13944252 -0.037818935
0.022526415 0.01851797 0.05267626 -1.354015 -0.20726797 0.047667097 0.29024744 -0.01829942
0.052732736 -1.8975983 -0.05360103 -0.058634903 -0.036013976 0.052436285 -0.0076213344 0.35192317
0.03761618 -0.83216774 -0.29569513 -1.5213385 0.016760105 -0.31389242 0.01620703 0.058069546
-1.0792961 -1.8538827 -0.0418668 -1.0795665 0.06358716 -0.06100801 0.038959812 -0.016544668
-0.039746255 0.035060182 -0.07766703 -1.2290916 -0.03963117 0.026215056 0.9617012 0.017117757
0.08204224 0.059620358 0.82654226 0.051927283 0.061081156 0.6408772 -0.025820928 -0.0009915079
0.0070738606 0.06490734 0.056230728 -0.0081081875 0.40560374 0.002698156 0.63038224 -0.0007502642
0.061074454 0.001871918 1.1183244 0.028640335 -0.01999254 -1.0031939 0.033136263 -0.059732027
-0.0051892726 -0.06625245 -0.03432468 -1.2726316 -0.076863565 0.017611736 -0.034832634 -0.9469186

fc2.bias f4 [4]
00000000: 2b67 d8bd 1a47 a43d 1684 8ebd aaf5 37bc
-0.10566553 0.08021374 -0.06958787 -0.0112280045
