cnn saved models/cnn_epoch9.pt (torch, 609323 bytes, 16 tensors)

conv1.weight f4 [32, 1, 3, 3]
000000 3e fd aa 3e ea 1c a4 3e a0 3a 6c be 11 84 ac be
       0.33396333 0.3205331 -0.23069239 -0.3369451
000010 08 82 5e be 6c 85 41 be 03 4b 92 3d 0d 7a 6f 3b
       -0.2172929 -0.18898553 0.071432136 0.0036541254
000020 7e 82 90 3e 13 96 fd 3e 96 9f 62 be 46 b1 00 3f
       0.28224558 0.4952856 -0.2213119 0.502705
000030 65 fc 74 bd 2e 96 fd bd c5 b6 33 be e1 ff 8d 3d
       -0.059811015 -0.1238216 -0.1755019 0.06933571
000040 a0 d1 89 3e bd b1 f0 bd eb b1 b8 3d 0c 41 2f bc
       0.26917744 -0.11752651 0.0901831 -0.010696661
000050 cc 66 b3 3e a1 c3 7b be e4 e3 e0 be 34 15 86 3d
       0.35039365 -0.24586345 -0.43923867 0.06547013
000060 9c d7 59 3e 30 ff 86 3e 4b dc b6 be b4 91 ff bd
       0.21273655 0.26366568 -0.35714945 -0.124789625
000070 8e 96 a5 3e 04 21 8b 3e 85 e7 a1 3d 8d 2a 65 be
       0.32341427 0.27173626 0.07905487 -0.22379513
000080 71 18 b8 be ae e6 19 be 36 a1 82 3e a9 01 22 be
       -0.35956147 -0.15029404 0.2551362 -0.15820946
000090 45 45 6f bd 15 e1 47 be b6 93 2d 3e bb 55 8c be
       -0.05841567 -0.19519456 0.16950879 -0.27409157
0000a0 b7 c2 5a 3e df 52 b5 3d 78 c6 82 3e 64 ba dd 3d
       0.2136334 0.08853697 0.25542045 0.10826567
0000b0 1b c6 87 be 48 bc 44 3e 4d 01 9d be e5 9b b1 be
       -0.2651833 0.19212449 -0.30665055 -0.3468925
0000c0 ef 88 04 3e 32 16 8d 3e 5e 5d 82 bd f9 a4 a0 be
       0.12942861 0.27555996 -0.06365465 -0.31375864
0000d0 0e d0 79 bd fd 2e 11 bf 6a cb 00 3e 5e 92 2a be
       -0.060989432 -0.56712323 0.12577596 -0.16657397
0000e0 97 cc 95 be 2e 76 f8 3d b7 2a 6b 3e 00 b6 c2 3e
       -0.29257652 0.12131916 0.22965513 0.3802948
0000f0 62 69 c0 be b0 f4 a5 3c 51 45 91 bd ff 4b 9a 3e
       -0.375804 0.020258278 -0.07093299 0.30136105
000100 27 7e 77 be 48 f0 97 be c7 06 97 3e 4f e3 81 bd
       -0.24169217 -0.29675508 0.29497358 -0.06342184
000110 56 96 a6 be 27 74 91 3e 57 39 b6 bd d0 a3 0b 3e
       -0.32536572 0.2840893 -0.088976555 0.13636708
000120 30 87 53 3d ef ec b1 bc 1b 4a 24 bf 0c c9 63 bd
       0.051642597 -0.021719424 -0.64175576 -0.055611655
000130 b6 3c c5 bc 43 ec e1 3c 66 8c 71 3e c7 19 f6 3d
       -0.0240768 0.027578479 0.23588714 0.120166354
000140 1c 9c 6f 3c 74 1c 2e 3e cd 15 98 be 45 d5 d7 3e
       0.014624622 0.17003042 -0.29704133 0.421549
000150 14 63 a3 be da 88 1b 3d 7c c2 ce be 79 64 68 3e
       -0.31911528 0.03797231 -0.40382755 0.22694577
000160 5c 99 03 3e 6c 92 0a be 2a 75 1f bc 4e f5 55 be
       0.1285147 -0.13532418 -0.009732524 -0.20894358
000170 df 7d 58 bd ad a3 47 be 57 c3 0e 3e 1d c7 db be
       -0.052854415 -0.19496031 0.13941704 -0.4292535
000180 07 22 93 3e bf 3a 9d 3e 33 22 0e bd bb 7b d5 bd
       0.28736898 0.30708882 -0.034700584 -0.1042399
000190 5f 4a 7b 3e 33 98 54 be e0 82 a1 3d a5 ce 6e 3e
       0.24540089 -0.20761184 0.078862906 0.23321016
0001a0 6f 32 44 be a0 3a c3 3e d3 51 cc bd a3 f9 39 be
       -0.19159864 0.38130665 -0.09976544 -0.18161635
0001b0 53 c0 cd 3e 53 40 02 3e 9d 05 ff bc 43 d3 26 3e
       0.40185794 0.1271985 -0.031130606 0.16291527
0001c0 ce 24 3e be b0 2a 08 be 55 81 20 be 21 a7 a3 bc
       -0.18568727 -0.13297534 -0.15674336 -0.019977154
0001d0 70 40 81 be 82 b8 be be ae e8 14 3d 82 1e c9 be
       -0.25244474 -0.37250143 0.036354713 -0.39281088
0001e0 39 1a 65 be 82 9d cb 3d 4f c7 68 3d a2 15 af 3c
       -0.22373284 0.099421516 0.0568307 0.02137262
0001f0 e2 93 f7 3d 49 41 a5 3e 2e cb b9 3e 9f ad b9 be
       0.12088753 0.3227637 0.36287826 -0.36265275
000200 89 cf 42 bd bb 81 76 3e ea ed 3d 3e 87 ec d9 be
       -0.047561202 0.24072926 0.18547788 -0.4256327
000210 fd 42 a6 3e f0 09 37 3d b8 6a bb be 6d f6 1d bc
       0.32472983 0.04468721 -0.36604857 -0.009641272
000220 b9 40 b5 3d 7a 44 0c bf 61 52 cf 3d 94 d3 a2 be
       0.088502355 -0.54791987 0.101231344 -0.31802046
000230 68 a6 c0 bd fa 46 f3 3e d4 c9 dc 3d 31 58 0b be
       -0.094067395 0.47515088 0.10780683 -0.13607861
000240 83 3d 83 3e 5b 39 19 3e 71 bf ab be da 56 8b bd
       0.25632867 0.14963286 -0.33544496 -0.06803675
000250 8d 19 4a be 8e 73 c7 3e 05 b7 d2 be a1 8f cd 3e
       -0.1973631 0.3895535 -0.41155258 0.40148643
000260 5c 84 9d bd dd 3a 67 be 80 12 d9 bc cc 6f e2 3d
       -0.07691261 -0.22581048 -0.02649808 0.1105648
000270 23 8c 98 3d 42 2c e3 be 68 50 bc be c4 5a 17 3e
       0.07448604 -0.44369704 -0.36780095 0.14780718
000280 e4 62 bf 3e e4 97 9b 3e 14 46 81 3d fd 8d c2 3e
       0.37380135 0.3038932 0.063121945 0.37998953
000290 02 7f 97 3d 40 cd 32 3e e1 31 27 be d4 63 88 bd
       0.07397272 0.17461109 -0.16327621 -0.06659666
0002a0 1b 9c 9b bd fa f1 b4 be f3 dd e1 bb c3 dd 9f 3e
       -0.07598134 -0.35340863 -0.0068929135 0.31223878
0002b0 e3 5f 56 3e cf 97 33 3d b0 5c 13 bf 11 7e bd be
       0.20935015 0.043845948 -0.57563305 -0.37010244
0002c0 6e eb 96 3c b1 08 61 3e ae e9 dc 3d 48 97 12 3e
       0.018422808 0.21975972 0.10786758 0.14315522
0002d0 86 fd 91 3d 7a 27 d3 be 21 9e b2 3e e2 1d 89 be
       0.07128434 -0.41241056 0.34886268 -0.2678061
0002e0 da 6e b1 bd ae e4 3a 3e 67 a8 44 be e9 0c 4a bc
       -0.086637214 0.18251297 -0.19204865 -0.01233218
0002f0 49 cf 55 3e 64 96 8a be 82 a8 9b 3e 22 95 bb 3e
       0.20879854 -0.27067864 0.30402 0.36637217
000300 52 e8 05 3e d7 50 c4 bd 41 bb 53 be 36 98 fd 3d
       0.13076904 -0.095857315 -0.206769 0.123825476
000310 1a 84 ab bd 03 a6 be be b9 e9 c1 3d 9f 3e 9a bd
       -0.08374806 -0.37236032 0.09468407 -0.07531475
000320 fb 25 65 be 97 f5 cb 3e 54 16 01 be c1 c3 e9 bd
       -0.2237777 0.39835808 -0.12606174 -0.1141429
000330 02 6c e1 be f7 16 74 3e 91 26 97 3e f3 3c 0d be
       -0.44027716 0.23836885 0.2952161 -0.13792782
000340 e4 5a 1d bd d1 95 4a 3d 1c bf 76 bd 2a a8 5e be
       -0.03841676 0.049459282 -0.06024085 -0.21743837
000350 e2 10 a8 3e 69 fc 98 be 17 01 be 3c d1 59 d0 3e
       0.3282538 -0.29880074 0.023193879 0.40693524
000360 b3 59 95 be 70 55 00 be 7f 8c 98 3e 74 c1 c7 be
       -0.29169998 -0.12532592 0.2979469 -0.3901478
000370 6d 14 d1 bd 24 42 80 3e 6b d7 6b bc b6 0a 9a 3e
       -0.10208974 0.2505046 -0.014394621 0.30086297
000380 ca ff 85 3d c9 f1 67 3e 42 d6 8f be 62 5b ce 3c
       0.065429285 0.22650827 -0.28093153 0.02519006
000390 ca 62 88 3e 65 57 10 bf ea a5 97 3e 15 e3 0e 3e
       0.2663787 -0.56383353 0.2961877 0.13953812
0003a0 25 56 c2 be 70 92 75 3e d3 07 14 bc 60 36 f2 be
       -0.37956348 0.23981643 -0.009035069 -0.4730711
0003b0 be af 81 be de 62 78 3e 46 92 bc be 1a be f2 bd
       -0.25329393 0.24256465 -0.36830348 -0.11852665
0003c0 16 b8 b4 bd 37 0b c0 3e 4e 35 e3 3d 39 7e e4 be
       -0.08824174 0.37508556 0.110941514 -0.4462755
0003d0 1b f3 a9 be 42 91 ce 3d 82 f5 23 3d 24 7d 28 3c
       -0.33193287 0.100862995 0.040029056 0.010283742
0003e0 b1 fe db bd d2 44 29 3e cb bc ad bd 9b 30 a8 3e
       -0.10741938 0.16530159 -0.08483275 0.32849583
0003f0 6e 25 99 be a4 8b 84 3e 01 91 f3 3e c6 aa 9f be
       -0.2991137 0.25887787 0.47571567 -0.31184977

conv1.bias f4 [32]
000000 98 a8 75 3e 25 1c ac 3e c3 72 15 3e 84 24 40 be
       0.23990095 0.33615223 0.1459456 -0.1876393
000010 f4 2f d1 3e 6c 51 b1 3e cb 4c 12 3e 9b 06 9f bc
       0.40856898 0.34632432 0.14287107 -0.01941233
000020 38 41 40 3e 45 b2 3a 3e 0f bf ec 3d 99 ea d8 3e
       0.18774879 0.18232067 0.11559879 0.42366484
000030 88 8b ba 3e 1b 1a 8a 3e 74 c0 b2 bd f4 cb 8a be
       0.3643458 0.26973042 -0.08728114 -0.2710873
000040 64 c9 9a bd 9e de f3 3e 47 73 f4 be be 0d 17 3e
       -0.075579435 0.4763078 -0.477442 0.14751336
000050 09 b4 3c 3e c8 dd 97 be 14 74 d7 3e 82 86 2f be
       0.18428053 -0.29661393 0.42080748 -0.17141154
000060 cb 2c 0f 3f d4 d8 ef bd 2e e3 d8 bd 3a ae 14 3b
       0.55927724 -0.117112786 -0.10590206 0.0022686855
000070 b2 68 c9 3d 70 55 40 bd f0 59 97 be 2c a7 a4 3d
       0.09834422 -0.04695648 -0.29560804 0.08039698

BN1.weight f4 [32]
000000 73 5a a7 3f e0 e9 c6 3e b9 48 8d 3f 7a a0 56 3f
       1.3074478 0.38850307 1.1037818 0.8383862
000010 38 4c 68 3f a4 df 47 3f f3 c9 9c 3f b1 2b 62 3f
       0.907413 0.78075624 1.224913 0.8834792
000020 88 12 65 3f 1a 92 8c 3f 98 30 64 3f 30 3d cd 3e
       0.894814 1.0982087 0.8913665 0.40085745
000030 21 fc 75 3f 45 b1 65 3f c3 3a 57 3f 9e 0e 7c 3f
       0.96087843 0.89723617 0.8407404 0.98459804
000040 e4 a8 5d 3f c7 ce f0 3e 2b 31 29 3f 21 88 44 3f
       0.8658583 0.4703276 0.6609065 0.76770216
000050 cc df 74 3f a7 f9 60 3f 4e cb 88 3f 24 6f 24 3f
       0.95653987 0.8788094 1.0687044 0.6423209
000060 31 5f 34 3f e3 a4 a3 3f c4 85 81 3f ad 47 54 3f
       0.7045775 1.2784694 1.0118947 0.8292187
000070 58 8c 7f 3f 05 6d 2f 3f 7a 45 60 3f e0 7f 54 3f
       0.9982352 0.68525726 0.8760601 0.8300762

BN1.bias f4 [32]
000000 11 33 c6 be fb e2 31 be 5a e5 70 be 1a 03 c3 bd
       -0.38710836 -0.17371742 -0.2352499 -0.09522076
000010 42 c2 6c bf bc 87 a6 be 6f 97 18 be 25 7b ea bd
       -0.92483914 -0.32525432 -0.14901517 -0.11449269
000020 ac 40 ef be 00 9a 0a bf f8 0f db be 5d f5 21 be
       -0.46729028 -0.54141235 -0.4278562 -0.15816255
000030 04 98 fd bc c3 9d ca be cb eb 17 be af 83 2f bf
       -0.030956276 -0.39573488 -0.14836042 -0.6856031
000040 95 99 5f bf 3c 50 a4 bd d3 fc ee be b3 cb 11 bf
       -0.8734372 -0.08023116 -0.46677265 -0.56951445
000050 e3 de e6 be dd 07 a3 be 0d 08 9b bf d2 11 9d bd
       -0.45091924 -0.31841937 -1.2111832 -0.076694146
000060 f5 86 9e bd 8d 9c ae be 2e d9 34 bf f6 48 d4 bd
       -0.07740585 -0.34103814 -0.7064389 -0.10365479
000070 0e 52 cb bd 41 f4 6c bd 8e 70 1b bf 0f c7 46 be
       -0.0992776 -0.057850126 -0.6071862 -0.19411872

BN1.running_mean f4 [32]
000000 0b 71 79 3e bd 68 f3 3e c4 c1 01 3e c9 fa 53 be
       0.24359529 0.47540846 0.12671572 -0.20701136
000010 4c 4b d6 3e 01 d6 f0 3d 83 0f 10 3e a2 da b1 bc
       0.41854322 0.11759568 0.14068417 -0.021710698
000020 e2 59 f9 3d 28 dc 10 3e d8 35 8c 3d 44 63 eb 3e
       0.12175347 0.14146483 0.068462074 0.4597417
000030 84 60 b1 3e 01 c8 46 3e f1 07 c6 bd 1d f5 b1 be
       0.34643948 0.19412233 -0.096694835 -0.3475732
000040 df ae 47 bd 81 45 e9 3e cf ac f0 be 31 b6 29 3e
       -0.048750754 0.4556084 -0.47006842 0.16573407
000050 bf 98 14 3e 5e f0 a2 be 3c 50 dd 3e 48 ac 25 be
       0.14511393 -0.3182401 0.43225276 -0.16179001
000060 e8 d3 0d 3f cd 08 04 be f9 1e 75 be 12 f1 96 bd
       0.5540147 -0.12893982 -0.23937596 -0.07370199
000070 25 02 93 3d 86 06 fd bd b4 39 98 be 2b d5 74 3d
       0.071781434 -0.1235476 -0.29731524 0.059773605

BN1.running_var f4 [32]
000000 48 c1 5e 3b 92 9f b7 3c 46 03 80 3b e7 21 9c 3b
       0.0033989716 0.022414956 0.00390664 0.0047647837
000010 bc bd 2a 3a 85 db 5d 3d e0 35 3e 3b a2 95 a6 3b
       0.0006513258 0.05416443 0.0029023811 0.0050837556
000020 22 00 46 3c b0 fb 96 3b 27 0f 06 3c ba 43 33 3b
       0.012084993 0.00460764 0.008182324 0.00273536
000030 66 91 04 3c 52 35 89 3c 16 ff 89 3b 0e 7b 64 3c
       0.008091306 0.016749058 0.004211317 0.013945354
000040 7a 1a c2 3a be a4 0c 3c 10 8e e9 3b 28 71 ac 3b
       0.0014808916 0.0085841995 0.007127531 0.0052625127
000050 11 c1 56 3b 03 e5 b0 3b 9c 83 c0 3a dd b5 32 3b
       0.0032768885 0.005398394 0.001468766 0.0027269043
000060 95 21 8a 3b 9a 89 17 3b 66 f1 e0 3c 28 37 70 3c
       0.004215429 0.0023122788 0.027458858 0.014661588
000070 0b bd 12 3c b3 40 51 3c 7b e0 50 39 1c 7c 86 3c
       0.008956204 0.012771773 0.00019920051 0.016416602

conv2.weight f4 [64, 32, 3, 3]
000000 bb a7 37 be 3a 17 0f 3d 00 ee a5 bd 2f d9 4d bd
       -0.17935078 0.03493426 -0.081020355 -0.05025595
000010 79 2f 90 bd 62 0e 54 be e5 47 d5 bc 4d ef d2 3d
       -0.07040305 -0.20708612 -0.026035259 0.10299549
000020 34 f5 32 bd 0b d1 19 bc ea 66 63 3d 56 00 ef 3d
       -0.043690875 -0.009388219 0.05551807 0.11669986
000030 a5 2b 3e be 16 69 73 be 7e ee 25 be 86 90 04 3e
       -0.18571337 -0.23770556 -0.16204259 0.12945756
000040 b7 f8 00 3e 26 3c 12 3e f5 16 cd 3d 80 70 e1 3d
       0.12594877 0.14280757 0.10014144 0.11007786
000050 9c 95 dc 3d c5 70 ed bd 50 d2 d1 bc cc ab be bd
       0.10770723 -0.11593775 -0.02561298 -0.093101114
000060 3d 96 c5 bd 9e 4b 80 bd d6 df e0 3d 3f 3e 9b be
       -0.09647796 -0.06264423 0.10980193 -0.30320928
000070 dc 69 92 3d 88 20 a9 3d a6 2d a0 be 9b 23 6e 3d
       0.07149097 0.08258158 -0.31284827 0.058139425
000080 68 6e 73 be 86 b9 90 3b e8 0e 9e 3e 5a cf 62 3e
       -0.23772585 0.0044166474 0.30870748 0.22149411
000090 a7 b4 52 3e 3c 94 f3 bd 93 70 a3 bd ea 54 49 bd
       0.20576726 -0.11893508 -0.07980456 -0.049153246
0000a0 5c 68 4a be 87 27 25 be 56 cc 17 39 43 b0 8e bd
       -0.19766372 -0.1612836 0.00014476603 -0.06967213
0000b0 c8 c9 8a bd 87 de 58 be 0c 2a 8d bd d2 b9 11 be
       -0.06776768 -0.21178637 -0.068927854 -0.14231041
0000c0 48 c1 1e be dc 63 9a bd 87 95 a4 bd 10 83 f8 3d
       -0.15503418 -0.07538578 -0.080363326 0.12134373
0000d0 98 f8 19 3e 9d ee 08 3e 05 8b 0d 3d 4f f2 c1 bc
       0.15036237 0.13372274 0.034556407 -0.023675112
0000e0 03 89 1c be 02 47 e5 3b 29 fb 9b 3d 49 35 26 3e
       -0.15286641 0.00699699 0.076162644 0.16231264
0000f0 89 9d 44 be a8 a2 63 be 3b f7 8c be eb 7c 1e bd
       -0.1920072 -0.22230017 -0.27532372 -0.03869335
000100 f1 45 62 3d 2a 0f c6 3c a2 2d 38 bd db ad 3d bd
       0.055242483 0.024177153 -0.044965394 -0.04630838
000110 6d b0 10 be 1f 74 ca 3d 40 71 b8 3d a4 31 35 3e
       -0.14129801 0.098854296 0.09005976 0.17694718
000120 a9 4d 82 be 83 f3 5d bd 98 5d 5a be ed b1 ed bd
       -0.25449875 -0.05418731 -0.21324766 -0.11606202
000130 05 68 95 3d d7 f4 b8 bd f2 98 89 3c bd 92 d6 3d
       0.07295231 -0.090310745 0.016796563 0.10477207
000140 3f e8 2e bd 9c b8 a0 be df 52 cb be 59 19 02 bf
       -0.042701956 -0.31390846 -0.39711663 -0.5081993
000150 e3 77 65 bb 38 9f 9c 3d af 28 a2 3c f5 49 b6 be
       -0.0035014085 0.07647556 0.01979479 -0.356033
000160 2c 62 cb be 1f 28 fe be d2 1e 97 3e 22 b6 73 3e
       -0.39723337 -0.49639985 0.29515702 0.23799947
000170 6a 5d 24 3e 29 13 79 bd 07 62 c0 3c f0 d7 81 bb
       0.1605126 -0.06080929 0.023484243 -0.0039625093
000180 6d c0 5a bc 65 b0 ba 3c 8b 0e 97 3b 73 0c 55 bd
       -0.013351542 0.02278919 0.004609888 -0.052013826
000190 79 84 2a 3d 1f 8e 76 bc 19 9a ae bd 1a 22 98 3b
       0.041630242 -0.015048533 -0.085254855 0.004642737
0001a0 ed 8c 1f be 5d e1 11 3e 02 d9 49 3d a1 6e ad bc
       -0.15581103 0.14246126 0.04927922 -0.021170916
0001b0 74 cb 36 bd b1 10 b1 3d 58 3d 9d bd 19 9e 36 3e
       -0.04462762 0.08645762 -0.07677716 0.17833747
0001c0 0b 78 a7 3c 00 b1 c4 be 89 6e dd bd 4e 3e d3 3d
       0.020442983 -0.3841629 -0.108120985 0.10314618
0001d0 d2 f5 26 3e 4b e3 a1 3d df 68 c2 bb 2f 40 f5 bd
       0.1630471 0.07904681 -0.0059329118 -0.11975133
0001e0 79 b9 f6 bc 36 01 e1 3c 78 1f db bd 9b 73 2a bc
       -0.030117737 0.027466398 -0.106993616 -0.010403539
0001f0 23 64 d5 3d 84 18 e0 3d 46 9d 00 be d3 c5 2c 3c
       0.1041949 0.10942176 -0.12559995 0.010545212
000200 02 61 04 bd 92 69 a5 3d 6f d7 2c 3c 58 7b 88 be
       -0.032319076 0.080767766 0.01054941 -0.26656604
000210 4d 1e 31 bd 66 64 60 3d 7b 5d c3 bd fb 86 94 be
       -0.043241788 0.054783247 -0.09539314 -0.29009232
000220 ea e9 f0 bc 0f 6d c2 be 7f 55 0c bd e3 89 c5 3d
       -0.029408414 -0.3797383 -0.034261223 0.096454404
000230 dd 44 87 3d f7 3f 9a 3d e2 37 72 3d 4a 99 34 be
       0.066049315 0.075317316 0.059135325 -0.176366
000240 3f 1b e0 be 2d 4b 9c be 5b 96 9d be 67 29 7b 3e
       -0.43770787 -0.30526105 -0.30778775 0.24527512
000250 a7 16 4e 3e 77 0f 79 3d 1e 8d 30 be e7 23 0b be
       0.20125829 0.060805764 -0.17241332 -0.13587914
000260 7a 9b 0d 3e 8c 6e d3 3e a3 02 95 3e 26 85 b7 3e
       0.13828841 0.41295278 0.29103574 0.35843772
000270 52 39 05 bc ca 23 82 3c ea e8 ca 3d 7b 1b 75 3d
       -0.008131342 0.015886206 0.09907706 0.05984066
000280 2a 49 c2 3d 4e 06 c8 3d 51 ee be bd 37 2f 13 3d
       0.09486611 0.097668275 -0.09322799 0.0359337
000290 61 8d 75 3e 2d 08 1a bd 9b 49 ab be 3e e0 dd be
       0.23979713 -0.037605453 -0.33454594 -0.43335146
0002a0 7d 13 b7 3d 43 e0 d6 3d 96 5b 2c 3e 99 d0 93 be
       0.08939264 0.10491993 0.16831812 -0.28870085
0002b0 5c 7d c0 bd 29 26 29 bd f4 24 29 bd 79 8e ab bd
       -0.093989104 -0.041296158 -0.041295007 -0.08376784
0002c0 89 90 0e be 48 5c 98 3d 2d d4 53 3d 1a 93 5e 3e
       -0.13922323 0.07439476 0.05171602 0.21735802
0002d0 a9 0c 9f 3e d2 53 0c 3e ba 7b 5d bd 50 d6 8c be
       0.31064346 0.1370385 -0.054073073 -0.27507257
0002e0 d6 e7 c7 bd 50 64 61 be 28 38 40 be eb e9 0c 3d
       -0.09761016 -0.22010922 -0.18771422 0.03440277
0002f0 b2 18 67 be fc c9 43 3d 4f 3c 4b 3e 64 bb 89 3e
       -0.22568014 0.04780005 0.19847225 0.2690078
000300 f7 5b a4 be 6a 0c 1b be 0a 81 7d be ab 6b 16 bd
       -0.32101414 -0.15141454 -0.24756256 -0.036723774
000310 21 4e 8b 3e 77 30 69 3e f5 bc f9 bc 24 b7 94 3d
       0.27208045 0.22772394 -0.03048561 0.07261494
000320 64 84 e8 3d 8d 4c 6a bc d3 b3 91 bd 03 7f 82 bd
       0.113533765 -0.014300478 -0.07114377 -0.06371882
000330 6b 08 12 3d af 31 26 be 3c 02 f9 3c b5 63 06 3e
       0.03565256 -0.1622989 0.030396573 0.13123973
000340 2a 82 84 3d 7e 66 01 3e 8f e8 28 be e6 3d a9 bd
       0.06470139 0.12636754 -0.16494964 -0.08263759
000350 9c b8 52 be 33 47 41 be 70 88 ea bc 4e 10 0c be
       -0.20578235 -0.18874817 -0.028629512 -0.13678095
000360 d5 53 fd 3d 5d 86 89 3c bb 9f 1d 3e 41 bb 1e be
       0.12369505 0.016787702 0.15392964 -0.15501119
000370 a2 39 13 be 22 79 ce bd c8 e1 05 bb a9 70 de 3d
       -0.14377454 -0.10081698 -0.0020428766 0.10861332
000380 e6 54 49 3e dc 2a e7 3d 90 ff 9b bd 94 c6 2d bd
       0.19661292 0.11287472 -0.07617104 -0.042425707
000390 4d 80 8d 3d de dd 15 bd bd cc 30 3d 67 5f bf be
       0.06909237 -0.036588542 0.043164004 -0.37377474
0003a0 e0 dd fb be 3f a0 0a bf 9d bf 10 bf 55 8b 0f bf
       -0.49192715 -0.54150766 -0.5654238 -0.5607198
0003b0 ba 98 16 bf 38 af 34 be 00 e4 b4 bd 0d 29 85 bd
       -0.5882679 -0.17644966 -0.0883255 -0.065019704
0003c0 2e 0b ca be 31 eb e9 be af c3 e8 be 3f 3b 53 3b
       -0.39461654 -0.4568725 -0.45461795 0.0032231358
0003d0 00 5f fd bd 23 6a bb be 8a 8f cb bd ef ca a7 bd
       -0.123716354 -0.36604413 -0.09939487 -0.081930034
0003e0 70 99 f9 bb 8e a0 f9 3b 74 56 c4 3d 56 0f 19 3e
       -0.007617168 0.0076180166 0.09586802 0.14947256
0003f0 0d dd cb 3d 18 2f 0f 3e 90 4d e4 3e 4b 9b ee bd
       0.099542715 0.13982809 0.44590425 -0.116507135

conv2.bias f4 [64]
000000 e0 ff 99 bc d8 86 90 bb bc 77 80 bc 81 79 99 bc
       -0.018798769 -0.004410606 -0.015682094 -0.018734695
000010 88 87 5f 3d b4 00 41 bc 98 8a 33 3d 33 83 28 3d
       0.054572612 -0.011779953 0.043833345 0.041140746
000020 e7 82 08 3d b9 fa 3e bd e7 0e 9b 3d a0 0a 74 bb
       0.033327963 -0.046625827 0.07571202 -0.0037237778
000030 45 af 48 3d 32 b8 aa bd 88 1e e3 3c 50 8e 1b 3c
       0.048995275 -0.08335914 0.02772452 0.009494379
000040 f4 ac 99 3a ae b7 6d bd 24 20 27 bd 27 5d 15 3d
       0.0011724518 -0.0580365 -0.040802136 0.03646579
000050 50 66 c2 3d 75 d3 a2 3c c2 e9 ae bd 3c bb 8d bd
       0.09492171 0.019876221 -0.085406795 -0.06920478
000060 78 88 a2 bc 60 45 86 ba 89 bd f5 3c 6f 23 65 3d
       -0.019840464 -0.0010244064 0.029997604 0.055941995
000070 76 0d 7c bb 68 62 23 3c 3f a0 7c 3c 75 3b 58 3d
       -0.0038460172 0.009972192 0.015419065 0.052791078
000080 3f 1f 1b 3d 0e 1b fa bc 04 32 ab bb ea e3 91 bd
       0.037871595 -0.030530479 -0.005224468 -0.07123549
000090 83 64 84 bc 67 72 91 bc c6 3a a1 bd 07 2c ad bd
       -0.016161209 -0.017754747 -0.07872538 -0.08455663
0000a0 d3 3f 7a 3d f0 6d 1a bd a5 4b 6f 3c 15 56 2f 3c
       0.061096024 -0.0377025 0.014605437 0.010701676
0000b0 3e 7f fc bc 26 05 30 3d f6 d3 e9 3c 78 c9 b6 bd
       -0.030822393 0.04297366 0.028543454 -0.08925146
0000c0 a2 71 bf 3b 7c 47 0a bd 92 91 bc bd 24 85 55 bc
       0.0058424035 -0.03375958 -0.09207453 -0.0130322315
0000d0 86 64 5e 3d f2 07 83 3d 59 df 84 3d 74 18 de 3d
       0.054295085 0.06398 0.06487913 0.10844508
0000e0 c2 c5 c7 3d b2 b1 a1 3c a2 3e 85 3c e2 86 1e bd
       0.09754516 0.019738052 0.016265217 -0.038702853
0000f0 65 8e bd 3d 9d 18 2a bd e4 8d 6b 3c 70 7f 8a bb
       0.09255675 -0.04152738 0.014377091 -0.0042266175

BN2.weight f4 [64]
000000 10 cf a3 3f ff 3e 88 3f 76 7d 95 3f 73 66 8f 3f
       1.2797565 1.0644225 1.1678913 1.120314
000010 de 5d 7c 3f 90 f5 a0 3f 83 3f 50 3f ea 56 89 3f
       0.9858073 1.257494 0.8134691 1.0729649
000020 01 b3 92 3f c6 b4 a2 3f f3 4a 8d 3f d8 17 8b 3f
       1.1460878 1.2711418 1.1038498 1.0866652
000030 e3 f4 97 3f cb c9 9e 3f cb af 8e 3f 47 30 8e 3f
       1.1871608 1.2405332 1.1147398 1.1108483
000040 6d 7d a6 3f 49 23 9d 3f 12 b2 bd 3f 39 d1 f6 3f
       1.3007027 1.2276393 1.4819968 1.92826
000050 5d 5d 94 3f 51 e6 98 3f 51 05 ea 3f d1 f1 98 3f
       1.1590992 1.1945287 1.8282872 1.1948797
000060 cf a5 92 3f 75 ea f0 3f 9e 8b 92 3f 32 ea a4 3f
       1.1456851 1.8821551 1.1448858 1.2883971
000070 bf 79 ac 3f 15 55 9d 3f 05 03 a3 3f d7 56 8c 3f
       1.3474654 1.229159 1.2735296 1.0964001
000080 55 27 a3 3f c3 23 90 3f b0 83 8f 3f 8a ba 97 3f
       1.2746378 1.1260914 1.1212063 1.1853802
000090 ae 9f ca 3f bc e1 85 3f 59 9b 4b 3f dd c9 90 3f
       1.582998 1.0459514 0.79533917 1.1311604
0000a0 fa 66 84 3f 51 e7 70 3f 66 9f 82 3f d2 a2 c8 3f
       1.0343926 0.9410296 1.0204895 1.5674689
0000b0 da 70 b6 3f ec ee 9b 3f ff cc a6 3f 86 8e 72 3f
       1.425319 1.2182288 1.303131 0.94748724
0000c0 19 4d be 3f d9 ca 86 3f 45 05 90 3f 93 f5 91 3f
       1.4867278 1.0530654 1.1251608 1.1403068
0000d0 9d 42 ae 3f 7a ae 63 3f 27 92 9d 3f 42 4a 8c 3f
       1.3614079 0.88938105 1.2310227 1.0960162
0000e0 7c c1 8c 3f 6f 84 ae 3f 16 af 94 3f 3b 40 74 3f
       1.0996547 1.3634166 1.1615932 0.9541051
0000f0 d7 14 ab 3f d5 ca a9 3f c5 20 ad 3f d1 75 a7 3f
       1.3365735 1.3265024 1.3525625 1.308283

BN2.bias f4 [64]
000000 11 ce 04 bf d5 f7 fc be bf ad 0b bf e2 35 f7 be
       -0.5187693 -0.4940783 -0.5456199 -0.48283297
000010 1f 29 02 bf 75 82 15 bf 0d 7b cc be e6 52 dd be
       -0.50843996 -0.58402187 -0.3993763 -0.4322731
000020 ba 82 09 bf f9 2d 19 bf 61 df c4 be 07 6c fe be
       -0.537151 -0.59835774 -0.38451675 -0.49691793
000030 91 a7 0b bf bb fe 0d bf 24 0e e6 be 5c 28 f2 be
       -0.5455256 -0.5546681 -0.44932663 -0.47296417
000040 c6 ce 01 bf 85 01 17 bf 0b 40 68 bf ad d5 ab bf
       -0.50706136 -0.58986694 -0.9072272 -1.3424584
000050 32 49 cc be 5c fd 17 bf a5 04 97 bf a7 8b eb be
       -0.39899594 -0.5937097 -1.1798292 -0.46004984
000060 28 46 f5 be 31 51 83 bf ff 39 25 bf bc 9e 0b bf
       -0.47905087 -1.0259153 -0.6454162 -0.54539084
000070 cb a7 1e bf 9c af f0 be 91 22 08 bf b0 24 f7 be
       -0.6197478 -0.4700898 -0.53177744 -0.48270178
000080 59 b4 31 bf 08 98 08 bf 9a 0e e7 be 2d a1 f8 be
       -0.69415814 -0.5335698 -0.45128328 -0.48560467
000090 26 21 3f bf 10 cc d1 be d8 cc 95 be 5f d6 ee be
       -0.74659956 -0.40976 -0.29257846 -0.46647927
0000a0 82 d5 d9 be 6a 8d b9 be 4d 1a 00 bf 52 29 a2 bf
       -0.42545706 -0.36240703 -0.5004013 -1.266886
0000b0 0c a1 1b bf 3c 6f 0a bf 7b f8 2d bf 21 13 f9 be
       -0.60792613 -0.5407598 -0.67957276 -0.48647407
0000c0 fa 25 05 bf f3 1a fb be 10 11 f7 be 1f 87 0b bf
       -0.5201107 -0.49043998 -0.48255205 -0.54503053
0000d0 8d 1a 2d bf cb 30 b5 be 3b ac 08 bf a0 37 07 bf
       -0.6761864 -0.3538879 -0.533878 -0.5281925
0000e0 a8 39 d1 be 6a aa 19 bf bb c9 ee be 17 02 da be
       -0.408643 -0.60025656 -0.46638283 -0.4257972
0000f0 1e 4a 37 bf be 26 25 bf 7a 71 63 bf f2 c3 01 bf
       -0.7159747 -0.6451224 -0.88845026 -0.50689614

BN2.running_mean f4 [64]
000000 cc 3a 52 bf 2c d2 b5 bf d8 f6 8f bf 8d 38 a2 bf
       -0.82120967 -1.4204764 -1.1247206 -1.2673508
000010 50 e3 b2 bf 41 ef 1c bf ec 70 28 bf 03 bd 5c bf
       -1.397562 -0.6130257 -0.65797305 -0.8622591
000020 2b ee 31 bf 9c 98 65 bf a3 e8 cf bf 3e 12 71 bf
       -0.6950404 -0.8968599 -1.624287 -0.9416846
000030 0f a6 86 bf d9 55 31 bf 9f 51 93 bf 05 c1 86 be
       -1.0519427 -0.6927162 -1.1509284 -0.26319137
000040 cb bf 51 bf 54 e2 8a bf b3 06 d0 be f7 78 c6 be
       -0.8193328 -1.085032 -0.4063011 -0.38764164
000050 1d 81 c4 bf 51 ca a2 bf 63 af 08 bf e1 b6 81 bf
       -1.5351902 -1.2717992 -0.5339262 -1.0133935
000060 b3 01 bc bf 08 df fc be b3 d0 9e bf 96 0b a5 bf
       -1.4688019 -0.4938891 -1.240744 -1.2894161
000070 01 b3 17 bf 42 b2 3c bf a0 fe 62 bf 9f 95 9e bf
       -0.59257513 -0.737095 -0.88669777 -1.2389411
000080 23 a1 0a bf 28 9b 1b bf d9 92 96 bf 7b 91 8c bf
       -0.54152125 -0.60783625 -1.1763564 -1.0981897
000090 4b 2e d3 be 0d 30 04 c0 e2 cd 65 bf 5b 07 34 bf
       -0.41246256 -2.0654328 -0.8976728 -0.70323724
0000a0 5e 95 ae bf 80 dc ab bf 1a 4c 6e bf 53 6e 7e be
       -1.3639333 -1.3426666 -0.9308487 -0.24846773
0000b0 19 29 59 bf 98 b4 40 bf 81 84 26 bf 98 c4 83 bf
       -0.84828335 -0.75275564 -0.65045935 -1.0294371
0000c0 4d a6 55 bf 1c 04 31 bf 29 35 cd bf d5 73 88 bf
       -0.8345688 -0.69146895 -1.6031848 -1.0660349
0000d0 88 1c 79 bf f7 91 2f bf ec 83 65 bf 4a 1d 23 be
       -0.9730916 -0.685821 -0.8965442 -0.15929142
0000e0 1f fc d8 bf f6 b4 84 bf 45 39 ae bf 0f fc c7 bf
       -1.6951941 -1.0367725 -1.3611227 -1.5623797
0000f0 17 d8 a5 be 83 c5 27 bf 18 a7 97 be 35 13 de be
       -0.32391426 -0.65535754 -0.2961967 -0.4337403

BN2.running_var f4 [64]
000000 c4 42 43 40 3b 48 ec 40 44 f1 bb 40 fc 13 a8 40
       3.05095 7.383817 5.8732014 5.2524395
000010 1d fc 8c 40 94 cb 67 40 64 42 0b 41 26 08 5a 40
       4.4057755 3.6218004 8.703709 3.4067473
000020 e9 f7 57 40 13 81 84 40 eb ba 23 41 ba 4f 9d 40
       3.3745062 4.140756 10.233134 4.9159822
000030 31 33 85 40 d0 25 fa 3f 5c 3b 38 41 74 51 89 40
       4.162499 1.954279 11.514492 4.291193
000040 cb 7b c3 40 c3 1e 18 40 dd f3 98 3f f4 bf 91 3f
       6.1088614 2.3768775 1.1949421 1.1386704
000050 9a 18 15 41 72 ec b2 40 52 0e b3 3f 17 69 96 40
       9.318506 5.591363 1.3988745 4.7003284
000060 88 8a 21 41 4d 0c df 3f d1 ff 88 40 4c 83 be 40
       10.096321 1.7425629 4.2812276 5.9535275
000070 fa 6c 76 40 e5 2f 87 40 8d bb 9c 40 d0 db b2 40
       3.8504014 4.2245965 4.8978944 5.5893326
000080 1e 4f 01 40 7b 17 1a 40 99 c5 a4 40 8c 5d b6 40
       2.020454 2.4076831 5.149121 5.6989193
000090 9f 05 c4 3f f4 e7 0b 41 4d d1 d5 40 b0 d2 61 40
       1.5314215 8.744129 6.6817994 3.5284843
0000a0 58 cb d7 40 c4 c2 14 41 b0 98 88 40 a6 2f 7b 3f
       6.743572 9.29755 4.2686386 0.9811958
0000b0 fc 6b 43 40 36 66 64 40 42 df 12 40 29 91 89 40
       3.0534658 3.5687385 2.2948766 4.2989697
0000c0 51 3b e2 40 63 ac a6 40 74 88 89 40 bc 08 87 40
       7.069741 5.2085433 4.297907 4.219816
0000d0 28 18 89 40 34 dd c9 40 31 de a4 40 15 b2 3c 40
       4.2841988 6.3082523 5.152123 2.9483693
0000e0 47 62 12 41 2a c0 b4 40 88 30 80 40 49 f1 cd 40
       9.1489935 5.6484575 4.005924 6.4357038
0000f0 ea de bb 3f 77 be f2 3f 85 7a 62 3f a6 98 98 40
       1.4677403 1.8964375 0.884682 4.768634

fc1.weight f4 [128, 1024]
000000 ef cd b4 ba 3f a6 fb bc f1 b4 4d bc 7b d7 a7 bc
       -0.0013794283 -0.03071892 -0.012555347 -0.020488491
000010 7f bf 4c ba 01 dd 1b bc e0 4b 11 bd 5e aa 00 bc
       -0.00078105176 -0.009513141 -0.03547275 -0.007853119
000020 64 3e f0 bc 6d f1 8e bc 85 d9 16 3c 01 5d c2 3c
       -0.029326625 -0.017449105 0.009207134 0.023725988
000030 f9 a5 b0 3b 4a 35 8f 3c 86 cb 9b 3c 1c 41 11 bd
       0.005390879 0.017481465 0.019017946 -0.035462484
000040 8d 9f 4e bc 30 2b 5c bc 53 92 1b 3c fe 09 83 bc
       -0.012611282 -0.013438031 0.009495336 -0.015995976
000050 ad 0b 31 ba a2 c5 29 bc 3b 82 49 bc f3 50 62 3c
       -0.0006753754 -0.010362061 -0.012299116 0.013813245
000060 ee 9b 63 3c 74 eb 00 bc ad 10 e7 bc 1a e7 8f 3b
       0.013892157 -0.007868636 -0.028206194 0.004391563
000070 d2 97 d7 ba eb 4e e5 bc 8c 8d 9b bc 87 5d 4b 3b
       -0.0016448444 -0.027991733 -0.018988393 0.0031031088
000080 ea 1c 89 3a 5b 74 ba bc 79 4f 7b 3c ed 57 7b bc
       0.0010460888 -0.02276056 0.015338772 -0.015340787
000090 57 ad 47 3c bf 22 a4 bc 90 63 ef bc 26 a7 d2 3a
       0.0121873235 -0.0200361 -0.02922228 0.0016071543
0000a0 e4 cd c9 3c 5d 3f 58 3c 7c 14 ad bc ff d1 f5 bc
       0.02463431 0.013198701 -0.021127932 -0.03000736
0000b0 32 3a 55 bc 13 5b 8b bc 2b b4 c6 3b 47 cc 0c bd
       -0.013014363 -0.017011201 0.006063958 -0.0343745
0000c0 c9 06 88 bc 32 14 2b bc 21 30 74 3c 2b 5d c6 3b
       -0.016604798 -0.010441827 0.014904053 0.006053587
0000d0 10 eb b6 3c ac cd 99 bb c4 bb a0 bc 3a 89 0a 3b
       0.022328883 -0.0046937075 -0.019620784 0.0021138922
0000e0 40 02 25 bb 77 f0 06 bd 47 a0 d6 bc dd 4b ff bc
       -0.0025178343 -0.03294417 -0.026199473 -0.031164104
0000f0 b0 f1 59 bc ec 71 0a bd 79 9c 07 bb 19 79 62 3c
       -0.013302252 -0.03380005 -0.002069263 0.013822817
000100 da 70 21 3c 02 5f bb 3c 54 8c 84 bc ad b3 b2 bc
       0.009853566 0.022872452 -0.016180195 -0.021814192
000110 9d 0b a9 bb 7d 47 f1 bb f2 9f 9f 3c a7 c2 0a bd
       -0.005158855 -0.0073632584 0.019485448 -0.03387704
000120 2e e0 15 bd d3 af f5 bc c5 19 a2 bc 58 8c 28 3c
       -0.036590748 -0.029991066 -0.019787678 0.010287367
000130 7b 58 65 bc 9c 3f a0 3b 71 32 ec bc 85 31 ca 3c
       -0.013998146 0.0048903953 -0.028832646 0.024681816
000140 4b 9d 32 3b 39 0f 3e 3b 71 95 c6 3c 89 d0 09 3c
       0.0027254398 0.0029000773 0.024241181 0.008411535
000150 40 cb 95 3b 44 41 03 bc a8 84 07 3b 27 a2 06 bc
       0.0045713484 -0.008011166 0.0020678435 -0.008217371
000160 25 a8 a9 bb f5 42 df bc 89 6f 93 3c cc 25 2b 3c
       -0.005177515 -0.027253607 0.01799752 0.010446023
000170 94 81 b9 bc 1a f7 95 3c 49 37 ba bc 41 99 17 bc
       -0.022644795 0.018306304 -0.02273144 -0.009252847
000180 f8 e4 86 bc be 44 17 3c ff a6 3c 3b 1a 8c a5 bc
       -0.016466603 0.009232698 0.002878606 -0.020208407
000190 7a 62 92 3b 62 75 c4 3b 7d d4 c0 ba 18 f9 28 3c
       0.0044673057 0.0059954384 -0.0014711764 0.010313295
0001a0 54 c4 2d bc c6 ea 2b 3c 49 60 bf 3c 08 c3 9d bc
       -0.01060589 0.010492986 0.023361342 -0.019258037
0001b0 b4 6e f5 3b d0 47 ec 3b 26 2c b8 bb dc 32 6f bc
       0.0074900035 0.007210709 -0.0056204973 -0.014599528
0001c0 b6 91 17 3c 74 ce 37 3c 64 6f 78 3c 80 c7 3f bc
       0.009251049 0.011218656 0.015163276 -0.011705279
0001d0 07 6e 09 bd 18 28 8b bc 34 dc 0b bd 14 35 c4 3c
       -0.033552196 -0.016986892 -0.03414555 0.02395109
0001e0 f6 d4 10 bd 9b a7 3e 3c f0 3b d3 bc 1d 1f 04 bd
       -0.035359345 0.01163664 -0.025785416 -0.032256234
0001f0 24 14 23 3c e8 d7 f8 bc ba 78 e5 bc 14 f8 9f 3a
       0.009953532 -0.03037639 -0.028011668 0.001220467
000200 46 d1 02 bd 0c c5 9f 3c a6 e5 ac ba 01 df bf bb
       -0.03193786 0.019503139 -0.0013190999 -0.0058554416
000210 f5 d3 b4 3c db e6 aa bc 75 44 be bc 13 60 53 bb
       0.022073725 -0.020862034 -0.023226002 -0.003225331
000220 d1 eb 59 3c 0d 4b cb 39 f2 1d 1a 3c f3 f4 13 bd
       0.013300852 0.00038775094 0.009406554 -0.036122274
000230 02 4d 40 bc b8 5b fa b9 d0 1c 29 3c 46 af ac bc
       -0.01173711 -0.00047752052 0.010321811 -0.02107967
000240 80 14 b4 bc 03 01 e3 ba c0 78 25 bc cd c1 7f bc
       -0.021982431 -0.0017319027 -0.01009959 -0.015610171
000250 a7 cb 95 3c ba 87 a9 bc 57 46 0c 3c f9 9f 96 3c
       0.018285586 -0.020694602 0.008561692 0.018386828
000260 9f ac af bc 6e a0 8e 3c 14 ca c2 3b 89 9b 85 bb
       -0.021444617 0.017410483 0.0059444997 -0.004077379
000270 d5 38 0d bd f6 04 84 3b 0e 6d 9e 3c 20 96 0f bc
       -0.034478027 0.0040289117 0.01933911 -0.00876382
000280 5a 7e 97 3c 96 f2 ce bb 6f 45 59 bc 20 1f 70 bc
       0.018492866 -0.0063155396 -0.013261183 -0.014655858
000290 5d 8d 05 bc f8 33 9b bc 1e ac ae bb 9e 50 d1 bb
       -0.008151379 -0.018945679 -0.0053305766 -0.006387784
0002a0 61 38 03 bd fb ad a8 bc 8a cb ba 3c 07 c1 c0 bb
       -0.03203619 -0.020590773 0.022802133 -0.0058823857
0002b0 1e df c5 bb fe b3 1a 3c 7f 50 93 3c 7a 4a 17 bd
       -0.0060385605 0.009442328 0.01798272 -0.03693626
0002c0 e4 a5 0f bd a0 a2 0b bc 7f 72 8d bc 66 a1 02 bd
       -0.035070315 -0.00852266 -0.01726651 -0.031892203
0002d0 fc 93 f8 bc 7f 30 cc 3b 9d 9a 32 3c 5e 0f 01 bc
       -0.030344002 0.006231367 0.0109011205 -0.007877199
0002e0 7e 32 6e bb 79 6f e5 bc 13 d1 df bc 83 af 07 bd
       -0.0036346014 -0.028007256 -0.027321374 -0.033126365
0002f0 c6 c5 f3 bb 14 14 12 bd 57 c7 d2 bb 3d 1e 87 3c
       -0.007439348 -0.03566368 -0.0064324546 0.01649391
000300 2e a1 90 bc 10 18 04 bd 07 88 c6 bc 5b 57 0f 3c
       -0.017654981 -0.03224951 -0.024234785 0.0087488545
000310 71 c3 c4 bc 44 b4 c0 bc 4a 5c b4 bc 54 46 b1 bc
       -0.024018975 -0.023523457 -0.022016663 -0.02163998
000320 d1 fa 93 3c 36 12 81 bc ae ed bb 3c 0e 73 0e 3c
       0.018063935 -0.015755754 0.022940483 0.008694423
000330 d5 93 2e bc 4d 7e 01 bd 3b 41 8c 3c 23 19 ac 3c
       -0.010655363 -0.03161459 0.017120948 0.02100808
000340 03 1d 22 bc fe 5c 9e 3c 1b 73 3f bc 65 54 08 bd
       -0.009894612 0.019331452 -0.011685158 -0.03328361
000350 6d a9 10 bd ee c5 84 bc ce 76 95 3b 0f d2 7e 3c
       -0.035317827 -0.016207661 0.0045612818 0.015553012
000360 af 22 ab 3c f5 83 be 3c 6f 4d c4 3b a0 6c 02 bd
       0.020890562 0.023256281 0.005990676 -0.031841874
000370 6f 7c b7 3b cf 15 f8 bb 90 69 54 bc 25 eb 9c 3c
       0.0055995504 -0.007570959 -0.012964621 0.019155094
000380 e5 1b db bb 11 97 b4 bc a1 35 b3 3c 71 3f 43 3c
       -0.006686675 -0.02204469 0.021876158 0.011916981
000390 d3 c1 ca ba fe 46 95 3c 51 1c fa bc 14 df d0 bb
       -0.0015469141 0.018222328 -0.03053108 -0.0063742492
0003a0 a8 10 05 bd d9 dd 33 bb f1 7c 3f 3b 53 8e 89 ba
       -0.032486588 -0.0027445464 0.0029218758 -0.0010494686
0003b0 d3 a9 03 bd 67 88 d7 bc 1c 5a 0d bd b0 8e a4 3c
       -0.03214438 -0.026310159 -0.034509763 0.02008757
0003c0 ec f6 9a bc 7f 4f 91 3c 7a 1f fb bc de 63 8f ba
       -0.01891657 0.017738102 -0.030654658 -0.0010939797
0003d0 ab 5c b5 3c ef b7 47 bc 84 fa df bc 40 de 23 bc
       0.022138914 -0.012189849 -0.027341135 -0.010001719
0003e0 f6 4b 92 3b e1 56 41 bc da 4a 36 3b f8 fa 7e bb
       0.0044646217 -0.011800499 0.002781561 -0.0038906913
0003f0 92 a6 fe bc 2d 08 28 bc 57 95 94 bc 20 e9 af 3c
       -0.031085286 -0.0102558555 -0.018137617 0.021473467

fc1.bias f4 [128]
000000 65 16 28 3c 4d 4d 4f bc 52 2a 76 3e 9d 62 a3 3d
       0.0102592455 -0.012652707 0.24039581 0.07977793
000010 99 b6 dd 3b ce f3 c6 3c 06 23 a7 3a 2f 4c 11 bd
       0.006766152 0.024286177 0.0012751527 -0.035473045
000020 9c a2 7c bc 15 38 0d 3b f4 90 1d bc 3b c9 a7 3d
       -0.0154196285 0.002154832 -0.009617079 0.081926785
000030 36 82 5f 3c 8d 4b 00 bd 12 33 94 bd a3 3e d1 3b
       0.013641885 -0.03132205 -0.072363034 0.0063856407
000040 a4 12 ce bc 20 d7 93 bc db 34 42 bd b7 7c 12 bd
       -0.025155373 -0.018046916 -0.04741369 -0.03576347
000050 af 50 b4 bd dd 82 5f bc 2b df 93 3e c0 4a 93 3c
       -0.08804452 -0.01364204 0.288812 0.01797998
000060 04 ca b2 3c 53 73 3b 3e df 8c a5 bc 9a 11 23 3d
       0.021824844 0.18305711 -0.020208774 0.039811708
000070 2d 16 c1 bc 06 72 36 3c db 7e c4 bc ae 58 12 bd
       -0.023570145 0.011135584 -0.02398627 -0.035729103
000080 f8 ec 81 3c 60 0b 8b 3b de 89 a6 bc e3 9d 92 bb
       0.015860066 0.0042432994 -0.020329412 -0.004474388
000090 f9 01 a5 3e 5c 90 0d bd ab 99 43 bc 3b 9b ed bc
       0.32228068 -0.0345615 -0.011938493 -0.029004684
0000a0 f3 a6 2b bc 86 e3 55 bc 10 5a 26 3c dc a8 96 3b
       -0.0104768155 -0.013054734 0.0101533085 0.0045977663
0000b0 6b dc 03 3e a9 0d b4 bc c5 c1 67 bc 4e f9 a7 bb
       0.12877052 -0.02197917 -0.014145319 -0.005126155
0000c0 1c 47 07 3c 4e d3 be ba a3 e5 cd bc b0 c4 81 bc
       0.0082567 -0.0014558823 -0.025133913 -0.015840858
0000d0 4c db ea bb 4a 0e 97 bb ab 2e 74 3e b9 6a fb bc
       -0.0071672555 -0.0046098577 0.23845927 -0.030690538
0000e0 1c f0 09 bd ff e7 b8 3c 82 d7 b3 3c 24 d0 b4 3b
       -0.03367625 0.022571562 0.021953348 0.0055179764
0000f0 04 ea fe 3d c3 c6 da 3a 29 83 12 3e 97 cc ea bc
       0.12446979 0.0016691316 0.14307846 -0.02866201
000100 13 61 ef 3a ba 70 a8 3d 97 22 db 3b ea b4 00 bd
       0.0018263183 0.08224626 0.006687473 -0.031422533
000110 44 b1 95 3c 06 a6 05 3c a3 b8 93 3c bd 1a e4 3c
       0.018273003 0.008157259 0.018032378 0.027844781
000120 d1 8b 13 bd f8 02 45 3c d2 b6 58 ba 2a 3e 8a 3d
       -0.03602201 0.012024634 -0.00082669884 0.06750138
000130 28 9f 71 bc ea 7a 13 bc ff ab e2 3b 53 31 38 bc
       -0.014747418 -0.009001473 0.006917476 -0.011242229
000140 e9 98 07 3e 52 6d 72 3c 79 46 cc bc 66 b5 43 bd
       0.13241924 0.014796572 -0.024935948 -0.047780417
000150 f9 f7 10 bd 9b 26 21 3c 0f f5 a4 bb cf 6c d4 bc
       -0.035392735 0.009835864 -0.005034096 -0.02593079
000160 4b 34 0a 3c 00 b8 ef bc c4 6e b6 bb 04 5c 2c 3e
       0.008435319 -0.029262543 -0.0055674035 0.16831976
000170 52 de 0f bd bb 92 87 bb 99 c2 0b bd 19 0b c1 bc
       -0.03512413 -0.0041373647 -0.03412113 -0.023564862
000180 b5 de e0 bc db 78 fa bc ee 50 e4 3c 50 c1 98 bc
       -0.027449945 -0.030575207 0.027870622 -0.018646866
000190 23 73 9a 3e ae a9 cd 3d 81 ea 0d bd fb 7f 0f bc
       0.30165967 0.100421295 -0.03464747 -0.00875854
0001a0 b2 d6 d2 bc b3 6b 10 bd 1a 14 06 bc df 8e 4e bd
       -0.02573714 -0.03525896 -0.0081835035 -0.05042922
0001b0 ca be 85 3e 6d 28 0d bd 8e cf 92 3e 0f 09 ee bc
       0.26122123 -0.03446238 0.28673977 -0.029057054
0001c0 b1 a2 fc bd d8 7f 02 3c 42 d3 4a bd dd 11 87 bc
       -0.123357184 0.007965051 -0.049517877 -0.01648801
0001d0 a9 ef d4 3d 5a fd 1f 3c 85 d2 e9 ba c4 d0 14 bd
       0.10397274 0.009764994 -0.0017839229 -0.036331907
0001e0 6d a6 9e 3e 3d 01 c8 3c 57 7d 92 3c 2f cf 37 3e
       0.30986348 0.024414653 0.017882032 0.17950128
0001f0 ba 0d 83 3b e6 04 90 bc 11 f3 9c bc 9a cf 61 3e
       0.003999439 -0.01758046 -0.019158872 0.2205185

fc2.weight f4 [4, 128]
000000 3b 8c 5d bd f8 94 26 bd e5 5b 4e 3d 82 59 50 bf
       -0.054088812 -0.04066941 0.050380606 -0.8138658
000010 2f c9 73 bd d5 a2 86 3d aa f8 05 3d be 2f fa 3b
       -0.059518036 0.065740265 0.032707848 0.007635086
000020 0e 2b 83 3d c7 6d a3 bd 17 c0 83 3c f1 25 e8 3e
       0.064046964 -0.07979923 0.016082807 0.45341447
000030 d5 5e 17 bd b8 b4 86 bc fb 42 94 3e 23 ce 15 3d
       -0.036955673 -0.016443595 0.28957352 0.03657354
000040 0a a9 b1 3c 8c 9c af 3c 45 17 5e 3d 91 15 98 3c
       0.02168705 0.021436952 0.05422141 0.018564971
000050 21 05 27 bd 8f 96 7a bd 26 44 44 bf d0 a1 53 3d
       -0.040776376 -0.06117874 -0.76666486 0.05166799
000060 d5 cc c7 bc 79 cd 81 3e 26 e8 b6 bc f9 34 df 3e
       -0.024389664 0.25352076 -0.022327494 0.43595102
000070 99 44 da ba 9c 15 93 bd 21 74 cb bc 0c 1a 72 3c
       -0.0016652524 -0.07181856 -0.024835648 0.014776718
000080 ca cc 49 3c ad ba c4 3b 37 44 9e 3c 03 f0 e1 bd
       0.012316892 0.006003699 0.019319637 -0.11032107
000090 af 52 c3 3e 6a d5 e0 bc 7a 58 66 bd 39 7e 24 bd
       0.3814902 -0.027445514 -0.05623672 -0.040159438
0000a0 75 00 89 bd 08 31 34 bc c8 aa 4a 3d 02 84 82 3d
       -0.0668954 -0.010998018 0.049479276 0.06372835
0000b0 19 a7 24 bf 76 5b b4 bc 3e c7 9d 3d dc fa 1c bd
       -0.6431747 -0.022016268 0.07704018 -0.038325176
0000c0 d4 4a 8f bd 14 0a 86 3b bd dc 4d bd 92 e8 91 bd
       -0.06996694 0.004090557 -0.05025934 -0.071244374
0000d0 58 7c ac 3c 1d 09 7f bd dd b1 2e 3f 58 12 b0 bc
       0.021055385 -0.06226455 0.6824015 -0.021493122
0000e0 69 42 5e bb f8 95 dd 3b 7c 0f a7 bd e2 23 89 3e
       -0.0033914095 0.0067622624 -0.0815725 0.2678519
0000f0 52 10 19 3f 10 a1 9e 3c 11 e1 24 bf 69 b7 2b bd
       0.5979053 0.01936391 -0.64405924 -0.04192296
000100 9a a2 22 bc be fe b0 3e e0 07 98 bd 0b f1 0f bd
       -0.009926463 0.34569353 -0.07423377 -0.035141986
000110 8d 6e 85 bc e3 6a 7a bd 78 34 e2 bc 66 c3 25 bf
       -0.016288066 -0.06113709 -0.02761291 -0.6475128
000120 8c c8 06 3d d0 6f 09 3d 33 26 56 3d 07 42 34 3e
       0.0329061 0.0335539 0.052282523 0.17603312
000130 48 e8 76 bd 46 87 86 3d 18 ea 87 3d 63 ad 9b bd
       -0.060280114 0.0656877 0.06636447 -0.0760143
000140 ab 2e f2 be 6a 60 0b be f3 62 2e bd 9b fb 41 3e
       -0.4730123 -0.13610998 -0.042574834 0.18943636
000150 6c ab 6e bc 7d 7a 88 3c ec fe 53 bd 09 32 c2 3c
       -0.014567237 0.01665997 -0.051756784 0.0237055
000160 d4 1e 4e bd dd b2 a1 3d 59 f9 4b 3d d9 e1 27 3f
       -0.05032237 0.078954436 0.049798343 0.6557899
000170 5f 79 00 bd 72 52 84 bd c9 a5 ed bd 26 04 82 bc
       -0.03136575 -0.06461038 -0.11603887 -0.015871119
000180 fe 60 ab bc d8 db 85 bd eb 50 a7 3d 0e d4 60 3b
       -0.020920273 -0.065360725 0.08169731 0.0034306082
000190 df 67 f1 3e 97 ac 57 3e 3e ea 3c 3c 19 a6 c7 3b
       0.4714956 0.21061932 0.011530457 0.0060927984
0001a0 a7 b5 ca 3c 31 88 fb bc e6 ca a9 bd 18 d6 82 3d
       0.024744822 -0.03070459 -0.08290653 0.063884914
0001b0 67 b8 9f bf 41 06 38 3d f0 72 27 be 5d 32 73 3d
       -1.247815 0.04492784 -0.16352439 0.059374202
0001c0 3c 82 08 3e 28 7c f5 bc 9a 80 24 bf 82 32 40 bd
       0.1333093 -0.029966429 -0.6425873 -0.046923168
0001d0 b0 1f dd 3e f6 8b d8 3e 4a 64 09 3d 09 85 7d bc
       0.43188238 0.42294282 0.03354291 -0.015473613
0001e0 12 d3 57 3e 6b 2f a7 bd db 57 97 bd f6 5e 53 3f
       0.2107661 -0.08163341 -0.07389804 0.82566774
0001f0 bb 7b 9b bd 53 6e 07 bd f6 4c 49 bd 60 dd 4a bf
       -0.07591959 -0.033064198 -0.04914566 -0.7924404
000200 aa 0c 87 bd 6c d1 00 bd b0 33 04 3f 0c 72 f3 3e
       -0.06594212 -0.03144972 0.5164137 0.47547948
000210 9c 2a d4 bc d3 d0 3a bd 05 43 35 bd 66 57 58 bd
       -0.025899224 -0.045609307 -0.044253368 -0.052817725
000220 21 fd d1 3c bd 42 8a b9 75 0a ca 3c 6d c1 43 bf
       0.025633397 -0.00026371135 0.02466319 -0.7646702
000230 91 88 17 3d 71 ab 7b bd 6a 44 43 bf c5 fa 7d 3d
       0.036995474 -0.061442796 -0.76276267 0.06200673
000240 2a d2 2d bd 8c ef 92 3c 6f 35 85 3e 94 fc e6 3c
       -0.042436756 0.01793649 0.2601733 0.02819661
000250 b8 1d 1f 3c df d5 a2 3c 6a 91 1e be fb b1 39 3d
       0.009711675 0.019877372 -0.15485159 0.04533575
000260 00 31 87 3b e4 38 0d 3f 34 b2 ac 3c b5 4e 88 bf
       0.0041257143 0.55164933 0.021081068 -1.064902
000270 b7 af f9 bc 83 b6 95 3d 2c ad 7f 3c 4f 3f 0a 3c
       -0.030479295 0.07310202 0.015605252 0.0084379455
000280 cd bd 95 bd 00 48 5d 3c f6 19 90 3d 5d 1c c2 bc
       -0.07311592 0.013505936 0.07036202 -0.023695165
000290 bf ef 33 be 15 1c c5 3c b0 22 79 bd 68 c6 6d bd
       -0.17571925 0.024061242 -0.060824096 -0.058050543
0002a0 e7 af 83 3c dd 8d fb bc 32 88 45 3d 5a cc 29 bd
       0.016075088 -0.030707294 0.04822559 -0.04145465
0002b0 66 84 b5 3e 14 e9 7a 3a f1 e2 0c bd 53 8c 6a bd
       0.35452574 0.00095714745 -0.034396116 -0.05726273
0002c0 29 2d 8f 3d ef 25 5b 3d 33 a3 6d bd 42 62 88 bd
       0.069910355 0.053502973 -0.058016967 -0.06659366
0002d0 89 96 98 3c e7 ed 3b 3c c3 33 72 bb 07 e8 1a bd
       0.018626468 0.011470295 -0.0036957122 -0.037818935
0002e0 51 89 b8 3c 11 34 40 3d a0 0e 8f 3d 5b b5 31 bf
       0.022526415 0.046924654 0.06985211 -0.6941735
0002f0 54 34 14 bd 93 3e 43 3d 97 87 c7 3d 4e 47 7b bc
       -0.036182716 0.047667097 0.097426586 -0.015336825
000300 48 fe 57 3d 63 58 80 bf c1 8c 5b bd 27 2b 70 bd
       0.052732736 -1.0026973 -0.05360103 -0.058634903
000310 20 69 82 3c 6e c7 56 3d 63 bc f9 bb cb ac 5f 3e
       0.015919268 0.052436285 -0.0076213344 0.21843259
000320 6c 13 1a 3d c9 ff f0 3c 00 82 0f bd e3 64 7e bf
       0.03761618 0.029418843 -0.035036087 -0.9937269
000330 7d 4c 89 3c d2 73 e2 b8 9b c4 84 3c 55 da 6d 3d
       0.016760105 -0.00010798093 0.01620703 0.058069546
000340 d6 88 1f bf ec c4 76 bf 86 7c 2b bd 6a ed 23 bf
       -0.6231817 -0.9639423 -0.0418668 -0.6403414
000350 fc 39 82 3d 89 e3 79 bd 53 94 1f 3d af 88 87 bc
       0.06358716 -0.06100801 0.038959812 -0.016544668
000360 f8 cc 22 bd 44 9b 0f 3d e4 0f 9f bd b8 38 24 bf
       -0.039746255 0.035060182 -0.07766703 -0.64149046
000370 4b 54 22 bd f5 c0 d6 3c 6f d4 00 3f 8a 3a 8c 3c
       -0.03963117 0.026215056 0.5032415 0.017117757
000380 c3 05 a8 3d 7a 34 74 3d ff ef e8 3e b4 b1 54 3d
       0.08204224 0.059620358 0.45495602 0.051927283
000390 12 7a 73 3d f2 8a b0 3e 69 86 d3 bc 7c f5 81 ba
       0.059442587 0.34481007 -0.025820928 -0.0009915079
0003a0 78 0d 2a 3b 24 ee 84 3d 31 52 66 3d 34 d8 04 bc
       0.002594797 0.06490734 0.056230728 -0.0081081875
0003b0 cc 0a c8 3b 29 ad 57 bd a5 57 d0 3e 74 04 6f bc
       0.0061048027 -0.052655373 0.40691867 -0.014588464
0003c0 48 2e 67 3d 25 5b f5 3a 5c 0c 26 3f 23 9f ea 3c
       0.05644062 0.001871918 0.6486261 0.028640335
0003d0 0a e2 8f bd 80 b4 0c bf e4 b9 07 3d 92 a9 74 bd
       -0.070255354 -0.5496292 0.033136263 -0.059732027
0003e0 d0 d5 9d bc 00 c1 88 bd 58 85 04 bd de dc 34 bf
       -0.019266993 -0.06677437 -0.03235373 -0.70649517
0003f0 04 fb 9a bd 7d 46 90 3c aa ac 0e bd 9c 1c f1 be
       -0.07567409 0.017611736 -0.034832634 -0.4709214

fc2.bias f4 [4]
000000 2e 88 0b 3d 95 88 f3 3c 39 b0 48 be 50 68 bd 3c
       0.034065418 0.029728213 -0.19598474 0.02312103
