cnn saved models/cnn_epoch12.pt (torch, 609343 bytes, 16 tensors)

conv1.weight f4 [32, 1, 3, 3]
0	0x3eaba7b8	0.33526397
1	0x3eab808f	0.3349652
2	0xbe7125b8	-0.23549545
3	0xbeb63005	-0.3558351
4	0xbe82e91e	-0.2556848
5	0xbe4e7731	-0.20162655
6	0x3d7afa99	0.061274145
7	0x3bb0f731	0.0054005613
8	0x3e9dc9f4	0.3081814
9	0x3f18e7a4	0.59728456
10	0xbe6e8d9f	-0.23296212
11	0x3f09804d	0.53711396
12	0xbd8b15d3	-0.06791272
13	0xbddee1b4	-0.10882893
14	0xbe332a78	-0.1749667
15	0x3d65f904	0.056145683
16	0x3e8cc50e	0.2749409
17	0xbde86370	-0.11347091
18	0x3dbeb2f8	0.09311479
19	0x3b814d9c	0.0039460193
20	0x3ebccf51	0.3687692
21	0xbe82cda6	-0.25547522
22	0xbef5364f	-0.47892997
23	0x3d915277	0.07095807
24	0x3e708242	0.2348719
25	0x3e8e4f19	0.27794722
26	0xbeb28f3f	-0.34874913
27	0xbddf4b5e	-0.10903047
28	0x3eb1443f	0.3462238
29	0x3e86c07d	0.26318732
30	0x3d9924d3	0.07477727
31	0xbe74105e	-0.23834369
32	0xbed7e01c	-0.4216317
33	0xbe010309	-0.12598814
34	0x3e90242b	0.28152594
35	0xbe18d7a2	-0.14926007
36	0xbdaec64e	-0.08533917
37	0xbe4e3678	-0.20137966
38	0x3e3b5470	0.18293929
39	0xbe9250cd	-0.2857727
40	0x3e68e786	0.22744569
41	0x3dd47848	0.10374504
42	0x3e907a3f	0.28218266
43	0x3ddf24c3	0.108956836
44	0xbe99c607	-0.30033895
45	0x3e2e64f1	0.17030694
46	0xbeace491	-0.33768132
47	0xbed46873	-0.41485938
48	0x3e0ac9b6	0.13553509
49	0x3e8e87e3	0.27838048
50	0xbd94914c	-0.07254276
51	0xbe9f4c3b	-0.31112847
52	0xbd8f5971	-0.069994815
53	0xbf0cc2aa	-0.54984534
54	0x3e06a30a	0.13148132
55	0xbe4aa6f5	-0.19790252
56	0xbe96aabf	-0.29427144
57	0x3e0389cb	0.12845533
58	0x3e848aa9	0.2588704
59	0x3eca5392	0.39516884
60	0xbecb219c	-0.3967408
61	0x3cd8e4f9	0.02647637
62	0xbd97992a	-0.074022606
63	0x3ea9cc7f	0.3316383
64	0xbe8a51d6	-0.2701556
65	0xbea0f279	-0.31434992
66	0x3e98f5c7	0.29875013
67	0xbdbbcbbf	-0.09169721
68	0xbeb2bede	-0.34911245
69	0x3e8f479f	0.2798433
70	0xbd8e500f	-0.06948864
71	0x3e16c658	0.147241
72	0x3d8d8b0d	0.069112875
73	0xbd80a607	-0.06281667
74	0xbf30686c	-0.68909335
75	0xbd261b77	-0.040553536
76	0xbc151e10	-0.009101406
77	0x3d0d7eba	0.034544684
78	0x3e805144	0.25062
79	0x3dfccda9	0.12343914
80	0x3ac12c1b	0.0014737876
81	0x3e519119	0.20465507
82	0xbe9e56ac	-0.309255
83	0x3ee61acd	0.44942322
84	0xbe988171	-0.29786256
85	0xbc474cdb	-0.01216432
86	0xbee30b70	-0.44344664
87	0x3e6b49b3	0.22977333
88	0x3e159d7a	0.14610854
89	0xbdf20968	-0.118182
90	0xbba0ba2d	-0.0049050064
91	0xbe688372	-0.22706392
92	0xbd770157	-0.060304012
93	0xbe68c0a3	-0.22729735
94	0x3dfd8f84	0.12380889
95	0xbee2ddc3	-0.44309816
96	0x3e98f0d7	0.29871246
97	0x3eac2993	0.3362547
98	0xbce8ee81	-0.02843404
99	0xbe0bae6c	-0.13640755
100	0x3e82d5dd	0.2555379
101	0xbe3cfb17	-0.18455158
102	0x3db9c0e8	0.09069997
103	0x3e7b11f0	0.24518561
104	0xbe49a9bd	-0.19693656
105	0x3ed5bd6b	0.41746077
106	0xbe132b63	-0.1437202
107	0xbe5b0dac	-0.21391934
108	0x3eda4a73	0.42634925
109	0x3e12a38a	0.14320198
110	0xbcc95732	-0.02457771
111	0x3e326881	0.17422678
112	0xbe4105b7	-0.18849836
113	0xbe241604	-0.16024023
114	0xbe46d122	-0.19415715
115	0xbd3cd59f	-0.046102162
116	0xbe8ba9ce	-0.27277988
117	0xbecfd326	-0.4059078
118	0x3c872b4b	0.016500136
119	0xbecbb5fc	-0.3978728
120	0xbe6fc279	-0.23414029
121	0x3dd3a8f3	0.10334959
122	0x3d4a21fb	0.049348813
123	0x3cb45bea	0.022016484
124	0x3e0e3cf3	0.13890438
125	0x3eb39de0	0.35081387
126	0x3ec6adc3	0.38804445
127	0xbebc007b	-0.36719117
128	0xbd3cb29e	-0.04606878
129	0x3e7dd70a	0.24789062
130	0x3e33e7ef	0.17568944
131	0xbee7894b	-0.45221934
132	0x3eaffa8b	0.34370837
133	0x3d67106f	0.056412157
134	0xbec0237d	-0.37527075
135	0xba4c5f56	-0.00077961886
136	0x3ce83ab8	0.028348312
137	0xbf1077e0	-0.56432915
138	0x3dcc8689	0.09986598
139	0xbeb11616	-0.34587163
140	0xbdbe811e	-0.09301971
141	0x3f00e827	0.50354236
142	0x3df07a2c	0.117420524
143	0xbdfdc401	-0.123909004
144	0x3e8eae67	0.27867433
145	0x3e188c10	0.1489718
146	0xbeb34da2	-0.35020167
147	0xbdb31ea2	-0.08746077
148	0xbe4fb697	-0.20284496
149	0x3ec995e3	0.39372167
150	0xbee08437	-0.43850872
151	0x3ed33869	0.41253975
152	0xbd8be116	-0.06830041
153	0xbe5dff68	-0.21679461
154	0xbcb20285	-0.021729717
155	0x3ddd6a56	0.108112976
156	0x3da24ddf	0.07925009
157	0xbef59fbb	-0.47973427
158	0xbec4f699	-0.3846939
159	0x3e3c7f59	0.18407954
160	0x3ec09661	0.3761473
161	0x3e9deb9d	0.3084382
162	0x3de3dd89	0.11126239
163	0x3ed03a59	0.40669516
164	0x3dbaa541	0.09113551
165	0x3e5a2146	0.21301755
166	0xbe36d19b	-0.17853396
167	0xbd90e07e	-0.070740685
168	0xbd7fbbe1	-0.062435035
169	0xbebe23ed	-0.37136784
170	0xbb014b34	-0.0019728662
171	0x3eb094b8	0.34488463
172	0x3e5cf069	0.21576084
173	0x3d1a65bc	0.037694678
174	0xbf16bb71	-0.5887976
175	0xbecd02dc	-0.40041244
176	0x3d06ceaa	0.032911934
177	0x3e50e300	0.20399094
178	0x3dfbd809	0.12297065
179	0x3e3b310d	0.1828043
180	0x3d5d9752	0.05409939
181	0xbee6da9e	-0.45088667
182	0x3ec11e60	0.37718487
183	0xbe94cdb2	-0.29063183
184	0xbde01e80	-0.109433174
185	0x3e4cd6ec	0.20003861
186	0xbe348d2c	-0.17631978
187	0xbca8a468	-0.020586208
188	0x3e596721	0.21230747
189	0xbea45317	-0.32094643
190	0x3e98de0c	0.29856908
191	0x3ec5f314	0.38662016
192	0x3e0e03c4	0.13868624
193	0xbdcfb1c7	-0.1014133
194	0xbe467e33	-0.19384079
195	0x3e1e093c	0.1543321
196	0xbda97242	-0.08273746
197	0xbec6c2de	-0.38820547
198	0x3dfd13ef	0.12357318
199	0xbe0328c5	-0.12808521
200	0xbe490d37	-0.19633947
201	0x3ecff8e9	0.4061959
202	0xbdeb0f8d	-0.114775755
203	0xbdf3ddf6	-0.1190757
204	0xbef11c36	-0.47091836
205	0x3e852d18	0.26010966
206	0x3ea20c7b	0.31650147
207	0xbe1e1d70	-0.15440917
208	0xbd0ab218	-0.03386125
209	0x3d4fff67	0.05078068
210	0xbd7cce93	-0.061720442
211	0xbe6fec1e	-0.23429915
212	0x3ea99026	0.3311779
213	0xbeae80a5	-0.34082523
214	0xbb9ffe1d	-0.0048825876
215	0x3eda8f54	0.42687476
216	0xbea84b91	-0.32870153
217	0xbde6e474	-0.11274043
218	0x3e9dced1	0.3082185
219	0xbed99bba	-0.42501622
220	0xbdc1134f	-0.09427511
221	0x3e801ee1	0.2502356
222	0xba1abd27	-0.00059028197
223	0x3ea64012	0.32470757
224	0x3d40538e	0.046954684
225	0x3e6231f1	0.22089364
226	0xbe8d5838	-0.27606368
227	0x3d4ef7c0	0.05052924
228	0x3e8e9bc7	0.27853224
229	0xbf185ead	-0.59519464
230	0x3ea5f786	0.32415408
231	0x3e18acee	0.14909717
232	0xbec950e1	-0.39319518
233	0x3e6ceba4	0.23136765
234	0x3d347378	0.044055432
235	0xbeff3ea6	-0.49852484
236	0xbe8e883c	-0.27838314
237	0x3e7013a0	0.23444986
238	0xbec8d5b0	-0.3922553
239	0xbe109dfb	-0.14122765
240	0xbdda47f4	-0.10658255
241	0x3ec4edde	0.38462728
242	0x3e01d911	0.1268046
243	0xbef660e6	-0.48120803
244	0xbeb70e48	-0.35753083
245	0x3e036b15	0.12833817
246	0x3d80f0d2	0.06295933
247	0x3bec2fcb	0.007207846
248	0xbdac6eba	-0.08419557
249	0x3e32b9b6	0.17453656
250	0xbdc915f5	-0.09818641
251	0x3eae357d	0.34025183
252	0xbea2955a	-0.3175457
253	0x3e83ccfb	0.25742325
254	0x3ef3929b	0.4757279
255	0xbeaf38ad	-0.34222928

conv1.bias f4 [32]
0	0x3e82d9b5	0.25556722
1	0x3eba46c3	0.36382112
2	0x3dbe65b0	0.09296739
3	0xbe55fda3	-0.20897536
4	0x3f1451a7	0.5793709
5	0x3e9b2565	0.30301967
6	0x3e56aac1	0.20963575
7	0x3ce4dc49	0.027937071
8	0x3ea34d18	0.31894755
9	0x3e811d58	0.252177
10	0x3e3ab0c1	0.18231489
11	0x3f15f5e3	0.5857832
12	0x3ea933a4	0.3304721
13	0x3e8ae020	0.2712412
14	0xbe7132bb	-0.23554508
15	0xbe59ec7b	-0.21281616
16	0x3c9d548a	0.01920535
17	0x3efec0d2	0.49756485
18	0xbf3436b6	-0.7039598
19	0x3dd98801	0.10621644
20	0x3e7eaf10	0.24871469
21	0xbe345df9	-0.17613973
22	0x3e898bd2	0.26864487
23	0xbdf32443	-0.11872151
24	0x3f16c17f	0.58889
25	0xbea86c3e	-0.32895082
26	0xbc2fa759	-0.010721051
27	0x3d35f5cd	0.044423867
28	0x3dcd0632	0.10010947
29	0xbd8bdfaa	-0.0682977
30	0xbea20e95	-0.3165175
31	0xbd1a6212	-0.037691183

BN1.weight f4 [32]
0	0x3fabc63c	1.3419871
1	0x3ec30dc7	0.3809645
2	0x3f8daa9c	1.1067691
3	0x3f583849	0.84460884
4	0x3f67770c	0.90416026
5	0x3f45d218	0.772737
6	0x3f91af74	1.1381669
7	0x3f482fd8	0.78198004
8	0x3f6a2fc1	0.91479117
9	0x3f99cffd	1.2016598
10	0x3f63bc5d	0.88959295
11	0x3eca9e40	0.3957386
12	0x3f7cded5	0.98777515
13	0x3f5ffdd4	0.87496686
14	0x3f480aed	0.7814167
15	0x3f81156f	1.0084666
16	0x3f592fba	0.8483845
17	0x3ee4a6a4	0.44658387
18	0x3f2c84e3	0.6739027
19	0x3f44e16a	0.76906455
20	0x3f7918a0	0.973032
21	0x3f6374c0	0.8885002
22	0x3f8b637e	1.0889738
23	0x3f05023c	0.51956534
24	0x3f2698d1	0.6507693
25	0x3fa57083	1.2924961
26	0x3f8afdc5	1.0858694
27	0x3f49027e	0.7851943
28	0x3f8055d0	1.0026188
29	0x3f25feb8	0.64841795
30	0x3f606c9e	0.87665737
31	0x3f58b28c	0.8464744

BN1.bias f4 [32]
0	0xbed296fc	-0.41130817
1	0xbe2f255f	-0.171041
2	0xbe7854a6	-0.24251041
3	0xbddf5887	-0.10905557
4	0xbf804f9a	-1.0024292
5	0xbea7ad56	-0.32749432
6	0xbe1ac7f3	-0.15115337
7	0xbdc2edcc	-0.095180124
8	0xbf02d41d	-0.5110491
9	0xbf22cc3d	-0.6359289
10	0xbed88def	-0.42295787
11	0xbe2ebefd	-0.17065044
12	0xbc485ed0	-0.012229636
13	0xbede30d1	-0.4339662
14	0xbdd6cd56	-0.104883835
15	0xbf391c04	-0.72308373
16	0xbf6052b0	-0.8762617
17	0xbda0ea9d	-0.07857249
18	0xbf076ea2	-0.5290319
19	0xbf1601f4	-0.5859673
20	0xbef6d150	-0.48206568
21	0xbebf69f7	-0.37385532
22	0xbf9c3744	-1.2204366
23	0xbd17e65e	-0.03708493
24	0xbd83886a	-0.06422503
25	0xbeaafc30	-0.3339553
26	0xbf485781	-0.7825852
27	0xbdaed4b0	-0.08536661
28	0xbdad79a8	-0.0847047
29	0xbd53ab14	-0.051676825
30	0xbf326149	-0.69679695
31	0xbe469534	-0.19392854

BN1.running_mean f4 [32]
0	0x3e80e9af	0.25178286
1	0x3f0278e3	0.5096571
2	0x3dab063d	0.08350799
3	0xbe656078	-0.22400081
4	0x3f15fc08	0.58587694
5	0x3da3cfc0	0.079986095
6	0x3e55d82a	0.20883241
7	0x3c956310	0.018235713
8	0x3e832c79	0.25619867
9	0x3e609f6c	0.21935815
10	0x3e0a27cf	0.13491748
11	0x3f1cd265	0.61258537
12	0x3e9bba36	0.30415505
13	0x3e4ef3b7	0.20210157
14	0xbe779680	-0.24178505
15	0xbe93c10f	-0.2885823
16	0x3d17c13c	0.037049517
17	0x3ef7d2d3	0.48403034
18	0xbf2d4707	-0.67686504
19	0x3e06cd73	0.1316431
20	0x3e532691	0.2062018
21	0xbe490322	-0.19630101
22	0x3e90f945	0.28315178
23	0xbdfbb39e	-0.12290119
24	0x3f150184	0.5820544
25	0xbeab322b	-0.33436713
26	0xbe0a1360	-0.13483953
27	0xbc8931b5	-0.016747335
28	0x3d846ad9	0.06465692
29	0xbdfa2a45	-0.122150935
30	0xbea5c375	-0.32375684
31	0xbd75b71c	-0.05998908

BN1.running_var f4 [32]
0	0x3b45bf32	0.0030173776
1	0x3ccb6756	0.024829548
2	0x3b3721db	0.0027943763
3	0x3b5fe0e0	0.0034161136
4	0x3a1c88e2	0.0005971325
5	0x3d59b8a6	0.05315461
6	0x3b2b0a54	0.0026098685
7	0x3b8fec05	0.0043921494
8	0x3c29adf7	0.010356418
9	0x3b70f6a0	0.0036768094
10	0x3bf7dd91	0.0075642546
11	0x3b0f7535	0.002188993
12	0x3bee6596	0.0072752936
13	0x3c5dd888	0.013540395
14	0x3b81118b	0.003938859
15	0x3c5743a7	0.013138688
16	0x3a8c68a6	0.001071234
17	0x3be096ff	0.0068539376
18	0x3bcfe44f	0.006344355
19	0x3b9615e7	0.0045802477
20	0x3b81c741	0.0039605205
21	0x3b642f0b	0.003481808
22	0x3ab06691	0.0013458302
23	0x3b254f80	0.0025224388
24	0x3b782ac7	0.0037867294
25	0x3b099811	0.002099518
26	0x3cbae72e	0.022815313
27	0x3c2b4f62	0.010455938
28	0x3c003eb3	0.007827449
29	0x3c046b21	0.008082182
30	0x39844c2f	0.00025233763
31	0x3c4a2e41	0.012340129

conv2.weight f4 [64, 32, 3, 3]
0	0xbe137464	-0.14399868
1	0x3e04de9e	0.12975547
2	0xbd8aae6f	-0.06771552
3	0xbc758884	-0.014986161
4	0x3b4e26f7	0.003145633
5	0xbe46fd71	-0.19432618
6	0xbd44463d	-0.047918547
7	0x3d957b81	0.07298947
8	0xbdda8bf6	-0.10671227
9	0xbd187fb1	-0.03723115
10	0x3cd92c8c	0.0265105
11	0x3db74f05	0.08950619
12	0xbe85c605	-0.2612764
13	0xbea68bfb	-0.32528672
14	0xbe82dd1e	-0.25559324
15	0x3e25bdcd	0.16185685
16	0x3e1301ce	0.14356157
17	0x3e305612	0.17220333
18	0x3d312cff	0.043255802
19	0x3d52b15e	0.05143868
20	0x3d9069ea	0.070514515
21	0xbe0967f4	-0.13418561
22	0xbd4e4321	-0.050356988
23	0xbdb63203	-0.08896258
24	0xbda3bdba	-0.07995172
25	0xbdc46c57	-0.09590977
26	0x3d4e106e	0.050308637
27	0xbec87daa	-0.39158374
28	0xbc816071	-0.015793057
29	0x3cc5231e	0.024064597
30	0xbedfad3b	-0.43686852
31	0x3cc4b194	0.024010457
32	0xbe930e41	-0.28721812
33	0x3cadf437	0.021234615
34	0x3ea47ae2	0.32125002
35	0x3e4d5a00	0.20053864
36	0x3e96a10a	0.29419738
37	0xbe091e9a	-0.1339058
38	0xbe041180	-0.128973
39	0xbca9a099	-0.020706462
40	0xbe5ec6eb	-0.21755569
41	0xbe38dbce	-0.18052599
42	0x3b29ae5c	0.002589128
43	0xbdc5e4e6	-0.096627995
44	0xbe079cc4	-0.13243395
45	0xbe6eb718	-0.23312032
46	0xbd539e99	-0.051664922
47	0xbe06660e	-0.13124868
48	0xbe52c91b	-0.20584528
49	0xbda6bb1a	-0.081411555
50	0xbdc28774	-0.09498492
51	0x3e15186f	0.14560102
52	0x3e48faad	0.19626875
53	0x3e52169c	0.20516437
54	0x3c85b44d	0.016321326
55	0xbd60907b	-0.054825287
56	0xbe2754d3	-0.16340952
57	0x3d02328c	0.031786487
58	0x3dbc0ef8	0.091825426
59	0x3e40aa48	0.18814957
60	0xbe5655c2	-0.20931152
61	0xbe62bf88	-0.22143376
62	0xbe506875	-0.20352347
63	0x3c392e63	0.011302563
64	0x3e0723b7	0.13197218
65	0x3d81abfb	0.06331631
66	0xbd79d7ff	-0.060997006
67	0xbc83ead8	-0.016103193
68	0xbe56b7f0	-0.20968604
69	0x3e0cc889	0.13748373
70	0x3e113df3	0.14183788
71	0x3e3f197c	0.18662065
72	0xbe6dcac9	-0.23221888
73	0xbd1ae6f7	-0.03781792
74	0xbe48dff0	-0.19616675
75	0xbe23f662	-0.16011956
76	0x3d9e2a87	0.07722955
77	0xbe0f9e6b	-0.14025275
78	0x3d565fe5	0.052337546
79	0x3ddf99c5	0.10918001
80	0xbd787299	-0.060656164
81	0xbee091e2	-0.438613
82	0xbf0c1b8b	-0.5472953
83	0xbf1e41b0	-0.6181898
84	0x3e036086	0.1282979
85	0x3e0e6c86	0.13908586
86	0x3d8f2623	0.06989696
87	0xbecba559	-0.39774588
88	0xbeeddf22	-0.464593
89	0xbf17927e	-0.59207904
90	0x3eb28c8e	0.3487286
91	0x3e8887f4	0.26666224
92	0x3e1f55ce	0.15560076
93	0xbdab2dc1	-0.08358336
94	0x3c2354e2	0.009968968
95	0xbdaaa08d	-0.08331404
96	0x3cdf3c23	0.027250355
97	0x3d22402e	0.039611988
98	0x3a371d96	0.00069853046
99	0xbc626047	-0.0138169
100	0x3d99e257	0.07513874
101	0x3b8377cd	0.004012084
102	0xbe10b127	-0.14130078
103	0xbc97b285	-0.018517742
104	0xbe68cbe0	-0.22734022
105	0x3e35e4a4	0.17763
106	0x3d352a45	0.044229764
107	0xbda748e7	-0.08168202
108	0x3cafd58e	0.021464135
109	0x3df12313	0.11774268
110	0xbd8bc622	-0.068249
111	0x3e1d7069	0.15374912
112	0xbc8da881	-0.017292263
113	0xbefa88f0	-0.489326
114	0xbda79b89	-0.08183963
115	0x3e104d13	0.14091901
116	0x3e4f7844	0.20260721
117	0x3df9d3a1	0.12198568
118	0x3d11b7a4	0.035575524
119	0xbdcfc75c	-0.10145447
120	0xbd4fc346	-0.050723337
121	0x3d99113a	0.07473989
122	0xbdeb1c47	-0.11480003
123	0x3b43c7cf	0.0029873734
124	0x3dcedfe2	0.10101296
125	0x3de6b1c2	0.11264373
126	0xbd365658	-0.044515938
127	0x3c9a8acd	0.018865013
128	0xbd58edaa	-0.05296103
129	0x3d8c0ecf	0.06838762
130	0xba23a447	-0.0006242436
131	0xbeace779	-0.3377035
132	0xbd704c80	-0.058666706
133	0x3cff15cc	0.031138323
134	0xbe3aa026	-0.18225154
135	0xbe9832ef	-0.2972636
136	0xbd79b0ab	-0.0609595
137	0xbee56a28	-0.44807553
138	0xbc80fef6	-0.015746575
139	0x3dba427a	0.09094711
140	0x3d898810	0.06715405
141	0x3e035482	0.12825206
142	0x3d3f40ac	0.046692535
143	0xbe79b993	-0.24387197
144	0xbf00e387	-0.5034718
145	0xbeba5e24	-0.3639995
146	0xbec2f2d5	-0.3807589
147	0x3e74a0ef	0.23889516
148	0x3e5521c3	0.2081366
149	0x3d65f6b3	0.056143474
150	0xbe0435b0	-0.12911105
151	0xbdb9cc74	-0.090721995
152	0x3e632881	0.2218342
153	0x3eda9e64	0.42698967
154	0x3e99c3b6	0.30032128
155	0x3ec502da	0.38478738
156	0xbd21e302	-0.039523132
157	0xbc0552d3	-0.008137423
158	0x3db6f645	0.08933691
159	0x3d4be108	0.049775153
160	0x3d9b5669	0.07584841
161	0x3dc2fa3f	0.09520387
162	0xbe54525b	-0.20734541
163	0xbdb48aa6	-0.088155076
164	0x3e1f3bd5	0.15550168
165	0x3cb1f8b4	0.021725036
166	0xbea95647	-0.33073637
167	0xbeef3eac	-0.46727502
168	0x3ded296c	0.11580166
169	0x3df1b4cf	0.118020646
170	0x3e33ac49	0.1754619
171	0xbeaad861	-0.3336821
172	0xbdf43105	-0.11923412
173	0xbd95c389	-0.07312686
174	0xbd8a8117	-0.06762903
175	0xbdcc94fe	-0.099893555
176	0xbe30ddad	-0.17272063
177	0x3e1c761b	0.15279429
178	0x3dd905f5	0.10596839
179	0x3e85376b	0.26018843
180	0x3ebdfdb4	0.37107623
181	0x3e22d98b	0.15903299
182	0xbd20365e	-0.03911435
183	0xbe8e862d	-0.27836743
184	0xbdc58835	-0.0964512
185	0xbe814ad7	-0.2525241
186	0xbe8b432f	-0.27199695
187	0x3c9514c4	0.018198378
188	0xbeafda42	-0.34346205
189	0xbda1b66d	-0.07896123
190	0x3d34cade	0.04413878
191	0x3e469fbd	0.19396873
192	0xbed58a8b	-0.41707262
193	0xbe859c12	-0.26095635
194	0xbebc9ee9	-0.3683999
195	0xbda74705	-0.08167843
196	0x3e6a4ca6	0.22880802
197	0x3e409415	0.18806489
198	0xbdab74a0	-0.08371854
199	0x3d550f4a	0.052016534
200	0x3df0e27d	0.11761949
201	0x3d7e2b1f	0.062052842
202	0xbd27d8e7	-0.04097834
203	0xbdb9157b	-0.090373
204	0xbdbad2a2	-0.09122206
205	0xbe3d3b04	-0.18479544
206	0x3c998419	0.018739747
207	0x3e164939	0.1467637
208	0x3d217e04	0.03942682
209	0x3df0e791	0.11762918
210	0xbe138e33	-0.14409713
211	0xbdb71756	-0.08939998
212	0xbe523a85	-0.20530136
213	0xbe8fc6ae	-0.28081268
214	0xbdc0c7ff	-0.09413146
215	0xbe7901a7	-0.24317037
216	0x3e24e338	0.16102302
217	0xbc71c8c5	-0.01475734
218	0x3e15a847	0.14614974
219	0xbe2b46eb	-0.16726272
220	0xbe39bc02	-0.18138126
221	0xbe121919	-0.14267386
222	0xbc5a97e2	-0.013341876
223	0x3db1c299	0.08679695
224	0x3e4965fd	0.19667812
225	0x3e0a86f7	0.13528048
226	0xbd5bd465	-0.053669352
227	0xbd3849af	-0.044992145
228	0x3d53c9f7	0.05170628
229	0xbd9d07b5	-0.076674856
230	0x3aa2a7b3	0.0012409597
231	0xbeb8d26f	-0.36098048
232	0xbf06487d	-0.5245436
233	0xbf149541	-0.58040243
234	0xbf36044b	-0.711003
235	0xbf3fe6be	-0.7496146
236	0xbf4cab0e	-0.7994851
237	0xbdeaf1d2	-0.11471905
238	0xbd258c18	-0.040416807
239	0xbcc5bde7	-0.024138404
240	0xbeea7650	-0.4579339
241	0xbf0b6264	-0.5444701
242	0xbf0bf841	-0.5467568
243	0x3d36d41e	0.044635884
244	0xbdf81fdf	-0.12115454
245	0xbec6cbd7	-0.38827392
246	0xbe117326	-0.14204082
247	0xbdd03634	-0.101665884
248	0xbc3ea5b5	-0.011636187
249	0x3d6c005d	0.057617534
250	0x3e19cbdf	0.15019177
251	0x3e52d3dd	0.20588632
252	0x3e0dc8e7	0.1384617
253	0x3e1386fb	0.1440696
254	0x3ef40313	0.47658595
255	0xbdab8336	-0.08374636

conv2.bias f4 [64]
0	0x3ac65062	0.0015130157
1	0xbc02c1c9	-0.007980772
2	0xbc90babf	-0.017667172
3	0xbcf0ec16	-0.02940945
4	0x3d977d8e	0.073969945
5	0xbc6ea99e	-0.014566807
6	0x3d1d9843	0.038475286
7	0x3d7d1722	0.06178964
8	0x3c1b08d0	0.00946255
9	0xbd68371a	-0.056693174
10	0x3dde16ab	0.10844167
11	0x3c7464be	0.014916597
12	0x3d4d3f39	0.050109122
13	0xbe0d0e55	-0.13774998
14	0x3d1fbffb	0.039001446
15	0xbb2d1325	-0.0026409116
16	0xbbecc90c	-0.007226115
17	0xbde96f71	-0.11398209
18	0xbd41ac31	-0.047283355
19	0x3d28d58a	0.04121927
20	0x3e06051e	0.1308789
21	0x3ca0adce	0.019614127
22	0xbde3f9c0	-0.111316204
23	0xbdd15715	-0.10221688
24	0xbcfbe824	-0.030750342
25	0xbcc39248	-0.023873463
26	0x3ce60b36	0.028081518
27	0x3d81bff6	0.06335442
28	0xbb84ba2c	-0.0040505137
29	0xbb7c6cb0	-0.0038516931
30	0x3d705939	0.05867884
31	0x3d84af8b	0.06478795
32	0x3c99690f	0.018726854
33	0xbd3b6765	-0.0457529
34	0xbc14d8b3	-0.009084868
35	0xbd560c4c	-0.05225782
36	0xbc3945a5	-0.011308108
37	0xbd285fd5	-0.041107018
38	0xbda5562c	-0.080730766
39	0xbdb81218	-0.08987826
40	0x3d9a5d50	0.07537329
41	0xbcab592a	-0.02091654
42	0x3caf2515	0.021379987
43	0x3ba65405	0.005075934
44	0xbd3f7e15	-0.0467511
45	0x3cb3042c	0.021852575
46	0x3cb7da7c	0.022443049
47	0xbdc51d96	-0.09624784
48	0x39f0a346	0.00045898015
49	0xbd18c6b8	-0.037298888
50	0xbd973ddd	-0.07384846
51	0x3ceb2896	0.028705876
52	0x3d801829	0.06254608
53	0x3d957d33	0.072992705
54	0x3d7d20d8	0.0617989
55	0x3e0317c9	0.12802042
56	0x3db07f81	0.086180694
57	0x3c4d9477	0.012547604
58	0x3d9b4138	0.07580799
59	0xbd0cfbd8	-0.034419864
60	0x3d590bdd	0.05298983
61	0xbccb3e25	-0.024809906
62	0x3c8f0fa4	0.017463513
63	0x3c06deec	0.00823186

BN2.weight f4 [64]
0	0x3fa55c20	1.2918739
1	0x3f89c210	1.0762348
2	0x3f9cb20a	1.2241833
3	0x3f940ab5	1.1565768
4	0x3f825002	1.0180666
5	0x3fa38c85	1.2777258
6	0x3f561f1c	0.8364122
7	0x3f881f63	1.0634578
8	0x3f963e15	1.1737696
9	0x3fa58a8e	1.2932909
10	0x3f8ceaa8	1.1009111
11	0x3f8f5220	1.1196938
12	0x3f9972bd	1.198814
13	0x3faaf902	1.3357241
14	0x3f8ecf6a	1.1157048
15	0x3f8e7d96	1.1132076
16	0x3fa87129	1.3159534
17	0x3fa45401	1.2838136
18	0x3fc92fa9	1.571767
19	0x4005644f	2.0842474
20	0x3f94d881	1.1628572
21	0x3fa0bf16	1.2558315
22	0x3ff9fb5e	1.9529836
23	0x3f9e0a19	1.2346832
24	0x3f986a0d	1.1907364
25	0x3ff9bbda	1.9510453
26	0x3f9de8d4	1.2336679
27	0x3fa8ac46	1.3177574
28	0x3fb0a021	1.3798867
29	0x3fa1d684	1.264359
30	0x3fab5212	1.3384421
31	0x3f91824d	1.136789
32	0x3fab784e	1.3396089
33	0x3f9e01cf	1.2344302
34	0x3f949c10	1.1610126
35	0x3f9d04ab	1.226705
36	0x3fd8ddaa	1.6942647
37	0x3f87f069	1.0620242
38	0x3f4b6a73	0.79459304
39	0x3f92a69c	1.1457095
40	0x3f86dcb2	1.0536101
41	0x3f730c32	0.94940484
42	0x3f884e0a	1.0648816
43	0x3fda2737	1.7043217
44	0x3fbe4966	1.486615
45	0x3f9f1daf	1.2430934
46	0x3fb1cf4d	1.3891388
47	0x3f737128	0.9509454
48	0x3fc43c09	1.5330821
49	0x3f874c46	1.0570152
50	0x3f97472a	1.1818593
51	0x3f9d2664	1.2277341
52	0x3fb689df	1.4260825
53	0x3f6af349	0.91777474
54	0x3fa06860	1.2531853
55	0x3f90938d	1.1295029
56	0x3f8d5a9f	1.104328
57	0x3fae9218	1.3638334
58	0x3f971111	1.1802083
59	0x3f783b40	0.9696541
60	0x3fb3dcce	1.4051759
61	0x3fb01167	1.3755311
62	0x3fc0c9cc	1.5061584
63	0x3fa67753	1.3005165

BN2.bias f4 [64]
0	0xbf173526	-0.59065473
1	0xbf0ac1af	-0.5420179
2	0xbf11d350	-0.5696306
3	0xbf06afe3	-0.5261213
4	0xbf0a0775	-0.5391763
5	0xbf1df2d0	-0.6169863
6	0xbec7af3d	-0.39000884
7	0xbeec3c9a	-0.46139985
8	0xbf0f02e7	-0.55863804
9	0xbf1e8db4	-0.6193497
10	0xbee0002c	-0.4375013
11	0xbf0b99b1	-0.5453139
12	0xbf17bdb2	-0.5927383
13	0xbf16f517	-0.5896773
14	0xbef6de15	-0.4821631
15	0xbefb6fb0	-0.49108648
16	0xbf0da30f	-0.5532693
17	0xbf1fd0a5	-0.6242774
18	0xbf802ab5	-1.0013033
19	0xbfbc0817	-1.4689969
20	0xbee7efc4	-0.45300114
21	0xbf220b50	-0.6329851
22	0xbfa40506	-1.2814033
23	0xbefd9be1	-0.4953299
24	0xbf09664f	-0.53671736
25	0xbf8d121c	-1.1021152
26	0xbf2c4651	-0.67294794
27	0xbf1781f3	-0.5918266
28	0xbf29daa1	-0.66349226
29	0xbf067775	-0.52526027
30	0xbf1a7c99	-0.6034637
31	0xbf04f9c7	-0.5194363
32	0xbf48bf0e	-0.78416526
33	0xbf16e918	-0.5894942
34	0xbefa33b3	-0.48867568
35	0xbf035865	-0.51306754
36	0xbf61c169	-0.88185745
37	0xbed9d957	-0.4254863
38	0xbeae79e7	-0.3407738
39	0xbf0152fa	-0.5051724
40	0xbee0f0c7	-0.439337
41	0xbec56e1b	-0.38560566
42	0xbf07635b	-0.5288598
43	0xbfacc833	-1.3498596
44	0xbf2c6fe6	-0.67358243
45	0xbf15d486	-0.5852741
46	0xbf3c1e97	-0.73484176
47	0xbef755f9	-0.4830778
48	0xbf1b7c2e	-0.6073636
49	0xbf090cbe	-0.5353507
50	0xbf0b7780	-0.5447922
51	0xbf1503f2	-0.58209145
52	0xbf3b620a	-0.7319647
53	0xbec75f9f	-0.3894014
54	0xbf113f2f	-0.56737036
55	0xbf0ecf50	-0.55785084
56	0xbee09346	-0.4386236
57	0xbf264bb1	-0.64959246
58	0xbefbce18	-0.49180675
59	0xbee8c064	-0.45459282
60	0xbf4b586a	-0.79431784
61	0xbf2eb762	-0.6824857
62	0xbf76f812	-0.96472275
63	0xbf08904f	-0.533452

BN2.running_mean f4 [64]
0	0xbf67b8c7	-0.9051632
1	0xbfd6eb6f	-1.6790599
2	0xbfae2c6a	-1.3607304
3	0xbfab35c6	-1.3375785
4	0xbfd30cef	-1.6488322
5	0xbf6b5ad0	-0.91935444
6	0xbf5f8072	-0.87305367
7	0xbf5be19a	-0.85891116
8	0xbf8037eb	-1.0017065
9	0xbf8547d3	-1.0412544
10	0xbfd2ea38	-1.6477728
11	0xbfb35839	-1.4011298
12	0xbfc1185b	-1.5085558
13	0xbf3d4504	-0.73933434
14	0xbfac6bdf	-1.347042
15	0xbeacc6a6	-0.33745307
16	0xbf810226	-1.0078781
17	0xbfaa6076	-1.3310688
18	0xbef98e40	-0.4874134
19	0xbeaffaac	-0.34370935
20	0xbfd939b1	-1.6970731
21	0xbfbf3187	-1.493699
22	0xbf3cbc61	-0.73724943
23	0xbf9ffa95	-1.2498347
24	0xbfbfd305	-1.4986273
25	0xbf0d13b6	-0.551082
26	0xbfaae567	-1.3351258
27	0xbf9fcdfd	-1.2484738
28	0xbf821297	-1.0161923
29	0xbf72da1c	-0.9486406
30	0xbf699dc0	-0.9125633
31	0xbfa8463e	-1.3146436
32	0xbf39a653	-0.72519416
33	0xbf44ddee	-0.7690114
34	0xbfae298e	-1.3606431
35	0xbfa43061	-1.2827264
36	0xbf0945b7	-0.53622
37	0xc01b9e79	-2.4315474
38	0xbf688b6f	-0.9083776
39	0xbf4bedff	-0.7966003
40	0xbfa289b6	-1.2698276
41	0xbfd27449	-1.6441737
42	0xbf867796	-1.0505245
43	0xbeb6458e	-0.3559994
44	0xbf6e9cb4	-0.9320786
45	0xbf679f1b	-0.9047715
46	0xbf35762b	-0.70883435
47	0xbfb5c18f	-1.4199694
48	0xbf6bae73	-0.92063063
49	0xbf4369a3	-0.76333064
50	0xbfdad458	-1.7096052
51	0xbfaac938	-1.3342657
52	0xbf7bd557	-0.98372406
53	0xbf15b009	-0.58471733
54	0xbf59ba4c	-0.8504989
55	0xbe606e93	-0.2191718
56	0xbffe80bc	-1.9883037
57	0xbf9d7a56	-1.2302959
58	0xbfe53376	-1.790633
59	0xbffcf993	-1.9763664
60	0xbeeef04f	-0.46667716
61	0xbf54f023	-0.8317892
62	0xbf009be6	-0.5023788
63	0xbf05b9b8	-0.5223651

BN2.running_var f4 [64]
0	0x40935a4a	4.6047716
1	0x410dd330	8.864059
2	0x40d44059	6.632855
3	0x40c15daa	6.0426836
4	0x40abb098	5.365307
5	0x40b26dfb	5.5759254
6	0x410ce022	8.80472
7	0x40b63ac3	5.694673
8	0x40a88138	5.265774
9	0x40b5e277	5.6838946
10	0x413aaf39	11.667779
11	0x41003259	8.012292
12	0x40cbe2d6	6.37144
13	0x4031eb13	2.7799728
14	0x41617418	14.090843
15	0x40abe935	5.3722177
16	0x41136c98	9.214012
17	0x4080d8ce	4.0264654
18	0x3fc15814	1.5105004
19	0x3fb9d43c	1.4517894
20	0x414c187f	12.7559805
21	0x4106a54e	8.415358
22	0x4003a87d	2.0571587
23	0x40b7d31b	5.7445197
24	0x4126c2f5	10.422597
25	0x4008f293	2.1398056
26	0x40b7e1c5	5.7463098
27	0x40d5fd06	6.6871367
28	0x41005475	8.020619
29	0x40ac27ec	5.3798733
30	0x40be74be	5.9517508
31	0x410415e9	8.255349
32	0x403134ec	2.768855
33	0x404b925b	3.1808078
34	0x40f8587f	7.7608027
35	0x40df2b82	6.974061
36	0x40031172	2.0479398
37	0x414b7cd8	12.717979
38	0x40d70d53	6.7203765
39	0x40928764	4.579027
40	0x40ea4dfd	7.32202
41	0x414a9ebc	12.6637535
42	0x409579f4	4.671137
43	0x3fad969c	1.3561587
44	0x408b4179	4.3517423
45	0x409f07f3	4.9697204
46	0x4029c1c8	2.6524525
47	0x410e5212	8.895037
48	0x40e69bfd	7.2065415
49	0x40c3008e	6.0938177
50	0x40a901a2	5.2814493
51	0x40bc91e6	5.89281
52	0x4089eb2d	4.309958
53	0x40ddce4c	6.9314327
54	0x409a45dd	4.821028
55	0x40869e63	4.2068343
56	0x414c4d7d	12.768918
57	0x40e32b06	7.099002
58	0x4107aed3	8.480182
59	0x4123ea68	10.244728
60	0x3fe88090	1.8164234
61	0x40355c4f	2.833759
62	0x3fc85dc5	1.5653616
63	0x40caf2fb	6.3421607

fc1.weight f4 [128, 1024]
0	0xbab4cdef	-0.0013794283
1	0xbcfba63f	-0.03071892
2	0xbc4db4f1	-0.012555347
3	0xbca7d77b	-0.020488491
4	0xba4cbf7f	-0.00078105176
5	0xbc1bdd01	-0.009513141
6	0xbd114be0	-0.03547275
7	0xbc00aa5e	-0.007853119
8	0xbcf03e64	-0.029326625
9	0xbc8ef16d	-0.017449105
10	0x3c16d985	0.009207134
11	0x3cc25d01	0.023725988
12	0x3bb0a5f9	0.005390879
13	0x3c8f354a	0.017481465
14	0x3c9bcb86	0.019017946
15	0xbd11411c	-0.035462484
16	0xbc4e9f8d	-0.012611282
17	0xbc5c2b30	-0.013438031
18	0x3c1b9253	0.009495336
19	0xbc8309fe	-0.015995976
20	0xba310bad	-0.0006753754
21	0xbc29c5a2	-0.010362061
22	0xbc49823b	-0.012299116
23	0x3c6250f3	0.013813245
24	0x3c639bee	0.013892157
25	0xbc00eb74	-0.007868636
26	0xbce710ad	-0.028206194
27	0x3b8fe71a	0.004391563
28	0xbad797d2	-0.0016448444
29	0xbce54eeb	-0.027991733
30	0xbc9b8d8c	-0.018988393
31	0x3b4b5d87	0.0031031088
32	0x3a891cea	0.0010460888
33	0xbcba745b	-0.02276056
34	0x3c7b4f79	0.015338772
35	0xbc7b57ed	-0.015340787
36	0x3c47ad57	0.0121873235
37	0xbca422bf	-0.0200361
38	0xbcef6390	-0.02922228
39	0x3ad2a726	0.0016071543
40	0x3cc9cde4	0.02463431
41	0x3c583f5d	0.013198701
42	0xbcad147c	-0.021127932
43	0xbcf5d1ff	-0.03000736
44	0xbc553a32	-0.013014363
45	0xbc8b5b13	-0.017011201
46	0x3bc6b42b	0.006063958
47	0xbd0ccc47	-0.0343745
48	0xbc8806c9	-0.016604798
49	0xbc2b1432	-0.010441827
50	0x3c743021	0.014904053
51	0x3bc65d2b	0.006053587
52	0x3cb6eb10	0.022328883
53	0xbb99cdac	-0.0046937075
54	0xbca0bbc4	-0.019620784
55	0x3b0a893a	0.0021138922
56	0xbb250240	-0.0025178343
57	0xbd06f077	-0.03294417
58	0xbcd6a047	-0.026199473
59	0xbcff4bdd	-0.031164104
60	0xbc59f1b0	-0.013302252
61	0xbd0a71ec	-0.03380005
62	0xbb079c79	-0.002069263
63	0x3c627919	0.013822817
64	0x3c2170da	0.009853566
65	0x3cbb5f02	0.022872452
66	0xbc848c54	-0.016180195
67	0xbcb2b3ad	-0.021814192
68	0xbba90b9d	-0.005158855
69	0xbbf1477d	-0.0073632584
70	0x3c9f9ff2	0.019485448
71	0xbd0ac2a7	-0.03387704
72	0xbd15e02e	-0.036590748
73	0xbcf5afd3	-0.029991066
74	0xbca219c5	-0.019787678
75	0x3c288c58	0.010287367
76	0xbc65587b	-0.013998146
77	0x3ba03f9c	0.0048903953
78	0xbcec3271	-0.028832646
79	0x3cca3185	0.024681816
80	0x3b329d4b	0.0027254398
81	0x3b3e0f39	0.0029000773
82	0x3cc69571	0.024241181
83	0x3c09d089	0.008411535
84	0x3b95cb40	0.0045713484
85	0xbc034144	-0.008011166
86	0x3b0784a8	0.0020678435
87	0xbc06a227	-0.008217371
88	0xbba9a825	-0.005177515
89	0xbcdf42f5	-0.027253607
90	0x3c936f89	0.01799752
91	0x3c2b25cc	0.010446023
92	0xbcb98194	-0.022644795
93	0x3c95f71a	0.018306304
94	0xbcba3749	-0.02273144
95	0xbc179941	-0.009252847
96	0xbc86e4f8	-0.016466603
97	0x3c1744be	0.009232698
98	0x3b3ca6ff	0.002878606
99	0xbca58c1a	-0.020208407
100	0x3b92627a	0.0044673057
101	0x3bc47562	0.0059954384
102	0xbac0d47d	-0.0014711764
103	0x3c28f918	0.010313295
104	0xbc2dc454	-0.01060589
105	0x3c2beac6	0.010492986
106	0x3cbf6049	0.023361342
107	0xbc9dc308	-0.019258037
108	0x3bf56eb4	0.0074900035
109	0x3bec47d0	0.007210709
110	0xbbb82c26	-0.0056204973
111	0xbc6f32dc	-0.014599528
112	0x3c1791b6	0.009251049
113	0x3c37ce74	0.011218656
114	0x3c786f64	0.015163276
115	0xbc3fc780	-0.011705279
116	0xbd096e07	-0.033552196
117	0xbc8b2818	-0.016986892
118	0xbd0bdc34	-0.03414555
119	0x3cc43514	0.02395109
120	0xbd10d4f6	-0.035359345
121	0x3c3ea79b	0.01163664
122	0xbcd33bf0	-0.025785416
123	0xbd041f1d	-0.032256234
124	0x3c231424	0.009953532
125	0xbcf8d7e8	-0.03037639
126	0xbce578ba	-0.028011668
127	0x3a9ff814	0.001220467
128	0xbd02d146	-0.03193786
129	0x3c9fc50c	0.019503139
130	0xbaace5a6	-0.0013190999
131	0xbbbfdf01	-0.0058554416
132	0x3cb4d3f5	0.022073725
133	0xbcaae6db	-0.020862034
134	0xbcbe4475	-0.023226002
135	0xbb536013	-0.003225331
136	0x3c59ebd1	0.013300852
137	0x39cb4b0d	0.00038775094
138	0x3c1a1df2	0.009406554
139	0xbd13f4f3	-0.036122274
140	0xbc404d02	-0.01173711
141	0xb9fa5bb8	-0.00047752052
142	0x3c291cd0	0.010321811
143	0xbcacaf46	-0.02107967
144	0xbcb41480	-0.021982431
145	0xbae30103	-0.0017319027
146	0xbc2578c0	-0.01009959
147	0xbc7fc1cd	-0.015610171
148	0x3c95cba7	0.018285586
149	0xbca987ba	-0.020694602
150	0x3c0c4657	0.008561692
151	0x3c969ff9	0.018386828
152	0xbcafac9f	-0.021444617
153	0x3c8ea06e	0.017410483
154	0x3bc2ca14	0.0059444997
155	0xbb859b89	-0.004077379
156	0xbd0d38d5	-0.034478027
157	0x3b8404f6	0.0040289117
158	0x3c9e6d0e	0.01933911
159	0xbc0f9620	-0.00876382
160	0x3c977e5a	0.018492866
161	0xbbcef296	-0.0063155396
162	0xbc59456f	-0.013261183
163	0xbc701f20	-0.014655858
164	0xbc058d5d	-0.008151379
165	0xbc9b33f8	-0.018945679
166	0xbbaeac1e	-0.0053305766
167	0xbbd1509e	-0.006387784
168	0xbd033861	-0.03203619
169	0xbca8adfb	-0.020590773
170	0x3cbacb8a	0.022802133
171	0xbbc0c107	-0.0058823857
172	0xbbc5df1e	-0.0060385605
173	0x3c1ab3fe	0.009442328
174	0x3c93507f	0.01798272
175	0xbd174a7a	-0.03693626
176	0xbd0fa5e4	-0.035070315
177	0xbc0ba2a0	-0.00852266
178	0xbc8d727f	-0.01726651
179	0xbd02a166	-0.031892203
180	0xbcf893fc	-0.030344002
181	0x3bcc307f	0.006231367
182	0x3c329a9d	0.0109011205
183	0xbc010f5e	-0.007877199
184	0xbb6e327e	-0.0036346014
185	0xbce56f79	-0.028007256
186	0xbcdfd113	-0.027321374
187	0xbd07af83	-0.033126365
188	0xbbf3c5c6	-0.007439348
189	0xbd121414	-0.03566368
190	0xbbd2c757	-0.0064324546
191	0x3c871e3d	0.01649391
192	0xbc90a12e	-0.017654981
193	0xbd041810	-0.03224951
194	0xbcc68807	-0.024234785
195	0x3c0f575b	0.0087488545
196	0xbcc4c371	-0.024018975
197	0xbcc0b444	-0.023523457
198	0xbcb45c4a	-0.022016663
199	0xbcb14654	-0.02163998
200	0x3c93fad1	0.018063935
201	0xbc811236	-0.015755754
202	0x3cbbedae	0.022940483
203	0x3c0e730e	0.008694423
204	0xbc2e93d5	-0.010655363
205	0xbd017e4d	-0.03161459
206	0x3c8c413b	0.017120948
207	0x3cac1923	0.02100808
208	0xbc221d03	-0.009894612
209	0x3c9e5cfe	0.019331452
210	0xbc3f731b	-0.011685158
211	0xbd085465	-0.03328361
212	0xbd10a96d	-0.035317827
213	0xbc84c5ee	-0.016207661
214	0x3b9576ce	0.0045612818
215	0x3c7ed20f	0.015553012
216	0x3cab22af	0.020890562
217	0x3cbe83f5	0.023256281
218	0x3bc44d6f	0.005990676
219	0xbd026ca0	-0.031841874
220	0x3bb77c6f	0.0055995504
221	0xbbf815cf	-0.007570959
222	0xbc546990	-0.012964621
223	0x3c9ceb25	0.019155094
224	0xbbdb1be5	-0.006686675
225	0xbcb49711	-0.02204469
226	0x3cb335a1	0.021876158
227	0x3c433f71	0.011916981
228	0xbacac1d3	-0.0015469141
229	0x3c9546fe	0.018222328
230	0xbcfa1c51	-0.03053108
231	0xbbd0df14	-0.0063742492
232	0xbd0510a8	-0.032486588
233	0xbb33ddd9	-0.0027445464
234	0x3b3f7cf1	0.0029218758
235	0xba898e53	-0.0010494686
236	0xbd03a9d3	-0.03214438
237	0xbcd78867	-0.026310159
238	0xbd0d5a1c	-0.034509763
239	0x3ca48eb0	0.02008757
240	0xbc9af6ec	-0.01891657
241	0x3c914f7f	0.017738102
242	0xbcfb1f7a	-0.030654658
243	0xba8f63de	-0.0010939797
244	0x3cb55cab	0.022138914
245	0xbc47b7ef	-0.012189849
246	0xbcdffa84	-0.027341135
247	0xbc23de40	-0.010001719
248	0x3b924bf6	0.0044646217
249	0xbc4156e1	-0.011800499
250	0x3b364ada	0.002781561
251	0xbb7efaf8	-0.0038906913
252	0xbcfea692	-0.031085286
253	0xbc28082d	-0.0102558555
254	0xbc949557	-0.018137617
255	0x3cafe920	0.021473467

fc1.bias f4 [128]
0	0x3c281665	0.0102592455
1	0xbc4f4d4d	-0.012652707
2	0x3e76319f	0.24042366
3	0x3ddd415c	0.10803482
4	0x3bddb699	0.006766152
5	0xbd2616c8	-0.04054907
6	0x3aa72306	0.0012751527
7	0xbd114c2f	-0.035473045
8	0xbc7ca29c	-0.0154196285
9	0x3b0d3815	0.002154832
10	0xbc1d90f4	-0.009617079
11	0x3dd4b9b4	0.103869826
12	0x3c5f8236	0.013641885
13	0xbd004b8d	-0.03132205
14	0xbd127513	-0.035756182
15	0x3bd13ea3	0.0063856407
16	0xbcce12a4	-0.025155373
17	0xbc93d720	-0.018046916
18	0xbcc3f451	-0.02392021
19	0xbd127cb7	-0.03576347
20	0xbdb450af	-0.08804452
21	0xbc5f82dd	-0.01364204
22	0x3ea593c9	0.32339314
23	0x3c934ac0	0.01797998
24	0x3cb2ca04	0.021824844
25	0x3e38fe6d	0.18065806
26	0xbca58cdf	-0.020208774
27	0x3d73c26b	0.059511583
28	0xbcc1162d	-0.023570145
29	0x3c367206	0.011135584
30	0xbcc47edb	-0.02398627
31	0xbd1258ae	-0.035729103
32	0x3c81ecf8	0.015860066
33	0x3b8b0b60	0.0042432994
34	0xbca689de	-0.020329412
35	0xbb929de3	-0.004474388
36	0x3ea1b074	0.31579936
37	0xbd0d905c	-0.0345615
38	0xbc4399ab	-0.011938493
39	0xbced9b3b	-0.029004684
40	0xbc2ba6f3	-0.0104768155
41	0xbc55e386	-0.013054734
42	0x3c265a10	0.0101533085
43	0x3b96a8dc	0.0045977663
44	0x3e24963f	0.1607294
45	0xbcb40da9	-0.02197917
46	0xbc67c1c5	-0.014145319
47	0xbba7f94e	-0.005126155
48	0x3c07471c	0.0082567
49	0xbabed34e	-0.0014558823
50	0xbccde5a3	-0.025133913
51	0xbc81c4b0	-0.015840858
52	0xbbeadb4c	-0.0071672555
53	0xbb970e4a	-0.0046098577
54	0x3e734bd0	0.23759389
55	0xbcfb6ab9	-0.030690538
56	0xbd09f01c	-0.03367625
57	0x3cb8e7ff	0.022571562
58	0x3cb3d782	0.021953348
59	0x3d806be2	0.06270577
60	0x3e05316f	0.13007139
61	0x3adac6c3	0.0016691316
62	0x3e2e2be1	0.17008926
63	0xbceacc97	-0.02866201
64	0x3aef6113	0.0018263183
65	0x3de90067	0.1137703
66	0x3bdb2297	0.006687473
67	0xbd00b4ea	-0.031422533
68	0x3c95b144	0.018273003
69	0x3c05a606	0.008157259
70	0x3c93b8a3	0.018032378
71	0x3d833533	0.06406631
72	0xbd138bd1	-0.03602201
73	0xbd2a582d	-0.041587997
74	0xbc9bed84	-0.019034155
75	0x3d815056	0.06314151
76	0xbc719f28	-0.014747418
77	0xbc872244	-0.016495831
78	0x3be2abff	0.006917476
79	0xbc383153	-0.011242229
80	0x3e1d92d1	0.15388037
81	0x3d655be8	0.05599585
82	0xbccc4679	-0.024935948
83	0xbc406d5a	-0.011744821
84	0xbd10f7f9	-0.035392735
85	0x3c21269b	0.009835864
86	0xbba4f50f	-0.005034096
87	0xbcd46ccf	-0.02593079
88	0x3c0a344b	0.008435319
89	0xbcefb800	-0.029262543
90	0xbbb66ec4	-0.0055674035
91	0x3e1875c7	0.14888678
92	0xbd0fde52	-0.03512413
93	0xbb8792bb	-0.0041373647
94	0xbc3dcd67	-0.011584616
95	0xbcc10b19	-0.023564862
96	0xbce0deb5	-0.027449945
97	0xbcfa78db	-0.030575207
98	0x3d4ae212	0.049532004
99	0xbc98c150	-0.018646866
100	0x3e99c354	0.30031836
101	0x3de1d05c	0.110260695
102	0xbd0dea81	-0.03464747
103	0xbc0f7ffb	-0.00875854
104	0xbcd2d6b2	-0.02573714
105	0xbd106bb3	-0.03525896
106	0xbc06141a	-0.0081835035
107	0xbd4e8edf	-0.05042922
108	0x3e914e07	0.28379843
109	0xbd0d286d	-0.03446238
110	0x3e89cbf3	0.26913413
111	0xbcee090f	-0.029057054
112	0xbdd739f4	-0.105091006
113	0x3c027fd8	0.007965051
114	0xbd3e71ed	-0.046495367
115	0xbc8711dd	-0.01648801
116	0x3e1abf6d	0.15112086
117	0x3c97d82f	0.018535702
118	0xbae9d285	-0.0017839229
119	0xbd14d0c4	-0.036331907
120	0x3ea099c6	0.3136732
121	0x3cc8013d	0.024414653
122	0x3c927d57	0.017882032
123	0x3e3b76cd	0.18307038
124	0x3b830dba	0.003999439
125	0xbc9004e6	-0.01758046
126	0xbc9cf311	-0.019158872
127	0x3e7d67ec	0.24746674

fc2.weight f4 [4, 128]
0	0xbd5d8c3b	-0.054088812
1	0xbd2694f8	-0.04066941
2	0x3d424660	0.047430396
3	0xbf6ef91b	-0.93348855
4	0xbd73c92f	-0.059518036
5	0x3ce3aeee	0.027793374
6	0x3d05f8aa	0.032707848
7	0x3bfa2fbe	0.007635086
8	0x3d832b0e	0.064046964
9	0xbda36dc7	-0.07979923
10	0x3c83c017	0.016082807
11	0x3f095269	0.5364137
12	0xbd175ed5	-0.036955673
13	0xbc86b4b8	-0.016443595
14	0x3e9b7307	0.30361196
15	0x3d15ce23	0.03657354
16	0x3cb1a90a	0.02168705
17	0x3caf9c8c	0.021436952
18	0x3d64d2ec	0.055865213
19	0x3c981591	0.018564971
20	0xbd270521	-0.040776376
21	0xbd7a968f	-0.06117874
22	0xbf771b04	-0.965256
23	0x3d53a1d0	0.05166799
24	0xbcc7ccd5	-0.024389664
25	0x3e948569	0.29008034
26	0xbcb6e826	-0.022327494
27	0x3f07f165	0.53102714
28	0xbada4499	-0.0016652524
29	0xbd93159c	-0.07181856
30	0xbccb7421	-0.024835648
31	0x3c721a0c	0.014776718
32	0x3c49ccca	0.012316892
33	0x3bc4baad	0.006003699
34	0x3c9e4437	0.019319637
35	0xbde1f003	-0.11032107
36	0x3ee7ef52	0.45299774
37	0xbce0d56a	-0.027445514
38	0xbd66587a	-0.05623672
39	0xbd247e39	-0.040159438
40	0xbd890075	-0.0668954
41	0xbc343108	-0.010998018
42	0x3d4aaac8	0.049479276
43	0x3d828402	0.06372835
44	0xbf561198	-0.83620596
45	0xbcb45b76	-0.022016268
46	0x3d9dc73e	0.07704018
47	0xbd1cfadc	-0.038325176
48	0xbd8f4ad4	-0.06996694
49	0x3b860a14	0.004090557
50	0xbd4ddcbd	-0.05025934
51	0xbd91e892	-0.071244374
52	0x3cac7c58	0.021055385
53	0xbd7f091d	-0.06226455
54	0x3f60be53	0.8779041
55	0xbcb01258	-0.021493122
56	0xbb5e4269	-0.0033914095
57	0x3bdd95f8	0.0067622624
58	0xbda70f7c	-0.0815725
59	0x3ea07218	0.31337047
60	0x3f3ad203	0.729767
61	0x3c9ea110	0.01936391
62	0xbf5af39f	-0.85527986
63	0xbd2bb769	-0.04192296
64	0xbc22a29a	-0.009926463
65	0x3ebf21b4	0.373304
66	0xbd9807e0	-0.07423377
67	0xbd0ff10b	-0.035141986
68	0xbc856e8d	-0.016288066
69	0xbd7a6ae3	-0.06113709
70	0xbce23478	-0.02761291
71	0xbf439bef	-0.7640981
72	0x3d06c88c	0.0329061
73	0x3d5e56bf	0.054281946
74	0x3d7d9cdf	0.061917182
75	0x3e4d4075	0.2004412
76	0xbd76e848	-0.060280114
77	0x3d8ad7c0	0.06779432
78	0x3d87ea18	0.06636447
79	0xbd9bad63	-0.0760143
80	0xbf0db3ef	-0.5535268
81	0xbe0d032a	-0.13770738
82	0xbd2e62f3	-0.042574834
83	0x3e39a9c6	0.1813117
84	0xbc6eab6c	-0.014567237
85	0x3c887a7d	0.01665997
86	0xbd53feec	-0.051756784
87	0x3cc23209	0.0237055
88	0xbd4e1ed4	-0.05032237
89	0x3da1b2dd	0.078954436
90	0x3d4bf959	0.049798343
91	0x3f41c0e9	0.7568498
92	0xbd00795f	-0.03136575
93	0xbd845272	-0.06461038
94	0xbe0c5186	-0.13702974
95	0xbc820426	-0.015871119
96	0xbcab60fe	-0.020920273
97	0xbd85dbd8	-0.065360725
98	0x3db06a5c	0.086140364
99	0x3b60d40e	0.0034306082
100	0x3f159de4	0.58444047
101	0x3e6735f0	0.2257917
102	0x3c3cea3e	0.011530457
103	0x3bc7a619	0.0060927984
104	0x3ccab5a7	0.024744822
105	0xbcfb8831	-0.03070459
106	0xbda9cae6	-0.08290653
107	0x3d82d618	0.063884914
108	0xbfb3c4fe	-1.4044492
109	0x3d380641	0.04492784
110	0xbe54955c	-0.20760101
111	0x3d73325d	0.059374202
112	0x3e0b37dd	0.13595529
113	0xbcf57c28	-0.029966429
114	0xbf4dfea5	-0.8046668
115	0xbd403282	-0.046923168
116	0x3f09cf18	0.53831625
117	0x3f02baa5	0.51066047
118	0x3d09644a	0.03354291
119	0xbc7d8509	-0.015473613
120	0x3e5d9806	0.21640024
121	0xbda72f6b	-0.08163341
122	0xbd9757db	-0.07389804
123	0x3f8034c0	1.0016098
124	0xbd9b7bbb	-0.07591959
125	0xbd076e53	-0.033064198
126	0xbd494cf6	-0.04914566
127	0xbf83ce17	-1.0297269
128	0xbd870caa	-0.06594212
129	0xbd00d16c	-0.03144972
130	0x3f28203f	0.65674204
131	0x3f141f72	0.5786048
132	0xbcd42a9c	-0.025899224
133	0xbd47db63	-0.048793208
134	0xbd354305	-0.044253368
135	0xbd585766	-0.052817725
136	0x3cd1fd21	0.025633397
137	0xb98a42bd	-0.00026371135
138	0x3cca0a75	0.02466319
139	0xbf7d9168	-0.9905
140	0x3d178891	0.036995474
141	0xbd7bab71	-0.061442796
142	0xbf69d03d	-0.9133337
143	0x3d7dfac5	0.06200673
144	0xbd2dd22a	-0.042436756
145	0x3c92ef8c	0.01793649
146	0x3e9d8993	0.30769023
147	0x3ce6fc94	0.02819661
148	0x3c1f1db8	0.009711675
149	0x3ca2d5df	0.019877372
150	0xbe7afe80	-0.24511147
151	0x3d39b1fb	0.04533575
152	0x3b873100	0.0041257143
153	0x3f329ed9	0.6977363
154	0x3cacb234	0.021081068
155	0xbfb7a9e7	-1.4348725
156	0xbcf9afb7	-0.030479295
157	0x3d95b683	0.07310202
158	0x3c7fad2c	0.015605252
159	0x3c0a3f4f	0.0084379455
160	0xbd95bdcd	-0.07311592
161	0x3c5d4800	0.013505936
162	0x3d9019f6	0.07036202
163	0xbcc21c5d	-0.023695165
164	0xbe3e2646	-0.18569288
165	0x3cc51c15	0.024061242
166	0xbd7922b0	-0.060824096
167	0xbd6dc668	-0.058050543
168	0x3c83afe7	0.016075088
169	0xbcfb8ddd	-0.030707294
170	0x3d458832	0.04822559
171	0xbd29cc5a	-0.04145465
172	0x3eeb826b	0.4599794
173	0x3a7ae914	0.00095714745
174	0xbd0ce2f1	-0.034396116
175	0xbd6a8c53	-0.05726273
176	0x3d8f2d29	0.069910355
177	0x3d5b25ef	0.053502973
178	0xbd6da333	-0.058016967
179	0xbd886242	-0.06659366
180	0x3c989689	0.018626468
181	0x3c3bede7	0.011470295
182	0x3cdf66f2	0.027270768
183	0xbd1ae807	-0.037818935
184	0x3cb88951	0.022526415
185	0x3d403411	0.046924654
186	0x3d8f0ea0	0.06985211
187	0xbf604fe3	-0.876219
188	0xbd906838	-0.07051128
189	0x3d433e93	0.047667097
190	0x3e162a67	0.14664613
191	0xbc7b474e	-0.015336825
192	0x3d57fe48	0.052732736
193	0xbf9f147a	-1.2428124
194	0xbd5b8cc1	-0.05360103
195	0xbd702b27	-0.058634903
196	0x3c826920	0.015919268
197	0x3d56c76e	0.052436285
198	0xbbf9bc63	-0.0076213344
199	0x3e8a7b81	0.2704735
200	0x3d1a136c	0.03761618
201	0xbe3e5c78	-0.18589962
202	0x3d7264e1	0.059178237
203	0xbf93bac2	-1.1541369
204	0x3c894c7d	0.016760105
205	0x3b9856e5	0.0046490305
206	0x3c84c49b	0.01620703
207	0x3d6dda55	0.058069546
208	0xbf409347	-0.7522473
209	0xbf9b93be	-1.2154462
210	0xbd2b7c86	-0.0418668
211	0xbf4d1a4f	-0.8011827
212	0x3d8239fc	0.06358716
213	0xbd79e389	-0.06100801
214	0x3d1f9453	0.038959812
215	0xbc8788af	-0.016544668
216	0xbd22ccf8	-0.039746255
217	0x3d0f9b44	0.035060182
218	0xbd9f0fe4	-0.07766703
219	0xbf495d18	-0.78657675
220	0xbd22544b	-0.03963117
221	0x3cd6c0f5	0.026215056
222	0x3f1e7e79	0.6191173
223	0x3c8c3a8a	0.017117757
224	0x3da805c3	0.08204224
225	0x3d74347a	0.059620358
226	0x3f0dc12d	0.5537289
227	0x3d54b1b4	0.051927283
228	0x3dbe925f	0.09305262
229	0x3ee18cb1	0.44052652
230	0xbcd38669	-0.025820928
231	0xba81f57c	-0.0009915079
232	0x3b2a0d78	0.002594797
233	0x3d84ee24	0.06490734
234	0x3d665231	0.056230728
235	0xbc04d834	-0.0081081875
236	0x3dc78f59	0.09744138
237	0xbd57ad29	-0.052655373
238	0x3ef67607	0.48136923
239	0xbc6f0474	-0.014588464
240	0x3d756089	0.059906516
241	0x3af55b25	0.001871918
242	0x3f4bd6e2	0.7962476
243	0x3cea9f23	0.028640335
244	0xbd8fde80	-0.070248604
245	0xbf2cd945	-0.67519027
246	0x3d07b9e4	0.033136263
247	0xbd74a992	-0.059732027
248	0xbca32842	-0.019916657
249	0xbd88c100	-0.06677437
250	0xbd048558	-0.03235373
251	0xbf65c6cd	-0.8975647
252	0xbd9afb04	-0.07567409
253	0x3c90467d	0.017611736
254	0xbd0eacaa	-0.034832634
255	0xbf17a66b	-0.5923831

fc2.bias f4 [4]
0	0xba240990	-0.00062575284
1	0x3d3cfe41	0.046140913
2	0xbe2634b9	-0.1623105
3	0x3c080702	0.008302452
