cnn saved models/cnn_epoch16.pt (torch, 609343 bytes, 16 tensors)

conv1.weight f4 [32, 1, 3, 3]
0.33885282 0.36882478 -0.23141567 -0.37907276 -0.30640468 -0.22312398 0.058497958 0.0048464467
0.32720074 0.71864355 -0.22808523 0.43190542 -0.13518573 -0.13036215 -0.25607905 0.045650024
0.2977794 -0.11258904 0.09780007 0.027574465 0.38490352 -0.27426565 -0.51324046 0.086160995
0.25190517 0.2944177 -0.36717463 -0.07339687 0.39067593 0.2633663 0.070198536 -0.25083992
-0.48804262 -0.12256682 0.28534073 -0.14501612 -0.096728176 -0.2068467 0.2221795 -0.31391504
0.22795722 0.12926224 0.32533273 0.10657755 -0.3207318 0.1432478 -0.3859773 -0.51569617
0.13983543 0.27214167 -0.09075765 -0.30070135 -0.07984199 -0.5437082 0.14614105 -0.22464009
-0.276472 0.13474181 0.29234242 0.4287363 -0.4242031 0.037191145 -0.07065807 0.37051007
-0.29827195 -0.34130028 0.3124578 -0.1098629 -0.3631586 0.27825156 -0.03458293 0.17046422
0.08400755 -0.110532716 -0.7450573 -0.02954274 0.007874301 0.054686915 0.26814792 0.13180514
-0.006358217 0.23625769 -0.33183777 0.47861886 -0.26839367 -0.08003407 -0.49015087 0.23479846
0.15574734 -0.1071744 -0.027918924 -0.24781874 -0.07148334 -0.27002734 0.10503062 -0.4645341
0.30654722 0.3719275 -0.023736265 -0.18734583 0.23175137 -0.16774826 0.11155078 0.25372303
-0.19883591 0.47979662 -0.1954367 -0.24147278 0.47119778 0.15275408 0.009087993 0.19753008
-0.21156807 -0.17284817 -0.22816844 -0.07830827 -0.26782987 -0.4555442 -0.010062293 -0.4170054
-0.25237244 0.12713896 0.04705217 0.0055366294 0.15461434 0.3676235 0.39988455 -0.38978672
-0.061479002 0.2567273 0.17297946 -0.47382152 0.3628854 0.06374568 -0.39976996 0.017078193
-0.014400793 -0.57963353 0.11238211 -0.36606637 -0.09849817 0.54105717 0.12853566 -0.12678647
0.31524858 0.16467258 -0.37566215 -0.10054539 -0.18519853 0.42668644 -0.46132183 0.40848723
-0.078577824 -0.22718318 -0.021462481 0.117923915 0.07592432 -0.5226236 -0.3925709 0.21191627
0.38231024 0.32337156 0.15195864 0.44162932 0.11461797 0.22029108 -0.21425639 -0.098435566
-0.07936132 -0.3895452 -0.0005187551 0.39002708 0.23540895 0.030480744 -0.6070749 -0.4376227
0.04678321 0.18144074 0.13532397 0.2199343 0.05555347 -0.4725016 0.41595146 -0.32421824
-0.14085664 0.22308385 -0.1544792 -0.014117191 0.23165374 -0.3502804 0.32123744 0.4182169
0.15219021 -0.10148607 -0.18027845 0.17462806 -0.07275839 -0.42377168 0.13201568 -0.18269096
-0.20605718 0.411777 -0.09935727 -0.13779344 -0.4884228 0.29734197 0.34357494 -0.18837366
-0.028695371 0.06304217 -0.061729353 -0.24805953 0.33021647 -0.39163935 -0.020197103 0.46388245
-0.35448772 -0.10602731 0.32338104 -0.46350715 -0.08483696 0.2662445 0.028587077 0.35322413
0.038138673 0.2043737 -0.29080227 0.056679226 0.2876382 -0.64375985 0.3471794 0.1674682
-0.39729998 0.23406951 0.11230899 -0.5155886 -0.29281995 0.2323922 -0.4160377 -0.17702293
-0.12139833 0.40483648 0.14166006 -0.5149178 -0.38395092 0.17458466 0.10373542 -0.010428527
-0.07478511 0.19098836 -0.121305734 0.34767172 -0.30086192 0.27217174 0.50353825 -0.36028707
00000000: 1e7e ad3e 9ad6 bc3e 3bf8 6cbe d315 c2be
00000010: 13e1 9cbe 9d7a 64be 8e9b 6f3d f1ce 9e3b
00000020: db86 a73e 06f9 373f 2d8f 69be b522 dd3e
00000030: 216e 0abe a87d 05be cb1c 83be 85fb 3a3d
00000040: 8b76 983e 1595 e6bd 674b c83d d8e3 e13c
00000050: 1312 c53e 8c6c 8cbe ba63 03bf 2d75 b03d
00000060: b7f9 803e ebbd 963e 50fe bbbe 1951 96bd
00000070: ad06 c83e f3d7 863e 40c4 8f3d 176e 80be
00000080: b9e0 f9be 5004 fbbd 2e18 923e 1b7f 14be
00000090: 6c19 c6bd 9fcf 53be 0683 633e 79b9 a0be
000000a0: 9e6d 693e 525d 043e 0392 a63e 5545 da3d
000000b0: f536 a4be 8daf 123e d19e c5be aa04 04bf
000000c0: 0531 0f3e 2756 8b3e 26df b9bd 87f5 99be
000000d0: 3284 a3bd 7630 0bbf 00a6 153e 0d08 66be
000000e0: bd8d 8dbe c2f9 093e e8ad 953e 5383 db3e
000000f0: 2631 d9be be55 183d 2eb5 90bd 7fb3 bd3e
00000100: 1ab7 98be e9be aebe 78fa 9f3e cdff e0bd
00000110: edef b9be fd76 8e3e d5a6 0dbd 2c8e 2e3e
00000120: 260c ac3d fa5e e2bd 13bc 3ebf 9e03 f2bc
00000130: 3603 013c 63ff 5f3d af4a 893e edf7 063e
00000140: 9758 d0bb 89ed 713e a4e6 a9be 880d f53e
00000150: e56a 89be e7e8 a3bd 0ef5 fabe 026f 703e
00000160: 3b7c 1f3e 407e dbbd 3ab6 e4bc 32c4 7dbe
00000170: db65 92bd 0641 8abe 4b1a d73d 6ad7 edbe
00000180: c2f3 9c3e 486d be3e 8e72 c2bc 96d7 3fbe
00000190: 3b50 6d3e 33c6 2bbe bc74 e43d fce7 813e
000001a0: a49b 4bbe e7a7 f53e 8f20 48be a444 77be
000001b0: d640 f13e 916b 1c3e cee5 143c 5345 4a3e
000001c0: 4da5 58be 1cff 30be fda4 69be 1660 a0bd
000001d0: ff20 89be 173d e9be 51dc 24bc bb81 d5be
000001e0: f636 81be b730 023e c7b9 403d 9d6c b53b
000001f0: 3953 1e3e 2639 bc3e abbd cc3e 2092 c7be
00000200: 68d1 7bbd c371 833e 8721 313e bc98 f2be
00000210: 1dcc b93e 188d 823d a6ae ccbe 91e7 8b3c
00000220: 4ef1 6bbc dd62 14bf 9728 e63d 0d6d bbbe
00000230: 69b9 c9bd b982 0a3f da9e 033e 50d4 01be
00000240: 4368 a13e ee9f 283e ca56 c0be beea cdbd
00000250: afa4 3dbe a576 da3e 6032 ecbe 3d25 d13e
00000260: 69ed a0bd b5a2 68be 16d2 afbc 1882 f13d
00000270: 367e 9b3d a9ca 05bf 0eff c8be 9400 593e
00000280: 2bbe c33e f590 a53e 0c9b 1b3e 3d1d e23e
00000290: d4bc ea3d fc93 613e 0766 5bbe 9698 c9bd
000002a0: 3088 a2bd 7872 c7be 11fd 07ba a1b1 c73e
000002b0: 0b0f 713e c1b2 f93c 4369 1bbf 1510 e0be
000002c0: c09f 3f3d 9acb 393e 5e92 0a3e 7536 613e
000002d0: 098c 633d bbeb f1be 97f7 d43e efff a5be
000002e0: b93c 10be 1870 643e cc2f 1ebe ca4b 67bc
000002f0: a336 6d3e f457 b3be 3c79 a43e 8720 d63e
00000300: c0d7 1b3e eed7 cfbd ea9a 38be b3d1 323e
00000310: 5a02 95bd 9af8 d8be 1e2f 073e 5713 3bbe
00000320: a700 53be 6fd4 d23e d37b cbbd b919 0dbe
00000330: 8e12 fabe 353d 983e 0ee9 af3e 06e5 40be
00000340: 8e12 ebbc 411c 813d ebd7 7cbd 5103 7ebe
00000350: 2212 a93e f484 c8be 6574 a5bc 0082 ed3e
00000360: 6a7f b5be d924 d9bd 3392 a53e cf50 edbe
00000370: 00bf adbd 3351 883e 722f ea3c cbd9 b43e
00000380: 4c37 1c3d 5747 513e 09e4 94be 7a28 683d
00000390: 5045 933e 72cd 24bf 80c1 b13e c97c 2b3e
000003a0: e76a cbbe ebaf 6f3e 4102 e63d 9dfd 03bf
000003b0: 7fec 95be 39f8 6d3e e502 d5be 8045 35be
000003c0: b09f f8bd ba46 cf3e 560f 113e a7d1 03bf
000003d0: 3795 c4be 52c6 323e 3c73 d43d 6adc 2abc
000003e0: f028 99bd 7492 433e 246f f8bd 0702 b23e
000003f0: 930a 9abe 185a 8b3e e2e7 003f 8c77 b8be

conv1.bias f4 [32]
0.32698804 0.29660484 0.07578472 -0.39052826 0.6286959 0.43466192 0.12090513 0.11022023
0.35021862 0.22793502 0.1785013 0.64715534 0.3894416 0.29521742 -0.27970842 -0.10046312
-0.00015300754 0.46890816 -0.861043 0.1733487 0.2059993 -0.16677776 0.28555062 -0.120243944
0.6387441 -0.33452716 0.025015444 -0.010975606 0.11814183 0.015777484 -0.38441223 -0.04039386
00000000: fa6a a73e 97dc 973e 0535 9b3d 52f3 c7be
00000010: 37f2 203f 028c de3e 1c9d f73d 25bb e13d
00000020: db4f b33e cc67 693e 0bc9 363e f9ab 253f
00000030: e464 c73e bd26 973e f135 8fbe 9cbf cdbd
00000040: a670 20b9 bb14 f03e 506d 5cbf 5282 313e
00000050: 7bf1 523e cac7 2abe b133 923e 7542 f6bd
00000060: bc84 233f 2547 abbe 30ed cc3c 07d3 33bc
00000070: 58f4 f13d c83f 813c aed1 c4be 0874 25bd

BN1.weight f4 [32]
1.3421425 0.40605262 1.1732318 0.8682402 0.90783304 0.74958235 1.0997095 0.7201289
0.94993514 1.3081838 0.8785641 0.42534986 0.9728783 0.86894095 0.6885089 1.0274034
0.85782576 0.40260848 0.6892686 0.7906141 0.9909925 0.9287573 1.07139 0.4833586
0.6015532 1.2543333 1.1775237 0.7551077 0.9964203 0.6250555 0.8857662 0.8859005
00000000: 53cb ab3f 21e6 cf3e 762c 963f fd44 5e3f
00000010: bf67 683f a1e4 3f3f 48c3 8c3f 5e5a 383f
00000020: f32e 733f 9172 a73f 94e9 603f 75c7 d93e
00000030: 8d0e 793f ea72 5e3f 1f42 303f f481 833f
00000040: 789a 5b3f b322 ce3e e873 303f b065 4a3f
00000050: afb1 7d3f 0ac3 6d3f 4f23 893f c77a f73e
00000060: 64ff 193f fe8d a03f 19b9 963f bd4e 413f
00000070: 6715 7f3f a303 203f 93c1 623f 60ca 623f

BN1.bias f4 [32]
-0.42601398 -0.16733412 -0.22998175 -0.07939974 -1.0797298 -0.3520499 -0.10223006 -0.11849706
-0.5536216 -0.7161214 -0.43941286 -0.15626994 -0.021641139 -0.4454591 -0.10778519 -0.76330644
-0.88079524 -0.07104832 -0.5912058 -0.61143935 -0.52306837 -0.4553346 -1.2432033 -0.034971688
-0.07588104 -0.35042292 -0.80081654 -0.07284274 -0.0647293 -0.056099895 -0.68890965 -0.16657355
00000000: 811e dabe a359 2bbe 5680 6bbe 559c a2bd
00000010: 9634 8abf e23f b4be fe5d d1bd 96ae f2bd
00000020: 25ba 0dbf bb53 37bf b9fa e0be 3a05 20be
00000030: c248 b1bc 3713 e4be 7bbe dcbd 0d68 43bf
00000040: cc7b 61bf c881 91bd 4359 17bf 4a87 1cbf
00000050: cfe7 05bf 9e21 e9be 4921 9fbf 793e 0fbd
00000060: 8567 9bbd a26a b3be 5002 4dbf 932e 95bd
00000070: cc90 84bd 01c9 65bd 625c 30bf 4292 2abe

BN1.running_mean f4 [32]
0.31597415 0.403687 0.07013588 -0.4040873 0.642232 0.20020899 0.13114846 0.1060515
0.29154056 0.1947872 0.120992504 0.6641593 0.36670303 0.2205399 -0.29146793 -0.16851182
0.021585165 0.45524287 -0.8365879 0.20275381 0.1719486 -0.17750639 0.29829696 -0.13632236
0.6371161 -0.34386858 -0.087151684 -0.06259115 0.09202364 -0.03602689 -0.38283458 -0.06884802
00000000: 5dc7 a13e 10b0 ce3e 66a3 8f3d 88e4 cebe
00000010: 5169 243f 9603 4d3e c84b 063e 8731 d93d
00000020: ce44 953e 4c76 473e ebca f73d 5806 2a3f
00000030: 80c0 bb3e 36d5 613e 493b 95be 5d8e 2cbe
00000040: 5fd3 b03c 9815 e93e a02a 56bf b29e 4f3e
00000050: 4b13 303e 3cc4 35be 61ba 983e 1798 0bbe
00000060: 0a1a 233f 8b0f b0be 957c b2bd ca2f 80bd
00000070: e476 bc3d ef90 13bd e502 c4be 3100 8dbd

BN1.running_var f4 [32]
0.003919021 0.01730427 0.0029634018 0.004170323 0.0008098387 0.06807303 0.0034765347 0.0051794336
0.0126176 0.0047461907 0.012142478 0.0016685979 0.009772958 0.018503523 0.0037434876 0.015291692
0.0015275131 0.009765956 0.008851338 0.0051798755 0.0032492548 0.0036741942 0.0017857476 0.0024898879
0.00421201 0.0014716815 0.023929708 0.010822107 0.009171689 0.009009922 0.00018835251 0.01678354
00000000: 226b 803b afc1 8d3c a235 423b 34a7 883b
00000010: 5b4b 543a df69 8b3d 93d6 633b 3db8 a93b
00000020: 0dba 4e3c ef85 9b3b 3ef1 463c dbb4 da3a
00000030: c21e 203c b394 973c 4d55 753b 018a 7a3c
00000040: d636 c83a 6301 203c 3405 113c f2bb a93b
00000050: 73f1 543b c0ca 703b bf0f ea3a 632d 233b
00000060: e704 8a3b 70e5 c03a 3c08 c43c 354f 313c
00000070: da44 163c 5a9e 133c 7e80 4539 a27d 893c

conv2.weight f4 [64, 32, 3, 3]
-0.113261476 0.1974348 -0.04667814 -0.022859985 0.0050627855 -0.24724787 -0.055975854 0.06936077
-0.10919701 -0.000910642 0.051771477 0.091121405 -0.3059817 -0.3781685 -0.3361185 0.23612459
0.20293812 0.24152032 -0.002383003 0.04578525 0.095039636 -0.11953088 -0.040988147 -0.043112032
-0.07319729 -0.09078637 0.08279589 -0.26130754 0.050033927 0.22496592 -0.4594861 0.029931715
-0.16604987 0.013239784 0.3145677 0.17357829 0.30933452 -0.24127594 -0.19474456 0.006785428
-0.23708035 -0.16289045 -0.08725131 -0.19517131 -0.16168147 -0.26331234 -0.058553543 -0.17840551
-0.260696 -0.1077403 -0.15193737 0.18416232 0.22605619 0.23763359 -0.05687898 -0.111357935
-0.18803631 0.034935728 0.113550425 0.22957148 -0.23596977 -0.25106254 -0.18404627 -0.025020327
0.1175153 0.07888273 -0.10047107 -0.051479798 -0.27545553 0.18459825 0.17015696 0.22624755
-0.25127313 -0.03970744 -0.18621436 -0.17378569 0.0819716 -0.18743953 0.17976122 0.1815906
-0.019867847 -0.48073176 -0.60835505 -0.5753343 0.28284445 0.21453376 0.10448027 -0.40666816
-0.4731676 -0.5755886 0.38037115 0.27036533 0.20343521 -0.10682943 -0.06890924 -0.2351597
0.054486606 0.034490656 -0.0062778667 -0.006977534 0.07241445 -0.009786894 -0.1192993 -0.0278629
-0.23185465 0.25853968 0.053078588 -0.10246156 0.18226275 0.18579866 -0.034495115 0.15704219
-0.05496246 -0.6228477 -0.07386934 0.14940391 0.22917095 0.05753513 -0.018507548 -0.19435088
-0.13131553 0.066549204 -0.21059763 -0.07312784 0.017788608 0.036203757 -0.011669955 0.021293564
-0.038904205 0.04344004 -0.009924239 -0.40150476 -0.046921074 0.020427575 -0.1976466 -0.4430739
-0.17693062 -0.5974542 -0.010253449 0.035258573 0.0017716272 0.232473 0.045382854 -0.2822297
-0.53472215 -0.3677842 -0.40100628 0.25882363 0.23673838 0.08924558 -0.13678107 -0.1170461
0.2917019 0.43083718 0.3127915 0.41897744 -0.08421884 -0.0696008 0.03578937 0.0726733
0.1029598 0.1522999 -0.2903648 -0.17093974 0.13797137 0.07788108 -0.31963927 -0.47833863
0.16425386 0.17331891 0.23626564 -0.340324 -0.09466082 -0.06863012 -0.026249653 -0.10392427
-0.21075125 0.20270336 0.143203 0.31603253 0.45109445 0.21179521 0.012369518 -0.22674157
-0.05923522 -0.2638174 -0.2951979 0.04386421 -0.35082442 -0.15591691 -0.029743347 0.24019773
-0.44644278 -0.32239607 -0.4152486 -0.104276165 0.23096667 0.19044618 -0.12246946 0.0574861
0.13724957 0.18365613 0.03802641 -0.023357153 -0.0984831 -0.16481932 0.043705422 0.20496646
0.10787562 0.1889702 -0.098198034 -0.010324034 -0.11463075 -0.28867492 -0.026573105 -0.25115335
0.2041954 0.010128208 0.22430083 -0.18011908 -0.18827103 -0.15345198 -0.014115302 0.12265337
0.27014017 0.15421593 0.0135039175 0.019436756 0.043417368 -0.040670387 0.049601704 -0.30521384
-0.42932767 -0.55323786 -0.9057829 -0.9950932 -1.0365471 -0.1222172 -0.07338543 -0.059669584
-0.32805547 -0.45719424 -0.47206268 0.0735917 -0.16357952 -0.4681899 -0.20482218 -0.17059626
-0.08401381 0.10191133 0.18278812 0.22072174 0.21492445 0.1941541 0.58790964 -0.07028152
00000000: a2f5 e7bd 592c 4a3e 9431 3fbd dd44 bbbc
00000010: b9e5 a53b 8c2e 7dbe f046 65bd 050d 8e3d
00000020: afa2 dfbd 26b8 6eba 540e 543d dc9d ba3d
00000030: a2a9 9cbe 4d9f c1be b917 acbe a5ca 713e
00000040: 03cf 4f3e 1a51 773e 282c 1cbb 5089 3b3d
00000050: 24a4 c23d 9bcc f4bd 30e3 27bd 3e96 30bd
00000060: 76e8 95bd 34ee b9bd e490 a93d 1aca 85be
00000070: 60f0 4c3d 775d 663e c341 ebbe 5b33 f53c
00000080: fa08 2abe aeeb 583c 040f a13e 82be 313e
00000090: 1861 9e3e 0a11 77be 1e6b 47be 4c58 de3b
000000a0: 31c5 72be c1cc 26be d1b0 b2bd fdda 47be
000000b0: d48f 25be e0d0 86be d7d5 6fbd efaf 36be
000000c0: f279 85be f2a6 dcbd 7895 1bbe 0c95 3c3e
000000d0: 467b 673e 3856 733e eff9 68bd a10f e4bd
000000e0: 978c 40be c418 0f3d 208d e83d c914 6b3e
000000f0: 0fa2 71be 458b 80be a076 3cbe 6ef7 ccbc
00000100: ddab f03d 458d a13d c7c3 cdbd 7bdc 52bd
00000110: 8208 8dbe 5307 3d3e a03d 2e3e 70ad 673e
00000120: dfa6 80be 45a4 22bd faae 3ebe e0f4 31be
00000130: bae0 a73d 26f0 3fbe 5313 383e e3f2 393e
00000140: e5c1 a2bc 7922 f6be 28bd 1bbf 1c49 13bf
00000150: fdd0 903e bdae 5b3e c0f9 d53d cf36 d0be
00000160: 0643 f2be c659 13bf 02c0 c23e 536d 8a3e
00000170: 5251 503e 63c9 dabd 4a20 8dbd b4cd 70be
00000180: 592d 5f3d 1346 0d3d 90b6 cdbb cca3 e4bb
00000190: 074e 943d 3559 20bc 3153 f4bd bd40 e4bc
000001a0: 4e6b 6dbe 505f 843e ef68 593d 5ed7 d1bd
000001b0: 16a3 3a3e 0142 3e3e c04a 0dbd abcf 203e
000001c0: 5120 61bd f272 1fbf cf48 97bd 57fd 183e
000001d0: caab 6a3e f5a9 6b3d 249d 97bc eb03 47be
000001e0: 9477 06be f34a 883d e8a6 57be 0dc4 95bd
000001f0: 6ab9 913c 644a 143d 5733 3fbc d76f ae3c
00000200: 045a 1fbd 2fee 313d 4699 22bc 0892 cdbe
00000210: 5030 40bd bb57 a73c df63 4abe 95da e2be
00000220: 4d2d 35be c2f2 18bf 15fe 27bc 4b6b 103d
00000230: f235 e83a 670d 6e3e 5fe3 393d 6980 90be
00000240: 8de3 08bf 364e bcbe b250 cdbe 8884 843e
00000250: 8c6b 723e 63c6 b63d 5610 0cbe deb5 efbd
00000260: f459 953e b196 dc3e 3526 a03e 3684 d63e
00000270: ed7a acbd dd8a 8ebd e097 123d bdd5 943d
00000280: 96dc d23d 81f4 1b3e b2aa 94be d40a 2fbe
00000290: 5e48 0d3e 1e80 9f3d c2a7 a3be cde8 f4be
000002a0: 2a32 283e 837a 313e 9fef 713e f33e aebe
000002b0: 88dd c1bd f38d 8cbd 8309 d7bc 3fd6 d4bd
000002c0: 2dcf 57be 7891 4f3e cfa3 123e 04cf a13e
000002d0: daf5 e63e d8e0 583e 85a9 4a3c f12e 68be
000002e0: a1a0 72bd 1313 87be 2e24 97be f5aa 333d
000002f0: 429f b3be afa8 1fbe 52a8 f3bc 65f6 753e
00000300: 2694 e4be 1911 a5be 779b d4be be8e d5bd
00000310: 8782 6c3e 5304 433e 45d1 fabd 8b76 6b3d
00000320: 278b 0c3e 5a10 3c3e 95c1 1b3d 8057 bfbc
00000330: 82b1 c9bd 65c6 28be 7504 333d bae2 513e
00000340: e5ed dc3d 6781 413e 0d1c c9bd 2326 29bc
00000350: 87c3 eabd 33cd 93be d7af d9bc 2c97 80be
00000360: 9918 513e c9f0 253c 1eaf 653e 2371 38be
00000370: 1fca 40be 8422 1dbe de43 67bc b131 fb3d
00000380: d04f 8a3e c8ea 1d3e 893f 5d3c d539 9f3c
00000390: 69d6 313d fe95 26bd 282b 4b3d fd44 9cbe
000003a0: d6d0 dbbe ffa0 0dbf 63e1 67bf 6ebe 7ebf
000003b0: 93ad 84bf 034d fabd 1a4b 96bd 1868 74bd
000003c0: e3f6 a7be 5d15 eabe 33b2 f1be 3fb7 963d
000003d0: 6481 27be 96b6 efbe e8bc 51be c9b0 2ebe
000003e0: 6f0f acbd e3b6 d03d cf2c 3b3e e104 623e
000003f0: 2815 5c3e 55d0 463e 3f81 163f c2ef 8fbd

conv2.bias f4 [64]
-0.0094129685 0.016701879 -0.0077470494 -0.030766137 0.12040657 0.0098509565 0.043761548 0.05584577
0.012142904 -0.039723746 0.0960874 0.018975666 0.050644454 -0.23133317 0.028323904 0.027824756
-0.0027020331 -0.07371365 -0.066396385 0.026298473 0.11422976 0.017487759 -0.12375669 -0.15529387
-0.033741515 -0.05204478 0.031084608 0.030776525 0.04084942 -0.0054046893 0.065547094 0.06640876
0.027077837 -0.011131088 -0.009810773 -0.08270268 0.07430678 -0.042871613 -0.10328063 -0.073397845
0.059782106 -0.02376103 0.030804168 0.016820239 0.00025462997 0.0070005567 0.028522138 -0.09943251
0.06023929 -0.04032005 -0.04272677 0.022430062 0.07337759 0.06247233 0.031004215 0.17223062
0.10718284 0.016882576 0.02769538 -0.05400709 0.03552451 -0.03881385 0.03424954 -0.036894295
00000000: da38 1abc 61d2 883c f6da fdbb 4409 fcbc
00000010: b897 f63d e865 213c 4f3f 333d 89be 643d
00000020: 08f3 463c 5eb5 22bd 79c9 c43d db72 9b3c
00000030: 8f70 4f3d 9ae2 6cbe 8807 e83c bef0 e33c
00000040: 9814 31bb 2ff7 96bd d4fa 87bd e56f d73c
00000050: 4bf1 e93d 7d42 8f3c 2674 fdbd 5b05 1fbe
00000060: 8b34 0abd e82c 55bd 26a5 fe3c 0d1f fc3c
00000070: b951 273d d219 b1bb 8e3d 863d 5101 883d
00000080: 57d2 dd3c 2b5f 36bc 5dbd 20bc 0660 a9bd
00000090: 272e 983d 259a 2fbd cc84 d3bd 9c51 96bd
000000a0: 15de 743d 7ea6 c2bc 0659 fc3c 99ca 893c
000000b0: db7f 8539 ed64 e53b 42a7 e93c 46a3 cbbd
000000c0: 79bd 763d a326 25bd 4402 2fbd 40bf b73c
000000d0: fd46 963d fce2 7f3d 8dfc fd3c 395d 303e
000000e0: ad82 db3d 544d 8a3c 6ce1 e23c 8a36 5dbd
000000f0: 2682 113d 46fb 1ebd 3f49 0c3d 791e 17bd

BN2.weight f4 [64]
1.3261617 1.0950805 1.2468309 1.222483 1.0552464 1.3134282 0.8532586 1.0742024
1.203037 1.315644 1.1008964 1.1678185 1.263327 1.4074953 1.1339793 1.1086104
1.3480659 1.326995 1.6656733 2.2311473 1.1875143 1.3288081 2.0865746 1.2666693
1.2665113 2.037403 1.3415877 1.3463696 1.4301313 1.3047618 1.4265307 1.1625801
1.4232689 1.3348682 1.2164642 1.2628555 1.823185 1.0562574 0.7685836 1.1640677
1.0629241 0.97218746 1.1392269 1.8469447 1.5608833 1.2722436 1.468496 0.95386994
1.5888764 1.1036096 1.2295482 1.2830567 1.4959406 0.9234012 1.2696841 1.1581091
1.1107067 1.4071175 1.1920751 1.0278465 1.4813113 1.4293653 1.6441249 1.292111
00000000: abbf a93f 992b 8c3f 2898 9f3f 537a 9c3f
00000010: 5012 873f 6a1e a83f 286f 5a3f 777f 893f
00000020: 1efd 993f 0667 a83f 2cea 8c3f 147b 953f
00000030: b3b4 a13f ce28 b43f 3c26 913f f2e6 8d3f
00000040: 6c8d ac3f f9da a93f c834 d53f 1ecb 0e40
00000050: 7800 983f 6216 aa3f 708a 0540 3822 a23f
00000060: 0b1d a23f d064 0240 25b9 ab3f d755 ac3f
00000070: 8b0e b73f 6f02 a73f 8f98 b63f 6dcf 943f
00000080: ad2d b63f f6dc aa3f 19b5 9b3f 40a5 a13f
00000090: 205e e93f 7133 873f e5c1 443f 2c00 953f
000000a0: e60d 883f 47e1 783f 30d2 913f af68 ec3f
000000b0: 06cb c73f e1d8 a23f adf7 bb3f d230 743f
000000c0: 4d60 cb3f 1443 8d3f d661 9d3f 343b a43f
000000d0: fb7a bf3f 0564 6c3f 0285 a23f eb3c 943f
000000e0: a32b 8e3f 6d1c b43f eb95 983f 7990 833f
000000f0: 9c9b bd3f 71f5 b63f af72 d23f e563 a53f

BN2.bias f4 [64]
-0.63660663 -0.5789017 -0.5916917 -0.59225595 -0.5798181 -0.6510936 -0.40683404 -0.47034264
-0.5940534 -0.6483359 -0.49419716 -0.5956413 -0.6095319 -0.6346329 -0.50512516 -0.48945028
-0.5844024 -0.6752669 -1.0735637 -1.6232914 -0.5078861 -0.67926174 -1.4071057 -0.5416359
-0.57914215 -1.1538746 -0.6955425 -0.62561285 -0.69098336 -0.53987134 -0.6553317 -0.5701251
-0.87372875 -0.67322123 -0.5321059 -0.5826638 -0.98150593 -0.4601968 -0.39955246 -0.5576481
-0.46267977 -0.4137933 -0.57273674 -1.4339173 -0.76394325 -0.63969594 -0.78556055 -0.4852683
-0.6901952 -0.5814903 -0.62050325 -0.6489234 -0.77124125 -0.44409007 -0.57656246 -0.60979766
-0.46972835 -0.6740421 -0.52340245 -0.4632925 -0.8634527 -0.7325781 -1.0676142 -0.5441364
00000000: a7f8 22bf e732 14bf 1b79 17bf 169e 17bf
00000010: f66e 14bf 12ae 26bf 8d4c d0be c0d0 f0be
00000020: e213 18bf 57f9 25bf 6907 fdbe f37b 18bf
00000030: 480a 1cbf 4d77 22bf e24f 01bf 3a99 fabe
00000040: 659b 15bf 4bde 2cbf 896a 89bf 03c8 cfbf
00000050: d304 02bf 19e4 2dbf 0a1c b4bf a6a8 0abf
00000060: a942 14bf 2ab2 93bf 130f 32bf 2a28 20bf
00000070: 49e4 30bf 0235 0abf d1c3 27bf b8f3 11bf
00000080: b0ac 5fbf 3a58 2cbf 1838 08bf 7429 15bf
00000090: f943 7bbf ea9e ebbe 2492 ccbe 07c2 0ebf
000000a0: 5de4 ecbe b7dc d3be e09e 12bf 9a8a b7bf
000000b0: c991 43bf 1dc3 23bf 7f1a 49bf 1675 f8be
000000c0: a2b0 30bf 8cdc 14bf 4dd9 1ebf d81f 26bf
000000d0: 1170 45bf c65f e3be 9999 13bf b31b 1cbf
000000e0: 3c80 f0be 068e 2cbf b4fd 05bf ad34 edbe
000000f0: 3c0b 5dbf 3d8a 3bbf 95a7 88bf 864c 0bbf

BN2.running_mean f4 [64]
-0.91601956 -1.7607847 -1.43428 -1.5186516 -1.9759024 -1.3418951 -0.9849566 -1.3271556
-0.9641321 -0.9395242 -1.9670118 -1.6496009 -1.6542962 -0.98372376 -1.7388413 -0.76622486
-1.2951759 -1.2812401 -0.69762725 -0.6961959 -1.5125443 -1.7968506 -0.8435889 -1.4256221
-1.3779689 -0.73906803 -1.2950622 -1.4595199 -1.2206417 -1.2451259 -1.0948421 -1.2460235
-0.82594913 -0.79654586 -1.493338 -1.4371732 -0.635796 -2.5701869 -1.5428575 -0.8933741
-1.6052461 -1.659271 -1.0537494 -0.6110279 -1.2695355 -0.9393132 -0.9763127 -1.8941418
-1.1066056 -1.1034592 -1.7172334 -1.4007007 -1.5581803 -1.0888834 -1.3610364 -0.71964234
-2.2773588 -1.3627213 -1.7176806 -1.8621242 -0.6521684 -1.0392349 -0.6655669 -1.5131774
00000000: 4280 6abf 6561 e1bf 7d96 b7bf 2d63 c2bf
00000010: 5fea fcbf 38c3 abbf 1e26 7cbf 3ce0 a9bf
00000020: 5cd1 76bf a884 70bf 0bc7 fbbf 1f26 d3bf
00000030: fabf d3bf 52d5 7bbf 5a92 debf 5027 44bf
00000040: 53c8 a5bf adff a3bf b397 32bf e539 32bf
00000050: 0d9b c1bf 33ff e5bf 71f5 57bf c97a b6bf
00000060: 4961 b0bf 9033 3dbf 99c4 a5bf 8cd1 babf
00000070: fd3d 9cbf 4960 9fbf c923 8cbf b37d 9fbf
00000080: 6771 53bf 6eea 4bbf b325 bfbf 4bf5 b7bf
00000090: 87c3 22bf f17d 24c0 5b7c c5bf 2ab4 64bf
000000a0: b478 cdbf fe62 d4bf 43e1 86bf 536c 1cbf
000000b0: 2480 a2bf d476 70bf a1ef 79bf 3d73 f2bf
000000c0: 41a5 8dbf 273e 8dbf 4ece dbbf 294a b3bf
000000d0: 7472 c7bf 8860 8bbf 7136 aebf 7b3a 38bf
000000e0: 3fc0 11c0 a76d aebf f5dc dbbf 165a eebf
000000f0: 82f4 26bf a605 85bf 9862 2abf ccaf c1bf

BN2.running_var f4 [64]
6.578313 11.990443 9.206919 8.847897 9.528409 9.078095 8.449471 11.81692
4.9672313 6.3890185 16.711542 12.296923 9.596635 4.1928387 20.428776 11.974234
13.603084 5.4233212 2.219475 2.3987265 12.075249 12.955869 3.1327505 6.5266943
10.846961 3.1829422 7.015447 7.792401 11.638665 11.043538 6.554487 9.834552
3.627487 3.9465055 9.4941635 8.040576 2.661677 19.089548 10.143108 5.5591063
11.315041 15.901726 5.4196315 2.216242 6.5207925 5.3646193 4.532871 13.03606
11.189094 7.896658 6.8524218 8.08216 9.74909 12.203819 10.263337 7.674395
19.04888 8.226889 8.971945 11.645337 2.9186866 4.4460897 2.2140038 14.207342
00000000: 8a81 d240 dbd8 3f41 8a4f 1341 fc90 0d41
00000010: 5d74 1841 e13f 1141 0931 0741 1b12 3d41
00000020: 8ff3 9e40 d772 cc40 3db1 8541 32c0 4441
00000030: d18b 1941 bc2b 8640 226e a341 7696 3f41
00000040: 3ba6 5941 d98b ad40 e10b 0e40 bc84 1940
00000050: 3834 4141 3d4b 4f41 fc7e 4840 aeda d040
00000060: 278d 2d41 53b5 4b40 8b7e e040 595b f940
00000070: f937 3a41 55b2 3041 5cbe d140 535a 1d41
00000080: bf28 6840 8c93 7c40 18e8 1741 33a6 0041
00000090: ea58 2a40 65b7 9841 2c4a 2241 33e4 b140
000000a0: 680a 3541 786d 7e41 9f6d ad40 e9d6 0d40
000000b0: 55aa d040 f6aa ab40 470d 9140 b493 5041
000000c0: 8706 3341 6cb1 fc40 0a47 db40 8750 0141
000000d0: 46fc 1b41 d842 4341 a136 2441 a594 f540
000000e0: 1b64 9841 56a1 0341 168d 0f41 4d53 3a41
000000f0: c3cb 3a40 5e46 8e40 3db2 0d40 4651 6341

fc1.weight f4 [128, 1024]
-0.0013794283 -0.03071892 -0.012555347 -0.020488491 -0.00078105176 -0.009513141 -0.03547275 -0.007853119
-0.029326625 -0.017449105 0.009207134 0.023725988 0.005390879 0.017481465 0.019017946 -0.035462484
-0.012611282 -0.013438031 0.009495336 -0.015995976 -0.0006753754 -0.010362061 -0.012299116 0.013813245
0.013892157 -0.007868636 -0.028206194 0.004391563 -0.0016448444 -0.027991733 -0.018988393 0.0031031088
0.0010460888 -0.02276056 0.015338772 -0.015340787 0.0121873235 -0.0200361 -0.02922228 0.0016071543
0.02463431 0.013198701 -0.021127932 -0.03000736 -0.013014363 -0.017011201 0.006063958 -0.0343745
-0.016604798 -0.010441827 0.014904053 0.006053587 0.022328883 -0.0046937075 -0.019620784 0.0021138922
-0.0025178343 -0.03294417 -0.026199473 -0.031164104 -0.013302252 -0.03380005 -0.002069263 0.013822817
0.009853566 0.022872452 -0.016180195 -0.021814192 -0.005158855 -0.0073632584 0.019485448 -0.03387704
-0.036590748 -0.029991066 -0.019787678 0.010287367 -0.013998146 0.0048903953 -0.028832646 0.024681816
0.0027254398 0.0029000773 0.024241181 0.008411535 0.0045713484 -0.008011166 0.0020678435 -0.008217371
-0.005177515 -0.027253607 0.01799752 0.010446023 -0.022644795 0.018306304 -0.02273144 -0.009252847
-0.016466603 0.009232698 0.002878606 -0.020208407 0.0044673057 0.0059954384 -0.0014711764 0.010313295
-0.01060589 0.010492986 0.023361342 -0.019258037 0.0074900035 0.007210709 -0.0056204973 -0.014599528
0.009251049 0.011218656 0.015163276 -0.011705279 -0.033552196 -0.016986892 -0.03414555 0.02395109
-0.035359345 0.01163664 -0.025785416 -0.032256234 0.009953532 -0.03037639 -0.028011668 0.001220467
-0.03193786 0.019503139 -0.0013190999 -0.0058554416 0.022073725 -0.020862034 -0.023226002 -0.003225331
0.013300852 0.00038775094 0.009406554 -0.036122274 -0.01173711 -0.00047752052 0.010321811 -0.02107967
-0.021982431 -0.0017319027 -0.01009959 -0.015610171 0.018285586 -0.020694602 0.008561692 0.018386828
-0.021444617 0.017410483 0.0059444997 -0.004077379 -0.034478027 0.0040289117 0.01933911 -0.00876382
0.018492866 -0.0063155396 -0.013261183 -0.014655858 -0.008151379 -0.018945679 -0.0053305766 -0.006387784
-0.03203619 -0.020590773 0.022802133 -0.0058823857 -0.0060385605 0.009442328 0.01798272 -0.03693626
-0.035070315 -0.00852266 -0.01726651 -0.031892203 -0.030344002 0.006231367 0.0109011205 -0.007877199
-0.0036346014 -0.028007256 -0.027321374 -0.033126365 -0.007439348 -0.03566368 -0.0064324546 0.01649391
-0.017654981 -0.03224951 -0.024234785 0.0087488545 -0.024018975 -0.023523457 -0.022016663 -0.02163998
0.018063935 -0.015755754 0.022940483 0.008694423 -0.010655363 -0.03161459 0.017120948 0.02100808
-0.009894612 0.019331452 -0.011685158 -0.03328361 -0.035317827 -0.016207661 0.0045612818 0.015553012
0.020890562 0.023256281 0.005990676 -0.031841874 0.0055995504 -0.007570959 -0.012964621 0.019155094
-0.006686675 -0.02204469 0.021876158 0.011916981 -0.0015469141 0.018222328 -0.03053108 -0.0063742492
-0.032486588 -0.0027445464 0.0029218758 -0.0010494686 -0.03214438 -0.026310159 -0.034509763 0.02008757
-0.01891657 0.017738102 -0.030654658 -0.0010939797 0.022138914 -0.012189849 -0.027341135 -0.010001719
0.0044646217 -0.011800499 0.002781561 -0.0038906913 -0.031085286 -0.0102558555 -0.018137617 0.021473467
00000000: efcd b4ba 3fa6 fbbc f1b4 4dbc 7bd7 a7bc
00000010: 7fbf 4cba 01dd 1bbc e04b 11bd 5eaa 00bc
00000020: 643e f0bc 6df1 8ebc 85d9 163c 015d c23c
00000030: f9a5 b03b 4a35 8f3c 86cb 9b3c 1c41 11bd
00000040: 8d9f 4ebc 302b 5cbc 5392 1b3c fe09 83bc
00000050: ad0b 31ba a2c5 29bc 3b82 49bc f350 623c
00000060: ee9b 633c 74eb 00bc ad10 e7bc 1ae7 8f3b
00000070: d297 d7ba eb4e e5bc 8c8d 9bbc 875d 4b3b
00000080: ea1c 893a 5b74 babc 794f 7b3c ed57 7bbc
00000090: 57ad 473c bf22 a4bc 9063 efbc 26a7 d23a
000000a0: e4cd c93c 5d3f 583c 7c14 adbc ffd1 f5bc
000000b0: 323a 55bc 135b 8bbc 2bb4 c63b 47cc 0cbd
000000c0: c906 88bc 3214 2bbc 2130 743c 2b5d c63b
000000d0: 10eb b63c accd 99bb c4bb a0bc 3a89 0a3b
000000e0: 4002 25bb 77f0 06bd 47a0 d6bc dd4b ffbc
000000f0: b0f1 59bc ec71 0abd 799c 07bb 1979 623c
00000100: da70 213c 025f bb3c 548c 84bc adb3 b2bc
00000110: 9d0b a9bb 7d47 f1bb f29f 9f3c a7c2 0abd
00000120: 2ee0 15bd d3af f5bc c519 a2bc 588c 283c
00000130: 7b58 65bc 9c3f a03b 7132 ecbc 8531 ca3c
00000140: 4b9d 323b 390f 3e3b 7195 c63c 89d0 093c
00000150: 40cb 953b 4441 03bc a884 073b 27a2 06bc
00000160: 25a8 a9bb f542 dfbc 896f 933c cc25 2b3c
00000170: 9481 b9bc 1af7 953c 4937 babc 4199 17bc
00000180: f8e4 86bc be44 173c ffa6 3c3b 1a8c a5bc
00000190: 7a62 923b 6275 c43b 7dd4 c0ba 18f9 283c
000001a0: 54c4 2dbc c6ea 2b3c 4960 bf3c 08c3 9dbc
000001b0: b46e f53b d047 ec3b 262c b8bb dc32 6fbc
000001c0: b691 173c 74ce 373c 646f 783c 80c7 3fbc
000001d0: 076e 09bd 1828 8bbc 34dc 0bbd 1435 c43c
000001e0: f6d4 10bd 9ba7 3e3c f03b d3bc 1d1f 04bd
000001f0: 2414 233c e8d7 f8bc ba78 e5bc 14f8 9f3a
00000200: 46d1 02bd 0cc5 9f3c a6e5 acba 01df bfbb
00000210: f5d3 b43c dbe6 aabc 7544 bebc 1360 53bb
00000220: d1eb 593c 0d4b cb39 f21d 1a3c f3f4 13bd
00000230: 024d 40bc b85b fab9 d01c 293c 46af acbc
00000240: 8014 b4bc 0301 e3ba c078 25bc cdc1 7fbc
00000250: a7cb 953c ba87 a9bc 5746 0c3c f99f 963c
00000260: 9fac afbc 6ea0 8e3c 14ca c23b 899b 85bb
00000270: d538 0dbd f604 843b 0e6d 9e3c 2096 0fbc
00000280: 5a7e 973c 96f2 cebb 6f45 59bc 201f 70bc
00000290: 5d8d 05bc f833 9bbc 1eac aebb 9e50 d1bb
000002a0: 6138 03bd fbad a8bc 8acb ba3c 07c1 c0bb
000002b0: 1edf c5bb feb3 1a3c 7f50 933c 7a4a 17bd
000002c0: e4a5 0fbd a0a2 0bbc 7f72 8dbc 66a1 02bd
000002d0: fc93 f8bc 7f30 cc3b 9d9a 323c 5e0f 01bc
000002e0: 7e32 6ebb 796f e5bc 13d1 dfbc 83af 07bd
000002f0: c6c5 f3bb 1414 12bd 57c7 d2bb 3d1e 873c
00000300: 2ea1 90bc 1018 04bd 0788 c6bc 5b57 0f3c
00000310: 71c3 c4bc 44b4 c0bc 4a5c b4bc 5446 b1bc
00000320: d1fa 933c 3612 81bc aeed bb3c 0e73 0e3c
00000330: d593 2ebc 4d7e 01bd 3b41 8c3c 2319 ac3c
00000340: 031d 22bc fe5c 9e3c 1b73 3fbc 6554 08bd
00000350: 6da9 10bd eec5 84bc ce76 953b 0fd2 7e3c
00000360: af22 ab3c f583 be3c 6f4d c43b a06c 02bd
00000370: 6f7c b73b cf15 f8bb 9069 54bc 25eb 9c3c
00000380: e51b dbbb 1197 b4bc a135 b33c 713f 433c
00000390: d3c1 caba fe46 953c 511c fabc 14df d0bb
000003a0: a810 05bd d9dd 33bb f17c 3f3b 538e 89ba
000003b0: d3a9 03bd 6788 d7bc 1c5a 0dbd b08e a43c
000003c0: ecf6 9abc 7f4f 913c 7a1f fbbc de63 8fba
000003d0: ab5c b53c efb7 47bc 84fa dfbc 40de 23bc
000003e0: f64b 923b e156 41bc da4a 363b f8fa 7ebb
000003f0: 92a6 febc 2d08 28bc 5795 94bc 20e9 af3c

fc1.bias f4 [128]
0.0102592455 -0.048211347 0.23273607 0.16938892 0.006766152 -0.04054907 0.0012751527 -0.035473045
-0.0154196285 0.002154832 -0.009617079 0.08611366 0.013641885 -0.03132205 0.01774507 0.0063856407
-0.025155373 -0.018046916 0.006614811 -0.03576347 -0.08804452 -0.01364204 0.3113036 0.01797998
0.021824844 0.18564434 -0.020208774 0.08912202 -0.023570145 -0.014784969 -0.02398627 -0.035729103
0.015860066 0.0042432994 -0.020329412 -0.004474388 0.30145213 -0.0345615 -0.011938493 -0.029004684
-0.0104768155 -0.013054734 0.0101533085 0.0045977663 0.17922597 -0.02197917 -0.014145319 -0.077218466
0.0082567 -0.0014558823 -0.025133913 -0.015840858 -0.0071672555 -0.0046098577 0.23142324 -0.030690538
-0.03367625 -0.009182694 0.021953348 0.12509464 0.13815115 0.0016691316 0.20418589 -0.036151797
0.0018263183 0.08768291 0.006687473 -0.031422533 0.023506548 0.008157259 0.018032378 0.12185354
-0.03602201 -0.033102486 0.0040184474 0.029465 -0.014747418 0.010795025 0.006917476 -0.011242229
0.15073092 0.09690745 -0.024935948 0.035750333 -0.035392735 0.009835864 -0.005034096 -0.02593079
0.008435319 -0.029262543 -0.0055674035 0.13356423 -0.03512413 -0.0041373647 0.01121662 -0.023564862
-0.027449945 -0.030575207 0.08757087 -0.018646866 0.2774029 0.11071051 -0.03464747 -0.00875854
-0.02573714 -0.03525896 -0.0081835035 -0.05042922 0.2871167 -0.13403228 0.26100954 -0.029057054
-0.06520027 0.007965051 -0.05296265 -0.01648801 0.19406082 0.027947608 -0.0017839229 -0.036331907
0.28858137 0.00013563127 0.017882032 0.18357609 0.003999439 -0.01758046 -0.019158872 0.24148719
00000000: 6516 283c 4379 45bd 5d52 6e3e 4a74 2d3e
00000010: 99b6 dd3b c816 26bd 0623 a73a 2f4c 11bd
00000020: 9ca2 7cbc 1538 0d3b f490 1dbc 5c5c b03d
00000030: 3682 5f3c 8d4b 00bd 1c5e 913c a33e d13b
00000040: a412 cebc 20d7 93bc 0ec1 d83b b77c 12bd
00000050: af50 b4bd dd82 5fbc 2f63 9f3e c04a 933c
00000060: 04ca b23c 8d19 3e3e df8c a5bc 9b85 b63d
00000070: 2d16 c1bc a83c 72bc db7e c4bc ae58 12bd
00000080: f8ec 813c 600b 8b3b de89 a6bc e39d 92bb
00000090: ef57 9a3e 5c90 0dbd ab99 43bc 3b9b edbc
000000a0: f3a6 2bbc 86e3 55bc 105a 263c dca8 963b
000000b0: 0387 373e a90d b4bc c5c1 67bc b724 9ebd
000000c0: 1c47 073c 4ed3 beba a3e5 cdbc b0c4 81bc
000000d0: 4cdb eabb 4a0e 97bb 37fa 6c3e b96a fbbc
000000e0: 1cf0 09bd 0373 16bc 82d7 b33c cf18 003e
000000f0: 7f77 0d3e c3c6 da3a 1b16 513e e813 14bd
00000100: 1361 ef3a 1993 b33d 9722 db3b eab4 00bd
00000110: ce90 c03c 06a6 053c a3b8 933c 598e f93d
00000120: d18b 13bd 7996 07bd 2ead 833b 9560 f13c
00000130: 289f 71bc 9edd 303c ffab e23b 5331 38bc
00000140: 3559 1a3e 6a77 c63d 7946 ccbc f16e 123d
00000150: f9f7 10bd 9b26 213c 0ff5 a4bb cf6c d4bc
00000160: 4b34 0a3c 00b8 efbc c46e b6bb 10c5 083e
00000170: 52de 0fbd bb92 87bb eac5 373c 190b c1bc
00000180: b5de e0bc db78 fabc 5b58 b33d 50c1 98bc
00000190: c107 8e3e 31bc e23d 81ea 0dbd fb7f 0fbc
000001a0: b2d6 d2bc b36b 10bd 1a14 06bc df8e 4ebd
000001b0: f600 933e c23f 09be 0ba3 853e 0f09 eebc
000001c0: b887 85bd d87f 023c 5def 58bd dd11 87bc
000001d0: e1b7 463e 62f2 e43c 85d2 e9ba c4d0 14bd
000001e0: f0c0 933e 3e38 0e39 577d 923c 5ffb 3b3e
000001f0: ba0d 833b e604 90bc 11f3 9cbc 6b48 773e

fc2.weight f4 [4, 128]
-0.054088812 -0.01480658 0.056431424 -1.0880866 -0.059518036 0.027793374 0.032707848 0.007635086
0.064046964 -0.07979923 0.016082807 0.6279644 -0.036955673 -0.016443595 0.3216346 0.03657354
0.02168705 0.021436952 0.061156884 0.018564971 -0.040776376 -0.06117874 -1.2298458 0.05166799
-0.024389664 0.3196844 -0.022327494 0.64119 -0.0016652524 -0.07896435 -0.024835648 0.014776718
0.012316892 0.006003699 0.019319637 -0.11032107 0.5309336 -0.027445514 -0.05623672 -0.040159438
-0.0668954 -0.010998018 0.049479276 0.06372835 -1.0169199 -0.022016268 0.07704018 -0.034347456
-0.06996694 0.004090557 -0.05025934 -0.071244374 0.021055385 -0.06226455 1.1226972 -0.021493122
-0.0033914095 -0.0107825 -0.0815725 0.37063575 0.91772425 0.01936391 -1.1353809 -0.034219995
-0.009926463 0.4114313 -0.07423377 -0.035141986 -0.009457887 -0.06113709 -0.02761291 -0.93852615
0.0329061 0.24676947 0.17213205 0.17689943 -0.060280114 0.25375178 0.06636447 -0.0760143
-0.6177548 -0.18883732 -0.042574834 0.1572046 -0.014567237 0.01665997 -0.051756784 0.0237055
-0.05032237 0.078954436 0.049798343 0.8778732 -0.03136575 -0.06461038 -0.1569896 -0.015871119
-0.020920273 -0.065360725 0.08972824 0.0034306082 0.7415507 0.25917608 0.011530457 0.0060927984
0.024744822 -0.03070459 -0.08290653 0.063884914 -1.6704533 -0.037403364 -0.2089005 0.059374202
0.13988894 -0.029966429 -1.0241374 -0.046923168 0.6521753 0.59329075 0.03354291 -0.015473613
0.24560978 -0.11327734 -0.07389804 1.2051528 -0.07591959 -0.033064198 -0.04914566 -1.3438001
-0.06594212 -0.012520803 0.7938578 0.6630621 -0.025899224 -0.048793208 -0.044253368 -0.052817725
0.025633397 -0.00026371135 0.02466319 -1.1790264 0.036995474 -0.061442796 -1.049846 0.06200673
-0.042436756 0.01793649 0.35873273 0.02819661 0.009711675 0.019877372 -0.35238755 0.04533575
0.0041257143 0.8626855 0.021081068 -1.8151948 -0.030479295 0.07469361 0.015605252 0.0084379455
-0.07311592 0.013505936 0.07036202 -0.023695165 -0.18009977 0.024061242 -0.060824096 -0.058050543
0.016075088 -0.030707294 0.04822559 -0.04145465 0.5548473 0.00095714745 -0.034396116 -0.051912975
0.069910355 0.053502973 -0.058016967 -0.06659366 0.018626468 0.011470295 0.078962944 -0.037818935
0.022526415 0.01851797 0.06985211 -1.0802405 -0.13319467 0.047667097 0.21924788 -0.01829942
0.052732736 -1.52382 -0.05360103 -0.058634903 -0.0008717953 0.052436285 -0.0076213344 0.29442254
0.03761618 -0.4345326 -0.016741365 -1.3027959 0.016760105 -0.15513225 0.01620703 0.058069546
-0.8997157 -1.4995699 -0.0418668 -0.9133717 0.06358716 -0.06100801 0.038959812 -0.016544668
-0.039746255 0.035060182 -0.07766703 -0.93693775 -0.03963117 0.026215056 0.764269 0.017117757
0.08204224 0.059620358 0.6625058 0.051927283 0.07735381 0.53999937 -0.025820928 -0.0009915079
0.002594797 0.06490734 0.056230728 -0.0081081875 0.21554859 0.002698156 0.5456819 -0.014588464
0.052154228 0.001871918 0.94288 0.028640335 -0.04752212 -0.8129612 0.033136263 -0.059732027
-0.009733467 -0.06625245 -0.03235373 -1.076143 -0.07567409 0.017611736 -0.034832634 -0.75201726
00000000: 3b8c 5dbd 4c97 72bc a324 673d 6c46 8bbf
00000010: 2fc9 73bd eeae e33c aaf8 053d be2f fa3b
00000020: 0e2b 833d c76d a3bd 17c0 833c 46c2 203f
00000030: d55e 17bd b8b4 86bc 4aad a43e 23ce 153d
00000040: 0aa9 b13c 8c9c af3c a47f 7a3d 9115 983c
00000050: 2105 27bd 8f96 7abd 966b 9dbf d0a1 533d
00000060: d5cc c7bc acad a33e 26e8 b6bc 0725 243f
00000070: 9944 daba 10b8 a1bd 2174 cbbc 0c1a 723c
00000080: cacc 493c adba c43b 3744 9e3c 03f0 e1bd
00000090: 44eb 073f 6ad5 e0bc 7a58 66bd 397e 24bd
000000a0: 7500 89bd 0831 34bc c8aa 4a3d 0284 823d
000000b0: 6e2a 82bf 765b b4bc 3ec7 9d3d ebaf 0cbd
000000c0: d44a 8fbd 140a 863b bddc 4dbd 92e8 91bd
000000d0: 587c ac3c 1d09 7fbd 8bb4 8f3f 5812 b0bc
000000e0: 6942 5ebb 15a9 30bc 7c0f a7bd f8c3 bd3e
000000f0: faef 6a3f 10a1 9e3c 2954 91bf 442a 0cbd
00000100: 9aa2 22bc 20a7 d23e e007 98bd 0bf1 0fbd
00000110: 41f5 1abc e36a 7abd 7834 e2bc 4043 70bf
00000120: 8cc8 063d 23b1 7c3e 6243 303e 2025 353e
00000130: 48e8 76bd c1eb 813e 18ea 873d 63ad 9bbd
00000140: 2e25 1ebf 925e 41be f362 2ebd 3efa 203e
00000150: 6cab 6ebc 7d7a 883c ecfe 53bd 0932 c23c
00000160: d41e 4ebd ddb2 a13d 59f9 4b3d 4cbc 603f
00000170: 5f79 00bd 7252 84bd e2c1 20be 2604 82bc
00000180: fe60 abbc d8db 85bd 71c3 b73d 0ed4 603b
00000190: 44d6 3d3f bab2 843e 3eea 3c3c 19a6 c73b
000001a0: a7b5 ca3c 3188 fbbc e6ca a9bd 18d6 823d
000001b0: 6ad1 d5bf 4534 19bd 03ea 55be 5d32 733d
000001c0: 0c3f 0f3e 287c f5bc ef16 83bf 8232 40bd
000001d0: f6f4 263f e7e1 173f 4a64 093d 0985 7dbc
000001e0: 2181 7b3e f3fd e7bd db57 97bd 7242 9a3f
000001f0: bb7b 9bbd 536e 07bd f64c 49bd a401 acbf
00000200: aa0c 87bd 0e24 4dbc 443a 4b3f 70be 293f
00000210: 9c2a d4bc 63db 47bd 0543 35bd 6657 58bd
00000220: 21fd d13c bd42 8ab9 750a ca3c 56ea 96bf
00000230: 9188 173d 71ab 7bbd 5b61 86bf c5fa 7d3d
00000240: 2ad2 2dbd 8cef 923c d1ab b73e 94fc e63c
00000250: b81d 1f3c dfd5 a23c 246c b4be fbb1 393d
00000260: 0031 873b f5d8 5c3f 34b2 ac3c 4e58 e8bf
00000270: b7af f9bc f7f8 983d 2cad 7f3c 4f3f 0a3c
00000280: cdbd 95bd 0048 5d3c f619 903d 5d1c c2bc
00000290: 136c 38be 151c c53c b022 79bd 68c6 6dbd
000002a0: e7af 833c dd8d fbbc 3288 453d 5acc 29bd
000002b0: 790a 0e3f 14e9 7a3a f1e2 0cbd b3a2 54bd
000002c0: 292d 8f3d ef25 5b3d 33a3 6dbd 4262 88bd
000002d0: 8996 983c e7ed 3b3c 53b7 a13d 07e8 1abd
000002e0: 5189 b83c ffb2 973c a00e 8f3d 5245 8abf
000002f0: 2f64 08be 933e 433d 8482 603e aae8 95bc
00000300: 48fe 573d 890c c3bf c18c 5bbd 272b 70bd
00000310: 3189 64ba 6ec7 563d 63bc f9bb 8dbe 963e
00000320: 6c13 1a3d 0f7b debe 3025 89bc 04c2 a6bf
00000330: 7d4c 893c fdda 1ebe 9bc4 843c 55da 6d3d
00000340: c553 66bf e8f1 bfbf 867c 2bbd bad2 69bf
00000350: fc39 823d 89e3 79bd 5394 1f3d af88 87bc
00000360: f8cc 22bd 449b 0f3d e40f 9fbd 27db 6fbf
00000370: 4b54 22bd f5c0 d63c 22a7 433f 8a3a 8c3c
00000380: c305 a83d 7a34 743d fb99 293f b4b1 543d
00000390: ad6b 9e3d 663d 0a3f 6986 d3bc 7cf5 81ba
000003a0: 780d 2a3b 24ee 843d 3152 663d 34d8 04bc
000003b0: c5b8 5c3e 8cd3 303b cfb1 0b3f 7404 6fbc
000003c0: ac9f 553d 255b f53a 9560 713f 239f ea3c
000003d0: 8ea6 42bd 3a1e 50bf e4b9 073d 92a9 74bd
000003e0: 1f79 1fbc 5daf 87bd 5885 04bd 0ebf 89bf
000003f0: 04fb 9abd 7d46 903c aaac 0ebd 3484 40bf

fc2.bias f4 [4]
-0.05105961 0.06924018 -0.121938705 -0.0030681086
00000000: e223 51bd cccd 8d3d 00bb f9bd 5212 49bb
