cnn saved models/cnn_epoch7.pt (torch, 609323 bytes, 16 tensors)

conv1.weight f4 [32, 1, 3, 3]
00000000: 71c7 a63e e418 9a3e cde0 78be cf4e a8be
00000010: 6aa6 44be ee23 43be ba59 813d 8435 06bc
00000020: c416 843e 7f27 ed3e f07a 12be cf30 093f
00000030: 693c 41bd be07 cbbd 65d2 07be 4688 573d
00000040: 022d 7b3e 3a6a 03be efe9 ce3d ba27 43bc
00000050: 5721 b03e 55cd 7cbe b08c c9be 4b2b bf3d
00000060: 19b1 413e f358 863e e9c3 b2be 3676 01be
00000070: ba44 9e3e 1ec9 863e 3073 bc3d d6de 58be
00000080: 19e6 a4be 3459 21be 2ddc 713e 47b8 22be
00000090: 2ba5 14bd 3a62 37be 62ff 123e c4a2 82be
000000a0: 2ed5 6c3e 0869 9f3d 8990 643e dc64 d53d
000000b0: c576 83be 9979 2c3e 8049 a9be 28ef a8be
000000c0: d8bc dd3d 5efa 7e3e bf86 90bd eedc a1be
000000d0: f922 67bd d021 07bf e821 d53d e06d 15be
000000e0: 052f 92be d75b ee3d 89ea 533e e099 bb3e
000000f0: 9f13 bebe cae5 723c 9e1d 96bd 4cf3 903e
00000100: c7f7 67be 5b9d 91be 63fc 923e cf68 51bd
00000110: 4212 a1be db05 8b3e 33ac f8bd 4ffd e33d
00000120: 9013 343d 2c4b 6a3c d754 1abf 0fbd 8fbd
00000130: 2103 0bbd dca1 de3c d9aa 653e 35ba f33d
00000140: a453 b93c ae84 173e 07f2 90be ba0f d63e
00000150: db1c a4be a067 963d 6678 babe 0d4f 5b3e
00000160: 0e47 de3d d71a 1abe ca47 a2bb d023 52be
00000170: 5867 34bd ae71 2ebe 68b3 123e 3233 d6be
00000180: 6801 913e 3931 903e ceee 31bd ce75 adbd
00000190: 1bac 713e 09db 46be 8835 503d 1458 4f3e
000001a0: 1911 4cbe 038b bb3e a04a 9fbd efda 32be
000001b0: 0500 c43e 0ca4 043e 5984 13bd 83be 113e
000001c0: e5ea 33be 7c83 e8bd cb98 0ebe f22c cf3b
000001d0: 66b5 77be 20f6 abbe e818 6c3d eff4 c0be
000001e0: c90d 63be b95c af3d 11d7 693d 23b7 f83c
000001f0: fc9b f13d db41 a23e 4ddd b13e b3c5 b4be
00000200: 6e6d 27bd 3c5f 6a3e f620 343e 4d35 d8be
00000210: 2652 a33e c98b 033d b6f3 b7be adf2 2fbd
00000220: 1151 f83d f920 09bf 3ddb b33d 481e 9bbe
00000230: c13a b2bd 047b e83e e89e db3d 1762 08be
00000240: 0887 7b3e a4ee 0d3e 43da acbe fa8f 4abd
00000250: a962 52be 8801 c53e 5694 c9be 7526 c43e
00000260: 14d3 94bd f3c7 6cbe 8a75 aebc eddb f13d
00000270: 0e0a bd3d 330e cdbe 79ba b1be 235f 0d3e
00000280: fb86 c13e 3cca 9a3e 3d16 1c3d cbb6 bd3e
00000290: b038 7f3d fa36 1d3e f439 16be 2585 8bbd
000002a0: 174e 8fbd 6234 a8be ad7c 3ebc dd9a 9a3e
000002b0: 4569 593e c440 853d 4937 11bf 24a0 b1be
000002c0: 7994 b83c 72d3 573e e873 b33d e485 003e
000002d0: 4236 ad3d d015 c7be 4836 a93e ca83 78be
000002e0: 1c3d 8abd 1ae2 323e be47 4ebe 3042 2ebc
000002f0: a3bd 553e a736 76be e33b 9e3e 9169 b13e
00000300: 5307 083e b9e2 b9bd d716 60be 429c c93d
00000310: bc75 a7bd c4a6 b7be 58f3 a03d 323e 19bd
00000320: 09e7 70be 01e6 c93e f53d 20be 6a89 cabd
00000330: c334 d9be 6c3e 4f3e a4ca 933e fc48 fdbd
00000340: 31c2 42bd 2351 4d3d f3b1 71bd 009c 62be
00000350: f346 a23e 09b3 95be 39dd 433c fa94 bc3e
00000360: 7c72 8dbe 056b 08be 95df 913e 2e1c b5be
00000370: 08c0 aabd e392 893e 8bd5 2abd 5bfb 933e
00000380: 3e99 b73d 140f 713e c0a9 8ebe 03c6 493b
00000390: 0ee6 8b3e daca 07bf 4f53 913e 50f7 ed3d
000003a0: 2448 c3be fb08 713e ed6d 87bd cb2a f0be
000003b0: 4966 80be 2179 7e3e cf81 afbe 606f bfbd
000003c0: 6deb b7bd 6253 b73e 6937 c63d 1e96 d9be
000003d0: 6bef 9fbe cf59 ba3d dda1 e33c c116 643c
000003e0: 0e5a f5bd 82a5 1a3e 7bab aabd a5d0 a23e
000003f0: 2c72 99be 8d78 7b3e 1982 ef3e be53 97be
0.32574037 0.30097115 -0.24304505 -0.32872626 -0.19204107 -0.19056675 0.06315942 -0.00819147
0.2579862 0.46319196 -0.1430471 0.535901 -0.047176752 -0.09913586 -0.13263853 0.052620195
0.24528888 -0.12833491 0.10103213 -0.011911327 0.34400436 -0.24687703 -0.3936515 0.09334429
0.18915214 0.26239738 -0.34915093 -0.1264275 0.3091181 0.26325315 0.09201658 -0.21178755
-0.322068 -0.15756685 0.23619147 -0.15890609 -0.03629033 -0.17908564 0.14355233 -0.25514805
0.23128197 0.07783705 0.22320761 0.10419628 -0.2567655 0.16843261 -0.3306389 -0.32994962
0.10827035 0.24900195 -0.07056951 -0.31613868 -0.056429837 -0.5278597 0.10406858 -0.14592695
-0.28551498 0.11638611 0.20694937 0.36640835 -0.37124345 0.014825294 -0.07329868 0.2831062
-0.22653113 -0.28440365 0.2870818 -0.051125344 -0.31459242 0.27152905 -0.121422194 0.11132299
0.04396397 0.014300149 -0.60285705 -0.07018482 -0.03393853 0.02717679 0.22428454 0.119007505
0.02262289 0.14796707 -0.28309652 0.41808873 -0.32053265 0.07343984 -0.36419982 0.21416874
0.10853396 -0.15049301 -0.0049524056 -0.20521474 -0.04404387 -0.17035553 0.1432625 -0.41835934
0.28321385 0.28162554 -0.043440633 -0.08469735 0.2360081 -0.19419493 0.0508323 0.20248443
-0.19928397 0.36629495 -0.077779055 -0.17466329 0.38281265 0.12953204 -0.03601489 0.1423283
-0.17570074 -0.11353204 -0.13925473 0.0063224966 -0.24190292 -0.33586216 0.05764094 -0.3768687
-0.22173227 0.08562607 0.05708987 0.030360764 0.1179733 0.3169087 0.34739152 -0.35307083
-0.040875845 0.22887892 0.17590699 -0.42228165 0.31898612 0.03211573 -0.35928124 -0.042956043
0.12124837 -0.5356594 0.08782051 -0.3029654 -0.08702613 0.45406353 0.10723668 -0.13318668
0.24563229 0.13860565 -0.3376027 -0.049453713 -0.20545448 0.3847773 -0.39370984 0.3831059
-0.072668225 -0.2312315 -0.021296281 0.11809526 0.092304334 -0.40049896 -0.3471258 0.13805823
0.37798294 0.30232418 0.038107146 0.37053522 0.06230992 0.15353003 -0.14670545 -0.06812505
-0.06997316 -0.32852465 -0.011626405 0.30196276 0.21231563 0.06506494 -0.56724983 -0.3469249
0.022531735 0.21076754 0.08762342 0.12551075 0.084576145 -0.3888383 0.33049226 -0.24269024
-0.06749937 0.17469063 -0.20144555 -0.0106358975 0.20873122 -0.24044286 0.30905065 0.34650853
0.13284044 -0.09076447 -0.21883713 0.09844257 -0.08176753 -0.3586942 0.07858914 -0.03741283
-0.23525633 0.39433292 -0.15648635 -0.09889491 -0.42423066 0.20238656 0.2886554 -0.12367436
-0.047548477 0.050126206 -0.059007596 -0.22129822 0.31694755 -0.29238155 0.011954599 0.3683241
-0.27626407 -0.13322075 0.28490892 -0.35373062 -0.08337408 0.26869878 -0.041707557 0.28902707
0.089647755 0.23540908 -0.27863884 0.003078819 0.27323955 -0.530439 0.28383872 0.11619437
-0.38140976 0.23538582 -0.066127636 -0.46907648 -0.25078037 0.24850895 -0.34278724 -0.09347415
-0.08980451 0.35805804 0.096785374 -0.42497343 -0.3123735 0.09099161 0.027787143 0.013921441
-0.11980067 0.15102199 -0.083334886 0.31799808 -0.2996992 0.24557705 0.46778944 -0.29556078

conv1.bias f4 [32]
00000000: 15c1 0b3e f770 9c3e 4021 273e 5d1d 36be
00000010: 6e93 6b3e 4848 c63e 569d 353e d0b5 cd3c
00000020: ceb7 0e3e 350a f83d babf f23d 1a65 bc3e
00000030: 09a7 e93e d283 583e b3b7 2b3d a979 4bbe
00000040: 5c2b 183d 88f4 0e3f b7c5 dcbe beb7 683e
00000050: b176 973e 1f2e 41be b634 dd3e 92ff 64be
00000060: 5c9b b23e 70dd babb 0ba4 e6bd a90f 313e
00000070: 53e3 173e aecc 49bd ed10 a8be cb8e c83d
0.13647874 0.30554935 0.16321278 -0.17784639 0.23005459 0.3872702 0.177358 0.025111109
0.13937303 0.12111322 0.11852975 0.36795884 0.4563525 0.21144035 0.041923236 -0.19870628
0.037150726 0.55841875 -0.43119594 0.22726342 0.29582742 -0.1886525 0.43204278 -0.22363117
0.34884155 -0.005702667 -0.112617575 0.1729113 0.14832811 -0.049267463 -0.32825413 0.097928606

BN1.weight f4 [32]
00000000: 81c3 a63f da72 d33e 9182 873f 7fc5 553f
00000010: d584 6a3f a80e 4e3f b8a9 9f3f 8157 713f
00000020: f0b0 603f 2fcb 813f 4782 633f 8483 d63e
00000030: 95d1 713f 44a8 633f 50ef 683f 17f2 783f
00000040: 1140 623f 8668 ff3e f61a 323f 5441 463f
00000050: 6113 743f c658 623f 3e77 863f 590e 373f
00000060: d1ad 3c3f 385f a53f 6d34 793f 675d 5b3f
00000070: b077 803f 6d48 3d3f 4c32 613f e0f7 533f
1.3028413 0.41298562 1.0586721 0.8350448 0.91608936 0.80491114 1.2473669 0.94274145
0.87769985 1.0140132 0.8887066 0.41897213 0.9446042 0.8892863 0.9099016 0.972444
0.8837901 0.49884433 0.6957239 0.7744343 0.9534207 0.8841671 1.050514 0.7150627
0.7370272 1.2919683 0.9734562 0.85689396 1.0036526 0.7393864 0.8796737 0.828001

BN1.bias f4 [32]
00000000: 3da6 b8be 1e58 24be ce3d 6ebe fd72 ddbd
00000010: e798 4dbf e8e7 9abe 0e0b 19be 8737 e9bd
00000020: 8d22 edbe 02c0 f9be fd97 debe 253e 39be
00000030: efa3 1ebd 9128 c9be 7e36 2cbe 98c5 25bf
00000040: 06e3 58bf 04ae c5bd d731 d0be 513c 07bf
00000050: 744b c4be b3cf 92be a5f3 96bf 5124 c4bd
00000060: 1de5 5abd 7a64 a6be 98c0 26bf 57f8 f1bd
00000070: 8092 dbbd 81a7 85bd 2817 02bf f7b5 4bbe
-0.3606433 -0.16049239 -0.23265764 -0.10812948 -0.80311435 -0.30255055 -0.14945623 -0.11387544
-0.46315423 -0.48779303 -0.43475333 -0.18090113 -0.038730558 -0.39288762 -0.16817662 -0.6475463
-0.8472141 -0.096523315 -0.40663025 -0.5282641 -0.38338816 -0.28674087 -1.1793104 -0.09577239
-0.053441156 -0.32498533 -0.65137625 -0.11814945 -0.10721302 -0.065260895 -0.50816584 -0.19893633

BN1.running_mean f4 [32]
00000000: a060 053e 974e e43e 3be6 213e 6305 45be
00000010: 63fb 753e 137d 393e d92c 2c3e 0e3f 723c
00000020: 0bf0 b73d 9e67 b33d 6145 a73d 7f73 c93e
00000030: a9aa e53e a79c 223e 9ed6 ee3c 8235 87be
00000040: 5504 6a3d 869c 0e3f 5c16 dcbe 50e3 783e
00000050: 861b 8b3e 1e66 54be b565 de3e cce5 65be
00000060: 0d63 b53e 09ea 8bbc 9bc6 6dbe 1322 d53d
00000070: 153a 023e cbf9 ddbd a061 a9be 03ff a73d
0.13025141 0.4459121 0.15810482 -0.19240336 0.24021678 0.18114118 0.16813983 0.014785541
0.089813314 0.08759998 0.0816753 0.3934593 0.44856766 0.1588007 0.029155072 -0.2640801
0.057133038 0.55707586 -0.4298581 0.24305463 0.27169436 -0.2074208 0.4343697 -0.22450942
0.35427132 -0.01707937 -0.23220293 0.1040689 0.12717469 -0.1083866 -0.33082294 0.082029365

BN1.running_var f4 [32]
00000000: dfda 493b f142 d23c 5aba 403b 892e 803b
00000010: 7f62 f839 4be8 463d 616e 283b 6ebb 7c3b
00000020: af33 123c d594 6f3b 349f d83b 4631 e03a
00000030: 85fa c03b b93e 443c 77bb 523b 9181 403c
00000040: f209 843a 63a4 eb3b f435 b63b 756f a13b
00000050: dac9 f63a 3d4f a83b dd2c 813a 5a4c e23a
00000060: a470 553b 9b9c f43a 53e0 ce3c f187 4d3c
00000070: 734b ec3b 6c44 1e3c c55b 6339 3f06 623c
0.0030800623 0.025666686 0.002940795 0.0039117974 0.0004737563 0.048561376 0.0025700557 0.0038563865
0.008923455 0.0036557217 0.0066107754 0.0017104528 0.0058892393 0.011977845 0.0032155195 0.011749641
0.0010073765 0.0071912273 0.005560631 0.004926617 0.0018828467 0.005136399 0.0009855289 0.0017265186
0.003256836 0.0018662395 0.02525345 0.012544618 0.0072111427 0.009659868 0.00021682594 0.0137954345

conv2.weight f4 [64, 32, 3, 3]
00000000: 4f1c 2dbe e773 973c a336 b4bd 8adc 9abd
00000010: e6b2 c7bd 371f 53be 71c2 88bd 3689 883d
00000020: 5499 68bd 0e01 dbbc 9962 093d f8c9 be3d
00000030: 968e 0cbe 6754 40be 270c e3bd 40c8 e43d
00000040: fa47 d23d 402d d83d 4f9b d63d e143 f03d
00000050: c939 d03d 72cc ecbd 0919 52bd 8622 e7bd
00000060: 9e9c 8dbd b110 403b 288d 223e c4c5 9bbe
00000070: 052d 9b3d 1fbe 133d 5465 a6be 6632 633d
00000080: 096c 5abe da68 08bd 7be5 843e a85a 433e
00000090: 5e4b 493e 5c28 f1bd df13 f7bd e36a 8ebd
000000a0: 1d88 74be b21a 3cbe 10bb 13bd ee23 9ebd
000000b0: 6d35 fcbc f226 32be 707e 5cbd 5b76 fabd
000000c0: aa64 dabd 64b4 58bd 500b 47bd 4d37 1c3e
000000d0: 7f50 213e 819f 0a3e 8bb2 883d 1e47 6f3c
000000e0: ae80 09be 9b5a 46bb 3d8d 883d b74c 203e
000000f0: e118 3cbe 01e5 38be 5119 7ebe 5816 a2bd
00000100: c1e7 c83c ed09 463a 11f1 38bc e91d ddbc
00000110: b4ad cebd aa19 8f3d bb41 5f3d 7c12 113e
00000120: cb69 5bbe d9f5 34bd fe09 36be da47 35bd
00000130: e7c7 b83d 3ec0 bebc 74f9 26bc 1a74 b13d
00000140: 4100 04bd 289b 89be 1790 b2be 4d4a fcbe
00000150: 5cfe c5bd 14e2 a43c fcde 5bbd 09a9 c1be
00000160: ffc7 bdbe 0d38 e2be 929c 8d3e 8f47 593e
00000170: 9787 283e ff7f b33c 79e3 9e3d 2f25 bd3d
00000180: a4e5 dcbc de57 9f3c 22b2 ce3c b7d3 d0bd
00000190: ab8c e8bb f259 0abd 0a6c 52bd 9d34 103c
000001a0: a6a6 e2bd bab6 183e 9854 6c3d 7d29 1c3d
000001b0: 5958 85bd 7e63 9f3d 370d 68bd cada 373e
000001c0: 9620 a53c 3baf a5be 6ef0 b7bd 11ac c83d
000001d0: 0d6f 2d3e d367 8f3d b0ba 03bd 3031 efbd
000001e0: e7d4 123d 17fd 923d 8cfd cdbc ebe4 28bc
000001f0: 57fb fe3d dfa0 eb3d 3111 1bbe 189e 22bc
00000200: aed8 60bd 4590 dd3d 4442 e43a 3b39 71be
00000210: 9ec8 b0bc c5ec 553d 11eb 65bd 5acf 7bbe
00000220: bb10 a9bc 8ba7 9cbe 34cb bc3b 3979 af3d
00000230: 5df5 923d e36d 763d bcad 7c3d ec3f fcbd
00000240: cbcc c1be daa7 92be c650 7ebe 261b 593e
00000250: 927b 2b3e 6024 3b3d d592 38be 2508 13be
00000260: 5ea1 dd3d bffd b93e 8dc5 803e 897b a73e
00000270: 9cc4 753d 13ff a43d d8e5 1a3e 1789 b43d
00000280: f3a2 f93d e42d d63d d2aa 98bd d606 7d3d
00000290: 35af 753e 1a34 64bd d994 9ebe 5248 c5be
000002a0: d445 a63d 526e c93d 0884 243e 70c1 83be
000002b0: 90d3 94bd efba 04bd 683e 5abd 5e6c 9fbd
000002c0: 9209 e3bd 733d 363d 15a1 0f3d e755 503e
000002d0: 0db4 9b3e 3f8f ba3d 992c 85bd c29c 82be
000002e0: 9070 f8bd fd01 3ebe 6dd6 1bbe 2e02 253c
000002f0: 646e 27be 2862 be3d 399d 783e 6c0f 923e
00000300: 4c70 7abe 3fbd 91bd b128 25be 8daf c4bc
00000310: 758b 8a3e 6cf0 663e c156 b8bc 385e b73d
00000320: 52a4 113e 9a46 20bd 95d2 c4bd 78b2 15bd
00000330: 506c 983d 3da8 0cbe 492e b23c 7015 103e
00000340: c341 a83d 23fd e53d eb13 12be 726b 74bd
00000350: b69a 43be 5587 2dbe 6413 173a f1ac c5bd
00000360: 0b5e b33d b35d 2e3d 1a20 e33d b92b 0ebe
00000370: 16b3 b5bd 8a7d 82bd 3035 16bd 9a2d e73d
00000380: a30d 123e be0f d33d be51 f2bd cd59 a9bd
00000390: dd30 963d ba33 1fbc f761 5b3d 5f70 aabe
000003a0: 1c42 d3be 14a5 fcbe 106d d3be 392e bdbe
000003b0: 2d8d cabe 44eb 2ebe 44fe a9bd c044 8cbd
000003c0: dcbb b2be ec0f cebe 3921 d1be 4343 53bc
000003d0: 684b 11be 3eec b8be 402b 51bb fecf cdbc
000003e0: df21 6a3d fb26 e33b f6a2 9b3d 2fa9 f53d
000003f0: 50fa 2c3d 1c45 163e 591e c83e 17aa 14be
-0.1690533 0.018487884 -0.087994836 -0.07561596 -0.09750919 -0.20617376 -0.06677712 0.06666796
-0.05678685 -0.026733901 0.033541296 0.09315866 -0.13726267 -0.18782197 -0.11086302 0.11171007
0.10267635 0.10555506 0.104788415 0.11731697 0.10167272 -0.11562432 -0.051293407 -0.11285882
-0.06914638 0.0029306824 0.1587416 -0.3042432 0.07576946 0.036069985 -0.32499182 0.055467986
-0.21330275 -0.03330312 0.2595633 0.19077551 0.19657657 -0.11775276 -0.12064337 -0.06953981
-0.23880048 -0.18369558 -0.03606707 -0.07721697 -0.030787194 -0.17397669 -0.053831518 -0.12229606
-0.106637314 -0.05290641 -0.048594773 0.1525547 0.15753363 0.13537408 0.06674679 0.014604358
-0.13427994 -0.0030266407 0.06667564 0.15654264 -0.18368866 -0.18056108 -0.24814345 -0.07914418
0.024524571 0.00075545796 -0.011287943 -0.026991801 -0.10091725 0.06987317 0.054506045 0.14167207
-0.21427076 -0.04417977 -0.17777249 -0.044257976 0.09022503 -0.023285028 -0.01019131 0.08664723
-0.032226805 -0.26876187 -0.34875557 -0.49275437 -0.09667656 0.020127334 -0.05367945 -0.37824276
-0.37066647 -0.44183388 0.27658516 0.21218704 0.16457973 0.02191162 0.07758231 0.09235608
-0.02696497 0.019451078 0.025231425 -0.101966314 -0.007096847 -0.033777185 -0.051372565 0.0088016065
-0.11066942 0.14913455 0.057697862 0.038125504 -0.065109916 0.077826485 -0.056653228 0.17954555
0.02015714 -0.32360253 -0.08981405 0.09798444 0.16936894 0.07002225 -0.03216046 -0.11679304
0.03584757 0.07177179 -0.025145315 -0.010308485 0.12450283 0.11505293 -0.15143277 -0.009925388
-0.05489414 0.10818533 0.0017414768 -0.23556988 -0.021580037 0.052227754 -0.05613238 -0.24590817
-0.02063786 -0.30596575 0.0057615284 0.08568043 0.071757056 0.06016339 0.061689124 -0.1231688
-0.37851557 -0.28643686 -0.248355 0.21201763 0.16746357 0.045688987 -0.18024762 -0.14358576
0.10821794 0.36326405 0.2515072 0.32711437 0.060001954 0.08056464 0.15126741 0.0881521
0.12189283 0.10457972 -0.074544564 0.061774097 0.23992617 -0.05571375 -0.30972937 -0.3853174
0.081187874 0.09835495 0.16065991 -0.2573352 -0.07266915 -0.032404836 -0.05328217 -0.07784341
-0.1108581 0.044492196 0.03506573 0.20345269 0.30410805 0.09109353 -0.06502647 -0.25510222
-0.121308446 -0.18555446 -0.15218516 0.01007132 -0.16350704 0.092960656 0.24278726 0.2852739
-0.244569 -0.07116174 -0.16128804 -0.02400949 0.27059522 0.22552651 -0.022502305 0.08953518
0.1422284 -0.03912983 -0.09610478 -0.036547154 0.07442534 -0.13736053 0.021750586 0.14070678
0.08215668 0.112299226 -0.1426541 -0.05967278 -0.19101986 -0.16946156 0.00057630823 -0.096521266
0.08758172 0.042569827 0.11090107 -0.13883866 -0.088720486 -0.06371601 -0.036671817 0.11287995
0.14263014 0.10305737 -0.11831997 -0.08269081 0.07333539 -0.009716922 0.053560223 -0.33288857
-0.41261375 -0.49344695 -0.41294146 -0.36949328 -0.39560834 -0.17081934 -0.083004504 -0.068490505
-0.3490895 -0.40246522 -0.4084566 -0.012894454 -0.14188921 -0.36117738 -0.0031916648 -0.025123592
0.05716121 0.006932137 0.07599442 0.1199516 0.042230904 0.146748 0.39085653 -0.14518009

conv2.bias f4 [64]
00000000: 7af1 ffbc fc8b 88bb 1a34 55bc 7d2d 65bc
00000010: 501f 3d3d e339 6639 8658 c93c ab71 2a3d
00000020: a970 933c b3fb 3dbd 4820 d43c b2a3 053c
00000030: d43f 6d3d 9f09 55bd 05a4 bf3c adb3 b2bb
00000040: 9fbd cc3c 55d2 98bd fb5a 13bd cc58 283d
00000050: 39dc e23d bbc7 aaba c9ef c0bd d891 42bd
00000060: 710d fdbc f58f b0bc 75ba ed3c 27f1 883d
00000070: 9e06 febb 6919 53bb a9c8 c63c 4078 9c3d
00000080: 7dfa 853d f572 ccbc 3b4c 24bc 14cf 9ebd
00000090: 2494 9a3c 4795 193c 9ee7 4bbd 4a78 91bd
000000a0: ce80 a43d 6783 31bd cd4a 9b3c 86a1 fe3b
000000b0: 43df 8aba 24f4 f33c 8467 fe3c 2e34 95bd
000000c0: 459c 6c3c de95 e9bc 478e 81bd 841e c6bc
000000d0: 8f91 7b3d 6097 673d d190 8a3d 7ce9 dc3d
000000e0: 8ceb 253d 4223 253c c207 153c 3bb3 fcbc
000000f0: 7f09 dc3d 5f53 c0bc a48a 9d3c 93fd dbbb
-0.031243075 -0.004167078 -0.01301291 -0.013987896 0.04617244 0.00021956074 0.024578344 0.04161231
0.017998056 -0.046382617 0.0258943 0.008156704 0.0579222 -0.05201113 0.02339364 -0.005453548
0.024992762 -0.07461993 -0.035975438 0.04110031 0.110771604 -0.0013029495 -0.094207354 -0.04750237
-0.030890198 -0.021553019 0.029019574 0.06686621 -0.0077522537 -0.003221119 0.024265604 0.07640123
0.065419175 -0.02495716 -0.01002794 -0.07754341 0.018869467 0.009373969 -0.049781434 -0.071030214
0.0803238 -0.043338206 0.018956566 0.00777072 -0.0010595102 0.029779501 0.03105522 -0.07285343
0.014441554 -0.028513845 -0.063259654 -0.024184473 0.061418112 0.056540847 0.06765903 0.10786721
0.040507838 0.010079207 0.009096088 -0.030847182 0.10743999 -0.023477254 0.019231148 -0.006713578

BN2.weight f4 [64]
00000000: a555 9e3f a72f 893f ebc8 933f 9ce7 8d3f
00000010: c7b7 793f 2682 9d3f cf33 523f 2f81 873f
00000020: 1552 903f d27c a03f 183a 8b3f 813d 893f
00000030: cda7 923f 9078 9a3f 06b0 8e3f de44 8b3f
00000040: d978 a43f 775d 963f 3385 b43f 4c0c ea3f
00000050: 661b 903f 7e1e 933f dfe3 dd3f 277b 963f
00000060: 78b2 903f 8872 e83f b7ba 893f 30f7 a53f
00000070: 2adc a23f d9d4 993f 39ed 9a3f 72cc 873f
00000080: 1902 9a3f 8ebf 883f ef1b 8a3f d2b6 973f
00000090: abe4 c13f 8645 833f c5f3 503f dec7 8e3f
000000a0: 7433 823f 4a4f 713f 3ac2 803f e46f be3f
000000b0: a775 b13f 477f 9a3f 2b75 9f3f 67dc 7a3f
000000c0: 8d1c b83f 4bf8 873f 10bb 883f 387f 893f
000000d0: 4d68 a93f 2633 5c3f f23f 9b3f 707e 8a3f
000000e0: 52a1 8a3f d120 ad3f 8488 903f 2506 743f
000000f0: 52fe a33f 53d9 a63f b440 a33f 8266 a43f
1.2369887 1.0717667 1.154569 1.1086307 0.97546047 1.2305343 0.82110304 1.0586299
1.127505 1.2538092 1.0877104 1.0721895 1.1457459 1.2068043 1.1147468 1.0880392
1.284938 1.1747273 1.4103149 1.8285003 1.1258361 1.149368 1.7335166 1.1756333
1.1304464 1.8159952 1.0760106 1.2966061 1.2723439 1.2018081 1.2103645 1.0609267
1.203189 1.0683458 1.0789775 1.1852667 1.5147909 1.0255592 0.8162196 1.1154745
1.0171952 0.9426161 1.0059273 1.4877896 1.386403 1.2070092 1.2457632 0.9799256
1.4383713 1.0622648 1.0682087 1.0741949 1.3234955 0.86015546 1.212889 1.0819836
1.0830481 1.352564 1.1291661 0.95321876 1.2811987 1.3035072 1.2754121 1.2843783

BN2.bias f4 [64]
00000000: 4a0c 05bf d113 e0be 8d3b 03bf a1d7 e1be
00000010: 254e f0be 980b 0dbf 828a bfbe 9e1c d9be
00000020: 5c38 00bf 493a 11bf b0a4 b2be 2bf1 e3be
00000030: 19aa 04bf 5133 00bf 8d12 dbbe 9dc7 f2be
00000040: 0a5d edbe 80d1 10bf 0157 52bf acca 99bf
00000050: 63ef c4be 3841 11bf caa1 87bf 5388 d0be
00000060: b9eb dabe 3f7f 72bf f089 23bf b24e ffbe
00000070: d786 18bf be8c e2be eb63 00bf dce2 edbe
00000080: 4f4d 23bf f3fb f5be 2db5 dbbe d46a e5be
00000090: 927f 1fbf b100 c2be e048 85be d66e eebe
000000a0: 7292 d0be 8d4f b2be 7124 e9be 278a 92bf
000000b0: 324e 0ebf 5211 f9be 954e 1dbf 1bc7 eabe
000000c0: 70e3 f0be e81f e8be bc5e e8be 53d5 04bf
000000d0: 6a4c 1dbf 4fa4 b2be 5d0e febe e1d4 e6be
000000e0: 5b14 c4be bb16 13bf 795c eabe 868e c9be
000000f0: 5bcf 1ebf ae62 17bf daf7 3fbf 9d91 00bf
-0.51971877 -0.4376512 -0.5126274 -0.44109824 -0.4693462 -0.55095816 -0.3741036 -0.42404646
-0.50086 -0.5672956 -0.34891272 -0.44519934 -0.5182205 -0.500783 -0.4278759 -0.47417918
-0.46360046 -0.5656967 -0.8216401 -1.2014976 -0.38463888 -0.5674014 -1.0596249 -0.40729007
-0.42757967 -0.9472541 -0.6388235 -0.49864727 -0.5958075 -0.44248003 -0.5015246 -0.46462142
-0.6378984 -0.48043784 -0.42911664 -0.44808066 -0.6230403 -0.37891153 -0.26032162 -0.46568936
-0.4073673 -0.34826317 -0.45535615 -1.1448411 -0.55588067 -0.48646027 -0.6144803 -0.4585503
-0.4704852 -0.45336843 -0.45384777 -0.51888007 -0.61444724 -0.34890983 -0.49620333 -0.4508429
-0.3829678 -0.5745656 -0.45773676 -0.3936655 -0.6203515 -0.5913495 -0.74987566 -0.5022219

BN2.running_mean f4 [64]
00000000: 22bf 18bf b4c1 cdbf f61b 87bf a1fb 91bf
00000010: e330 a2bf 83e8 8fbe 04c2 5bbf 1a88 45bf
00000020: cefd 2bbf 8282 4fbf 6be5 ddbf ede1 90bf
00000030: 088b 6cbf daee 03bf 970d 3abf 76c9 42be
00000040: e2f8 c0be 215b 84bf d4e2 acbe da3c 69be
00000050: e058 b1bf f6ff 7dbf a2c5 e9be 1ad3 5abf
00000060: 393c a5bf 64d8 cfbe 896d 70bf 7f62 77bf
00000070: c87d 1abf 231c 30bf 4b0f 6fbf 2a1f 4abf
00000080: 7c58 bbbe cbe4 1fbf bfb5 b1bf 04f0 81bf
00000090: 0cc2 03bf 0bc6 dabf 9076 39bf 747d 02bf
000000a0: e067 a3bf 7fd7 86bf 7c18 38bf 71db 20be
000000b0: 8d9d 3fbf dcb7 2cbf a974 f7be 03b7 40bf
000000c0: 9a75 50bf c236 3abf d14d adbf 57bf 6ebf
000000d0: 3d44 19bf d07c fabe 5b39 23bf 8d04 8ebd
000000e0: 8f95 cbbf b93d 64bf 0a27 bdbf 25d0 a0bf
000000f0: 895d 71be 7ae7 00bf 0eaf 91be 6dee b0be
-0.59666646 -1.6074739 -1.0555408 -1.1404916 -1.2671169 -0.2810708 -0.8584292 -0.771608
-0.6718415 -0.81058514 -1.7335638 -1.1318947 -0.92399645 -0.51536334 -0.72676986 -0.19022164
-0.37689883 -1.034031 -0.33766806 -0.2277712 -1.3855247 -0.9921869 -0.45658594 -0.85478365
-1.2909003 -0.4059478 -0.9391714 -0.9663467 -0.60348177 -0.68792933 -0.9338271 -0.789538
-0.36590946 -0.62458485 -1.388359 -1.0151372 -0.5146797 -1.7091688 -0.72446537 -0.50972676
-1.2766075 -1.0534514 -0.7191236 -0.1570871 -0.7484978 -0.6746805 -0.48331192 -0.75279254
-0.81429446 -0.72739804 -1.3539373 -0.9326071 -0.5986975 -0.4892335 -0.6375939 -0.06934462
-1.5905017 -0.8915668 -1.4777539 -1.2563521 -0.23570837 -0.50353205 -0.2845387 -0.34556904

BN2.running_var f4 [64]
00000000: d82e 1740 343d 2241 eb32 b440 6596 9a40
00000010: 494a 8840 26d5 1340 295b 0b41 b2f5 6040
00000020: aeb7 4c40 df18 6c40 dc3d 4741 f8e0 d740
00000030: 709a 8a40 4f65 d03f 5420 0541 096d 5340
00000040: 4cc1 8e40 6a19 2e40 809c 603f 8372 373f
00000050: d0d5 1c41 5035 9740 555a 833f 5401 aa40
00000060: 0214 1841 f611 b23f c3f2 5e40 8fb7 a040
00000070: a09c 7540 38ed 8140 15e8 bf40 474d 7d40
00000080: 99cf cf3f dc65 4440 4125 e240 6073 c040
00000090: 28cf 0440 6114 0841 e511 c640 635a 2c40
000000a0: fc88 eb40 9e57 0341 b851 6c40 cf33 1f3f
000000b0: d252 4940 945c 6240 2d7a dd3f dfc1 6340
000000c0: 9dba ec40 4422 a140 b2c2 8a40 6783 6e40
000000d0: e6dd 3c40 d97b 9e40 cdb6 8b40 4c56 3540
000000e0: d62f 2041 f005 8f40 216d a640 6b02 9e40
000000f0: 424d 8a3f b7ca d73f bac9 503f e2cb 8440
2.362234 10.139942 5.6312156 4.8308587 4.259068 2.3098845 8.709756 3.514996
3.198711 3.689018 12.452602 6.746212 4.331352 1.6280917 8.320393 3.30353
4.461096 2.7203012 0.877388 0.71659106 9.8022 4.725258 1.0261942 5.312662
9.504885 1.3911731 3.483567 5.022407 3.8376846 4.0602074 5.9970803 3.9578416
1.6235229 3.068717 7.0670476 6.014084 2.0751438 8.504975 6.1896844 2.6930168
7.3604717 8.208891 3.6924877 0.6218843 3.14568 3.5369005 1.730291 3.558708
7.39778 5.035433 4.3362665 3.7267702 2.9510436 4.952618 4.3660645 2.8333921
10.011679 4.469475 5.2008214 4.937795 1.0804827 1.6858739 0.8155781 4.149888

fc1.weight f4 [128, 1024]
00000000: efcd b4ba 3fa6 fbbc f1b4 4dbc 7bd7 a7bc
00000010: 7fbf 4cba 01dd 1bbc e04b 11bd 5eaa 00bc
00000020: 643e f0bc 6df1 8ebc 85d9 163c 015d c23c
00000030: f9a5 b03b 4a35 8f3c 86cb 9b3c 1c41 11bd
00000040: 8d9f 4ebc 302b 5cbc 5392 1b3c fe09 83bc
00000050: ad0b 31ba a2c5 29bc 3b82 49bc f350 623c
00000060: ee9b 633c 74eb 00bc ad10 e7bc 1ae7 8f3b
00000070: d297 d7ba eb4e e5bc 8c8d 9bbc 875d 4b3b
00000080: ea1c 893a 5b74 babc 794f 7b3c ed57 7bbc
00000090: 57ad 473c bf22 a4bc 9063 efbc 26a7 d23a
000000a0: e4cd c93c 5d3f 583c 7c14 adbc ffd1 f5bc
000000b0: 323a 55bc 135b 8bbc 2bb4 c63b 47cc 0cbd
000000c0: c906 88bc 3214 2bbc 2130 743c 2b5d c63b
000000d0: 10eb b63c accd 99bb c4bb a0bc 3a89 0a3b
000000e0: 4002 25bb 77f0 06bd 47a0 d6bc dd4b ffbc
000000f0: b0f1 59bc ec71 0abd 799c 07bb 1979 623c
00000100: da70 213c 025f bb3c 548c 84bc adb3 b2bc
00000110: 9d0b a9bb 7d47 f1bb f29f 9f3c a7c2 0abd
00000120: 2ee0 15bd d3af f5bc c519 a2bc 588c 283c
00000130: 7b58 65bc 9c3f a03b 7132 ecbc 8531 ca3c
00000140: 4b9d 323b 390f 3e3b 7195 c63c 89d0 093c
00000150: 40cb 953b 4441 03bc a884 073b 27a2 06bc
00000160: 25a8 a9bb f542 dfbc 896f 933c cc25 2b3c
00000170: 9481 b9bc 1af7 953c 4937 babc 4199 17bc
00000180: f8e4 86bc be44 173c ffa6 3c3b 1a8c a5bc
00000190: 7a62 923b 6275 c43b 7dd4 c0ba 18f9 283c
000001a0: 54c4 2dbc c6ea 2b3c 4960 bf3c 08c3 9dbc
000001b0: b46e f53b d047 ec3b 262c b8bb dc32 6fbc
000001c0: b691 173c 74ce 373c 646f 783c 80c7 3fbc
000001d0: 076e 09bd 1828 8bbc 34dc 0bbd 1435 c43c
000001e0: f6d4 10bd 9ba7 3e3c f03b d3bc 1d1f 04bd
000001f0: 2414 233c e8d7 f8bc ba78 e5bc 14f8 9f3a
00000200: 46d1 02bd 0cc5 9f3c a6e5 acba 01df bfbb
00000210: f5d3 b43c dbe6 aabc 7544 bebc 1360 53bb
00000220: d1eb 593c 0d4b cb39 f21d 1a3c f3f4 13bd
00000230: 024d 40bc b85b fab9 d01c 293c 46af acbc
00000240: 8014 b4bc 0301 e3ba c078 25bc cdc1 7fbc
00000250: a7cb 953c ba87 a9bc 5746 0c3c f99f 963c
00000260: 9fac afbc 6ea0 8e3c 14ca c23b 899b 85bb
00000270: d538 0dbd f604 843b 0e6d 9e3c 2096 0fbc
00000280: 5a7e 973c 96f2 cebb 6f45 59bc 201f 70bc
00000290: 5d8d 05bc f833 9bbc 1eac aebb 9e50 d1bb
000002a0: 6138 03bd fbad a8bc 8acb ba3c 07c1 c0bb
000002b0: 1edf c5bb feb3 1a3c 7f50 933c 7a4a 17bd
000002c0: e4a5 0fbd a0a2 0bbc 7f72 8dbc 66a1 02bd
000002d0: fc93 f8bc 7f30 cc3b 9d9a 323c 5e0f 01bc
000002e0: 7e32 6ebb 796f e5bc 13d1 dfbc 83af 07bd
000002f0: c6c5 f3bb 1414 12bd 57c7 d2bb 3d1e 873c
00000300: 2ea1 90bc 1018 04bd 0788 c6bc 5b57 0f3c
00000310: 71c3 c4bc 44b4 c0bc 4a5c b4bc 5446 b1bc
00000320: d1fa 933c 3612 81bc aeed bb3c 0e73 0e3c
00000330: d593 2ebc 4d7e 01bd 3b41 8c3c 2319 ac3c
00000340: 031d 22bc fe5c 9e3c 1b73 3fbc 6554 08bd
00000350: 6da9 10bd eec5 84bc ce76 953b 0fd2 7e3c
00000360: af22 ab3c f583 be3c 6f4d c43b a06c 02bd
00000370: 6f7c b73b cf15 f8bb 9069 54bc 25eb 9c3c
00000380: e51b dbbb 1197 b4bc a135 b33c 713f 433c
00000390: d3c1 caba fe46 953c 511c fabc 14df d0bb
000003a0: a810 05bd d9dd 33bb f17c 3f3b 538e 89ba
000003b0: d3a9 03bd 6788 d7bc 1c5a 0dbd b08e a43c
000003c0: ecf6 9abc 7f4f 913c 7a1f fbbc de63 8fba
000003d0: ab5c b53c efb7 47bc 84fa dfbc 40de 23bc
000003e0: f64b 923b e156 41bc da4a 363b f8fa 7ebb
000003f0: 92a6 febc 2d08 28bc 5795 94bc 20e9 af3c
-0.0013794283 -0.03071892 -0.012555347 -0.020488491 -0.00078105176 -0.009513141 -0.03547275 -0.007853119
-0.029326625 -0.017449105 0.009207134 0.023725988 0.005390879 0.017481465 0.019017946 -0.035462484
-0.012611282 -0.013438031 0.009495336 -0.015995976 -0.0006753754 -0.010362061 -0.012299116 0.013813245
0.013892157 -0.007868636 -0.028206194 0.004391563 -0.0016448444 -0.027991733 -0.018988393 0.0031031088
0.0010460888 -0.02276056 0.015338772 -0.015340787 0.0121873235 -0.0200361 -0.02922228 0.0016071543
0.02463431 0.013198701 -0.021127932 -0.03000736 -0.013014363 -0.017011201 0.006063958 -0.0343745
-0.016604798 -0.010441827 0.014904053 0.006053587 0.022328883 -0.0046937075 -0.019620784 0.0021138922
-0.0025178343 -0.03294417 -0.026199473 -0.031164104 -0.013302252 -0.03380005 -0.002069263 0.013822817
0.009853566 0.022872452 -0.016180195 -0.021814192 -0.005158855 -0.0073632584 0.019485448 -0.03387704
-0.036590748 -0.029991066 -0.019787678 0.010287367 -0.013998146 0.0048903953 -0.028832646 0.024681816
0.0027254398 0.0029000773 0.024241181 0.008411535 0.0045713484 -0.008011166 0.0020678435 -0.008217371
-0.005177515 -0.027253607 0.01799752 0.010446023 -0.022644795 0.018306304 -0.02273144 -0.009252847
-0.016466603 0.009232698 0.002878606 -0.020208407 0.0044673057 0.0059954384 -0.0014711764 0.010313295
-0.01060589 0.010492986 0.023361342 -0.019258037 0.0074900035 0.007210709 -0.0056204973 -0.014599528
0.009251049 0.011218656 0.015163276 -0.011705279 -0.033552196 -0.016986892 -0.03414555 0.02395109
-0.035359345 0.01163664 -0.025785416 -0.032256234 0.009953532 -0.03037639 -0.028011668 0.001220467
-0.03193786 0.019503139 -0.0013190999 -0.0058554416 0.022073725 -0.020862034 -0.023226002 -0.003225331
0.013300852 0.00038775094 0.009406554 -0.036122274 -0.01173711 -0.00047752052 0.010321811 -0.02107967
-0.021982431 -0.0017319027 -0.01009959 -0.015610171 0.018285586 -0.020694602 0.008561692 0.018386828
-0.021444617 0.017410483 0.0059444997 -0.004077379 -0.034478027 0.0040289117 0.01933911 -0.00876382
0.018492866 -0.0063155396 -0.013261183 -0.014655858 -0.008151379 -0.018945679 -0.0053305766 -0.006387784
-0.03203619 -0.020590773 0.022802133 -0.0058823857 -0.0060385605 0.009442328 0.01798272 -0.03693626
-0.035070315 -0.00852266 -0.01726651 -0.031892203 -0.030344002 0.006231367 0.0109011205 -0.007877199
-0.0036346014 -0.028007256 -0.027321374 -0.033126365 -0.007439348 -0.03566368 -0.0064324546 0.01649391
-0.017654981 -0.03224951 -0.024234785 0.0087488545 -0.024018975 -0.023523457 -0.022016663 -0.02163998
0.018063935 -0.015755754 0.022940483 0.008694423 -0.010655363 -0.03161459 0.017120948 0.02100808
-0.009894612 0.019331452 -0.011685158 -0.03328361 -0.035317827 -0.016207661 0.0045612818 0.015553012
0.020890562 0.023256281 0.005990676 -0.031841874 0.0055995504 -0.007570959 -0.012964621 0.019155094
-0.006686675 -0.02204469 0.021876158 0.011916981 -0.0015469141 0.018222328 -0.03053108 -0.0063742492
-0.032486588 -0.0027445464 0.0029218758 -0.0010494686 -0.03214438 -0.026310159 -0.034509763 0.02008757
-0.01891657 0.017738102 -0.030654658 -0.0010939797 0.022138914 -0.012189849 -0.027341135 -0.010001719
0.0044646217 -0.011800499 0.002781561 -0.0038906913 -0.031085286 -0.0102558555 -0.018137617 0.021473467

fc1.bias f4 [128]
00000000: 6516 283c 4d4d 4fbc 0c19 553e 6c0e 823d
00000010: 99b6 dd3b cef3 c63c 0623 a73a 2f4c 11bd
00000020: 9ca2 7cbc 1538 0d3b f490 1dbc 82f8 8a3d
00000030: 3682 5f3c 8d4b 00bd 2618 debd a33e d13b
00000040: a412 cebc 20d7 93bc a8ab 33bd b77c 12bd
00000050: af35 aabd dd82 5fbc ee25 873e c04a 933c
00000060: 04ca b23c 2b50 343e df8c a5bc 3b4a 973c
00000070: 2d16 c1bc 0672 363c db7e c4bc ae58 12bd
00000080: f8ec 813c 600b 8b3b de89 a6bc a9d6 b73c
00000090: 61c3 9f3e 5c90 0dbd ab99 43bc 3b9b edbc
000000a0: f3a6 2bbc 86e3 55bc 105a 263c dca8 963b
000000b0: a15d ca3d a90d b4bc c5c1 67bc 4ef9 a7bb
000000c0: 1c47 073c 4ed3 beba a3e5 cdbc b0c4 81bc
000000d0: 4cdb eabb 4a0e 97bb 6ae0 693e e7ea 07bc
000000e0: 1cf0 09bd ffe7 b83c 82d7 b33c 9dfb 59bc
000000f0: 09f2 c43d c3c6 da3a 3f4d e53d 97cc eabc
00000100: 1361 ef3a ad4f 863d 9722 db3b bfcb cdbb
00000110: 44b1 953c 06a6 053c a3b8 933c 089f 743b
00000120: d18b 13bd f802 453c d2b6 58ba eb24 713d
00000130: 289f 71bc ea7a 13bc ffab e23b 5331 38bc
00000140: 8933 013e 4b76 2fbc 7946 ccbc 0943 a7bd
00000150: f9f7 10bd 9b26 213c 0ff5 a4bb cf6c d4bc
00000160: 4b34 0a3c aa20 fa3b c46e b6bb e9d5 313e
00000170: 52de 0fbd bb92 87bb 7399 cabc 190b c1bc
00000180: b5de e0bc db78 fabc d467 f23c 50c1 98bc
00000190: bb5d 8f3e 1593 c83d 81ea 0dbd fb7f 0fbc
000001a0: b2d6 d2bc b36b 10bd 1a14 06bc df8e 4ebd
000001b0: cb4e 6f3e 6d28 0dbd 4ef5 923e 0f09 eebc
000001c0: abae 06be d87f 023c 7054 0ebd dd11 87bc
000001d0: ff35 993d 460c 58bc 85d2 e9ba c4d0 14bd
000001e0: 2c44 9e3e 3d01 c83c 577d 923c 493b 273e
000001f0: ba0d 833b e604 90bc 11f3 9cbc ad1e 543e
0.0102592455 -0.012652707 0.20810336 0.06350407 0.006766152 0.024286177 0.0012751527 -0.035473045
-0.0154196285 0.002154832 -0.009617079 0.0678568 0.013641885 -0.03132205 -0.1084445 0.0063856407
-0.025155373 -0.018046916 -0.043864876 -0.03576347 -0.083110206 -0.01364204 0.26396126 0.01797998
0.021824844 0.17608707 -0.020208774 0.018468013 -0.023570145 0.011135584 -0.02398627 -0.035729103
0.015860066 0.0042432994 -0.020329412 0.022441225 0.3120375 -0.0345615 -0.011938493 -0.029004684
-0.0104768155 -0.013054734 0.0101533085 0.0045977663 0.098811395 -0.02197917 -0.014145319 -0.005126155
0.0082567 -0.0014558823 -0.025133913 -0.015840858 -0.0071672555 -0.0046098577 0.22839513 -0.008295751
-0.03367625 0.022571562 0.021953348 -0.013304618 0.09616477 0.0016691316 0.11196374 -0.02866201
0.0018263183 0.06558166 0.006687473 -0.006280392 0.018273003 0.008157259 0.018032378 0.0037326235
-0.03602201 0.012024634 -0.00082669884 0.0588731 -0.014747418 -0.009001473 0.006917476 -0.011242229
0.12617315 -0.010709356 -0.024935948 -0.08167083 -0.035392735 0.009835864 -0.005034096 -0.02593079
0.008435319 0.0076332884 -0.0055674035 0.17366756 -0.03512413 -0.0041373647 -0.024731373 -0.023564862
-0.027449945 -0.030575207 0.029590525 -0.018646866 0.28001198 0.09793679 -0.03464747 -0.00875854
-0.02573714 -0.03525896 -0.0081835035 -0.05042922 0.23369901 -0.03446238 0.28702778 -0.029057054
-0.13152568 0.007965051 -0.034748495 -0.01648801 0.07481002 -0.01318652 -0.0017839229 -0.036331907
0.30911386 0.024414653 0.017882032 0.16331209 0.003999439 -0.01758046 -0.019158872 0.20714827

fc2.weight f4 [4, 128]
00000000: 3b8c 5dbd f894 26bd b112 5e3d 63dd 34bf
00000010: 2fc9 73bd d5a2 863d aaf8 053d be2f fa3b
00000020: 0e2b 833d c76d a3bd 17c0 833c 3905 c73e
00000030: d55e 17bd b8b4 86bc 78a2 8d3e 23ce 153d
00000040: 0aa9 b13c 8c9c af3c 5f22 183d 9115 983c
00000050: 834c 26bd 8f96 7abd 4481 21bf d0a1 533d
00000060: d5cc c7bc 3d5d 673e 26e8 b6bc 488d be3e
00000070: 9944 daba 9c15 93bd 2174 cbbc 0c1a 723c
00000080: cacc 493c adba c43b 3744 9e3c 9e96 a1bd
00000090: c1cc 9e3e 6ad5 e0bc 7a58 66bd 397e 24bd
000000a0: 7500 89bd 0831 34bc c8aa 4a3d 0284 823d
000000b0: 2f22 01bf 765b b4bc 3ec7 9d3d dcfa 1cbd
000000c0: d44a 8fbd 140a 863b bddc 4dbd 92e8 91bd
000000d0: 587c ac3c 1d09 7fbd c16e 113f f2b7 1abc
000000e0: 6942 5ebb f895 dd3b 7c0f a7bd 0788 763e
000000f0: bbea fd3e 10a1 9e3c 114d 00bf 69b7 2bbd
00000100: 9aa2 22bc 4050 a13e e007 98bd cd07 71bd
00000110: 8d6e 85bc e36a 7abd 7834 e2bc a4b6 10bf
00000120: 8cc8 063d d06f 093d 3326 563d e0a9 193e
00000130: 48e8 76bd 4687 863d 18ea 873d 63ad 9bbd
00000140: 8569 dfbe 88d1 eebd f362 2ebd 4a99 423e
00000150: 6cab 6ebc 7d7a 883c ecfe 53bd 0932 c23c
00000160: d41e 4ebd 0e2a 953d 59f9 4b3d e2a1 103f
00000170: 5f79 00bd 7252 84bd 026f bdbd 2604 82bc
00000180: fe60 abbc d8db 85bd d67b 833d 0ed4 603b
00000190: 695b c33e d5a3 3b3e 3eea 3c3c 19a6 c73b
000001a0: a7b5 ca3c 3188 fbbc e6ca a9bd 18d6 823d
000001b0: e168 85bf 4106 383d d295 15be 5d32 733d
000001c0: f0b1 f93d 287c f5bc 3b5c 02bf 8232 40bd
000001d0: 9f3a b43e 0718 bf3e 4a64 093d 0985 7dbc
000001e0: ded8 513e 6b2f a7bd db57 97bd fcb4 2c3f
000001f0: bb7b 9bbd 536e 07bd f64c 49bd df95 1ebf
00000200: aa0c 87bd 6cd1 00bd 6dad d13e 90dd d03e
00000210: 9c2a d4bc d3d0 3abd 0543 35bd 6657 58bd
00000220: 21fd d13c bd42 8ab9 750a ca3c 7ee9 13bf
00000230: 9188 173d 71ab 7bbd 912f 26bf c5fa 7d3d
00000240: 2ad2 2dbd 8cef 923c bb30 6e3e 94fc e63c
00000250: 57e3 393c dfd5 a23c 3afa f8bd fbb1 393d
00000260: 0031 873b 222f e43e 34b2 ac3c a25a 4cbf
00000270: b7af f9bc 83b6 953d 2cad 7f3c 4f3f 0a3c
00000280: cdbd 95bd 0048 5d3c f619 903d b7d4 62bd
00000290: 1ed7 08be 151c c53c b022 79bd 68c6 6dbd
000002a0: e7af 833c dd8d fbbc 3288 453d 5acc 29bd
000002b0: 1fcf 9b3e 14e9 7a3a f1e2 0cbd 538c 6abd
000002c0: 292d 8f3d ef25 5b3d 33a3 6dbd 4262 88bd
000002d0: 8996 983c e7ed 3b3c 2692 19bd d2bd 123c
000002e0: 5189 b83c 1134 403d a00e 8f3d 004e 14bf
000002f0: db28 f53b 933e 433d 7089 aa3d 4e47 7bbc
00000300: 48fe 573d 0ddb 4bbf c18c 5bbd 7c3a 1cbd
00000310: 2069 823c 6ec7 563d 63bc f9bb 5928 483e
00000320: 6c13 1a3d c9ff f03c 0082 0fbd cae8 53bf
00000330: 7d4c 893c d273 e2b8 9bc4 843c 55da 6d3d
00000340: d55c 07bf ea49 43bf 867c 2bbd 82f7 08bf
00000350: fc39 823d 89e3 79bd 5394 1f3d af88 87bc
00000360: f8cc 22bd a95a eb3c e40f 9fbd a889 fabe
00000370: 4b54 22bd f5c0 d63c 5a8b cd3e 8a3a 8c3c
00000380: c305 a83d 7a34 743d afb1 c93e b4b1 543d
00000390: e175 463d e0e3 943e 6986 d3bc 7cf5 81ba
000003a0: 780d 2a3b 24ee 843d 3152 663d 34d8 04bc
000003b0: d44f 96bc 29ad 57bd b489 bf3e 7404 6fbc
000003c0: 0afd 963d 255b f53a e045 0a3f 239f ea3c
000003d0: f57d c6bd ef3c ebbe e4b9 073d 92a9 74bd
000003e0: 3478 91bc 00c1 88bd 5885 04bd ccb2 16bf
000003f0: 04fb 9abd 7d46 903c aaac 0ebd 3200 b4be
-0.054088812 -0.04066941 0.054217044 -0.7065031 -0.059518036 0.065740265 0.032707848 0.007635086
0.064046964 -0.07979923 0.016082807 0.38871172 -0.036955673 -0.016443595 0.27663016 0.03657354
0.02168705 0.021436952 0.037142154 0.018564971 -0.04060031 -0.06117874 -0.6308787 0.05166799
-0.024389664 0.22594161 -0.022327494 0.37217164 -0.0016652524 -0.07181856 -0.024835648 0.014776718
0.012316892 0.006003699 0.019319637 -0.07890056 0.3101559 -0.027445514 -0.05623672 -0.040159438
-0.0668954 -0.010998018 0.049479276 0.06372835 -0.50442785 -0.022016268 0.07704018 -0.038325176
-0.06996694 0.004090557 -0.05025934 -0.071244374 0.021055385 -0.06226455 0.5680962 -0.00944327
-0.0033914095 0.0067622624 -0.0815725 0.24075328 0.49593148 0.01936391 -0.50117594 -0.04192296
-0.009926463 0.31506538 -0.07423377 -0.05884533 -0.016288066 -0.06113709 -0.02761291 -0.5652869
0.0329061 0.0335539 0.052282523 0.15006208 -0.060280114 0.0656877 0.06636447 -0.0760143
-0.43635193 -0.11661059 -0.042574834 0.19003788 -0.014567237 0.01665997 -0.051756784 0.0237055
-0.05032237 0.07283412 0.049798343 0.56497014 -0.03136575 -0.06461038 -0.09249689 -0.015871119
-0.020920273 -0.065360725 0.06420104 0.0034306082 0.38155678 0.18324216 0.011530457 0.0060927984
0.024744822 -0.03070459 -0.08290653 0.063884914 -1.0422632 0.04492784 -0.14607933 0.059374202
0.12192142 -0.029966429 -0.5092198 -0.046923168 0.35200974 0.3732302 0.03354291 -0.015473613
0.20492885 -0.08163341 -0.07389804 0.6746366 -0.07591959 -0.033064198 -0.04914566 -0.61947435
-0.06594212 -0.03144972 0.40952626 0.4079404 -0.025899224 -0.045609307 -0.044253368 -0.052817725
0.025633397 -0.00026371135 0.02466319 -0.57778156 0.036995474 -0.061442796 -0.6491633 0.06200673
-0.042436756 0.01793649 0.23260777 0.02819661 0.011345706 0.019877372 -0.12157102 0.04533575
0.0041257143 0.4456721 0.021081068 -0.79825795 -0.030479295 0.07310202 0.015605252 0.0084379455
-0.07311592 0.013505936 0.07036202 -0.055378642 -0.1336331 0.024061242 -0.060824096 -0.058050543
0.016075088 -0.030707294 0.04822559 -0.04145465 0.30431458 0.00095714745 -0.034396116 -0.05726273
0.069910355 0.053502973 -0.058016967 -0.06659366 0.018626468 0.011470295 -0.037492894 0.0089563895
0.022526415 0.046924654 0.06985211 -0.5793152 0.007481677 0.047667097 0.083269954 -0.015336825
0.052732736 -0.7963112 -0.05360103 -0.038141713 0.015919268 0.052436285 -0.0076213344 0.19546641
0.03761618 0.029418843 -0.035036087 -0.8277708 0.016760105 -0.00010798093 0.01620703 0.058069546
-0.52876025 -0.7628466 -0.0418668 -0.53502667 0.06358716 -0.06100801 0.038959812 -0.016544668
-0.039746255 0.028729754 -0.07766703 -0.48933148 -0.03963117 0.026215056 0.4014538 0.017117757
0.08204224 0.059620358 0.39393374 0.051927283 0.04845226 0.29080105 -0.025820928 -0.0009915079
0.002594797 0.06490734 0.056230728 -0.0081081875 -0.018348612 -0.052655373 0.37409747 -0.014588464
0.07372482 0.001871918 0.5401287 0.028640335 -0.09691993 -0.45944926 0.033136263 -0.059732027
-0.017757513 -0.06677437 -0.03235373 -0.5886657 -0.07567409 0.017611736 -0.034832634 -0.351564

fc2.bias f4 [4]
00000000: 06e0 183d 0ebe 0c3d 40de 51be ad46 c73c
0.03732302 0.034360938 -0.20494938 0.024325693
