cnn saved models/cnn_epoch6.pt (torch, 609323 bytes, 16 tensors)

conv1.weight f4 [32, 1, 3, 3]
000000 c3 19 a4 3e b3 31 94 3e 44 d3 78 be 31 6f a4 be
       0.32050905 0.28944167 -0.24299341 -0.32116082
000010 91 9c 35 be 2d 3d 38 be 09 48 7a 3d 7e db f3 bb
       -0.17735507 -0.17992087 0.061103854 -0.007441937
000020 e1 62 85 3e 81 0b e4 3e 30 82 c5 bd 98 b6 0c 3f
       0.26052 0.44540027 -0.09643972 0.54966116
000030 b7 c9 e5 bc ce 4e 88 bd 48 e9 b9 bd 17 b7 5b 3d
       -0.028050287 -0.06655656 -0.09077698 0.053641405
000040 5e 14 7c 3e 62 b6 f1 bd 7d 61 ce 3d ff 77 e1 bc
       0.24617144 -0.11802365 0.10077188 -0.027523039
000050 31 f8 a5 3e 66 19 7f be e9 b6 c4 be bc 91 b8 3d
       0.32415918 -0.24912032 -0.384208 0.090121716
000060 b5 0b 37 3e 0e 36 84 3e 4c 58 b3 be 6f 10 ff bd
       0.1787556 0.2582249 -0.35028303 -0.12454306
000070 fc df 9b 3e cf 97 83 3e a8 54 c8 3d 2f a2 4f be
       0.30444324 0.25701758 0.09781772 -0.20276712
000080 f3 c6 9b be e9 41 26 be 8c d1 6d 3e c0 bf 21 be
       -0.30425224 -0.1623608 0.23224467 -0.15795803
000090 c5 e1 18 bd 35 42 3a be f6 f6 0c 3e 9d 9e 8a be
       -0.037324686 -0.18189318 0.13766083 -0.27074137
0000a0 99 c2 6a 3e c6 4d b9 3d ff 9f 4a 3e a0 43 d4 3d
       0.22925796 0.09048037 0.19787596 0.10364461
0000b0 0a dd 61 be 95 4a 28 3e 0d b7 ab be 43 60 9d be
       -0.22056976 0.16434701 -0.33538094 -0.30737504
0000c0 62 4a fe 3d 45 97 87 3e fa 98 fd bc 9b d9 a3 be
       0.12416531 0.26482597 -0.030956734 -0.32001957
0000d0 32 6b 60 bd f1 b6 f4 be a9 8b e5 3d c0 7c 09 be
       -0.05478973 -0.47795823 0.11208279 -0.13426495
0000e0 9e 59 93 be 7d ad 06 3e a9 6c 45 3e 6f 5c b8 3e
       -0.2877931 0.13152118 0.19279732 0.3600802
0000f0 43 a8 b3 be c1 6c 25 3c ad 0f 7a bd b2 6e 85 3e
       -0.3508931 0.01009673 -0.061050106 0.26061016
000100 12 47 5f be 53 5e 91 be 51 48 92 3e 3c 17 08 bd
       -0.21804455 -0.28392276 0.28570798 -0.033225283
000110 a3 45 99 be 4b 11 91 3e 83 40 f7 bd 48 b7 eb 3d
       -0.2993594 0.28333506 -0.120728515 0.115095675
000120 d7 0b 01 3d bc f0 b7 3c 72 18 15 bf 23 02 b1 bd
       0.031505432 0.022453658 -0.58240426 -0.08642986
000130 e4 0f 3d bd 5e ce 05 3d c7 03 60 3e 3d 4b ec 3d
       -0.046157733 0.03266751 0.21876441 0.11537788
000140 31 76 f4 3c 0e f2 08 3e 4f 43 91 be 9a 56 cf 3e
       0.029841514 0.13373587 -0.28371665 0.4049576
000150 68 0c a0 be 1a 93 bb 3d 01 80 b2 be f9 31 64 3e
       -0.31259465 0.09158917 -0.34863284 0.22284688
000160 07 f2 da 3d 53 57 1d be 1d 60 8b 3a e8 9f 4f be
       0.10690694 -0.15365343 0.0010633502 -0.20275843
000170 7a 8c 0e bd 75 8a 20 be 67 69 11 3e 41 63 d5 be
       -0.034801938 -0.15677817 0.14200364 -0.41677287
000180 98 b3 8e 3e a2 ac 88 3e 5b b4 44 bd 0d 5c 89 bd
       0.27871394 0.26694208 -0.048023563 -0.067070104
000190 50 73 65 3e dc 4b 50 be 84 d7 8b 3d d5 b6 4c 3e
       0.2240727 -0.20341438 0.06828216 0.1999162
0001a0 92 b3 45 be 64 d0 b5 3e df e5 80 bd c0 13 26 be
       -0.19306782 0.35510552 -0.062938444 -0.16218472
0001b0 17 c6 ba 3e bb 9e fc 3d 67 b8 29 bd 25 78 01 3e
       0.36479256 0.12334963 -0.041435625 0.12643488
0001c0 dd ea 35 be 0f 00 de bd cc e1 06 be 38 ec 1a 3c
       -0.17765374 -0.10839855 -0.13172072 0.009455733
0001d0 da 6c 7c be a7 ca a6 be 64 c2 85 3d 09 53 c2 be
       -0.24650899 -0.32576486 0.06531218 -0.37953976
0001e0 02 4f 6c be a2 b7 8f 3d 0c 95 3a 3d 8b 86 c6 3c
       -0.23077014 0.07017447 0.0455523 0.024234077
0001f0 b7 4c dc 3d e3 24 9b 3e c5 28 aa 3e d8 e5 b6 be
       0.1075682 0.3030158 0.3323423 -0.35722232
000200 34 d6 4b bd 09 3e 68 3e 10 7b 33 3e 88 d8 d3 be
       -0.049764827 0.22679915 0.17527413 -0.41376138
000210 22 84 a5 3e ed 65 ec 3c 34 d8 b0 be 8e f0 60 bd
       0.32327372 0.028857196 -0.3453995 -0.05491691
000220 7e b6 09 3e e0 27 06 bf 0c 93 9e 3d 77 0b 9b be
       0.13448521 -0.52404594 0.07742891 -0.30282184
000230 71 94 ab bd 1f af e3 3e 9f e0 d9 3d ef 6f 02 be
       -0.08377922 0.44469544 0.10638546 -0.12738012
000240 65 cb 77 3e d0 4a 11 3e ef fc a7 be 51 a1 35 bd
       0.24198683 0.14188695 -0.3281016 -0.044343296
000250 4a 63 5e be 02 5d c0 3e 61 58 c6 be c6 73 c1 3e
       -0.21717563 0.3757096 -0.38739303 0.3778364
000260 1e 6a 8e bd 2c 3f 72 be d0 3a d7 bc d4 d4 e7 3d
       -0.06953834 -0.2365691 -0.026273161 0.113198906
000270 04 21 c8 3d 43 a8 c6 be 3c eb b3 be 54 00 fe 3d
       0.09771922 -0.38800249 -0.35140407 0.12402406
000280 1e d7 bc 3e 78 c8 94 3e 39 ae ce 3c d4 bd ba 3e
       0.3688287 0.29059196 0.02522956 0.36472952
000290 2a 4d 7a 3d 8d 14 0a 3e 6e b1 12 be f7 5d 8e bd
       0.061108746 0.13484402 -0.14325497 -0.06951516
0002a0 70 b6 86 bd fe 3e a1 be 94 ba 77 bc c8 6f 90 3e
       -0.06577766 -0.31493372 -0.015120167 0.28210282
0002b0 7c e4 47 3e 98 40 63 3d 30 31 0e bf 2d d0 aa be
       0.19520754 0.055481523 -0.55543804 -0.3336195
0002c0 f0 bc d6 3c 11 3b 70 3e f3 9a cf 3d fc 0b 0a 3e
       0.02621314 0.23460032 0.10136976 0.13481134
0002d0 b0 d4 9a 3d 0a 51 c4 be b6 1d 9e 3e 12 0f 6c be
       0.07560098 -0.38343078 0.30882043 -0.23052624
0002e0 b0 30 47 bd 69 df 33 3e 98 6a 4a be f3 b6 1d ba
       -0.048630416 0.17565693 -0.19767225 -0.0006016336
0002f0 58 8e 5b 3e c7 87 66 be 12 4d 9f 3e 26 01 b1 3e
       0.21441019 -0.22512732 0.31113487 0.3457119
000300 2d 15 08 3e 4e bf bd bd cf e0 61 be c0 39 c1 3d
       0.13289328 -0.09265004 -0.22058414 0.09434843
000310 f5 0c a3 bd 26 1a af be bf aa ae 3d fb a3 09 3c
       -0.07961456 -0.34199637 0.08528661 0.008400912
000320 e6 fb 77 be a6 a5 ce 3e 6c bd 1d be e8 74 c7 bd
       -0.24217185 0.40360755 -0.1540429 -0.09739095
000330 5f 6e c8 be 2f 9f 4a 3e e3 dc 92 3e 0b a8 f2 bd
       -0.39146706 0.19787286 0.28684148 -0.11848458
000340 19 9c 46 bd 01 0d 5c 3d c9 b9 82 bd e6 9f 64 be
       -0.04848871 0.05372334 -0.06383092 -0.22326621
000350 77 68 9b 3e e2 fd 91 be e2 4f 94 3c 5d 6d b6 3e
       0.30353138 -0.2851401 0.018104497 0.35630313
000360 b5 46 8c be 55 86 13 be 36 e8 87 3e 07 f8 b1 be
       -0.27397695 -0.14406712 0.2654435 -0.34759542
000370 f0 bb b3 bd 32 e5 80 3e 49 01 4e bd 0a 05 92 3e
       -0.087760806 0.25174862 -0.050294194 0.2851947
000380 9f ce c4 3d cc 19 75 3e e8 8e 8e be 91 fe 4b bc
       0.09609722 0.23935622 -0.27843404 -0.01245083
000390 b8 da 8c 3e ac d6 02 bf e9 c7 8f 3e 5b a3 d8 3d
       0.2751062 -0.51108813 0.28082207 0.105780326
0003a0 f2 8a bf be b4 98 7b 3e 04 32 a6 bd ba 8f ea be
       -0.37410694 0.2456997 -0.081150085 -0.4581278
0003b0 ba a2 79 be ee 34 86 3e 90 ce a5 be d9 1f 9a bd
       -0.24378482 0.26212257 -0.32384157 -0.07525606
0003c0 65 a3 b5 bd 77 3c b5 3e dc 69 c0 3d a6 34 d1 be
       -0.08869056 0.35397694 0.09395191 -0.4086048
0003d0 ce 51 97 be d1 1e b6 3d 60 00 d3 3c 9a e0 af 3c
       -0.295546 0.088925965 0.025757015 0.021469403
0003e0 4d 62 fa bd d5 d2 1a 3e d1 39 9c bd 89 4c a2 3e
       -0.12225781 0.15119489 -0.07628215 0.31699017
0003f0 22 68 9b be ac b2 75 3e 3f 2d ec 3e ed 9a 91 be
       -0.30352885 0.23993939 0.4612827 -0.28438511

conv1.bias f4 [32]
000000 28 d6 07 3d 9c 1f 9a 3e 4b 8e 09 3e 13 47 14 be
       0.03316322 0.3010224 0.13433187 -0.14480238
000010 44 14 6e 3e b9 a9 b2 3e 7c e4 5a 3e 65 07 6d 3d
       0.23249918 0.34895113 0.21376222 0.05786838
000020 2e 39 43 3e 5e d0 33 3e 0f 3b 02 3e 4e 7c a8 3e
       0.19064781 0.17559955 0.12717842 0.32907337
000030 67 d9 d4 3e b1 97 5b 3e 65 91 d1 bb 1e 15 59 be
       0.41572115 0.21444584 -0.006395506 -0.21199462
000040 18 78 d0 3c 89 16 0f 3f fe 05 eb be f4 21 95 3e
       0.02544789 0.5589376 -0.4590301 0.29127467
000050 ed ed 96 3e c8 b7 09 be 50 1b db 3e f0 e8 7e be
       0.29478398 -0.13449013 0.42794275 -0.24893546
000060 23 49 98 3e 72 83 82 3c 79 9b ea bd 73 49 05 3e
       0.297433 0.015931819 -0.11455435 0.130163
000070 f2 c9 36 3e dd 50 1d bd db 71 b8 be 32 0b 00 3e
       0.17850474 -0.038407195 -0.36024365 0.1250427

BN1.weight f4 [32]
000000 98 7a a3 3f 5f 06 da 3e c3 ed 84 3f 0b e5 52 3f
       1.2771788 0.42582986 1.0385059 0.8238074
000010 20 27 6b 3f 89 fc 4f 3f 37 bc 9f 3f bb 7c 7f 3f
       0.91856575 0.81244713 1.2479314 0.997997
000020 e0 9c 5f 3f c6 5e 73 3f cc ff 65 3f 27 d0 dd 3e
       0.8734875 0.9506649 0.8984344 0.4332287
000030 b4 6d 73 3f 33 ab 63 3f 77 20 71 3f 40 8f 79 3f
       0.9508927 0.88933104 0.9419016 0.9748421
000040 6f 1a 60 3f f7 8b 05 3f f9 03 35 3f e0 fd 47 3f
       0.87540334 0.52166694 0.70709187 0.7812176
000050 5e 05 7a 3f 05 cd 5e 3f 3c 51 85 3f 43 fb 41 3f
       0.9766444 0.87031585 1.0415416 0.7577402
000060 73 73 49 3f d1 08 a6 3f 94 66 71 3f d9 9c 5f 3f
       0.78691787 1.297144 0.94297147 0.87348706
000070 89 fd 82 3f 63 dd 48 3f bd 94 66 3f 8a 92 55 3f
       1.0233623 0.7846281 0.90070707 0.83426726

BN1.bias f4 [32]
000000 91 f1 b4 be 60 92 20 be 6f 08 7a be e6 f4 11 be
       -0.3534055 -0.15680838 -0.2441728 -0.14253578
000010 c1 fa 3b bf bf 3e 98 be 07 5d 21 be ea 01 f6 bd
       -0.73429495 -0.2973537 -0.15758143 -0.12012084
000020 f5 37 dd be a5 75 ef be 16 d3 d4 be ed f8 2f be
       -0.43206754 -0.46769443 -0.41567296 -0.17184801
000030 b9 55 3b bd da c1 bf be 43 92 2a be 9b 7b 18 bf
       -0.04573605 -0.37452585 -0.16657357 -0.59563607
000040 df e5 57 bf c0 39 f3 bd 21 02 c0 be fd 79 00 bf
       -0.8433513 -0.11876249 -0.37501624 -0.5018614
000050 8a 13 b4 be c3 b5 95 be ac 63 90 bf 91 76 b6 bd
       -0.35171157 -0.29240236 -1.1280417 -0.089093335
000060 72 c6 0d bd 54 57 a1 be 89 c4 1b bf b1 f6 07 be
       -0.03461308 -0.3151194 -0.60846764 -0.13277699
000070 2d 38 c4 bd da 67 98 bd 4e ae e5 be 65 04 4f be
       -0.09581027 -0.07441683 -0.44859546 -0.2021652

BN1.running_mean f4 [32]
000000 e1 b2 fb 3c ef ce e9 3e d9 a4 f9 3d 43 79 1e be
       0.030724945 0.4566569 0.12189645 -0.15475945
000010 20 7b 77 3e 21 17 3a 3e e5 51 59 3e 92 34 5f 3d
       0.24168062 0.18172885 0.21222647 0.054493494
000020 e3 2c 13 3e 33 f9 18 3e 5a 00 c5 3d 22 5d b7 3e
       0.14372592 0.14938812 0.09619208 0.35813242
000030 a9 a5 cd 3e a7 e7 21 3e ad 09 aa bc 9c 20 8b be
       0.4016545 0.15811025 -0.020756567 -0.27173316
000040 cd 32 2f 3d 68 a7 0d 3f 2e b9 ec be 1d cf 9f 3e
       0.042773057 0.55333567 -0.4623503 0.31212702
000050 5a 4e 8e 3e a4 6e 16 be 84 32 e4 3e 6b e2 80 be
       0.27794152 -0.14690644 0.4456979 -0.25172743
000060 84 db 96 3e 42 4a fc 3b 41 af 5c be 76 04 9c 3d
       0.29464352 0.007699282 -0.21551229 0.07618038
000070 f3 18 24 3e 8c 57 be bd 4f 29 ba be fe cd d3 3d
       0.16025142 -0.09294042 -0.3635964 0.10342024

BN1.running_var f4 [32]
000000 f8 c6 14 3b de 04 e0 3c f5 19 12 3b bd d8 2c 3b
       0.0022701602 0.02734607 0.0022293304 0.0026374303
000010 ba 6c f4 39 78 8c f1 3c 00 d7 00 3b c2 4d 39 3b
       0.00046620314 0.029485926 0.00196594 0.0028275107
000020 8b f4 d9 3b 30 5b 14 3b 2b 58 95 3b 42 25 ef 3a
       0.0066514662 0.002263736 0.0045576296 0.0018245357
000030 b1 c2 91 3b d9 87 1c 3c d3 eb 31 3b dd 73 0d 3c
       0.004448258 0.009553873 0.0027148619 0.008633581
000040 c6 a5 47 3a 60 3e b6 3b 40 b2 81 3b 97 22 6d 3b
       0.000761595 0.005561635 0.0039580166 0.0036183947
000050 a0 ae ba 3a 81 82 7a 3b 6f 5f 8e 3a 32 30 ca 3a
       0.0014242716 0.003822476 0.0010862182 0.001542574
000060 40 b0 40 3b 94 3c 8e 3a ce 53 8d 3c 0d 3b 09 3c
       0.0029401928 0.0010851794 0.017251875 0.008375895
000070 f9 82 a2 3b 77 d9 ef 3b ef e9 85 39 3e 52 2b 3c
       0.004959461 0.007319625 0.0002554203 0.01045662

conv2.weight f4 [64, 32, 3, 3]
000000 83 0b 2f be c0 7c 9f 3c bf 4d d1 bd e3 31 c2 bd
       -0.17094235 0.019468665 -0.10219907 -0.094821714
000010 76 25 bd bd 35 f0 5e be c1 fc ad bd 2a 28 85 3d
       -0.09235661 -0.21771319 -0.084954746 0.06501801
000020 c3 78 71 bd 2b cb 78 bd 68 6d b6 bb 41 a6 39 3d
       -0.058953058 -0.06074063 -0.0055672415 0.045324568
000030 e4 ba 03 be fa 46 3f be ac 40 f4 bd ae 07 9d 3d
       -0.12864262 -0.18679419 -0.11926398 0.076674804
000040 7e 77 8e 3d 83 de 79 3d 3a 61 b3 3d ba 3c dc 3d
       0.06956385 0.06100322 0.08758779 0.1075377
000050 2c 9c a6 3d d8 be 0b be 81 8a 9c bd 3b 64 ec bd
       0.08135256 -0.1364702 -0.07643605 -0.11542555
000060 ec 45 90 bd 11 dd 8f 3c 7c 46 23 3e f6 37 81 be
       -0.070445865 0.017561467 0.15944856 -0.25238007
000070 88 a3 e1 3d 19 c4 83 3d 5e 2f 88 be ad 0a 9b 3d
       0.11017519 0.06433887 -0.26598638 0.075703956
000080 04 13 0e be 6b ae 26 3c eb e6 8a 3e 6d db 56 3e
       -0.13874441 0.01017342 0.271293 0.20982142
000090 76 89 20 3e 9e 68 e5 bd 0c eb 06 be 7c bc 7b bd
       0.15677437 -0.11201595 -0.13175601 -0.06145905
0000a0 8e ae 5b be 31 9b 0c be 9b 65 ac bc 79 51 3b bd
       -0.21453306 -0.13731076 -0.021044543 -0.045731995
0000b0 08 61 b1 3c 74 17 22 be 19 d4 37 bd 5a 2a eb bd
       0.021652713 -0.15829259 -0.044880006 -0.11482687
0000c0 cb a6 a2 bd 3e f2 12 bd c5 b6 02 bd a7 ae 1e 3e
       -0.079419695 -0.03587555 -0.031912584 0.15496312
0000d0 4c 18 21 3e cc b6 fd 3d f7 a2 dc 3d 7c 73 05 3d
       0.15731925 0.12388381 0.107732706 0.032580838
0000e0 45 aa 1f be f9 52 3f bc 92 d7 a3 3d 09 70 37 3e
       -0.15592296 -0.011677497 0.08000101 0.17913832
0000f0 b5 b5 29 be 80 65 25 be ff cf 67 be 49 4c 5b bd
       -0.16573222 -0.16152 -0.22637938 -0.053539548
000100 f1 75 77 3d 42 00 26 3d 56 44 49 3c 38 c2 21 3b
       0.060415212 0.04052759 0.012284359 0.0024682414
000110 17 cb 8b bd 05 d9 a3 3d c5 09 9d 3d 0f 21 21 3e
       -0.06825846 0.080003776 0.07667879 0.15735267
000120 ce 44 67 be 6e dc 42 bd df d9 3b be 41 46 93 bd
       -0.2258484 -0.0475735 -0.1834483 -0.07191134
000130 da 3c 9c 3d 60 80 04 bd b7 28 64 bd 3d 3f 75 3d
       0.07628794 -0.03234899 -0.05570289 0.05987476
000140 aa 51 31 bd d7 e4 44 be 98 2d 82 be 3d d8 cc be
       -0.04329077 -0.1922792 -0.2542541 -0.40008727
000150 5f 1d 10 be 64 7a ca bc 32 37 8f bd 03 9a 90 be
       -0.14073704 -0.024716564 -0.069929495 -0.28242502
000160 be b5 94 be f0 3a bc be e9 76 80 3e e1 55 5b 3e
       -0.29044908 -0.36763716 0.2509072 0.21419479
000170 f8 b9 29 3e 85 70 0a 3d c4 8b ca 3d 65 c0 ce 3d
       0.16574848 0.033798713 0.098899394 0.1009529
000180 22 e6 81 bd 08 0b 6e ba 6c b3 bd 3b c7 4c d8 bd
       -0.063427225 -0.0009080623 0.005789211 -0.10561519
000190 b9 15 3a bb 68 8b e1 bc 48 2e 1a bd e6 f3 db 3c
       -0.0028394295 -0.027532294 -0.037641793 0.026849698
0001a0 bf 77 a1 bd 8b b6 09 3e fc 63 78 3d be ca 4c 3d
       -0.07884168 0.13448541 0.060642228 0.049998038
0001b0 84 db ee bd 00 8c 5c 3d 1f b7 dc bd 2c 9a 2b 3e
       -0.11662963 0.053844452 -0.10777115 0.1675803
0001c0 39 51 f4 3c d3 ad a7 be 8a fb e5 bd 7d d8 a6 3d
       0.029823886 -0.32749805 -0.11229618 0.081467606
0001d0 2e 68 03 3e ea 0b 0d 3d f3 64 a9 bd 67 da 19 be
       0.1283271 0.03443519 -0.08271208 -0.1502472
0001e0 5b 49 ca 3b 7f d9 ff 3c 5c 9f 26 bd f4 8c 2f bd
       0.0061732954 0.03123164 -0.04067932 -0.042859033
0001f0 a4 0c ca 3d 3f c5 c6 3d 58 9b 14 be e3 59 27 3c
       0.09865692 0.097055905 -0.14512384 0.010214302
000200 30 2f b4 bc 96 0a d9 3d c7 a3 b2 3c 0b 55 6a be
       -0.021995157 0.10597722 0.02180661 -0.22884004
000210 72 be df bc 45 c2 99 3d 2e 0c e0 bc 00 8f 78 be
       -0.027312491 0.07507757 -0.027349558 -0.242733
000220 ba 1d 42 3c 53 95 89 be 28 fd a6 bc 23 52 d5 3d
       0.011847908 -0.26871738 -0.020384386 0.10416057
000230 01 80 59 3d 8b cf 01 3c ed 26 79 3d f8 94 03 be
       0.05310059 0.007923017 0.06082814 -0.12849796
000240 12 8c a0 be a2 de 98 be 3c ad 6d be 2f 80 46 3e
       -0.31356865 -0.29857355 -0.23210615 0.19384836
000250 ac 03 1c 3e b3 1e 19 3d 53 35 1e be f1 46 0f be
       0.15235776 0.037382793 -0.15450029 -0.13991906
000260 8b 3e d5 3d 1b 0a 9b 3e cf d8 4e 3e 83 33 98 3e
       0.1041232 0.30281147 0.20199893 0.297268
000270 ff 23 30 3d f3 74 91 3d 00 59 0a 3e 33 f4 89 3d
       0.04300308 0.071023844 0.13510513 0.067360304
000280 9a ca dd 3d 8f 5a b7 3d e1 ec fd bd f0 b8 54 3c
       0.10829659 0.089528196 -0.12398697 0.012983546
000290 55 6c 3b 3e 9d 7b c7 bd 97 fb b0 be 6e f9 d0 be
       0.18303044 -0.09740374 -0.34566948 -0.408153
0002a0 ed 15 5f 3d 04 80 91 3d a3 ed 04 3e 83 bd 83 be
       0.05446427 0.07104495 0.12981276 -0.25730523
0002b0 f8 f4 ad bd c9 75 37 bd 80 3f a9 bd a2 b1 de bd
       -0.0849399 -0.044790063 -0.08264065 -0.108737245
0002c0 0a 42 08 be bc a7 a5 ba 8b d4 4c ba 42 3d 2a 3e
       -0.13306442 -0.001263849 -0.0007813654 0.1662493
0002d0 bf 14 94 3e ed b5 90 3d ab ef 8f bd 5a c8 77 be
       0.28922078 0.070659496 -0.07028135 -0.24197522
0002e0 87 89 09 be 15 d0 32 be 99 fe ba bd 7a f8 6b 3c
       -0.13431369 -0.1746219 -0.09130592 0.014402503
0002f0 d8 bc d2 bd 0a 69 9c 3d ad 88 72 3e 52 5c 8d 3e
       -0.10289925 0.07637222 0.2368495 0.27609497
000300 02 eb 64 be 28 df 74 bd 0c 3b 00 be fe cd 90 ba
       -0.22355273 -0.05978313 -0.12522525 -0.0011047719
000310 33 16 8b 3e 16 22 60 3e 53 cc bf bc 72 e4 d4 3d
       0.27165374 0.21888003 -0.023412859 0.10395135
000320 01 1a 22 3e 32 b9 d3 bd 14 9c f2 bd 97 58 03 bd
       0.15830232 -0.103380576 -0.11846176 -0.032066908
000330 f5 4c b8 3d 47 57 fb bd 15 c6 b6 3c 4e c0 e3 3d
       0.089990534 -0.12272506 0.02231125 0.111206636
000340 d0 14 24 3d a9 c2 93 3d 84 50 1d be 60 51 9c bd
       0.04005891 0.07214863 -0.15362746 -0.076327085
000350 13 87 4a be af 6a 1a be 1b bb f9 bb a8 67 9a bd
       -0.19778089 -0.15079759 -0.0076211817 -0.07539302
000360 e1 ff cb 3d 0c f6 c0 3c a4 75 b3 3d e2 2f f8 bd
       0.099609144 0.023554824 0.087626725 -0.12118508
000370 c0 80 eb bd 00 d3 83 bd 2a 16 5a bd 6a 54 93 3d
       -0.114991665 -0.064367294 -0.053243794 0.07193835
000380 4c 8a fd 3d dd 36 7e 3d e0 ae 09 be aa d1 cc bd
       0.12379894 0.06206404 -0.13445616 -0.10000928
000390 cf de 76 3b 68 7e 44 bc cf a9 45 3d 60 97 bf be
       0.0037669425 -0.011993028 0.048257645 -0.37420177
0003a0 5f f6 ce be 22 b6 e6 be 0f cd c4 be 17 f0 a4 be
       -0.4042234 -0.4506083 -0.38437697 -0.32214424
0003b0 32 7c a6 be fb fa 33 be eb ef a8 bd a5 2b 9f bd
       -0.32516629 -0.1757621 -0.08248886 -0.077719964
0003c0 b5 be 9a be 3a 1a b2 be bb a0 b4 be 56 01 f2 bc
       -0.30223623 -0.34785634 -0.35278878 -0.029541653
0003d0 74 46 03 be c2 95 a7 be ab e7 ea 3b dd 70 8e bc
       -0.12819844 -0.32731444 0.0071687303 -0.017387802
0003e0 0f 0f 67 3d 89 b6 98 bc 9b f7 61 3d 1b 90 bf 3d
       0.056410845 -0.018641727 0.055167776 0.09353658
0003f0 dc 67 31 3c 5d ac 03 3e 84 d3 bd 3e 52 ba 06 be
       0.010827985 0.1285872 0.37075436 -0.13157013

conv2.bias f4 [64]
000000 a5 76 6e bc bd 24 8c 3b 8c 8d 48 bc 76 e0 07 bd
       -0.014554654 0.0042768405 -0.012240779 -0.033173047
000010 b3 cc 10 3d 0c 21 65 3c 60 71 ec 3c 9d c3 04 3d
       0.035351466 0.01398493 0.028862655 0.032413114
000020 eb 5a 88 3c 70 4b 30 bd 32 d9 8a bb 76 32 14 3c
       0.016644916 -0.043040693 -0.0042373175 0.009045234
000030 47 19 64 3d c6 9b 95 ba 3a d1 b1 3c f1 cb 48 bc
       0.05568817 -0.0011414222 0.021706212 -0.012255655
000040 1a 9d b4 3b 5c 64 99 bd e0 84 72 bd cd e8 38 3d
       0.005511892 -0.07489845 -0.05920875 0.04514389
000050 9b ba d0 3d bd 59 90 3b 4e 6c bc bd 17 a5 39 bd
       0.10191842 0.004405229 -0.09200345 -0.045323458
000060 68 bb fc bc 48 83 bf 3b db ee fe 3c cb 64 69 3d
       -0.030851081 0.0058445074 0.031119755 0.05698089
000070 0c f5 ad bc a3 28 11 3c cb 17 04 3d d8 8d 93 3d
       -0.021235012 0.008859786 0.032249253 0.07204789
000080 5e ea 73 3d b4 b6 eb bc 02 e0 d2 3c 6f d8 9a bd
       0.05954968 -0.028773643 0.02574158 -0.07560813
000090 b4 1f a8 3c 5a ca a1 bc 8b 92 71 bd 96 dc 87 bd
       0.02052293 -0.019749809 -0.058977645 -0.0663387
0000a0 6e d2 82 3d e1 bb af bc b6 d9 82 3c 48 e5 cc 3a
       0.063877925 -0.021451892 0.015972953 0.0015632296
0000b0 58 8a fb 3b e4 96 19 3d 3b 11 bd 3c 93 6d a3 bd
       0.007676404 0.037497416 0.023079505 -0.07979884
0000c0 12 fb be 3c 3b 43 0a bd a6 fe 56 bd 5a 4d fa bb
       0.023313079 -0.033755522 -0.052488945 -0.0076386156
0000d0 f7 22 89 3d a3 e5 3c 3d 84 ec 82 3d e1 7c bc 3d
       0.06696122 0.046117436 0.06392768 0.09203506
0000e0 f7 e9 02 3d de 93 04 3d 08 f7 54 bc eb 59 0b bd
       0.031961408 0.03236758 -0.01299835 -0.0340213
0000f0 01 bc b2 3d 3c 39 83 bc ca d4 78 3c 61 f7 cd bc
       0.08727265 -0.016018502 0.015187452 -0.025142374

BN2.weight f4 [64]
000000 52 80 9a 3f 42 48 89 3f 63 0d 93 3f 35 29 8b 3f
       1.207041 1.0725176 1.148846 1.087195
000010 14 db 78 3f 16 04 9e 3f 1d 5d 58 3f b0 83 87 3f
       0.97209287 1.2344997 0.8451708 1.0587063
000020 e0 59 8e 3f c4 e0 a0 3f b4 39 89 3f c4 ba 86 3f
       1.1121178 1.2568593 1.0720735 1.0525746
000030 6c d0 93 3f b1 89 99 3f 70 a2 8f 3f d0 37 8c 3f
       1.154798 1.1995145 1.1221447 1.0954533
000040 ea 3e a1 3f a8 38 94 3f 20 de ae 3f d0 d0 e1 3f
       1.2597325 1.157979 1.3661537 1.764185
000050 a9 a4 8e 3f 62 06 90 3f be ad d6 3f 02 75 95 3f
       1.1144 1.1251948 1.6771772 1.1676333
000060 5e a3 8f 3f 45 58 e6 3f 6e 10 8a 3f 2f 62 a5 3f
       1.1221731 1.7995688 1.0786264 1.2920588
000070 21 3e 9f 3f 70 5d 97 3f c6 4b 97 3f 4b 22 85 3f
       1.2440835 1.182539 1.1819999 1.040109
000080 8f dd 98 3f d7 35 87 3f c1 06 89 3f 3d dc 99 3f
       1.1942614 1.0563306 1.0705186 1.2020336
000090 66 fe ba 3f bf 11 81 3f b1 74 54 3f cd 80 8d 3f
       1.4608886 1.0083541 0.82990557 1.1054932
0000a0 fd a0 83 3f a5 4a 73 3f f6 78 80 3f ac d5 b7 3f
       1.0283505 0.95035774 1.0036914 1.4362082
0000b0 d3 d0 ad 3f 37 db 99 3f 47 db 9c 3f 46 f7 78 3f
       1.3579353 1.2020024 1.2254418 0.9725231
0000c0 91 ce b6 3f f9 a8 89 3f ec e8 85 3f c1 b0 86 3f
       1.4281789 1.0754691 1.0461707 1.0522691
0000d0 7b 1c a5 3f eb df 62 3f 33 64 99 3f 2a a8 8a 3f
       1.2899317 0.8862292 1.1983703 1.083257
0000e0 ac 29 8c 3f 55 c3 ab 3f 81 9f 8d 3f 8f fd 71 3f
       1.0950217 1.3418986 1.1064302 0.94527525
0000f0 51 ae 9f 3f 0f cd a3 3f 33 6f 9e 3f c3 57 a4 3f
       1.2475072 1.2796954 1.2377685 1.2839283

BN2.bias f4 [64]
000000 18 da 03 bf 72 24 d3 be 08 d9 ff be c8 b9 df be
       -0.5150466 -0.41238743 -0.4997027 -0.43696427
000010 36 88 e4 be 6e f3 ff be b3 97 af be ec 22 d2 be
       -0.4463517 -0.4999041 -0.34295425 -0.41042268
000020 50 48 f8 be de 5d 08 bf b9 8a ae be 0e 58 e0 be
       -0.4849267 -0.5326823 -0.34090212 -0.4381718
000030 ad 63 f4 be f2 fe ea be d5 2c d4 be fe 65 e3 be
       -0.47732297 -0.45897633 -0.41440454 -0.4441375
000040 0e c3 e8 be e5 af 09 bf 1d f3 42 bf 07 0b 8f bf
       -0.45461315 -0.5378402 -0.7615221 -1.117524
000050 ee 41 be be a5 61 0d bf 99 27 7d bf 7c 17 ca be
       -0.37159675 -0.5522712 -0.98888546 -0.39471042
000060 4a ea cb be a4 6e 5e bf 06 d1 19 bf 2f ad f1 be
       -0.39827186 -0.86887574 -0.6008457 -0.4720244
000070 29 af 0e bf 05 37 d9 be 64 b9 f5 be 86 fe e4 be
       -0.55736023 -0.4242479 -0.47993004 -0.44725436
000080 30 1f 14 bf 2e 71 e4 be f9 01 d1 be 0b 8b d4 be
       -0.5786009 -0.446176 -0.40821818 -0.4151233
000090 ca f0 0c bf 02 8c bc be 9a 93 76 be 9b 54 eb be
       -0.55054915 -0.36825567 -0.24079743 -0.45962986
0000a0 da 17 c6 be 18 23 ac be 2c 4d da be 05 17 89 bf
       -0.38690072 -0.33620524 -0.42637002 -1.071015
0000b0 0a 7d 05 bf 93 9f f0 be cf ed 10 bf fe a0 f0 be
       -0.5214392 -0.46996745 -0.5661287 -0.46997827
0000c0 3f a5 d9 be ef 94 d9 be ac bb dd be 2e 2b fe be
       -0.42508885 -0.4249644 -0.43307245 -0.49642318
0000d0 9c b0 13 bf 33 70 9a be 6a 4a f5 be 5d 4f d4 be
       -0.5769136 -0.30163726 -0.47908336 -0.414668
0000e0 4f 3d b2 be 1c c9 0d bf d9 56 e5 be e2 a0 c4 be
       -0.348124 -0.55384994 -0.44792822 -0.38403994
0000f0 e6 b0 13 bf 32 b1 15 bf 71 e4 27 bf 48 c0 fa be
       -0.576918 -0.58473504 -0.6558295 -0.48974824

BN2.running_mean f4 [64]
000000 13 c3 37 bf f2 43 a4 bf ef 95 5c bf 7e 0f 84 bf
       -0.71782035 -1.2833235 -0.8616628 -1.0317228
000010 17 6b 98 bf a2 af a5 be e2 66 fe be bf 88 4a bf
       -1.1907681 -0.3236056 -0.49687868 -0.7911491
000020 54 92 3d bf d6 66 4d bf 6a d1 9e bf 53 4f 60 bf
       -0.74051404 -0.8023504 -1.2407658 -0.8762104
000030 1d 32 62 bf ee 3f 34 bf 91 32 07 bf 60 a3 04 be
       -0.88357717 -0.7041005 -0.52811533 -0.12952948
000040 0e 36 ae be d3 3b 85 bf 75 25 d3 be 02 18 8d be
       -0.34025615 -1.0408882 -0.41239515 -0.2755738
000050 0e e2 9f bf 7b 6c 67 bf 0b 8f bb be c9 74 66 bf
       -1.2490861 -0.90399903 -0.3663257 -0.9002195
000060 f3 56 85 bf 73 f1 9d be af a0 5b bf 27 cb 75 bf
       -1.041716 -0.30848274 -0.8579206 -0.9601311
000070 47 1c ab be f1 7c fc be aa 44 20 bf 9d 58 2d bf
       -0.3342001 -0.49314073 -0.62604773 -0.6771334
000080 f2 28 af be 68 f5 c5 be e2 13 a3 bf e2 5a 7f bf
       -0.34210926 -0.38663793 -1.2740443 -0.9974805
000090 5f 27 e2 be b4 fb d5 bf 57 01 79 bf 12 7d d6 be
       -0.44170663 -1.6717439 -0.9726767 -0.41892296
0000a0 3f 20 73 bf 24 30 85 bf 18 b9 38 bf c0 48 0a be
       -0.9497108 -1.0405316 -0.7215743 -0.13504314
0000b0 fd 55 0a bf 8d e7 18 bf 40 f9 cc be 47 42 24 bf
       -0.5403746 -0.5972832 -0.40033913 -0.6416363
0000c0 10 13 b7 be 56 06 50 bf fe 36 b0 bf 92 f0 75 bf
       -0.3575673 -0.8125967 -1.3766782 -0.96070206
0000d0 f0 66 32 bf 90 74 ad be 8a ff 21 bf 0a d3 fe bc
       -0.6968832 -0.33877993 -0.63280547 -0.03110649
0000e0 d0 5f a1 bf 7a d8 5c bf d6 48 d4 bf 1d 33 b8 bf
       -1.2607365 -0.8626782 -1.6584728 -1.4390599
0000f0 f4 75 83 be 9f 20 ef be a0 f6 bd be 3d 07 fa bd
       -0.2567593 -0.46704575 -0.37102222 -0.12208412

BN2.running_var f4 [64]
000000 de e2 1a 40 de 96 d1 40 42 27 8c 40 2d 9b 85 40
       2.4200969 6.5496664 4.379792 4.1751924
000010 0b 25 41 40 cf db 2e 40 dd eb 96 40 74 1d 43 40
       3.017886 2.732166 4.716292 3.0486727
000020 86 de 43 40 2d 60 59 40 42 f5 da 40 7c eb 9b 40
       3.0604568 3.396495 6.8424387 4.8724957
000030 31 a8 7d 40 81 f2 1f 40 cf bf db 40 9f 80 41 40
       3.9633906 2.4991763 6.867164 3.0234754
000040 7c d8 5f 40 b2 3d 13 40 00 e3 80 3f e8 2a 65 3f
       3.4975882 2.3006406 1.0069275 0.89518595
000050 fc 8d e9 40 be a8 77 40 59 07 6d 3f eb ea 82 40
       7.298582 3.8696742 0.92589337 4.0911765
000060 d1 a4 e3 40 f3 5d a2 3f b4 43 2d 40 bf ec 83 40
       7.113869 1.2684921 2.7072573 4.1226497
000070 57 4b 3e 40 25 3c 34 40 66 74 82 40 cf 1f 81 40
       2.9733484 2.816171 4.076709 4.035133
000080 fb c0 c2 3f 58 94 12 40 39 f9 b9 40 b6 1f 9b 40
       1.5215143 2.2903042 5.8116727 4.847621
000090 9b 32 05 40 6b cf f3 40 43 4a e0 40 c4 5c 2e 40
       2.0812137 7.6190696 7.009065 2.724412
0000a0 6a 40 a2 40 95 0e e9 40 b5 f5 62 40 48 48 2d 3f
       5.070363 7.28303 3.5462468 0.6768842
0000b0 77 35 1a 40 55 3e 35 40 04 9c d5 3f af 0f 38 40
       2.4095132 2.8319294 1.6688237 2.8759573
0000c0 d8 ad a1 40 34 51 8b 40 97 4c 8b 40 c0 18 63 40
       5.052471 4.3536625 4.3530993 3.5483856
0000d0 ad 4e 43 40 f3 a8 72 40 d9 0a 5b 40 3f ac 34 40
       3.051677 3.7915618 3.422537 2.823013
0000e0 8b 35 c6 40 e0 12 7e 40 e8 8f aa 40 3f c2 c0 40
       6.194036 3.969902 5.3300667 6.0237117
0000f0 f9 6c 9d 3f 91 94 96 3f e2 72 9a 3f 37 5c 1d 40
       1.2298881 1.1764089 1.206631 2.4587533

fc1.weight f4 [128, 1024]
000000 ef cd b4 ba 3f a6 fb bc f1 b4 4d bc 7b d7 a7 bc
       -0.0013794283 -0.03071892 -0.012555347 -0.020488491
000010 7f bf 4c ba 01 dd 1b bc e0 4b 11 bd 5e aa 00 bc
       -0.00078105176 -0.009513141 -0.03547275 -0.007853119
000020 64 3e f0 bc 6d f1 8e bc 85 d9 16 3c 01 5d c2 3c
       -0.029326625 -0.017449105 0.009207134 0.023725988
000030 f9 a5 b0 3b 4a 35 8f 3c 86 cb 9b 3c 1c 41 11 bd
       0.005390879 0.017481465 0.019017946 -0.035462484
000040 8d 9f 4e bc 30 2b 5c bc 53 92 1b 3c fe 09 83 bc
       -0.012611282 -0.013438031 0.009495336 -0.015995976
000050 ad 0b 31 ba a2 c5 29 bc 3b 82 49 bc f3 50 62 3c
       -0.0006753754 -0.010362061 -0.012299116 0.013813245
000060 ee 9b 63 3c 74 eb 00 bc ad 10 e7 bc 1a e7 8f 3b
       0.013892157 -0.007868636 -0.028206194 0.004391563
000070 d2 97 d7 ba eb 4e e5 bc 8c 8d 9b bc 87 5d 4b 3b
       -0.0016448444 -0.027991733 -0.018988393 0.0031031088
000080 ea 1c 89 3a 5b 74 ba bc 79 4f 7b 3c ed 57 7b bc
       0.0010460888 -0.02276056 0.015338772 -0.015340787
000090 57 ad 47 3c bf 22 a4 bc 90 63 ef bc 26 a7 d2 3a
       0.0121873235 -0.0200361 -0.02922228 0.0016071543
0000a0 e4 cd c9 3c 5d 3f 58 3c 7c 14 ad bc ff d1 f5 bc
       0.02463431 0.013198701 -0.021127932 -0.03000736
0000b0 32 3a 55 bc 13 5b 8b bc 2b b4 c6 3b 47 cc 0c bd
       -0.013014363 -0.017011201 0.006063958 -0.0343745
0000c0 c9 06 88 bc 32 14 2b bc 21 30 74 3c 2b 5d c6 3b
       -0.016604798 -0.010441827 0.014904053 0.006053587
0000d0 10 eb b6 3c ac cd 99 bb c4 bb a0 bc 3a 89 0a 3b
       0.022328883 -0.0046937075 -0.019620784 0.0021138922
0000e0 40 02 25 bb 77 f0 06 bd 47 a0 d6 bc dd 4b ff bc
       -0.0025178343 -0.03294417 -0.026199473 -0.031164104
0000f0 b0 f1 59 bc ec 71 0a bd 79 9c 07 bb 19 79 62 3c
       -0.013302252 -0.03380005 -0.002069263 0.013822817
000100 da 70 21 3c 02 5f bb 3c 54 8c 84 bc ad b3 b2 bc
       0.009853566 0.022872452 -0.016180195 -0.021814192
000110 9d 0b a9 bb 7d 47 f1 bb f2 9f 9f 3c a7 c2 0a bd
       -0.005158855 -0.0073632584 0.019485448 -0.03387704
000120 2e e0 15 bd d3 af f5 bc c5 19 a2 bc 58 8c 28 3c
       -0.036590748 -0.029991066 -0.019787678 0.010287367
000130 7b 58 65 bc 9c 3f a0 3b 71 32 ec bc 85 31 ca 3c
       -0.013998146 0.0048903953 -0.028832646 0.024681816
000140 4b 9d 32 3b 39 0f 3e 3b 71 95 c6 3c 89 d0 09 3c
       0.0027254398 0.0029000773 0.024241181 0.008411535
000150 40 cb 95 3b 44 41 03 bc a8 84 07 3b 27 a2 06 bc
       0.0045713484 -0.008011166 0.0020678435 -0.008217371
000160 25 a8 a9 bb f5 42 df bc 89 6f 93 3c cc 25 2b 3c
       -0.005177515 -0.027253607 0.01799752 0.010446023
000170 94 81 b9 bc 1a f7 95 3c 49 37 ba bc 41 99 17 bc
       -0.022644795 0.018306304 -0.02273144 -0.009252847
000180 f8 e4 86 bc be 44 17 3c ff a6 3c 3b 1a 8c a5 bc
       -0.016466603 0.009232698 0.002878606 -0.020208407
000190 7a 62 92 3b 62 75 c4 3b 7d d4 c0 ba 18 f9 28 3c
       0.0044673057 0.0059954384 -0.0014711764 0.010313295
0001a0 54 c4 2d bc c6 ea 2b 3c 49 60 bf 3c 08 c3 9d bc
       -0.01060589 0.010492986 0.023361342 -0.019258037
0001b0 b4 6e f5 3b d0 47 ec 3b 26 2c b8 bb dc 32 6f bc
       0.0074900035 0.007210709 -0.0056204973 -0.014599528
0001c0 b6 91 17 3c 74 ce 37 3c 64 6f 78 3c 80 c7 3f bc
       0.009251049 0.011218656 0.015163276 -0.011705279
0001d0 07 6e 09 bd 18 28 8b bc 34 dc 0b bd 14 35 c4 3c
       -0.033552196 -0.016986892 -0.03414555 0.02395109
0001e0 f6 d4 10 bd 9b a7 3e 3c f0 3b d3 bc 1d 1f 04 bd
       -0.035359345 0.01163664 -0.025785416 -0.032256234
0001f0 24 14 23 3c e8 d7 f8 bc ba 78 e5 bc 14 f8 9f 3a
       0.009953532 -0.03037639 -0.028011668 0.001220467
000200 46 d1 02 bd 0c c5 9f 3c a6 e5 ac ba 01 df bf bb
       -0.03193786 0.019503139 -0.0013190999 -0.0058554416
000210 f5 d3 b4 3c db e6 aa bc 75 44 be bc 13 60 53 bb
       0.022073725 -0.020862034 -0.023226002 -0.003225331
000220 d1 eb 59 3c 0d 4b cb 39 f2 1d 1a 3c f3 f4 13 bd
       0.013300852 0.00038775094 0.009406554 -0.036122274
000230 02 4d 40 bc b8 5b fa b9 d0 1c 29 3c 46 af ac bc
       -0.01173711 -0.00047752052 0.010321811 -0.02107967
000240 80 14 b4 bc 03 01 e3 ba c0 78 25 bc cd c1 7f bc
       -0.021982431 -0.0017319027 -0.01009959 -0.015610171
000250 a7 cb 95 3c ba 87 a9 bc 57 46 0c 3c f9 9f 96 3c
       0.018285586 -0.020694602 0.008561692 0.018386828
000260 9f ac af bc 6e a0 8e 3c 14 ca c2 3b 89 9b 85 bb
       -0.021444617 0.017410483 0.0059444997 -0.004077379
000270 d5 38 0d bd f6 04 84 3b 0e 6d 9e 3c 20 96 0f bc
       -0.034478027 0.0040289117 0.01933911 -0.00876382
000280 5a 7e 97 3c 96 f2 ce bb 6f 45 59 bc 20 1f 70 bc
       0.018492866 -0.0063155396 -0.013261183 -0.014655858
000290 5d 8d 05 bc f8 33 9b bc 1e ac ae bb 9e 50 d1 bb
       -0.008151379 -0.018945679 -0.0053305766 -0.006387784
0002a0 61 38 03 bd fb ad a8 bc 8a cb ba 3c 07 c1 c0 bb
       -0.03203619 -0.020590773 0.022802133 -0.0058823857
0002b0 1e df c5 bb fe b3 1a 3c 7f 50 93 3c 7a 4a 17 bd
       -0.0060385605 0.009442328 0.01798272 -0.03693626
0002c0 e4 a5 0f bd a0 a2 0b bc 7f 72 8d bc 66 a1 02 bd
       -0.035070315 -0.00852266 -0.01726651 -0.031892203
0002d0 fc 93 f8 bc 7f 30 cc 3b 9d 9a 32 3c 5e 0f 01 bc
       -0.030344002 0.006231367 0.0109011205 -0.007877199
0002e0 7e 32 6e bb 79 6f e5 bc 13 d1 df bc 83 af 07 bd
       -0.0036346014 -0.028007256 -0.027321374 -0.033126365
0002f0 c6 c5 f3 bb 14 14 12 bd 57 c7 d2 bb 3d 1e 87 3c
       -0.007439348 -0.03566368 -0.0064324546 0.01649391
000300 2e a1 90 bc 10 18 04 bd 07 88 c6 bc 5b 57 0f 3c
       -0.017654981 -0.03224951 -0.024234785 0.0087488545
000310 71 c3 c4 bc 44 b4 c0 bc 4a 5c b4 bc 54 46 b1 bc
       -0.024018975 -0.023523457 -0.022016663 -0.02163998
000320 d1 fa 93 3c 36 12 81 bc ae ed bb 3c 0e 73 0e 3c
       0.018063935 -0.015755754 0.022940483 0.008694423
000330 d5 93 2e bc 4d 7e 01 bd 3b 41 8c 3c 23 19 ac 3c
       -0.010655363 -0.03161459 0.017120948 0.02100808
000340 03 1d 22 bc fe 5c 9e 3c 1b 73 3f bc 65 54 08 bd
       -0.009894612 0.019331452 -0.011685158 -0.03328361
000350 6d a9 10 bd ee c5 84 bc ce 76 95 3b 0f d2 7e 3c
       -0.035317827 -0.016207661 0.0045612818 0.015553012
000360 af 22 ab 3c f5 83 be 3c 6f 4d c4 3b a0 6c 02 bd
       0.020890562 0.023256281 0.005990676 -0.031841874
000370 6f 7c b7 3b cf 15 f8 bb 90 69 54 bc 25 eb 9c 3c
       0.0055995504 -0.007570959 -0.012964621 0.019155094
000380 e5 1b db bb 11 97 b4 bc a1 35 b3 3c 71 3f 43 3c
       -0.006686675 -0.02204469 0.021876158 0.011916981
000390 d3 c1 ca ba fe 46 95 3c 51 1c fa bc 14 df d0 bb
       -0.0015469141 0.018222328 -0.03053108 -0.0063742492
0003a0 a8 10 05 bd d9 dd 33 bb f1 7c 3f 3b 53 8e 89 ba
       -0.032486588 -0.0027445464 0.0029218758 -0.0010494686
0003b0 d3 a9 03 bd 67 88 d7 bc 1c 5a 0d bd b0 8e a4 3c
       -0.03214438 -0.026310159 -0.034509763 0.02008757
0003c0 ec f6 9a bc 7f 4f 91 3c 7a 1f fb bc de 63 8f ba
       -0.01891657 0.017738102 -0.030654658 -0.0010939797
0003d0 ab 5c b5 3c ef b7 47 bc 84 fa df bc 40 de 23 bc
       0.022138914 -0.012189849 -0.027341135 -0.010001719
0003e0 f6 4b 92 3b e1 56 41 bc da 4a 36 3b f8 fa 7e bb
       0.0044646217 -0.011800499 0.002781561 -0.0038906913
0003f0 92 a6 fe bc 2d 08 28 bc 57 95 94 bc 20 e9 af 3c
       -0.031085286 -0.0102558555 -0.018137617 0.021473467

fc1.bias f4 [128]
000000 65 16 28 3c 4d 4d 4f bc 55 28 49 3e 41 55 87 3d
       0.0102592455 -0.012652707 0.19644292 0.06608058
000010 99 b6 dd 3b ce f3 c6 3c 06 23 a7 3a 2f 4c 11 bd
       0.006766152 0.024286177 0.0012751527 -0.035473045
000020 9c a2 7c bc 15 38 0d 3b f4 90 1d bc c2 ad 70 3d
       -0.0154196285 0.002154832 -0.009617079 0.05875946
000030 36 82 5f 3c 8d 4b 00 bd 55 10 f3 bd a3 3e d1 3b
       0.013641885 -0.03132205 -0.118683495 0.0063856407
000040 a4 12 ce bc 20 d7 93 bc 78 3d 16 bd b7 7c 12 bd
       -0.025155373 -0.018046916 -0.036679715 -0.03576347
000050 22 9f 10 bd dd 82 5f bc 0a 11 74 3e c0 4a 93 3c
       -0.03530801 -0.01364204 0.23834625 0.01797998
000060 04 ca b2 3c 03 06 32 3e df 8c a5 bc df 83 98 3c
       0.021824844 0.17385106 -0.020208774 0.018617569
000070 2d 16 c1 bc 06 72 36 3c db 7e c4 bc ae 58 12 bd
       -0.023570145 0.011135584 -0.02398627 -0.035729103
000080 f8 ec 81 3c 60 0b 8b 3b de 89 a6 bc a9 d6 b7 3c
       0.015860066 0.0042432994 -0.020329412 0.022441225
000090 44 64 98 3e 5c 90 0d bd ab 99 43 bc 3b 9b ed bc
       0.29763997 -0.0345615 -0.011938493 -0.029004684
0000a0 f3 a6 2b bc 86 e3 55 bc 10 5a 26 3c dc a8 96 3b
       -0.0104768155 -0.013054734 0.0101533085 0.0045977663
0000b0 60 8b ba 3d a9 0d b4 bc c5 c1 67 bc 4e f9 a7 bb
       0.09108615 -0.02197917 -0.014145319 -0.005126155
0000c0 1c 47 07 3c 4e d3 be ba a3 e5 cd bc b0 c4 81 bc
       0.0082567 -0.0014558823 -0.025133913 -0.015840858
0000d0 65 dd 8a 3c 4a 0e 97 bb 8b 79 5e 3e e7 ea 07 bc
       0.016951272 -0.0046098577 0.21726052 -0.008295751
0000e0 1c f0 09 bd ff e7 b8 3c 82 d7 b3 3c 54 8e cf bc
       -0.03367625 0.022571562 0.021953348 -0.025336422
0000f0 98 08 c1 3d c3 c6 da 3a de ab d0 3d 97 cc ea bc
       0.09425467 0.0016691316 0.10189031 -0.02866201
000100 13 61 ef 3a 29 5d 8e 3d 97 22 db 3b bf cb cd bb
       0.0018263183 0.06951363 0.006687473 -0.006280392
000110 44 b1 95 3c 06 a6 05 3c a3 b8 93 3c 0f 7a dd 3a
       0.018273003 0.008157259 0.018032378 0.0016897338
000120 d1 8b 13 bd f8 02 45 3c d2 b6 58 ba 49 15 5c 3d
       -0.03602201 0.012024634 -0.00082669884 0.053731237
000130 28 9f 71 bc ea 7a 13 bc ff ab e2 3b 53 31 38 bc
       -0.014747418 -0.009001473 0.006917476 -0.011242229
000140 fe b1 e3 3d 25 dd 93 bc 79 46 cc bc 0e 40 9f bd
       0.11117934 -0.018049786 -0.024935948 -0.07775889
000150 f9 f7 10 bd 9b 26 21 3c 0f f5 a4 bb cf 6c d4 bc
       -0.035392735 0.009835864 -0.005034096 -0.02593079
000160 4b 34 0a 3c aa 20 fa 3b c4 6e b6 bb 8b 97 23 3e
       0.008435319 0.0076332884 -0.0055674035 0.15975778
000170 52 de 0f bd bb 92 87 bb a4 74 88 bc 19 0b c1 bc
       -0.03512413 -0.0041373647 -0.016657181 -0.023564862
000180 b5 de e0 bc db 78 fa bc 5e c6 d1 3c 50 c1 98 bc
       -0.027449945 -0.030575207 0.025607284 -0.018646866
000190 f2 46 8d 3e 75 e5 bc 3d 81 ea 0d bd fb 7f 0f bc
       0.2759319 0.09223453 -0.03464747 -0.00875854
0001a0 e7 fd ab bc b3 6b 10 bd 1a 14 06 bc df 8e 4e bd
       -0.020995094 -0.03525896 -0.0081835035 -0.05042922
0001b0 f5 ba 5d 3e 6d 28 0d bd ad 01 8e 3e 0f 09 ee bc
       0.2165335 -0.03446238 0.27735654 -0.029057054
0001c0 6e 74 f6 bd d8 7f 02 3c ca 08 10 bd dd 11 87 bc
       -0.12033926 0.007965051 -0.035164632 -0.01648801
0001d0 3b 9c 83 3d 40 4f 9c bc 85 d2 e9 ba c4 d0 14 bd
       0.06426283 -0.019080758 -0.0017839229 -0.036331907
0001e0 d5 e8 96 3e 3d 01 c8 3c 57 7d 92 3c db 45 16 3e
       0.29474512 0.024414653 0.017882032 0.14675085
0001f0 ba 0d 83 3b e6 04 90 bc 11 f3 9c bc a9 5a 43 3e
       0.003999439 -0.01758046 -0.019158872 0.19077553

fc2.weight f4 [4, 128]
000000 3b 8c 5d bd f8 94 26 bd 8a b3 db 3c 17 c5 27 bf
       -0.054088812 -0.04066941 0.02681901 -0.6553511
000010 2f c9 73 bd d5 a2 86 3d aa f8 05 3d be 2f fa 3b
       -0.059518036 0.065740265 0.032707848 0.007635086
000020 0e 2b 83 3d c7 6d a3 bd 17 c0 83 3c 26 be b8 3e
       0.064046964 -0.07979923 0.016082807 0.36082572
000030 d5 5e 17 bd b8 b4 86 bc 3c dc 7e 3e 23 ce 15 3d
       -0.036955673 -0.016443595 0.248887 0.03657354
000040 0a a9 b1 3c 8c 9c af 3c 36 04 0b 3d 91 15 98 3c
       0.02168705 0.021436952 0.033939563 0.018564971
000050 c4 78 95 bb 8f 96 7a bd f2 2a 16 bf d0 a1 53 3d
       -0.0045615155 -0.06117874 -0.5865928 0.05166799
000060 d5 cc c7 bc bc fd 56 3e 26 e8 b6 bc 9e e1 a9 3e
       -0.024389664 0.2099523 -0.022327494 0.33179945
000070 99 44 da ba 9c 15 93 bd 21 74 cb bc 0c 1a 72 3c
       -0.0016652524 -0.07181856 -0.024835648 0.014776718
000080 ca cc 49 3c ad ba c4 3b 37 44 9e 3c 9e 96 a1 bd
       0.012316892 0.006003699 0.019319637 -0.07890056
000090 9c 6d 93 3e 6a d5 e0 bc 7a 58 66 bd 39 7e 24 bd
       0.28794563 -0.027445514 -0.05623672 -0.040159438
0000a0 75 00 89 bd 08 31 34 bc c8 aa 4a 3d 02 84 82 3d
       -0.0668954 -0.010998018 0.049479276 0.06372835
0000b0 74 d0 f7 be 76 5b b4 bc 3e c7 9d 3d dc fa 1c bd
       -0.48401225 -0.022016268 0.07704018 -0.038325176
0000c0 d4 4a 8f bd 14 0a 86 3b bd dc 4d bd 92 e8 91 bd
       -0.06996694 0.004090557 -0.05025934 -0.071244374
0000d0 1e 3f 52 3d 1d 09 7f bd cc a6 02 3f f2 b7 1a bc
       0.051329724 -0.06226455 0.5103576 -0.00944327
0000e0 69 42 5e bb f8 95 dd 3b 7c 0f a7 bd 36 05 64 3e
       -0.0033914095 0.0067622624 -0.0815725 0.22267613
0000f0 e4 d6 e3 3e 10 a1 9e 3c 5b dc e9 be 69 b7 2b bd
       0.44499886 0.01936391 -0.4567593 -0.04192296
000100 9a a2 22 bc a2 d7 9a 3e e0 07 98 bd cd 07 71 bd
       -0.009926463 0.3024264 -0.07423377 -0.05884533
000110 8d 6e 85 bc e3 6a 7a bd 78 34 e2 bc 16 d8 05 bf
       -0.016288066 -0.06113709 -0.02761291 -0.52282846
000120 8c c8 06 3d d0 6f 09 3d 33 26 56 3d 09 17 12 3e
       0.0329061 0.0335539 0.052282523 0.142666
000130 48 e8 76 bd 46 87 86 3d 18 ea 87 3d 63 ad 9b bd
       -0.060280114 0.0656877 0.06636447 -0.0760143
000140 83 b7 d7 be 62 23 d9 bd f3 62 2e bd 06 ec 3e 3e
       -0.42132196 -0.10602452 -0.042574834 0.18644723
000150 6c ab 6e bc 7d 7a 88 3c ec fe 53 bd 09 32 c2 3c
       -0.014567237 0.01665997 -0.051756784 0.0237055
000160 d4 1e 4e bd 0e 2a 95 3d 59 f9 4b 3d 4d dc 06 3f
       -0.05032237 0.07283412 0.049798343 0.526799
000170 5f 79 00 bd 72 52 84 bd bf 2f 88 bd 26 04 82 bc
       -0.03136575 -0.06461038 -0.06649732 -0.015871119
000180 fe 60 ab bc d8 db 85 bd 0a b1 5e 3d 0e d4 60 3b
       -0.020920273 -0.065360725 0.054368056 0.0034306082
000190 2d 4f b2 3e 0b b0 2d 3e 3e ea 3c 3c 19 a6 c7 3b
       0.3482603 0.16961686 0.011530457 0.0060927984
0001a0 1c 3a b3 3c 31 88 fb bc e6 ca a9 bd 18 d6 82 3d
       0.021878295 -0.03070459 -0.08290653 0.063884914
0001b0 ce 55 74 bf 41 06 38 3d 64 db 11 be 5d 32 73 3d
       -0.9544343 0.04492784 -0.14243847 0.059374202
0001c0 6f 8c f6 3d 28 7c f5 bc 26 ff ec be 82 32 40 bd
       0.12038504 -0.029966429 -0.46288413 -0.046923168
0001d0 02 73 a4 3e 68 79 b4 3e 4a 64 09 3d 09 85 7d bc
       0.32118994 0.35248876 0.03354291 -0.015473613
0001e0 c5 78 42 3e 6b 2f a7 bd db 57 97 bd 2f a3 13 3f
       0.18991382 -0.08163341 -0.07389804 0.57670873
0001f0 bb 7b 9b bd 53 6e 07 bd f6 4c 49 bd 11 91 09 bf
       -0.07591959 -0.033064198 -0.04914566 -0.5373698
000200 aa 0c 87 bd 6c d1 00 bd a0 bc b4 3e fd a5 b6 3e
       -0.06594212 -0.03144972 0.3530016 0.35673514
000210 9c 2a d4 bc d3 d0 3a bd 05 43 35 bd 66 57 58 bd
       -0.025899224 -0.045609307 -0.044253368 -0.052817725
000220 21 fd d1 3c bd 42 8a b9 75 0a ca 3c da c2 05 bf
       0.025633397 -0.00026371135 0.02466319 -0.52250445
000230 91 88 17 3d 71 ab 7b bd 7e a2 18 bf c5 fa 7d 3d
       0.036995474 -0.061442796 -0.59622943 0.06200673
000240 2a d2 2d bd 8c ef 92 3c 1e 4e 53 3e 94 fc e6 3c
       -0.042436756 0.01793649 0.20635268 0.02819661
000250 c3 ad 66 3d df d5 a2 3c ab 2f a7 bd fb b1 39 3d
       0.056318056 0.019877372 -0.08163389 0.04533575
000260 00 31 87 3b 94 d7 c5 3e 34 b2 ac 3c 4f d0 2f bf
       0.0041257143 0.38641036 0.021081068 -0.6867723
000270 b7 af f9 bc 83 b6 95 3d 2c ad 7f 3c 4f 3f 0a 3c
       -0.030479295 0.07310202 0.015605252 0.0084379455
000280 cd bd 95 bd 00 48 5d 3c f6 19 90 3d b7 d4 62 bd
       -0.07311592 0.013505936 0.07036202 -0.055378642
000290 9b 90 d5 bd 15 1c c5 3c b0 22 79 bd 68 c6 6d bd
       -0.10427972 0.024061242 -0.060824096 -0.058050543
0002a0 e7 af 83 3c dd 8d fb bc 32 88 45 3d 5a cc 29 bd
       0.016075088 -0.030707294 0.04822559 -0.04145465
0002b0 99 13 8d 3e 14 e9 7a 3a f1 e2 0c bd 53 8c 6a bd
       0.27554014 0.00095714745 -0.034396116 -0.05726273
0002c0 29 2d 8f 3d ef 25 5b 3d 33 a3 6d bd 42 62 88 bd
       0.069910355 0.053502973 -0.058016967 -0.06659366
0002d0 64 7f 4d 3d e7 ed 3b 3c a2 15 9d bc d2 bd 12 3c
       0.050170317 0.011470295 -0.019175354 0.0089563895
0002e0 51 89 b8 3c 11 34 40 3d a0 0e 8f 3d 77 3c 02 bf
       0.022526415 0.046924654 0.06985211 -0.5087351
0002f0 c8 72 f2 3c 93 3e 43 3d 62 b6 7d 3d 4e 47 7b bc
       0.029595748 0.047667097 0.061941512 -0.015336825
000300 48 fe 57 3d 21 49 31 bf c1 8c 5b bd 7c 3a 1c bd
       0.052732736 -0.6925221 -0.05360103 -0.038141713
000310 20 69 82 3c 6e c7 56 3d 63 bc f9 bb cb 25 2a 3e
       0.015919268 0.052436285 -0.0076213344 0.1661598
000320 6c 13 1a 3d c9 ff f0 3c 00 82 0f bd fd 87 41 bf
       0.03761618 0.029418843 -0.035036087 -0.75598127
000330 7d 4c 89 3c d2 73 e2 b8 9b c4 84 3c 55 da 6d 3d
       0.016760105 -0.00010798093 0.01620703 0.058069546
000340 87 63 f6 be ff 46 2b bf 86 7c 2b bd 52 86 f7 be
       -0.48122808 -0.66905206 -0.0418668 -0.48344666
000350 fc 39 82 3d 89 e3 79 bd 53 94 1f 3d af 88 87 bc
       0.06358716 -0.06100801 0.038959812 -0.016544668
000360 f8 cc 22 bd a9 5a eb 3c e4 0f 9f bd e8 74 de be
       -0.039746255 0.028729754 -0.07766703 -0.43448567
000370 4b 54 22 bd f5 c0 d6 3c 67 25 b0 3e 8a 3a 8c 3c
       -0.03963117 0.026215056 0.34403536 0.017117757
000380 c3 05 a8 3d 7a 34 74 3d 51 5c b7 3e b4 b1 54 3d
       0.08204224 0.059620358 0.3581262 0.051927283
000390 f2 e2 6c 3d 97 fe 82 3e 69 86 d3 bc 7c f5 81 ba
       0.05783362 0.25584862 -0.025820928 -0.0009915079
0003a0 47 bd 61 3b 24 ee 84 3d 31 52 66 3d 34 d8 04 bc
       0.0034445093 0.06490734 0.056230728 -0.0081081875
0003b0 8d 44 89 bb 29 ad 57 bd 4f 52 ad 3e 74 04 6f bc
       -0.00418908 -0.052655373 0.3385186 -0.014588464
0003c0 42 30 88 3d 25 5b f5 3a 74 d0 00 3f 23 9f ea 3c
       0.066498294 0.001871918 0.50318074 0.028640335
0003d0 93 44 a3 bd 15 89 d3 be e4 b9 07 3d 92 a9 74 bd
       -0.07972064 -0.41315523 0.033136263 -0.059732027
0003e0 63 58 99 bb 00 c1 88 bd 58 85 04 bd 45 19 f1 be
       -0.004679726 -0.06677437 -0.03235373 -0.47089592
0003f0 04 fb 9a bd 7d 46 90 3c aa ac 0e bd dd 50 9e be
       -0.07567409 0.017611736 -0.034832634 -0.3092107

fc2.bias f4 [4]
000000 50 b7 15 3d 07 f8 04 3d 81 c2 4a be fd 20 a8 3c
       0.036551774 0.0324631 -0.1980076 0.020523543
