cnn saved models/cnn_epoch25.pt (torch, 609343 bytes, 16 tensors)

conv1.weight f4 [32, 1, 3, 3]
0	0x3eb6b7b8	0.3568704
1	0x3ede6a6b	0.43440565
2	0xbe90fe49	-0.28319004
3	0xbecdaf48	-0.4017279
4	0xbeba73e8	-0.36416554
5	0xbe7d124c	-0.24714011
6	0x3da116cc	0.07865676
7	0x3d1a805c	0.03772007
8	0x3ebebfe6	0.37255782
9	0x3f66809a	0.9003998
10	0xbe2828ae	-0.16421768
11	0x3ec5929b	0.38588414
12	0xbe785094	-0.24249488
13	0xbdc039f9	-0.093860574
14	0xbe93277e	-0.28741068
15	0x3d3234f5	0.043507535
16	0x3ebc8374	0.3681904
17	0xbdb4ffb2	-0.088378325
18	0x3deda65f	0.116039984
19	0x3d6235db	0.05522714
20	0x3ed098e2	0.4074164
21	0xbe9d54f3	-0.30728874
22	0xbf1a4ede	-0.6027659
23	0x3de016b8	0.10941833
24	0x3e9656b3	0.2936302
25	0x3ea2ee59	0.3182247
26	0xbecc660f	-0.39921615
27	0xbce9c52f	-0.028536407
28	0x3ef29c6a	0.4738496
29	0x3e91ae2f	0.28453204
30	0x3d321d4d	0.043484975
31	0xbe87f6e5	-0.26555553
32	0xbf18981b	-0.59607095
33	0xbdf5a9b4	-0.11995259
34	0x3e95aad0	0.29231882
35	0xbdedb6f9	-0.11607165
36	0xbe1da1ea	-0.15393797
37	0xbe508464	-0.20363003
38	0x3e89f276	0.26942796
39	0xbebe0ced	-0.37119237
40	0x3e8b080a	0.2715457
41	0x3e331112	0.1748698
42	0x3ed1831f	0.4092035
43	0x3dc75735	0.0973343
44	0xbeb51393	-0.35366496
45	0x3e2baa0c	0.16764086
46	0xbec7b996	-0.39008778
47	0xbf14ca5e	-0.5812129
48	0x3e6957ab	0.22787349
49	0x3eaf63ce	0.34255832
50	0xbca7d5db	-0.020487716
51	0xbe9e8983	-0.30964288
52	0xbdd9002b	-0.10595735
53	0xbf1f9907	-0.62342876
54	0x3e208e49	0.15679277
55	0xbeac2d64	-0.3362838
56	0xbe94d8f3	-0.2907177
57	0x3e13c3cc	0.1443016
58	0x3ea40c3f	0.32040593
59	0x3ee5465a	0.44780236
60	0xbefd4720	-0.49468327
61	0x3d86d7c5	0.065841235
62	0xbdab94fb	-0.08378025
63	0x3ee69e2a	0.45042545
64	0xbebb6c43	-0.36606035
65	0xbec0a379	-0.3762472
66	0x3eab1e7b	0.33421692
67	0xbe35c92b	-0.1775252
68	0xbec71102	-0.38880163
69	0x3e8bdbcd	0.27316132
70	0xbc1299ea	-0.008947829
71	0x3e647ccf	0.22313236
72	0x3e0c9ef8	0.13732517
73	0xbe327058	-0.17425668
74	0xbf5e3266	-0.8679565
75	0xbd016f44	-0.03160025
76	0x3d0d855d	0.034551013
77	0x3dae51c9	0.08511693
78	0x3e90fa2c	0.28315866
79	0x3e1c2ff2	0.15252665
80	0xbc70e514	-0.014703054
81	0x3e87a911	0.26496175
82	0xbec48ea3	-0.38390073
83	0x3f0bcd70	0.5461035
84	0xbe4e6257	-0.20154701
85	0xbe2b6921	-0.16739322
86	0xbf137603	-0.57601947
87	0x3e5b389e	0.21408316
88	0x3e4a80cd	0.19775696
89	0xbdcbad4a	-0.09945162
90	0xbd13731d	-0.035998452
91	0xbe8f0647	-0.27934477
92	0xbdd4393f	-0.10362481
93	0xbea523c4	-0.3225385
94	0x3dcc1fee	0.099670276
95	0xbf000b7b	-0.5001752
96	0x3eacf122	0.3377772
97	0x3ee72ac4	0.45149815
98	0xbca65c4f	-0.020307688
99	0xbe584997	-0.21121822
100	0x3e641248	0.22272599
101	0xbdb37915	-0.08763329
102	0x3e04eaf0	0.12980247
103	0x3e8ef631	0.27922204
104	0xbe317b6f	-0.17332242
105	0x3f1f153a	0.62141764
106	0xbe8f213b	-0.2795504
107	0xbe9a946a	-0.30191356
108	0x3f0975ad	0.53695184
109	0x3e327d19	0.17430533
110	0x3d5946ba	0.053045966
111	0x3e6db5a6	0.23213825
112	0xbe692189	-0.22766699
113	0xbe59a4c6	-0.21254262
114	0xbea066a7	-0.31328318
115	0xbe179cfb	-0.14805977
116	0xbe9863be	-0.29763597
117	0xbf075b66	-0.5287384
118	0xbd136540	-0.03598523
119	0xbedd21d2	-0.43189865
120	0xbe8d3f98	-0.2758758
121	0x3e3b7375	0.18305762
122	0x3ca7a88c	0.020466112
123	0x3b015e36	0.0019739992
124	0x3e5546ac	0.2082774
125	0x3ed7cfd4	0.42150748
126	0x3ee318b6	0.4435479
127	0xbed72c94	-0.42026198
128	0xbdac24cf	-0.08405458
129	0x3e9bbe44	0.304186
130	0x3e44540c	0.19172686
131	0xbf0227e4	-0.5084212
132	0x3ecb7925	0.39740863
133	0x3db996ee	0.09061991
134	0xbedff94a	-0.4374488
135	0x3d2dfb7b	0.04247616
136	0xbe0d8ce5	-0.13823278
137	0xbf22aa14	-0.6354077
138	0x3e05b548	0.13057435
139	0xbedb48b5	-0.4282891
140	0xbdee948c	-0.11649427
141	0x3f142614	0.578706
142	0x3ddc8384	0.10767272
143	0xbe1e9c0e	-0.15489218
144	0x3ebdc275	0.3706242
145	0x3e321c97	0.17393719
146	0xbee069fc	-0.4383086
147	0xbe06a0cc	-0.13147277
148	0xbe3d9f44	-0.18517786
149	0x3efa4343	0.48879442
150	0xbf012586	-0.5044788
151	0x3eccb03b	0.39978203
152	0xbd7d87db	-0.06189714
153	0xbe7820a2	-0.24231198
154	0x3c1aa48b	0.009438644
155	0x3e323c3d	0.17405792
156	0x3d8bef74	0.068327814
157	0xbf1b1825	-0.60583717
158	0xbecb42fa	-0.39699537
159	0x3e89d7c5	0.26922432
160	0x3ecde880	0.40216446
161	0x3eb19e7f	0.34691235
162	0x3ea2e74d	0.31817093
163	0x3f0bbdc4	0.54586434
164	0x3df6a053	0.12042298
165	0x3e85baa2	0.26118952
166	0xbe780b4e	-0.24223062
167	0xbe45a75b	-0.19302122
168	0xbd57dfc4	-0.052703634
169	0xbebb988f	-0.3663983
170	0xbb8be503	-0.0042692437
171	0x3ede0e68	0.43370366
172	0x3e853671	0.26018098
173	0x3d2e4c37	0.042553153
174	0xbf2624cd	-0.64899904
175	0xbf0322f6	-0.5122522
176	0x3db7b175	0.08969394
177	0x3e0490db	0.12945883
178	0x3e13dc0b	0.14439408
179	0x3e99fc86	0.30075473
180	0x3cc4b4c8	0.024011984
181	0xbf0c2b0e	-0.54753196
182	0x3eefdf33	0.46849975
183	0xbed2ebb3	-0.4119545
184	0xbe4e2d68	-0.20134509
185	0x3e8c3755	0.27385965
186	0xbde14cf0	-0.11001003
187	0xbcb6cdd6	-0.022314947
188	0x3e71b066	0.23602447
189	0xbed57e0c	-0.4169773
190	0x3eb2bfa7	0.34911844
191	0x3eed112a	0.46302158
192	0x3e29a272	0.16565874
193	0xbe0114fa	-0.12605658
194	0xbe24141c	-0.16023296
195	0x3e41df8d	0.18932934
196	0xbd88ece6	-0.0668581
197	0xbf027adb	-0.5096871
198	0x3e2e5dc9	0.17027964
199	0xbe838229	-0.25685242
200	0xbe5b45c3	-0.2141333
201	0x3ee6e3c8	0.45095658
202	0xbda169ef	-0.07881533
203	0xbe34a94f	-0.17642711
204	0xbf044e42	-0.5168191
205	0x3eaa2076	0.3322789
206	0x3ecac126	0.39600486
207	0xbe65e570	-0.22450805
208	0xbbb57345	-0.005537423
209	0x3e05d185	0.13068207
210	0xbd45f6ad	-0.04833095
211	0xbe86e3f6	-0.26345795
212	0x3eadbce9	0.3393319
213	0xbeea19f7	-0.45722935
214	0xbcf19f37	-0.029494865
215	0x3f0e5636	0.556003
216	0xbec605fa	-0.38676435
217	0xbda7180c	-0.081588835
218	0x3ebfa243	0.37428483
219	0xbf0f512f	-0.5598325
220	0xbdcf2192	-0.10113825
221	0x3e92299e	0.28547376
222	0x3d858edb	0.06521388
223	0x3ec58346	0.38576716
224	0x3cbd7587	0.02312733
225	0x3e608430	0.21925426
226	0xbe8f6a2a	-0.28010684
227	0x3d7ba94a	0.061440744
228	0x3e9fd304	0.3121568
229	0xbf3a6099	-0.72803646
230	0x3ec77d88	0.3896296
231	0x3e344fe9	0.17608608
232	0xbedd19c4	-0.4318372
233	0x3e756c7e	0.23967168
234	0x3e3bba20	0.1833272
235	0xbf112778	-0.5670085
236	0xbeaf8990	-0.3428464
237	0x3e59be2f	0.21263956
238	0xbee8c98e	-0.45466274
239	0xbe763e2f	-0.24047159
240	0xbdf639e3	-0.1202276
241	0x3ee8a0b3	0.45435104
242	0x3e356df4	0.17717725
243	0xbf1b4519	-0.6065231
244	0xbeca70b2	-0.39539105
245	0x3e851329	0.2599118
246	0x3e0820c0	0.13293743
247	0xbd9c4bf9	-0.07631678
248	0xbdca4562	-0.09876515
249	0x3e5bc20f	0.21460746
250	0xbe1fe95c	-0.15616363
251	0x3ec36098	0.38159633
252	0xbe95a6e9	-0.29228905
253	0x3e936f96	0.2879607
254	0x3f0b02dc	0.5430124
255	0xbecde79b	-0.40215763

conv1.bias f4 [32]
0	0x3ee70c8d	0.45126763
1	0x3ecca822	0.39972025
2	0xbd9a88af	-0.075456016
3	0xbee64b94	-0.44979537
4	0x3f105d38	0.5639224
5	0x3e89f20f	0.2694249
6	0xbdc584d2	-0.09644474
7	0xbc81abb9	-0.015828954
8	0x3f0c6c1d	0.5485247
9	0x3deb2445	0.11481527
10	0x3e587c11	0.21141078
11	0x3eee8a88	0.46590066
12	0x3f0e4e6a	0.555884
13	0x3e936a45	0.28792015
14	0xbda045dc	-0.078258246
15	0xbe2d6e83	-0.16936688
16	0xbd036147	-0.032075193
17	0x3f04c674	0.51865315
18	0xbf822f5b	-1.0170702
19	0x3e9d1a3c	0.30684078
20	0x3d5bb178	0.053636044
21	0x3d4e17b1	0.050315563
22	0x3ed703d0	0.41995096
23	0xbdf21b84	-0.118216544
24	0x3f30b4fa	0.6902615
25	0xbe40a9ea	-0.18814817
26	0xbdd55c50	-0.10417998
27	0x3d48e133	0.04904289
28	0xbcd8ccfa	-0.026464928
29	0xbca2f048	-0.019889966
30	0xbecc250c	-0.39872015
31	0x3d1f164e	0.03883963

BN1.weight f4 [32]
0	0x3facbabd	1.3494488
1	0x3ee24f74	0.44201243
2	0x3f93b215	1.1538721
3	0x3f5ce876	0.8629221
4	0x3f6a071c	0.914171
5	0x3f3eccea	0.74531424
6	0x3f7eb6f9	0.99497944
7	0x3f1ab04e	0.6042527
8	0x3f84fd4e	1.0389802
9	0x3fbd3912	1.4783041
10	0x3f677e56	0.9042715
11	0x3eed6eda	0.46373636
12	0x3f65c3d7	0.8975195
13	0x3f571e95	0.8403104
14	0x3f177394	0.59160733
15	0x3f8ea8c6	1.1145256
16	0x3f5d8e97	0.865457
17	0x3ecd8237	0.4013841
18	0x3f3fe2cd	0.74955446
19	0x3f5b88a8	0.85755396
20	0x3f869fa8	1.0517473
21	0x3f844534	1.0333619
22	0x3f8563bf	1.0421065
23	0x3ee763d2	0.45193344
24	0x3f0b9882	0.54529583
25	0x3f9e370f	1.2360553
26	0x3fad1378	1.3521566
27	0x3f3e9078	0.7443919
28	0x3f685bdc	0.90765166
29	0x3f37c23a	0.7178074
30	0x3f571fec	0.84033084
31	0x3f694ff7	0.9113764

BN1.bias f4 [32]
0	0xbed51a3c	-0.41621578
1	0xbe09487b	-0.13406555
2	0xbe6e9800	-0.23300171
3	0xbdd9b90c	-0.10630998
4	0xbf8bf852	-1.0935156
5	0xbeb11232	-0.34584194
6	0xbe030ca1	-0.12797786
7	0xbdae9772	-0.0852498
8	0xbf1b6456	-0.60699975
9	0xbf4d891e	-0.8028735
10	0xbedfe9c2	-0.4373303
11	0xbe313e60	-0.1730895
12	0x3d012309	0.031527553
13	0xbedec7d3	-0.4351183
14	0xbdab76b0	-0.08372247
15	0xbf548f47	-0.83031124
16	0xbf5dfe05	-0.8671573
17	0xbdb9815e	-0.09057878
18	0xbf473f1e	-0.77830684
19	0xbf203f5e	-0.6259669
20	0xbf1707ad	-0.5899609
21	0xbf0de6ab	-0.55430096
22	0xbf9a5421	-1.2056924
23	0xbd38597b	-0.04500721
24	0xbd8dbbeb	-0.06920608
25	0xbecc328f	-0.39882323
26	0xbf701dfc	-0.9379575
27	0xbda2daf3	-0.079519175
28	0xbd038d80	-0.032117367
29	0xbd8d0b63	-0.068869375
30	0xbf392493	-0.7232143
31	0xbe282ea1	-0.16424038

BN1.running_mean f4 [32]
0	0x3ee2fbd5	0.44332758
1	0x3f0ed6c5	0.5579646
2	0xbda91387	-0.08255678
3	0xbeea0c6c	-0.45712602
4	0x3f175a55	0.5912221
5	0x3cb15594	0.021647252
6	0xbdd830a2	-0.10556151
7	0xbcd4f0e7	-0.025993777
8	0x3ef0e655	0.4705073
9	0x3d8e5c51	0.06951202
10	0x3e09a2e2	0.13441041
11	0x3f01b02b	0.50659436
12	0x3f04bcce	0.51850593
13	0x3e4d3462	0.20039514
14	0xbda7330b	-0.081640325
15	0xbe962447	-0.29324552
16	0xbc036139	-0.008018785
17	0x3f04163a	0.51596415
18	0xbf70c7bf	-0.9405479
19	0x3eb1b19b	0.34705815
20	0xbc0ca3ea	-0.008584002
21	0x3cefa060	0.029251277
22	0x3ee1f48b	0.44131884
23	0xbdf7a276	-0.12091534
24	0x3f302524	0.6880667
25	0xbe4d35c3	-0.2004004
26	0xbe7beeb9	-0.24602784
27	0xbcb9c1b5	-0.022675375
28	0xbd6fee82	-0.05857707
29	0xbd992207	-0.07477193
30	0xbec94624	-0.39311326
31	0x3caabf4f	0.020843176

BN1.running_var f4 [32]
0	0x3bbb0098	0.005706858
1	0x3ce2000b	0.027587911
2	0x3ba0e940	0.004910618
3	0x3be8ddf6	0.007106538
4	0x3aca7bde	0.0015448292
5	0x3d610c00	0.054943085
6	0x3b9549f8	0.004555937
7	0x3bd5d49a	0.006525588
8	0x3c85ce4c	0.016333722
9	0x3be57098	0.0070019476
10	0x3c7417f0	0.014898285
11	0x3b4bf4a9	0.003112117
12	0x3c77d65f	0.015126794
13	0x3cb0db80	0.02158904
14	0x3b9626c0	0.004582256
15	0x3ccb6e45	0.024832854
16	0x3add78ba	0.0016896941
17	0x3c1b36a4	0.009473477
18	0x3c8a421d	0.016877228
19	0x3c05add5	0.008159121
20	0x3bc01dea	0.005862941
21	0x3b9929e4	0.004674183
22	0x3b37c89b	0.0028043154
23	0x3b3acaef	0.0028502306
24	0x3b9d4c82	0.00480038
25	0x3ae7a87a	0.0017674111
26	0x3cddad50	0.02706018
27	0x3c4b91dc	0.012424912
28	0x3c48cbb5	0.012255599
29	0x3c08733e	0.008328257
30	0x397fcac0	0.00024394225
31	0x3c99f89b	0.018795302

conv2.weight f4 [64, 32, 3, 3]
0	0xbd33180c	-0.043724105
1	0x3ea10bc9	0.31454304
2	0xbd3baede	-0.045821063
3	0x3d9d5646	0.07682471
4	0x3dd08a7e	0.10182665
5	0xbe8cf342	-0.2752934
6	0xbdb5beb3	-0.088742636
7	0x3d7b334d	0.06132822
8	0xbda4a0d0	-0.08038485
9	0xbdeb72d5	-0.11496512
10	0xbdd4e44e	-0.10395108
11	0xbd6bc20f	-0.057558116
12	0xbe96bb53	-0.29439792
13	0xbee26532	-0.4421783
14	0xbee2b053	-0.4427515
15	0x3e9a0748	0.3008368
16	0x3e580cc0	0.21098614
17	0x3e90f2f3	0.28310356
18	0x3cfeb6d0	0.031093031
19	0x3df735f2	0.12070836
20	0x3e37dfd9	0.17956485
21	0xbe064806	-0.13113412
22	0xbd2d944e	-0.042377762
23	0x3d5b4756	0.053534828
24	0xbd87a372	-0.066229716
25	0xbdc24dbb	-0.09487482
26	0x3d8fd60c	0.07023248
27	0xbe3ea1c9	-0.18616404
28	0x3d963a84	0.0733538
29	0x3e9c4fdd	0.3052968
30	0xbf0c0744	-0.54698586
31	0x3d1299f0	0.035791337
32	0xbdef3ffe	-0.116821274
33	0xbdc56a46	-0.09639411
34	0x3e900eb9	0.28136232
35	0x3d995175	0.0748624
36	0x3ea6bd75	0.3256642
37	0xbeda4f3b	-0.42638573
38	0xbe8a7b66	-0.2704727
39	0xbe4fafcd	-0.20281906
40	0xbea43d59	-0.32078055
41	0xbe716d9a	-0.23576966
42	0xbd3fe48c	-0.04684882
43	0xbe793ef0	-0.24340415
44	0xbe3fc0b6	-0.18725857
45	0xbe8d4725	-0.2759334
46	0x3d63a5a6	0.055577897
47	0xbe8b69ed	-0.27229252
48	0xbe8af630	-0.2714095
49	0xbaec3ac5	-0.0018022886
50	0xbe507da9	-0.20360436
51	0x3e66987d	0.22519107
52	0x3ebcd600	0.3688202
53	0x3e6ade39	0.22936334
54	0xbe6623a5	-0.22474535
55	0xbe59736e	-0.21235439
56	0xbe98e1be	-0.29859728
57	0x3cc035d5	0.02346317
58	0x3e15e649	0.14638628
59	0x3e8f7a1f	0.28022859
60	0xbecb5080	-0.39709854
61	0xbea67075	-0.32507673
62	0xbe519bf7	-0.20469652
63	0xbda5a988	-0.08088976
64	0x3dec8f60	0.11550784
65	0x3daae952	0.083452836
66	0xbe58cb56	-0.21171317
67	0xbda04460	-0.078255415
68	0xbf11a961	-0.56899077
69	0x3e35d656	0.17757544
70	0x3e62ee80	0.22161293
71	0x3e8289d4	0.2549578
72	0xbea94c41	-0.3306599
73	0xbd06fb5e	-0.032954566
74	0xbe6072f1	-0.21918847
75	0xbe44ac93	-0.19206457
76	0x3e09a6ce	0.13442537
77	0xbea44036	-0.3208024
78	0x3ea44f78	0.3209188
79	0x3e896655	0.26835886
80	0xbd0b0cb1	-0.03394765
81	0xbf016245	-0.5054057
82	0xbf39ed35	-0.72627574
83	0xbf2d7b16	-0.6776594
84	0x3ed5d902	0.41767126
85	0x3e60e4d3	0.2196229
86	0x3cbb5e7c	0.022872202
87	0xbec43cce	-0.3832764
88	0xbedbce41	-0.42930797
89	0xbf056ff9	-0.5212398
90	0x3f039d8e	0.51412284
91	0x3eb32a6a	0.34993297
92	0x3e85ffca	0.26171714
93	0xbe4a9d3f	-0.19786547
94	0xbe0bc99c	-0.13651127
95	0xbf0b9c8e	-0.5453576
96	0x3e21dac3	0.15806107
97	0x3d8d1f12	0.06890692
98	0x3b293076	0.0025816238
99	0x3d2f9c52	0.042873688
100	0x3dbf8da2	0.09353186
101	0xbdf32613	-0.118724965
102	0xbe48e003	-0.19616704
103	0x3b33e080	0.0027447045
104	0xbe62d2f2	-0.22150782
105	0x3e9f3d00	0.31101227
106	0x3d897711	0.06712163
107	0xbe980fb1	-0.29699472
108	0x3edcb046	0.43103236
109	0x3e998380	0.2998314
110	0xbcea58d6	-0.028606813
111	0x3dfb93d1	0.12284053
112	0xbdf03720	-0.11729264
113	0xbf81ba49	-1.0134975
114	0xbdf7e8ce	-0.12104951
115	0x3d80b554	0.062845856
116	0x3e03c2ee	0.12867329
117	0x3cfbd174	0.030739523
118	0x3d13a8be	0.036049597
119	0xbe07aee4	-0.13250309
120	0xbe8520aa	-0.26001483
121	0x3c0b6562	0.008508058
122	0xbec189f1	-0.37800553
123	0x3c0b1d43	0.008490863
124	0x3cba715b	0.02275913
125	0x3d737e82	0.05944682
126	0x3c76d616	0.0150656905
127	0x3d2e6ef1	0.04258627
128	0xbe136a59	-0.14396037
129	0xbcba6f91	-0.022758277
130	0xbb5f07f2	-0.0034031835
131	0xbf31f358	-0.6951194
132	0xbd038464	-0.03210868
133	0x3d2a3805	0.04155733
134	0xbea56182	-0.32300955
135	0xbeddbbf6	-0.43307465
136	0xbe3bc50a	-0.18336883
137	0xbf3680e1	-0.71290404
138	0xbd1a744e	-0.037708573
139	0x3d7fb750	0.06243068
140	0xbd7e83dc	-0.06213747
141	0x3eab0967	0.3340561
142	0x3d6fe362	0.05856646
143	0xbebcc6d8	-0.36870456
144	0xbf483f21	-0.7822133
145	0xbe939606	-0.28825396
146	0xbebff801	-0.374939
147	0x3e19b83a	0.15011683
148	0x3e661bed	0.2247159
149	0x3b2d2c19	0.002642399
150	0xbde16a76	-0.11006634
151	0xbe38e1bc	-0.18054861
152	0x3e328809	0.17434706
153	0x3ed105b0	0.40824652
154	0x3e8e2cd9	0.2776859
155	0x3ed832de	0.4222631
156	0xbe2f5d59	-0.17125453
157	0xbe481b59	-0.19541682
158	0xbdf2ce67	-0.118557744
159	0x3d441750	0.047873795
160	0x3db59f72	0.088683024
161	0x3e4f1cc1	0.20225812
162	0xbf0cc603	-0.5498964
163	0xbf006592	-0.50154984
164	0xbe351d82	-0.17687038
165	0x3e47af8b	0.19500558
166	0xbe973243	-0.29530534
167	0xbf10fdcf	-0.5663728
168	0x3e96c312	0.29445702
169	0x3e8ddc91	0.2770734
170	0x3eb770e2	0.3582831
171	0xbedeac07	-0.4349062
172	0xbe031ec3	-0.12804703
173	0xbe4029a3	-0.18765883
174	0xbc594e47	-0.013263292
175	0xbcd3030d	-0.02575829
176	0xbe402d3b	-0.18767254
177	0x3e6260e4	0.22107273
178	0x3e18c71f	0.14919709
179	0x3ecc31f9	0.39881876
180	0x3eb2a181	0.34888843
181	0x3e0b381a	0.1359562
182	0xbded257a	-0.11579414
183	0xbeab0b6c	-0.33407152
184	0xbe0328e0	-0.12808561
185	0xbee0e61b	-0.43925557
186	0xbf016047	-0.5053753
187	0xbd49a827	-0.04923263
188	0xbf27e790	-0.6558771
189	0xbee4215f	-0.4455671
190	0xbe66ac6d	-0.22526713
191	0x3e702b3b	0.23453991
192	0xbf06bb26	-0.52629316
193	0xbed9361f	-0.42424104
194	0xbf02162d	-0.5081509
195	0xbe19ed2b	-0.15031879
196	0x3ea0537c	0.31313694
197	0x3e8b1127	0.27161524
198	0xbe1bc320	-0.15211153
199	0x3db78d7d	0.089625336
200	0x3e7b7793	0.24557333
201	0x3ed0bab7	0.40767452
202	0x3db09779	0.08622641
203	0xbd867385	-0.06565002
204	0xbe0502a7	-0.12989293
205	0xbd1d9204	-0.03846933
206	0x3ddc05c2	0.10743286
207	0x3e4f7dbe	0.2026281
208	0x3de11a9e	0.10991405
209	0x3e8aac5f	0.27084634
210	0xbe227d66	-0.15868148
211	0x3b4855f2	0.0030568806
212	0xbd033410	-0.032032073
213	0xbee08311	-0.43849996
214	0xbd06d620	-0.03291905
215	0xbe905d4a	-0.28196174
216	0x3e33345e	0.17500445
217	0x3d58a3c5	0.052890558
218	0x3e9d61e6	0.30738753
219	0xbe8635cb	-0.26212916
220	0xbe49cbaf	-0.19706605
221	0xbe91499d	-0.28376475
222	0xbd54bfb6	-0.051940642
223	0x3e087396	0.13325343
224	0x3e9aeeed	0.3026041
225	0x3e405ade	0.18784663
226	0x3e3272e2	0.17426637
227	0x3d8c7db9	0.06859917
228	0x3c469567	0.012120581
229	0xbd4aecf2	-0.049542375
230	0x3ca13cb2	0.019682262
231	0xbe96919a	-0.2940796
232	0xbed9a05d	-0.4250516
233	0xbf178c4a	-0.5919844
234	0xbf812d7a	-1.0092003
235	0xbf9cb490	-1.2242603
236	0xbfae17b0	-1.3600979
237	0xbe3cc46c	-0.18434304
238	0xbe71a311	-0.23597361
239	0xbe72711f	-0.23675965
240	0xbe87d4ac	-0.26529443
241	0xbed8c714	-0.42339385
242	0xbee8a7ff	-0.4544067
243	0x3e242945	0.16031368
244	0xbe4e4dfb	-0.20146935
245	0xbefcb5fc	-0.49357593
246	0xbee107dc	-0.4395131
247	0xbed69330	-0.4190917
248	0xbe9f374d	-0.3109688
249	0x3e854cd7	0.26035187
250	0x3e9aeef0	0.3026042
251	0x3e999e08	0.3000338
252	0x3ea0b2e3	0.3138648
253	0x3e4c9591	0.1997893
254	0x3f2caafc	0.674484
255	0xbdf2dc51	-0.11858428

conv2.bias f4 [64]
0	0xbd3f1523	-0.046651017
1	0x3d21fd00	0.03954792
2	0x3c72e57c	0.014825221
3	0xbd22e33b	-0.039767485
4	0x3d92d8ed	0.071702816
5	0x3b2877ae	0.00257061
6	0x3d7dc437	0.061954703
7	0x3d395301	0.045245174
8	0x3d242574	0.04007478
9	0xbd108c7c	-0.035290226
10	0x3d85b0b4	0.06527844
11	0x3cc6f6ea	0.02428766
12	0x3d85a339	0.06525273
13	0xbe65ce9c	-0.22442096
14	0x3c8dad1c	0.017294459
15	0x3d78c046	0.06073024
16	0x3cdd8f29	0.027045803
17	0xbe1ff394	-0.15620261
18	0xbd29ab4b	-0.041423123
19	0x3d260b7b	0.040538292
20	0x3dc36909	0.09541518
21	0x3ccdd48c	0.025125764
22	0xbe463ac2	-0.19358352
23	0xbdf9d8f1	-0.121995814
24	0xbd56e64f	-0.052465733
25	0xbcb6aefe	-0.02230024
26	0x3d03ee01	0.0322094
27	0x3c6b1c0b	0.014349948
28	0x3d5c58d7	0.05379566
29	0x3cb48d79	0.022040116
30	0x3ce7a5d3	0.028277313
31	0x3d93538b	0.07193669
32	0x3d1f03f8	0.038822144
33	0xbd3d9e25	-0.046293397
34	0xbd09cfbc	-0.033645377
35	0xbe099c15	-0.13438447
36	0x3d28f758	0.04125151
37	0xbd01886d	-0.031624246
38	0xbdf84598	-0.12122649
39	0xbdcb6eb8	-0.09933227
40	0x3d1f835d	0.038943637
41	0xbc6c1a69	-0.014410594
42	0x3d20c6c0	0.039252043
43	0x3cc07c21	0.02349669
44	0x3ca5ddfb	0.02024745
45	0xbdcf8f9b	-0.101348124
46	0x3d1bb8ca	0.038018025
47	0xbdbed514	-0.09317985
48	0x3d47df9f	0.048797246
49	0xbd670500	-0.056401253
50	0x3c1348c8	0.00898952
51	0x3c2a19d9	0.010382139
52	0x3da21148	0.079134524
53	0x3d8779bb	0.06615015
54	0x3c800c10	0.015630752
55	0x3e4eedce	0.20207903
56	0x3e696403	0.22792058
57	0x3d2a82ee	0.04162877
58	0xbd49a71c	-0.049231634
59	0xbd46255b	-0.04837547
60	0x3d8a5181	0.06753827
61	0xbc91270a	-0.01771881
62	0x3c6dffbd	0.014526305
63	0xbd8233eb	-0.06357559

BN2.weight f4 [64]
0	0x3fad5d31	1.3544065
1	0x3f94eeac	1.1635337
2	0x3fa4d627	1.2877854
3	0x3fabb659	1.3415023
4	0x3f8c380f	1.0954608
5	0x3fa78b28	1.3089342
6	0x3f584dd9	0.84493786
7	0x3f8a2e61	1.0795404
8	0x3fa80873	1.3127578
9	0x3fac24fc	1.3448787
10	0x3f92d9a2	1.1472666
11	0x3fa152ff	1.2603453
12	0x3faf153a	1.3678353
13	0x3fc2f2f1	1.523039
14	0x3f998703	1.1994327
15	0x3f8aa1ea	1.0830662
16	0x3fb45a28	1.4090014
17	0x3fb2b8e7	1.3962678
18	0x3fe89947	1.8171777
19	0x40202b5e	2.502647
20	0x3fa1554f	1.2604159
21	0x3fb7cd15	1.4359461
22	0x40144ee6	2.3173156
23	0x3fa97d81	1.3241426
24	0x3fb18be2	1.3870814
25	0x400685ab	2.1019084
26	0x3fbf7797	1.4958371
27	0x3fb20110	1.3906574
28	0x3fc1ba9d	1.5135075
29	0x3fab1e59	1.3368636
30	0x3fc179ce	1.5115297
31	0x3f9dd513	1.233065
32	0x3fc6a383	1.551865
33	0x3fc04ee5	1.5024077
34	0x3fa96250	1.3233128
35	0x3fafbaee	1.3728921
36	0x3ffd14a6	1.9771926
37	0x3f8cc8a6	1.0998733
38	0x3f512ded	0.817107
39	0x3f9ce8d4	1.2258554
40	0x3f8bee03	1.093201
41	0x3f81eefa	1.0151055
42	0x3fa2e51c	1.2726169
43	0x4004a88e	2.0727878
44	0x3fd9155b	1.6959642
45	0x3fb37557	1.4020184
46	0x3fcb4ab0	1.5882168
47	0x3f7a736b	0.97832364
48	0x3fdc6261	1.7217523
49	0x3f9d50e7	1.2290314
50	0x3fab828b	1.3399214
51	0x3fb65c04	1.4246831
52	0x3fcb1c05	1.5867926
53	0x3f7d6352	0.98979676
54	0x3fa3abaa	1.2786763
55	0x3fa2d8c6	1.2722404
56	0x3f8f5c51	1.1200048
57	0x3fbb9c56	1.4657085
58	0x3f9a21af	1.204153
59	0x3f8d7ad6	1.1053112
60	0x3fcee67a	1.6164086
61	0x3fbed73c	1.4909434
62	0x3ff1b293	1.8882622
63	0x3fa20615	1.2658106

BN2.bias f4 [64]
0	0xbf32470c	-0.6963966
1	0xbf1ca997	-0.61196274
2	0xbf1fbd85	-0.6239856
3	0xbf3793b4	-0.7170975
4	0xbf230406	-0.63678014
5	0xbf3b4df0	-0.731658
6	0xbee8fe9e	-0.45506757
7	0xbf03f428	-0.5154443
8	0xbf325cc2	-0.6967279
9	0xbf2e1eee	-0.68015945
10	0xbf0fbcd5	-0.5614751
11	0xbf277fe4	-0.6542952
12	0xbf28f165	-0.6599334
13	0xbf3af4a1	-0.73029524
14	0xbf145601	-0.5794373
15	0xbf03dcf4	-0.5150902
16	0xbf1aab37	-0.60417503
17	0xbf4185ea	-0.7559496
18	0xbf9a7ad8	-1.2068739
19	0xbff1c415	-1.8887964
20	0xbf14b461	-0.58087736
21	0xbf430853	-0.76184577
22	0xbfcb05fb	-1.58612
23	0xbf1a9255	-0.60379535
24	0xbf26e374	-0.65190816
25	0xbfac982e	-1.3483942
26	0xbf4966d3	-0.7867252
27	0xbf307a3d	-0.6893652
28	0xbf43f27b	-0.7654187
29	0xbf1853ec	-0.59503055
30	0xbf463007	-0.77417034
31	0xbf230f70	-0.6369543
32	0xbf837861	-1.0271112
33	0xbf536a24	-0.8258383
34	0xbf18f52f	-0.5974912
35	0xbf2bd0d6	-0.67115533
36	0xbf945936	-1.1589725
37	0xbef16037	-0.4714372
38	0xbee379f3	-0.44428977
39	0xbf1b9993	-0.6078121
40	0xbefd95db	-0.49528393
41	0xbeef9523	-0.4679347
42	0xbf27815b	-0.65431756
43	0xbfc75ce1	-1.5575219
44	0xbf5f7b8e	-0.87297904
45	0xbf3dab68	-0.7408967
46	0xbf5e2169	-0.8676973
47	0xbef1f692	-0.4725843
48	0xbf557198	-0.83376455
49	0xbf30dad9	-0.69083935
50	0xbf31f876	-0.69519746
51	0xbf3ab637	-0.7293429
52	0xbf5afa97	-0.8553862
53	0xbef6d23c	-0.4820727
54	0xbf1d18fb	-0.6136624
55	0xbf2cd60e	-0.6751412
56	0xbf069fb1	-0.5258742
57	0xbf3ef966	-0.745993
58	0xbf0eceb0	-0.5578413
59	0xbf0c0723	-0.5469839
60	0xbf8678ab	-1.0505575
61	0xbf537a95	-0.8260892
62	0xbf9cf352	-1.2261755
63	0xbf0f73e9	-0.5603624

BN2.running_mean f4 [64]
0	0xbfdd3e6f	-1.7284678
1	0xc00c48f2	-2.1919522
2	0xbfe7a103	-1.8096012
3	0xc00697a7	-2.1030061
4	0xc01f76b5	-2.4916203
5	0xbfdbf1d8	-1.718318
6	0xbf8d9126	-1.1059921
7	0xbfae98a2	-1.364033
8	0xbf65995a	-0.8968712
9	0xbfe55317	-1.7915982
10	0xc0174db7	-2.3641183
11	0xc0052b46	-2.0807662
12	0xc00f4692	-2.2386823
13	0xbfa5dce0	-1.2958031
14	0xc0174d6d	-2.3641007
15	0xbfa76057	-1.3076276
16	0xbfbbe77f	-1.4680022
17	0xbfefa0a2	-1.8720896
18	0xbf736d44	-0.950886
19	0xbf593e4e	-0.84860694
20	0xc001041a	-2.0158753
21	0xc012b0ac	-2.2920332
22	0xbf9611ac	-1.1724143
23	0xbfe8c352	-1.8184607
24	0xc00e022a	-2.218882
25	0xbf5f397a	-0.8719708
26	0xbfd01c67	-1.6258668
27	0xbfe598b7	-1.793723
28	0xbf9b4160	-1.2129326
29	0xbfd80b72	-1.6878493
30	0xbfe59b3d	-1.7938
31	0xc004e845	-2.0766766
32	0xbf9b26e9	-1.212125
33	0xbf9ad0e2	-1.2094996
34	0xbfe4557b	-1.7838587
35	0xc000be7a	-2.0116258
36	0xbf86f3e8	-1.0543184
37	0xc062d67a	-3.5443406
38	0xbfdbb620	-1.7164955
39	0xbfa5b346	-1.2945335
40	0xbfd0a21f	-1.6299475
41	0xc00d409b	-2.2070682
42	0xbfaf6441	-1.370247
43	0xbf5ea2af	-0.86966985
44	0xbfd60e5b	-1.6723131
45	0xbfaab406	-1.3336189
46	0xbfb91725	-1.4460188
47	0xc0358407	-2.8361833
48	0xbfd422c7	-1.6573113
49	0xbfba6ee5	-1.4565092
50	0xc00b9f6d	-2.1816056
51	0xbfdc931b	-1.7232393
52	0xbff5c1f6	-1.9199817
53	0xbfd3a0bc	-1.6533427
54	0xbfd35cb7	-1.6512669
55	0xbf5acda2	-0.8547002
56	0xc028c462	-2.6369863
57	0xbfea13e6	-1.8287323
58	0xc03ba82a	-2.932139
59	0xc001c2cc	-2.0275145
60	0xbf603bbc	-0.8759115
61	0xbfd1f20a	-1.640199
62	0xbf44a335	-0.76811534
63	0xbffe4683	-1.9865268

BN2.running_var f4 [64]
0	0x416c1f75	14.75768
1	0x418f2657	17.89372
2	0x4171047b	15.063594
3	0x4171784c	15.091869
4	0x4134fa6b	11.311137
5	0x418ad2b7	17.352888
6	0x414059b7	12.021903
7	0x41480989	12.502328
8	0x40a32886	5.0986967
9	0x41880444	17.002083
10	0x419decae	19.740566
11	0x419da2e7	19.704542
12	0x418ebb6f	17.84152
13	0x40acbaf0	5.3978195
14	0x41f571f8	30.680649
15	0x41bbd6da	23.479908
16	0x41a15986	20.168713
17	0x412ec3ae	10.922773
18	0x406fba41	3.745743
19	0x406fb585	3.745454
20	0x4195b4be	18.713253
21	0x419aee7a	19.366444
22	0x40897a4d	4.2961793
23	0x41132dd8	9.198692
24	0x41a5bc8a	20.71706
25	0x409f0da9	4.9704175
26	0x41319f5d	11.101407
27	0x4119e8d6	9.619345
28	0x41646518	14.274681
29	0x418d184e	17.636868
30	0x415c6af6	13.7761135
31	0x418561a9	16.672686
32	0x40a70b96	5.2201643
33	0x40d63c79	6.694882
34	0x414c105c	12.753994
35	0x416a1bd9	14.631799
36	0x40ac2233	5.3791747
37	0x41eaf60e	29.370144
38	0x416708ab	14.439616
39	0x410a650f	8.6496725
40	0x415098da	13.037317
41	0x41a63103	20.773932
42	0x40eeff91	7.468697
43	0x4073cfb6	3.8095527
44	0x41174368	9.453957
45	0x40d5e597	6.684276
46	0x4105a18c	8.35194
47	0x41c87d33	25.061132
48	0x417cc424	15.797886
49	0x411bbf5a	9.734217
50	0x41252150	10.320633
51	0x4142523d	12.145078
52	0x41881756	17.011395
53	0x418f047f	17.877195
54	0x4169c6bb	14.611018
55	0x412a6618	10.649925
56	0x41cdfc5f	25.748228
57	0x415da23e	13.85211
58	0x41a59049	20.695452
59	0x4169f233	14.621631
60	0x408d5628	4.416767
61	0x410eef8b	8.933482
62	0x40385fdd	2.880851
63	0x41cd17c8	25.636612

fc1.weight f4 [128, 1024]
0	0xbcee6ac7	-0.02910365
1	0xbd6a4a18	-0.057199568
2	0xbd1a03ef	-0.037601408
3	0xbd8133dd	-0.0630872
4	0xbd2191c2	-0.039445646
5	0xbd429d75	-0.047513444
6	0xbd92a5a7	-0.07160502
7	0xbd38bf57	-0.04510435
8	0xbd9a5f97	-0.075377636
9	0xbd879320	-0.06619859
10	0xbd29cacb	-0.041453164
11	0xbc723c81	-0.014784933
12	0xbcf3ff73	-0.029784894
13	0xbc8071ff	-0.015679358
14	0xbc2eb3d3	-0.010662991
15	0xbd647d58	-0.0557836
16	0xbce9ba54	-0.028531231
17	0xbc65b9ad	-0.014021319
18	0x3bf89e82	0.007587255
19	0xbce2bfd8	-0.027679369
20	0xbcb1fb12	-0.021726165
21	0xbd0d2a62	-0.034464248
22	0xbd2419c0	-0.04006362
23	0xbc4ee5b3	-0.012628007
24	0x3c8a4270	0.016877383
25	0x3cb88ad3	0.022527134
26	0x3b272047	0.0025501417
27	0xbb92bbb8	-0.004477944
28	0xbc3883a7	-0.011261857
29	0xbd33cb97	-0.04389533
30	0xbcf26a10	-0.02959159
31	0xbc279b1a	-0.01022985
32	0xbd0633c0	-0.032764196
33	0xbd262d3d	-0.040570486
34	0xbc80fee4	-0.015746541
35	0xbd4fca7d	-0.050730217
36	0xbc72bf3d	-0.014816103
37	0xbd68e6d9	-0.05686078
38	0xbd84750f	-0.0646764
39	0xbce6492a	-0.02811106
40	0x3c9e283e	0.019306298
41	0x3be3db6b	0.006953647
42	0xbc3744af	-0.011185809
43	0xbc2c53e5	-0.010518049
44	0xbc8d4dbe	-0.017248984
45	0xbc4317d6	-0.011907538
46	0x3c22974d	0.009923768
47	0xbd094d35	-0.033520896
48	0xbd0123c9	-0.031528268
49	0xbc7a562b	-0.015279333
50	0x3c7cfe93	0.015441555
51	0x3ceeeeda	0.029166628
52	0x3cc1357e	0.023585077
53	0xbd0b2536	-0.033971034
54	0xbd6a17ec	-0.05715172
55	0xbce413ff	-0.027841566
56	0x3c2b432a	0.010453025
57	0xbcd44c62	-0.025915328
58	0xbcf121b3	-0.029435014
59	0xbd6dd21e	-0.05806171
60	0xbb93d2b4	-0.0045112018
61	0xbd0f4c8e	-0.034985118
62	0xbab0f6ec	-0.0013501323
63	0x3c5f1961	0.013616891
64	0xbaff84c4	-0.0019494523
65	0x3b5512a9	0.0032512343
66	0xbd43a776	-0.047767125
67	0xbd630e6f	-0.055433687
68	0xbd18898b	-0.037240546
69	0xbd12abad	-0.035808254
70	0xbc701a1c	-0.014654662
71	0xbd84f4f2	-0.06492032
72	0xbd8735ae	-0.066020355
73	0xbd675ea6	-0.05648675
74	0xbd2910ca	-0.041275777
75	0xbc465ae9	-0.012106636
76	0xbd1709c2	-0.03687454
77	0xbcb2ba68	-0.021817401
78	0xbd69fc34	-0.057125285
79	0xbb8216e6	-0.003970015
80	0xbc2101fc	-0.009827133
81	0xbc169ff7	-0.009193412
82	0x3c3685bd	0.011140284
83	0xbc65ea39	-0.014032894
84	0xbcc97364	-0.024591155
85	0xbd34a67e	-0.04410409
86	0xbcf471b3	-0.029839372
87	0xbcfcb0b4	-0.030845977
88	0xbd015c7d	-0.031582344
89	0xbd484f72	-0.04890389
90	0xbae84ec3	-0.0017723668
91	0x3c808be7	0.01569171
92	0xbd3f7408	-0.046741515
93	0xbb88d2e8	-0.0041755326
94	0xbd36d94d	-0.044640828
95	0x39f958f4	0.00047559256
96	0xbd031dad	-0.032010723
97	0xbc96db57	-0.018415136
98	0xbce3d286	-0.027810346
99	0xbd192812	-0.03739173
100	0x3cbb145a	0.022836853
101	0xbc6c5ab4	-0.014425922
102	0xbbfec61c	-0.0077750813
103	0x3bd218d6	0.006411652
104	0xbca30834	-0.019901372
105	0x3d0a865a	0.033819534
106	0x3ccf89e8	0.025334314
107	0xbcfc78ce	-0.030819323
108	0xbbc6c733	-0.006066227
109	0xbbbc6ad3	-0.005750039
110	0xbcb1abe6	-0.021688413
111	0xbcf425bb	-0.029803148
112	0xbc60bd83	-0.013717058
113	0xb9b0b115	-0.00033701272
114	0x3b70ea8e	0.00367609
115	0xbd15582c	-0.03646104
116	0xbd9048b5	-0.07045118
117	0xbd597381	-0.05308867
118	0xbd9b1d32	-0.07573928
119	0xbc6f17a4	-0.014593039
120	0xbd92d034	-0.07168618
121	0xbcd34b45	-0.025792727
122	0xbd82ca8c	-0.06386289
123	0xbd91799c	-0.07103273
124	0xbc7a0fc2	-0.015262546
125	0xbd6f7052	-0.058456726
126	0xbd6b3d73	-0.05743165
127	0x3b08208e	0.0020771357
128	0xbd122391	-0.03567845
129	0x3c73660a	0.014855871
130	0xbc6348c5	-0.01387233
131	0xbd17c313	-0.03705127
132	0x3c7d28c7	0.015451617
133	0xbd369e04	-0.04458429
134	0xbd4eacf4	-0.05045791
135	0xbce2c2bc	-0.027680747
136	0x3c8489d7	0.016179008
137	0xbc8b6d03	-0.017019754
138	0x3c55a1f0	0.013039097
139	0xbd32dd8e	-0.043668322
140	0xbc72ff58	-0.0148313865
141	0xbc22776d	-0.009916169
142	0x3b5cfa7e	0.003371864
143	0xbd1015d9	-0.035177086
144	0xbd0eac53	-0.03483231
145	0xbd0310f5	-0.031998593
146	0xbd1e75f3	-0.038686704
147	0xbd7868a9	-0.060646687
148	0x3c7f2af2	0.015574204
149	0xbce2efad	-0.027702177
150	0x3b43acef	0.0029857715
151	0xbc383297	-0.01124253
152	0xbccef412	-0.025262866
153	0x3d1cdd7f	0.038297173
154	0x3d10b80c	0.03533177
155	0xbc011551	-0.007878617
156	0xbd6d039d	-0.057864774
157	0xbc979fb0	-0.018508762
158	0xbb03023f	-0.0019990352
159	0xbd00b035	-0.031418044
160	0xba7be523	-0.0009609034
161	0xbce9ba95	-0.028531352
162	0xbd2380eb	-0.039917868
163	0xbd1ba474	-0.03799863
164	0xbce02044	-0.027359135
165	0xbd36dc57	-0.044643726
166	0xbd07c4fa	-0.033146836
167	0xbd1e037f	-0.038577553
168	0xbd46df61	-0.048552874
169	0xbd47e708	-0.048804313
170	0x3c71cb75	0.014757981
171	0xbbe94b9a	-0.007119608
172	0xbc55ccad	-0.013049287
173	0x385461d1	5.0635837e-05
174	0x3c309f63	0.010780188
175	0xbd11ffb7	-0.03564426
176	0xbd1b661c	-0.037939176
177	0xbc0e6938	-0.008692078
178	0xbc972dba	-0.018454421
179	0xbc94c318	-0.018159434
180	0xbd49d2bb	-0.049273234
181	0xbcd3ba4e	-0.025845673
182	0xbc9b4dec	-0.018958054
183	0xbcf52c5c	-0.029928379
184	0x3b2c6428	0.0026304815
185	0xbbaa1f8e	-0.00519175
186	0xbc04879b	-0.0080889715
187	0xbd469db4	-0.04849024
188	0x3bddd438	0.006769683
189	0xbcc62de5	-0.024191806
190	0x3bb618a3	0.005557136
191	0x3cec151f	0.028818665
192	0xbd175241	-0.036943678
193	0xbd62d31b	-0.055377107
194	0xbd5a89cc	-0.05335407
195	0xbcbf34a0	-0.023340523
196	0xbd30b396	-0.043140016
197	0xbd70cd3a	-0.05878947
198	0xbd66848e	-0.056278758
199	0xbd63ff26	-0.05566325
200	0x3cab9578	0.020945296
201	0xbd31337f	-0.043262
202	0xbb569d19	-0.0032747446
203	0xbc501bc6	-0.012701934
204	0xbc85b333	-0.0163208
205	0xbd13b5bd	-0.03606199
206	0x3bbfdbb0	0.005855046
207	0x3c72f797	0.014829538
208	0xbcaa7962	-0.020809833
209	0x3bdff6f1	0.0068348576
210	0xbcd48423	-0.025941914
211	0xbd0765c4	-0.033056036
212	0xbd2678b7	-0.040642466
213	0xbd1fd3e6	-0.03902044
214	0xbc83792f	-0.016048996
215	0xbc6f5be4	-0.014609311
216	0x3c855bd1	0.016279133
217	0x3d2e8027	0.042602684
218	0x3cd59946	0.026074063
219	0xbd0ebc8b	-0.034847777
220	0x3bb33f77	0.005470212
221	0xbc985a24	-0.01859767
222	0xbcf1a6be	-0.029498454
223	0x3d3bd20b	0.04585461
224	0xbcccf708	-0.025020137
225	0xbd239a44	-0.03994204
226	0x39f99313	0.0004760256
227	0xbcba75fa	-0.022761334
228	0xbc830618	-0.015994117
229	0x387e9bad	6.0703303e-05
230	0xbd5fc577	-0.054631677
231	0xbd0f39e9	-0.034967337
232	0xbd3f4106	-0.04669287
233	0xbb960052	-0.004577675
234	0xbad63c74	-0.0016344921
235	0x3b9a8289	0.004715268
236	0xbd5c156d	-0.05373137
237	0xbd43ba4a	-0.04778508
238	0xbd589c9b	-0.052883726
239	0x3bb258f2	0.005442732
240	0xbd11395c	-0.035455093
241	0xbb9cf232	-0.004789614
242	0xbd7d1af5	-0.061793286
243	0xbd14f9a5	-0.036370892
244	0x3c0729d0	0.008249715
245	0xbce8c06b	-0.028412065
246	0xbd4f05e1	-0.050542716
247	0xbd0647ee	-0.03278344
248	0x3be0e386	0.0068630604
249	0x3c0fbd8d	0.00877322
250	0x3cad8619	0.021182107
251	0x3bbd4122	0.0057755867
252	0xbd24cbbd	-0.040233362
253	0xbca6b01d	-0.02034765
254	0xbcf18bb2	-0.029485557
255	0x3c4a3bee	0.01234339

fc1.bias f4 [128]
0	0xbbb00c26	-0.005372542
1	0xbd7bd6c5	-0.061484117
2	0x3e32798c	0.17429179
3	0x3e4f6fbd	0.20257469
4	0x3bddb699	0.006766152
5	0xbd2616c8	-0.04054907
6	0x3aa72306	0.0012751527
7	0xbd114c2f	-0.035473045
8	0xbc7ca29c	-0.0154196285
9	0x3b0d3815	0.002154832
10	0xbc1d90f4	-0.009617079
11	0x3dcfd1b5	0.1014742
12	0x3c5f8236	0.013641885
13	0xbd5e73cb	-0.054309648
14	0x3d97871d	0.07398818
15	0x3bd13ea3	0.0063856407
16	0xbcce12a4	-0.025155373
17	0xbc93d720	-0.018046916
18	0x3d5adfd9	0.053436134
19	0xbd127cb7	-0.03576347
20	0xbdb450af	-0.08804452
21	0xbc5f82dd	-0.01364204
22	0x3eabcce0	0.33554745
23	0xbc60b00f	-0.013713851
24	0xbc208b4b	-0.009798835
25	0x3e6232e8	0.22089732
26	0xbca58cdf	-0.020208774
27	0x3dcabcb6	0.09899275
28	0xbcc1162d	-0.023570145
29	0xbc723ca8	-0.014784969
30	0xbcc47edb	-0.02398627
31	0xbd1258ae	-0.035729103
32	0x3c81ecf8	0.015860066
33	0x3b8b0b60	0.0042432994
34	0xbd5529bb	-0.05204175
35	0xbb929de3	-0.004474388
36	0x3ea0ffce	0.31445163
37	0xbd0d905c	-0.0345615
38	0xbc4399ab	-0.011938493
39	0xbced9b3b	-0.029004684
40	0xbc2ba6f3	-0.0104768155
41	0xbc55e386	-0.013054734
42	0x3c265a10	0.0101533085
43	0x3b96a8dc	0.0045977663
44	0x3e4d2454	0.2003339
45	0xbcb40da9	-0.02197917
46	0xbc67c1c5	-0.014145319
47	0xbdafbdd9	-0.085811324
48	0x3c07471c	0.0082567
49	0xbabed34e	-0.0014558823
50	0xbccde5a3	-0.025133913
51	0xbc81c4b0	-0.015840858
52	0xbbeadb4c	-0.0071672555
53	0xbd19ef16	-0.037581526
54	0x3e728211	0.23682429
55	0xbcfb6ab9	-0.030690538
56	0xbd09f01c	-0.03367625
57	0xbc167303	-0.009182694
58	0xbc1d5179	-0.009601944
59	0x3e4d70f4	0.2006262
60	0x3dcb465d	0.0992553
61	0x3adac6c3	0.0016691316
62	0x3e4cdd93	0.20006399
63	0xbd1413e8	-0.036151797
64	0x3aef6113	0.0018263183
65	0x3e185065	0.14874418
66	0x3bdb2297	0.006687473
67	0xbd00b4ea	-0.031422533
68	0xbbe246c2	-0.0069054076
69	0x3c05a606	0.008157259
70	0x3c93b8a3	0.018032378
71	0x3e5ca11d	0.21545835
72	0xbd138bd1	-0.03602201
73	0xbccd876c	-0.025088988
74	0x3c9797ab	0.018504938
75	0xbc003f93	-0.007827657
76	0xbc719f28	-0.014747418
77	0x3e356adc	0.17716545
78	0x3be2abff	0.006917476
79	0xbc383153	-0.011242229
80	0x3e2669cc	0.16251296
81	0x3e2f0223	0.17090659
82	0xbccc4679	-0.024935948
83	0x3dccfffe	0.10009764
84	0xbd10f7f9	-0.035392735
85	0x3c21269b	0.009835864
86	0xbba4f50f	-0.005034096
87	0xbcd46ccf	-0.02593079
88	0x3c0a344b	0.008435319
89	0xbcefb800	-0.029262543
90	0xbd168c6b	-0.036755007
91	0x3e0f3fc0	0.13989162
92	0xbd0fde52	-0.03512413
93	0xbb8792bb	-0.0041373647
94	0x3d6cae60	0.057783484
95	0xbcc10b19	-0.023564862
96	0xbce0deb5	-0.027449945
97	0xbcfa78db	-0.030575207
98	0x3e10894f	0.14114879
99	0xbc98c150	-0.018646866
100	0x3e7575a0	0.23970652
101	0x3dfac6ed	0.12244973
102	0xbd0dea81	-0.03464747
103	0xbc0f7ffb	-0.00875854
104	0xbd0a02e7	-0.033694174
105	0xbd106bb3	-0.03525896
106	0xbc06141a	-0.0081835035
107	0xbd4e8edf	-0.05042922
108	0x3e96b582	0.29435354
109	0xbe093fc2	-0.13403228
110	0x3e7f58b2	0.24936178
111	0xbd384eb3	-0.04499693
112	0xbcc7c39f	-0.024385272
113	0x3c027fd8	0.007965051
114	0xbd6177ab	-0.055045765
115	0xbc8711dd	-0.01648801
116	0x3e8072e9	0.2508767
117	0x3d3eb52b	0.046559494
118	0xbae9d285	-0.0017839229
119	0xbd14d0c4	-0.036331907
120	0x3e7ceb9d	0.24699254
121	0x390e383e	0.00013563127
122	0xbc156360	-0.009117931
123	0x3e47eb27	0.19523297
124	0xbc913aca	-0.017728228
125	0xbc9004e6	-0.01758046
126	0xbc9cf311	-0.019158872
127	0x3e612ebe	0.21990487

fc2.weight f4 [4, 128]
0	0xbcd2bb58	-0.025724098
1	0x3c72dbbe	0.014822898
2	0x3d2c24bf	0.04202723
3	0xbfac5243	-1.3462604
4	0xbd73c92f	-0.059518036
5	0x3ce3aeee	0.027793374
6	0x3d05f8aa	0.032707848
7	0x3bfa2fbe	0.007635086
8	0x3d832b0e	0.064046964
9	0xbda36dc7	-0.07979923
10	0x3c83c017	0.016082807
11	0x3f4fb33c	0.81132865
12	0xbd175ed5	-0.036955673
13	0x3c0163fa	0.007897371
14	0x3ec5d3df	0.38638207
15	0x3d15ce23	0.03657354
16	0x3cb1a90a	0.02168705
17	0x3caf9c8c	0.021436952
18	0x3d4e79f5	0.050409276
19	0x3c981591	0.018564971
20	0xbd270521	-0.040776376
21	0xbd7a968f	-0.06117874
22	0xbfcb381c	-1.5876498
23	0x3d477c8e	0.04870277
24	0xbd399719	-0.045310114
25	0x3ed5d981	0.41767505
26	0xbcb6e826	-0.022327494
27	0x3f497cd5	0.78706104
28	0xbada4499	-0.0016652524
29	0xbda1b810	-0.07896435
30	0xbccb7421	-0.024835648
31	0x3c721a0c	0.014776718
32	0x3c49ccca	0.012316892
33	0x3bc4baad	0.006003699
34	0x3d50e142	0.050996073
35	0xbde1f003	-0.11032107
36	0x3f507f31	0.8144408
37	0xbce0d56a	-0.027445514
38	0xbd66587a	-0.05623672
39	0xbd247e39	-0.040159438
40	0xbd890075	-0.0668954
41	0xbc343108	-0.010998018
42	0x3d4aaac8	0.049479276
43	0x3d828402	0.06372835
44	0xbfc10da5	-1.5082289
45	0xbcb45b76	-0.022016268
46	0x3d9dc73e	0.07704018
47	0xbd8a9e24	-0.06768444
48	0xbd8f4ad4	-0.06996694
49	0x3b860a14	0.004090557
50	0xbd4ddcbd	-0.05025934
51	0xbd91e892	-0.071244374
52	0x3cac7c58	0.021055385
53	0xbd15733b	-0.036486845
54	0x3fc3d88f	1.5300463
55	0xbcb01258	-0.021493122
56	0xbb5e4269	-0.0033914095
57	0xbc30a915	-0.0107825
58	0xbd7350ab	-0.059403103
59	0x3f05e84d	0.5230759
60	0x3f976e57	1.1830548
61	0x3c9ea110	0.01936391
62	0xbfcc4262	-1.5957758
63	0xbd0c2a44	-0.034219995
64	0xbc22a29a	-0.009926463
65	0x3edefe62	0.43553454
66	0xbd9807e0	-0.07423377
67	0xbd0ff10b	-0.035141986
68	0xbc18746d	-0.009305102
69	0xbd7a6ae3	-0.06113709
70	0xbce23478	-0.02761291
71	0xbfbe805b	-1.4882921
72	0x3d06c88c	0.0329061
73	0x3f17abc0	0.59246445
74	0x3f548a57	0.8302359
75	0x3de760ef	0.112977855
76	0xbd76e848	-0.060280114
77	0x3f4a2d94	0.78975797
78	0x3d87ea18	0.06636447
79	0xbd9bad63	-0.0760143
80	0xbf50c9c7	-0.8155789
81	0xbe80a6bf	-0.25127217
82	0xbd2e62f3	-0.042574834
83	0x3e1f9592	0.155844
84	0xbc6eab6c	-0.014567237
85	0x3c887a7d	0.01665997
86	0xbd53feec	-0.051756784
87	0x3cc23209	0.0237055
88	0xbd4e1ed4	-0.05032237
89	0x3da1b2dd	0.078954436
90	0x3ca63380	0.020288229
91	0x3f8ee344	1.1163106
92	0xbd00795f	-0.03136575
93	0xbd845272	-0.06461038
94	0xbe7ab5cb	-0.24483411
95	0xbc820426	-0.015871119
96	0xbcab60fe	-0.020920273
97	0xbd85dbd8	-0.065360725
98	0x3d7feb17	0.06248006
99	0x3b60d40e	0.0034306082
100	0x3f847d65	1.0350767
101	0x3e974b84	0.295498
102	0x3c3cea3e	0.011530457
103	0x3bc7a619	0.0060927984
104	0xbcaffb17	-0.021482034
105	0xbcfb8831	-0.03070459
106	0xbda9cae6	-0.08290653
107	0x3d82d618	0.063884914
108	0xc00438b5	-2.0659611
109	0xbd193445	-0.037403364
110	0xbe0014e4	-0.12507969
111	0x3c24fe30	0.010070369
112	0x3e160679	0.14650907
113	0xbcf57c28	-0.029966429
114	0xbfb2a3a3	-1.3956188
115	0xbd403282	-0.046923168
116	0x3f551b15	0.8324445
117	0x3f4ec4eb	0.8076922
118	0x3d09644a	0.03354291
119	0xbc7d8509	-0.015473613
120	0x3e95a3c1	0.29226497
121	0xbde7fdf3	-0.11327734
122	0xbd97cc46	-0.07412009
123	0x3fbac8d9	1.4592544
124	0xbd991c47	-0.074760966
125	0xbd076e53	-0.033064198
126	0xbd494cf6	-0.04914566
127	0xbfeae977	-1.8352498
128	0xbd7cb960	-0.061700225
129	0xbccb46a9	-0.024813967
130	0x3f834fe0	1.0258751
131	0x3f57a26a	0.842322
132	0xbcd42a9c	-0.025899224
133	0xbd47db63	-0.048793208
134	0xbd354305	-0.044253368
135	0xbd585766	-0.052817725
136	0x3cd1fd21	0.025633397
137	0xb98a42bd	-0.00026371135
138	0x3cca0a75	0.02466319
139	0xbfdcdb87	-1.7254494
140	0x3d178891	0.036995474
141	0xbd3d39e0	-0.046197772
142	0xbfa9868a	-1.3244183
143	0x3d7dfac5	0.06200673
144	0xbd2dd22a	-0.042436756
145	0x3c92ef8c	0.01793649
146	0x3ee8d8ba	0.4547785
147	0x3ce6fc94	0.02819661
148	0x3c1f1db8	0.009711675
149	0x3ca2d5df	0.019877372
150	0xbf345aa3	-0.704508
151	0x3c8df163	0.017327016
152	0xbca0e27b	-0.019639244
153	0x3f88e775	1.0695635
154	0x3cacb234	0.021081068
155	0xc01f9184	-2.4932566
156	0xbcf9afb7	-0.030479295
157	0x3d98f8f7	0.07469361
158	0x3c7fad2c	0.015605252
159	0x3c0a3f4f	0.0084379455
160	0xbd95bdcd	-0.07311592
161	0x3c5d4800	0.013505936
162	0x3d1e82a2	0.0386988
163	0xbcc21c5d	-0.023695165
164	0xbe579551	-0.21053053
165	0x3cc51c15	0.024061242
166	0xbd7922b0	-0.060824096
167	0xbd6dc668	-0.058050543
168	0x3c83afe7	0.016075088
169	0xbcfb8ddd	-0.030707294
170	0x3d458832	0.04822559
171	0xbd29cc5a	-0.04145465
172	0x3f477927	0.7791924
173	0x3a7ae914	0.00095714745
174	0xbd0ce2f1	-0.034396116
175	0xbda5d6df	-0.08097624
176	0x3d8f2d29	0.069910355
177	0x3d5b25ef	0.053502973
178	0xbd6da333	-0.058016967
179	0xbd886242	-0.06659366
180	0x3c989689	0.018626468
181	0xbbd1c29e	-0.006401374
182	0x3e7699f9	0.24082173
183	0xbd1ae807	-0.037818935
184	0x3cb88951	0.022526415
185	0x3c97b2ff	0.01851797
186	0x3d57c310	0.05267626
187	0xbfc087c7	-1.5041436
188	0xbe5aae67	-0.21355592
189	0x3d433e93	0.047667097
190	0x3eaa2122	0.33228403
191	0xbc95e8aa	-0.01829942
192	0x3d57fe48	0.052732736
193	0xc00343ff	-2.0510252
194	0xbd5b8cc1	-0.05360103
195	0xbd702b27	-0.058634903
196	0xbd141c38	-0.036159724
197	0x3d56c76e	0.052436285
198	0xbbf9bc63	-0.0076213344
199	0x3eb30690	0.34965944
200	0x3d1a136c	0.03761618
201	0xbf788192	-0.9707271
202	0xbed73377	-0.42031452
203	0xbfcf8b38	-1.6214361
204	0x3c894c7d	0.016760105
205	0xbedc2c14	-0.4300238
206	0x3c84c49b	0.01620703
207	0x3d6dda55	0.058069546
208	0xbf9448de	-1.1584737
209	0xc00362d5	-2.0529072
210	0xbd2b7c86	-0.0418668
211	0xbf97175b	-1.1804003
212	0x3d8239fc	0.06358716
213	0xbd79e389	-0.06100801
214	0x3d1f9453	0.038959812
215	0xbc8788af	-0.016544668
216	0xbd22ccf8	-0.039746255
217	0x3d0f9b44	0.035060182
218	0xbd9f1085	-0.07766823
219	0xbfa95890	-1.3230152
220	0xbd22544b	-0.03963117
221	0x3cd6c0f5	0.026215056
222	0x3f88f66e	1.0700204
223	0x3c8c3a8a	0.017117757
224	0x3da805c3	0.08204224
225	0x3d74347a	0.059620358
226	0x3f60864d	0.87704927
227	0x3d54b1b4	0.051927283
228	0x3d8af74f	0.067854516
229	0x3f2fa5c2	0.686123
230	0xbcd38669	-0.025820928
231	0xba81f57c	-0.0009915079
232	0x3be7cbd8	0.0070738606
233	0x3d84ee24	0.06490734
234	0x3d665231	0.056230728
235	0xbc04d834	-0.0081081875
236	0x3ef68596	0.48148793
237	0x3b30d38c	0.002698156
238	0x3f2a4ef0	0.665267
239	0xba44d32a	-0.00075082725
240	0x3d372d50	0.044720948
241	0x3af55b25	0.001871918
242	0x3f9a1340	1.2037125
243	0x3cea9f23	0.028640335
244	0xbcc49e17	-0.024001164
245	0xbf8a3624	-1.0797772
246	0x3d07b9e4	0.033136263
247	0xbd74a992	-0.059732027
248	0x3ca5247a	0.020158995
249	0xbd87af5d	-0.06625245
250	0xbd0c9809	-0.03432468
251	0xbfa862b6	-1.3155124
252	0xbd9d6aa5	-0.076863565
253	0x3c90467d	0.017611736
254	0xbd0eacaa	-0.034832634
255	0xbf813f1d	-1.0097386

fc2.bias f4 [4]
0	0xbde04f46	-0.1095262
1	0x3dac3953	0.08409371
2	0xbd4aca9a	-0.049509622
3	0xbd04a339	-0.032382224
