cnn saved models/cnn_epoch29.pt (torch, 609343 bytes, 16 tensors)

conv1.weight f4 [32, 1, 3, 3]
000000 5d 22 be 3e 24 e3 e3 3e 6a 58 9a be 91 45 d9 be
       0.37135592 0.44509232 -0.3014558 -0.42435887
000010 96 df d2 be 7a 23 87 be 2d a0 88 3d 4e c0 e2 3c
       -0.41186208 -0.26394254 0.06671176 0.027679589
000020 28 42 c4 3e 1a f0 7e 3f 65 b7 16 be 02 cd a7 3e
       0.38331723 0.99585116 -0.14718397 0.32773596
000030 ca 56 8f be f4 41 b5 bd 43 61 a0 be 4a 76 36 3c
       -0.27995902 -0.0885047 -0.31324205 0.011136601
000040 b5 03 bb 3e f6 7e ec bd 71 c2 f2 3d 35 ce 89 3d
       0.36526266 -0.115476534 0.11853493 0.06728784
000050 f1 3d d6 3e 18 16 a6 be 14 94 22 bf 36 a8 f7 3d
       0.41844133 -0.3243873 -0.635072 0.120926306
000060 33 ad a0 3e 64 d1 a3 3e f5 81 d4 be 64 9d b2 bb
       0.3138214 0.3199569 -0.415054 -0.0054508913
000070 b5 86 fc 3e b6 ec 89 3e af c5 2c 3d 11 a1 92 be
       0.49321523 0.2693841 0.042180713 -0.2863851
000080 5e 48 2a bf c2 99 bf bd 0d 11 95 3e 00 d8 f2 bd
       -0.66516674 -0.09355499 0.2911457 -0.11857605
000090 70 d8 31 be 5d cb 57 be 7b f3 91 3e 18 61 ca be
       -0.1736772 -0.2107367 0.28506073 -0.39527202
0000a0 54 ba 89 3e 26 ed 31 3e eb 08 ea 3e 48 57 a6 3d
       0.2689997 0.17375621 0.4570993 0.08122116
0000b0 c3 1a b8 be 3e 93 1c 3e 91 37 d3 be 6a d8 22 bf
       -0.35957918 0.15290543 -0.4125333 -0.6361147
0000c0 e3 8e 7c 3e 41 6d b8 3e 09 67 19 3a fd 47 9c be
       0.24663882 0.36020854 0.000585184 -0.30523673
0000d0 ea 1c e7 bd ee d1 24 bf ba ae 27 3e c0 48 bb be
       -0.11284812 -0.6438283 0.16375247 -0.3657894
0000e0 cd 8c 89 be f7 74 16 3e 47 a1 ae 3e 65 0c e9 3e
       -0.26865235 0.14693056 0.3410742 0.4551727
0000f0 35 5a 09 bf e3 94 89 3d e8 76 b8 bd 61 74 f7 3e
       -0.5365327 0.06717851 -0.090070546 0.48330978
000100 8c ad c5 be 91 7b cc be 16 ac b6 3e cf e9 41 be
       -0.38608968 -0.39938024 0.35678166 -0.18936847
000110 9d e7 cf be 84 cd 82 3e 78 2e 64 bc b6 60 6b 3e
       -0.40606394 0.2554742 -0.013927095 0.22986111
000120 f3 a0 2d 3e c3 e1 4a be c8 69 6a bf b4 75 e2 bc
       0.16955929 -0.19812684 -0.9156766 -0.027644016
000130 cf 05 08 3d 7d 0a c4 3d 9e 8a 93 3e e3 a7 20 3e
       0.033208665 0.09572313 0.28816694 0.15689044
000140 21 46 c8 bc 68 ad 98 3e bb ec c6 be 95 e3 10 3f
       -0.024447503 0.29819798 -0.38852486 0.5659726
000150 18 b3 32 be b8 e7 42 be 19 49 1d bf 90 64 4d 3e
       -0.17451131 -0.19033706 -0.61439663 0.20057893
000160 9e e5 59 3e 61 8f b9 bd 77 e8 b4 bc 25 08 8a be
       0.21278998 -0.090605505 -0.022083504 -0.2695934
000170 8d 64 f7 bd 39 61 ad be 28 b1 cf 3d 88 ec 05 bf
       -0.120797254 -0.33863238 0.10141212 -0.52314043
000180 4b a7 b5 3e 7a 0e f6 3e b0 c6 18 bd 91 85 68 be
       0.35479197 0.4805792 -0.03729886 -0.22707202
000190 a0 73 45 3e b1 5a be bd e1 5e 0c 3e 83 94 8b 3e
       0.19282389 -0.09294642 0.13708068 0.27261743
0001a0 23 9f 36 be 71 d2 26 3f 81 53 a8 be bd 34 ab be
       -0.17834143 0.6516486 -0.32876208 -0.33438674
0001b0 c7 52 12 3f e5 79 2d 3e 21 ca 7f 3d f0 f3 79 3e
       0.5715756 0.1694103 0.062448625 0.24409461
0001c0 c1 47 7c be 78 4c 74 be df 3b a9 be 5e b1 29 be
       -0.24636747 -0.23857296 -0.3305349 -0.16571566
0001d0 c0 f7 96 be 3e c2 0e bf 45 37 84 bd 1c 3f e2 be
       -0.29485893 -0.5576514 -0.06455854 -0.44188774
0001e0 c2 d5 9a be f1 d1 3c 3e 98 44 c6 3b 8b 50 b7 bb
       -0.3024121 0.18439461 0.0060506575 -0.0055943183
0001f0 8d 99 63 3e ed 23 e3 3e 84 5a ee 3e fd 60 d8 be
       0.22226544 0.44363347 0.46553433 -0.42261496
000200 56 47 a8 bd 52 05 a4 3e 0e 04 43 3e a4 26 08 bf
       -0.08216731 0.3203531 0.19044515 -0.5318396
000210 b1 fd d2 3e 0b 15 b3 3d 34 55 eb be f1 fc 4e 3d
       0.41209176 0.08744248 -0.45963442 0.050534192
000220 bf 04 1e be 31 21 26 bf 10 c6 1f 3e 73 63 d5 be
       -0.15431498 -0.64894396 0.15602899 -0.41677436
000230 ea 0f af bd 0d 13 1f 3f 4d c9 05 3e 75 fa 11 be
       -0.08547957 0.62138444 0.13065071 -0.14255698
000240 f3 fa c7 3e ee 39 3a 3e bb b5 ed be fb ad 24 be
       0.39058647 0.18186161 -0.46427712 -0.16081993
000250 49 5e 56 be 6b da f8 3e b5 ce 07 bf b2 a0 cf 3e
       -0.20934404 0.4860414 -0.53049785 0.40552288
000260 4a 29 5a bd 2e b8 83 be 29 7a 95 3b 2b 16 2d 3e
       -0.053262033 -0.25726455 0.0045616818 0.16902988
000270 e0 1a 90 3d d2 8c 24 bf 44 d3 cf be 54 9a 9a 3e
       0.07036376 -0.64277375 -0.4059087 0.30195868
000280 d4 47 d0 3e 75 dc ad 3e 84 8d b9 3e 40 fd 0f 3f
       0.406798 0.33957258 0.3624078 0.56245804
000290 bd cd 10 3e 47 b0 76 3e 65 2c 97 be be ca 71 be
       0.14140983 0.24090682 -0.29526058 -0.23612496
0002a0 dc c9 6b bd bd e0 bc be 4d 37 80 3c 0e 21 e6 3e
       -0.057565555 -0.36890212 0.01565137 0.44947094
0002b0 f6 e2 8a 3e fc 60 6c 3d 0d 8e 2a bf 4d 00 0c bf
       0.27126282 0.05770968 -0.66623 -0.5468796
0002c0 fa 3d ba 3d 75 38 02 3e ba 77 1e 3e 39 ff a1 3e
       0.09093852 0.12716849 0.1547536 0.31640032
0002d0 19 e0 65 3c 5e e2 0f bf d4 d2 fd 3e 13 ba e6 be
       0.01403048 -0.56204784 0.49574912 -0.45063838
0002e0 97 51 60 be ab a4 97 3e 31 e4 d0 bd 26 08 a9 bc
       -0.21906124 0.2961782 -0.10199774 -0.020633768
0002f0 42 d9 7b 3e bf ef de be 6b b0 be 3e eb 2e f5 3e
       0.24594596 -0.43542287 0.3724397 0.47887358
000300 53 52 32 3e 51 02 14 be 5d 81 2a be ac 80 60 3e
       0.17414217 -0.14454009 -0.1665091 0.21924084
000310 45 5c 1c bd 77 8e 07 bf f0 e8 41 3e 11 a1 85 be
       -0.038173933 -0.5295176 0.18936515 -0.26099446
000320 d6 b7 49 be ae e8 f1 3e a3 38 7c bd c5 f4 3e be
       -0.19699034 0.47247833 -0.06157745 -0.1864806
000330 7f 5e 0e bf 81 57 a9 3e 78 60 d5 3e 19 85 86 be
       -0.5561294 0.33074573 0.41675162 -0.2627342
000340 59 de 46 bc d9 af 0b 3e 8e 22 53 bd 74 ea 89 be
       -0.012137973 0.136413 -0.051546626 -0.26936686
000350 a5 4b a8 3e 4d 87 f6 be 36 0b e2 bc ac ed 17 3f
       0.32870212 -0.481501 -0.027593236 0.59347034
000360 26 9d cd be 0a d6 a1 bd e6 f9 bc 3e 1e 4a 1a bf
       -0.40158957 -0.07902153 0.36909407 -0.60269344
000370 58 22 df bd c2 b2 92 3e cf c8 a7 3d 85 77 d0 3e
       -0.108952224 0.28652006 0.08192598 0.40716186
000380 c9 fa cc 3c 7d 95 5d 3e ed 63 87 be 0b 22 91 3d
       0.025021927 0.21639057 -0.26443425 0.07086571
000390 51 78 a6 3e 17 0d 45 bf 34 a0 ce 3e cf ef 39 3e
       0.3251367 -0.769731 0.403566 0.18157886
0003a0 65 3c e6 be e5 df 82 3e 52 7f 54 3e d4 0f 18 bf
       -0.44967952 0.25561443 0.20751694 -0.5939915
0003b0 db 5c bd be 72 22 60 3e 89 66 ea be 04 a1 74 be
       -0.36984906 0.2188814 -0.45781353 -0.23889548
0003c0 86 ef e3 bd d4 0e f6 3e d3 8f 4d 3e 03 d1 24 bf
       -0.1112967 0.48058188 0.20074396 -0.64381427
0003d0 a0 d1 cc be 12 85 94 3e 76 a3 16 3e 09 e0 c8 bd
       -0.4000368 0.29007775 0.14710793 -0.09808356
0003e0 bb 0f da bd 96 e5 64 3e 3d 6e 32 be 46 14 ca 3e
       -0.106475316 0.22353205 -0.17424865 0.39468592
0003f0 f0 d3 8f be f2 99 96 3e 82 67 10 3f 82 14 db be
       -0.28091383 0.29414326 0.5640794 -0.42789084

conv1.bias f4 [32]
000000 10 12 8f 3e 00 28 85 3e 77 31 3c 3c 1f d3 de be
       0.27943468 0.2600708 0.011486403 -0.43520448
000010 bd da 0b 3f cb 18 ac 3e cb 45 22 be 25 39 0f 3c
       0.54630643 0.33612666 -0.15846936 0.008741652
000020 93 44 d4 3e 47 e8 6c 3e 94 7d 88 3e a9 66 bc 3e
       0.41458568 0.23135482 0.26658309 0.36797073
000030 b5 59 0d 3f 1b 58 95 3e c9 19 3b be 94 4f 13 be
       0.5521501 0.29168782 -0.18271555 -0.14385825
000040 ae 51 84 be 72 d8 02 3f 76 cc 84 bf 04 17 c7 3e
       -0.25843567 0.5111152 -1.0374897 0.38884747
000050 ad 95 73 3d 8e a7 49 bb 57 9f 87 3e 9c 63 3a be
       0.059468914 -0.0030770036 0.26488754 -0.1820206
000060 12 a6 4a 3f 0d d0 82 be a4 79 fe bd 44 18 8d 3d
       0.79159653 -0.25549355 -0.12425545 0.06889394
000070 9d 80 03 be 02 0d c6 bd 94 29 c2 be 94 bf 8a 3d
       -0.12842031 -0.0967045 -0.37922347 0.06774822

BN1.weight f4 [32]
000000 2b 94 a9 3f 38 df e9 3e d3 a4 9b 3f 27 b9 65 3f
       1.3248342 0.45678115 1.2159675 0.89735645
000010 7e 8e 62 3f 1b 6a 40 3f 23 6f 7d 3f 40 9a 19 3f
       0.88498676 0.75161904 0.98997706 0.6000099
000020 33 a0 87 3f 2b 6f c2 3f 30 16 6e 3f 9e bf ef 3e
       1.0595764 1.5190176 0.93002605 0.4682588
000030 f3 2c 56 3f c4 13 58 3f 43 58 17 3f fd f7 91 3f
       0.8366234 0.8440516 0.5911905 1.1403805
000040 94 b1 66 3f 94 01 ca 3e 6c 3c 47 3f f4 c4 61 3f
       0.9011471 0.3945433 0.7782657 0.8819115
000050 42 00 8a 3f 60 4d 87 3f 53 dc 83 3f eb 3f e5 3e
       1.0781329 1.0570488 1.0301613 0.44775328
000060 bd 18 07 3f 20 de 9f 3f ae 9e b2 3f 68 fd 3f 3f
       0.5277212 1.2489662 1.3954675 0.7499604
000070 fd d5 60 3f 18 70 3c 3f 52 8b 50 3f d0 70 6b 3f
       0.8782652 0.7360854 0.81462586 0.91969013

BN1.bias f4 [32]
000000 5d 56 da be fe 8a 17 be 44 86 65 be 5a 68 b2 bd
       -0.42644015 -0.14799115 -0.224145 -0.0871131
000010 d5 97 8e bf 47 15 a5 be b3 72 21 be 88 d0 86 bd
       -1.1140085 -0.32242796 -0.1576641 -0.06582743
000020 bb 47 1f bf 15 c9 55 bf 4b 48 e6 be e5 65 36 be
       -0.62218827 -0.8350995 -0.4497703 -0.17812307
000030 74 9c 25 3d de e8 e9 be b7 84 b2 bd 62 25 59 bf
       0.04043241 -0.45685476 -0.087167196 -0.84822667
000040 1f 2a 5d bf 67 24 9a bd f6 fa 51 bf 69 d2 22 bf
       -0.86392397 -0.075264744 -0.8202356 -0.6360231
000050 c1 b2 1f bf 3f d6 0e bf 36 25 9a bf 80 a8 38 bd
       -0.6238213 -0.55795664 -1.2042606 -0.04508257
000060 f7 d5 65 bd d3 8e d2 be fe 95 7a bf 26 19 8a bd
       -0.056112256 -0.4112459 -0.9788512 -0.06743078
000070 89 f3 d6 bc 28 e7 26 bd 44 9a 43 bf a8 85 11 be
       -0.026239173 -0.04074779 -0.76407266 -0.14211142

BN1.running_mean f4 [32]
000000 dd 2f 83 3e f3 23 c8 3e b9 6b 8b 3b 37 39 e6 be
       0.25622454 0.39089927 0.004254785 -0.44965526
000010 f0 a1 11 3f cc 82 d4 3d f5 28 2d be a5 29 ee bb
       0.5688772 0.1037651 -0.16910155 -0.007268148
000020 e6 5c ae 3e 68 af 47 3e 8c b5 4a 3e 50 78 c5 3e
       0.3405525 0.19500506 0.19795817 0.38568354
000030 66 4a 03 3f 13 1d 4d 3e c3 b3 3e be 94 ee 6d be
       0.512854 0.20030622 -0.18623261 -0.23235542
000040 1d e8 7e be e1 9c 00 3f 12 51 79 bf 20 0b db 3e
       -0.24893232 0.5023938 -0.9738933 0.42781925
000050 71 3c 0f 3b 1a aa 68 bc 9d 1d 95 3e 4b ea 43 be
       0.0021856094 -0.014200712 0.29124156 -0.19132344
000060 f4 24 49 3f 92 e2 87 be 57 ba 7a be 59 4a 3f 39
       0.7857201 -0.26540047 -0.24485146 0.00018242876
000070 9d a4 24 be 4d cc 11 be 23 f5 c2 be a0 2f 1f 3d
       -0.1607842 -0.14238091 -0.3807765 0.038863778

BN1.running_var f4 [32]
000000 b0 bd c9 3b f9 67 d1 3c be fd 96 3b df 4c f3 3b
       0.0061566457 0.025562273 0.004607885 0.0074249352
000010 09 b0 c4 3a dd a5 7c 3d e3 5b 86 3b 04 4b ef 3b
       0.0015006076 0.061681617 0.004100309 0.0073026437
000020 35 0d 94 3c 1e ad d6 3b 85 2e 85 3c 24 10 17 3b
       0.018072704 0.006551399 0.016257534 0.0023050392
000030 73 c0 8c 3c bd ca d9 3c d8 a6 a9 3b ba 55 b6 3c
       0.01718161 0.026585931 0.00517736 0.022257674
000040 28 56 b4 3a 22 2c 2e 3c 8f 3e 91 3c e7 e2 f3 3b
       0.0013758587 0.010630639 0.017730026 0.0074428204
000050 8a ec ed 3b 17 cd 8d 3b 0b 36 43 3b f4 48 6f 3b
       0.0072608637 0.004327427 0.002978685 0.003651199
000060 92 57 b9 3b ed 5e 3b 3b 62 c7 e4 3c 0b f1 65 3c
       0.005656191 0.0028590516 0.027927104 0.01403452
000070 7d e1 6c 3c c5 52 12 3c f6 2c 5c 39 ce 6c b0 3c
       0.0144580575 0.008930867 0.00020997584 0.021536257

conv2.weight f4 [64, 32, 3, 3]
000000 ab 04 68 bd fc 09 9a 3e 1f b6 50 bd df f8 e8 3d
       -0.056645077 0.30085742 -0.050954934 0.113755934
000010 41 95 10 3e f1 83 80 be eb cd 05 be c6 f5 10 3d
       0.14119436 -0.25100663 -0.13066833 0.035390638
000020 c5 12 a0 bd a5 a8 50 be f7 ec 3f be a2 9b 13 be
       -0.0781608 -0.20376833 -0.18742739 -0.14414838
000030 05 d5 8b be 5d 30 df be 29 a0 f6 be e3 63 c4 3e
       -0.27310959 -0.43591586 -0.48169068 0.38357458
000040 0e 49 91 3e b7 40 bd 3e ed 02 53 3c 1b 5a d1 3d
       0.2837605 0.36963436 0.0128791155 0.102222644
000050 2e 12 1b 3e f1 54 ea bd 1a 99 84 bc 49 7e bd 3d
       0.15143654 -0.114419825 -0.016186286 0.092526026
000060 39 fb 50 bd f5 96 95 bd 2b 4b e3 3d db fe 71 be
       -0.051020835 -0.073041834 0.110983215 -0.23632376
000070 c6 0b 83 3d 16 0e 96 3e 8e 00 14 bf 1b 1e 80 3d
       0.0639873 0.29307622 -0.57813346 0.06255742
000080 b3 66 ed bd d9 b1 13 be c1 fc 94 3e a3 bc 95 3d
       -0.11591854 -0.14423312 0.29099086 0.0731137
000090 93 03 cf 3e 43 14 c9 be 1b d1 68 be a6 24 11 be
       0.40432414 -0.3927327 -0.22736017 -0.14174137
0000a0 4b ed 27 be a5 a0 1b be 90 7c cd bd 88 36 88 be
       -0.16399114 -0.15198 -0.10033524 -0.26604104
0000b0 6a 77 3e be 78 30 af be d0 68 0d 3d 21 25 b9 be
       -0.1860024 -0.34216666 0.034523785 -0.3616114
0000c0 b2 35 a5 be fd 3a b9 bc c1 18 85 be 2f b6 74 3e
       -0.3226753 -0.022611136 -0.25995448 0.23897623
0000d0 f8 b4 c9 3e 62 8e 6e 3e 30 de 86 be 05 75 4d be
       0.3939588 0.23296502 -0.2634139 -0.2006417
0000e0 71 f6 91 be 07 db 94 3c de 5a 25 3e 05 24 a0 3e
       -0.28508332 0.018170847 0.16147944 0.3127748
0000f0 0b fa a7 be ee cb 8a be 2e 1c 0e be 20 db 1f bd
       -0.32807955 -0.2710871 -0.13877937 -0.039027333
000100 4b 0a 28 3e 41 a0 26 3e 93 44 80 be 68 28 95 bd
       0.16410176 0.1627207 -0.25052318 -0.072830975
000110 2a 15 1e bf 60 d7 13 3e 03 d0 61 3e 6f 39 74 3e
       -0.61751044 0.14437628 0.22052006 0.23850034
000120 ff 7a b0 be 29 e9 88 bd 68 79 89 be 6b 66 73 be
       -0.3446884 -0.06685097 -0.26850438 -0.23769538
000130 38 76 df 3d b8 be d7 be 81 1e 8c 3e 4e d7 69 3e
       0.1091122 -0.42137694 0.27367023 0.22836038
000140 50 20 b1 bd 56 43 01 bf 65 63 39 bf 16 6e 3f bf
       -0.08648741 -0.5049337 -0.7241729 -0.7477735
000150 f1 0c da 3e d8 bd 74 3e 1b 9b fe 3b 7a f2 c4 be
       0.42587999 0.23900545 0.007769955 -0.38466245
000160 29 80 d0 be 5f 2a f3 be a0 d5 20 3f 2a fe de 3e
       -0.40722778 -0.47493264 0.62825966 0.43553287
000170 c2 c0 ab 3e cc 8b 75 be de e8 0c be be 34 24 bf
       0.335455 -0.2397911 -0.13760707 -0.6414298
000180 73 6a 47 3e 4d db cf 3d 30 98 42 3d cf 4b 83 3c
       0.19474201 0.1014925 0.04750842 0.01602736
000190 3d de 6c 3d cb 89 3f be 8c 8c 4b be ec e1 76 3c
       0.05782913 -0.18704908 -0.19877833 0.015068512
0001a0 61 20 25 be 28 52 59 3e b8 9a b7 bc b3 a0 01 bf
       -0.16125633 0.21222746 -0.022412643 -0.5063583
0001b0 f7 b0 fd 3e b1 82 a9 3e bc 0e 26 bc 84 59 19 3e
       0.49549076 0.33107522 -0.010135349 0.14975554
0001c0 e2 4c fc bd 18 4f 8c bf 48 47 d7 bd df 0c 9f 3d
       -0.12319352 -1.0961637 -0.10511643 0.07766127
0001d0 d8 e5 0d 3e c7 6d 87 3c 3a dd 7b 3d 7b b2 ec bd
       0.1385721 0.016531838 0.061490275 -0.1155748
0001e0 f1 fc aa be b2 e7 4a 3c 3d d1 da be c1 31 4f 3c
       -0.33396104 0.012384342 -0.4273776 0.01264614
0001f0 62 29 17 3d 22 94 c7 3d ca 56 6e 3d 2d 63 71 3d
       0.0369047 0.09745051 0.058188237 0.058932472
000200 e9 5d 10 be 63 87 44 bd 97 91 46 3c a4 1a 41 bf
       -0.14098324 -0.047980677 0.012119672 -0.75431275
000210 39 37 7f bd 21 ab 3c 3d b2 f5 c5 be ff 60 cc be
       -0.062308524 0.04606164 -0.38664013 -0.39917752
000220 5b 45 5d be ac 23 43 bf 97 1a 52 bd 84 08 28 3d
       -0.21608488 -0.76226306 -0.05129489 0.041023746
000230 21 4c a0 bd 89 42 9a 3e af 70 9c bc 9f d4 e2 be
       -0.078270204 0.30128887 -0.0190967 -0.44302842
000240 da 80 6d bf c3 41 78 be 47 44 04 bf 87 37 06 3e
       -0.92774737 -0.24243836 -0.5166668 0.1310712
000250 f7 dc 8d 3e 8e 1b 30 3d 0e 11 78 bd 73 c7 13 be
       0.27707645 0.04299503 -0.06056314 -0.14431553
000260 8b be 36 3e 67 1e 00 3f 56 c2 ac 3e 93 d6 f0 3e
       0.17846124 0.5004639 0.33742017 0.47038707
000270 0f 28 66 be 56 ce 6f be ce f7 05 be 0e 12 d3 bb
       -0.22476219 -0.23418555 -0.13082811 -0.0064413613
000280 40 15 5d 3d 30 c8 4b 3e 1b 59 0f bf 9c f2 14 bf
       0.053975344 0.19900584 -0.5599534 -0.5818269
000290 3a 3f a3 be d7 96 ab 3e 5e 10 4f be 82 c4 0f bf
       -0.31884176 0.3351352 -0.20221087 -0.5615922
0002a0 38 06 a1 3e 77 a5 91 3e 2c 44 bd 3e e9 e3 ce be
       0.31450057 0.28446552 0.36966074 -0.40408257
0002b0 45 54 ce bd 6d a9 66 be 86 10 18 3c f3 c7 bf 3a
       -0.10074667 -0.22525568 0.009281283 0.0014631733
0002c0 12 cd 37 be d7 0b 47 3e 05 ac 04 3e c8 1c d6 3e
       -0.17949322 0.1943811 0.12956245 0.41818833
0002d0 2e 9f c2 3e fd ea 4b 3e aa 7b d6 bd a6 5a a9 be
       0.3801207 0.1991386 -0.10472806 -0.33076972
0002e0 c4 27 56 bd 58 54 d5 be 7a 43 22 bf c8 45 89 3c
       -0.052284017 -0.41665912 -0.6338421 0.016756907
0002f0 90 b7 37 bf 16 95 02 bf f2 83 8d be f7 0b 6f 3e
       -0.7176447 -0.5100874 -0.2763973 0.23344408
000300 a4 f4 04 bf e8 25 dd be 34 7c f7 be 58 06 28 be
       -0.5193579 -0.43192983 -0.48336947 -0.1640867
000310 ba a4 ad 3e f1 7f 9f 3e a4 c3 4e be ef bf b4 3d
       0.3391474 0.311523 -0.20191818 0.08825671
000320 c9 53 88 3e b5 a1 d8 3e 15 e7 08 3d 87 68 08 be
       0.26626423 0.42310873 0.033423502 -0.13321124
000330 41 6a 5c be 70 9c ab bd 45 31 6a 3d 10 ac 66 3e
       -0.21524908 -0.083794475 0.057175893 0.22526574
000340 59 96 fe 3d 98 41 81 3e ae 16 83 be 6a 3a a4 bc
       0.1243102 0.25245357 -0.2560324 -0.020047385
000350 42 4f 93 bd cb 5f 0a bf a0 07 55 bd 8a 48 a1 be
       -0.071928516 -0.5405242 -0.052009225 -0.31500655
000360 ad 61 3d 3e 8b 2d 9b 3d bf fd ac 3e 93 3b 9f be
       0.18494292 0.07577046 0.33787343 -0.3110014
000370 a1 da 55 be 54 5e ae be 0a 03 cc bd f9 d2 08 3e
       -0.20884182 -0.34056342 -0.09961517 0.1336173
000380 9a 2b bb 3e 71 a2 72 3e 87 9d 2f 3e 47 ab 03 3d
       0.36556703 0.23694779 0.17149936 0.032145765
000390 08 a3 d4 3c e5 b5 86 bd c8 93 9b 3c 1e a9 90 be
       0.025956646 -0.065776624 0.018991366 -0.28254026
0003a0 66 1c ce be 6b b6 16 bf c1 e7 7b bf d1 04 a1 bf
       -0.4025604 -0.588721 -0.98400503 -1.2579595
0003b0 d0 6d b8 bf 8c 7f 36 be 08 5b 6b be a7 97 7b be
       -1.4408512 -0.17822093 -0.22983944 -0.2456957
0003c0 8f 04 a6 be 05 3a eb be 3e 7f f4 be 3f 52 60 3e
       -0.32425353 -0.45942703 -0.47753328 0.21906374
0003d0 19 56 52 be e5 06 03 bf f0 52 00 bf e3 1d ed be
       -0.20540656 -0.51182395 -0.5012655 -0.46311864
0003e0 54 5c ac be 87 04 a8 3e 96 38 cc 3e bd 85 cb 3e
       -0.3366419 0.32815954 0.39886922 0.39750472
0003f0 35 8b b7 3e 02 9d 67 3e f7 86 35 3f 40 18 15 be
       0.35848394 0.22618487 0.70909065 -0.14560032

conv2.bias f4 [64]
000000 08 ad 7d bd c8 86 20 3d f0 9c 8f 3c da 7f 4c bd
       -0.061932594 0.039191037 0.017530888 -0.049926616
000010 db bb 9d 3d 82 54 ad 3c f6 30 85 3d 0e df 2e 3d
       0.07701846 0.02115846 0.06503479 0.04269319
000020 d6 81 14 3d b4 5f ff bc bb bd 5c 3d 4f b6 26 3d
       0.036256634 -0.031173564 0.05389188 0.040701207
000030 c4 5f 22 3d dc d2 69 be e7 2d 0c 3c cf e5 35 3d
       0.03964211 -0.22834343 0.008555866 0.044408616
000040 77 fd 51 3d 77 ed 48 be de 81 50 bd f7 cc 36 3d
       0.051267114 -0.19621836 -0.0509051 0.044629063
000050 19 42 e8 3d 4b 9f 0c 3d 17 f2 55 be f2 dd 23 be
       0.11340732 0.0343316 -0.20893131 -0.16002634
000060 2e 1f 29 bd a8 3d c2 bc 82 69 34 3d 18 47 97 3c
       -0.0412895 -0.02371104 0.044045933 0.018466517
000070 0b ae 0a 3d d3 22 b9 3c ad fd 81 3c f1 e7 78 3d
       0.033857387 0.022599613 0.015868032 0.06076807
000080 19 f4 46 3d 30 05 67 bd 8b e7 f3 bc 35 27 23 be
       0.048572633 -0.05640143 -0.029773494 -0.15932925
000090 ad 51 92 3d 0f 16 a4 bc f7 55 0d be b9 14 c2 bd
       0.07144485 -0.02003005 -0.13802324 -0.09476609
0000a0 d5 71 40 3d 14 f8 4c bc 3c 15 7f 3d 2d b3 0b 3d
       0.04698356 -0.012510318 0.06227611 0.034106422
0000b0 c5 86 49 ba cd 6d e0 bd 95 18 9e 3c 26 d3 c3 bd
       -0.0007687624 -0.10958443 0.019298831 -0.09561758
0000c0 39 51 59 3d df bf 8e bd bf 5f b6 3d 61 8b ff 3b
       0.053055976 -0.0697019 0.08904981 0.0077985977
0000d0 95 9d c2 3d 0f 0a c5 3d 76 f6 81 3c 46 51 48 3e
       0.09502713 0.09621059 0.015864592 0.19562253
0000e0 c5 94 38 3e 0d 45 7f 3d df 9c 5a bd c3 eb 56 bd
       0.18025501 0.06232171 -0.05337226 -0.052470934
0000f0 da 20 91 3d 5e 3d a7 bb 53 21 8b bd 34 6d 59 bd
       0.07086344 -0.005103751 -0.067934655 -0.05308266

BN2.weight f4 [64]
000000 11 51 b0 3f 90 69 96 3f a7 a5 a8 3f bd 2c b0 3f
       1.377474 1.1750965 1.3175553 1.3763653
000010 c7 d8 90 3f b4 c2 ac 3f bf 98 5e 3f ec 39 8c 3f
       1.1316155 1.3496919 0.8695182 1.0955176
000020 6f 7e ad 3f 38 b3 ac 3f 6a e6 95 3f 69 ed a5 3f
       1.355421 1.3492193 1.1710942 1.2963077
000030 03 b1 b5 3f 92 a5 c5 3f 9e 7d 9a 3f 31 a6 89 3f
       1.4194645 1.5441153 1.2069585 1.0753843
000040 bf f5 b5 3f 7c 63 b9 3f 75 9d ef 3f cf 5b 27 40
       1.4215621 1.4483485 1.8719927 2.6149786
000050 3d ca a5 3f 7c c4 bb 3f 06 42 19 40 d1 ed aa 3f
       1.2952343 1.4669337 2.3946548 1.3353826
000060 be 20 b7 3f 30 7f 0a 40 2c f3 c4 3f 24 2f b3 3f
       1.4306867 2.164013 1.538671 1.3998761
000070 cb 58 c1 3f 83 74 ae 3f 07 f9 c5 3f fb f1 a3 3f
       1.5105222 1.3629307 1.5466622 1.2808222
000080 cc 58 cb 3f e1 e4 c7 3f ab 2f ac 3f 6c 51 b7 3f
       1.5886474 1.5616723 1.3452047 1.4321723
000090 0c 62 03 40 4b e8 8d 3f 50 21 5a 3f a5 f2 9e 3f
       2.0528593 1.1086515 0.8520708 1.2417799
0000a0 9d 91 8e 3f b1 49 85 3f 02 b3 a8 3f 91 39 0a 40
       1.1138188 1.0413114 1.3179629 2.1597636
0000b0 51 cf dd 3f 6a fc b8 3f bc a9 d1 3f d9 7c 75 3f
       1.7328893 1.4452031 1.6379924 0.9589363
0000c0 61 26 e5 3f 2c 8c a3 3f 25 17 af 3f b9 08 be 3f
       1.7902337 1.2777152 1.3678938 1.4846412
0000d0 b6 5f ce 3f db ee 7c 3f 02 f0 a2 3f 97 35 aa 3f
       1.6122959 0.98801965 1.2729495 1.3297604
0000e0 cc 35 93 3f 61 69 c0 3f fd ec 9a 3f 8f fc 94 3f
       1.1500793 1.5032159 1.2103573 1.1639575
0000f0 27 60 d8 3f 3f 63 c5 3f fc b1 fb 3f 13 7c a1 3f
       1.6904343 1.5420913 1.9663692 1.261599

BN2.bias f4 [64]
000000 39 5c 35 bf c1 cd 23 bf 65 82 1e bf e0 8d 44 bf
       -0.70843846 -0.6398583 -0.61917716 -0.76778984
000010 18 74 22 bf 77 24 38 bf a3 fa e5 be a5 4f 06 bf
       -0.63458395 -0.7193064 -0.44917783 -0.5246528
000020 ec dc 39 bf 55 0c 30 bf 21 81 13 bf a1 d5 2a bf
       -0.72602725 -0.6876882 -0.5761891 -0.6673222
000030 5a e6 29 bf 4e 41 46 bf 7f 69 1e bf 98 ae 07 bf
       -0.66367114 -0.774434 -0.61879724 -0.53000784
000040 cd e3 20 bf ba bc 41 bf 5e 83 9f bf 1d 9f fd bf
       -0.62847596 -0.756786 -1.2461965 -1.9814183
000050 2e 5d 1b bf 1d e3 49 bf 9b fd d2 bf 1b 32 20 bf
       -0.60689056 -0.7886217 -1.6483644 -0.62576455
000060 38 03 2c bf 9e ea b0 bf 53 a2 54 bf 2c 2d 38 bf
       -0.6719241 -1.38216 -0.8306019 -0.71943927
000070 bd 8c 4d bf 88 e6 19 bf a8 f0 4c bf ce 49 27 bf
       -0.80292875 -0.6011739 -0.8005471 -0.6534699
000080 15 e6 8d bf b0 15 5c bf f2 fc 25 bf 5b 00 34 bf
       -1.108584 -0.8597059 -0.6483909 -0.7031304
000090 74 a2 99 bf ed 64 fe be 64 76 e4 be ce a1 1f bf
       -1.2002702 -0.49686375 -0.44621575 -0.6235627
0000a0 a5 7a 00 bf af de f9 be e5 ff 2f bf 7f a6 c8 bf
       -0.5018714 -0.48802707 -0.6874984 -1.567581
0000b0 a8 77 6a bf 4f dc 4b bf 91 b6 63 bf fa 6b f8 be
       -0.9158883 -0.7963304 -0.8895045 -0.4851988
0000c0 ed 72 5e bf 50 58 3b bf 6e ee 39 bf 2e 3c 40 bf
       -0.8689411 -0.7318163 -0.7262944 -0.75091827
0000d0 92 aa 62 bf e9 84 03 bf 95 38 25 bf d8 90 2f bf
       -0.8854152 -0.5137468 -0.6453946 -0.6858039
0000e0 9f 1e 04 bf 34 55 45 bf 8e c3 10 bf f5 16 0d bf
       -0.51609224 -0.77083135 -0.5654839 -0.55113155
0000f0 30 11 8c bf 2e 15 54 bf 21 cb a3 bf 1c cf 13 bf
       -1.0942745 -0.8284482 -1.2796365 -0.577379

BN2.running_mean f4 [64]
000000 12 73 d2 bf 3d d6 1f c0 db 4c 04 c0 78 9b 0c c0
       -1.6441367 -2.497451 -2.067191 -2.196989
000010 16 73 27 c0 3a 1c ef bf e6 a6 a0 bf eb de c0 bf
       -2.6163993 -1.8680489 -1.2550933 -1.5068029
000020 ff 13 a6 bf 09 5c 01 c0 34 5c 19 c0 28 8d 00 c0
       -1.2974852 -2.0212424 -2.3962526 -2.0086155
000030 cf e5 1b c0 34 af b6 bf 3c 20 31 c0 8d 2c c0 bf
       -2.4359014 -1.4272218 -2.7675924 -1.5013596
000040 d3 9e cb bf 50 60 fb bf b0 a8 8c bf 24 d4 60 bf
       -1.5907844 -1.9638767 -1.0988979 -0.878237
000050 29 f0 09 c0 53 3c 18 c0 01 3d 9e bf ad 2e 11 c0
       -2.1552832 -2.378682 -1.2362367 -2.2684739
000060 b8 70 13 c0 1f 20 81 bf ea f8 c5 bf d0 d5 d9 bf
       -2.3037548 -1.0087928 -1.5466588 -1.7018375
000070 93 45 da bf de 9f de bf 47 07 ff bf 57 d8 ec bf
       -1.7052482 -1.7392538 -1.9924096 -1.8503522
000080 11 62 8e bf 86 d6 a6 bf 03 31 dc bf b5 67 f7 bf
       -1.1123677 -1.3034217 -1.7202457 -1.9328524
000090 2e 2d 96 bf 66 d5 70 c0 b6 ae e0 bf 1c 72 b5 bf
       -1.1732538 -3.7630248 -1.7553318 -1.4175448
0000a0 34 48 08 c0 b5 5d 09 c0 db cf 9d bf 5c 26 49 bf
       -2.129407 -2.1463444 -1.2329057 -0.78574157
0000b0 c9 99 c8 bf 39 b9 aa bf 8b 7d aa bf d2 da 21 c0
       -1.5671932 -1.3337775 -1.3319563 -2.5289807
0000c0 0b cf c6 bf 5e bc cb bf 1c 41 01 c0 4d 8a de bf
       -1.5531934 -1.591686 -2.019599 -1.7385956
0000d0 8f dd 06 c0 a2 4b cc bf 34 d0 fd bf b3 72 7f bf
       -2.1072729 -1.5960581 -1.9829164 -0.9978439
0000e0 10 a3 2f c0 d9 9e cf bf d7 bb 3f c0 9b a8 19 c0
       -2.7443275 -1.6220351 -2.9958398 -2.4009159
0000f0 0e e7 4a bf 70 d7 8a bf 7e 2e 79 bf bf f6 07 c0
       -0.7925881 -1.0846996 -0.97336566 -2.1244352

BN2.running_var f4 [64]
000000 2f fd 6c 41 0f 66 c3 41 1e 22 a1 41 48 10 80 41
       14.811812 24.424833 20.141659 16.00795
000010 1f 68 65 41 7a 85 8d 41 f0 f3 5d 41 38 e2 64 41
       14.33792 17.690174 13.872055 14.305229
000020 cd 85 21 41 e9 6d 9a 41 52 d7 9d 41 bd 29 a1 41
       10.095166 19.303667 19.730137 20.14538
000030 33 4a a6 41 56 49 07 41 23 3d 0b 42 c4 0e e2 41
       20.78623 8.455404 34.809704 28.25721
000040 ae 4f c2 41 65 4f 46 41 4e 44 a6 40 10 86 af 40
       24.288906 12.394383 5.195838 5.485115
000050 9d e0 b2 41 28 6e ae 41 e0 1e ba 40 c4 e2 7c 41
       22.359674 21.803787 5.816269 15.805363
000060 29 ef ae 41 14 c0 d2 40 12 a2 55 41 7b 28 4f 41
       21.866777 6.585947 13.352068 12.947383
000070 4b 06 ac 41 63 66 a7 41 98 b2 84 41 48 50 73 41
       21.503073 20.924994 16.587204 15.2071
000080 9b a6 b8 40 45 e5 ee 40 99 84 60 41 2c e3 50 41
       5.7703376 7.465487 14.032372 13.055462
000090 66 80 e8 40 7e cd e4 41 f5 f2 80 41 df 31 2a 41
       7.2656736 28.600338 16.118631 10.637176
0000a0 66 3f 8c 41 29 62 9c 41 d1 08 ff 40 62 a5 8e 40
       17.530956 19.54793 7.969826 4.4576883
0000b0 b1 77 17 41 94 ed fd 40 c9 a1 08 41 58 f0 ed 41
       9.466722 7.935251 8.539498 29.742355
0000c0 6e 9f 81 41 3a af 4a 41 a9 19 33 41 f3 b9 5e 41
       16.202847 12.66778 11.193765 13.920398
0000d0 8f 05 a5 41 90 61 a3 41 2f 1a ac 41 6d 2f 76 41
       20.627714 20.422638 21.512785 15.386579
0000e0 0e 46 ec 41 c3 6d 46 41 c2 fe ca 41 b3 17 8f 41
       29.534206 12.401797 25.374393 17.886572
0000f0 a7 98 8a 40 33 53 0b 41 aa e3 8a 40 06 73 e0 41
       4.3311343 8.707812 4.340291 28.056164

fc1.weight f4 [128, 1024]
000000 c7 6a ee bc 18 4a 6a bd ef 03 1a bd dd 33 81 bd
       -0.02910365 -0.057199568 -0.037601408 -0.0630872
000010 c2 91 21 bd 75 9d 42 bd a7 a5 92 bd 57 bf 38 bd
       -0.039445646 -0.047513444 -0.07160502 -0.04510435
000020 97 5f 9a bd 20 93 87 bd cb ca 29 bd 81 3c 72 bc
       -0.075377636 -0.06619859 -0.041453164 -0.014784933
000030 73 ff f3 bc ff 71 80 bc d3 b3 2e bc 58 7d 64 bd
       -0.029784894 -0.015679358 -0.010662991 -0.0557836
000040 54 ba e9 bc ad b9 65 bc 82 9e f8 3b d8 bf e2 bc
       -0.028531231 -0.014021319 0.007587255 -0.027679369
000050 12 fb b1 bc 62 2a 0d bd c0 19 24 bd b3 e5 4e bc
       -0.021726165 -0.034464248 -0.04006362 -0.012628007
000060 70 42 8a 3c d3 8a b8 3c 47 20 27 3b b8 bb 92 bb
       0.016877383 0.022527134 0.0025501417 -0.004477944
000070 a7 83 38 bc 97 cb 33 bd 10 6a f2 bc 1a 9b 27 bc
       -0.011261857 -0.04389533 -0.02959159 -0.01022985
000080 c0 33 06 bd 3d 2d 26 bd e4 fe 80 bc 7d ca 4f bd
       -0.032764196 -0.040570486 -0.015746541 -0.050730217
000090 3d bf 72 bc d9 e6 68 bd 0f 75 84 bd 2a 49 e6 bc
       -0.014816103 -0.05686078 -0.0646764 -0.02811106
0000a0 3e 28 9e 3c 6b db e3 3b af 44 37 bc e5 53 2c bc
       0.019306298 0.006953647 -0.011185809 -0.010518049
0000b0 be 4d 8d bc d6 17 43 bc 4d 97 22 3c 35 4d 09 bd
       -0.017248984 -0.011907538 0.009923768 -0.033520896
0000c0 c9 23 01 bd 2b 56 7a bc 93 fe 7c 3c da ee ee 3c
       -0.031528268 -0.015279333 0.015441555 0.029166628
0000d0 7e 35 c1 3c 36 25 0b bd ec 17 6a bd ff 13 e4 bc
       0.023585077 -0.033971034 -0.05715172 -0.027841566
0000e0 2a 43 2b 3c 62 4c d4 bc b3 21 f1 bc 1e d2 6d bd
       0.010453025 -0.025915328 -0.029435014 -0.05806171
0000f0 b4 d2 93 bb 8e 4c 0f bd ec f6 b0 ba 61 19 5f 3c
       -0.0045112018 -0.034985118 -0.0013501323 0.013616891
000100 c4 84 ff ba a9 12 55 3b 76 a7 43 bd 6f 0e 63 bd
       -0.0019494523 0.0032512343 -0.047767125 -0.055433687
000110 8b 89 18 bd ad ab 12 bd 1c 1a 70 bc f2 f4 84 bd
       -0.037240546 -0.035808254 -0.014654662 -0.06492032
000120 ae 35 87 bd a6 5e 67 bd ca 10 29 bd e9 5a 46 bc
       -0.066020355 -0.05648675 -0.041275777 -0.012106636
000130 c2 09 17 bd 68 ba b2 bc 34 fc 69 bd e6 16 82 bb
       -0.03687454 -0.021817401 -0.057125285 -0.003970015
000140 fc 01 21 bc f7 9f 16 bc bd 85 36 3c 39 ea 65 bc
       -0.009827133 -0.009193412 0.011140284 -0.014032894
000150 64 73 c9 bc 7e a6 34 bd b3 71 f4 bc b4 b0 fc bc
       -0.024591155 -0.04410409 -0.029839372 -0.030845977
000160 7d 5c 01 bd 72 4f 48 bd c3 4e e8 ba e7 8b 80 3c
       -0.031582344 -0.04890389 -0.0017723668 0.01569171
000170 08 74 3f bd e8 d2 88 bb 4d d9 36 bd f4 58 f9 39
       -0.046741515 -0.0041755326 -0.044640828 0.00047559256
000180 ad 1d 03 bd 57 db 96 bc 86 d2 e3 bc 12 28 19 bd
       -0.032010723 -0.018415136 -0.027810346 -0.03739173
000190 5a 14 bb 3c b4 5a 6c bc 1c c6 fe bb d6 18 d2 3b
       0.022836853 -0.014425922 -0.0077750813 0.006411652
0001a0 34 08 a3 bc 5a 86 0a 3d e8 89 cf 3c ce 78 fc bc
       -0.019901372 0.033819534 0.025334314 -0.030819323
0001b0 33 c7 c6 bb d3 6a bc bb e6 ab b1 bc bb 25 f4 bc
       -0.006066227 -0.005750039 -0.021688413 -0.029803148
0001c0 83 bd 60 bc 15 b1 b0 b9 8e ea 70 3b 2c 58 15 bd
       -0.013717058 -0.00033701272 0.00367609 -0.03646104
0001d0 b5 48 90 bd 81 73 59 bd 32 1d 9b bd a4 17 6f bc
       -0.07045118 -0.05308867 -0.07573928 -0.014593039
0001e0 34 d0 92 bd 45 4b d3 bc 8c ca 82 bd 9c 79 91 bd
       -0.07168618 -0.025792727 -0.06386289 -0.07103273
0001f0 c2 0f 7a bc 52 70 6f bd 73 3d 6b bd 8e 20 08 3b
       -0.015262546 -0.058456726 -0.05743165 0.0020771357
000200 91 23 12 bd 0a 66 73 3c c5 48 63 bc 13 c3 17 bd
       -0.03567845 0.014855871 -0.01387233 -0.03705127
000210 c7 28 7d 3c 04 9e 36 bd f4 ac 4e bd bc c2 e2 bc
       0.015451617 -0.04458429 -0.05045791 -0.027680747
000220 d7 89 84 3c 03 6d 8b bc f0 a1 55 3c 8e dd 32 bd
       0.016179008 -0.017019754 0.013039097 -0.043668322
000230 58 ff 72 bc 6d 77 22 bc 7e fa 5c 3b d9 15 10 bd
       -0.0148313865 -0.009916169 0.003371864 -0.035177086
000240 53 ac 0e bd f5 10 03 bd f3 75 1e bd a9 68 78 bd
       -0.03483231 -0.031998593 -0.038686704 -0.060646687
000250 f2 2a 7f 3c ad ef e2 bc ef ac 43 3b 97 32 38 bc
       0.015574204 -0.027702177 0.0029857715 -0.01124253
000260 12 f4 ce bc 7f dd 1c 3d 0c b8 10 3d 51 15 01 bc
       -0.025262866 0.038297173 0.03533177 -0.007878617
000270 9d 03 6d bd b0 9f 97 bc 3f 02 03 bb 35 b0 00 bd
       -0.057864774 -0.018508762 -0.0019990352 -0.031418044
000280 23 e5 7b ba 95 ba e9 bc eb 80 23 bd 74 a4 1b bd
       -0.0009609034 -0.028531352 -0.039917868 -0.03799863
000290 44 20 e0 bc 57 dc 36 bd fa c4 07 bd 7f 03 1e bd
       -0.027359135 -0.044643726 -0.033146836 -0.038577553
0002a0 61 df 46 bd 08 e7 47 bd 75 cb 71 3c 9a 4b e9 bb
       -0.048552874 -0.048804313 0.014757981 -0.007119608
0002b0 ad cc 55 bc d1 61 54 38 63 9f 30 3c b7 ff 11 bd
       -0.013049287 5.0635837e-05 0.010780188 -0.03564426
0002c0 1c 66 1b bd 38 69 0e bc ba 2d 97 bc 18 c3 94 bc
       -0.037939176 -0.008692078 -0.018454421 -0.018159434
0002d0 bb d2 49 bd 4e ba d3 bc ec 4d 9b bc 5c 2c f5 bc
       -0.049273234 -0.025845673 -0.018958054 -0.029928379
0002e0 28 64 2c 3b 8e 1f aa bb 9b 87 04 bc b4 9d 46 bd
       0.0026304815 -0.00519175 -0.0080889715 -0.04849024
0002f0 38 d4 dd 3b e5 2d c6 bc a3 18 b6 3b 1f 15 ec 3c
       0.006769683 -0.024191806 0.005557136 0.028818665
000300 41 52 17 bd 1b d3 62 bd cc 89 5a bd a0 34 bf bc
       -0.036943678 -0.055377107 -0.05335407 -0.023340523
000310 96 b3 30 bd 3a cd 70 bd 8e 84 66 bd 26 ff 63 bd
       -0.043140016 -0.05878947 -0.056278758 -0.05566325
000320 78 95 ab 3c 7f 33 31 bd 19 9d 56 bb c6 1b 50 bc
       0.020945296 -0.043262 -0.0032747446 -0.012701934
000330 33 b3 85 bc bd b5 13 bd b0 db bf 3b 97 f7 72 3c
       -0.0163208 -0.03606199 0.005855046 0.014829538
000340 62 79 aa bc f1 f6 df 3b 23 84 d4 bc c4 65 07 bd
       -0.020809833 0.0068348576 -0.025941914 -0.033056036
000350 b7 78 26 bd e6 d3 1f bd 2f 79 83 bc e4 5b 6f bc
       -0.040642466 -0.03902044 -0.016048996 -0.014609311
000360 d1 5b 85 3c 27 80 2e 3d 46 99 d5 3c 8b bc 0e bd
       0.016279133 0.042602684 0.026074063 -0.034847777
000370 77 3f b3 3b 24 5a 98 bc be a6 f1 bc 0b d2 3b 3d
       0.005470212 -0.01859767 -0.029498454 0.04585461
000380 08 f7 cc bc 44 9a 23 bd 13 93 f9 39 fa 75 ba bc
       -0.025020137 -0.03994204 0.0004760256 -0.022761334
000390 18 06 83 bc ad 9b 7e 38 77 c5 5f bd e9 39 0f bd
       -0.015994117 6.0703303e-05 -0.054631677 -0.034967337
0003a0 06 41 3f bd 52 00 96 bb 74 3c d6 ba 89 82 9a 3b
       -0.04669287 -0.004577675 -0.0016344921 0.004715268
0003b0 6d 15 5c bd 4a ba 43 bd 9b 9c 58 bd f2 58 b2 3b
       -0.05373137 -0.04778508 -0.052883726 0.005442732
0003c0 5c 39 11 bd 32 f2 9c bb f5 1a 7d bd a5 f9 14 bd
       -0.035455093 -0.004789614 -0.061793286 -0.036370892
0003d0 d0 29 07 3c 6b c0 e8 bc e1 05 4f bd ee 47 06 bd
       0.008249715 -0.028412065 -0.050542716 -0.03278344
0003e0 86 e3 e0 3b 8d bd 0f 3c 19 86 ad 3c 22 41 bd 3b
       0.0068630604 0.00877322 0.021182107 0.0057755867
0003f0 bd cb 24 bd 1d b0 a6 bc b2 8b f1 bc ee 3b 4a 3c
       -0.040233362 -0.02034765 -0.029485557 0.01234339

fc1.bias f4 [128]
000000 26 0c b0 bb df 1d 4c 3d e2 ec 2e 3e 52 59 42 3e
       -0.005372542 0.049833175 0.17082551 0.18979385
000010 99 b6 dd 3b c8 16 26 bd 06 23 a7 3a 2f 4c 11 bd
       0.006766152 -0.04054907 0.0012751527 -0.035473045
000020 9c a2 7c bc 15 38 0d 3b a2 a1 66 bc 9c 39 fa 3d
       -0.0154196285 0.002154832 -0.014076622 0.12218019
000030 6f c8 91 bc cb 73 5e bd 6c 98 d6 3d a3 3e d1 3b
       -0.01779577 -0.054309648 0.10478291 0.0063856407
000040 a4 12 ce bc 20 d7 93 bc 6b 17 88 3d b7 7c 12 bd
       -0.025155373 -0.018046916 0.066450916 -0.03576347
000050 af 50 b4 bd dd 82 5f bc c0 f6 a4 3e 0f b0 60 bc
       -0.08804452 -0.01364204 0.32219505 -0.013713851
000060 4b 8b 20 bc 35 db 6e 3e df 8c a5 bc 9a d6 ca 3d
       -0.009798835 0.23325808 -0.020208774 0.09904213
000070 2d 16 c1 bc a8 3c 72 bc db 7e c4 bc ae 58 12 bd
       -0.023570145 -0.014784969 -0.02398627 -0.035729103
000080 f8 ec 81 3c 96 de 0e 3c bb 29 55 bd e3 9d 92 bb
       0.015860066 0.008720061 -0.05204175 -0.004474388
000090 5d 4d a3 3e 5c 90 0d bd ab 99 43 bc 00 ab 88 bd
       0.3189496 -0.0345615 -0.011938493 -0.06673241
0000a0 f3 a6 2b bc 86 e3 55 bc 10 5a 26 3c dc a8 96 3b
       -0.0104768155 -0.013054734 0.0101533085 0.0045977663
0000b0 2f 94 47 3e a9 0d b4 bc c5 c1 67 bc 79 c5 f0 bd
       0.19490121 -0.02197917 -0.014145319 -0.11756415
0000c0 1c 47 07 3c 4e d3 be ba a3 e5 cd bc b0 c4 81 bc
       0.0082567 -0.0014558823 -0.025133913 -0.015840858
0000d0 4c db ea bb 16 ef 19 bd ff 5b 73 3e b9 6a fb bc
       -0.0071672555 -0.037581526 0.23765562 -0.030690538
0000e0 1c f0 09 bd 03 73 16 bc 79 51 1d bc b7 8b 66 3e
       -0.03367625 -0.009182694 -0.009601944 0.22514234
0000f0 79 f1 b4 3d c3 c6 da 3a f9 e8 47 3e e8 13 14 bd
       0.0883512 0.0016691316 0.19522466 -0.036151797
000100 13 61 ef 3a 56 e7 15 3e 97 22 db 3b ea b4 00 bd
       0.0018263183 0.14639029 0.006687473 -0.031422533
000110 c2 46 e2 bb 06 a6 05 3c 0c 30 0f bc d5 ec 81 3e
       -0.0069054076 0.008157259 -0.008739483 0.25376
000120 d1 8b 13 bd ad 84 1c bd 68 7c 5d 3d 52 10 e1 bb
       -0.03602201 -0.038212467 0.05407372 -0.0068684006
000130 28 9f 71 bc fe 63 35 3e ff ab e2 3b 53 31 38 bc
       -0.014747418 0.17713925 0.006917476 -0.011242229
000140 f9 6f 10 3e 26 72 2e 3e 79 46 cc bc 6b 2f 05 3e
       0.14105214 0.17035732 -0.024935948 0.1300637
000150 f9 f7 10 bd 9b 26 21 3c 0f f5 a4 bb cf 6c d4 bc
       -0.035392735 0.009835864 -0.005034096 -0.02593079
000160 4b 34 0a 3c 00 b8 ef bc 6b 8c 16 bd 02 54 0d 3e
       0.008435319 -0.029262543 -0.036755007 0.13801578
000170 52 de 0f bd bb 92 87 bb 08 8d 83 3d 19 0b c1 bc
       -0.03512413 -0.0041373647 0.06423384 -0.023564862
000180 b5 de e0 bc db 78 fa bc f5 2f 32 3e 50 c1 98 bc
       -0.027449945 -0.030575207 0.17401107 -0.018646866
000190 9d 7d 7a 3e 7b 7d 03 3e 81 ea 0d bd fb 7f 0f bc
       0.2446198 0.12840836 -0.03464747 -0.00875854
0001a0 e7 02 0a bd b3 6b 10 bd 1a 14 06 bc df 8e 4e bd
       -0.033694174 -0.03525896 -0.0081835035 -0.05042922
0001b0 61 1c 9d 3e c2 3f 09 be 3c f1 85 3e 3f e1 37 bd
       0.30685714 -0.13403228 0.2616061 -0.044892546
0001c0 03 f2 27 bb d8 7f 02 3c 76 45 73 bd dd 11 87 bc
       -0.0025626428 0.007965051 -0.059392415 -0.01648801
0001d0 1e 61 86 3e 4d 4d 52 3d 85 d2 e9 ba c4 d0 14 bd
       0.2624597 0.05134325 -0.0017839229 -0.036331907
0001e0 e2 1b 6e 3e 3e 38 0e 39 60 63 15 bc d6 7c 43 3e
       0.23252824 0.00013563127 -0.009117931 0.1909059
0001f0 ca 3a 91 bc e6 04 90 bc 11 f3 9c bc 10 69 56 3e
       -0.017728228 -0.01758046 -0.019158872 0.20938516

fc2.weight f4 [4, 128]
000000 58 bb d2 bc 57 b3 17 3e f6 f3 86 3b aa de b4 bf
       -0.025724098 0.14814506 0.004118438 -1.4130452
000010 2f c9 73 bd ee ae e3 3c aa f8 05 3d be 2f fa 3b
       -0.059518036 0.027793374 0.032707848 0.007635086
000020 0e 2b 83 3d c7 6d a3 bd ed 25 0a bc 66 52 5d 3f
       0.064046964 -0.07979923 -0.008431894 0.86453855
000030 81 d5 1d bd fa 63 01 3c c7 47 bf 3e 23 ce 15 3d
       -0.03853369 0.007897371 0.3735945 0.03657354
000040 0a a9 b1 3c 8c 9c af 3c 61 d1 53 3d 91 15 98 3c
       0.02168705 0.021436952 0.05171335 0.018564971
000050 21 05 27 bd 8f 96 7a bd db 75 dd bf 8e 7c 47 3d
       -0.040776376 -0.06117874 -1.7301592 0.04870277
000060 19 97 39 bd 25 05 dc 3e 26 e8 b6 bc f9 4c 5a 3f
       -0.045310114 0.42972675 -0.022327494 0.852737
000070 99 44 da ba 10 b8 a1 bd 21 74 cb bc 0c 1a 72 3c
       -0.0016652524 -0.07896435 -0.024835648 0.014776718
000080 ca cc 49 3c c2 7d d4 bc 42 e1 50 3d 03 f0 e1 bd
       0.012316892 -0.025938872 0.050996073 -0.11032107
000090 af df 70 3f 6a d5 e0 bc 7a 58 66 bd 13 bc 86 bd
       0.94091314 -0.027445514 -0.05623672 -0.06578841
0000a0 75 00 89 bd 08 31 34 bc c8 aa 4a 3d 02 84 82 3d
       -0.0668954 -0.010998018 0.049479276 0.06372835
0000b0 61 d5 db bf 76 5b b4 bc 3e c7 9d 3d f3 75 cb bd
       -1.7174493 -0.022016268 0.07704018 -0.099346064
0000c0 d4 4a 8f bd 14 0a 86 3b bd dc 4d bd 92 e8 91 bd
       -0.06996694 0.004090557 -0.05025934 -0.071244374
0000d0 58 7c ac 3c 3b 73 15 bd 90 88 d8 3f 58 12 b0 bc
       0.021055385 -0.036486845 1.6916676 -0.021493122
0000e0 69 42 5e bb 15 a9 30 bc ab 50 73 bd de 8d 12 3f
       -0.0033914095 -0.0107825 -0.059403103 0.5724772
0000f0 ea 9c a4 3f 10 a1 9e 3c 50 62 dc bf 44 2a 0c bd
       1.2860386 0.01936391 -1.7217503 -0.034219995
000100 9a a2 22 bc 18 cb e4 3e e0 07 98 bd 0b f1 0f bd
       -0.009926463 0.44686198 -0.07423377 -0.035141986
000110 6d 74 18 bc e3 6a 7a bd 70 3b e1 bb 28 25 e1 bf
       -0.009305102 -0.06113709 -0.0068735406 -1.7589464
000120 8c c8 06 3d 45 d6 46 3f 6b 43 76 3f f3 cd 6f 3d
       0.0329061 0.776707 0.9619662 0.058546018
000130 48 e8 76 bd d0 d4 75 3f 18 ea 87 3d 63 ad 9b bd
       -0.060280114 0.9602785 0.06636447 -0.0760143
000140 56 dd 6c bf 83 1e 92 be f3 62 2e bd 1a 68 0e 3e
       -0.9252523 -0.28538904 -0.042574834 0.13906899
000150 6c ab 6e bc 7d 7a 88 3c ec fe 53 bd 09 32 c2 3c
       -0.014567237 0.01665997 -0.051756784 0.0237055
000160 d4 1e 4e bd dd b2 a1 3d 80 33 a6 3c b5 a6 99 3f
       -0.05032237 0.078954436 0.020288229 1.2004
000170 5f 79 00 bd 72 52 84 bd 4f 2c 92 be 26 04 82 bc
       -0.03136575 -0.06461038 -0.2854943 -0.015871119
000180 fe 60 ab bc d8 db 85 bd 31 a7 0d 3d 0e d4 60 3b
       -0.020920273 -0.065360725 0.034583274 0.0034306082
000190 e1 35 91 3f 6f 6a 9e 3e 3e ea 3c 3c 19 a6 c7 3b
       1.1344568 0.30940577 0.011530457 0.0060927984
0001a0 17 fb af bc 31 88 fb bc e6 ca a9 bd 18 d6 82 3d
       -0.021482034 -0.03070459 -0.08290653 0.063884914
0001b0 40 ed 0f c0 45 34 19 bd 5f 42 de bd 37 52 28 3c
       -2.2488556 -0.037403364 -0.10852503 0.010273508
0001c0 46 29 11 3e 28 7c f5 bc 22 e2 c6 bf 82 32 40 bd
       0.14175901 -0.029966429 -1.553776 -0.046923168
0001d0 7c 70 64 3f 26 8b 66 3f 4a 64 09 3d 09 85 7d bc
       0.8923414 0.90056074 0.03354291 -0.015473613
0001e0 b5 a1 ab 3e f3 fd e7 bd 46 cc 97 bd f3 fd c8 3f
       0.3352181 -0.11327734 -0.07412009 1.5702499
0001f0 47 1c 99 bd 53 6e 07 bd f6 4c 49 bd 9e 6b 07 c0
       -0.074760966 -0.033064198 -0.04914566 -2.1159434
000200 60 b9 7c bd d1 24 14 3e 31 52 8c 3f cd 9c 65 3f
       -0.061700225 0.1446717 1.0962583 0.89692384
000210 9c 2a d4 bc 63 db 47 bd 05 43 35 bd 66 57 58 bd
       -0.025899224 -0.048793208 -0.044253368 -0.052817725
000220 21 fd d1 3c bd 42 8a b9 03 e3 e7 3c 99 24 f6 bf
       0.025633397 -0.00026371135 0.02830649 -1.9229919
000230 08 15 14 3d e0 39 3d bd f3 11 ba bf c5 fa 7d 3d
       0.03615287 -0.046197772 -1.4536728 0.06200673
000240 2a d2 2d bd 8c ef 92 3c 79 6e f0 3e 94 fc e6 3c
       -0.042436756 0.01793649 0.46959284 0.02819661
000250 b8 1d 1f 3c df d5 a2 3c 26 99 3a bf 63 f1 8d 3c
       0.009711675 0.019877372 -0.72889936 0.017327016
000260 7b e2 a0 bc 9a a7 91 3f 34 b2 ac 3c 9d b9 2c c0
       -0.019639244 1.1379273 0.021081068 -2.698829
000270 b7 af f9 bc f7 f8 98 3d 2c ad 7f 3c 4f 3f 0a 3c
       -0.030479295 0.07469361 0.015605252 0.0084379455
000280 cd bd 95 bd a5 bc 2e 3d a2 82 1e 3d 5d 1c c2 bc
       -0.07311592 0.042660374 0.0386988 -0.023695165
000290 2b 68 4c be 15 1c c5 3c b0 22 79 bd 7a 15 01 be
       -0.19961612 0.024061242 -0.060824096 -0.12605849
0002a0 e7 af 83 3c dd 8d fb bc 32 88 45 3d 5a cc 29 bd
       0.016075088 -0.030707294 0.04822559 -0.04145465
0002b0 c4 c7 60 3f 14 e9 7a 3a f1 e2 0c bd b8 94 49 bd
       0.8780482 0.00095714745 -0.034396116 -0.049214095
0002c0 29 2d 8f 3d ef 25 5b 3d 33 a3 6d bd 42 62 88 bd
       0.069910355 0.053502973 -0.058016967 -0.06659366
0002d0 89 96 98 3c 9e c2 d1 bb 92 f9 9e 3e 07 e8 1a bd
       0.018626468 -0.006401374 0.31049782 -0.037818935
0002e0 51 89 b8 3c ff b2 97 3c 10 c3 57 3d e0 74 d7 bf
       0.022526415 0.01851797 0.05267626 -1.6832542
0002f0 72 38 95 be 93 3e 43 3d 1c 4d b2 3e aa e8 95 bc
       -0.29144627 0.047667097 0.34824455 -0.01829942
000300 48 fe 57 3d 00 e6 0e c0 c1 8c 5b bd 27 2b 70 bd
       0.052732736 -2.232788 -0.05360103 -0.058634903
000310 38 1c 14 bd 6e c7 56 3d 1e 49 c2 3b 2c d4 d6 3e
       -0.036159724 0.052436285 0.0059291264 0.4195875
000320 6c 13 1a 3d 12 0d 9a bf 91 14 ee be 36 d2 d7 bf
       0.03761618 -1.2035239 -0.46500066 -1.6861026
000330 7d 4c 89 3c 34 fa 00 bf 9b c4 84 3c 55 da 6d 3d
       0.016760105 -0.5038178 0.01620703 0.058069546
000340 0a 19 9e bf a8 e0 0d c0 86 7c 2b bd b9 0c a2 bf
       -1.2351391 -2.216837 -0.0418668 -1.2660133
000350 fc 39 82 3d 89 e3 79 bd 53 94 1f 3d af 88 87 bc
       0.06358716 -0.06100801 0.038959812 -0.016544668
000360 f8 cc 22 bd 44 9b 0f 3d 85 10 9f bd 71 fc ba bf
       -0.039746255 0.035060182 -0.07766823 -1.4608289
000370 4b 54 22 bd f5 c0 d6 3c 01 43 9b 3f 8a 3a 8c 3c
       -0.03963117 0.026215056 1.2129823 0.017117757
000380 c3 05 a8 3d 7a 34 74 3d f6 44 7a 3f b4 b1 54 3d
       0.08204224 0.059620358 0.97761476 0.051927283
000390 57 8b 9e 3d fe 9b 36 3f 69 86 d3 bc 7c f5 81 ba
       0.07741421 0.71331775 -0.025820928 -0.0009915079
0003a0 d8 cb e7 3b 24 ee 84 3d 31 52 66 3d 34 d8 04 bc
       0.0070738606 0.06490734 0.056230728 -0.0081081875
0003b0 c8 8d 22 3f 8c d3 30 3b 54 ac 40 3f b4 cf 46 ba
       0.6349759 0.002698156 0.7526295 -0.0007584051
0003c0 81 c0 37 3d 25 5b f5 3a 5e f1 a4 3f 23 9f ea 3c
       0.04486132 0.001871918 1.288616 0.028640335
0003d0 12 d6 1e bd 3d 2f 96 bf e4 b9 07 3d 92 a9 74 bd
       -0.038778372 -1.1733166 0.033136263 -0.059732027
0003e0 de 56 e5 3c 5d af 87 bd 09 98 0c bd af 1b b6 bf
       0.027995523 -0.06625245 -0.03432468 -1.4227198
0003f0 a5 6a 9d bd 7d 46 90 3c aa ac 0e bd 7f d2 8d bf
       -0.076863565 0.017611736 -0.034832634 -1.1079863

fc2.bias f4 [4]
000000 9e 54 e5 bd 6f ac ab 3d 58 65 2b bd 90 4c 19 bd
       -0.1119778 0.083824985 -0.041844696 -0.03742653
