cnn saved models/cnn_epoch4.pt (torch, 609323 bytes, 16 tensors)

conv1.weight f4 [32, 1, 3, 3]
0.32673848 0.27523664 -0.26394558 -0.27650732 -0.14021593 -0.18138236 0.052484024 -0.04558592
0.22557831 0.37552744 -0.007599551 0.5477184 0.023166463 0.0047317105 -0.017219137 0.039175604
0.22728778 -0.13709912 0.121539995 -0.030221852 0.29948366 -0.25028107 -0.3544704 0.09688141
0.14880225 0.2637054 -0.34188527 -0.13151535 0.28599575 0.23929359 0.10752559 -0.18906455
-0.27523744 -0.15916231 0.23415412 -0.14805205 -0.034779657 -0.15369965 0.114799134 -0.3069014
0.22382732 0.07283598 0.15350612 0.122902445 -0.14367335 0.2065675 -0.30573305 -0.2451168
0.14967509 0.2782605 -0.0027135925 -0.31746957 -0.052025244 -0.4503198 0.10094424 -0.11251195
-0.2897679 0.14760402 0.17552927 0.33693022 -0.32470456 -0.0022557771 -0.05865602 0.24266976
-0.20161904 -0.26989663 0.2791584 -0.01726988 -0.27082258 0.28001666 -0.15506162 0.092063956
0.037418533 0.061263483 -0.5323851 -0.10434922 -0.060800996 0.045862053 0.21286291 0.114857174
0.043292496 0.115612365 -0.28001028 0.37639013 -0.29630688 0.11155449 -0.3249948 0.23394749
0.10381737 -0.15891418 0.0018117856 -0.20385817 -0.019232025 -0.14848627 0.14087899 -0.39577568
0.27134454 0.2489733 -0.039673053 -0.04278266 0.20007505 -0.18506211 0.082372084 0.16561298
-0.19273314 0.3450979 -0.029945778 -0.15091223 0.33475783 0.11944795 -0.041105878 0.096513115
-0.17408483 -0.08650962 -0.118026964 0.015400054 -0.25348535 -0.27578992 0.08953263 -0.37754944
-0.21815908 0.05604742 0.03767681 0.04233697 0.10985519 0.29713407 0.3192375 -0.35039744
-0.05685569 0.22639428 0.17879893 -0.3973498 0.32186398 0.016261023 -0.32836124 -0.071354166
0.17414695 -0.50415033 0.0890092 -0.2763238 -0.07006013 0.42533788 0.09901187 -0.13009669
0.21336661 0.13819486 -0.30801427 -0.03725239 -0.21604449 0.37754247 -0.3799284 0.36359054
-0.05276263 -0.22605063 -0.019591982 0.12027422 0.10750709 -0.3602936 -0.3466794 0.10924023
0.35598773 0.27505517 -0.002356207 0.35343742 0.054662757 0.099911004 -0.1339861 -0.0677484
-0.04985011 -0.28805748 -0.026283987 0.2622615 0.18221834 0.06410147 -0.5514402 -0.31810692
0.027446078 0.21202871 0.0812814 0.12444881 0.061233 -0.36222517 0.28691548 -0.21313222
-0.025826098 0.16195525 -0.21066183 -0.0067754774 0.20559508 -0.19676414 0.30366448 0.3178479
0.13467456 -0.10632799 -0.24839039 0.093392916 -0.06590921 -0.3209129 0.069906496 0.05307273
-0.26041347 0.39606 -0.18444897 -0.10166148 -0.34535977 0.16059366 0.27467418 -0.12123817
-0.053585432 0.057915937 -0.057769366 -0.21921273 0.29634592 -0.26264837 0.021345856 0.31654778
-0.2509968 -0.13845228 0.2573082 -0.3249397 -0.07803219 0.24999017 -0.099326275 0.26052323
0.106892034 0.26344034 -0.27052346 -0.047392808 0.27550098 -0.47835776 0.26135793 0.07642076
-0.36334702 0.25905347 -0.10009449 -0.4355354 -0.23261866 0.30459282 -0.2920215 -0.05354535
-0.08987517 0.32860017 0.05783576 -0.3860697 -0.27699175 0.080597505 0.012244997 0.01963837
-0.13801777 0.13749087 -0.07678017 0.30609992 -0.30279765 0.23662716 0.445099 -0.27006784
00000000: 444a a73e d1eb 8c3e e023 87be 5e92 8dbe
00000010: c494 0fbe 4cbc 39be 7df9 563d 4db8 3abd
00000020: 00fe 663e 2245 c03e a805 f9bb 4637 0c3f
00000030: 98c7 bd3c 770c 9b3b 260f 8dbc 9976 203d
00000040: 21be 683e b663 0cbe f6e9 f83d d193 f7bc
00000050: ec55 993e d724 80be 257d b5be c369 c63d
00000060: 9e5f 183e 6504 873e 960b afbe f6ab 06be
00000070: 096e 923e 6109 753e 6036 dc3d 239a 41be
00000080: eceb 8cbe 72fb 22be 19c6 6f3e f59a 17be
00000090: 1d75 0ebd 7163 1dbe cf1b eb3d 2e22 9dbe
000000a0: fd32 653e 082b 953d b530 1d3e 47b4 fb3d
000000b0: 1b1f 13be 6e86 533e 0b89 9cbe e6ff 7abe
000000c0: 6d44 193e 2978 8e3e 87d6 31bb 5f8b a2be
000000d0: 6c18 55bd 5190 e6be dbbb ce3d aa6c e6bd
000000e0: 755c 94be 8225 173e f2bd 333e 1e82 ac3e
000000f0: ad3f a6be a9d5 13bb 4b41 70bd 6c7e 783e
00000100: 3975 4ebe e42f 8abe daed 8e3e 9079 8dbc
00000110: 42a9 8abe 585e 8f3e 79c8 1ebe 078c bc3d
00000120: 2d44 193d 6bef 7a3d 644a 08bf 0bb5 d5bd
00000130: 770a 79bd d9d9 3b3d bcf8 593e 3d3a eb3d
00000140: 7953 313d 2dc6 ec3d 825d 8fbe 35b6 c03e
00000150: 89b5 97be ae76 e43d b865 a6be ee8f 6f3e
00000160: 349e d43d 66ba 22be 7079 ed3a 32c0 50be
00000170: 7b8c 9dbc c90c 18be 9542 103e 1ca3 cabe
00000180: aced 8a3e dbf2 7e3e 3680 22bd df3c 2fbd
00000190: 79e0 4c3e ec80 3dbe b2b2 a83d 7396 293e
000001a0: d65b 45be acb0 b03e d950 f5bc bc88 1abe
000001b0: 6165 ab3e 20a1 f43d a35e 28bd aba8 c53d
000001c0: 4b43 32be f52b b1bd 1fb8 f1bd 8250 7c3c
000001d0: d5c8 81be 5634 8dbe e25c b73d 294e c1be
000001e0: 1865 5fbe fb91 653d 0053 1a3d 8869 2d3d
000001f0: c2fb e03d f521 983e 1973 a33e 4b67 b3be
00000200: 83e1 68bd e7d3 673e 1117 373e 6f71 cbbe
00000210: 5bcb a43e d635 853c f71e a8be 2222 92bd
00000220: 9453 323e ff0f 01bf 754a b63d 507a 8dbe
00000230: af7b 8fbd e3c5 d93e bcc6 ca3d 1138 05be
00000240: c77c 5a3e f482 0d3e 0cb4 9dbe f695 18bd
00000250: c43a 5dbe 3f4d c13e fa85 c2be 8a28 ba3e
00000260: a11d 58bd d179 67be 5d7f a0bc 5552 f63d
00000270: ad2c dc3d 6778 b8be f67f b1be 57b9 df3d
00000280: 0644 b63e 08d4 8c3e 986a 1abb c0f5 b43e
00000290: 0ee6 5f3d 249e cc3d a733 09be acbf 8abd
000002a0: a12f 4cbd 457c 93be 8451 d7bc 2447 863e
000002b0: 7297 3a3e a247 833d 2f2b 0dbf e9de a2be
000002c0: 99d6 e03c 0e1e 593e dd76 a63d 05df fe3d
000002d0: 74cf 7a3d 9475 b9be 96e6 923e 553f 5abe
000002e0: 4191 d3bc 99d7 253e bcb7 57be d304 debb
000002f0: 8487 523e 8a7c 49be e979 9b3e f6bc a23e
00000300: 21e8 093e 7dc2 d9bd 0d5a 7ebe c944 bf3d
00000310: 68fb 86bd b24e a4be 232b 8f3d ca62 593d
00000320: ea54 85be 60c8 ca3e 31e0 3cbe e533 d0bd
00000330: ffd2 b0be aa72 243e 18a2 8c3e b84b f8bd
00000340: 667c 5bbd 4339 6d3d 929f 6cbd 4d79 60be
00000350: a7ba 973e d979 86be 81dd ae3c 8d12 a23e
00000360: a782 80be 6fc6 0dbe e6bd 833e 7f5e a6be
00000370: 57cf 9fbd 6cfd 7f3e 936b cbbd 4d63 853e
00000380: 36ea da3d a7e1 863e 0d82 8abe f61e 42bd
00000390: 770e 8d3e 4feb f4be b5d0 853e 7d82 9c3d
000003a0: 9f08 babe a8a2 843e 57fe ccbd 7ffe debe
000003b0: 9633 6ebe 97f3 9b3e d883 95be 5e52 5bbd
000003c0: 7910 b8bd 483e a83e 31e5 6c3d edaa c5be
000003d0: ddd1 8dbe 4e10 a53d 3d9f 483c a6e0 a03c
000003e0: 8854 0dbe 68ca 0c3e ec3e 9dbd 21b9 9c3e
000003f0: 4b08 9bbe 644e 723e 04e4 e33e 5546 8abe

conv1.bias f4 [32]
0.10064836 0.23116186 0.31770313 -0.16722497 0.19983768 0.26332456 0.18269266 0.15974408
0.21410245 0.10570181 0.14336112 0.21294683 0.31244138 0.0875685 0.0822996 -0.15494756
0.019356957 0.45052665 -0.44527894 0.20695643 0.32955202 -0.10654772 0.49401656 -0.1903388
0.24222814 0.04945773 -0.16685271 0.13486817 0.20400688 0.008856312 -0.2860202 0.14566036
00000000: ba20 ce3d b2b5 6c3e fca9 a23e 063d 2bbe
00000010: 40a2 4c3e 7ad2 863e c913 3b3e f493 233e
00000020: ac3d 5b3e 317a d83d 42cd 123e bc0e 5a3e
00000030: 51f8 9f3e 1d57 b33d b18c a83d 93aa 1ebe
00000040: 7b92 9e3c 6eab e63e 9afb e3be 63ec 533e
00000050: 0bbb a83e b135 dabd bdef fc3e 2de8 42be
00000060: a70a 783e 3094 4a3d 70db 2abe e21a 0a3e
00000070: 2ee7 503e 111a 113c 3d71 92be fd27 153e

BN1.weight f4 [32]
1.2346854 0.48639154 1.0405211 0.860075 0.8977749 0.8302335 1.1982077 1.0880052
0.8669412 0.9127636 0.9115374 0.51670074 0.9412024 0.89689523 0.99399805 0.9299553
0.8581905 0.58250684 0.7965725 0.75358856 0.9925945 0.88949233 1.0608392 0.8802194
0.88576406 1.2832369 0.8670768 0.9381504 1.0365022 0.8731535 0.92053986 0.88663715
00000000: 2c0a 9e3f 5008 f93e cc2f 853f e02d 5c3f
00000010: 93d4 653f 2f8a 543f df5e 993f c143 8b3f
00000020: dcef 5d3f e0aa 693f 845a 693f 8046 043f
00000030: a4f2 703f ed9a 653f a876 7e3f 8d11 6e3f
00000040: 5fb2 5b3f 2b1f 153f 2dec 4b3f 2eeb 403f
00000050: ac1a 7e3f c5b5 633f 94c9 873f 0f56 613f
00000060: 6fc1 623f 1b41 a43f bff8 5d3f a02a 703f
00000070: 1bac 843f fd86 5f3f 80a8 6b3f a7fa 623f

BN1.bias f4 [32]
-0.24217044 -0.13409169 -0.24499545 -0.16888545 -0.5620165 -0.28428698 -0.148543 -0.07534155
-0.4006436 -0.3696684 -0.38850358 -0.17033349 -0.107489906 -0.32219088 -0.17736916 -0.53091544
-0.75519437 -0.1460341 -0.28504223 -0.501131 -0.28915116 -0.26474857 -0.9689817 -0.09073025
-0.026666308 -0.3035829 -0.5170037 -0.1216472 -0.10567536 -0.08002922 -0.4045482 -0.20055732
00000000: 87fb 77be 554f 09be 16e0 7abe 4ff0 2cbe
00000010: 50e0 0fbf 108e 91be a81b 18be ac4c 9abd
00000020: 2821 cdbe 2d45 bdbe f1e9 c6be e76b 2ebe
00000030: ab23 dcbd 34f6 a4be 43a0 35be 13ea 07bf
00000040: 6b54 41bf f789 15be 0ef1 91be 1f4a 00bf
00000050: 9f0b 94be 208d 87be 2f0f 78bf c8d0 b9bd
00000060: 4d73 dabc 386f 9bbe 5b5a 04bf 2b22 f9bd
00000070: 536c d8bd 5ce6 a3bd f120 cfbe e65e 4dbe

BN1.running_mean f4 [32]
0.09308247 0.43794602 0.30593804 -0.17458722 0.21062306 0.12160193 0.18096246 0.15564528
0.17944299 0.08021902 0.11422641 0.25192428 0.2913141 0.04076276 0.06918596 -0.20676717
0.040407106 0.45005557 -0.45751116 0.22003 0.3070313 -0.12413492 0.50802404 -0.196922
0.23715456 0.040971737 -0.26727632 0.06985527 0.18523934 -0.052355397 -0.29384223 0.11500334
00000000: 06a2 be3d 763a e03e e9a3 9c3e fec6 32be
00000010: 92ad 573e 6f0a f93d 394e 393e 7a61 1f3e
00000020: e7bf 373e df49 a43d 89ef e93d 38fc 803e
00000030: 1f27 953e daf6 263d 5eb1 8d3d c6ba 53be
00000040: ec81 253d af6d e63e e73e eabe 8b4f 613e
00000050: 3533 9d3e 733a febd dd0d 023f eca5 49be
00000060: a5d8 723e fbd1 273d 71d8 88be 4810 8f3d
00000070: 62af 3d3e 9d72 56bd 7d72 96be df86 eb3d

BN1.running_var f4 [32]
0.0020714449 0.048548378 0.0020123003 0.002124147 0.0006775864 0.024002042 0.0020409157 0.0039205463
0.0057559093 0.0020149543 0.0052631795 0.003041847 0.004954711 0.009049473 0.004413441 0.008787363
0.0010865382 0.006416965 0.003964746 0.0033720364 0.0020692968 0.004152181 0.0009487061 0.0020600604
0.0037613818 0.0019570196 0.017893018 0.010253115 0.006023951 0.008838107 0.0007481669 0.012154181
00000000: 14c1 073b aada 463d cce0 033b 4635 0b3b
00000010: 0ea0 313a ee9f c43c e2c0 053b ed77 803b
00000020: 119c bc3b 530d 043b c076 ac3b b959 473b
00000030: 215b a23b 3e44 143c a09e 903b dff8 0f3c
00000040: 2c6a 8e3a 6745 d23b b3ea 813b 62fd 5c3b
00000050: 0a9d 073b 050f 883b 97b2 783a 1402 073b
00000060: 8481 763b 5741 003b 6194 923c aefc 273c
00000070: 9064 c53b b5cd 103c a120 443a 5422 473c

conv2.weight f4 [64, 32, 3, 3]
-0.12498853 0.04872321 -0.12083141 0.0019797075 -0.00026218337 -0.1852294 -0.06369462 0.07665697
-0.08338103 -0.05408634 -0.015436828 0.027909819 -0.0778155 -0.14644435 -0.08327425 0.06441861
0.048821706 0.029051146 0.04766276 0.10116543 0.066629305 -0.104551636 -0.072864145 -0.1016301
-0.090114 0.0321523 0.15806806 -0.22125115 0.13518102 0.03380643 -0.22324125 0.10612245
-0.080807276 -0.051046196 0.22193855 0.15534641 0.09565313 -0.085080355 -0.12070789 -0.06379489
-0.13169041 -0.08037903 -0.0043260395 0.01781149 0.0808061 -0.10824153 -0.031423237 -0.09045996
-0.010874813 -0.007209199 0.010881995 0.19467647 0.1622631 0.12967822 0.129092 0.07656963
-0.14089188 -0.055979982 0.043704033 0.13751294 -0.15454267 -0.15143189 -0.2236945 -0.061223235
0.034515206 0.012434117 0.031836927 0.005124886 -0.051197216 0.054153968 0.06340177 0.15072642
-0.15891048 -0.017912531 -0.115584455 -0.06913566 0.07263079 -0.0113559095 -0.075148985 0.048922062
-0.039942216 -0.1175414 -0.13981861 -0.28530613 -0.15739137 -0.023912882 -0.070861995 -0.15956199
-0.16730566 -0.2236404 0.26963794 0.21268183 0.15337995 0.041348945 0.126712 0.14255649
-0.08840617 0.0012995998 0.030957654 -0.09211928 0.003272684 0.0033921164 -0.01752021 0.05317103
-0.0033103114 0.09007232 0.05855811 0.076765165 -0.061315786 0.07319671 -0.05867047 0.20064278
0.050626382 -0.241567 -0.06828515 0.0836849 0.13999838 0.019869955 -0.08262961 -0.12820981
0.0067677163 0.04201813 -0.008227113 -0.04073156 0.11084153 0.090494215 -0.10282084 -0.011559024
-0.03580343 0.09005292 0.0059516057 -0.19495751 -0.046754945 0.056003466 0.017774945 -0.12408545
0.035530876 -0.18695474 -0.060852665 0.085627966 0.049194217 -0.041614965 0.03959913 -0.09979477
-0.28821552 -0.2501442 -0.23002732 0.101310015 0.09392491 -0.017772788 -0.1751004 -0.10365213
0.06432837 0.2656886 0.16403648 0.24384642 0.045542 0.08570729 0.13394037 0.052485354
0.101628825 0.06705098 -0.06943174 0.052490924 0.17990148 -0.067567 -0.27420208 -0.32322004
0.06383879 0.07850965 0.13204913 -0.19824968 -0.045371033 -0.032601025 -0.06635711 -0.099376135
-0.11686851 -0.022890473 -0.041700937 0.09992209 0.23050505 0.022174811 -0.06406616 -0.19690391
-0.13466914 -0.10172609 -0.020036299 0.012191763 -0.0033321246 0.07902794 0.22891182 0.24458277
-0.16189258 -0.018948404 -0.058980815 0.0095122205 0.2484543 0.19254355 -0.028264923 0.099862576
0.15784474 -0.13598947 -0.17751047 -0.06816912 0.07136002 -0.10709045 -0.00053753867 0.08814913
0.034642037 0.072267264 -0.12386367 -0.059822552 -0.13539912 -0.104728036 -0.0013568521 -0.037225842
0.08354633 0.027690722 0.10570412 -0.10303297 -0.0955686 -0.0049728286 -0.024976062 0.060360484
0.11463202 0.011294692 -0.15224604 -0.14847606 -0.05154989 -0.07774777 0.014070126 -0.3478715
-0.42414385 -0.4188233 -0.23958349 -0.19959661 -0.22140945 -0.20032345 -0.10107689 -0.11530285
-0.24100287 -0.26560307 -0.27179566 -0.050617207 -0.12964603 -0.2951057 0.011058702 -0.009177965
0.06498466 -0.041509774 0.025154965 0.050536864 -0.023634797 0.11240143 0.31777728 -0.111664094
00000000: fdf9 ffbd fd91 473d 7576 f7bd fbbd 013b
00000010: a875 89b9 c7ac 3dbe 5372 82bd 54fe 9c3d
00000020: acc3 aabd a389 5dbd c0ea 7cbc 22a3 e43c
00000030: bc5d 9fbd 82f5 15be b18b aabd e7ed 833d
00000040: 45f9 473d abfc ed3c 073a 433d d22f cf3d
00000050: f274 883d 2b1f d6bd cc39 95bd 7123 d0bd
00000060: b08d b8bd 21b2 033d 98dc 213e a98f 62be
00000070: e56c 0a3e 9c78 0a3d 5b99 64be ba56 d93d
00000080: 497e a5bd d115 51bd dc43 633e 2113 1f3e
00000090: cae5 c33d 9c3e aebd b335 f7bd e5a6 82bd
000000a0: dad9 06be c39d a4bd 73c1 8dbb 67e9 913c
000000b0: ab7d a53d bcad ddbd a7b5 00bd 1243 b9bd
000000c0: 462c 32bc 253b ecbb 654a 323c 4559 473e
000000d0: 4c28 263e 5eca 043e b130 043e 8ad0 9c3d
000000e0: f645 10be 444b 65bd 0003 333d 31d0 0c3e
000000f0: 6f40 1ebe f610 1bbe 2c10 65be 37c5 7abd
00000100: d15f 0d3d 77b8 4b3c 7067 023d a9ee a73b
00000110: 2cb4 51bd 8dd0 5d3d cad8 813d 0758 1a3e
00000120: 6eb9 22be 4dbd 92bc 8bb7 ecbd ff96 8dbd
00000130: 74bf 943d 230e 3abc b6e7 99bd 8062 483d
00000140: 739a 23bd 8cb9 f0bd 9c2c 0fbe a513 92be
00000150: 342b 21be f3e4 c3bc 1820 91bd 3864 23be
00000160: 2d52 2bbe fd01 65be fc0d 8a3e 44c9 593e
00000170: a20f 1d3e 835d 293d cac0 013e 54fa 113e
00000180: 4b0e b5bd 5557 aa3a e89a fd3c 08a9 bcbd
00000190: 877a 563b 454e 5e3b 8b86 8fbc dec9 593d
000001a0: cff1 58bb d677 b83d a1da 6f3d 0e37 9d3d
000001b0: 4326 7bbd 28e8 953d 7250 70bd 4d75 4d3e
000001c0: 9c5d 4f3d 575d 77be 16d9 8bbd fd62 ab3d
000001d0: bc5b 0f3e 51c6 a23c b739 a9bd 6f49 03be
000001e0: b8c3 dd3b 341b 2c3d 03cb 06bc 23d6 26bd
000001f0: e200 e33d 0855 b93d bc93 d2bd 1062 3dbc
00000200: 9ea6 12bd aa6d b83d b005 c33b f1a2 47be
00000210: 1d82 3fbd e463 653d c39c 913c 8320 febd
00000220: d388 113d 1071 3fbe a540 79bd b75d af3d
00000230: e07f 493d 7474 2abd b332 223d 3361 ccbd
00000240: fc90 93be e712 80be 488c 6bbe a07b cf3d
00000250: b45b c03d 3d98 91bc 854d 33be 9147 d4bd
00000260: 98be 833d 5608 883e 2ef9 273e e0b2 793e
00000270: 408a 3a3d 4e87 af3d aa27 093e e2fa 563d
00000280: c622 d03d 0652 893d 3a32 8ebd b900 573d
00000290: 1838 383e 9160 8abd 3764 8cbe 197d a5be
000002a0: e9bd 823d abc9 a03d e337 073e f701 4bbe
000002b0: fad6 39bd a788 05bd 3de6 87bd b785 cbbd
000002c0: c258 efbd cd84 bbbc 9ace 2abd f4a3 cc3d
000002d0: 8409 6c3e f3a7 b53c 1e35 83bd 2ea1 49be
000002e0: b5e6 09be c555 d0bd 2a23 a4bc f6bf 473c
000002f0: c65f 5abb 67d9 a13d dc67 6a3e e873 7a3e
00000300: 2bc7 25be af39 9bbc de95 71bd 25d9 1b3c
00000310: ce6a 7e3e 232a 453e d78b e7bc c084 cc3d
00000320: 0da2 213e d340 0bbe 4ec5 35be 409c 8bbd
00000330: 3425 923d 3d52 dbbd 9ce9 0cba 8887 b43d
00000340: cfe4 0d3d dc00 943d 3cac fdbd 7e08 75bd
00000350: 11a6 0abe a77b d6bd 67d8 b1ba 207a 18bd
00000360: 571a ab3d a7d7 e23c 677b d83d f302 d3bd
00000370: 78b9 c3bd 1cf3 a2bb 999a ccbc 8e3c 773d
00000380: 31c4 ea3d 5f0d 393c 63e6 1bbe 1c0a 18be
00000390: fa25 53bd 393a 9fbd 6386 663c 371c b2be
000003a0: 6229 d9be 0270 d6be 6055 75be 0e63 4cbe
000003b0: 29b9 62be 9721 4dbe 6701 cfbd e723 ecbd
000003c0: 75c9 76be 20fd 87be cd28 8bbe fd53 4fbd
000003d0: eec1 04be 1818 97be 8f2f 353c 2d5f 16bc
000003e0: ad16 853d 2706 2abd c911 ce3c beff 4e3d
000003f0: c39d c1bc b932 e63d b4b3 a23e 25b0 e4bd

conv2.bias f4 [64]
0.027847555 0.023732865 -0.020391507 -0.008018257 0.024485169 -0.00053456967 0.020281795 0.05296995
0.0076651755 -0.042781334 0.0028907643 0.008985275 0.05144861 -0.02108267 0.025137315 -0.04030335
0.019686205 -0.088173114 -0.04961666 0.022266792 0.087910734 0.013007305 -0.03279816 -0.023543468
-0.031997174 0.026694689 0.022697182 0.062069837 -0.020124173 0.034242466 0.02290284 0.09169385
0.029258365 -0.009620762 0.021678807 -0.07721258 0.015604168 0.010273044 -0.036504105 -0.049001288
0.052873425 0.001831612 -0.007764298 -0.0016081978 -0.016952265 0.033402078 0.020043168 -0.07568742
0.0026862603 0.0062501216 -0.025172133 0.0046588406 0.03073945 0.004933286 0.04763745 0.10357316
0.012361564 0.014134208 -0.020921173 -0.0051391316 0.056335967 0.0031666462 0.016132448 -0.0098224655
00000000: 8e20 e43c 6d6b c23c 170c a7bc 025f 03bc
00000010: 1f95 c83c 5d22 0cba 0226 a63c 05f7 583d
00000020: 272c fb3b 7b3b 2fbd fa72 3d3b fa36 133c
00000030: c7bb 523d 90b5 acbc c5ec cd3c 2015 25bd
00000040: f744 a13c 1b94 b4bd d73a 4bbd d968 b63c
00000050: 8b0a b43d 971c 553c 5d57 06bd 3bde c0bc
00000060: 780f 03bd d2ae da3c 71ef b93c f13c 7e3d
00000070: 73db a4bc d441 0c3d bd9e bb3c fcc9 bb3d
00000080: 3daf ef3c 67a0 1dbc c197 b13c a121 9ebd
00000090: a0a8 7f3c 4550 283c 5485 15bd 93b5 48bd
000000a0: ce91 583d b312 f03a a76b febb 2aca d2ba
000000b0: 7adf 8abc 9ed0 083d 9231 a43c 0202 9bbd
000000c0: f80b 303b d2cd cc3b ca35 cebc 30a9 983b
000000d0: 4dd1 fb3c 67a7 a13b 7d1f 433d 2a1e d43d
000000e0: 2888 4a3c 2a93 673c e162 abbc 2966 a8bb
000000f0: 8bc0 663d 8287 4f3b 3228 843c 68ee 20bc

BN2.weight f4 [64]
1.1886251 1.0881034 1.1684421 1.0822911 0.9691628 1.182652 0.8260991 1.0585299
1.1008377 1.228255 1.0420781 1.047935 1.151853 1.159002 1.122363 1.0780169
1.224003 1.1299784 1.2691756 1.599642 1.0950586 1.0419309 1.5363622 1.1251906
1.1100525 1.7420878 1.0377505 1.2618344 1.1889846 1.1390363 1.1826074 1.0340424
1.1258502 1.0183978 1.0488459 1.2414153 1.3356383 0.9919443 0.883138 1.1103746
1.0548794 0.97329426 1.0017627 1.3128362 1.3232242 1.2105045 1.1573995 0.9857053
1.4013493 1.1423545 1.0249125 1.0031987 1.2353498 0.91549283 1.1913904 1.1122173
1.090733 1.3356111 1.0725135 0.9558549 1.1850449 1.2673444 1.1784918 1.2529113
00000000: de24 983f f946 8b3f 838f 953f 8488 8a3f
00000010: 0e1b 783f 2461 973f 3b7b 533f e87d 873f
00000020: 40e8 8c3f 7637 9d3f d162 853f bc22 863f
00000030: eb6f 933f 2d5a 943f 97a9 8f3f 75fc 893f
00000040: 21ac 9c3f 22a3 903f 5974 a23f 12c1 cc3f
00000050: e12a 8c3f fe5d 853f 84a7 c43f 3f06 903f
00000060: 3316 8e3f bcfc de3f 02d5 843f ca83 a13f
00000070: a630 983f f1cb 913f ae5f 973f 805b 843f
00000080: dc1b 903f dc5a 823f 9540 863f b2e6 9e3f
00000090: 32f6 aa3f 10f0 7d3f 5515 623f c120 8e3f
000000a0: 4a06 873f d029 793f c339 803f 040b a83f
000000b0: 695f a93f d0f1 9a3f ab25 943f 2f57 7c3f
000000c0: 6a5f b33f ac38 923f 5530 833f d168 803f
000000d0: f11f 9e3f bd5d 6a3f 7b7f 983f 235d 8e3f
000000e0: 249d 8b3f 4ef5 aa3f 1f48 893f e8b2 743f
000000f0: 8daf 973f 5738 a23f d2d8 963f 665f a03f

BN2.bias f4 [64]
-0.45256692 -0.3117749 -0.4461019 -0.37228227 -0.38236514 -0.45703137 -0.3257966 -0.37473837
-0.4187245 -0.50700814 -0.29045895 -0.3764974 -0.42848736 -0.41011122 -0.36178848 -0.38859546
-0.38667685 -0.4741917 -0.59364 -0.8695409 -0.3413879 -0.53151 -0.7746804 -0.3478743
-0.33858484 -0.6650892 -0.5462104 -0.42038116 -0.5165302 -0.388693 -0.38782018 -0.36927262
-0.4772442 -0.39232227 -0.34872487 -0.33943766 -0.39938453 -0.31180936 -0.19414644 -0.4157096
-0.3281897 -0.3013814 -0.36487052 -0.80459166 -0.4175129 -0.39370957 -0.4615647 -0.43641406
-0.33160025 -0.3273095 -0.36429474 -0.4611692 -0.49186185 -0.22575161 -0.39915967 -0.3482447
-0.26755732 -0.49549085 -0.41114578 -0.339892 -0.44475535 -0.465522 -0.48509467 -0.4419551
00000000: dab6 e7be f6a0 9fbe 7867 e4be c89b bebe
00000010: 5dc5 c3be 0400 eabe d0ce a6be b5dd bfbe
00000020: 0f63 d6be 49cb 01bf 09b7 94be 44c4 c0be
00000030: b262 dbbe 19fa d1be 573c b9be fcf5 c6be
00000040: 82fa c5be 41c9 f2be cbf8 17bf 3c9a 5ebf
00000050: 65ca aebe 0a11 08bf 7451 46bf 951c b2be
00000060: fe5a adbe 4943 2abf 72d4 0bbf 333c d7be
00000070: 533b 04bf c502 c7be 5e90 c6be 4d11 bdbe
00000080: 5a59 f4be 77de c8be 118c b2be c6ca adbe
00000090: 217c ccbe 7aa5 9fbe 53ce 46be e4d7 d4be
000000a0: 7b08 a8be aa4e 9abe 4fd0 babe b8f9 4dbf
000000b0: 40c4 d5be 4d94 c9be 3552 ecbe aa71 dfbe
000000c0: 82c7 a9be 1c95 a7be d784 babe 5f1e ecbe
000000d0: 51d5 fbbe 6e2b 67be a85e ccbe 214d b2be
000000e0: 46fd 88be fab0 fdbe b381 d2be 5306 aebe
000000f0: f9b6 e3be e658 eebe 545e f8be f047 e2be

BN2.running_mean f4 [64]
-0.52797675 -1.3780127 -0.43068483 -1.075829 -1.1480473 -0.1686166 -0.80374795 -0.7936107
-0.53234315 -0.39156583 -1.3770909 -1.063709 -0.5187665 -0.6632093 -0.33124238 -0.024297338
-0.1020838 -1.0222812 -0.20866323 -0.17601825 -1.3587266 -0.7576917 -0.21203695 -0.76217514
-0.9747646 -0.20592642 -0.9351011 -0.72519946 -0.04392831 -0.43741155 -0.6921328 -0.86637
-0.43442118 -0.5830851 -1.2474016 -0.7000472 -0.5284957 -1.6392106 -0.16239917 -0.147236
-0.95408875 -0.95181286 -0.70420206 0.05112565 -0.52714336 -0.45757788 -0.31606779 -0.5952079
-0.53447765 -0.41037107 -1.2625866 -1.0634466 -0.55311424 -0.18290986 -0.46053937 0.06389614
-1.4545546 -0.46062952 -1.7316383 -1.2155691 -0.25950968 -0.34159592 -0.47473606 0.06629731
00000000: 7c29 07bf b862 b0bf b982 dcbe c4b4 89bf
00000010: 37f3 92bf d4a9 2cbe 6dc2 4dbf 122a 4bbf
00000020: a447 08bf 517b c8be 8444 b0bf 9e27 88bf
00000030: e2cd 04bf 16c8 29bf 9a98 a9be 360b c7bc
00000040: 5011 d1bd 1cda 82bf d0ab 55be 213e 34be
00000050: c1ea adbf 15f8 41bf 3720 59be e91d 43bf
00000060: 2c8a 79bf 60de 52be c962 6fbf aca6 39bf
00000070: 2cee 33bd 68f4 dfbe 9d2f 31bf 6dca 5dbf
00000080: 746c debe 1145 15bf dbaa 9fbf 4b36 33bf
00000090: 7f4b 07bf a7d1 d1bf f84b 26be 09c5 16be
000000a0: 293f 74bf 02aa 73bf 9646 34bf 2169 513d
000000b0: def2 06bf a647 eabe a3d3 a1be 8c5f 18bf
000000c0: 87d3 08bf 281c d2be 709c a1bf 051f 88bf
000000d0: e598 0dbf b94c 3bbe d1cb ebbe fbdb 823d
000000e0: d82e babf a2d7 ebbe 53a6 ddbf c597 9bbf
000000f0: 74de 84be a9e5 aebe 9b10 f3be e2c6 873d

BN2.running_var f4 [64]
1.547301 7.206834 4.028645 3.1680367 2.8962536 1.3313494 5.8238626 2.4462833
3.3019183 2.1149433 7.66554 4.35896 2.7999382 1.9867222 3.2866704 1.8112031
1.908214 1.9179672 0.59810257 0.58507866 5.661746 2.1103492 0.64001566 4.06976
4.8384447 1.0741736 2.1567678 4.2720675 1.0191684 1.9358262 4.705073 4.445338
1.4871751 3.0212762 4.620967 3.1452425 3.6265302 6.407544 4.450011 2.2174559
5.9395556 5.089518 2.8863804 0.35615113 2.6409926 2.5195565 1.6146713 2.031792
7.0359197 4.8117013 2.8447976 2.992251 2.2250519 3.4296596 2.2149596 1.4193912
7.9563513 1.6400936 5.0101986 5.013444 1.3125556 1.206051 2.2849789 1.5236398
00000000: f60d c63f 629e e640 a9ea 8040 1dc1 4a40
00000010: 385c 3940 a869 aa3f 155d ba40 e88f 1c40
00000020: a152 5340 3b5b 0740 1b4c f540 9a7c 8b40
00000030: 3032 3340 ea4c fe3f cf58 5240 81d5 e73f
00000040: 5b40 f43f f37f f53f 401d 193f b7c7 153f
00000050: 062d b540 f60f 0740 11d8 233f 793b 8240
00000060: 8ad4 9a40 857e 893f 7c08 0a40 c7b4 8840
00000070: 1c74 823f 27c9 f73f f58f 9640 3540 8e40
00000080: c15b be3f 975c 4140 f6de 9340 a74b 4940
00000090: 1219 6840 9a0a cd40 7d66 8e40 ccea 0d40
000000a0: d710 be40 55dd a240 75ba 3840 7159 b63e
000000b0: 0606 2940 6a40 2140 8dad ce3f e108 0240
000000c0: 4126 e140 75f9 9940 2a11 3640 0a81 3f40
000000d0: 4067 0e40 8b7f 5b40 e6c1 0d40 9cae b53f
000000e0: 6e9a fe40 96ee d13f 8c53 a040 226e a040
000000f0: d201 a83f e15f 9a3f 183d 1240 a106 c33f

fc1.weight f4 [128, 1024]
-0.0013794283 -0.03071892 -0.012555347 -0.020488491 -0.00078105176 -0.009513141 -0.03547275 -0.007853119
-0.029326625 -0.017449105 0.009207134 0.023725988 0.005390879 0.017481465 0.019017946 -0.035462484
-0.012611282 -0.013438031 0.009495336 -0.015995976 -0.0006753754 -0.010362061 -0.012299116 0.013813245
0.013892157 -0.007868636 -0.028206194 0.004391563 -0.0016448444 -0.027991733 -0.018988393 0.0031031088
0.0010460888 -0.02276056 0.015338772 -0.015340787 0.0121873235 -0.0200361 -0.02922228 0.0016071543
0.02463431 0.013198701 -0.021127932 -0.03000736 -0.013014363 -0.017011201 0.006063958 -0.0343745
-0.016604798 -0.010441827 0.014904053 0.006053587 0.022328883 -0.0046937075 -0.019620784 0.0021138922
-0.0025178343 -0.03294417 -0.026199473 -0.031164104 -0.013302252 -0.03380005 -0.002069263 0.013822817
0.009853566 0.022872452 -0.016180195 -0.021814192 -0.005158855 -0.0073632584 0.019485448 -0.03387704
-0.036590748 -0.029991066 -0.019787678 0.010287367 -0.013998146 0.0048903953 -0.028832646 0.024681816
0.0027254398 0.0029000773 0.024241181 0.008411535 0.0045713484 -0.008011166 0.0020678435 -0.008217371
-0.005177515 -0.027253607 0.01799752 0.010446023 -0.022644795 0.018306304 -0.02273144 -0.009252847
-0.016466603 0.009232698 0.002878606 -0.020208407 0.0044673057 0.0059954384 -0.0014711764 0.010313295
-0.01060589 0.010492986 0.023361342 -0.019258037 0.0074900035 0.007210709 -0.0056204973 -0.014599528
0.009251049 0.011218656 0.015163276 -0.011705279 -0.033552196 -0.016986892 -0.03414555 0.02395109
-0.035359345 0.01163664 -0.025785416 -0.032256234 0.009953532 -0.03037639 -0.028011668 0.001220467
-0.03193786 0.019503139 -0.0013190999 -0.0058554416 0.022073725 -0.020862034 -0.023226002 -0.003225331
0.013300852 0.00038775094 0.009406554 -0.036122274 -0.01173711 -0.00047752052 0.010321811 -0.02107967
-0.021982431 -0.0017319027 -0.01009959 -0.015610171 0.018285586 -0.020694602 0.008561692 0.018386828
-0.021444617 0.017410483 0.0059444997 -0.004077379 -0.034478027 0.0040289117 0.01933911 -0.00876382
0.018492866 -0.0063155396 -0.013261183 -0.014655858 -0.008151379 -0.018945679 -0.0053305766 -0.006387784
-0.03203619 -0.020590773 0.022802133 -0.0058823857 -0.0060385605 0.009442328 0.01798272 -0.03693626
-0.035070315 -0.00852266 -0.01726651 -0.031892203 -0.030344002 0.006231367 0.0109011205 -0.007877199
-0.0036346014 -0.028007256 -0.027321374 -0.033126365 -0.007439348 -0.03566368 -0.0064324546 0.01649391
-0.017654981 -0.03224951 -0.024234785 0.0087488545 -0.024018975 -0.023523457 -0.022016663 -0.02163998
0.018063935 -0.015755754 0.022940483 0.008694423 -0.010655363 -0.03161459 0.017120948 0.02100808
-0.009894612 0.019331452 -0.011685158 -0.03328361 -0.035317827 -0.016207661 0.0045612818 0.015553012
0.020890562 0.023256281 0.005990676 -0.031841874 0.0055995504 -0.007570959 -0.012964621 0.019155094
-0.006686675 -0.02204469 0.021876158 0.011916981 -0.0015469141 0.018222328 -0.03053108 -0.0063742492
-0.032486588 -0.0027445464 0.0029218758 -0.0010494686 -0.03214438 -0.026310159 -0.034509763 0.02008757
-0.01891657 0.017738102 -0.030654658 -0.0010939797 0.022138914 -0.012189849 -0.027341135 -0.010001719
0.0044646217 -0.011800499 0.002781561 -0.0038906913 -0.031085286 -0.0102558555 -0.018137617 0.021473467
00000000: efcd b4ba 3fa6 fbbc f1b4 4dbc 7bd7 a7bc
00000010: 7fbf 4cba 01dd 1bbc e04b 11bd 5eaa 00bc
00000020: 643e f0bc 6df1 8ebc 85d9 163c 015d c23c
00000030: f9a5 b03b 4a35 8f3c 86cb 9b3c 1c41 11bd
00000040: 8d9f 4ebc 302b 5cbc 5392 1b3c fe09 83bc
00000050: ad0b 31ba a2c5 29bc 3b82 49bc f350 623c
00000060: ee9b 633c 74eb 00bc ad10 e7bc 1ae7 8f3b
00000070: d297 d7ba eb4e e5bc 8c8d 9bbc 875d 4b3b
00000080: ea1c 893a 5b74 babc 794f 7b3c ed57 7bbc
00000090: 57ad 473c bf22 a4bc 9063 efbc 26a7 d23a
000000a0: e4cd c93c 5d3f 583c 7c14 adbc ffd1 f5bc
000000b0: 323a 55bc 135b 8bbc 2bb4 c63b 47cc 0cbd
000000c0: c906 88bc 3214 2bbc 2130 743c 2b5d c63b
000000d0: 10eb b63c accd 99bb c4bb a0bc 3a89 0a3b
000000e0: 4002 25bb 77f0 06bd 47a0 d6bc dd4b ffbc
000000f0: b0f1 59bc ec71 0abd 799c 07bb 1979 623c
00000100: da70 213c 025f bb3c 548c 84bc adb3 b2bc
00000110: 9d0b a9bb 7d47 f1bb f29f 9f3c a7c2 0abd
00000120: 2ee0 15bd d3af f5bc c519 a2bc 588c 283c
00000130: 7b58 65bc 9c3f a03b 7132 ecbc 8531 ca3c
00000140: 4b9d 323b 390f 3e3b 7195 c63c 89d0 093c
00000150: 40cb 953b 4441 03bc a884 073b 27a2 06bc
00000160: 25a8 a9bb f542 dfbc 896f 933c cc25 2b3c
00000170: 9481 b9bc 1af7 953c 4937 babc 4199 17bc
00000180: f8e4 86bc be44 173c ffa6 3c3b 1a8c a5bc
00000190: 7a62 923b 6275 c43b 7dd4 c0ba 18f9 283c
000001a0: 54c4 2dbc c6ea 2b3c 4960 bf3c 08c3 9dbc
000001b0: b46e f53b d047 ec3b 262c b8bb dc32 6fbc
000001c0: b691 173c 74ce 373c 646f 783c 80c7 3fbc
000001d0: 076e 09bd 1828 8bbc 34dc 0bbd 1435 c43c
000001e0: f6d4 10bd 9ba7 3e3c f03b d3bc 1d1f 04bd
000001f0: 2414 233c e8d7 f8bc ba78 e5bc 14f8 9f3a
00000200: 46d1 02bd 0cc5 9f3c a6e5 acba 01df bfbb
00000210: f5d3 b43c dbe6 aabc 7544 bebc 1360 53bb
00000220: d1eb 593c 0d4b cb39 f21d 1a3c f3f4 13bd
00000230: 024d 40bc b85b fab9 d01c 293c 46af acbc
00000240: 8014 b4bc 0301 e3ba c078 25bc cdc1 7fbc
00000250: a7cb 953c ba87 a9bc 5746 0c3c f99f 963c
00000260: 9fac afbc 6ea0 8e3c 14ca c23b 899b 85bb
00000270: d538 0dbd f604 843b 0e6d 9e3c 2096 0fbc
00000280: 5a7e 973c 96f2 cebb 6f45 59bc 201f 70bc
00000290: 5d8d 05bc f833 9bbc 1eac aebb 9e50 d1bb
000002a0: 6138 03bd fbad a8bc 8acb ba3c 07c1 c0bb
000002b0: 1edf c5bb feb3 1a3c 7f50 933c 7a4a 17bd
000002c0: e4a5 0fbd a0a2 0bbc 7f72 8dbc 66a1 02bd
000002d0: fc93 f8bc 7f30 cc3b 9d9a 323c 5e0f 01bc
000002e0: 7e32 6ebb 796f e5bc 13d1 dfbc 83af 07bd
000002f0: c6c5 f3bb 1414 12bd 57c7 d2bb 3d1e 873c
00000300: 2ea1 90bc 1018 04bd 0788 c6bc 5b57 0f3c
00000310: 71c3 c4bc 44b4 c0bc 4a5c b4bc 5446 b1bc
00000320: d1fa 933c 3612 81bc aeed bb3c 0e73 0e3c
00000330: d593 2ebc 4d7e 01bd 3b41 8c3c 2319 ac3c
00000340: 031d 22bc fe5c 9e3c 1b73 3fbc 6554 08bd
00000350: 6da9 10bd eec5 84bc ce76 953b 0fd2 7e3c
00000360: af22 ab3c f583 be3c 6f4d c43b a06c 02bd
00000370: 6f7c b73b cf15 f8bb 9069 54bc 25eb 9c3c
00000380: e51b dbbb 1197 b4bc a135 b33c 713f 433c
00000390: d3c1 caba fe46 953c 511c fabc 14df d0bb
000003a0: a810 05bd d9dd 33bb f17c 3f3b 538e 89ba
000003b0: d3a9 03bd 6788 d7bc 1c5a 0dbd b08e a43c
000003c0: ecf6 9abc 7f4f 913c 7a1f fbbc de63 8fba
000003d0: ab5c b53c efb7 47bc 84fa dfbc 40de 23bc
000003e0: f64b 923b e156 41bc da4a 363b f8fa 7ebb
000003f0: 92a6 febc 2d08 28bc 5795 94bc 20e9 af3c

fc1.bias f4 [128]
0.0102592455 -0.012652707 0.15574247 0.043881502 0.006766152 0.024286177 0.0012751527 -0.035473045
-0.0154196285 0.002154832 -0.004651181 0.035324868 0.013641885 -0.03132205 -0.090872794 0.0063856407
-0.025155373 -0.018046916 -0.026715811 -0.03576347 -0.03530801 -0.01364204 0.18300894 0.01797998
0.021824844 0.13846707 -0.020208774 0.015892947 -0.023570145 0.011135584 -0.02398627 -0.035729103
0.015860066 0.0042432994 -0.020329412 0.022441225 0.23858084 -0.0345615 -0.011938493 -0.029004684
-0.0104768155 -0.013054734 0.0101533085 0.0045977663 0.052723292 -0.02197917 -0.014145319 -0.005126155
0.0082567 -0.0014558823 -0.025133913 -0.015840858 0.016951272 -0.0046098577 0.17785898 -0.008295751
-0.03367625 0.022571562 0.021953348 -0.010037227 0.06287549 0.0016691316 0.057037037 -0.02866201
0.0018263183 0.057427764 0.006687473 -0.006280392 0.018273003 0.008157259 0.018032378 -0.007968765
-0.03602201 0.012024634 -0.00082669884 0.060760166 -0.014747418 -0.009001473 0.006917476 -0.011242229
0.090981506 -0.0069346526 -0.024935948 -0.049810033 -0.035392735 0.009835864 -0.005034096 -0.02593079
0.008435319 0.0076332884 -0.0055674035 0.1318968 -0.03512413 -0.0041373647 -0.026751684 -0.023564862
-0.027449945 -0.030575207 0.021383885 -0.018646866 0.21965913 0.059008114 -0.03464747 -0.00875854
0.010358338 -0.03525896 0.018239884 -0.05042922 0.1566235 -0.03446238 0.22777298 -0.029057054
-0.08062073 0.007965051 -0.02372104 -0.01648801 0.06185617 0.00024925897 -0.0017839229 -0.036331907
0.24763885 0.024414653 0.017882032 0.12346386 0.003999439 -0.01758046 -0.019158872 0.14378656
00000000: 6516 283c 4d4d 4fbc f47a 1f3e 17bd 333d
00000010: 99b6 dd3b cef3 c63c 0623 a73a 2f4c 11bd
00000020: 9ca2 7cbc 1538 0d3b ef68 98bb cfb0 103d
00000030: 3682 5f3c 8d4b 00bd 841b babd a33e d13b
00000040: a412 cebc 20d7 93bc 1edb dabc b77c 12bd
00000050: 229f 10bd dd82 5fbc b266 3b3e c04a 933c
00000060: 04ca b23c 50ca 0d3e df8c a5bc ed31 823c
00000070: 2d16 c1bc 0672 363c db7e c4bc ae58 12bd
00000080: f8ec 813c 600b 8b3b de89 a6bc a9d6 b73c
00000090: 894e 743e 5c90 0dbd ab99 43bc 3b9b edbc
000000a0: f3a6 2bbc 86e3 55bc 105a 263c dca8 963b
000000b0: 61f4 573d a90d b4bc c5c1 67bc 4ef9 a7bb
000000c0: 1c47 073c 4ed3 beba a3e5 cdbc b0c4 81bc
000000d0: 65dd 8a3c 4a0e 97bb aa20 363e e7ea 07bc
000000e0: 1cf0 09bd ffe7 b83c 82d7 b33c 2e73 24bc
000000f0: ddc4 803d c3c6 da3a ab9f 693d 97cc eabc
00000100: 1361 ef3a 6039 6b3d 9722 db3b bfcb cdbb
00000110: 44b1 953c 06a6 053c a3b8 933c 6c8f 02bc
00000120: d18b 13bd f802 453c d2b6 58ba a7df 783d
00000130: 289f 71bc ea7a 13bc ffab e23b 5331 38bc
00000140: 8354 ba3d 153c e3bb 7946 ccbc 9b05 4cbd
00000150: f9f7 10bd 9b26 213c 0ff5 a4bb cf6c d4bc
00000160: 4b34 0a3c aa20 fa3b c46e b6bb f40f 073e
00000170: 52de 0fbd bb92 87bb 5926 dbbc 190b c1bc
00000180: b5de e0bc db78 fabc 422d af3c 50c1 98bc
00000190: 53ee 603e 7eb2 713d 81ea 0dbd fb7f 0fbc
000001a0: 05b6 293c b36b 10bd cf6b 953c df8e 4ebd
000001b0: e961 203e 6d28 0dbd 523d 693e 0f09 eebc
000001c0: 7b1c a5bd d87f 023c a052 c2bc dd11 87bc
000001d0: e55c 7d3d f9ae 8239 85d2 e9ba c4d0 14bd
000001e0: 0a95 7d3e 3d01 c83c 577d 923c 9fda fc3d
000001f0: ba0d 833b e604 90bc 11f3 9cbc c93c 133e

fc2.weight f4 [4, 128]
-0.054088812 -0.04066941 0.020098027 -0.53651696 -0.059518036 0.065740265 0.032707848 0.007635086
0.064046964 -0.07979923 0.0038665058 0.2930844 -0.036955673 -0.016443595 0.21342511 0.03657354
0.02168705 0.021436952 0.03354926 0.018564971 -0.0045615155 -0.06117874 -0.35904273 0.05166799
-0.024389664 0.18526709 -0.022327494 0.27265584 -0.0016652524 -0.07181856 -0.024835648 0.014776718
0.012316892 0.006003699 0.019319637 -0.07890056 0.23484413 -0.027445514 -0.05623672 -0.040159438
-0.0668954 -0.010998018 0.049479276 0.06372835 -0.36344337 -0.022016268 0.07704018 -0.038325176
-0.06996694 0.004090557 -0.05025934 -0.071244374 0.051329724 -0.06226455 0.38959387 -0.00944327
-0.0033914095 0.0067622624 -0.0815725 0.2086715 0.3376594 0.01936391 -0.34776685 -0.04192296
-0.009926463 0.25409958 -0.07423377 -0.05884533 -0.016288066 -0.06113709 -0.02761291 -0.41526732
0.0329061 0.0335539 0.052282523 0.1287807 -0.060280114 0.0656877 0.06636447 -0.0760143
-0.35476086 -0.08643576 -0.042574834 0.19176523 -0.014567237 0.01665997 -0.051756784 0.0237055
-0.05032237 0.07283412 0.049798343 0.42574638 -0.03136575 -0.06461038 -0.02739845 -0.015871119
-0.020920273 -0.065360725 0.043262143 0.0034306082 0.25811315 0.15182136 0.011530457 0.0060927984
0.031580977 -0.03070459 -0.08265766 0.063884914 -0.7232026 0.04492784 -0.07350245 0.059374202
0.111958794 -0.029966429 -0.34165514 -0.046923168 0.28774813 0.28829464 0.03354291 -0.015473613
0.18036845 -0.08163341 -0.07389804 0.43436867 -0.07591959 -0.033064198 -0.04914566 -0.37377244
-0.06594212 -0.03144972 0.22892559 0.264177 -0.025899224 -0.045609307 -0.044253368 -0.052817725
0.025633397 -0.00026371135 0.029851412 -0.36239332 0.036995474 -0.061442796 -0.4529197 0.06200673
-0.042436756 0.01793649 0.1782221 0.02819661 0.056318056 0.019877372 -0.07343689 0.04533575
0.0041257143 0.25102934 0.021081068 -0.47097376 -0.030479295 0.07310202 0.015605252 0.0084379455
-0.07311592 0.013505936 0.07036202 -0.055378642 -0.10486339 0.024061242 -0.060824096 -0.058050543
0.016075088 -0.030707294 0.04822559 -0.04145465 0.22098134 0.00095714745 -0.034396116 -0.05726273
0.069910355 0.053502973 -0.058016967 -0.06659366 0.050170317 0.011470295 -0.04247618 0.0089563895
0.022526415 0.046924654 0.06985211 -0.3767597 0.061209712 0.047667097 0.06149883 -0.015336825
0.052732736 -0.47952613 -0.05360103 -0.038141713 0.015919268 0.052436285 -0.0076213344 0.12376978
0.03761618 0.029418843 -0.035036087 -0.61360884 0.016760105 -0.00010798093 0.01620703 0.058069546
-0.37182164 -0.44183987 -0.0418668 -0.3723616 0.06358716 -0.06100801 0.038959812 -0.016544668
-0.039746255 0.028729754 -0.07766703 -0.33010426 -0.03963117 0.026215056 0.23500206 0.017117757
0.08204224 0.059620358 0.27665004 0.051927283 0.034587983 0.1811782 -0.025820928 -0.0009915079
-0.0023070134 0.06490734 0.065282896 -0.0081081875 -0.018876055 -0.052655373 0.24014601 -0.014588464
0.07946957 0.001871918 0.3830512 0.028640335 -0.09376878 -0.32348266 0.033136263 -0.059732027
-0.030317089 -0.06677437 -0.03235373 -0.32830855 -0.07567409 0.017611736 -0.034832634 -0.18938224
00000000: 3b8c 5dbd f894 26bd 9ea4 a43c 2d59 09bf
00000010: 2fc9 73bd d5a2 863d aaf8 053d be2f fa3b
00000020: 0e2b 833d c76d a3bd 3465 7d3b 290f 963e
00000030: d55e 17bd b8b4 86bc 1d8c 5a3e 23ce 153d
00000040: 0aa9 b13c 8c9c af3c f36a 093d 9115 983c
00000050: c478 95bb 8f96 7abd 73d4 b7be d0a1 533d
00000060: d5cc c7bc a8b6 3d3e 26e8 b6bc 8c99 8b3e
00000070: 9944 daba 9c15 93bd 2174 cbbc 0c1a 723c
00000080: cacc 493c adba c43b 3744 9e3c 9e96 a1bd
00000090: fb7a 703e 6ad5 e0bc 7a58 66bd 397e 24bd
000000a0: 7500 89bd 0831 34bc c8aa 4a3d 0284 823d
000000b0: 4015 babe 765b b4bc 3ec7 9d3d dcfa 1cbd
000000c0: d44a 8fbd 140a 863b bddc 4dbd 92e8 91bd
000000d0: 1e3f 523d 1d09 7fbd d978 c73e f2b7 1abc
000000e0: 6942 5ebb f895 dd3b 7c0f a7bd fbad 553e
000000f0: b1e1 ac3e 10a1 9e3c 7f0e b2be 69b7 2bbd
00000100: 9aa2 22bc 5719 823e e007 98bd cd07 71bd
00000110: 8d6e 85bc e36a 7abd 7834 e2bc eb9d d4be
00000120: 8cc8 063d d06f 093d 3326 563d 16df 033e
00000130: 48e8 76bd 4687 863d 18ea 873d 63ad 9bbd
00000140: 37a3 b5be 3b05 b1bd f362 2ebd 1b5e 443e
00000150: 6cab 6ebc 7d7a 883c ecfe 53bd 0932 c23c
00000160: d41e 4ebd 0e2a 953d 59f9 4b3d 6efb d93e
00000170: 5f79 00bd 7252 84bd b772 e0bc 2604 82bc
00000180: fe60 abbc d8db 85bd a533 313d 0ed4 603b
00000190: 6827 843e 0f77 1b3e 3eea 3c3c 19a6 c73b
000001a0: 0e5b 013d 3188 fbbc 6b48 a9bd 18d6 823d
000001b0: ce23 39bf 4106 383d 7488 96bd 5d32 733d
000001c0: a74a e53d 287c f5bc 6ced aebe 8232 40bd
000001d0: b953 933e 5b9b 933e 4a64 093d 0985 7dbc
000001e0: 82b2 383e 6b2f a7bd db57 97bd 9265 de3e
000001f0: bb7b 9bbd 536e 07bd f64c 49bd 1a5f bfbe
00000200: aa0c 87bd 6cd1 00bd 786b 6a3e 3542 873e
00000210: 9c2a d4bc d3d0 3abd 0543 35bd 6657 58bd
00000220: 21fd d13c bd42 8ab9 f38a f43c 9e8b b9be
00000230: 9188 173d 71ab 7bbd 17e5 e7be c5fa 7d3d
00000240: 2ad2 2dbd 8cef 923c db7f 363e 94fc e63c
00000250: c3ad 663d dfd5 a23c 1566 96bd fbb1 393d
00000260: 0031 873b eb86 803e 34b2 ac3c 7923 f1be
00000270: b7af f9bc 83b6 953d 2cad 7f3c 4f3f 0a3c
00000280: cdbd 95bd 0048 5d3c f619 903d b7d4 62bd
00000290: 9ec2 d6bd 151c c53c b022 79bd 68c6 6dbd
000002a0: e7af 833c dd8d fbbc 3288 453d 5acc 29bd
000002b0: ef48 623e 14e9 7a3a f1e2 0cbd 538c 6abd
000002c0: 292d 8f3d ef25 5b3d 33a3 6dbd 4262 88bd
000002d0: 647f 4d3d e7ed 3b3c 81fb 2dbd d2bd 123c
000002e0: 5189 b83c 1134 403d a00e 8f3d a6e6 c0be
000002f0: 09b7 7a3d 933e 433d 32e6 7b3d 4e47 7bbc
00000300: 48fe 573d 7384 f5be c18c 5bbd 7c3a 1cbd
00000310: 2069 823c 6ec7 563d 63bc f9bb 037b fd3d
00000320: 6c13 1a3d c9ff f03c 0082 0fbd 7815 1dbf
00000330: 7d4c 893c d273 e2b8 9bc4 843c 55da 6d3d
00000340: 685f bebe d638 e2be 867c 2bbd 2ea6 bebe
00000350: fc39 823d 89e3 79bd 5394 1f3d af88 87bc
00000360: f8cc 22bd a95a eb3c e40f 9fbd 6d03 a9be
00000370: 4b54 22bd f5c0 d63c 61a4 703e 8a3a 8c3c
00000380: c305 a83d 7a34 743d 13a5 8d3e b4b1 543d
00000390: 21ac 0d3d c786 393e 6986 d3bc 7cf5 81ba
000003a0: 4331 17bb 24ee 843d 0ab3 853d 34d8 04bc
000003b0: f5a1 9abc 29ad 57bd d6e8 753e 7404 6fbc
000003c0: f1c0 a23d 255b f53a 491f c43e 239f ea3c
000003d0: d909 c0bd 859f a5be e4b9 073d 92a9 74bd
000003e0: 8b5b f8bc 00c1 88bd 5885 04bd 0f18 a8be
000003f0: 04fb 9abd 7d46 903c aaac 0ebd 6bed 41be

fc2.bias f4 [4]
0.040172476 0.01458243 -0.17340592 0.0094981715
00000000: e58b 243d 25eb 6e3c 5291 31be 389e 1b3c
