cnn saved models/cnn_epoch27.pt (torch, 609343 bytes, 16 tensors)

conv1.weight f4 [32, 1, 3, 3]
000000 86 67 b6 3e 79 96 dd 3e f7 24 9c be 2c d5 d5 be
       0.35625857 0.43278864 -0.30496952 -0.417642
000010 6e 11 c5 be 6b 68 81 be 74 0f 9d 3d 6b 0b 0f 3d
       -0.3848986 -0.25274977 0.07668963 0.034923
000020 f4 25 c1 3e 5f 90 6f 3f 3f e4 36 be aa 38 a7 3e
       0.37724268 0.9357967 -0.17860506 0.3266042
000030 e4 f2 89 be b1 76 cf bd c5 f1 a6 be 5b 09 90 3c
       -0.26943123 -0.101300605 -0.3260633 0.017582586
000040 d0 81 b8 3e 40 aa e6 bd 06 2b ec 3d cf 3d 8b 3d
       0.3603654 -0.11262941 0.115316436 0.067988984
000050 53 30 d2 3e c4 b7 a6 be c6 0c 1d bf a9 f5 ed 3d
       0.41052493 -0.32562077 -0.61347616 0.116191216
000060 82 ee 9a 3e 11 c2 a9 3e 68 7c cb be 43 46 e9 bc
       0.30260092 0.33155873 -0.39743352 -0.028475886
000070 8a a0 f4 3e 22 71 89 3e 7e 23 30 3d 30 3c 8e be
       0.47778732 0.26844126 0.043002598 -0.27780294
000080 b4 01 24 bf 1d 04 e8 bd fc 99 8f 3e a1 0f 0c be
       -0.640651 -0.113289095 0.28047168 -0.13677837
000090 fa 4a 33 be b4 96 60 be 9e 1f 81 3e 8c b0 c8 be
       -0.1750907 -0.21932489 0.25219434 -0.39197195
0000a0 a5 9e 89 3e 23 24 2b 3e 7d 23 da 3e 28 54 b1 3d
       0.2687885 0.16713004 0.426052 0.0865863
0000b0 cb ff ba be 5b 31 0b 3e 17 20 d7 be 6f 5f 1e bf
       -0.3652328 0.13593046 -0.4201667 -0.6186437
0000c0 21 72 5b 3e 36 ef aa 3e bc d8 f1 bc 7d ff a8 be
       0.21430255 0.33385628 -0.029522292 -0.33007422
0000d0 18 30 f3 bd 03 0b 22 bf 38 95 27 3e 1b dc b0 be
       -0.118744075 -0.6329805 0.16365516 -0.34542927
0000e0 d5 01 8d be bb b2 1c 3e e2 a2 ac 3e a6 20 e6 3e
       -0.2754046 0.15302555 0.3371802 0.44946784
0000f0 33 85 03 bf 43 f9 92 3d 6e 33 b7 bd 6d ae ed 3e
       -0.5137512 0.07176449 -0.08945356 0.4642214
000100 fa a3 c2 be eb f8 c6 be e9 bd af 3e e1 b5 38 be
       -0.3801573 -0.38861784 0.34324577 -0.18038131
000110 e6 6f cc be bd 16 88 3e 6e 53 09 bb d7 1d 65 3e
       -0.39929122 0.26579848 -0.002095427 0.22374664
000120 9c c8 29 3e 36 84 37 be ce 55 65 bf 1a bb e4 bc
       0.16580433 -0.17921528 -0.8958405 -0.027921248
000130 6f fc 0d 3d e9 3f ac 3d ca 5a 8f 3e 91 31 13 3e
       0.034664568 0.084106274 0.27998954 0.14374377
000140 ea 82 08 bd 4f 79 93 3e 9d a1 c9 be 87 c7 0d 3f
       -0.033327974 0.2880349 -0.39381114 0.5538258
000150 c7 17 43 be f2 e4 3e be d5 10 17 bf 13 d9 52 3e
       -0.19052039 -0.18642023 -0.5901006 0.2059062
000160 16 54 50 3e ce a7 a5 bd 5f d5 ee bc 86 32 8b be
       0.20344576 -0.08088647 -0.029154478 -0.27186984
000170 45 78 ea bd 87 0c aa be fd 5d d9 3d 4d f9 03 bf
       -0.11448721 -0.33212683 0.1061363 -0.5155228
000180 46 2e ae 3e 72 97 ee 3e e8 20 0b bd 36 c4 71 be
       0.3401968 0.4659992 -0.03396693 -0.23610005
000190 49 d0 4a 3e d8 2e c8 bd 8f 80 f8 3d 7c ea 8a 3e
       0.19806017 -0.0977456 0.121338956 0.27132022
0001a0 ba 19 37 be 9a d0 1e 3f 97 e4 a4 be 37 e2 a7 be
       -0.17880908 0.6203705 -0.3220565 -0.32789776
0001b0 72 43 0e 3f 50 a1 32 3e bc 52 74 3d 24 bd 6f 3e
       0.55571663 0.17444348 0.059649214 0.23411995
0001c0 0a 16 70 be 9a 1f 5e be c2 1a a8 be 2d 9d 21 be
       -0.23445907 -0.21691743 -0.32832915 -0.15782614
0001d0 dc df 97 be 6c e9 0b bf 18 c7 54 bd 01 77 df be
       -0.2966298 -0.5465305 -0.051947683 -0.4364548
0001e0 59 f8 92 be 20 32 3d 3e d2 06 35 3c fc eb 2e 3a
       -0.287051 0.18476152 0.011048989 0.00066727377
0001f0 b6 3c 5d 3e 07 21 dd 3e fa 63 e8 3e e8 04 db be
       0.2160519 0.4318926 0.45388776 -0.4277718
000200 20 c8 b5 bd ed 50 9b 3e be 1c 3b 3e 9a d3 06 bf
       -0.088760614 0.3033518 0.18272683 -0.5266663
000210 cf 52 cb 3e 68 a8 b6 3d 56 02 e5 be c2 d5 21 3d
       0.39711615 0.0891884 -0.44728345 0.039510496
000220 3a e2 1a be 1b 4c 25 bf 17 30 0f 3e 52 3f d3 be
       -0.15125361 -0.6456925 0.13983189 -0.41259247
000230 ae be a5 bd 8a 8b 1b 3f 2e b4 07 3e 33 c9 03 be
       -0.0809301 0.60759795 0.13252327 -0.1286972
000240 cd 06 be 3e e9 58 34 3e 84 d6 e3 be cd ba 20 be
       0.37114564 0.17612042 -0.444996 -0.15696259
000250 5f c7 50 be 0c f0 fb 3e f7 89 05 bf 9d 5c cd 3e
       -0.20388554 0.4920658 -0.5216364 0.4010972
000260 da a0 5d bd 37 8c 7e be 40 34 51 3b 0a 07 2d 3e
       -0.054108478 -0.24858175 0.0031922013 0.16897216
000270 ec fc a1 3d 17 9e 1f bf a0 37 d1 be 7a 95 94 3e
       0.07909569 -0.623506 -0.4086275 0.29020292
000280 24 2a ce 3e 84 1f ad 3e 0c 25 b1 3e aa 1c 0e 3f
       0.40266526 0.33813107 0.34598577 0.5551249
000290 ec 3b 14 3e 32 5a 82 3e bd 58 8b be 75 8d 57 be
       0.14475983 0.2545944 -0.2721614 -0.21050055
0002a0 f9 0d 07 bd 84 6b b7 be dc cb 7e 3c fa cb e2 3e
       -0.03297231 -0.35824215 0.015551534 0.44296247
0002b0 96 1e 81 3e 3a a6 22 3d 84 5c 28 bf 5f 47 0a bf
       0.25218648 0.039709307 -0.6576617 -0.54015154
0002c0 ca fa b0 3d 97 47 03 3e 73 a7 11 3e 2f 5b 9c 3e
       0.08641584 0.12820278 0.14224033 0.30538318
0002d0 a9 31 c3 3c 2d c3 0f bf 53 08 f7 3e c8 92 d7 be
       0.02382739 -0.5615719 0.48248538 -0.42104173
0002e0 36 0a 4c be 67 6d 98 3e a7 e2 da bd 47 a2 be bc
       -0.1992577 0.29770967 -0.10687762 -0.02327074
0002f0 3d 4d 72 3e 51 33 e3 be c1 81 b5 3e d2 86 f3 3e
       0.23662277 -0.4437509 0.35450557 0.47563797
000300 e2 be 13 3e b2 b2 1a be 57 ca 29 be 9f 79 45 3e
       0.14428285 -0.1510723 -0.16581093 0.19284676
000310 48 e2 71 bd f4 55 03 bf 5d 69 46 3e a6 67 81 be
       -0.05905369 -0.5130303 0.1937613 -0.2527439
000320 a8 24 4c be 36 28 f0 3e 55 7c 7d bd 84 44 42 be
       -0.19935858 0.4690568 -0.06188615 -0.18971449
000330 f8 d5 0b bf f6 6c a6 3e 0f 07 c8 3e 73 37 6f be
       -0.54623365 0.32505006 0.39067885 -0.23360996
000340 3d 25 25 bb 9c bf 09 3e 84 20 3f bd 1c b2 87 be
       -0.0025199198 0.13452 -0.04666187 -0.26503074
000350 f6 55 ac 3e 52 4b e8 be 12 4d 61 bc a9 ba 17 3f
       0.33659333 -0.45369965 -0.013751285 0.59269196
000360 34 47 c5 be f4 f7 96 bd 8e 2b c3 3e 5e be 13 bf
       -0.38530886 -0.07371512 0.38119167 -0.5771235
000370 0e 4e cc bd 3a 1d 9a 3e 48 6b 92 3d f3 60 ca 3e
       -0.09975825 0.30100423 0.071493685 0.3952709
000380 e6 e8 fe 3c 0f 3d 58 3e 15 7b 8e be 59 20 80 3d
       0.031116914 0.21117042 -0.2782828 0.0625617
000390 25 0e 9d 3e 45 26 41 bf e6 c2 cb 3e 2a 50 3b 3e
       0.30674854 -0.7544902 0.39797133 0.18292299
0003a0 b1 19 de be 47 89 82 3e b1 5d 44 3e e4 1d 16 bf
       -0.43378976 0.2549536 0.19176365 -0.5863936
0003b0 9c 37 bb be e1 d7 5e 3e 61 04 e9 be 7f 33 73 be
       -0.36565864 0.21762039 -0.45511153 -0.23750113
0003c0 7c fc f5 bd 0c 53 ee 3e ac 9b 3f 3e 2f af 1d bf
       -0.12011048 0.46547735 0.18711728 -0.61595434
0003d0 13 97 ce be cc 49 8e 3e 7c f1 10 3e 03 ec cd bd
       -0.40349635 0.27790678 0.14154619 -0.10054781
0003e0 a1 34 e2 bd 0d bf 64 3e 83 d8 31 be 26 5e c3 3e
       -0.110451944 0.22338505 -0.17367749 0.38157767
0003f0 2d c7 94 be 0a 3c 93 3e 52 a5 0b 3f e1 a5 d7 be
       -0.2905821 0.28756744 0.54549134 -0.42118743

conv1.bias f4 [32]
000000 a1 b5 9f 3e d9 2d d9 3e 80 96 18 bd f6 fe fc be
       0.3119326 0.4241779 -0.037252903 -0.4941327
000010 1e 7a 0a 3f c1 a6 89 3e 5b bb 23 be c7 75 8c 3c
       0.54092586 0.26885036 -0.15989439 0.017146004
000020 94 28 10 3f b6 4e 66 3e 49 df 4b 3e 43 7d eb 3e
       0.5631192 0.22490963 0.19909395 0.45994005
000030 cc 98 0c 3f 1c 8b 94 3e 09 89 0b be 98 c4 0f be
       0.5492065 0.29012382 -0.13626494 -0.14039838
000040 61 d9 b5 bd 92 5a f8 3e a0 71 7c bf 18 3f ca 3e
       -0.08879352 0.485066 -0.9861088 0.39501262
000050 ce 0a f2 3d 3f ef e6 bc ef dd b3 3e fd 65 01 be
       0.11818467 -0.028190253 0.3513026 -0.12636562
000060 80 25 36 3f 22 f7 44 be 37 eb 84 bc 94 0a 27 3d
       0.7115097 -0.19234899 -0.01622544 0.040781572
000070 95 3e 8b bd 94 cf 6d bd 8a b0 a9 be 32 6d c9 3d
       -0.06799046 -0.05805929 -0.331425 0.098352805

BN1.weight f4 [32]
000000 74 e7 ab 3f 17 ef de 3e fb c7 94 3f 3c 49 67 3f
       1.3430009 0.43541786 1.1623529 0.9034612
000010 bc 4c 64 3f f6 5f 41 3f d9 bb 7e 3f 58 ea 19 3f
       0.8917959 0.7553705 0.9950538 0.60123205
000020 d4 74 88 3f 9f 5d c3 3f b4 51 66 3f b6 c2 f0 3e
       1.0660653 1.5262946 0.8996842 0.47023553
000030 cf 8a 5d 3f b8 15 57 3f 61 c9 16 3f c9 97 91 3f
       0.8653993 0.84017515 0.5890103 1.1374446
000040 5d ac 61 3f de dc d1 3e 6b aa 46 3f d1 22 5b 3f
       0.8815363 0.4098882 0.7760379 0.856
000050 fd 04 88 3f c5 c4 83 3f a4 87 81 3f 54 7c eb 3e
       1.0626522 1.0294424 1.0119519 0.45993292
000060 c1 d2 07 3f 57 ca 9f 3f ca 9b b0 3f 31 a8 41 3f
       0.5305596 1.2483624 1.3797543 0.75647265
000070 d2 8d 64 3f 3d 9a 40 3f ad ec 57 3f e1 f0 65 3f
       0.892789 0.7523535 0.84345514 0.8982068

BN1.bias f4 [32]
000000 1e bd cf be b6 d8 13 be 56 db 5e be 7a ec 93 bd
       -0.40573972 -0.14438137 -0.21763358 -0.07222839
000010 32 27 8c bf b1 de a7 be 64 1b 14 be de 42 99 bd
       -1.0949461 -0.32787088 -0.14463574 -0.07483457
000020 21 a1 1d bf f6 8a 4b bf b7 36 ee be b8 68 24 be
       -0.6157399 -0.7950891 -0.4652612 -0.16055572
000030 bb 45 5a 3d 5f 2e e8 be 2b 47 95 bd e3 fb 52 bf
       0.053289156 -0.45347878 -0.07288965 -0.824156
000040 b5 02 5f bf d7 36 9c bd b7 62 49 bf b7 2e 23 bf
       -0.87113506 -0.07627647 -0.7866625 -0.63743156
000050 26 89 19 bf e0 73 0e bf cd a2 9d bf 6d 6b 39 bd
       -0.59974897 -0.5564556 -1.2315308 -0.045268465
000060 e5 eb 92 bd 41 b6 c2 be b4 8c 71 bf f3 9c a2 bd
       -0.071738996 -0.38029674 -0.9435532 -0.07940092
000070 2f 8c b1 bc b7 ab 7c bd 7d 0a 3e bf 1b ed 24 be
       -0.02167329 -0.061687198 -0.74234754 -0.16106074

BN1.running_mean f4 [32]
000000 f3 11 95 3e 11 8d 0b 3f 94 63 25 bd 4e 24 05 bf
       0.29115257 0.54512125 -0.04037817 -0.5200852
000010 a1 b8 0c 3f 4e 1d 34 bb 7e 33 27 be ab a0 02 3b
       0.5496922 -0.0027483287 -0.16328236 0.0019932191
000020 f1 c3 f5 3e bb c7 3a 3e 95 34 f5 3d a7 41 f1 3e
       0.48001054 0.18240254 0.1197292 0.471204
000030 1d 38 03 3f 6f 6d 48 3e ed dd 17 be 67 4b 77 be
       0.512575 0.19572996 -0.14830752 -0.24149857
000040 b0 16 9a bd c2 81 f3 3e fa 9a 66 bf ea d3 d9 3e
       -0.075238585 0.47559935 -0.90080225 0.4254449
000050 62 af 7c 3d fb 94 6e bd 70 5a c0 3e 81 e6 f3 bd
       0.061690696 -0.058247548 0.37568998 -0.119091995
000060 2f 65 37 3f 0e 5e 54 be 79 b9 1f be ac 96 16 bd
       0.7163877 -0.20739004 -0.15598096 -0.036764786
000070 f8 71 d6 bd 91 3f e6 bd 48 ca a6 be ec af a9 3d
       -0.104709566 -0.11242593 -0.32576203 0.082855076

BN1.running_var f4 [32]
000000 e7 7f f6 3b ed 66 b9 3c 47 f8 c9 3b ee 9e 2e 3c
       0.0075225714 0.022632087 0.00616363 0.010658009
000010 56 d7 ac 3a 2f 6a 91 3d 96 09 b1 3b 26 1c f9 3b
       0.0013186734 0.07100331 0.005402754 0.0076022325
000020 cc 8f a3 3c f3 50 08 3c 13 f2 8f 3c d3 2a 03 3b
       0.019966029 0.008320081 0.017571485 0.002001454
000030 91 c1 a1 3c 06 31 e7 3c 4d 17 a1 3b f6 e2 ca 3c
       0.01974562 0.028221618 0.0049161077 0.024766427
000040 b0 d0 ce 3a 31 32 36 3c 5d 27 b8 3c a3 9a 16 3c
       0.0015778746 0.011120365 0.022479707 0.009192142
000050 75 36 c6 3b a7 61 cc 3b 14 ed 4c 3b fb 28 5a 3b
       0.0060489723 0.006237227 0.003126924 0.0033288586
000060 a3 c4 ac 3b f6 31 16 3b c3 63 00 3d 81 94 7f 3c
       0.0052724644 0.0022917963 0.03134514 0.015599371
000070 7d d8 7a 3c e5 5e 1e 3c 7d 23 91 39 fe 97 bd 3c
       0.015310404 0.009666179 0.00027682996 0.023143765

conv2.weight f4 [64, 32, 3, 3]
000000 42 7a 5a bd d2 f7 9b 3e 71 c4 7a bd 68 08 f1 3d
       -0.05333925 0.3046251 -0.061222497 0.117691815
000010 d4 96 18 3e 23 4a 63 be 3b 2b d0 bd 38 3e 5f 3d
       0.14901286 -0.2219625 -0.101644956 0.054502696
000020 7c 8b a2 bd 95 c5 42 be d4 02 36 be 3f 8c 06 be
       -0.07936761 -0.19020684 -0.17774516 -0.13139437
000030 21 8b 94 be 45 d6 e0 be 8a 63 ed be b8 b8 aa 3e
       -0.29012397 -0.43913475 -0.46365005 0.33344054
000040 67 82 74 3e 46 f1 a1 3e ec 08 27 3b 71 f4 c4 3d
       0.2387787 0.3162939 0.0025487496 0.09616936
000050 fb c2 1d 3e 7d 84 ac bd ba 86 ca bc 1c db 94 3d
       0.1540641 -0.08423708 -0.024722446 0.07268354
000060 04 52 d4 bc b3 6d 55 bd 78 22 d7 3d 80 26 84 be
       -0.025918014 -0.05210657 0.10504621 -0.25810623
000070 3a 0f 94 3d 25 85 8f 3e f6 c2 12 bf d8 cd 99 3d
       0.07229467 0.2803127 -0.57328737 0.07509965
000080 03 05 d7 bd 4b f6 ba bd e7 4b ab 3e 77 25 c7 3d
       -0.10499003 -0.09129008 0.33456346 0.09723943
000090 36 54 c9 3e fb b4 c1 be 83 dc 50 be 73 36 0a be
       0.3932206 -0.3783339 -0.20396619 -0.13497333
0000a0 da 1f 6a be 1f 75 30 be ed 1d af bd c8 6c 80 be
       -0.22863713 -0.17232178 -0.0855063 -0.25082994
0000b0 18 84 0d be 19 cd ae be b3 e1 65 3b eb 85 b1 be
       -0.13819921 -0.34140852 0.0035077154 -0.34672484
0000c0 b1 23 ae be 8d 2e 7a bd 0f fe 8a be ff 94 4d 3e
       -0.34011605 -0.06107955 -0.27146956 0.20076369
0000d0 c7 b9 ae 3e 69 24 4d 3e 43 f2 74 be 31 68 4d be
       0.34126112 0.2003342 -0.2392054 -0.20059277
0000e0 80 23 99 be 58 9f 79 3c 89 2a 13 3e a9 65 91 3e
       -0.29909897 0.015235744 0.14371695 0.28397873
0000f0 9f 6b c1 be 78 cb a3 be c9 d9 31 be 87 f5 7c bd
       -0.3777742 -0.31991172 -0.17368235 -0.06175759
000100 67 d9 02 3e 7e 9a 11 3e 7b 08 81 be f3 b0 d0 bd
       0.12778245 0.1421909 -0.25201783 -0.101900004
000110 b0 ed 10 bf 4e 9c 20 3e 9e f1 4e 3e b5 fc 76 3e
       -0.5661268 0.15684626 0.20209357 0.24119838
000120 2a f2 ac be 05 6e 51 bd ac 8a 62 be c0 00 57 be
       -0.33778507 -0.051130313 -0.22123212 -0.2099638
000130 00 6e eb 3d b8 26 bd be 4e de 9a 3e cb 71 81 3e
       0.1149559 -0.36943603 0.3024773 0.2528213
000140 6f 57 15 bd c2 5b 04 bf 01 1d 44 bf 1b 26 35 bf
       -0.036460336 -0.5170251 -0.76606756 -0.7076127
000150 b0 07 e2 3e d6 62 5e 3e fb 9e d5 3b 4e 6d b0 be
       0.4414649 0.2171739 0.006519196 -0.34458393
000160 e9 40 c5 be 56 2e ea be f2 9f 13 3f 92 de d4 3e
       -0.38526085 -0.45738477 0.5766593 0.41576058
000170 cf 89 a4 3e 90 0a 82 be bf 4f 0f be 84 6a 1d bf
       0.3213639 -0.25398684 -0.13995264 -0.61490655
000180 8c 33 23 3e f8 59 a6 3d 89 80 72 3c f7 14 18 3d
       0.15937632 0.08122629 0.014801153 0.03712937
000190 53 41 c0 3d e3 17 f1 bd 7c 0d 16 be 69 06 12 3d
       0.093874596 -0.11772134 -0.14653581 0.035650644
0001a0 3f 88 29 be 13 24 87 3e 82 fb 21 3d 21 10 be be
       -0.1655588 0.2639471 0.039546497 -0.3712168
0001b0 40 fe e1 3e 58 ac 96 3e ff dc df bb 55 72 25 3e
       0.4413929 0.29428363 -0.0068317647 0.16156895
0001c0 2a cb ee bd 9e 9d 7f bf f2 53 8e bd 6e ef e0 3d
       -0.11659844 -0.9984988 -0.06949605 0.109831676
0001d0 7d 09 3e 3e c6 5b 42 3c dc 42 c9 3c a5 c3 1f be
       0.18558307 0.011862701 0.024568014 -0.15601976
0001e0 a5 a7 9f be e0 1c 3c ba 71 30 d5 be d2 8c 81 3c
       -0.3118259 -0.00071759336 -0.4163852 0.015814219
0001f0 7d 6c 20 3d ee 1c b2 3d 5c 2d db 3c 0b 6c 46 3d
       0.039165962 0.08696924 0.026755027 0.04844288
000200 0a 88 fd bd 57 5b 0c bd f1 78 b9 3b 57 1e 37 bf
       -0.12379463 -0.034266796 0.0056601693 -0.7153067
000210 0d e0 e7 bc 7f 56 4f 3d 0a f0 a7 be 6d dc e1 be
       -0.028305078 0.0506196 -0.32800323 -0.44113484
000220 7b 16 59 be 6a ab 41 bf 38 9b 0d bd a7 05 61 3d
       -0.21199982 -0.7565218 -0.034571856 0.05493703
000230 a4 5e 8f bd 83 5b ac 3e 68 53 2a 3d f7 32 c4 be
       -0.07000473 0.33663568 0.04158345 -0.38320133
000240 47 09 4b bf 51 ec 57 be 5b 7b e1 be 1c f9 34 3e
       -0.7931103 -0.21086241 -0.44039425 0.17673153
000250 98 b4 95 3e ed 51 93 3d eb 00 86 bd 56 f3 f8 bd
       0.29239345 0.071933605 -0.06543144 -0.12155788
000260 29 c4 53 3e 19 b7 e4 3e bb 1d 9c 3e 01 56 e6 3e
       0.20680298 0.44670942 0.30491433 0.4498749
000270 95 e1 5c be 7d f6 74 be b9 9f 08 be 1e 7e 9a 3c
       -0.21570428 -0.23922153 -0.1334218 0.018858965
000280 65 28 92 3d b1 fc 4a 3e cd 76 1b bf 40 d2 16 bf
       0.07136611 0.19822957 -0.6072815 -0.58914566
000290 b7 66 89 be 5c 9e 9d 3e 67 8f 59 be 01 e5 08 bf
       -0.26836178 0.3078488 -0.2124611 -0.5347443
0002a0 7e 29 a5 3e f4 8b 99 3e d2 3a c1 3e 13 9b d3 be
       0.3225822 0.29989588 0.3774019 -0.4132925
0002b0 bf e8 06 be ca 5d 49 be d2 31 d7 3c 4e 74 f4 bb
       -0.13174723 -0.19664684 0.026268873 -0.0074601537
0002c0 89 23 34 be 96 2b 6c 3e b0 13 22 3e de ab d8 3e
       -0.1759168 0.23063502 0.15827823 0.42318624
0002d0 05 f2 ba 3e ed a7 ff 3d d4 3d 15 be ad f6 b2 be
       0.3651277 0.12483201 -0.14574367 -0.34953824
0002e0 1e 98 00 be 55 53 eb be d2 0a 10 bf 14 6c 55 bd
       -0.12558028 -0.45962015 -0.5626651 -0.052105024
0002f0 d7 f3 31 bf 31 09 fd be 47 7e 66 be 15 77 82 3e
       -0.69512695 -0.49421075 -0.22509108 0.25481477
000300 da 4d fe be a3 96 cf be ce 5d f8 be 52 28 0d be
       -0.4966877 -0.40544614 -0.48509067 -0.13784912
000310 88 10 ac 3e a2 54 90 3e 06 92 20 be f7 bd e4 3d
       0.33606362 0.2818957 -0.15680704 0.111690454
000320 8f 54 87 3e 03 fd cc 3e 05 a2 76 3d b0 08 9d bd
       0.264317 0.40036783 0.060213108 -0.07667673
000330 ce 09 f2 bd 18 db 01 bd 9e 1c c5 3d 94 9b 6e 3e
       -0.11818276 -0.031703085 0.09624599 0.23301536
000340 8f c7 05 3e b5 71 81 3e ec 3c 4d be ec dc a9 bb
       0.13064407 0.25282064 -0.20042771 -0.0051838066
000350 d4 44 7f bd 2d 57 f0 be a0 0c 24 bd a1 d2 9f be
       -0.0623215 -0.4694151 -0.040051103 -0.31215385
000360 d2 f9 34 3e 47 4d 7b 3d cc 29 a1 3e 4b 80 a3 be
       0.17673424 0.061352994 0.314772 -0.31933817
000370 05 14 63 be 61 c4 b2 be 2a 48 bf bd 8d c5 00 3e
       -0.22175606 -0.3491545 -0.09339936 0.1257536
000380 97 6f a9 3e 02 5c 68 3e 44 b8 2f 3e d0 c6 87 3d
       0.3309295 0.22691348 0.17160136 0.06629717
000390 59 c8 2c 3d ca 1d ad bd a1 46 09 bc 8b df 7e be
       0.042183254 -0.084529474 -0.008378656 -0.24889962
0003a0 bc c8 d9 be 9a 66 20 bf 01 4d 83 bf 73 d9 a2 bf
       -0.4253596 -0.6265656 -1.0257875 -1.272261
0003b0 ca 48 b4 bf 03 97 41 be bf 4c 80 be 75 e3 79 be
       -1.4084713 -0.18905263 -0.25058553 -0.24403174
0003c0 ed 6e 90 be 67 b9 e1 be 72 eb f0 be 3f f9 3e 3e
       -0.2820963 -0.44086763 -0.4705463 0.18649767
0003d0 8a 1d 65 be de c3 0a bf bd 63 f5 be 80 bb eb be
       -0.2237455 -0.5420512 -0.47927657 -0.4604149
0003e0 88 61 b6 be 80 0c 9d 3e f2 cd b9 3e ea bc b3 3e
       -0.35621285 0.306736 0.36289936 0.35105067
0003f0 34 61 a5 3e 5a 9a 5e 3e 16 c3 30 3f 34 fd d2 bd
       0.32300723 0.21738568 0.6904768 -0.10302201

conv2.bias f4 [64]
000000 ae eb 63 bd 66 40 19 3d 61 be 44 3c 9e 5e fb bc
       -0.055644684 0.03741493 0.0120082805 -0.030684765
000010 cb 60 9b 3d 15 7d 0b 3b 65 30 8f 3d 9a 7e 47 3d
       0.07586821 0.0021284271 0.069916524 0.04870472
000020 d7 ab 06 3d b0 14 f9 bc 5a 02 78 3d 28 bd 04 3d
       0.032878723 -0.030405372 0.060549118 0.032406956
000030 c3 5a 78 3d 0a 8a 6f be ca c6 59 3c 7d d0 58 3d
       0.060633432 -0.23392501 0.013292024 0.052933205
000040 7c 44 10 3d 7b d8 35 be 31 c0 39 bd 08 79 6f 3d
       0.03522156 -0.17758362 -0.045349304 0.058465034
000050 bd 09 e0 3d ca 31 2a 3d ce 4a 47 be 05 ed 05 be
       0.109393574 0.04155139 -0.1946213 -0.13078697
000060 ad 2d 54 bd 98 a7 71 bc 4f 34 31 3d d4 67 75 3c
       -0.051801372 -0.01474943 0.043262776 0.014978368
000070 63 22 4a 3d b3 00 7a 3c 6f bd a8 3c ca a8 86 3d
       0.0493492 0.015258956 0.020598141 0.06575163
000080 8e 12 36 3d 49 bd 59 bd 21 26 40 bd c4 a4 17 be
       0.04445129 -0.053159032 -0.046911363 -0.14808947
000090 af 81 77 3d 66 1e 36 bc 86 42 02 be 2d b9 c7 bd
       0.06042641 -0.011115646 -0.12720689 -0.09752116
0000a0 65 0d ec 3c fb 8d 1c bc c4 11 37 3d 50 a2 16 3d
       0.02881498 -0.009555335 0.044694677 0.036775887
0000b0 51 8e 93 3c 09 82 c3 bd 63 f6 02 3d 9e 50 cb bd
       0.018012198 -0.095462866 0.031973254 -0.09927486
0000c0 04 59 1f 3d 23 12 90 bd da 27 a0 3c ad 55 10 3c
       0.03890325 -0.07034709 0.019550253 0.008809489
0000d0 3c 00 c2 3d e8 93 a3 3d f0 96 e0 3b 34 73 50 3e
       0.09472701 0.07987195 0.0068539307 0.20356447
0000e0 5e bf 48 3e 2e 2f 1d 3d ea ff 80 bd 9c 91 1c bd
       0.19604251 0.038375072 -0.06298812 -0.0382248
0000f0 44 ff a2 3d 5d 61 48 bc c1 1c d7 bc c2 1f 6f bd
       0.07958844 -0.012230244 -0.026258828 -0.058379896

BN2.weight f4 [64]
000000 bd 25 b0 3f a5 78 96 3f c6 7f a7 3f 83 b7 af 3f
       1.3761517 1.1755568 1.3085868 1.3727878
000010 40 2b 8f 3f 07 b9 aa 3f 04 e7 60 3f ea 87 89 3f
       1.1185074 1.3337716 0.878525 1.0744603
000020 5c f3 aa 3f db 12 aa 3f 88 8c 94 3f 1f 8a a3 3f
       1.3355517 1.3287004 1.1605387 1.2776526
000030 d1 55 b0 3f 38 e6 c5 3f 9d 20 9b 3f ea ad 8c 3f
       1.3776189 1.5460882 1.2119328 1.0990574
000040 6e db b4 3f 0f c9 b4 3f de bd ea 3f e3 a5 23 40
       1.4129465 1.4123858 1.8339193 2.557
000050 1b e5 a4 3f d8 e6 b8 3f d3 e7 16 40 a4 db aa 3f
       1.2882417 1.4445448 2.3578994 1.3348279
000060 35 91 b4 3f ea 2f 09 40 be b8 c1 3f bf af b3 3f
       1.4106814 2.1435494 1.5134504 1.4038008
000070 df b8 c0 3f 28 8b ad 3f f5 cb c2 3f a8 ad a0 3f
       1.5056418 1.3558092 1.5218493 1.2552996
000080 0d f8 c7 3f 3e 07 c5 3f a7 b8 a9 3f d0 54 b4 3f
       1.5622574 1.5392835 1.3259476 1.4088383
000090 ae b3 01 40 2f 77 8c 3f 68 d3 51 3f b6 86 9c 3f
       2.0265918 1.0973872 0.81963205 1.222861
0000a0 ce 99 8d 3f 8d 93 83 3f 4f 84 a4 3f c0 3c 07 40
       1.1062562 1.0279404 1.2852877 2.113083
0000b0 61 57 db 3f 14 4f b6 3f 4f f7 cd 3f 67 63 75 3f
       1.7136041 1.4242883 1.6091098 0.958548
0000c0 3d c7 e1 3f 1d 16 a0 3f cb c9 ab 3f 70 02 b8 3f
       1.7638928 1.2506748 1.3420957 1.4375744
0000d0 ea 81 cc 3f f1 c3 7c 3f 3e 15 a4 3f ea 21 a8 3f
       1.5977147 0.9873648 1.2818983 1.313535
0000e0 28 10 90 3f cd d3 be 3f b8 94 9b 3f 88 8e 8f 3f
       1.125493 1.4908386 1.215476 1.1215372
0000f0 d4 8c d4 3f ca e6 c4 3f b0 08 f8 3f 72 95 a3 3f
       1.6605477 1.5382931 1.9377651 1.2779982

BN2.bias f4 [64]
000000 89 ad 2e bf 33 60 1e bf a7 a3 1d bf 30 a5 3a bf
       -0.68233544 -0.6186554 -0.6157784 -0.72908306
000010 29 47 22 bf ce 1c 3b bf 91 32 dd be 3d 1a 07 bf
       -0.6338983 -0.7309083 -0.43202642 -0.5277441
000020 cc ce 32 bf 86 a6 35 bf 39 a3 10 bf 7e 33 29 bf
       -0.69846797 -0.7095722 -0.5649906 -0.66094196
000030 eb 26 2e bf c3 73 3e bf d4 0e 18 bf a3 1c 00 bf
       -0.68028134 -0.7439539 -0.59397626 -0.50043696
000040 f9 5f 1f bf f0 b9 44 bf 73 20 9d bf 86 cc f8 bf
       -0.6225582 -0.7684622 -1.2275528 -1.9437416
000050 9f b4 15 bf 5a 22 48 bf 7e 97 cf bf ed fb 1c bf
       -0.5847873 -0.78177416 -1.6218107 -0.6132191
000060 c0 8d 2a bf fb 9f ad bf 26 a0 4d bf 14 08 32 bf
       -0.66622543 -1.3564447 -0.8032249 -0.69543576
000070 c0 7e 49 bf 0c c1 19 bf 8e a8 4a bf dc 78 25 bf
       -0.7870903 -0.6006019 -0.79163444 -0.6463754
000080 6e 91 8a bf d4 f5 56 bf 96 aa 1f bf 7d f8 2c bf
       -1.0825632 -0.83968854 -0.6236967 -0.67566663
000090 6e 14 96 bf 89 a2 f9 be 64 c7 ea be 21 da 1f bf
       -1.1724985 -0.48756817 -0.45855248 -0.62442213
0000a0 54 c9 fb be e1 78 f6 be 8b 48 2e bf 5b 82 c8 bf
       -0.4917704 -0.48139098 -0.6807944 -1.5664781
0000b0 94 4e 66 bf 52 19 45 bf a0 31 63 bf 2a fe f4 be
       -0.8996365 -0.7699176 -0.88747597 -0.47850162
0000c0 36 c4 58 bf b6 c9 37 bf 51 d2 39 bf 13 79 42 bf
       -0.84674394 -0.7179216 -0.7258654 -0.75965995
0000d0 ae f5 5d bf 1b c1 fe be e8 b4 1e bf d3 b5 2e bf
       -0.86703 -0.49756703 -0.6199479 -0.6824619
0000e0 9c 1a 07 bf 42 36 40 bf 54 ee 0e bf 31 ed 11 bf
       -0.5277498 -0.7508279 -0.5583241 -0.5700255
0000f0 41 86 88 bf 65 55 4f bf 41 8c 9d bf 87 e1 0e bf
       -1.0665971 -0.80989677 -1.2308427 -0.5581288

BN2.running_mean f4 [64]
000000 9d 78 c7 bf 6b 77 1e c0 d0 1c 01 c0 2f 28 07 c0
       -1.5583683 -2.4760387 -2.0173836 -2.1118276
000010 f9 bd 24 c0 14 0d cc bf 42 51 72 bf 5a 2c ba bf
       -2.574095 -1.5941491 -0.9465524 -1.4544785
000020 d0 10 80 bf 88 4b dd bf 53 08 1e c0 a0 47 11 c0
       -1.0005131 -1.7288675 -2.469258 -2.2699966
000030 1f 22 17 c0 c0 4e 98 bf ee 1c 1d c0 61 13 bb bf
       -2.3614576 -1.1899033 -2.4548907 -1.4615289
000040 f1 11 bf bf 79 f7 04 c0 11 9e 82 bf 56 af 68 bf
       -1.492735 -2.0776045 -1.0204488 -0.9089254
000050 55 37 04 c0 df 8a 0f c0 4e d5 99 bf af 16 06 c0
       -2.0658772 -2.242851 -1.201822 -2.0951345
000060 24 fa 0d c0 2e eb 5b bf 1d 2b e4 bf 64 c2 e5 bf
       -2.2183924 -0.8590573 -1.7825657 -1.7949948
000070 e7 ba c8 bf d1 2e cf bf 3e db f2 bf 09 d9 dd bf
       -1.5682038 -1.6186162 -1.8973157 -1.7331859
000080 52 65 8c bf 45 3d 88 bf eb 13 e4 bf c6 9d 0b c0
       -1.096842 -1.0643698 -1.7818578 -2.1815047
000090 a2 93 55 bf d8 b6 5c c0 45 42 ef bf ef e1 bb bf
       -0.83428395 -3.44866 -1.8692099 -1.4678324
0000a0 0e 28 f1 bf 13 ef 0f c0 60 52 bd bf 8b da 6f bf
       -1.8840349 -2.248967 -1.4790764 -0.93692845
0000b0 c4 e5 ca bf 5c 4e 78 bf ec 8e a0 bf 90 6e 3d c0
       -1.5851369 -0.96994567 -1.2543616 -2.9598732
0000c0 21 42 b8 bf f5 42 c7 bf 26 9c 12 c0 5f 75 e2 bf
       -1.4395181 -1.5567309 -2.2907805 -1.7692069
0000d0 b6 34 fe bf b0 d2 d4 bf f5 cd e9 bf df b3 62 bf
       -1.9859836 -1.6626797 -1.8265978 -0.8855571
0000e0 05 42 26 c0 59 2f eb bf 5e e6 3d c0 f7 d9 0f c0
       -2.5977795 -1.8373824 -2.9671855 -2.2476785
0000f0 b1 68 49 bf 9a d9 b5 bf 78 e3 6a bf 94 79 db bf
       -0.7867537 -1.4207032 -0.9175334 -1.7146478

BN2.running_var f4 [64]
000000 35 ad 47 41 81 56 a8 41 98 d3 8d 41 47 83 65 41
       12.479787 21.042238 17.728317 14.34455
000010 fe 76 46 41 c9 0f 7b 41 ad 44 3f 41 51 95 6c 41
       12.404051 15.691354 11.954267 14.786454
000020 fd e6 d9 40 52 fc 8e 41 54 53 9b 41 e2 02 b5 41
       6.809447 17.873203 19.415688 22.626408
000030 d5 df a7 41 cd f6 bb 40 f0 54 f9 41 d6 a0 db 41
       20.984293 5.873877 31.166473 27.453533
000040 6e 54 9f 41 ab 5e 5a 41 34 fb 8d 40 3a b0 9f 40
       19.916225 13.648112 4.4369144 4.990262
000050 5e 4b 9e 41 89 7b 9d 41 e2 6a a3 40 df 8c 3a 41
       19.7868 19.68532 5.106797 11.659392
000060 75 80 a6 41 80 b1 bb 40 19 d6 62 41 f0 eb 24 41
       20.812723 5.8654175 14.17727 10.307602
000070 fc d3 8e 41 4e 1c 99 41 33 66 6b 41 8e 41 3f 41
       17.853508 19.13882 14.712451 11.953505
000080 ee 86 b7 40 05 ef ad 40 8d d2 5a 41 18 15 7f 41
       5.735221 5.435427 13.676404 15.94265
000090 66 5a 87 40 aa e6 d9 41 dc 2d 76 41 31 44 30 41
       4.229785 27.237629 15.386196 11.016648
0000a0 8a d7 6d 41 19 25 9c 41 aa 47 0f 41 e5 7f 9a 40
       14.865122 19.518114 8.954996 4.828112
0000b0 e5 65 12 41 29 eb a4 40 1e 8e 0e 41 1d 43 00 42
       9.149877 5.153706 8.909697 32.06554
0000c0 0c 28 55 41 8d 7c 30 41 85 80 37 41 00 7c 4d 41
       13.322277 11.030408 11.468877 12.842773
0000d0 86 e8 8f 41 0d 82 85 41 f9 ed a3 41 9f 82 64 41
       17.988537 16.688501 20.491198 14.28189
0000e0 98 fd cc 41 2a 4f 4d 41 10 91 ad 41 c0 63 84 41
       25.623825 12.831827 21.695831 16.548706
0000f0 46 bb 72 40 40 cb 0b 41 8a a0 81 40 ca 72 b0 41
       3.7926803 8.737122 4.050847 22.05605

fc1.weight f4 [128, 1024]
000000 c7 6a ee bc 18 4a 6a bd ef 03 1a bd dd 33 81 bd
       -0.02910365 -0.057199568 -0.037601408 -0.0630872
000010 c2 91 21 bd 75 9d 42 bd a7 a5 92 bd 57 bf 38 bd
       -0.039445646 -0.047513444 -0.07160502 -0.04510435
000020 97 5f 9a bd 20 93 87 bd cb ca 29 bd 81 3c 72 bc
       -0.075377636 -0.06619859 -0.041453164 -0.014784933
000030 73 ff f3 bc ff 71 80 bc d3 b3 2e bc 58 7d 64 bd
       -0.029784894 -0.015679358 -0.010662991 -0.0557836
000040 54 ba e9 bc ad b9 65 bc 82 9e f8 3b d8 bf e2 bc
       -0.028531231 -0.014021319 0.007587255 -0.027679369
000050 12 fb b1 bc 62 2a 0d bd c0 19 24 bd b3 e5 4e bc
       -0.021726165 -0.034464248 -0.04006362 -0.012628007
000060 70 42 8a 3c d3 8a b8 3c 47 20 27 3b b8 bb 92 bb
       0.016877383 0.022527134 0.0025501417 -0.004477944
000070 a7 83 38 bc 97 cb 33 bd 10 6a f2 bc 1a 9b 27 bc
       -0.011261857 -0.04389533 -0.02959159 -0.01022985
000080 c0 33 06 bd 3d 2d 26 bd e4 fe 80 bc 7d ca 4f bd
       -0.032764196 -0.040570486 -0.015746541 -0.050730217
000090 3d bf 72 bc d9 e6 68 bd 0f 75 84 bd 2a 49 e6 bc
       -0.014816103 -0.05686078 -0.0646764 -0.02811106
0000a0 3e 28 9e 3c 6b db e3 3b af 44 37 bc e5 53 2c bc
       0.019306298 0.006953647 -0.011185809 -0.010518049
0000b0 be 4d 8d bc d6 17 43 bc 4d 97 22 3c 35 4d 09 bd
       -0.017248984 -0.011907538 0.009923768 -0.033520896
0000c0 c9 23 01 bd 2b 56 7a bc 93 fe 7c 3c da ee ee 3c
       -0.031528268 -0.015279333 0.015441555 0.029166628
0000d0 7e 35 c1 3c 36 25 0b bd ec 17 6a bd ff 13 e4 bc
       0.023585077 -0.033971034 -0.05715172 -0.027841566
0000e0 2a 43 2b 3c 62 4c d4 bc b3 21 f1 bc 1e d2 6d bd
       0.010453025 -0.025915328 -0.029435014 -0.05806171
0000f0 b4 d2 93 bb 8e 4c 0f bd ec f6 b0 ba 61 19 5f 3c
       -0.0045112018 -0.034985118 -0.0013501323 0.013616891
000100 c4 84 ff ba a9 12 55 3b 76 a7 43 bd 6f 0e 63 bd
       -0.0019494523 0.0032512343 -0.047767125 -0.055433687
000110 8b 89 18 bd ad ab 12 bd 1c 1a 70 bc f2 f4 84 bd
       -0.037240546 -0.035808254 -0.014654662 -0.06492032
000120 ae 35 87 bd a6 5e 67 bd ca 10 29 bd e9 5a 46 bc
       -0.066020355 -0.05648675 -0.041275777 -0.012106636
000130 c2 09 17 bd 68 ba b2 bc 34 fc 69 bd e6 16 82 bb
       -0.03687454 -0.021817401 -0.057125285 -0.003970015
000140 fc 01 21 bc f7 9f 16 bc bd 85 36 3c 39 ea 65 bc
       -0.009827133 -0.009193412 0.011140284 -0.014032894
000150 64 73 c9 bc 7e a6 34 bd b3 71 f4 bc b4 b0 fc bc
       -0.024591155 -0.04410409 -0.029839372 -0.030845977
000160 7d 5c 01 bd 72 4f 48 bd c3 4e e8 ba e7 8b 80 3c
       -0.031582344 -0.04890389 -0.0017723668 0.01569171
000170 08 74 3f bd e8 d2 88 bb 4d d9 36 bd f4 58 f9 39
       -0.046741515 -0.0041755326 -0.044640828 0.00047559256
000180 ad 1d 03 bd 57 db 96 bc 86 d2 e3 bc 12 28 19 bd
       -0.032010723 -0.018415136 -0.027810346 -0.03739173
000190 5a 14 bb 3c b4 5a 6c bc 1c c6 fe bb d6 18 d2 3b
       0.022836853 -0.014425922 -0.0077750813 0.006411652
0001a0 34 08 a3 bc 5a 86 0a 3d e8 89 cf 3c ce 78 fc bc
       -0.019901372 0.033819534 0.025334314 -0.030819323
0001b0 33 c7 c6 bb d3 6a bc bb e6 ab b1 bc bb 25 f4 bc
       -0.006066227 -0.005750039 -0.021688413 -0.029803148
0001c0 83 bd 60 bc 15 b1 b0 b9 8e ea 70 3b 2c 58 15 bd
       -0.013717058 -0.00033701272 0.00367609 -0.03646104
0001d0 b5 48 90 bd 81 73 59 bd 32 1d 9b bd a4 17 6f bc
       -0.07045118 -0.05308867 -0.07573928 -0.014593039
0001e0 34 d0 92 bd 45 4b d3 bc 8c ca 82 bd 9c 79 91 bd
       -0.07168618 -0.025792727 -0.06386289 -0.07103273
0001f0 c2 0f 7a bc 52 70 6f bd 73 3d 6b bd 8e 20 08 3b
       -0.015262546 -0.058456726 -0.05743165 0.0020771357
000200 91 23 12 bd 0a 66 73 3c c5 48 63 bc 13 c3 17 bd
       -0.03567845 0.014855871 -0.01387233 -0.03705127
000210 c7 28 7d 3c 04 9e 36 bd f4 ac 4e bd bc c2 e2 bc
       0.015451617 -0.04458429 -0.05045791 -0.027680747
000220 d7 89 84 3c 03 6d 8b bc f0 a1 55 3c 8e dd 32 bd
       0.016179008 -0.017019754 0.013039097 -0.043668322
000230 58 ff 72 bc 6d 77 22 bc 7e fa 5c 3b d9 15 10 bd
       -0.0148313865 -0.009916169 0.003371864 -0.035177086
000240 53 ac 0e bd f5 10 03 bd f3 75 1e bd a9 68 78 bd
       -0.03483231 -0.031998593 -0.038686704 -0.060646687
000250 f2 2a 7f 3c ad ef e2 bc ef ac 43 3b 97 32 38 bc
       0.015574204 -0.027702177 0.0029857715 -0.01124253
000260 12 f4 ce bc 7f dd 1c 3d 0c b8 10 3d 51 15 01 bc
       -0.025262866 0.038297173 0.03533177 -0.007878617
000270 9d 03 6d bd b0 9f 97 bc 3f 02 03 bb 35 b0 00 bd
       -0.057864774 -0.018508762 -0.0019990352 -0.031418044
000280 23 e5 7b ba 95 ba e9 bc eb 80 23 bd 74 a4 1b bd
       -0.0009609034 -0.028531352 -0.039917868 -0.03799863
000290 44 20 e0 bc 57 dc 36 bd fa c4 07 bd 7f 03 1e bd
       -0.027359135 -0.044643726 -0.033146836 -0.038577553
0002a0 61 df 46 bd 08 e7 47 bd 75 cb 71 3c 9a 4b e9 bb
       -0.048552874 -0.048804313 0.014757981 -0.007119608
0002b0 ad cc 55 bc d1 61 54 38 63 9f 30 3c b7 ff 11 bd
       -0.013049287 5.0635837e-05 0.010780188 -0.03564426
0002c0 1c 66 1b bd 38 69 0e bc ba 2d 97 bc 18 c3 94 bc
       -0.037939176 -0.008692078 -0.018454421 -0.018159434
0002d0 bb d2 49 bd 4e ba d3 bc ec 4d 9b bc 5c 2c f5 bc
       -0.049273234 -0.025845673 -0.018958054 -0.029928379
0002e0 28 64 2c 3b 8e 1f aa bb 9b 87 04 bc b4 9d 46 bd
       0.0026304815 -0.00519175 -0.0080889715 -0.04849024
0002f0 38 d4 dd 3b e5 2d c6 bc a3 18 b6 3b 1f 15 ec 3c
       0.006769683 -0.024191806 0.005557136 0.028818665
000300 41 52 17 bd 1b d3 62 bd cc 89 5a bd a0 34 bf bc
       -0.036943678 -0.055377107 -0.05335407 -0.023340523
000310 96 b3 30 bd 3a cd 70 bd 8e 84 66 bd 26 ff 63 bd
       -0.043140016 -0.05878947 -0.056278758 -0.05566325
000320 78 95 ab 3c 7f 33 31 bd 19 9d 56 bb c6 1b 50 bc
       0.020945296 -0.043262 -0.0032747446 -0.012701934
000330 33 b3 85 bc bd b5 13 bd b0 db bf 3b 97 f7 72 3c
       -0.0163208 -0.03606199 0.005855046 0.014829538
000340 62 79 aa bc f1 f6 df 3b 23 84 d4 bc c4 65 07 bd
       -0.020809833 0.0068348576 -0.025941914 -0.033056036
000350 b7 78 26 bd e6 d3 1f bd 2f 79 83 bc e4 5b 6f bc
       -0.040642466 -0.03902044 -0.016048996 -0.014609311
000360 d1 5b 85 3c 27 80 2e 3d 46 99 d5 3c 8b bc 0e bd
       0.016279133 0.042602684 0.026074063 -0.034847777
000370 77 3f b3 3b 24 5a 98 bc be a6 f1 bc 0b d2 3b 3d
       0.005470212 -0.01859767 -0.029498454 0.04585461
000380 08 f7 cc bc 44 9a 23 bd 13 93 f9 39 fa 75 ba bc
       -0.025020137 -0.03994204 0.0004760256 -0.022761334
000390 18 06 83 bc ad 9b 7e 38 77 c5 5f bd e9 39 0f bd
       -0.015994117 6.0703303e-05 -0.054631677 -0.034967337
0003a0 06 41 3f bd 52 00 96 bb 74 3c d6 ba 89 82 9a 3b
       -0.04669287 -0.004577675 -0.0016344921 0.004715268
0003b0 6d 15 5c bd 4a ba 43 bd 9b 9c 58 bd f2 58 b2 3b
       -0.05373137 -0.04778508 -0.052883726 0.005442732
0003c0 5c 39 11 bd 32 f2 9c bb f5 1a 7d bd a5 f9 14 bd
       -0.035455093 -0.004789614 -0.061793286 -0.036370892
0003d0 d0 29 07 3c 6b c0 e8 bc e1 05 4f bd ee 47 06 bd
       0.008249715 -0.028412065 -0.050542716 -0.03278344
0003e0 86 e3 e0 3b 8d bd 0f 3c 19 86 ad 3c 22 41 bd 3b
       0.0068630604 0.00877322 0.021182107 0.0057755867
0003f0 bd cb 24 bd 1d b0 a6 bc b2 8b f1 bc ee 3b 4a 3c
       -0.040233362 -0.02034765 -0.029485557 0.01234339

fc1.bias f4 [128]
000000 26 0c b0 bb c2 34 4e bd 53 35 39 3e 25 1e 4c 3e
       -0.005372542 -0.050343283 0.18086748 0.19933374
000010 99 b6 dd 3b c8 16 26 bd 06 23 a7 3a 2f 4c 11 bd
       0.006766152 -0.04054907 0.0012751527 -0.035473045
000020 9c a2 7c bc 15 38 0d 3b f4 90 1d bc 89 a1 e0 3d
       -0.0154196285 0.002154832 -0.009617079 0.109683104
000030 36 82 5f 3c cb 73 5e bd 7d 0f c3 3d a3 3e d1 3b
       0.013641885 -0.054309648 0.095244385 0.0063856407
000040 a4 12 ce bc 20 d7 93 bc aa ae 49 3d b7 7c 12 bd
       -0.025155373 -0.018046916 0.04923884 -0.03576347
000050 af 50 b4 bd dd 82 5f bc 1e 97 a7 3e 0f b0 60 bc
       -0.08804452 -0.01364204 0.3273248 -0.013713851
000060 4b 8b 20 bc 45 5d 5f 3e df 8c a5 bc 66 5a c5 3d
       -0.009798835 0.21812923 -0.020208774 0.09636383
000070 2d 16 c1 bc a8 3c 72 bc db 7e c4 bc ae 58 12 bd
       -0.023570145 -0.014784969 -0.02398627 -0.035729103
000080 f8 ec 81 3c 60 0b 8b 3b bb 29 55 bd e3 9d 92 bb
       0.015860066 0.0042432994 -0.05204175 -0.004474388
000090 20 76 a1 3e 5c 90 0d bd ab 99 43 bc 48 bc 43 bd
       0.31535435 -0.0345615 -0.011938493 -0.04778698
0000a0 f3 a6 2b bc 86 e3 55 bc 10 5a 26 3c dc a8 96 3b
       -0.0104768155 -0.013054734 0.0101533085 0.0045977663
0000b0 c2 0c 57 3e a9 0d b4 bc c5 c1 67 bc 79 c5 f0 bd
       0.2100096 -0.02197917 -0.014145319 -0.11756415
0000c0 1c 47 07 3c 4e d3 be ba a3 e5 cd bc b0 c4 81 bc
       0.0082567 -0.0014558823 -0.025133913 -0.015840858
0000d0 4c db ea bb 16 ef 19 bd f0 28 6e 3e b9 6a fb bc
       -0.0071672555 -0.037581526 0.23257804 -0.030690538
0000e0 1c f0 09 bd 03 73 16 bc 79 51 1d bc c8 51 66 3e
       -0.03367625 -0.009182694 -0.009601944 0.22492135
0000f0 0b b2 e0 3d c3 c6 da 3a bf 40 4e 3e e8 13 14 bd
       0.10971459 0.0016691316 0.20141886 -0.036151797
000100 13 61 ef 3a 2a 9e 16 3e 97 22 db 3b ea b4 00 bd
       0.0018263183 0.14708772 0.006687473 -0.031422533
000110 c2 46 e2 bb 06 a6 05 3c a3 b8 93 3c fd 5a 6e 3e
       -0.0069054076 0.008157259 0.018032378 0.23276897
000120 d1 8b 13 bd 3a 52 e1 bc a6 9b 0a 3d d6 9a 9a bb
       -0.03602201 -0.027505029 0.033839844 -0.004718165
000130 28 9f 71 bc 4d 99 65 3e ff ab e2 3b 53 31 38 bc
       -0.014747418 0.22421761 0.006917476 -0.011242229
000140 e0 c8 28 3e 54 c2 2d 3e 79 46 cc bc d5 3b 06 3e
       0.16482878 0.16968662 -0.024935948 0.13108762
000150 f9 f7 10 bd 9b 26 21 3c 0f f5 a4 bb cf 6c d4 bc
       -0.035392735 0.009835864 -0.005034096 -0.02593079
000160 4b 34 0a 3c 00 b8 ef bc 6b 8c 16 bd 5c 9b 0e 3e
       0.008435319 -0.029262543 -0.036755007 0.13926452
000170 52 de 0f bd bb 92 87 bb 73 9f 82 3d 19 0b c1 bc
       -0.03512413 -0.0041373647 0.06378069 -0.023564862
000180 b5 de e0 bc db 78 fa bc 79 8b 21 3e 50 c1 98 bc
       -0.027449945 -0.030575207 0.15775861 -0.018646866
000190 22 20 7a 3e 8b 5b 01 3e 81 ea 0d bd fb 7f 0f bc
       0.2442632 0.12632577 -0.03464747 -0.00875854
0001a0 e7 02 0a bd b3 6b 10 bd 1a 14 06 bc df 8e 4e bd
       -0.033694174 -0.03525896 -0.0081835035 -0.05042922
0001b0 0a db 99 3e c2 3f 09 be 67 55 87 3e 1e e3 37 bd
       0.30049926 -0.13403228 0.26432344 -0.04489433
0001c0 c0 f5 c5 bc d8 7f 02 3c 12 39 83 bd dd 11 87 bc
       -0.024165034 0.007965051 -0.0640737 -0.01648801
0001d0 5c fb 82 3e f5 c1 09 3d 85 d2 e9 ba c4 d0 14 bd
       0.25582397 0.033632237 -0.0017839229 -0.036331907
0001e0 fb 92 74 3e 3e 38 0e 39 60 63 15 bc 0b 9a 3f 3e
       0.23884194 0.00013563127 -0.009117931 0.18711106
0001f0 ca 3a 91 bc e6 04 90 bc 11 f3 9c bc 04 b1 58 3e
       -0.017728228 -0.01758046 -0.019158872 0.21161276

fc2.weight f4 [4, 128]
000000 58 bb d2 bc a8 ce b7 3d cd a6 07 3d ab 59 b0 bf
       -0.025724098 0.089749634 0.033118058 -1.3777364
000010 2f c9 73 bd ee ae e3 3c aa f8 05 3d be 2f fa 3b
       -0.059518036 0.027793374 0.032707848 0.007635086
000020 0e 2b 83 3d c7 6d a3 bd 17 c0 83 3c 2f 41 56 3f
       0.064046964 -0.07979923 0.016082807 0.8369321
000030 d5 5e 17 bd fa 63 01 3c 3b 67 c2 3e 23 ce 15 3d
       -0.036955673 0.007897371 0.37969384 0.03657354
000040 0a a9 b1 3c 8c 9c af 3c 98 2d 6b 3d 91 15 98 3c
       0.02168705 0.021436952 0.05741653 0.018564971
000050 21 05 27 bd 8f 96 7a bd eb 3f d5 bf 8e 7c 47 3d
       -0.040776376 -0.06117874 -1.6660131 0.04870277
000060 19 97 39 bd dd 22 dd 3e 26 e8 b6 bc f7 59 50 3f
       -0.045310114 0.4319066 -0.022327494 0.81387275
000070 99 44 da ba 10 b8 a1 bd 21 74 cb bc 0c 1a 72 3c
       -0.0016652524 -0.07896435 -0.024835648 0.014776718
000080 ca cc 49 3c ad ba c4 3b 42 e1 50 3d 03 f0 e1 bd
       0.012316892 0.006003699 0.050996073 -0.11032107
000090 e0 58 61 3f 6a d5 e0 bc 7a 58 66 bd 1c 06 4b bd
       0.8802624 -0.027445514 -0.05623672 -0.049566373
0000a0 75 00 89 bd 08 31 34 bc c8 aa 4a 3d 02 84 82 3d
       -0.0668954 -0.010998018 0.049479276 0.06372835
0000b0 67 69 cd bf 76 5b b4 bc 3e c7 9d 3d f3 75 cb bd
       -1.6047791 -0.022016268 0.07704018 -0.099346064
0000c0 d4 4a 8f bd 14 0a 86 3b bd dc 4d bd 92 e8 91 bd
       -0.06996694 0.004090557 -0.05025934 -0.071244374
0000d0 58 7c ac 3c 3b 73 15 bd 65 47 cf 3f 58 12 b0 bc
       0.021055385 -0.036486845 1.6193663 -0.021493122
0000e0 69 42 5e bb 15 a9 30 bc ab 50 73 bd ac 71 0a 3f
       -0.0033914095 -0.0107825 -0.059403103 0.540797
0000f0 f3 bc 9f 3f 10 a1 9e 3c 58 57 d2 bf 44 2a 0c bd
       1.2479538 0.01936391 -1.6432905 -0.034219995
000100 9a a2 22 bc b1 da e4 3e e0 07 98 bd 0b f1 0f bd
       -0.009926463 0.44698098 -0.07423377 -0.035141986
000110 6d 74 18 bc e3 6a 7a bd 78 34 e2 bc eb e9 cf bf
       -0.009305102 -0.06113709 -0.02761291 -1.6243261
000120 8c c8 06 3d e6 42 30 3f a0 74 75 3f 0e 09 d8 3d
       0.0329061 0.6885208 0.9588108 0.10548602
000130 48 e8 76 bd 6f 27 67 3f 18 ea 87 3d 63 ad 9b bd
       -0.060280114 0.90294546 0.06636447 -0.0760143
000140 74 79 62 bf ca b2 97 be f3 62 2e bd 1c cd 13 3e
       -0.8846657 -0.29628593 -0.042574834 0.14433712
000150 6c ab 6e bc 7d 7a 88 3c ec fe 53 bd 09 32 c2 3c
       -0.014567237 0.01665997 -0.051756784 0.0237055
000160 d4 1e 4e bd dd b2 a1 3d 80 33 a6 3c 5f 2d 96 3f
       -0.05032237 0.078954436 0.020288229 1.1732596
000170 5f 79 00 bd 72 52 84 bd 9f 50 72 be 26 04 82 bc
       -0.03136575 -0.06461038 -0.23663567 -0.015871119
000180 fe 60 ab bc d8 db 85 bd 7f 4f 3b 3d 0e d4 60 3b
       -0.020920273 -0.065360725 0.04573011 0.0034306082
000190 e7 09 8d 3f 0c 39 a2 3e 3e ea 3c 3c 19 a6 c7 3b
       1.1018647 0.31684148 0.011530457 0.0060927984
0001a0 17 fb af bc 31 88 fb bc e6 ca a9 bd 18 d6 82 3d
       -0.021482034 -0.03070459 -0.08290653 0.063884914
0001b0 76 0d 0b c0 45 34 19 bd 86 39 f9 bd 66 07 25 3c
       -2.1726966 -0.037403364 -0.12169175 0.010072565
0001c0 e8 02 15 3e 28 7c f5 bc bf 5f bd bf 82 32 40 bd
       0.1455189 -0.029966429 -1.4794844 -0.046923168
0001d0 d2 1d 64 3f 66 94 5b 3f 4a 64 09 3d 09 85 7d bc
       0.89108 0.85773313 0.03354291 -0.015473613
0001e0 82 7f a2 3e f3 fd e7 bd 46 cc 97 bd 2b f9 c1 3f
       0.31737906 -0.11327734 -0.07412009 1.5154165
0001f0 47 1c 99 bd 53 6e 07 bd f6 4c 49 bd 29 97 fe bf
       -0.074760966 -0.033064198 -0.04914566 -1.988988
000200 60 b9 7c bd 64 30 49 3d 06 25 86 3f 9b 82 5d 3f
       -0.061700225 0.049118415 1.0480049 0.86527413
000210 9c 2a d4 bc 63 db 47 bd 05 43 35 bd 66 57 58 bd
       -0.025899224 -0.048793208 -0.044253368 -0.052817725
000220 21 fd d1 3c bd 42 8a b9 75 0a ca 3c 47 33 e9 bf
       0.025633397 -0.00026371135 0.02466319 -1.8218774
000230 91 88 17 3d e0 39 3d bd 5e 23 b5 bf c5 fa 7d 3d
       0.036995474 -0.046197772 -1.4151418 0.06200673
000240 2a d2 2d bd 8c ef 92 3c 3e c4 eb 3e 94 fc e6 3c
       -0.042436756 0.01793649 0.46048158 0.02819661
000250 b8 1d 1f 3c df d5 a2 3c a4 bc 3f bf 63 f1 8d 3c
       0.009711675 0.019877372 -0.7489722 0.017327016
000260 7b e2 a0 bc 03 58 8d 3f 34 b2 ac 3c 24 28 29 c0
       -0.019639244 1.1042484 0.021081068 -2.643075
000270 b7 af f9 bc f7 f8 98 3d 2c ad 7f 3c 4f 3f 0a 3c
       -0.030479295 0.07469361 0.015605252 0.0084379455
000280 cd bd 95 bd 00 48 5d 3c a2 82 1e 3d 5d 1c c2 bc
       -0.07311592 0.013505936 0.0386988 -0.023695165
000290 ed f9 63 be 15 1c c5 3c b0 22 79 bd e8 42 c6 bd
       -0.22263308 0.024061242 -0.060824096 -0.0968073
0002a0 e7 af 83 3c dd 8d fb bc 32 88 45 3d 5a cc 29 bd
       0.016075088 -0.030707294 0.04822559 -0.04145465
0002b0 5f 97 52 3f 14 e9 7a 3a f1 e2 0c bd b8 94 49 bd
       0.82262224 0.00095714745 -0.034396116 -0.049214095
0002c0 29 2d 8f 3d ef 25 5b 3d 33 a3 6d bd 42 62 88 bd
       0.069910355 0.053502973 -0.058016967 -0.06659366
0002d0 89 96 98 3c 9e c2 d1 bb 2c 66 8c 3e 07 e8 1a bd
       0.018626468 -0.006401374 0.274217 -0.037818935
0002e0 51 89 b8 3c ff b2 97 3c 10 c3 57 3d f6 f6 cb bf
       0.022526415 0.01851797 0.05267626 -1.5934741
0002f0 b1 b1 97 be 93 3e 43 3d 65 fe ab 3e aa e8 95 bc
       -0.29627755 0.047667097 0.33592525 -0.01829942
000300 48 fe 57 3d 88 b5 09 c0 c1 8c 5b bd 27 2b 70 bd
       0.052732736 -2.1517048 -0.05360103 -0.058634903
000310 38 1c 14 bd 6e c7 56 3d 63 bc f9 bb 11 fb c9 3e
       -0.036159724 0.052436285 -0.0076213344 0.3944936
000320 6c 13 1a 3d cc c8 8d bf e1 1b fa be b9 c3 d5 bf
       0.03761618 -1.1076903 -0.48849395 -1.6700355
000330 7d 4c 89 3c 3a 2a 02 bf 9b c4 84 3c 55 da 6d 3d
       0.016760105 -0.5084568 0.01620703 0.058069546
000340 4d de 98 bf 44 6a 08 c0 86 7c 2b bd 52 fc 9a bf
       -1.1942841 -2.131486 -0.0418668 -1.2108252
000350 fc 39 82 3d 89 e3 79 bd 53 94 1f 3d af 88 87 bc
       0.06358716 -0.06100801 0.038959812 -0.016544668
000360 f8 cc 22 bd 44 9b 0f 3d 85 10 9f bd 59 60 b3 bf
       -0.039746255 0.035060182 -0.07766823 -1.4013778
000370 4b 54 22 bd f5 c0 d6 3c 58 03 8e 3f 8a 3a 8c 3c
       -0.03963117 0.026215056 1.109477 0.017117757
000380 c3 05 a8 3d 7a 34 74 3d 5f cb 6a 3f b4 b1 54 3d
       0.08204224 0.059620358 0.9171657 0.051927283
000390 3d 2a 86 3d 60 ce 31 3f 69 86 d3 bc 7c f5 81 ba
       0.06551025 0.6945553 -0.025820928 -0.0009915079
0003a0 d8 cb e7 3b 24 ee 84 3d 31 52 66 3d 34 d8 04 bc
       0.0070738606 0.06490734 0.056230728 -0.0081081875
0003b0 83 f5 0b 3f 8c d3 30 3b 88 4d 34 3f c0 6a 45 ba
       0.54671496 0.002698156 0.70430803 -0.00075308606
0003c0 83 4d 13 3d 25 5b f5 3a 94 87 a0 3f 23 9f ea 3c
       0.035962593 0.001871918 1.2541375 0.028640335
0003d0 63 6b 62 bd 93 8f 91 bf e4 b9 07 3d 92 a9 74 bd
       -0.055278193 -1.137194 0.033136263 -0.059732027
0003e0 53 11 37 3c 5d af 87 bd 09 98 0c bd 13 90 ad bf
       0.011173564 -0.06625245 -0.03432468 -1.3559593
0003f0 a5 6a 9d bd 7d 46 90 3c aa ac 0e bd f5 f9 84 bf
       -0.076863565 0.017611736 -0.034832634 -1.0388781

fc2.bias f4 [4]
000000 21 e0 dc bd d9 85 8c 3d 03 aa 35 bd ca 86 cc bc
       -0.10784937 0.06861467 -0.04435159 -0.024966616
