cnn saved models/cnn_epoch5.pt (torch, 609323 bytes, 16 tensors)

conv1.weight f4 [32, 1, 3, 3]
000000 b8 d2 a5 3e 7c 77 90 3e 68 86 80 be d0 78 9a be
       0.32387328 0.2821616 -0.25102544 -0.30170298
000010 e5 fb 25 be bf 0c 3b be aa 67 6b 3d 82 d2 ce bc
       -0.16209371 -0.18266581 0.05747191 -0.025246862
000020 24 6d 7a 3e 6c 8f e1 3e d0 67 50 bd ec d5 07 3f
       0.24455696 0.44054735 -0.050880253 0.53060794
000030 1a 34 0f 3b 1c 35 15 bd 4c 1f 8a bd 5a 4f 2d 3d
       0.0021851123 -0.036427602 -0.06744251 0.042312004
000040 0f 0b 6d 3e e4 95 09 be 4a 7a e0 3d 88 40 e4 bc
       0.2314875 -0.13436085 0.10960825 -0.027862802
000050 90 7b a0 3e 85 0b 80 be 97 8f bc be 33 7a bc 3d
       0.3134427 -0.2500879 -0.368283 0.09202995
000060 a0 17 27 3e 4f ad 84 3e 1f 1f b4 be 73 ce 0c be
       0.16317606 0.25913474 -0.35179994 -0.13750629
000070 38 bd 95 3e 87 a1 7b 3e 07 9a c1 3d ac d9 48 be
       0.29245925 0.24573337 0.094532065 -0.19614285
000080 6d 47 94 be 80 3b 2a be 8b e3 70 3e a3 30 1c be
       -0.28960744 -0.1662426 0.23524301 -0.15252928
000090 30 8c 24 bd f3 49 29 be 88 ec fa 3d c2 a7 92 be
       -0.040172756 -0.16532116 0.12252146 -0.28643614
0000a0 e4 a4 67 3e af 47 94 3d 7b 7a 39 3e 4e cf ee 3d
       0.22621495 0.07240235 0.18113129 0.11660634
0000b0 d4 6f 42 be c5 84 4b 3e bc bb 98 be b7 6e 8c be
       -0.18987972 0.19874866 -0.2983073 -0.2742822
0000c0 d8 91 15 3e d5 d0 92 3e c8 4d a1 bc d4 83 9d be
       0.14606416 0.2867495 -0.01969041 -0.3076464
0000d0 ea 6d 0a bd 09 3c f6 be 98 cf de 3d 6b 73 f6 bd
       -0.03379623 -0.48092678 0.10879439 -0.12033733
0000e0 1c ae 95 be 61 02 08 3e 6c 23 3b 3e d5 7b b2 3e
       -0.29234397 0.13282157 0.18275231 0.348601
0000f0 90 dc ad be 38 08 d6 3b b0 b3 6a bd 3f 73 86 3e
       -0.33957338 0.0065317415 -0.05730027 0.262598
000100 6f 93 4c be 64 ba 8b be 99 44 8f 3e b8 4d d3 bc
       -0.19978116 -0.27290642 0.27982023 -0.025793895
000110 d6 d7 94 be e8 fd 91 3e 81 4a 05 be 19 cd e0 3d
       -0.2907092 0.28514028 -0.13016702 0.10976619
000120 40 ee f0 3c 57 94 27 3d 74 0c 0f bf 9e 34 c9 bd
       0.029410481 0.040912952 -0.55878377 -0.09824489
000130 c7 50 67 bd 1a 06 0d 3d d9 7f 5b 3e e8 d6 ea 3d
       -0.05647352 0.034429647 0.21435489 0.11466771
000140 1f b1 0a 3d 45 e0 fc 3d 51 8d 91 be 79 e7 c6 3e
       0.033860322 0.123474635 -0.28428128 0.38848475
000150 c5 d4 9c be c2 be d2 3d 2b 8c ab be 55 a3 6b 3e
       -0.3063108 0.102902904 -0.33505377 0.23011525
000160 78 98 d5 3d 3a 99 22 be 8a d2 c8 bb 80 eb 53 be
       0.10429472 -0.15878764 -0.006128614 -0.20695305
000170 cd 9a f5 bc c4 3c 1f be cb a9 0e 3e 88 2e d1 be
       -0.029981041 -0.15550524 0.13931958 -0.40855813
000180 c4 92 8b 3e c2 11 83 3e 1d 52 38 bd b0 68 84 bd
       0.2726041 0.25599486 -0.045000184 -0.0646528
000190 2b 12 5b 3e c1 36 4a be 9f 7b 89 3d 34 88 3d 3e
       0.2139365 -0.1974745 0.06713032 0.18508989
0001a0 a7 eb 4a be fe f8 ad 3e 5f 41 48 bd 31 89 24 be
       -0.19816457 0.33979028 -0.048890468 -0.1606796
0001b0 29 cf b2 3e 66 fe fa 3d d9 89 28 bd b5 f2 e8 3d
       0.34923676 0.12255554 -0.041147087 0.11374418
0001c0 a4 07 2f be b6 fd c6 bd 4b 17 ff bd d7 8d 6e 3c
       -0.17092758 -0.0971636 -0.12455615 0.014560184
0001d0 13 0c 81 be 0e 62 9a be 34 bd a4 3d 0a 8c c0 be
       -0.25204524 -0.30152935 0.080439 -0.3760684
0001e0 0f a6 65 be 28 e1 82 3d f5 e2 2a 3d a5 b0 10 3d
       -0.22426628 0.063906014 0.04172035 0.03532471
0001f0 f9 83 e3 3d 1d 02 9a 3e 3e 37 ab 3e 88 46 b0 be
       0.11109156 0.30079737 0.33440584 -0.3442881
000200 17 db 44 bd 84 05 69 3e 4b 70 38 3e e6 d9 ce be
       -0.048060503 0.2275601 0.18011586 -0.40400618
000210 86 55 a5 3e 6a 1d cb 3c 4a 2c ac be 4c 6b 9f bd
       0.32291812 0.0247943 -0.3362754 -0.07784137
000220 42 e6 14 3e d7 b1 02 bf 37 78 9b 3d e1 53 98 be
       0.14540961 -0.5105261 0.075912885 -0.29751495
000230 d1 18 a4 bd 65 30 df 3e ac 31 d7 3d 1c 24 00 be
       -0.08012546 0.4359161 0.10507521 -0.12513775
000240 25 4c 5e 3e 78 82 06 3e f8 d2 a3 be 7a ac 43 bd
       0.21708734 0.13135707 -0.31996894 -0.04777191
000250 4e ee 63 be a1 50 c2 3e a3 b7 c5 be 54 74 bb 3e
       -0.22258875 0.3795214 -0.38616666 0.3661219
000260 75 d0 7c bd dd 04 70 be ef a7 08 bd 6d dc d4 3d
       -0.061722238 -0.23439355 -0.03336328 0.103936054
000270 c1 0c db 3d 58 2a c2 be b9 6e b7 be 85 65 eb 3d
       0.10695792 -0.3792293 -0.35826662 0.11493973
000280 f9 96 b5 3e 80 d3 8c 3e 36 44 b5 3b a8 46 b5 3e
       0.35466745 0.27505112 0.005531813 0.3540547
000290 37 32 69 3d 81 2d e0 3d af 02 13 be 3d ea 8d bd
       0.056932654 0.10946179 -0.14356492 -0.06929443
0002a0 67 c7 88 bd 12 05 9e be 8a 93 c4 bc b1 b0 8a 3e
       -0.06678658 -0.30863243 -0.023996133 0.2708793
0002b0 a6 b3 40 3e b5 9f 6b 3d a3 29 0e bf f9 f7 a6 be
       0.1881853 0.057525355 -0.5553228 -0.32611063
0002c0 ff a1 d3 3c 2f 55 60 3e 58 79 b9 3d d0 c4 05 3e
       0.025834082 0.21907495 0.090563476 0.1306336
0002d0 d6 b2 9e 3d 1e 4d c0 be 56 20 95 3e 89 40 63 be
       0.07748954 -0.37558836 0.29126233 -0.22192587
0002e0 84 eb 36 bd 3c cb 25 3e d0 b8 50 be 35 4c fe ba
       -0.0446582 0.16190809 -0.20383 -0.0019401374
0002f0 45 7e 5e 3e c7 8f 5c be a1 92 9a 3e ba 8e a8 3e
       0.21727856 -0.21539222 0.30189994 0.32921392
000300 0d d4 01 3e 7e 10 de bd 00 af 74 be 3e 3c b2 3d
       0.12678547 -0.108429894 -0.23894882 0.087028965
000310 a9 34 a5 bd a4 e4 aa be e4 51 95 3d 15 60 fb 3c
       -0.08066685 -0.33377564 0.0729101 0.030685464
000320 ec d8 83 be 13 71 cb 3e 9b 57 2f be b9 76 d6 bd
       -0.25751436 0.39734706 -0.17123263 -0.10471863
000330 f2 22 c0 be 02 af 34 3e 96 a2 8b 3e 4c 99 f2 bd
       -0.3752666 0.17644885 0.2727248 -0.11845645
000340 31 03 49 bd 43 9f 5a 3d 19 51 4e bd 19 b3 56 be
       -0.04907531 0.05337454 -0.05037031 -0.20966758
000350 a0 46 9c 3e 01 65 8a be 1c 9b eb 3c fa 4f b1 3e
       0.30522633 -0.27030185 0.028760485 0.3463133
000360 bd b8 88 be 8e a0 12 be 32 8c 83 3e 48 88 ab be
       -0.26703444 -0.14319059 0.25692898 -0.33502412
000370 98 5d a9 bd 31 9c 7f 3e 37 9b 94 bd 8f ac 8d 3e
       -0.08269805 0.24961926 -0.072561674 0.27670714
000380 86 93 de 3d 2d a7 82 3e 2b 38 89 be 5e 3e ac bc
       0.108679816 0.2551817 -0.26800665 -0.021025833
000390 0a 1a 8b 3e b4 dd ff be 99 bd 89 3e e9 b0 c1 3d
       0.27168304 -0.49973834 0.26902464 0.09457571
0003a0 f1 e3 bb be 39 d0 82 3e 33 b7 a4 bd a5 a1 e3 be
       -0.36697343 0.25549486 -0.08042755 -0.44459262
0003b0 28 7c 73 be e9 a1 92 3e 6d 06 9f be 14 37 8f bd
       -0.2377783 0.28639153 -0.3105959 -0.06992927
0003c0 9f f9 ac bd 1c 58 af 3e 53 66 98 3d 16 51 cb be
       -0.08446049 0.3424691 0.07441392 -0.397103
0003d0 a1 2e 92 be e8 87 b0 3d 9f a2 a6 3c 63 a5 b3 3c
       -0.285512 0.08619672 0.020341216 0.021929448
0003e0 d0 27 05 be e0 ae 16 3e 00 91 98 bd 6f aa 9f 3e
       -0.13003469 0.14715147 -0.074495316 0.31184718
0003f0 cf ca 9e be 8c f6 6d 3e 17 fb e5 3e 5a 54 8f be
       -0.31014106 0.23238581 0.4491813 -0.27994043

conv1.bias f4 [32]
000000 53 84 a1 3d 78 16 92 3e f9 72 65 3e 95 77 11 be
       0.07886567 0.28532767 0.2240714 -0.14205773
000010 82 8d 8b 3e 02 5d 86 3e 24 33 45 3e f0 a3 1d 3e
       0.272564 0.26242834 0.1925779 0.15394568
000020 20 41 37 3e 73 5d 11 3e 85 c0 ee 3d 33 4a 8d 3e
       0.17895937 0.14195804 0.11657814 0.27595672
000030 a7 db a3 3e 0f 7b 09 3e cb 52 d9 3c 61 f8 5a be
       0.3200352 0.1342585 0.026528737 -0.21383812
000040 ff bb a0 3d a3 6a 03 3f ab 0d dc be 5a 2f 72 3e
       0.078483574 0.5133459 -0.42979178 0.23650876
000050 e1 16 9e 3e ee 0a 23 be fd 86 f0 3e b8 04 5c be
       0.3087683 -0.15922138 0.46977988 -0.21486175
000060 b9 59 9b 3e 65 fa 42 bd 35 60 2c be 56 9b 14 3e
       0.3034189 -0.047602076 -0.16833575 0.14512381
000070 31 3a 27 3e a4 75 07 bd 8c 9f 8d be 13 0f 12 3e
       0.16330792 -0.033071175 -0.27660787 0.14263563

BN1.weight f4 [32]
000000 9a c7 a2 3f 48 89 e0 3e c5 96 84 3f ab 00 59 3f
       1.2717164 0.43854737 1.0358511 0.84766644
000010 94 31 63 3f 59 75 53 3f bc 5b 9e 3f ef d2 84 3f
       0.88747525 0.82600933 1.2371745 1.0376872
000020 9c 94 5f 3f f3 61 6c 3f 23 6d 6c 3f 8a 80 ee 3e
       0.87336135 0.9233696 0.9235403 0.46582443
000030 87 18 6f 3f cb 16 65 3f 99 46 75 3f 4c 40 72 3f
       0.933968 0.89487904 0.9581085 0.9462936
000040 52 ee 60 3f c7 55 10 3f 56 bb 3c 3f 51 cb 44 3f
       0.8786365 0.56380886 0.7372335 0.76872736
000050 c7 d2 81 3f ab 7a 5e 3f 9e 85 84 3f d8 88 4e 3f
       1.0142449 0.86905926 1.0353277 0.80677557
000060 5e 9a 4d 3f 44 d7 a7 3f 1b 76 64 3f 29 86 68 3f
       0.8031367 1.3112569 0.89242715 0.9082971
000070 b4 86 83 3f aa c6 58 3f e9 76 68 3f 5b bb 59 3f
       1.0275483 0.8467814 0.9080644 0.85051507

BN1.bias f4 [32]
000000 20 da a1 be 03 21 11 be 33 9b 78 be a0 26 22 be
       -0.3161173 -0.14172749 -0.24277954 -0.15835047
000010 df 65 2b bf 9b 91 92 be c6 9a 26 be b5 b8 cf bd
       -0.6695232 -0.28626713 -0.16269979 -0.10142652
000020 cf 5b d7 be 60 c2 d6 be 55 d9 c6 be c6 3e 3f be
       -0.42062232 -0.4194517 -0.38837686 -0.1867629
000030 b5 db a9 bd 6b 56 b4 be b6 e4 41 be 1b e0 12 bf
       -0.08293859 -0.35222182 -0.18934903 -0.5737321
000040 f0 23 4d bf 59 34 03 be d6 5c a2 be 3d 9e 02 bf
       -0.8013296 -0.12812938 -0.31711453 -0.510227
000050 f1 ba 96 be fd 82 85 be 46 f3 88 bf bf da cf bd
       -0.294395 -0.260765 -1.0699241 -0.101491444
000060 0b b4 67 bd 05 d1 98 be 81 bd 13 bf db d1 0d be
       -0.056568187 -0.2984697 -0.57711035 -0.13849585
000070 80 00 fd bd 6d e9 a1 bd 38 d9 d1 be a6 9c 4d be
       -0.12353611 -0.079058506 -0.40986037 -0.20079288

BN1.running_mean f4 [32]
000000 df 58 99 3d 85 72 db 3e 3f 80 5a 3e e8 b9 1c be
       0.07487654 0.4286081 0.21337985 -0.15305293
000010 d3 7d 8e 3e ca 13 18 3e 59 eb 42 3e 6f 08 1f 3e
       0.2783037 0.14851299 0.1903509 0.15530561
000020 ee c1 10 3e db 48 f5 3d ad 99 b3 3d c0 ff 97 3e
       0.14136478 0.11976787 0.08769546 0.2968731
000030 63 87 9d 3e 07 44 be 3d 90 f8 a4 3c 79 48 87 be
       0.30767354 0.09290319 0.020138055 -0.2642248
000040 06 8d b3 3d c4 b7 00 3f aa 23 e2 be fb 84 7e 3e
       0.087671325 0.50280404 -0.44167835 0.24855416
000050 6a ec 95 3e b3 e7 35 be 83 09 f4 3e 48 60 57 be
       0.29281932 -0.17764167 0.47663507 -0.21032822
000060 e9 3c 9a 3e f1 61 53 bd c3 fa 7e be b5 7d c9 3d
       0.30124596 -0.051607076 -0.24900346 0.0983843
000070 dc 18 17 3e 94 03 a6 bd 0d 87 8b be 47 de f9 3d
       0.14755577 -0.08106151 -0.27251473 0.12200599

BN1.running_var f4 [32]
000000 00 4b f9 3a 32 41 a2 3c 5a 6e f8 3a bc 4c 04 3b
       0.0019019544 0.019806478 0.0018953786 0.0020187339
000010 2a d6 bf 39 33 13 48 3c eb 02 db 3a 7f 1f 13 3b
       0.00036589924 0.012211609 0.0016709244 0.0022449193
000020 65 8f 92 3b 98 da d8 3a 48 d5 6e 3b bb e6 93 3a
       0.0044726604 0.0016544638 0.0036443044 0.0011283973
000030 90 a1 5d 3b 97 8e ce 3b 74 46 0b 3b 48 93 cb 3b
       0.0033818223 0.006303619 0.002125171 0.0062126257
000040 ed 20 00 3a db 2a 97 3b 70 64 4f 3b 50 ac 43 3b
       0.0004887719 0.004613263 0.0031645559 0.0029857345
000050 d4 a5 8d 3a 16 37 58 3b 14 d7 2a 3a a6 74 9f 3a
       0.0010806867 0.0032991818 0.00065170345 0.0012165501
000060 dc f7 16 3b 3d 43 8f 3a aa 7b 31 3c 14 06 c7 3b
       0.002303592 0.0010930073 0.0108327065 0.0060737226
000070 f0 54 7b 3b 2f 69 b0 3b 0d 0e 98 39 e2 b0 04 3c
       0.0038350187 0.0053836326 0.00029002168 0.008098813

conv2.weight f4 [64, 32, 3, 3]
000000 3a 5b 26 be 37 63 09 3d eb 0f f7 bd ac 43 ae bc
       -0.16245738 0.033541884 -0.12063583 -0.021272503
000010 43 8f a0 bc 39 d6 3d be 6b 4f 9c bd 97 d9 a4 3d
       -0.019599563 -0.1853875 -0.07632335 0.080493145
000020 51 a4 66 bd 0f 2d 61 bd ee 93 e6 bb cf df 36 3d
       -0.056309048 -0.05497461 -0.0070366776 0.044647034
000030 c7 42 c2 bd ee 5f 21 be 4a 4c b5 bd b1 4e a6 3d
       -0.09485393 -0.1575925 -0.088524416 0.08120478
000040 b4 f6 8f 3d 40 4c 67 3d 3e 4d 86 3d 26 d5 cd 3d
       0.07029477 0.056469202 0.065577015 0.100504205
000050 16 45 8b 3d 8f 94 e8 bd 04 5f 83 bd 5e a5 d0 bd
       0.068002865 -0.1135646 -0.06414607 -0.10187791
000060 60 1e b3 bd 77 84 99 3c 82 d7 14 3e ad ec 85 be
       -0.08746028 0.018739922 0.14535335 -0.26157132
000070 af ef 01 3e e2 32 b9 3c 6d 9b 80 be 3c 03 dd 3d
       0.12689088 0.02260727 -0.2511858 0.107916325
000080 79 fa e6 bd 0d ee f4 bc 17 94 85 3e c6 94 37 3e
       -0.112782426 -0.029898668 0.26089546 0.17927846
000090 c8 15 ea 3d 66 60 cb bd 79 55 fb bd d3 16 74 bd
       0.11429936 -0.09930496 -0.12272162 -0.05959208
0000a0 df 5a 23 be 93 c0 c5 bd 9d de c9 3b 2b 0d a6 3b
       -0.15952633 -0.09655871 0.006160571 0.0050674877
0000b0 a0 63 7c 3d 08 66 03 be 38 07 f6 bc 7a dc d2 bd
       0.061618447 -0.1283189 -0.030032739 -0.10295959
0000c0 79 0a 36 bd e1 10 84 bc 4f eb 41 bc 7a 92 40 3e
       -0.04444358 -0.01612133 -0.011835887 0.18805876
0000d0 ff f3 32 3e 46 1e 0d 3e 3a bd f2 3d 3d ee 4b 3d
       0.1747589 0.1378108 0.11852498 0.04978775
0000e0 ca bf 21 be eb 05 31 bd df ff 62 3d 69 82 1c 3e
       -0.15795818 -0.043218534 0.0554198 0.15284123
0000f0 6b 50 17 be da 4b 17 be b4 a8 61 be bb 65 79 bd
       -0.14776771 -0.14775029 -0.22037011 -0.060888033
000100 bb 38 7c 3d 92 1d db 3c 93 b5 98 3c f8 c7 81 3c
       0.06157754 0.026747499 0.018641269 0.015842423
000110 3b a4 64 bd 03 c4 71 3d cb e1 8f 3d bb ef 15 3e
       -0.055820685 0.059024822 0.070254885 0.14642231
000120 58 d7 61 be 7f 75 81 bc 43 e4 19 be 2c 31 88 bd
       -0.22054803 -0.015803097 -0.15028481 -0.06650004
000130 25 54 dc 3d 8d a8 29 bc cc a2 9a bd 50 4a 7c 3d
       0.10758237 -0.010355127 -0.07550582 0.061594307
000140 9d 80 3d bd ae ea 43 be f8 fe 56 be d3 70 c0 be
       -0.046265233 -0.19132492 -0.209957 -0.37586078
000150 55 71 1f be 59 f1 8b bc b0 64 85 bd b6 73 81 be
       -0.15570576 -0.017082857 -0.06513345 -0.25283593
000160 0f e3 7d be b3 af a8 be 1c 13 79 3e f3 a8 63 3e
       -0.24793647 -0.32946548 0.24323696 0.22232418
000170 20 fe 2f 3e fb b7 3a 3d 58 d8 07 3e 74 b9 0d 3e
       0.17186785 0.045585614 0.13266122 0.13840276
000180 12 27 90 bd 78 6b 33 3c fa 5f ca 3c 08 2a bf bd
       -0.07038702 0.0109509155 0.024703968 -0.09334189
000190 0d ce 46 3c e6 de 8a bb e0 af c7 bc 92 0e 45 3d
       0.012134087 -0.0042379973 -0.024375856 0.0481096
0001a0 8e 4b 1a bd 5e 78 00 3e fd ea 90 3d c8 aa 92 3d
       -0.03766971 0.12545916 0.070760705 0.0716148
0001b0 d9 7f be bd 36 86 a5 3d 39 50 bf bd 4d a7 3f 3e
       -0.09301729 0.08082239 -0.09341473 0.18716164
0001c0 9a f5 86 3d c1 a6 8e be 13 25 be bd 61 31 c9 3d
       0.065898135 -0.27861598 -0.09284415 0.098238714
0001d0 89 95 05 3e 09 d6 82 3c ce 0b be bd 8c 72 17 be
       0.13045324 0.0159712 -0.09279595 -0.1478979
0001e0 8f fc 81 3c 80 23 2a 3d 1a 70 a3 bc 87 19 2d bd
       0.0158675 0.04153776 -0.019950915 -0.042260673
0001f0 62 1d d0 3d ae 6d c3 3d 34 52 11 be be 52 45 3c
       0.10161854 0.09542404 -0.14191514 0.012043653
000200 cf b8 12 bd 08 66 9c 3d 59 2c a6 3c 16 d3 85 be
       -0.03582078 0.076366484 0.020284818 -0.26137608
000210 1c 93 6e bd 94 f1 8a 3d b6 4f 5d bd fe 01 47 be
       -0.058245763 0.067843586 -0.054031096 -0.19434354
000220 f2 cc e5 3c 1f 63 6a be 78 7e fa bc 6c 1e dc 3d
       0.028051827 -0.22889374 -0.030577883 0.1074799
000230 71 f3 9b 3d d6 78 22 bc be ca 5e 3d 91 f5 e4 bd
       0.07614792 -0.009916505 0.05439257 -0.111796506
000240 13 e5 91 be dd ae 80 be 7d 9c 5d be cb f5 28 3e
       -0.28495082 -0.2513341 -0.21641727 0.16500013
000250 56 78 1c 3e 24 10 ab 3c 0d 84 1b be 1f 56 c8 bd
       0.1528028 0.02088172 -0.15187092 -0.09782051
000260 2d 31 e0 3d ee ea 93 3e a3 b5 46 3e a2 0d 94 3e
       0.109468795 0.28890175 0.19405226 0.2891665
000270 c1 bb 66 3d 69 f6 b6 3d c8 6c 14 3e bc 61 95 3d
       0.0563314 0.08933718 0.14494622 0.07294032
000280 df 43 eb 3d ea 18 b6 3d 2a 73 d0 bd aa 66 08 3d
       0.11487555 0.08891471 -0.10178216 0.033301033
000290 f6 5a 3e 3e b6 18 5c bd ad d0 91 be 04 cd ab be
       0.18589386 -0.053734504 -0.2847952 -0.33554852
0002a0 84 9d b9 3d 2d 6a e9 3d 3a 59 32 3e 4d f0 6b be
       0.09063247 0.113972045 0.1741685 -0.23040886
0002b0 07 63 89 bd 9d a0 31 bd c6 5f 65 bd 0e b4 a6 bd
       -0.06708341 -0.043366063 -0.05599954 -0.081398115
0002c0 01 7d cc bd fd 0e 81 bc 56 c1 ba bc 56 88 0d 3e
       -0.0998478 -0.015754217 -0.022797268 0.1382154
0002d0 3f 81 8a 3e 14 c8 84 3d 93 c4 82 bd 62 9a 50 be
       0.27051732 0.064834744 -0.0638515 -0.20371392
0002e0 65 90 ed bd 2b 11 14 be 9e d7 5a bd 25 13 e5 3c
       -0.11599807 -0.14459674 -0.053428285 0.02796323
0002f0 42 c1 84 bd e7 f9 84 3d cc f3 69 3e fb 09 7c 3e
       -0.064821735 0.064929776 0.22846907 0.24613182
000300 5e ee 3a be ab 4b af bc 5f d9 a3 bd a6 ec 19 3c
       -0.18254992 -0.021398386 -0.080004446 0.0093948
000310 e4 58 8f 3e 84 a9 61 3e ff c5 89 bc 8f 33 e4 3d
       0.27997506 0.22037321 -0.016818045 0.111426465
000320 43 f3 2a 3e 9d f9 e4 bd 56 d4 00 be 36 55 fc bc
       0.1669436 -0.111804225 -0.12581 -0.03080235
000330 97 dd ab 3d e2 0b f2 bd 7b bc b4 3b 33 da e4 3d
       0.08391874 -0.11818673 0.0055156327 0.11174431
000340 75 b8 1d 3d 58 df 82 3d a6 55 f8 bd 77 14 89 bd
       0.03850599 0.06390256 -0.12125711 -0.066933565
000350 d5 25 36 be fd c6 de bd 1d 31 13 bb cd b4 42 bd
       -0.1778787 -0.10877798 -0.0022459694 -0.047535706
000360 1a c2 bb 3d f5 f0 de 3c 14 77 ab 3d 4d 01 be bd
       0.09167881 0.027214507 0.08372322 -0.09277592
000370 ca 81 b9 bd 6e 62 d8 bc 78 34 e4 bc 8b cb 95 3d
       -0.090579584 -0.026414122 -0.02785705 0.07314213
000380 2b 0c f3 3d cc 3c 5f 3d bf f0 fd bd cd 0c 06 be
       0.11867555 0.05450134 -0.12399434 -0.1309082
000390 df 12 22 bc 39 46 1b bd 3d 5f a1 3c 36 ff b7 be
       -0.0098921945 -0.037908766 0.019698733 -0.35936898
0003a0 e3 a8 cf be 97 e8 e2 be 3a 00 ae be 7e 92 8d be
       -0.40558538 -0.44318077 -0.33984548 -0.27650827
0003b0 c6 e0 91 be ec d1 38 be 9d e7 93 bd bc 38 8f bd
       -0.284918 -0.18048829 -0.07221911 -0.06993243
0003c0 3b 7c 93 be 24 aa a3 be ab 5d a4 be 77 45 66 bd
       -0.28805718 -0.31965744 -0.32102713 -0.05621859
0003d0 17 63 12 be a8 bc a1 be f2 28 ae 3c 17 df b5 bb
       -0.14295612 -0.31589246 0.021259759 -0.005550276
0003e0 70 21 90 3d 20 b9 c2 bc 6b b2 2d 3d 13 8c a2 3d
       0.07037628 -0.023769915 0.04240648 0.07936873
0003f0 2f 6c bc bb 26 a6 01 3e 08 88 ab 3e fd ae ec bd
       -0.005750201 0.12661037 0.3350222 -0.11556814

conv2.bias f4 [64]
000000 68 04 9f 3b 32 9f 59 3c ef f5 ac bc de a1 0b bd
       0.00485282 0.013282584 -0.021113364 -0.034089915
000010 bd 76 e8 3c f2 07 99 ba 4b 06 ca 3c d5 03 5d 3d
       0.028376931 -0.0011675342 0.024661204 0.053958733
000020 65 cb 60 3c 7a 10 40 bd cb af 6a 3c e3 9b b7 3c
       0.013720368 -0.046890713 0.014324139 0.0224132
000030 ee 62 55 3d 09 47 cd bb 8c 63 bb 3c f3 44 d5 bc
       0.0520963 -0.0062645716 0.022874616 -0.026033854
000040 8d d9 87 3c 04 3c 9f bd 7e d9 48 bd a4 8e a5 3c
       0.016583228 -0.07775119 -0.04903554 0.020209618
000050 51 bd d0 3d 9e d0 45 3c 56 82 79 bd 72 10 b6 bc
       0.10192359 0.012073664 -0.060915314 -0.022224639
000060 eb f5 c6 bc 7f df 8f 3c b2 a5 0c 3d 53 39 66 3d
       -0.024287185 0.017562626 0.034337707 0.056207012
000070 43 1b d3 bc 7a 29 8c 3c 61 78 ef 3c 7a 5f a0 3d
       -0.025769835 0.017109621 0.029232206 0.07830711
000080 fa 56 23 3d 51 a2 a9 bc 45 e2 7d bb 25 73 7c bd
       0.03987787 -0.020707281 -0.0038739603 -0.061633248
000090 4c 5e a4 3b b8 52 d5 ba 10 76 14 bd 6c 42 83 bd
       0.005016124 -0.0016275262 -0.036245406 -0.06409153
0000a0 47 16 7b 3d b3 11 0c bc 51 ee a2 3b 5e 19 f4 bb
       0.061300542 -0.008549142 0.004972257 -0.007449313
0000b0 3c e3 a6 3c 62 94 28 3d 44 81 8a 3c 70 e8 a2 bd
       0.020372026 0.041157134 0.016907342 -0.0795449
0000c0 e5 c5 5a 3c d3 2e 99 bc 40 dc 25 bd 0b 1b d7 bb
       0.013352846 -0.018699085 -0.04049325 -0.006564503
0000d0 bf 3e 47 3d 17 e1 ef 3c a9 43 8e 3d ab 3f cb 3d
       0.048643824 0.029282136 0.06946499 0.09924253
0000e0 28 85 8b 3c 0a d4 77 3c 5d 9c 38 bd 71 19 a8 bb
       0.017031267 0.015126238 -0.045070995 -0.005129986
0000f0 54 e5 97 3d 72 c1 9f bb 4e da e0 3b c0 91 90 bc
       0.07416788 -0.0048753554 0.0068619614 -0.017647624

BN2.weight f4 [64]
000000 c4 db 99 3f e2 3b 8c 3f 71 87 94 3f b3 1a 8c 3f
       1.2020192 1.0955775 1.1603833 1.0945648
000010 b5 74 79 3f 16 b5 99 3f 8a be 54 3f 2e d8 89 3f
       0.97443706 1.2008388 0.8310324 1.0769098
000020 5f d8 8e 3f 5e c7 9d 3f a6 a7 86 3f 4a 0d 86 3f
       1.1159781 1.2326467 1.0519912 1.0472806
000030 72 09 95 3f f0 a7 97 3f 50 dd 8f 3f 2b 5b 8d 3f
       1.1643507 1.1848125 1.1239414 1.1043447
000040 65 10 9f 3f 26 d6 92 3f 70 aa a7 3f c1 c9 d7 3f
       1.2426878 1.1471603 1.3098888 1.6858445
000050 97 13 8d 3f c8 ed 8b 3f 99 00 cf 3f 28 43 91 3f
       1.1021603 1.093194 1.6172057 1.134862
000060 b1 6e 8e 3f 4d 57 e2 3f 53 e9 86 3f 0f 74 a4 3f
       1.112753 1.7682892 1.0539955 1.2847918
000070 43 66 9b 3f 64 99 92 3f a7 49 96 3f a7 6d 86 3f
       1.2140583 1.1453061 1.1741227 1.0502213
000080 27 ff 94 3f 9f 13 85 3f c0 88 89 3f 4e 51 9a 3f
       1.1640366 1.0396613 1.0744858 1.2056062
000090 6d 2a b2 3f 44 94 81 3f 05 d6 5b 3f f9 1b 8e 3f
       1.3919197 1.0123372 0.8587344 1.1102287
0000a0 a4 23 86 3f 01 0e 78 3f 3b 64 7f 3f df 96 b1 3f
       1.0479627 0.9689637 0.99762315 1.3874167
0000b0 45 c1 aa 3f 84 77 99 3f 65 4a 99 3f b1 af 77 3f
       1.3340231 1.1989598 1.1975828 0.9675246
0000c0 bf 3a b3 3f 89 b8 8c 3f 75 80 84 3f 89 e6 82 3f
       1.4002303 1.0993816 1.0351702 1.0226604
0000d0 89 87 a1 3f 61 01 64 3f be cd 97 3f f2 76 8c 3f
       1.2619487 0.89064604 1.1859663 1.0973799
0000e0 c8 d9 8b 3f 1d 69 a9 3f 32 a7 8d 3f f1 78 76 3f
       1.0925837 1.3235203 1.1066649 0.9627829
0000f0 d2 55 9a 3f 79 b7 a2 3f 8e 63 99 3f 53 50 a0 3f
       1.205744 1.2712241 1.1983507 1.2524513

BN2.bias f4 [64]
000000 38 d5 f6 be 93 8f b5 be 69 b4 f2 be 76 78 ca be
       -0.48209548 -0.354611 -0.47403267 -0.3954503
000010 c2 f4 d3 be 2e ae fa be 34 89 aa be 1f 22 c1 be
       -0.41397673 -0.48961014 -0.33307803 -0.37721345
000020 39 55 e5 be ea b2 09 bf f3 0a a6 be c3 0f d2 be
       -0.44791582 -0.53788626 -0.3243023 -0.4102765
000030 af 74 e6 be 31 0c df be 13 9b c8 be 18 60 d0 be
       -0.45010898 -0.4356399 -0.39180812 -0.40698314
000040 b1 db d8 be 32 a3 00 bf 0d cf 34 bf fd a7 81 bf
       -0.4235511 -0.50249016 -0.70628434 -1.0129391
000050 20 e8 b6 be 7a af 09 bf 4a 0f 65 bf cf 73 c5 be
       -0.35723972 -0.5378338 -0.89476454 -0.38564917
000060 bf 16 bc be 7f 3f 48 bf 49 da 13 bf 25 8a e7 be
       -0.36736104 -0.7822189 -0.5775495 -0.45222583
000070 84 de 0a bf fe 1f d7 be 74 e1 e3 be db 62 cd be
       -0.5424578 -0.42016596 -0.44507945 -0.40114483
000080 78 f6 08 bf 66 17 d6 be da aa bc be 01 a4 c6 be
       -0.5350108 -0.41814727 -0.368491 -0.38797
000090 3b af f8 be f2 0d a8 be c0 e9 56 be bf a5 e5 be
       -0.4857119 -0.3282314 -0.20987606 -0.44853017
0000a0 fc 77 b5 be b5 5b 9f be 4a cd cc be 6f 36 74 bf
       -0.35443103 -0.31124654 -0.40000373 -0.9539556
0000b0 1a 28 f2 be 69 b0 e2 be 49 83 04 bf 84 ea f0 be
       -0.4729622 -0.44275215 -0.51762825 -0.4705392
0000c0 12 df c8 be aa 44 c2 be bb a3 cd be 65 ab f5 be
       -0.3923269 -0.37943012 -0.4016398 -0.47982326
0000d0 2c ef 06 bf e1 4a 8c be d9 bb e7 be ed 9f c3 be
       -0.527087 -0.27400878 -0.45260504 -0.3820795
0000e0 5f 67 a1 be 5e f0 0a bf da aa d5 be 54 99 b4 be
       -0.31524178 -0.5427302 -0.41731912 -0.3527323
0000f0 7a 70 06 bf 4b 49 09 bf cd b0 11 bf ef b4 fa be
       -0.52515376 -0.5362746 -0.569104 -0.48966166

BN2.running_mean f4 [64]
000000 80 a9 05 bf 40 8a a7 bf d0 57 3c bf 74 9d 72 bf
       -0.5221176 -1.3089066 -0.7357149 -0.94771504
000010 55 26 8c bf fe 5d 4e be 76 f2 0b bf bb e8 5f bf
       -1.0949198 -0.20153043 -0.5466684 -0.87464494
000020 9d e5 0f bf 92 28 0a bf 89 08 be bf 98 a1 6f bf
       -0.5620974 -0.53968155 -1.4846355 -0.9360595
000030 59 eb 20 bf c0 cd 13 bf 5f 19 95 be 29 15 4f 3e
       -0.6285911 -0.57735825 -0.2912092 0.20222916
000040 59 9c 69 be cb c3 85 bf 51 da 0f be 27 be 5c be
       -0.22813548 -1.0450376 -0.14048125 -0.21556912
000050 a4 6e 9e bf 68 33 48 bf a8 bf a3 be a5 34 f0 be
       -1.2377515 -0.7820344 -0.3198216 -0.46915165
000060 c0 14 80 bf 9a 97 4c be af 7b 6b bf ec d6 3a bf
       -1.0006332 -0.19979706 -0.919856 -0.72984195
000070 63 49 40 be cf 95 0e bf a5 ec 09 bf 06 bc 00 bf
       -0.18777995 -0.5569734 -0.53876716 -0.502869
000080 7b ed 81 be 79 63 e6 be 53 27 97 bf dd 4f 85 bf
       -0.25376496 -0.44997767 -1.1808876 -1.0414997
000090 ae 2c 8e be ce fe ca bf 58 be dc be 3c 3a 20 be
       -0.27768463 -1.585901 -0.4311397 -0.15647215
0000a0 13 65 71 bf b1 17 95 bf 19 17 39 bf b4 e8 14 be
       -0.9429485 -1.1647855 -0.7230087 -0.14541894
0000b0 d2 3e 18 bf 59 c8 a7 be 5a aa 81 be 89 61 49 bf
       -0.59470856 -0.3277004 -0.2532528 -0.7866445
0000c0 db a3 cd be 38 d9 2a bf b5 64 a1 bf 95 1c 75 bf
       -0.40164074 -0.667377 -1.2608858 -0.9574674
0000d0 a2 7c 24 bf 35 7d a4 be 1a be 1c bf 25 6c 1d 3e
       -0.64252675 -0.32126775 -0.6122757 0.15373285
0000e0 a1 a4 b6 bf 8d 54 d5 be 68 88 bc bf da cc b5 bf
       -1.4268991 -0.4166607 -1.4729128 -1.4203141
0000f0 1c a1 4c be 5b 55 cb be 61 af c8 be ce bb 23 3d
       -0.19983333 -0.3971356 -0.39196303 0.039974026

BN2.running_var f4 [64]
000000 f7 1c 05 40 c7 f4 e7 40 e3 87 9f 40 f6 7b 48 40
       2.0798929 7.24863 4.9853377 3.132566
000010 52 cf 3a 40 4c b1 20 40 af 0f b9 40 ab 21 64 40
       2.9189038 2.5108213 5.7831645 3.564555
000020 0d 61 46 40 7d 9f 4b 40 f8 e8 1e 41 0a 02 b2 40
       3.0996735 3.1816094 9.931877 5.562749
000030 d9 36 4c 40 63 44 20 40 6a 98 9a 40 2c 74 11 40
       3.1908476 2.504174 4.831105 2.2727156
000040 7b ab 58 40 89 a9 11 40 9d 1d 3d 3f 6d c2 4e 3f
       3.3854663 2.2759726 0.7387331 0.8076542
000050 02 38 d1 40 de 8b 5a 40 78 81 6f 3f e9 5d 80 40
       6.538087 3.4147868 0.9355693 4.0114636
000060 f0 32 d2 40 dc 3d 87 3f e7 78 35 40 6b 04 86 40
       6.568718 1.0565753 2.8355043 4.1880393
000070 7c e3 08 40 86 d8 5e 40 09 76 82 40 63 57 50 40
       2.1388845 3.4819655 4.0769086 3.2553337
000080 b4 55 ae 3f 88 2e 3c 40 8c 7b 9d 40 2a 7a ae 40
       1.3619905 2.94034 4.9213314 5.4524126
000090 6b 16 fd 3f b8 c7 ef 40 26 06 bc 40 d2 51 05 40
       1.9772466 7.4931297 5.8757505 2.083119
0000a0 b3 d6 d4 40 e2 ca e9 40 12 ed 5e 40 55 fc 46 3f
       6.6512084 7.306016 3.4832196 0.7772878
0000b0 06 d6 52 40 74 3f 30 40 8a 90 b0 3f 57 18 89 40
       3.294313 2.7538729 1.379411 4.284221
0000c0 93 eb d0 40 fc a8 bb 40 1e 38 82 40 14 3a 5c 40
       6.5287566 5.864378 4.0693502 3.4410448
0000d0 42 65 2d 40 13 2e 53 40 16 ea 75 40 81 64 ee 3f
       2.7093053 3.2996871 3.8424125 1.8624421
0000e0 86 24 0d 41 5c 70 11 40 b6 5e 8a 40 1a 3a c3 40
       8.821417 2.2724829 4.3240614 6.1008425
0000f0 ba 29 8e 3f 3e 45 c3 3f b5 b0 b7 3f 64 00 23 40
       1.1106484 1.5255506 1.4350802 2.5468988

fc1.weight f4 [128, 1024]
000000 ef cd b4 ba 3f a6 fb bc f1 b4 4d bc 7b d7 a7 bc
       -0.0013794283 -0.03071892 -0.012555347 -0.020488491
000010 7f bf 4c ba 01 dd 1b bc e0 4b 11 bd 5e aa 00 bc
       -0.00078105176 -0.009513141 -0.03547275 -0.007853119
000020 64 3e f0 bc 6d f1 8e bc 85 d9 16 3c 01 5d c2 3c
       -0.029326625 -0.017449105 0.009207134 0.023725988
000030 f9 a5 b0 3b 4a 35 8f 3c 86 cb 9b 3c 1c 41 11 bd
       0.005390879 0.017481465 0.019017946 -0.035462484
000040 8d 9f 4e bc 30 2b 5c bc 53 92 1b 3c fe 09 83 bc
       -0.012611282 -0.013438031 0.009495336 -0.015995976
000050 ad 0b 31 ba a2 c5 29 bc 3b 82 49 bc f3 50 62 3c
       -0.0006753754 -0.010362061 -0.012299116 0.013813245
000060 ee 9b 63 3c 74 eb 00 bc ad 10 e7 bc 1a e7 8f 3b
       0.013892157 -0.007868636 -0.028206194 0.004391563
000070 d2 97 d7 ba eb 4e e5 bc 8c 8d 9b bc 87 5d 4b 3b
       -0.0016448444 -0.027991733 -0.018988393 0.0031031088
000080 ea 1c 89 3a 5b 74 ba bc 79 4f 7b 3c ed 57 7b bc
       0.0010460888 -0.02276056 0.015338772 -0.015340787
000090 57 ad 47 3c bf 22 a4 bc 90 63 ef bc 26 a7 d2 3a
       0.0121873235 -0.0200361 -0.02922228 0.0016071543
0000a0 e4 cd c9 3c 5d 3f 58 3c 7c 14 ad bc ff d1 f5 bc
       0.02463431 0.013198701 -0.021127932 -0.03000736
0000b0 32 3a 55 bc 13 5b 8b bc 2b b4 c6 3b 47 cc 0c bd
       -0.013014363 -0.017011201 0.006063958 -0.0343745
0000c0 c9 06 88 bc 32 14 2b bc 21 30 74 3c 2b 5d c6 3b
       -0.016604798 -0.010441827 0.014904053 0.006053587
0000d0 10 eb b6 3c ac cd 99 bb c4 bb a0 bc 3a 89 0a 3b
       0.022328883 -0.0046937075 -0.019620784 0.0021138922
0000e0 40 02 25 bb 77 f0 06 bd 47 a0 d6 bc dd 4b ff bc
       -0.0025178343 -0.03294417 -0.026199473 -0.031164104
0000f0 b0 f1 59 bc ec 71 0a bd 79 9c 07 bb 19 79 62 3c
       -0.013302252 -0.03380005 -0.002069263 0.013822817
000100 da 70 21 3c 02 5f bb 3c 54 8c 84 bc ad b3 b2 bc
       0.009853566 0.022872452 -0.016180195 -0.021814192
000110 9d 0b a9 bb 7d 47 f1 bb f2 9f 9f 3c a7 c2 0a bd
       -0.005158855 -0.0073632584 0.019485448 -0.03387704
000120 2e e0 15 bd d3 af f5 bc c5 19 a2 bc 58 8c 28 3c
       -0.036590748 -0.029991066 -0.019787678 0.010287367
000130 7b 58 65 bc 9c 3f a0 3b 71 32 ec bc 85 31 ca 3c
       -0.013998146 0.0048903953 -0.028832646 0.024681816
000140 4b 9d 32 3b 39 0f 3e 3b 71 95 c6 3c 89 d0 09 3c
       0.0027254398 0.0029000773 0.024241181 0.008411535
000150 40 cb 95 3b 44 41 03 bc a8 84 07 3b 27 a2 06 bc
       0.0045713484 -0.008011166 0.0020678435 -0.008217371
000160 25 a8 a9 bb f5 42 df bc 89 6f 93 3c cc 25 2b 3c
       -0.005177515 -0.027253607 0.01799752 0.010446023
000170 94 81 b9 bc 1a f7 95 3c 49 37 ba bc 41 99 17 bc
       -0.022644795 0.018306304 -0.02273144 -0.009252847
000180 f8 e4 86 bc be 44 17 3c ff a6 3c 3b 1a 8c a5 bc
       -0.016466603 0.009232698 0.002878606 -0.020208407
000190 7a 62 92 3b 62 75 c4 3b 7d d4 c0 ba 18 f9 28 3c
       0.0044673057 0.0059954384 -0.0014711764 0.010313295
0001a0 54 c4 2d bc c6 ea 2b 3c 49 60 bf 3c 08 c3 9d bc
       -0.01060589 0.010492986 0.023361342 -0.019258037
0001b0 b4 6e f5 3b d0 47 ec 3b 26 2c b8 bb dc 32 6f bc
       0.0074900035 0.007210709 -0.0056204973 -0.014599528
0001c0 b6 91 17 3c 74 ce 37 3c 64 6f 78 3c 80 c7 3f bc
       0.009251049 0.011218656 0.015163276 -0.011705279
0001d0 07 6e 09 bd 18 28 8b bc 34 dc 0b bd 14 35 c4 3c
       -0.033552196 -0.016986892 -0.03414555 0.02395109
0001e0 f6 d4 10 bd 9b a7 3e 3c f0 3b d3 bc 1d 1f 04 bd
       -0.035359345 0.01163664 -0.025785416 -0.032256234
0001f0 24 14 23 3c e8 d7 f8 bc ba 78 e5 bc 14 f8 9f 3a
       0.009953532 -0.03037639 -0.028011668 0.001220467
000200 46 d1 02 bd 0c c5 9f 3c a6 e5 ac ba 01 df bf bb
       -0.03193786 0.019503139 -0.0013190999 -0.0058554416
000210 f5 d3 b4 3c db e6 aa bc 75 44 be bc 13 60 53 bb
       0.022073725 -0.020862034 -0.023226002 -0.003225331
000220 d1 eb 59 3c 0d 4b cb 39 f2 1d 1a 3c f3 f4 13 bd
       0.013300852 0.00038775094 0.009406554 -0.036122274
000230 02 4d 40 bc b8 5b fa b9 d0 1c 29 3c 46 af ac bc
       -0.01173711 -0.00047752052 0.010321811 -0.02107967
000240 80 14 b4 bc 03 01 e3 ba c0 78 25 bc cd c1 7f bc
       -0.021982431 -0.0017319027 -0.01009959 -0.015610171
000250 a7 cb 95 3c ba 87 a9 bc 57 46 0c 3c f9 9f 96 3c
       0.018285586 -0.020694602 0.008561692 0.018386828
000260 9f ac af bc 6e a0 8e 3c 14 ca c2 3b 89 9b 85 bb
       -0.021444617 0.017410483 0.0059444997 -0.004077379
000270 d5 38 0d bd f6 04 84 3b 0e 6d 9e 3c 20 96 0f bc
       -0.034478027 0.0040289117 0.01933911 -0.00876382
000280 5a 7e 97 3c 96 f2 ce bb 6f 45 59 bc 20 1f 70 bc
       0.018492866 -0.0063155396 -0.013261183 -0.014655858
000290 5d 8d 05 bc f8 33 9b bc 1e ac ae bb 9e 50 d1 bb
       -0.008151379 -0.018945679 -0.0053305766 -0.006387784
0002a0 61 38 03 bd fb ad a8 bc 8a cb ba 3c 07 c1 c0 bb
       -0.03203619 -0.020590773 0.022802133 -0.0058823857
0002b0 1e df c5 bb fe b3 1a 3c 7f 50 93 3c 7a 4a 17 bd
       -0.0060385605 0.009442328 0.01798272 -0.03693626
0002c0 e4 a5 0f bd a0 a2 0b bc 7f 72 8d bc 66 a1 02 bd
       -0.035070315 -0.00852266 -0.01726651 -0.031892203
0002d0 fc 93 f8 bc 7f 30 cc 3b 9d 9a 32 3c 5e 0f 01 bc
       -0.030344002 0.006231367 0.0109011205 -0.007877199
0002e0 7e 32 6e bb 79 6f e5 bc 13 d1 df bc 83 af 07 bd
       -0.0036346014 -0.028007256 -0.027321374 -0.033126365
0002f0 c6 c5 f3 bb 14 14 12 bd 57 c7 d2 bb 3d 1e 87 3c
       -0.007439348 -0.03566368 -0.0064324546 0.01649391
000300 2e a1 90 bc 10 18 04 bd 07 88 c6 bc 5b 57 0f 3c
       -0.017654981 -0.03224951 -0.024234785 0.0087488545
000310 71 c3 c4 bc 44 b4 c0 bc 4a 5c b4 bc 54 46 b1 bc
       -0.024018975 -0.023523457 -0.022016663 -0.02163998
000320 d1 fa 93 3c 36 12 81 bc ae ed bb 3c 0e 73 0e 3c
       0.018063935 -0.015755754 0.022940483 0.008694423
000330 d5 93 2e bc 4d 7e 01 bd 3b 41 8c 3c 23 19 ac 3c
       -0.010655363 -0.03161459 0.017120948 0.02100808
000340 03 1d 22 bc fe 5c 9e 3c 1b 73 3f bc 65 54 08 bd
       -0.009894612 0.019331452 -0.011685158 -0.03328361
000350 6d a9 10 bd ee c5 84 bc ce 76 95 3b 0f d2 7e 3c
       -0.035317827 -0.016207661 0.0045612818 0.015553012
000360 af 22 ab 3c f5 83 be 3c 6f 4d c4 3b a0 6c 02 bd
       0.020890562 0.023256281 0.005990676 -0.031841874
000370 6f 7c b7 3b cf 15 f8 bb 90 69 54 bc 25 eb 9c 3c
       0.0055995504 -0.007570959 -0.012964621 0.019155094
000380 e5 1b db bb 11 97 b4 bc a1 35 b3 3c 71 3f 43 3c
       -0.006686675 -0.02204469 0.021876158 0.011916981
000390 d3 c1 ca ba fe 46 95 3c 51 1c fa bc 14 df d0 bb
       -0.0015469141 0.018222328 -0.03053108 -0.0063742492
0003a0 a8 10 05 bd d9 dd 33 bb f1 7c 3f 3b 53 8e 89 ba
       -0.032486588 -0.0027445464 0.0029218758 -0.0010494686
0003b0 d3 a9 03 bd 67 88 d7 bc 1c 5a 0d bd b0 8e a4 3c
       -0.03214438 -0.026310159 -0.034509763 0.02008757
0003c0 ec f6 9a bc 7f 4f 91 3c 7a 1f fb bc de 63 8f ba
       -0.01891657 0.017738102 -0.030654658 -0.0010939797
0003d0 ab 5c b5 3c ef b7 47 bc 84 fa df bc 40 de 23 bc
       0.022138914 -0.012189849 -0.027341135 -0.010001719
0003e0 f6 4b 92 3b e1 56 41 bc da 4a 36 3b f8 fa 7e bb
       0.0044646217 -0.011800499 0.002781561 -0.0038906913
0003f0 92 a6 fe bc 2d 08 28 bc 57 95 94 bc 20 e9 af 3c
       -0.031085286 -0.0102558555 -0.018137617 0.021473467

fc1.bias f4 [128]
000000 65 16 28 3c 4d 4d 4f bc 05 fc 3c 3e e7 33 64 3d
       0.0102592455 -0.012652707 0.18455513 0.05571356
000010 99 b6 dd 3b ce f3 c6 3c 06 23 a7 3a 2f 4c 11 bd
       0.006766152 0.024286177 0.0012751527 -0.035473045
000020 9c a2 7c bc 15 38 0d 3b f4 90 1d bc f8 57 57 3d
       -0.0154196285 0.002154832 -0.009617079 0.052574128
000030 36 82 5f 3c 8d 4b 00 bd e7 2f db bd a3 3e d1 3b
       0.013641885 -0.03132205 -0.10702496 0.0063856407
000040 a4 12 ce bc 20 d7 93 bc 41 ac f9 bc b7 7c 12 bd
       -0.025155373 -0.018046916 -0.030477645 -0.03576347
000050 22 9f 10 bd dd 82 5f bc c7 df 5f 3e c0 4a 93 3c
       -0.03530801 -0.01364204 0.21862708 0.01797998
000060 04 ca b2 3c 83 3a 21 3e df 8c a5 bc 76 0a 9e 3c
       0.021824844 0.15744977 -0.020208774 0.019292098
000070 2d 16 c1 bc 06 72 36 3c db 7e c4 bc ae 58 12 bd
       -0.023570145 0.011135584 -0.02398627 -0.035729103
000080 f8 ec 81 3c 60 0b 8b 3b de 89 a6 bc a9 d6 b7 3c
       0.015860066 0.0042432994 -0.020329412 0.022441225
000090 8f 84 8a 3e 5c 90 0d bd ab 99 43 bc 3b 9b ed bc
       0.2705426 -0.0345615 -0.011938493 -0.029004684
0000a0 f3 a6 2b bc 86 e3 55 bc 10 5a 26 3c dc a8 96 3b
       -0.0104768155 -0.013054734 0.0101533085 0.0045977663
0000b0 0b a0 8e 3d a9 0d b4 bc c5 c1 67 bc 4e f9 a7 bb
       0.069641195 -0.02197917 -0.014145319 -0.005126155
0000c0 1c 47 07 3c 4e d3 be ba a3 e5 cd bc b0 c4 81 bc
       0.0082567 -0.0014558823 -0.025133913 -0.015840858
0000d0 65 dd 8a 3c 4a 0e 97 bb 62 b6 4d 3e e7 ea 07 bc
       0.016951272 -0.0046098577 0.20089105 -0.008295751
0000e0 1c f0 09 bd ff e7 b8 3c 82 d7 b3 3c 17 d1 9c bc
       -0.03367625 0.022571562 0.021953348 -0.01914267
0000f0 8d 85 87 3d c3 c6 da 3a 63 75 aa 3d 97 cc ea bc
       0.0661727 0.0016691316 0.08323171 -0.02866201
000100 13 61 ef 3a b4 5c 85 3d 97 22 db 3b bf cb cd bb
       0.0018263183 0.06511822 0.006687473 -0.006280392
000110 44 b1 95 3c 06 a6 05 3c a3 b8 93 3c d5 1b 4d bc
       0.018273003 0.008157259 0.018032378 -0.012518843
000120 d1 8b 13 bd f8 02 45 3c d2 b6 58 ba 7d 0e 70 3d
       -0.03602201 0.012024634 -0.00082669884 0.058607567
000130 28 9f 71 bc ea 7a 13 bc ff ab e2 3b 53 31 38 bc
       -0.014747418 -0.009001473 0.006917476 -0.011242229
000140 a6 65 e1 3d a5 db 91 bc 79 46 cc bc 3f d2 92 bd
       0.11005716 -0.01780493 -0.024935948 -0.071690075
000150 f9 f7 10 bd 9b 26 21 3c 0f f5 a4 bb cf 6c d4 bc
       -0.035392735 0.009835864 -0.005034096 -0.02593079
000160 4b 34 0a 3c aa 20 fa 3b c4 6e b6 bb 5d 35 1d 3e
       0.008435319 0.0076332884 -0.0055674035 0.15352388
000170 52 de 0f bd bb 92 87 bb d5 3a a8 bc 19 0b c1 bc
       -0.03512413 -0.0041373647 -0.020535866 -0.023564862
000180 b5 de e0 bc db 78 fa bc 0a 49 93 3c 50 c1 98 bc
       -0.027449945 -0.030575207 0.017979164 -0.018646866
000190 c5 c7 77 3e eb 90 8f 3d 81 ea 0d bd fb 7f 0f bc
       0.241973 0.07010063 -0.03464747 -0.00875854
0001a0 1f da c2 bb b3 6b 10 bd 1a 14 06 bc df 8e 4e bd
       -0.005946412 -0.03525896 -0.0081835035 -0.05042922
0001b0 70 a4 3e 3e 6d 28 0d bd de c9 84 3e 0f 09 ee bc
       0.18617415 -0.03446238 0.25935262 -0.029057054
0001c0 50 d5 cb bd d8 7f 02 3c f6 40 ed bc dd 11 87 bc
       -0.099527955 0.007965051 -0.02896164 -0.01648801
0001d0 ad b1 9a 3d f8 b8 1c bb 85 d2 e9 ba c4 d0 14 bd
       0.0755342 -0.002391396 -0.0017839229 -0.036331907
0001e0 ec 8e 8a 3e 3d 01 c8 3c 57 7d 92 3c 30 16 0c 3e
       0.27062166 0.024414653 0.017882032 0.13680339
0001f0 ba 0d 83 3b e6 04 90 bc 11 f3 9c bc e4 0a 34 3e
       0.003999439 -0.01758046 -0.019158872 0.1758228

fc2.weight f4 [4, 128]
000000 3b 8c 5d bd f8 94 26 bd 66 92 97 3c e4 5b 17 bf
       -0.054088812 -0.04066941 0.018502425 -0.5912459
000010 2f c9 73 bd d5 a2 86 3d aa f8 05 3d be 2f fa 3b
       -0.059518036 0.065740265 0.032707848 0.007635086
000020 0e 2b 83 3d c7 6d a3 bd 17 c0 83 3c aa ed ac 3e
       0.064046964 -0.07979923 0.016082807 0.33775073
000030 d5 5e 17 bd b8 b4 86 bc a4 c6 73 3e 23 ce 15 3d
       -0.036955673 -0.016443595 0.23806244 0.03657354
000040 0a a9 b1 3c 8c 9c af 3c 11 b7 0e 3d 91 15 98 3c
       0.02168705 0.021436952 0.034842554 0.018564971
000050 c4 78 95 bb 8f 96 7a bd 4c 20 fa be d0 a1 53 3d
       -0.0045615155 -0.06117874 -0.48852766 0.05166799
000060 d5 cc c7 bc a8 7a 3e 3e 26 e8 b6 bc ee c1 9f 3e
       -0.024389664 0.18601477 -0.022327494 0.31202644
000070 99 44 da ba 9c 15 93 bd 21 74 cb bc 0c 1a 72 3c
       -0.0016652524 -0.07181856 -0.024835648 0.014776718
000080 ca cc 49 3c ad ba c4 3b 37 44 9e 3c 9e 96 a1 bd
       0.012316892 0.006003699 0.019319637 -0.07890056
000090 0f cd 7c 3e 6a d5 e0 bc 7a 58 66 bd 39 7e 24 bd
       0.24687599 -0.027445514 -0.05623672 -0.040159438
0000a0 75 00 89 bd 08 31 34 bc c8 aa 4a 3d 02 84 82 3d
       -0.0668954 -0.010998018 0.049479276 0.06372835
0000b0 f3 50 d6 be 76 5b b4 bc 3e c7 9d 3d dc fa 1c bd
       -0.41858634 -0.022016268 0.07704018 -0.038325176
0000c0 d4 4a 8f bd 14 0a 86 3b bd dc 4d bd 92 e8 91 bd
       -0.06996694 0.004090557 -0.05025934 -0.071244374
0000d0 1e 3f 52 3d 1d 09 7f bd 88 db e7 3e f2 b7 1a bc
       0.051329724 -0.06226455 0.45284677 -0.00944327
0000e0 69 42 5e bb f8 95 dd 3b 7c 0f a7 bd 8d 09 60 3e
       -0.0033914095 0.0067622624 -0.0815725 0.21878643
0000f0 41 3e c3 3e 10 a1 9e 3c e0 8f cb be 69 b7 2b bd
       0.38133433 0.01936391 -0.39758205 -0.04192296
000100 9a a2 22 bc 12 89 91 3e e0 07 98 bd cd 07 71 bd
       -0.009926463 0.2842489 -0.07423377 -0.05884533
000110 8d 6e 85 bc e3 6a 7a bd 78 34 e2 bc 2b 07 ef be
       -0.016288066 -0.06113709 -0.02761291 -0.46685156
000120 8c c8 06 3d d0 6f 09 3d 33 26 56 3d b8 27 11 3e
       0.0329061 0.0335539 0.052282523 0.14175308
000130 48 e8 76 bd 46 87 86 3d 18 ea 87 3d 63 ad 9b bd
       -0.060280114 0.0656877 0.06636447 -0.0760143
000140 2f d0 c1 be 28 cf b3 bd f3 62 2e bd 93 eb 48 3e
       -0.37854144 -0.08779746 -0.042574834 0.19621114
000150 6c ab 6e bc 7d 7a 88 3c ec fe 53 bd 09 32 c2 3c
       -0.014567237 0.01665997 -0.051756784 0.0237055
000160 d4 1e 4e bd 0e 2a 95 3d 59 f9 4b 3d 66 cd f8 3e
       -0.05032237 0.07283412 0.049798343 0.48594207
000170 5f 79 00 bd 72 52 84 bd c9 ad 72 bd 26 04 82 bc
       -0.03136575 -0.06461038 -0.059247766 -0.015871119
000180 fe 60 ab bc d8 db 85 bd 4c f9 40 3d 0e d4 60 3b
       -0.020920273 -0.065360725 0.047112748 0.0034306082
000190 24 e7 9c 3e c5 ce 22 3e 3e ea 3c 3c 19 a6 c7 3b
       0.30645096 0.15899189 0.011530457 0.0060927984
0001a0 a2 cd ef 3c 31 88 fb bc e6 ca a9 bd 18 d6 82 3d
       0.029272858 -0.03070459 -0.08290653 0.063884914
0001b0 22 b6 55 bf 41 06 38 3d d4 07 ef bd 5d 32 73 3d
       -0.8348104 0.04492784 -0.11671415 0.059374202
0001c0 45 a2 ef 3d 28 7c f5 bc 0b d6 ca be 82 32 40 bd
       0.11700872 -0.029966429 -0.39616427 -0.046923168
0001d0 84 9c a3 3e 63 b1 a4 3e 4a 64 09 3d 09 85 7d bc
       0.3195535 0.32166585 0.03354291 -0.015473613
0001e0 c2 0f 36 3e 6b 2f a7 bd db 57 97 bd 7a de 05 3f
       0.17779449 -0.08163341 -0.07389804 0.522926
0001f0 bb 7b 9b bd 53 6e 07 bd f6 4c 49 bd 50 2a f4 be
       -0.07591959 -0.033064198 -0.04914566 -0.47688532
000200 aa 0c 87 bd 6c d1 00 bd c6 0c 95 3e 13 54 a1 3e
       -0.06594212 -0.03144972 0.29111308 0.31509456
000210 9c 2a d4 bc d3 d0 3a bd 05 43 35 bd 66 57 58 bd
       -0.025899224 -0.045609307 -0.044253368 -0.052817725
000220 21 fd d1 3c bd 42 8a b9 75 0a ca 3c c8 bc eb be
       0.025633397 -0.00026371135 0.02466319 -0.46042466
000230 91 88 17 3d 71 ab 7b bd b9 50 09 bf c5 fa 7d 3d
       0.036995474 -0.061442796 -0.536388 0.06200673
000240 2a d2 2d bd 8c ef 92 3c 24 1b 45 3e 94 fc e6 3c
       -0.042436756 0.01793649 0.19248635 0.02819661
000250 c3 ad 66 3d df d5 a2 3c 39 2b 84 bd fb b1 39 3d
       0.056318056 0.019877372 -0.064535566 0.04533575
000260 00 31 87 3b bd 43 aa 3e 34 b2 ac 3c 17 de 10 bf
       0.0041257143 0.33254805 0.021081068 -0.5658888
000270 b7 af f9 bc 83 b6 95 3d 2c ad 7f 3c 4f 3f 0a 3c
       -0.030479295 0.07310202 0.015605252 0.0084379455
000280 cd bd 95 bd 00 48 5d 3c f6 19 90 3d b7 d4 62 bd
       -0.07311592 0.013505936 0.07036202 -0.055378642
000290 59 78 c6 bd 15 1c c5 3c b0 22 79 bd 68 c6 6d bd
       -0.09690923 0.024061242 -0.060824096 -0.058050543
0002a0 e7 af 83 3c dd 8d fb bc 32 88 45 3d 5a cc 29 bd
       0.016075088 -0.030707294 0.04822559 -0.04145465
0002b0 06 12 83 3e 14 e9 7a 3a f1 e2 0c bd 53 8c 6a bd
       0.25599688 0.00095714745 -0.034396116 -0.05726273
0002c0 29 2d 8f 3d ef 25 5b 3d 33 a3 6d bd 42 62 88 bd
       0.069910355 0.053502973 -0.058016967 -0.06659366
0002d0 64 7f 4d 3d e7 ed 3b 3c 75 61 03 bd d2 bd 12 3c
       0.050170317 0.011470295 -0.032075364 0.0089563895
0002e0 51 89 b8 3c 11 34 40 3d a0 0e 8f 3d e7 fd e6 be
       0.022526415 0.046924654 0.06985211 -0.45115587
0002f0 b2 7e 49 3d 93 3e 43 3d 4b 94 58 3d 4e 47 7b bc
       0.04919309 0.047667097 0.0528758 -0.015336825
000300 48 fe 57 3d 8b f5 18 bf c1 8c 5b bd 7c 3a 1c bd
       0.052732736 -0.5974967 -0.05360103 -0.038141713
000310 20 69 82 3c 6e c7 56 3d 63 bc f9 bb 1a e8 12 3e
       0.015919268 0.052436285 -0.0076213344 0.14346352
000320 6c 13 1a 3d c9 ff f0 3c 00 82 0f bd 05 99 2f bf
       0.03761618 0.029418843 -0.035036087 -0.68592864
000330 7d 4c 89 3c d2 73 e2 b8 9b c4 84 3c 55 da 6d 3d
       0.016760105 -0.00010798093 0.01620703 0.058069546
000340 91 4d dc be 17 b9 0e bf 86 7c 2b bd 33 12 da be
       -0.43027928 -0.55751175 -0.0418668 -0.4259201
000350 fc 39 82 3d 89 e3 79 bd 53 94 1f 3d af 88 87 bc
       0.06358716 -0.06100801 0.038959812 -0.016544668
000360 f8 cc 22 bd a9 5a eb 3c e4 0f 9f bd 10 60 c3 be
       -0.039746255 0.028729754 -0.07766703 -0.38159227
000370 4b 54 22 bd f5 c0 d6 3c 39 7a 94 3e 8a 3a 8c 3c
       -0.03963117 0.026215056 0.28999498 0.017117757
000380 c3 05 a8 3d 7a 34 74 3d 19 bb a8 3e b4 b1 54 3d
       0.08204224 0.059620358 0.32955244 0.051927283
000390 ef 68 29 3d 98 bd 67 3e 69 86 d3 bc 7c f5 81 ba
       0.041359838 0.22630918 -0.025820928 -0.0009915079
0003a0 b6 32 aa 3a 24 ee 84 3d 31 52 66 3d 34 d8 04 bc
       0.0012985084 0.06490734 0.056230728 -0.0081081875
0003b0 ea 04 9b bc 29 ad 57 bd 53 c5 99 3e 74 04 6f bc
       -0.018923242 -0.052655373 0.3003336 -0.014588464
0003c0 21 3c 98 3d 25 5b f5 3a 98 91 e4 3e 23 9f ea 3c
       0.07433344 0.001871918 0.4464233 0.028640335
0003d0 7c 64 d5 bd 5a a9 c2 be e4 b9 07 3d 92 a9 74 bd
       -0.104195565 -0.3801983 0.033136263 -0.059732027
0003e0 ca 36 2a bc 00 c1 88 bd 58 85 04 bd c4 1b d1 be
       -0.010389039 -0.06677437 -0.03235373 -0.40841496
0003f0 04 fb 9a bd 7d 46 90 3c aa ac 0e bd 76 b5 78 be
       -0.07567409 0.017611736 -0.034832634 -0.24287972

fc2.bias f4 [4]
000000 ed af 2b 3d 26 df a3 3c 53 aa 3f be a3 22 86 3c
       0.041915823 0.020003866 -0.18717317 0.016373938
