cnn saved models/cnn_epoch13.pt (torch, 609343 bytes, 16 tensors)

conv1.weight f4 [32, 1, 3, 3]
0	0x3ea86c26	0.3289501
1	0x3eab88da	0.33502847
2	0xbe75707b	-0.23968689
3	0xbebb1ab5	-0.36543813
4	0xbe89ca92	-0.2691236
5	0xbe5209cc	-0.2051155
6	0x3d8b7dd9	0.06811113
7	0x3c414e00	0.011798382
8	0x3ea37210	0.3192296
9	0x3f247129	0.6423517
10	0xbe6aad8b	-0.22917764
11	0x3efee082	0.4978066
12	0xbdb3d2db	-0.08780452
13	0xbded0291	-0.11572755
14	0xbe522d54	-0.20525104
15	0x3d37f32c	0.04490964
16	0x3e8a3e06	0.27000445
17	0xbe01ebfc	-0.12687677
18	0x3da93942	0.08262874
19	0x3bb72b81	0.005589903
20	0x3ebef8f7	0.3729932
21	0xbe8a123f	-0.26967046
22	0xbefa789d	-0.48920146
23	0x3da4a54d	0.08039341
24	0x3e6a2f63	0.22869639
25	0x3e8d30e3	0.2757636
26	0xbeb66a20	-0.35627842
27	0xbdb72521	-0.08942629
28	0x3ec05acd	0.37569275
29	0x3e8a78e9	0.27045372
30	0x3daad052	0.08340515
31	0xbe60e30d	-0.21961613
32	0xbed8c5a1	-0.4233828
33	0xbdeabcb4	-0.114617735
34	0x3e9bccb2	0.30429608
35	0xbe0589bc	-0.13040823
36	0xbdb4aaed	-0.08821664
37	0xbe4c23f9	-0.19935597
38	0x3e42df53	0.19030504
39	0xbe924fa9	-0.285764
40	0x3e6f7bc9	0.23387064
41	0x3df47bed	0.119376995
42	0x3e97d5fe	0.2965545
43	0x3de33d5a	0.11095686
44	0xbe9b9274	-0.30385172
45	0x3e39379d	0.18087621
46	0xbeae5bef	-0.34054515
47	0xbed2ad4e	-0.41147846
48	0x3e265f75	0.16247351
49	0x3e9778e5	0.29584423
50	0xbd1ef946	-0.038811944
51	0xbe9e3c40	-0.30905342
52	0xbda27e9e	-0.079343066
53	0xbf0a22a9	-0.5395914
54	0x3e0eebec	0.13957185
55	0xbe586189	-0.21130957
56	0xbe95c7c8	-0.29253983
57	0x3e07a1ee	0.13245365
58	0x3e88d3fe	0.26724237
59	0x3ecef49d	0.40421
60	0xbecd0820	-0.4004526
61	0x3cdb9514	0.026804484
62	0xbd9cb7e3	-0.07652261
63	0x3eaf7c59	0.34274557
64	0xbe8cdec7	-0.27513716
65	0xbea3c332	-0.3198486
66	0x3e9b941a	0.3038643
67	0xbdc09ae2	-0.094045416
68	0xbeb1ca9e	-0.34724897
69	0x3e933b6c	0.28756273
70	0xbd68e6db	-0.056860786
71	0x3e218978	0.15775096
72	0x3d8fcec2	0.07021858
73	0xbd94a0b4	-0.07257214
74	0xbf34d127	-0.7063164
75	0xbd1ac781	-0.037787918
76	0x3b0d2ff9	0.0021543487
77	0x3d2ba9b9	0.041909907
78	0x3e80b4a9	0.25137833
79	0x3e01705c	0.12640518
80	0xbb0a8881	-0.0021138492
81	0x3e516324	0.20447975
82	0xbea40a0e	-0.3203892
83	0x3ee927ea	0.45538265
84	0xbe9743f5	-0.29544035
85	0xbd02d27d	-0.03193902
86	0xbeec5b78	-0.46163535
87	0x3e64bfdb	0.22338812
88	0x3e118db3	0.1421421
89	0xbe012ba1	-0.126143
90	0xbc8e1f3b	-0.017348876
91	0xbe6d2b93	-0.23161153
92	0xbd92b647	-0.07163673
93	0xbe724c1b	-0.23661844
94	0x3dfe84ca	0.12427671
95	0xbee89f3a	-0.4543398
96	0x3e9654de	0.29361624
97	0x3eaefc1e	0.34176725
98	0xbd121d4d	-0.035672475
99	0xbe1d8670	-0.15383315
100	0x3e8248fc	0.25446308
101	0xbe3bbaf3	-0.18333034
102	0x3dd85502	0.10563089
103	0x3e87dd9e	0.26536268
104	0xbe391a51	-0.18076445
105	0x3edbd48e	0.42935604
106	0xbe1c8c9e	-0.15288016
107	0xbe5d995e	-0.21640536
108	0x3ee349e3	0.4439231
109	0x3e17ff43	0.14843468
110	0xbc8dbb6e	-0.017301288
111	0x3e3ec0d6	0.18628249
112	0xbe3ed018	-0.18634069
113	0xbe26d5aa	-0.16292444
114	0xbe47de7e	-0.19518468
115	0xbd2b3b74	-0.041804746
116	0xbe88d815	-0.26727358
117	0xbed7e07b	-0.42163453
118	0x3cc9204f	0.024551539
119	0xbeca1661	-0.394702
120	0xbe7a16cd	-0.2442276
121	0x3de9e807	0.11421209
122	0x3d4b9b8d	0.04970889
123	0x3c3235de	0.010877101
124	0x3e1022e3	0.14075808
125	0x3eb471be	0.35243028
126	0x3ec768a5	0.38947025
127	0xbebfbb6b	-0.37447676
128	0xbd3f0705	-0.046637554
129	0x3e80aced	0.25131932
130	0x3e35ee69	0.17766728
131	0xbee7da21	-0.45283607
132	0x3eb44be0	0.35214138
133	0x3d790280	0.0607934
134	0xbec28a11	-0.3799596
135	0x3c30a7cb	0.010782192
136	0x3c9b355b	0.01894634
137	0xbf1161fa	-0.56790125
138	0x3dd65cb5	0.10466901
139	0xbeb45d03	-0.35227212
140	0xbdc5b524	-0.096536905
141	0x3f0282ed	0.50981027
142	0x3ded1c19	0.11577625
143	0xbe07c43a	-0.13258448
144	0x3e952fed	0.29138127
145	0x3e29ae79	0.16570462
146	0xbead89e6	-0.3389427
147	0xbdcb8d9b	-0.099391185
148	0xbe4ef24f	-0.20209621
149	0x3ecf1d01	0.40451816
150	0xbee7c92f	-0.45270678
151	0x3ecf5606	0.40495318
152	0xbd8e2190	-0.06939995
153	0xbe6cd169	-0.23126759
154	0xbd023c55	-0.03179582
155	0x3dd4efc4	0.10397294
156	0x3d943b0e	0.07237826
157	0xbefd2b5a	-0.49447137
158	0xbec72976	-0.3889882
159	0x3e3d552a	0.18489519
160	0x3ebeabb9	0.3724039
161	0x3e9e0086	0.30859774
162	0x3de5b61f	0.112163775
163	0x3ecfc9e2	0.40583712
164	0x3db47dc2	0.08813049
165	0x3e572417	0.21009861
166	0xbe46400c	-0.1936037
167	0xbdb50cf1	-0.08840359
168	0xbd943e45	-0.072384395
169	0xbec4650e	-0.3835835
170	0xbc6ce230	-0.014458224
171	0x3eba1d76	0.36350602
172	0x3e5fb9c3	0.21848206
173	0x3cdccb2b	0.026952347
174	0xbf17a6f4	-0.59239125
175	0xbed33e46	-0.41258448
176	0x3d01b314	0.031664923
177	0x3e4b2d2d	0.19841452
178	0x3dfe3ef7	0.12414353
179	0x3e3ee411	0.18641688
180	0x3d898d5b	0.067164145
181	0xbee1a32f	-0.44069812
182	0x3ecdd194	0.40198958
183	0xbe974f00	-0.2955246
184	0xbdec2aa4	-0.115315706
185	0x3e55be79	0.20873441
186	0xbe31ccb6	-0.17363247
187	0xbcaa16e5	-0.02076287
188	0x3e5be2a1	0.21473171
189	0xbe9d3066	-0.30700988
190	0x3ea1bc97	0.31589195
191	0x3ecdb491	0.40176824
192	0x3e12f24f	0.14350246
193	0xbdc8a0f7	-0.097963266
194	0xbe3cac60	-0.18425131
195	0x3e2295d0	0.15877461
196	0xbdab00cd	-0.08349762
197	0xbeccd6d3	-0.40007648
198	0x3dde1189	0.10843188
199	0xbe1cb840	-0.15304661
200	0xbe51aece	-0.20476839
201	0x3ed12dc3	0.40855226
202	0xbde246c7	-0.11048656
203	0xbdfd5172	-0.1236905
204	0xbef198c0	-0.47186852
205	0x3e8c4795	0.27398363
206	0x3ea71097	0.32629845
207	0xbe1b5929	-0.1517073
208	0xbccc3e23	-0.024931973
209	0x3d855df5	0.065120615
210	0xbd467963	-0.048455607
211	0xbe6801e6	-0.22656974
212	0x3eb15487	0.34634802
213	0xbeafc3d2	-0.34329087
214	0xba2a4275	-0.0006494888
215	0x3ee490a9	0.44641617
216	0xbeaa7eab	-0.33299765
217	0xbddd8439	-0.10816235
218	0x3ea44b48	0.32088685
219	0xbedf522e	-0.43617386
220	0xbdc04775	-0.09388629
221	0x3e807566	0.25089568
222	0x3baa3a8f	0.005194969
223	0x3ea856c1	0.32878688
224	0x3d17eb2c	0.03708951
225	0x3e61b777	0.22042643
226	0xbe8de338	-0.27712417
227	0x3d53a388	0.051669627
228	0x3e932853	0.28741702
229	0xbf1a117e	-0.6018294
230	0x3eab38cb	0.33441767
231	0x3e2ad401	0.16682436
232	0xbec3b9d0	-0.382277
233	0x3e750647	0.23928176
234	0x3dab2bb2	0.083579436
235	0xbefd5ae8	-0.49483418
236	0xbe8d7213	-0.27626094
237	0x3e7840db	0.2424349
238	0xbecb9f59	-0.3977001
239	0xbe1ad393	-0.15119772
240	0xbdd85f04	-0.10564998
241	0x3ec949ce	0.3931412
242	0x3e075a4c	0.1321804
243	0xbefda911	-0.4954305
244	0xbec0f1ed	-0.37684575
245	0x3e036589	0.12831701
246	0x3d8bf2c3	0.068334125
247	0xbaec5aba	-0.001803241
248	0xbdada5fc	-0.08478925
249	0x3e2f187a	0.17099181
250	0xbde4faf3	-0.11180677
251	0x3eab7b8e	0.33492702
252	0xbe9ddff0	-0.30834913
253	0x3e880d3d	0.265726
254	0x3ef753c8	0.48306108
255	0xbeb492da	-0.3526829

conv1.bias f4 [32]
0	0x3e8aa660	0.2708006
1	0x3ec6f18f	0.3885617
2	0x3df76a11	0.120807774
3	0xbea27d02	-0.31735998
4	0x3f1f8e5c	0.623266
5	0x3ea97562	0.33097368
6	0x3e7cb510	0.24678445
7	0x3d5d3531	0.054005805
8	0x3eb5d1b1	0.35511544
9	0x3ed165ec	0.40898073
10	0x3e452bca	0.19254985
11	0x3f1a611f	0.60304445
12	0x3eb8f567	0.36124727
13	0x3e725d9d	0.23668523
14	0xbe835710	-0.2565236
15	0xbe328877	-0.1743487
16	0x3d99d3c9	0.07511098
17	0x3eeecb58	0.46639514
18	0xbf4c79ce	-0.7987336
19	0x3d2b0fb7	0.041763034
20	0x3e78e76d	0.24307032
21	0xbe17a9d3	-0.14810877
22	0x3e855812	0.26043755
23	0xbe094c4a	-0.13408008
24	0x3f154251	0.58304316
25	0xbea0e6ca	-0.31426078
26	0x3c9086c6	0.01764239
27	0x3cbed950	0.023296982
28	0xbca6d044	-0.02036298
29	0xbd4b6cb6	-0.04966422
30	0xbea42f11	-0.3206716
31	0xbb97ee8d	-0.0046365918

BN1.weight f4 [32]
0	0x3faf3750	1.3688755
1	0x3ebdcbe5	0.37069622
2	0x3f922f18	1.1420622
3	0x3f5a4d5c	0.8527429
4	0x3f697a67	0.91202396
5	0x3f44d6f6	0.76890504
6	0x3f92d2eb	1.1470617
7	0x3f403ba5	0.7509101
8	0x3f6d287a	0.9263989
9	0x3f9e89f8	1.2385855
10	0x3f61cb07	0.8820042
11	0x3ed1983e	0.40936464
12	0x3f792320	0.9731922
13	0x3f61f70b	0.8826758
14	0x3f413629	0.75473267
15	0x3f82b162	1.0210383
16	0x3f60033f	0.87504953
17	0x3edaaf58	0.42711902
18	0x3f2a8d6c	0.6662204
19	0x3f4537d7	0.7703833
20	0x3f7beb66	0.98406065
21	0x3f6225e9	0.88339096
22	0x3f87ca5d	1.0608631
23	0x3f05713a	0.52125895
24	0x3f257af9	0.64640766
25	0x3fa0681c	1.2531772
26	0x3f8fd208	1.1235971
27	0x3f4264b7	0.7593493
28	0x3f7ec638	0.9952121
29	0x3f2670cf	0.6501588
30	0x3f5fca59	0.87418133
31	0x3f5a70fa	0.8532864

BN1.bias f4 [32]
0	0xbec5add2	-0.38609177
1	0xbe334d89	-0.17510046
2	0xbe6150c3	-0.22003464
3	0xbdd2ca8c	-0.10292539
4	0xbf8392bc	-1.0279155
5	0xbea86970	-0.32892942
6	0xbe1af37d	-0.15131946
7	0xbda0570d	-0.078291036
8	0xbf01a699	-0.5064483
9	0xbf26d53c	-0.6516912
10	0xbee0e199	-0.43922117
11	0xbe2a7cc8	-0.16649163
12	0xbbdbb3c5	-0.00670478
13	0xbed76f37	-0.42077038
14	0xbe04ac96	-0.12956461
15	0xbf379136	-0.7170595
16	0xbf58b450	-0.84650135
17	0xbda51f22	-0.08062579
18	0xbf111ae5	-0.5668166
19	0xbf16c302	-0.5889131
20	0xbef7d197	-0.48402092
21	0xbed20ff9	-0.4102781
22	0xbfa00646	-1.2501915
23	0xbd7ad5ca	-0.06123904
24	0xbda9a04f	-0.082825296
25	0xbebc27d1	-0.36749128
26	0xbf46235e	-0.77397716
27	0xbdb69c9d	-0.0891659
28	0xbdc332ad	-0.0953115
29	0xbd073f6c	-0.03301947
30	0xbf345184	-0.7043688
31	0xbe33b501	-0.17549516

BN1.running_mean f4 [32]
0	0x3e881f73	0.26586494
1	0x3f0496bf	0.5179252
2	0x3dd7abc7	0.10530811
3	0xbe9c7d98	-0.3056457
4	0x3f2309f3	0.63687056
5	0x3e070e05	0.13188942
6	0x3e7e5918	0.24838674
7	0x3d4e4e3b	0.050367575
8	0x3e956055	0.29175058
9	0x3ebb7b07	0.366173
10	0x3e0994b1	0.13435628
11	0x3f22f68b	0.63657445
12	0x3eb1253f	0.3459873
13	0x3e27b1f2	0.16376474
14	0xbe85b35e	-0.2611341
15	0xbe807f29	-0.25097016
16	0x3dc698ca	0.09697111
17	0x3ee11589	0.43961743
18	0xbf48b665	-0.7840331
19	0x3d854d9a	0.06508942
20	0x3e581a72	0.21103838
21	0xbe1f8eb2	-0.15581778
22	0x3e8a3da9	0.27000168
23	0xbdfeeb83	-0.12447264
24	0x3f131d44	0.5746653
25	0xbe9f616f	-0.31129023
26	0xbdc33a1e	-0.09532569
27	0xbd514d78	-0.05109927
28	0xbd4fbe3c	-0.05071853
29	0xbdf84a5b	-0.12123557
30	0xbe9f1135	-0.31067815
31	0xbd0de12b	-0.034638565

BN1.running_var f4 [32]
0	0x3b388fc4	0.0028161863
1	0x3cd640b5	0.026153902
2	0x3b5a8367	0.0033342482
3	0x3b61e7d2	0.003447045
4	0x3a488fd1	0.0007650825
5	0x3d5c439e	0.053775422
6	0x3b1b24a0	0.0023672953
7	0x3b8672a5	0.004103022
8	0x3c3cc307	0.0115211075
9	0x3ba774e1	0.0051103686
10	0x3c0b9afc	0.008520838
11	0x3b33884a	0.0027394467
12	0x3bdb87d4	0.0066995416
13	0x3c714039	0.0147247845
14	0x3b6a8aed	0.0035788373
15	0x3c657a98	0.014006279
16	0x3ab14bbf	0.0013526602
17	0x3bba5cc1	0.0056873267
18	0x3bbffbaf	0.0058588604
19	0x3b969fb3	0.0045966743
20	0x3b46dc4f	0.0030343716
21	0x3b5afd35	0.0033415083
22	0x3ac3d14b	0.0014939694
23	0x3b191ecd	0.0023364306
24	0x3b499672	0.0030759838
25	0x3ade8de6	0.0016979545
26	0x3cb7b45a	0.022424866
27	0x3c5a783f	0.013334333
28	0x3c0064e0	0.0078365505
29	0x3c383154	0.0112422295
30	0x399f0137	0.00030327748
31	0x3c3e8773	0.011628973

conv2.weight f4 [64, 32, 3, 3]
0	0xbe020b2c	-0.12699574
1	0x3e1acf24	0.1511808
2	0xbd688f5f	-0.056777354
3	0xbcc7b69c	-0.024379067
4	0xbba7f1f8	-0.0051252805
5	0xbe5a19af	-0.2129886
6	0xbd171627	-0.03688636
7	0x3dac8fa1	0.084258325
8	0xbdcc7c6c	-0.09984669
9	0xbccd820e	-0.025086429
10	0x3ce0a6da	0.027423311
11	0x3dae7c79	0.08519835
12	0xbe899204	-0.26869214
13	0xbeaedd1f	-0.34153077
14	0xbe8bf271	-0.27333406
15	0x3e3b79d3	0.18308191
16	0x3e1f0213	0.15528135
17	0x3e3dd5e6	0.18538627
18	0x3d228a37	0.039682593
19	0x3d69e324	0.057101384
20	0x3db0254b	0.08600863
21	0xbdc6ae2b	-0.09701189
22	0xbccfc54c	-0.025362633
23	0xbd768b63	-0.060191523
24	0xbd7c794a	-0.061639108
25	0xbdb14080	-0.086548805
26	0x3d725f7e	0.0591731
27	0xbebbd2b2	-0.36684185
28	0x3caf045b	0.021364382
29	0x3dc32652	0.095287934
30	0xbee68262	-0.4502135
31	0x3d4bcec3	0.04975773
32	0xbe63626c	-0.22205514
33	0x3a0858a1	0.0005201195
34	0x3e9e97ab	0.30975088
35	0x3e2643bc	0.16236776
36	0x3ea14583	0.31498346
37	0xbe0d2c24	-0.1378637
38	0xbdeb7813	-0.11497512
39	0xbc2ce4f2	-0.010552632
40	0xbe5fd18e	-0.21857283
41	0xbe1bd08b	-0.15216272
42	0x3b0ba180	0.0021305978
43	0xbdea285e	-0.11433481
44	0xbe03d944	-0.12875849
45	0xbe868f6b	-0.26281294
46	0xbda2e828	-0.079544365
47	0xbe2661ab	-0.16248195
48	0xbe82bcd0	-0.25534678
49	0xbdfe25df	-0.12409567
50	0xbe15bf83	-0.14623837
51	0x3e0e9f70	0.13928008
52	0x3e397fd5	0.1811517
53	0x3e4d47cc	0.2004692
54	0x3c97e3ac	0.01854118
55	0xbd546dd5	-0.051862556
56	0xbe2311e0	-0.15924788
57	0x3ce2b3e8	0.027673677
58	0x3dbee2eb	0.09320625
59	0x3e4286dc	0.18996757
60	0xbe685706	-0.22689447
61	0xbe785bb4	-0.24253732
62	0xbe4e8a3c	-0.2016992
63	0x3c854c21	0.016271653
64	0x3e0e8add	0.1392016
65	0x3d9a6b56	0.07540004
66	0xbd7e8e45	-0.062147398
67	0xbcd86d55	-0.026419321
68	0xbe6af5f1	-0.22945382
69	0x3e3b03a1	0.18263103
70	0x3e35d448	0.1775676
71	0x3e658bf3	0.22416668
72	0xbe836102	-0.2565995
73	0xbd53799e	-0.051629655
74	0xbe57a63a	-0.21059504
75	0xbe5c5527	-0.21516858
76	0x3d75f823	0.060051095
77	0xbe4939b9	-0.19650926
78	0x3dbf8e35	0.09353296
79	0x3e079107	0.13238917
80	0xbd41a7e4	-0.047279254
81	0xbed66030	-0.4187026
82	0xbf0093d2	-0.50225556
83	0xbf0fd2ef	-0.56181234
84	0x3e48818e	0.19580671
85	0x3e370337	0.1787232
86	0x3de6926c	0.112583965
87	0xbeb5f2c2	-0.35536772
88	0xbee1e42a	-0.44119388
89	0xbf110f16	-0.56663644
90	0x3ebbbf40	0.3666935
91	0x3e8ec88f	0.2788739
92	0x3e30691c	0.17227596
93	0xbdf16e11	-0.117885716
94	0xbc7ee61b	-0.015557791
95	0xbe17f7c8	-0.14840615
96	0x3d528a88	0.051401645
97	0x3d706202	0.058687218
98	0x3ca7c111	0.020477803
99	0x3ca90ee6	0.020636987
100	0x3db8f9cf	0.09032022
101	0x3d1d01c2	0.038331755
102	0xbde781c3	-0.11304047
103	0xbc7e1405	-0.015507703
104	0xbe5f5aa8	-0.21811926
105	0x3e50c903	0.2038918
106	0x3d4f78ce	0.050652318
107	0xbd9a1b2a	-0.075247124
108	0x3d866be4	0.06563547
109	0x3e0f1274	0.13971883
110	0xbd7795df	-0.060445663
111	0x3e15f04e	0.1464245
112	0xbd088797	-0.033332434
113	0xbf0f8d89	-0.5607534
114	0xbdcfd4b0	-0.10147989
115	0x3e00685d	0.12539811
116	0x3e3d33bd	0.18476768
117	0x3dddac07	0.10823827
118	0x3cd300c0	0.025757194
119	0xbdfafcb0	-0.122552276
120	0xbe10e8d1	-0.14151312
121	0x3d304090	0.04303032
122	0xbe35d6f5	-0.17757781
123	0xbca19401	-0.019723894
124	0x3db8daf8	0.0902614
125	0x3dea499e	0.114398226
126	0xbca831bd	-0.02053153
127	0x3d17cee2	0.037062533
128	0xbd21ad81	-0.039472107
129	0x3d99579e	0.07487415
130	0x3c581bc3	0.013190213
131	0xbeb61c72	-0.35568577
132	0xbd382818	-0.04496011
133	0x3d3c8eb4	0.04603453
134	0xbe3121bc	-0.17298025
135	0xbea1ea47	-0.31624052
136	0xbda5549d	-0.08072779
137	0xbef2ddcd	-0.47434846
138	0xbc32ce5d	-0.010913459
139	0x3d99ce43	0.075100444
140	0x3d19599e	0.03743898
141	0x3e43409b	0.19067614
142	0x3d87a5a5	0.06623391
143	0xbe69e1be	-0.2284002
144	0xbef4ffa4	-0.47851288
145	0xbeb2a038	-0.34887862
146	0xbec64a81	-0.38728717
147	0x3e82bc60	0.25534344
148	0x3e6d0901	0.23147966
149	0x3d9b4ee5	0.07583407
150	0xbdefdd75	-0.117121615
151	0xbd9b7e4f	-0.07592451
152	0x3e879045	0.26477256
153	0x3edd18d6	0.4318301
154	0x3e9c4fda	0.30529672
155	0x3ecb25ae	0.39677185
156	0xbd3af3ce	-0.045642667
157	0xbc9d5d2a	-0.019209463
158	0x3da7a245	0.08185247
159	0x3d951559	0.07279462
160	0x3dd12eab	0.10213979
161	0x3e0836ec	0.13302201
162	0xbe6a972c	-0.2290923
163	0xbddf9415	-0.10916916
164	0x3e20b4f6	0.15694031
165	0x3cf6aee8	0.030112699
166	0xbea9d4d5	-0.3317019
167	0xbeefc252	-0.46827942
168	0x3def6698	0.1168949
169	0x3dee9632	0.11649741
170	0x3e3270b3	0.17425804
171	0xbe9e7574	-0.30948985
172	0xbda28ebb	-0.0793738
173	0xbcfc1469	-0.030771451
174	0xbcfb39eb	-0.030667266
175	0xbdae6806	-0.08515935
176	0xbe20abae	-0.1569049
177	0x3e2dd868	0.16977084
178	0x3df65b9c	0.12029192
179	0x3e8a869a	0.27055818
180	0x3eb012df	0.34389398
181	0x3e26c41e	0.1628575
182	0xbd557d94	-0.052121714
183	0xbe9eb66e	-0.30998558
184	0xbdc0fc82	-0.09423162
185	0xbe92dada	-0.28682595
186	0xbea28059	-0.31738546
187	0x3c633fdb	0.013870205
188	0xbebbd3ac	-0.3668493
189	0xbdb3b0b0	-0.08773935
190	0x3d012d3c	0.03153728
191	0x3e59984d	0.21249504
192	0xbee31b9f	-0.4435701
193	0xbe94cb5c	-0.290614
194	0xbed0ac29	-0.40756348
195	0xbdc8ab8a	-0.097983435
196	0x3e617534	0.22017366
197	0x3e2ba625	0.16762598
198	0xbdae9a35	-0.085255064
199	0x3d60395d	0.054742206
200	0x3ddf9023	0.10916164
201	0x3de25167	0.110506825
202	0xbc0ab344	-0.008465592
203	0xbd7209be	-0.059091322
204	0xbd7a3b94	-0.061091974
205	0xbe347694	-0.17623359
206	0x3d32cd24	0.04365267
207	0x3e0d3048	0.13787949
208	0x3d6f141e	0.058368795
209	0x3dfee5e2	0.124461904
210	0xbe16690b	-0.14688508
211	0xbd7cbf66	-0.06170597
212	0xbe463a1c	-0.19358104
213	0xbe93c135	-0.28858343
214	0xbd84401f	-0.06457543
215	0xbe6d68df	-0.23184536
216	0x3e1b1b9f	0.15147255
217	0x3c70d999	0.014700317
218	0x3e3fa8e7	0.18716775
219	0xbe56f7ec	-0.20993012
220	0xbe20a831	-0.1568916
221	0xbe042a13	-0.12906675
222	0x3bcc401c	0.0062332284
223	0x3e184e64	0.14873654
224	0x3e86fdec	0.26365602
225	0x3e25d26a	0.16193548
226	0xbcf4ad1b	-0.0298677
227	0xbcd28c36	-0.025701623
228	0x3da42a66	0.08015899
229	0xbd79c7cd	-0.06098156
230	0x3bc7a8a1	0.0060931
231	0xbe9da215	-0.3078772
232	0xbef4d518	-0.47818828
233	0xbf0ed74a	-0.55797255
234	0xbf4b8e35	-0.79513866
235	0xbf58e64d	-0.8472641
236	0xbf6579b3	-0.89638823
237	0xbdf275dc	-0.11838886
238	0xbd48e76c	-0.049048826
239	0xbcf7b3f9	-0.030237185
240	0xbed11d5c	-0.40842712
241	0xbf0096cd	-0.50230104
242	0xbf00c617	-0.5030226
243	0x3d036237	0.032076087
244	0xbe0884c1	-0.13331892
245	0xbed35a1c	-0.41279685
246	0xbe60d775	-0.2195719
247	0xbe19074e	-0.14944193
248	0xbd8be8ea	-0.06831534
249	0x3d5f2980	0.054482937
250	0x3e2a4f5f	0.1663184
251	0x3e5ef603	0.21773534
252	0x3e0135e3	0.12618212
253	0x3e2d0b9b	0.16898958
254	0x3f053fe2	0.520506
255	0xbde80088	-0.11328226

conv2.bias f4 [64]
0	0xbb8f17ec	-0.0043668654
1	0xbb3e8d12	-0.0029075784
2	0xbc4f5daf	-0.012656613
3	0xbd093bc8	-0.033504277
4	0x3da8e614	0.08247009
5	0xbb9913eb	-0.004671564
6	0x3d26e2ae	0.040743522
7	0x3d0937e6	0.033500575
8	0x3b99b2aa	0.004690488
9	0xbd4d263c	-0.05008529
10	0x3ddeed83	0.108851455
11	0x3cca27bf	0.024677156
12	0x3d69c1ea	0.057069696
13	0xbe1ad1c1	-0.15119077
14	0x3d04057f	0.032231804
15	0xb9fd624f	-0.00048329166
16	0xb9e9f088	-0.00044620433
17	0xbe196581	-0.14980127
18	0xbd4d8ec9	-0.050185
19	0x3d6a344a	0.057178773
20	0x3e0b6d49	0.13615908
21	0x3cb3e43f	0.021959422
22	0xbde915f6	-0.11381142
23	0xbdf2a174	-0.11847201
24	0xbccc57f2	-0.02494428
25	0xbd14924f	-0.036272343
26	0x3d010526	0.03149905
27	0x3d5ba223	0.053621422
28	0x3b59fb0b	0.0033261206
29	0x3a356839	0.00069201324
30	0x3d6e088e	0.058113627
31	0x3d47d423	0.048786294
32	0x3cf03375	0.029321412
33	0xbcab2051	-0.020889433
34	0xbb73ca23	-0.003719934
35	0xbd984c33	-0.07436409
36	0xbd1c3bf5	-0.038143117
37	0xbc4f35d4	-0.012647111
38	0xbdcb4bde	-0.0992658
39	0xbdaecb34	-0.08534852
40	0x3d8c1083	0.06839087
41	0xbcb35df8	-0.021895394
42	0x3d0bfcf4	0.03417678
43	0x3cc1dcfd	0.023664946
44	0xbcdbaa29	-0.026814537
45	0x3ca423ba	0.020036567
46	0x3cc990f4	0.024605252
47	0xbdc1121e	-0.09427284
48	0x3c1bf1a1	0.009518058
49	0xbd1f31cb	-0.038865846
50	0xbd8a4d65	-0.06753043
51	0x3ccc9a80	0.024976015
52	0x3d92bd09	0.07164962
53	0x3d8faa2c	0.070148796
54	0x3d3b7a1b	0.045770746
55	0x3e11a8fc	0.14224619
56	0x3da19fca	0.078918055
57	0x3c9a4141	0.018829944
58	0x3d9f9ca4	0.07793549
59	0xbce00cbf	-0.027349828
60	0x3d5561ef	0.05209535
61	0xbcae25a6	-0.021258187
62	0x3cb4636b	0.022020062
63	0xba53a9f2	-0.0008074335

BN2.weight f4 [64]
0	0x3fa800e9	1.3125278
1	0x3f8a16e9	1.0788242
2	0x3f9d45c6	1.2286918
3	0x3f94d0d0	1.1626225
4	0x3f82f050	1.0229588
5	0x3fa46ed3	1.2846321
6	0x3f554c54	0.8331959
7	0x3f89950c	1.074861
8	0x3f9674e8	1.1754427
9	0x3fa6cab0	1.3030605
10	0x3f8e51f8	1.1118765
11	0x3f90fa4e	1.1326387
12	0x3f9ad9ff	1.2097777
13	0x3fabb25c	1.3413806
14	0x3f8da44a	1.1065762
15	0x3f8cc194	1.0996575
16	0x3fac5f4f	1.3466586
17	0x3fa56a0a	1.2922986
18	0x3fcbb913	1.5915855
19	0x40073edf	2.1132123
20	0x3f973102	1.1811831
21	0x3fa2af5d	1.2709767
22	0x3ffe5af0	1.9871502
23	0x3f9d9761	1.2311822
24	0x3f9bf0a9	1.2182819
25	0x3ffb7302	1.9644473
26	0x3fa280dc	1.2695575
27	0x3faa96cf	1.3327273
28	0x3fb18d57	1.3871258
29	0x3fa4682c	1.2844291
30	0x3faf6ca1	1.3705026
31	0x3f936c54	1.1517434
32	0x3fb0730c	1.378511
33	0x3fa088ac	1.2541709
34	0x3f96b742	1.1774676
35	0x3f9ceb3e	1.225929
36	0x3fdd2285	1.727616
37	0x3f88d8be	1.0691144
38	0x3f441a2f	0.76602453
39	0x3f921b8c	1.1414657
40	0x3f894995	1.072558
41	0x3f739618	0.951509
42	0x3f8adb2b	1.0848135
43	0x3fddd9c9	1.7332088
44	0x3fc38a93	1.5276664
45	0x3fa1c947	1.263955
46	0x3fb3c5b2	1.4044707
47	0x3f750495	0.95710117
48	0x3fc758bb	1.5573953
49	0x3f88dbfe	1.0692136
50	0x3f99fa00	1.2029419
51	0x3f9f096a	1.2424748
52	0x3fb7fafd	1.437347
53	0x3f679d7c	0.9047468
54	0x3fa058b6	1.2527072
55	0x3f9001bc	1.1250529
56	0x3f8bc180	1.0918427
57	0x3faf8014	1.3710961
58	0x3f964b8b	1.1741804
59	0x3f804b57	1.0022992
60	0x3fb4f5e8	1.4137545
61	0x3fb10000	1.3828125
62	0x3fc53ceb	1.5409216
63	0x3fa6e75c	1.3039355

BN2.bias f4 [64]
0	0xbf150345	-0.58208114
1	0xbf0e89d5	-0.55679065
2	0xbf15ad55	-0.5846761
3	0xbf0f31bb	-0.5593526
4	0xbf0dca5b	-0.55386895
5	0xbf1f8908	-0.6231847
6	0xbecd6f83	-0.4012414
7	0xbee61893	-0.44940624
8	0xbf13ce0c	-0.5773628
9	0xbf1e4d38	-0.61836576
10	0xbee30207	-0.44337484
11	0xbf0f85af	-0.5606336
12	0xbf1b0b19	-0.6056381
13	0xbf1cd088	-0.61255693
14	0xbf004a42	-0.5011331
15	0xbf001683	-0.5003435
16	0xbf0aa003	-0.5415041
17	0xbf2564ee	-0.6460713
18	0xbf83b8ed	-1.029081
19	0xbfc3b49b	-1.5289491
20	0xbee6de4f	-0.45091483
21	0xbf2589f6	-0.64663637
22	0xbfa8426d	-1.3145272
23	0xbf048d73	-0.51778334
24	0xbf09aa54	-0.53775525
25	0xbf903dc7	-1.1268853
26	0xbf2dd596	-0.6790403
27	0xbf184f9a	-0.5949646
28	0xbf2db3fe	-0.6785277
29	0xbf0573ed	-0.52130014
30	0xbf1c2b3f	-0.6100349
31	0xbf0657a5	-0.52477485
32	0xbf4bd2f8	-0.7961879
33	0xbf1d30a7	-0.6140236
34	0xbeff3e88	-0.49852395
35	0xbf09967b	-0.5374524
36	0xbf6c8d79	-0.9240337
37	0xbed9c3fd	-0.4253234
38	0xbec04520	-0.37552738
39	0xbf076f9c	-0.5290468
40	0xbedfa174	-0.43677866
41	0xbecaf2b6	-0.396383
42	0xbf0acae3	-0.5421583
43	0xbfb0139f	-1.3755988
44	0xbf2bb148	-0.67067385
45	0xbf15aad9	-0.5846382
46	0xbf41f0f5	-0.75758296
47	0xbef221a9	-0.47291306
48	0xbf1e6ed1	-0.6188784
49	0xbf0ace24	-0.54220796
50	0xbf121707	-0.57066387
51	0xbf1a0a26	-0.60171735
52	0xbf406498	-0.75153494
53	0xbed295b2	-0.41129833
54	0xbf1234ec	-0.57112
55	0xbf1917c8	-0.5980191
56	0xbeee54e7	-0.4654915
57	0xbf26c35d	-0.6514185
58	0xbf033eff	-0.51268
59	0xbee1a614	-0.4407202
60	0xbf527a01	-0.82217413
61	0xbf35d973	-0.71034926
62	0xbf7e45ca	-0.9932524
63	0xbf083aaa	-0.53214514

BN2.running_mean f4 [64]
0	0xbf685c17	-0.9076552
1	0xbfe8b420	-1.817997
2	0xbfa68be9	-1.3011447
3	0xbfa9bb5b	-1.3260301
4	0xbfe8244a	-1.8136075
5	0xbf652800	-0.8951416
6	0xbf955e03	-1.1669315
7	0xbf85615a	-1.0420334
8	0xbf8ccadd	-1.0999409
9	0xbf9cb296	-1.2242
10	0xbff1b628	-1.8883715
11	0xbfa56d73	-1.2924026
12	0xbfa44c31	-1.2835752
13	0xbf50960e	-0.81478965
14	0xbfd50a82	-1.6643832
15	0xbf0cd1f0	-0.5500784
16	0xbf4690b3	-0.77564543
17	0xbfb79b95	-1.4344355
18	0xbf1d70e5	-0.6150039
19	0xbf2071f8	-0.626739
20	0xbfc1c679	-1.5138694
21	0xbfb5d319	-1.4205047
22	0xbf3eb28b	-0.74491185
23	0xbf9dec27	-1.2337693
24	0xbfbf6dbf	-1.4955367
25	0xbf12699d	-0.57192403
26	0xbfa7a9d7	-1.3098706
27	0xbf9f1f4a	-1.2431424
28	0xbf47f30d	-0.7810524
29	0xbf7a7099	-0.9782806
30	0xbf69a09a	-0.91260684
31	0xbf869586	-1.0514381
32	0xbf1a64ca	-0.6031004
33	0xbf317d3d	-0.69331723
34	0xbfabd7ed	-1.342527
35	0xbfbefbba	-1.4920571
36	0xbef99bf4	-0.48751795
37	0xc013b6cc	-2.308032
38	0xbf857741	-1.0427018
39	0xbf1337c2	-0.57506955
40	0xbf91ecaf	-1.1400355
41	0xbfa05fee	-1.2529275
42	0xbf87cdfc	-1.0609736
43	0xbeeefbbc	-0.46676433
44	0xbf859089	-1.0434734
45	0xbf8534b0	-1.0406704
46	0xbf4725eb	-0.77792233
47	0xbfea3d88	-1.8300028
48	0xbf312adb	-0.6920602
49	0xbf85883d	-1.0432202
50	0xbfc61d4b	-1.547769
51	0xbf883df3	-1.0643905
52	0xbf8b9611	-1.0905172
53	0xbf42ce51	-0.76096064
54	0xbf6ae37e	-0.91753376
55	0xbe4bcaa8	-0.19901526
56	0xc010f922	-2.2652059
57	0xbfb3650d	-1.4015213
58	0xbfe40f4a	-1.7817166
59	0xbfef4796	-1.8693721
60	0xbf0a9de1	-0.54147154
61	0xbf6bb599	-0.9207397
62	0xbf039869	-0.51404434
63	0xbf154d75	-0.58321315

BN2.running_var f4 [64]
0	0x40a034e7	5.006458
1	0x41359c6c	11.350689
2	0x410e9070	8.910263
3	0x40da16f1	6.8153005
4	0x40d8a379	6.769955
5	0x40cba563	6.363939
6	0x41258c7f	10.346801
7	0x40cb891b	6.3604865
8	0x40d34c06	6.60303
9	0x411596d5	9.349324
10	0x4182b0af	16.336271
11	0x40f5c482	7.680238
12	0x40bebc53	5.960489
13	0x401e6bb8	2.4753246
14	0x41ac108f	21.508085
15	0x410251f6	8.14501
16	0x41023b35	8.139455
17	0x409e01b5	4.9377084
18	0x3ffca632	1.9738219
19	0x401819f2	2.3765836
20	0x413bc560	11.735687
21	0x40d1d49c	6.5572033
22	0x400b5019	2.1767638
23	0x40f0be8d	7.5232606
24	0x41534641	13.204652
25	0x400d06af	2.203533
26	0x40857d7d	4.1715684
27	0x40d04c38	6.509304
28	0x40f6e839	7.7158475
29	0x40f970d8	7.795025
30	0x40a3edeb	5.1227927
31	0x40858067	4.171924
32	0x40118b8e	2.2741427
33	0x4046ffae	3.1093554
34	0x4101f6db	8.122767
35	0x41287d0a	10.530527
36	0x3fe6fc63	1.8045772
37	0x41257f2e	10.34355
38	0x410b1343	8.692203
39	0x4049ae94	3.1512804
40	0x40f12731	7.536034
41	0x4105a285	8.352178
42	0x409f4104	4.9766865
43	0x3fcfb085	1.6225744
44	0x409b6098	4.855541
45	0x40bad08e	5.8379583
46	0x4057b098	3.3701534
47	0x4150ea93	13.057269
48	0x4085869b	4.1726813
49	0x40d96dc1	6.7946477
50	0x40951da0	4.6598663
51	0x407990c5	3.899461
52	0x4100fe60	8.062103
53	0x40f52d78	7.6618004
54	0x40e7304e	7.2246466
55	0x40610a59	3.5162566
56	0x418f7d9f	17.936338
57	0x4115f58e	9.37245
58	0x410a388d	8.638806
59	0x410076c5	8.028996
60	0x400fab80	2.2448425
61	0x408a1076	4.3145094
62	0x3fca7cb9	1.5819312
63	0x40f92561	7.785813

fc1.weight f4 [128, 1024]
0	0xbab4cdef	-0.0013794283
1	0xbcfba63f	-0.03071892
2	0xbc4db4f1	-0.012555347
3	0xbca7d77b	-0.020488491
4	0xba4cbf7f	-0.00078105176
5	0xbc1bdd01	-0.009513141
6	0xbd114be0	-0.03547275
7	0xbc00aa5e	-0.007853119
8	0xbcf03e64	-0.029326625
9	0xbc8ef16d	-0.017449105
10	0x3c16d985	0.009207134
11	0x3cc25d01	0.023725988
12	0x3bb0a5f9	0.005390879
13	0x3c8f354a	0.017481465
14	0x3c9bcb86	0.019017946
15	0xbd11411c	-0.035462484
16	0xbc4e9f8d	-0.012611282
17	0xbc5c2b30	-0.013438031
18	0x3c1b9253	0.009495336
19	0xbc8309fe	-0.015995976
20	0xba310bad	-0.0006753754
21	0xbc29c5a2	-0.010362061
22	0xbc49823b	-0.012299116
23	0x3c6250f3	0.013813245
24	0x3c639bee	0.013892157
25	0xbc00eb74	-0.007868636
26	0xbce710ad	-0.028206194
27	0x3b8fe71a	0.004391563
28	0xbad797d2	-0.0016448444
29	0xbce54eeb	-0.027991733
30	0xbc9b8d8c	-0.018988393
31	0x3b4b5d87	0.0031031088
32	0x3a891cea	0.0010460888
33	0xbcba745b	-0.02276056
34	0x3c7b4f79	0.015338772
35	0xbc7b57ed	-0.015340787
36	0x3c47ad57	0.0121873235
37	0xbca422bf	-0.0200361
38	0xbcef6390	-0.02922228
39	0x3ad2a726	0.0016071543
40	0x3cc9cde4	0.02463431
41	0x3c583f5d	0.013198701
42	0xbcad147c	-0.021127932
43	0xbcf5d1ff	-0.03000736
44	0xbc553a32	-0.013014363
45	0xbc8b5b13	-0.017011201
46	0x3bc6b42b	0.006063958
47	0xbd0ccc47	-0.0343745
48	0xbc8806c9	-0.016604798
49	0xbc2b1432	-0.010441827
50	0x3c743021	0.014904053
51	0x3bc65d2b	0.006053587
52	0x3cb6eb10	0.022328883
53	0xbb99cdac	-0.0046937075
54	0xbca0bbc4	-0.019620784
55	0x3b0a893a	0.0021138922
56	0xbb250240	-0.0025178343
57	0xbd06f077	-0.03294417
58	0xbcd6a047	-0.026199473
59	0xbcff4bdd	-0.031164104
60	0xbc59f1b0	-0.013302252
61	0xbd0a71ec	-0.03380005
62	0xbb079c79	-0.002069263
63	0x3c627919	0.013822817
64	0x3c2170da	0.009853566
65	0x3cbb5f02	0.022872452
66	0xbc848c54	-0.016180195
67	0xbcb2b3ad	-0.021814192
68	0xbba90b9d	-0.005158855
69	0xbbf1477d	-0.0073632584
70	0x3c9f9ff2	0.019485448
71	0xbd0ac2a7	-0.03387704
72	0xbd15e02e	-0.036590748
73	0xbcf5afd3	-0.029991066
74	0xbca219c5	-0.019787678
75	0x3c288c58	0.010287367
76	0xbc65587b	-0.013998146
77	0x3ba03f9c	0.0048903953
78	0xbcec3271	-0.028832646
79	0x3cca3185	0.024681816
80	0x3b329d4b	0.0027254398
81	0x3b3e0f39	0.0029000773
82	0x3cc69571	0.024241181
83	0x3c09d089	0.008411535
84	0x3b95cb40	0.0045713484
85	0xbc034144	-0.008011166
86	0x3b0784a8	0.0020678435
87	0xbc06a227	-0.008217371
88	0xbba9a825	-0.005177515
89	0xbcdf42f5	-0.027253607
90	0x3c936f89	0.01799752
91	0x3c2b25cc	0.010446023
92	0xbcb98194	-0.022644795
93	0x3c95f71a	0.018306304
94	0xbcba3749	-0.02273144
95	0xbc179941	-0.009252847
96	0xbc86e4f8	-0.016466603
97	0x3c1744be	0.009232698
98	0x3b3ca6ff	0.002878606
99	0xbca58c1a	-0.020208407
100	0x3b92627a	0.0044673057
101	0x3bc47562	0.0059954384
102	0xbac0d47d	-0.0014711764
103	0x3c28f918	0.010313295
104	0xbc2dc454	-0.01060589
105	0x3c2beac6	0.010492986
106	0x3cbf6049	0.023361342
107	0xbc9dc308	-0.019258037
108	0x3bf56eb4	0.0074900035
109	0x3bec47d0	0.007210709
110	0xbbb82c26	-0.0056204973
111	0xbc6f32dc	-0.014599528
112	0x3c1791b6	0.009251049
113	0x3c37ce74	0.011218656
114	0x3c786f64	0.015163276
115	0xbc3fc780	-0.011705279
116	0xbd096e07	-0.033552196
117	0xbc8b2818	-0.016986892
118	0xbd0bdc34	-0.03414555
119	0x3cc43514	0.02395109
120	0xbd10d4f6	-0.035359345
121	0x3c3ea79b	0.01163664
122	0xbcd33bf0	-0.025785416
123	0xbd041f1d	-0.032256234
124	0x3c231424	0.009953532
125	0xbcf8d7e8	-0.03037639
126	0xbce578ba	-0.028011668
127	0x3a9ff814	0.001220467
128	0xbd02d146	-0.03193786
129	0x3c9fc50c	0.019503139
130	0xbaace5a6	-0.0013190999
131	0xbbbfdf01	-0.0058554416
132	0x3cb4d3f5	0.022073725
133	0xbcaae6db	-0.020862034
134	0xbcbe4475	-0.023226002
135	0xbb536013	-0.003225331
136	0x3c59ebd1	0.013300852
137	0x39cb4b0d	0.00038775094
138	0x3c1a1df2	0.009406554
139	0xbd13f4f3	-0.036122274
140	0xbc404d02	-0.01173711
141	0xb9fa5bb8	-0.00047752052
142	0x3c291cd0	0.010321811
143	0xbcacaf46	-0.02107967
144	0xbcb41480	-0.021982431
145	0xbae30103	-0.0017319027
146	0xbc2578c0	-0.01009959
147	0xbc7fc1cd	-0.015610171
148	0x3c95cba7	0.018285586
149	0xbca987ba	-0.020694602
150	0x3c0c4657	0.008561692
151	0x3c969ff9	0.018386828
152	0xbcafac9f	-0.021444617
153	0x3c8ea06e	0.017410483
154	0x3bc2ca14	0.0059444997
155	0xbb859b89	-0.004077379
156	0xbd0d38d5	-0.034478027
157	0x3b8404f6	0.0040289117
158	0x3c9e6d0e	0.01933911
159	0xbc0f9620	-0.00876382
160	0x3c977e5a	0.018492866
161	0xbbcef296	-0.0063155396
162	0xbc59456f	-0.013261183
163	0xbc701f20	-0.014655858
164	0xbc058d5d	-0.008151379
165	0xbc9b33f8	-0.018945679
166	0xbbaeac1e	-0.0053305766
167	0xbbd1509e	-0.006387784
168	0xbd033861	-0.03203619
169	0xbca8adfb	-0.020590773
170	0x3cbacb8a	0.022802133
171	0xbbc0c107	-0.0058823857
172	0xbbc5df1e	-0.0060385605
173	0x3c1ab3fe	0.009442328
174	0x3c93507f	0.01798272
175	0xbd174a7a	-0.03693626
176	0xbd0fa5e4	-0.035070315
177	0xbc0ba2a0	-0.00852266
178	0xbc8d727f	-0.01726651
179	0xbd02a166	-0.031892203
180	0xbcf893fc	-0.030344002
181	0x3bcc307f	0.006231367
182	0x3c329a9d	0.0109011205
183	0xbc010f5e	-0.007877199
184	0xbb6e327e	-0.0036346014
185	0xbce56f79	-0.028007256
186	0xbcdfd113	-0.027321374
187	0xbd07af83	-0.033126365
188	0xbbf3c5c6	-0.007439348
189	0xbd121414	-0.03566368
190	0xbbd2c757	-0.0064324546
191	0x3c871e3d	0.01649391
192	0xbc90a12e	-0.017654981
193	0xbd041810	-0.03224951
194	0xbcc68807	-0.024234785
195	0x3c0f575b	0.0087488545
196	0xbcc4c371	-0.024018975
197	0xbcc0b444	-0.023523457
198	0xbcb45c4a	-0.022016663
199	0xbcb14654	-0.02163998
200	0x3c93fad1	0.018063935
201	0xbc811236	-0.015755754
202	0x3cbbedae	0.022940483
203	0x3c0e730e	0.008694423
204	0xbc2e93d5	-0.010655363
205	0xbd017e4d	-0.03161459
206	0x3c8c413b	0.017120948
207	0x3cac1923	0.02100808
208	0xbc221d03	-0.009894612
209	0x3c9e5cfe	0.019331452
210	0xbc3f731b	-0.011685158
211	0xbd085465	-0.03328361
212	0xbd10a96d	-0.035317827
213	0xbc84c5ee	-0.016207661
214	0x3b9576ce	0.0045612818
215	0x3c7ed20f	0.015553012
216	0x3cab22af	0.020890562
217	0x3cbe83f5	0.023256281
218	0x3bc44d6f	0.005990676
219	0xbd026ca0	-0.031841874
220	0x3bb77c6f	0.0055995504
221	0xbbf815cf	-0.007570959
222	0xbc546990	-0.012964621
223	0x3c9ceb25	0.019155094
224	0xbbdb1be5	-0.006686675
225	0xbcb49711	-0.02204469
226	0x3cb335a1	0.021876158
227	0x3c433f71	0.011916981
228	0xbacac1d3	-0.0015469141
229	0x3c9546fe	0.018222328
230	0xbcfa1c51	-0.03053108
231	0xbbd0df14	-0.0063742492
232	0xbd0510a8	-0.032486588
233	0xbb33ddd9	-0.0027445464
234	0x3b3f7cf1	0.0029218758
235	0xba898e53	-0.0010494686
236	0xbd03a9d3	-0.03214438
237	0xbcd78867	-0.026310159
238	0xbd0d5a1c	-0.034509763
239	0x3ca48eb0	0.02008757
240	0xbc9af6ec	-0.01891657
241	0x3c914f7f	0.017738102
242	0xbcfb1f7a	-0.030654658
243	0xba8f63de	-0.0010939797
244	0x3cb55cab	0.022138914
245	0xbc47b7ef	-0.012189849
246	0xbcdffa84	-0.027341135
247	0xbc23de40	-0.010001719
248	0x3b924bf6	0.0044646217
249	0xbc4156e1	-0.011800499
250	0x3b364ada	0.002781561
251	0xbb7efaf8	-0.0038906913
252	0xbcfea692	-0.031085286
253	0xbc28082d	-0.0102558555
254	0xbc949557	-0.018137617
255	0x3cafe920	0.021473467

fc1.bias f4 [128]
0	0x3c281665	0.0102592455
1	0xbc4f4d4d	-0.012652707
2	0x3e787b43	0.2426577
3	0x3ded438c	0.11585149
4	0x3bddb699	0.006766152
5	0xbd2616c8	-0.04054907
6	0x3aa72306	0.0012751527
7	0xbd114c2f	-0.035473045
8	0xbc7ca29c	-0.0154196285
9	0x3b0d3815	0.002154832
10	0xbc1d90f4	-0.009617079
11	0x3dd79a58	0.105274856
12	0x3c5f8236	0.013641885
13	0xbd004b8d	-0.03132205
14	0xbc993c2e	-0.018705454
15	0x3bd13ea3	0.0063856407
16	0xbcce12a4	-0.025155373
17	0xbc93d720	-0.018046916
18	0xbc5c362f	-0.013440653
19	0xbd127cb7	-0.03576347
20	0xbdb450af	-0.08804452
21	0xbc5f82dd	-0.01364204
22	0x3ea1888e	0.31549495
23	0x3c934ac0	0.01797998
24	0x3cb2ca04	0.021824844
25	0x3e43f2ca	0.19135585
26	0xbca58cdf	-0.020208774
27	0x3d89c85e	0.0672767
28	0xbcc1162d	-0.023570145
29	0x3c367206	0.011135584
30	0xbcc47edb	-0.02398627
31	0xbd1258ae	-0.035729103
32	0x3c81ecf8	0.015860066
33	0x3b8b0b60	0.0042432994
34	0xbca689de	-0.020329412
35	0xbb929de3	-0.004474388
36	0x3ea25d33	0.3171173
37	0xbd0d905c	-0.0345615
38	0xbc4399ab	-0.011938493
39	0xbced9b3b	-0.029004684
40	0xbc2ba6f3	-0.0104768155
41	0xbc55e386	-0.013054734
42	0x3c265a10	0.0101533085
43	0x3b96a8dc	0.0045977663
44	0x3e1e1de5	0.15441091
45	0xbcb40da9	-0.02197917
46	0xbc67c1c5	-0.014145319
47	0xbba7f94e	-0.005126155
48	0x3c07471c	0.0082567
49	0xbabed34e	-0.0014558823
50	0xbccde5a3	-0.025133913
51	0xbc81c4b0	-0.015840858
52	0xbbeadb4c	-0.0071672555
53	0xbb970e4a	-0.0046098577
54	0x3e6b0cfc	0.22954172
55	0xbcfb6ab9	-0.030690538
56	0xbd09f01c	-0.03367625
57	0x3cb8e7ff	0.022571562
58	0x3cb3d782	0.021953348
59	0x3d9448c3	0.07240441
60	0x3e0995a1	0.13435985
61	0x3adac6c3	0.0016691316
62	0x3e2eedfb	0.1708297
63	0xbceacc97	-0.02866201
64	0x3aef6113	0.0018263183
65	0x3de8f05b	0.11373969
66	0x3bdb2297	0.006687473
67	0xbd00b4ea	-0.031422533
68	0x3c95b144	0.018273003
69	0x3c05a606	0.008157259
70	0x3c93b8a3	0.018032378
71	0x3d9c26d3	0.07624593
72	0xbd138bd1	-0.03602201
73	0xbcafac32	-0.021444414
74	0xbc84aa96	-0.016194623
75	0x3d6bb53b	0.05754588
76	0xbc719f28	-0.014747418
77	0xbd13d227	-0.03608909
78	0x3be2abff	0.006917476
79	0xbc383153	-0.011242229
80	0x3e1a6efc	0.150814
81	0x3d803cdd	0.06261609
82	0xbccc4679	-0.024935948
83	0x3867d8ee	5.5276723e-05
84	0xbd10f7f9	-0.035392735
85	0x3c21269b	0.009835864
86	0xbba4f50f	-0.005034096
87	0xbcd46ccf	-0.02593079
88	0x3c0a344b	0.008435319
89	0xbcefb800	-0.029262543
90	0xbbb66ec4	-0.0055674035
91	0x3e14ec68	0.14543307
92	0xbd0fde52	-0.03512413
93	0xbb8792bb	-0.0041373647
94	0xb9a0b19e	-0.00030649913
95	0xbcc10b19	-0.023564862
96	0xbce0deb5	-0.027449945
97	0xbcfa78db	-0.030575207
98	0x3d84a3bd	0.06476543
99	0xbc98c150	-0.018646866
100	0x3e9c5dc0	0.30540276
101	0x3dd8d65f	0.10587763
102	0xbd0dea81	-0.03464747
103	0xbc0f7ffb	-0.00875854
104	0xbcd2d6b2	-0.02573714
105	0xbd106bb3	-0.03525896
106	0xbc06141a	-0.0081835035
107	0xbd4e8edf	-0.05042922
108	0x3e90cab6	0.28279656
109	0xbd0d286d	-0.03446238
110	0x3e870d9b	0.26377568
111	0xbcee090f	-0.029057054
112	0xbdce4025	-0.10070828
113	0x3c027fd8	0.007965051
114	0xbd46f8f5	-0.048577268
115	0xbc8711dd	-0.01648801
116	0x3e238509	0.15968718
117	0x3cfc2ebc	0.030784003
118	0xbae9d285	-0.0017839229
119	0xbd14d0c4	-0.036331907
120	0x3e9c9ac7	0.30586836
121	0x3cc8013d	0.024414653
122	0x3c927d57	0.017882032
123	0x3e42909b	0.19000475
124	0x3b830dba	0.003999439
125	0xbc9004e6	-0.01758046
126	0xbc9cf311	-0.019158872
127	0x3e721c79	0.23643674

fc2.weight f4 [4, 128]
0	0xbd5d8c3b	-0.054088812
1	0xbd2694f8	-0.04066941
2	0x3d913a75	0.07091228
3	0xbf79461b	-0.973726
4	0xbd73c92f	-0.059518036
5	0x3ce3aeee	0.027793374
6	0x3d05f8aa	0.032707848
7	0x3bfa2fbe	0.007635086
8	0x3d832b0e	0.064046964
9	0xbda36dc7	-0.07979923
10	0x3c83c017	0.016082807
11	0x3f0f95a8	0.5608773
12	0xbd175ed5	-0.036955673
13	0xbc86b4b8	-0.016443595
14	0x3e9e1c83	0.30881128
15	0x3d15ce23	0.03657354
16	0x3cb1a90a	0.02168705
17	0x3caf9c8c	0.021436952
18	0x3d648490	0.055790484
19	0x3c981591	0.018564971
20	0xbd270521	-0.040776376
21	0xbd7a968f	-0.06117874
22	0xbf85aa32	-1.0442564
23	0x3d53a1d0	0.05166799
24	0xbcc7ccd5	-0.024389664
25	0x3e969bc2	0.2941571
26	0xbcb6e826	-0.022327494
27	0x3f0ec989	0.5577627
28	0xbada4499	-0.0016652524
29	0xbd93159c	-0.07181856
30	0xbccb7421	-0.024835648
31	0x3c721a0c	0.014776718
32	0x3c49ccca	0.012316892
33	0x3bc4baad	0.006003699
34	0x3c9e4437	0.019319637
35	0xbde1f003	-0.11032107
36	0x3ef36d24	0.47544205
37	0xbce0d56a	-0.027445514
38	0xbd66587a	-0.05623672
39	0xbd247e39	-0.040159438
40	0xbd890075	-0.0668954
41	0xbc343108	-0.010998018
42	0x3d4aaac8	0.049479276
43	0x3d828402	0.06372835
44	0xbf5ada18	-0.85489035
45	0xbcb45b76	-0.022016268
46	0x3d9dc73e	0.07704018
47	0xbd1cfadc	-0.038325176
48	0xbd8f4ad4	-0.06996694
49	0x3b860a14	0.004090557
50	0xbd4ddcbd	-0.05025934
51	0xbd91e892	-0.071244374
52	0x3cac7c58	0.021055385
53	0xbd7f091d	-0.06226455
54	0x3f781335	0.9690431
55	0xbcb01258	-0.021493122
56	0xbb5e4269	-0.0033914095
57	0x3bdd95f8	0.0067622624
58	0xbda70f7c	-0.0815725
59	0x3ea6a7c7	0.3254988
60	0x3f47cd03	0.780472
61	0x3c9ea110	0.01936391
62	0xbf67f1b1	-0.90603167
63	0xbd2bb769	-0.04192296
64	0xbc22a29a	-0.009926463
65	0x3ec940db	0.39307293
66	0xbd9807e0	-0.07423377
67	0xbd0ff10b	-0.035141986
68	0xbc856e8d	-0.016288066
69	0xbd7a6ae3	-0.06113709
70	0xbce23478	-0.02761291
71	0xbf4912ec	-0.785445
72	0x3d06c88c	0.0329061
73	0x3dee07b4	0.11622563
74	0x3da3baba	0.079946
75	0x3e440110	0.1914103
76	0xbd76e848	-0.060280114
77	0x3dcf0f22	0.10110308
78	0x3d87ea18	0.06636447
79	0xbd9bad63	-0.0760143
80	0xbf0b56ef	-0.54429525
81	0xbe1a1e96	-0.1505073
82	0xbd2e62f3	-0.042574834
83	0x3e338ae6	0.17533454
84	0xbc6eab6c	-0.014567237
85	0x3c887a7d	0.01665997
86	0xbd53feec	-0.051756784
87	0x3cc23209	0.0237055
88	0xbd4e1ed4	-0.05032237
89	0x3da1b2dd	0.078954436
90	0x3d4bf959	0.049798343
91	0x3f4bbab5	0.7958177
92	0xbd00795f	-0.03136575
93	0xbd845272	-0.06461038
94	0xbe1b148a	-0.15144554
95	0xbc820426	-0.015871119
96	0xbcab60fe	-0.020920273
97	0xbd85dbd8	-0.065360725
98	0x3dbc150c	0.09183702
99	0x3b60d40e	0.0034306082
100	0x3f230759	0.63683087
101	0x3e748d71	0.2388208
102	0x3c3cea3e	0.011530457
103	0x3bc7a619	0.0060927984
104	0x3ccab5a7	0.024744822
105	0xbcfb8831	-0.03070459
106	0xbda9cae6	-0.08290653
107	0x3d82d618	0.063884914
108	0xbfb989a8	-1.4495134
109	0x3d380641	0.04492784
110	0xbe382bd8	-0.17985475
111	0x3d73325d	0.059374202
112	0x3e06b492	0.1315482
113	0xbcf57c28	-0.029966429
114	0xbf5a06b9	-0.8516651
115	0xbd403282	-0.046923168
116	0x3f14bc87	0.5810017
117	0x3f07c2fa	0.53031886
118	0x3d09644a	0.03354291
119	0xbc7d8509	-0.015473613
120	0x3e6c9c77	0.23106562
121	0xbda72f6b	-0.08163341
122	0xbd9757db	-0.07389804
123	0x3f88394f	1.0642489
124	0xbd9b7bbb	-0.07591959
125	0xbd076e53	-0.033064198
126	0xbd494cf6	-0.04914566
127	0xbf879b14	-1.0594201
128	0xbd870caa	-0.06594212
129	0xbd00d16c	-0.03144972
130	0x3f2ccab0	0.67496777
131	0x3f1b83e5	0.6074813
132	0xbcd42a9c	-0.025899224
133	0xbd47db63	-0.048793208
134	0xbd354305	-0.044253368
135	0xbd585766	-0.052817725
136	0x3cd1fd21	0.025633397
137	0xb98a42bd	-0.00026371135
138	0x3cca0a75	0.02466319
139	0xbf83cbb0	-1.0296535
140	0x3d178891	0.036995474
141	0xbd7bab71	-0.061442796
142	0xbf72700d	-0.94702226
143	0x3d7dfac5	0.06200673
144	0xbd2dd22a	-0.042436756
145	0x3c92ef8c	0.01793649
146	0x3ea40505	0.3203508
147	0x3ce6fc94	0.02819661
148	0x3c1f1db8	0.009711675
149	0x3ca2d5df	0.019877372
150	0xbe8ea1e8	-0.278579
151	0x3d39b1fb	0.04533575
152	0x3b873100	0.0041257143
153	0x3f3d80e4	0.74024796
154	0x3cacb234	0.021081068
155	0xbfc55140	-1.541542
156	0xbcf9afb7	-0.030479295
157	0x3d95b683	0.07310202
158	0x3c7fad2c	0.015605252
159	0x3c0a3f4f	0.0084379455
160	0xbd95bdcd	-0.07311592
161	0x3c5d4800	0.013505936
162	0x3d9019f6	0.07036202
163	0xbcc21c5d	-0.023695165
164	0xbe407595	-0.18794854
165	0x3cc51c15	0.024061242
166	0xbd7922b0	-0.060824096
167	0xbd6dc668	-0.058050543
168	0x3c83afe7	0.016075088
169	0xbcfb8ddd	-0.030707294
170	0x3d458832	0.04822559
171	0xbd29cc5a	-0.04145465
172	0x3ef17559	0.47159842
173	0x3a7ae914	0.00095714745
174	0xbd0ce2f1	-0.034396116
175	0xbd6a8c53	-0.05726273
176	0x3d8f2d29	0.069910355
177	0x3d5b25ef	0.053502973
178	0xbd6da333	-0.058016967
179	0xbd886242	-0.06659366
180	0x3c989689	0.018626468
181	0x3c3bede7	0.011470295
182	0x3cc5b042	0.024131898
183	0xbd1ae807	-0.037818935
184	0x3cb88951	0.022526415
185	0x3d403411	0.046924654
186	0x3d8f0ea0	0.06985211
187	0xbf7172d7	-0.94315857
188	0xbdd66fe6	-0.10470562
189	0x3d433e93	0.047667097
190	0x3e23c2f7	0.15992342
191	0xbc7b474e	-0.015336825
192	0x3d57fe48	0.052732736
193	0xbfa92e95	-1.3217341
194	0xbd5b8cc1	-0.05360103
195	0xbd702b27	-0.058634903
196	0x3c826920	0.015919268
197	0x3d56c76e	0.052436285
198	0xbbf9bc63	-0.0076213344
199	0x3e8cd56a	0.27506572
200	0x3d1a136c	0.03761618
201	0xbe99b63d	-0.3002185
202	0x3cdbb65a	0.02682035
203	0xbf98eb39	-1.1946784
204	0x3c894c7d	0.016760105
205	0xbbdef872	-0.0068045193
206	0x3c84c49b	0.01620703
207	0x3d6dda55	0.058069546
208	0xbf4c5aa1	-0.7982579
209	0xbfa6e0f4	-1.30374
210	0xbd2b7c86	-0.0418668
211	0xbf5597f4	-0.8343499
212	0x3d8239fc	0.06358716
213	0xbd79e389	-0.06100801
214	0x3d1f9453	0.038959812
215	0xbc8788af	-0.016544668
216	0xbd22ccf8	-0.039746255
217	0x3d0f9b44	0.035060182
218	0xbd9f0fe4	-0.07766703
219	0xbf4eeb22	-0.80827534
220	0xbd22544b	-0.03963117
221	0x3cd6c0f5	0.026215056
222	0x3f27d37e	0.65557086
223	0x3c8c3a8a	0.017117757
224	0x3da805c3	0.08204224
225	0x3d74347a	0.059620358
226	0x3f1433de	0.57891643
227	0x3d54b1b4	0.051927283
228	0x3dbf6d09	0.09346969
229	0x3eecf2c5	0.46278968
230	0xbcd38669	-0.025820928
231	0xba81f57c	-0.0009915079
232	0x3b2a0d78	0.002594797
233	0x3d84ee24	0.06490734
234	0x3d665231	0.056230728
235	0xbc04d834	-0.0081081875
236	0x3e090ca7	0.13383733
237	0xbd57ad29	-0.052655373
238	0x3efb0c34	0.49032748
239	0xbc6f0474	-0.014588464
240	0x3d7868f3	0.060646962
241	0x3af55b25	0.001871918
242	0x3f53b3b0	0.82696056
243	0x3cea9f23	0.028640335
244	0xbd89e2ec	-0.06732735
245	0xbf34469b	-0.70420235
246	0x3d07b9e4	0.033136263
247	0xbd74a992	-0.059732027
248	0xbcc6b8fa	-0.024258126
249	0xbd88c100	-0.06677437
250	0xbd048558	-0.03235373
251	0xbf7570f3	-0.9587547
252	0xbd9afb04	-0.07567409
253	0x3c90467d	0.017611736
254	0xbd0eacaa	-0.034832634
255	0xbf28a6c5	-0.6587947

fc2.bias f4 [4]
0	0xbb165b05	-0.0022942435
1	0x3d2d41e3	0.042299163
2	0xbe204369	-0.15650715
3	0x3bfae03d	0.007656126
