cnn saved models/cnn_epoch2.pt (torch, 609323 bytes, 16 tensors)

conv1.weight f4 [32, 1, 3, 3]
0.30138513 0.2819275 -0.2534369 -0.26194987 -0.11249082 -0.17917287 0.07445578 -0.08939134
0.16879967 0.3543362 0.02578891 0.43785888 0.09309717 0.07065427 0.06294357 0.05483053
0.23951857 -0.106602035 0.1631227 -0.02857339 0.25662214 -0.241083 -0.33710024 0.081028566
0.11382071 0.27058664 -0.3270521 -0.11935068 0.271473 0.21736756 0.111868925 -0.18129823
-0.25545594 -0.16375248 0.2318703 -0.14999774 -0.03606367 -0.14663766 0.10818939 -0.31065023
0.2034563 0.08738438 0.10000613 0.07044434 0.004435903 0.24934825 -0.31897023 -0.19725855
0.14622794 0.21993956 -0.010447301 -0.31425023 -0.12224435 -0.3620541 0.11957425 -0.09702151
-0.29316315 0.22212277 0.14407274 0.27651596 -0.2541824 -0.01970142 -0.09680862 0.22111602
-0.18879466 -0.24406742 0.28043863 0.009429556 -0.22689597 0.278517 -0.18638764 0.06043791
0.016929377 0.07896803 -0.47986004 -0.14140972 -0.09531056 0.051775694 0.20648813 0.1024587
0.043723032 0.10170785 -0.2654762 0.3373109 -0.28824615 0.13130496 -0.32080197 0.20686175
0.09938994 -0.1723106 0.006070527 -0.22275724 0.013704917 -0.13158217 0.13008712 -0.35893825
0.27313575 0.2287648 -0.032406133 -0.017194577 0.14051789 -0.19759363 0.109024525 0.11107388
-0.2061158 0.31118035 0.014584992 -0.14379144 0.3051604 0.1075306 -0.046379637 0.07830902
-0.17070496 -0.062574305 -0.07378439 0.03418019 -0.2566487 -0.22218986 0.094937645 -0.37782687
-0.2123742 0.02275018 0.018387638 0.053207222 0.09720354 0.28694743 0.30441535 -0.34565926
-0.083076715 0.22422294 0.18992944 -0.380666 0.30876866 -0.0023070418 -0.31344774 -0.1283603
0.19031613 -0.459286 0.0760006 -0.27723604 -0.050086245 0.41283086 0.0835921 -0.12562247
0.21839651 0.17681132 -0.29476866 -0.05245785 -0.24096599 0.2909657 -0.3663031 0.36585122
-0.051943175 -0.25047088 -0.03142233 0.12534492 0.10504241 -0.32748953 -0.319316 0.08754864
0.3421312 0.26685154 -0.026011024 0.34358427 0.040856425 0.0703113 -0.12184799 -0.060055487
-0.019411081 -0.24949847 -0.01735209 0.23951995 0.17894799 0.110060215 -0.54365057 -0.27576804
0.0765099 0.17306848 0.07063538 0.12761544 0.029262949 -0.3484905 0.26507717 -0.18920255
0.006632971 0.15294507 -0.20941278 0.00013054286 0.20650247 -0.17573898 0.30319035 0.30473843
0.115868695 -0.12359605 -0.2609496 0.08663412 -0.04345931 -0.28901336 0.10563957 0.09230552
-0.23209716 0.39266077 -0.2591133 -0.11480628 -0.2775689 0.09219561 0.26026404 -0.12854864
-0.045592405 0.060014777 -0.061681584 -0.19998245 0.29075733 -0.25229025 0.03192001 0.2777794
-0.23746127 -0.13410784 0.24045345 -0.29553387 -0.058349065 0.24661706 -0.14167917 0.23120703
0.11466122 0.30448022 -0.25999445 -0.11929354 0.28502002 -0.42597324 0.23136196 0.038530882
-0.34565467 0.25889608 -0.09353476 -0.37644863 -0.21472587 0.35292342 -0.25726205 -0.041955683
-0.11555311 0.28374317 -0.00673966 -0.34834698 -0.24475367 0.08474549 0.010159793 0.015934449
-0.15379556 0.12590529 -0.08152596 0.29451916 -0.2865088 0.2359939 0.41717687 -0.2526351
00000000: 274f 9a3e cd58 903e 7bc2 81be 4b1e 86be
00000010: 9661 e6bd 1879 37be 467c 983d cf12 b7bd
00000020: d2d9 2c3e 8e6b b53e 4443 d33c 0a2f e03e
00000030: bba9 be3d 30b3 903d 8fe8 803d fa95 603d
00000040: 5b44 753e 2b52 dabd a309 273e be12 eabc
00000050: fa63 833e 76de 76be 6798 acbe 4ef2 a53d
00000060: d51a e93d 558a 8a3e 5f73 a7be 216e f4bd
00000070: 82fe 8a3e 9a95 5e3e 891b e53d 3ea6 39be
00000080: 1fcb 82be bbae 27be 686f 6d3e 0299 19be
00000090: 80b7 13bd 2f28 16be 6692 dd3d 8c0d 9fbe
000000a0: d956 503e 95f6 b23d 04d0 cc3d 1f45 903d
000000b0: 0d5b 913b 2655 7f3e 1150 a3be 25fe 49be
000000c0: c7bc 153e d637 613e 282b 2bbc 68e5 a0be
000000d0: 3f5b fabd 285f b9be 58e3 f43d 37b3 c6bd
000000e0: 7b19 96be 2774 633e ce87 133e 8093 8d3e
000000f0: 3224 82be df64 a1bc 9943 c6bd 3d6c 623e
00000100: 6353 41be cfec 79be a795 8f3e 6d7e 1a3c
00000110: 6b57 68be c899 8e3e 67dc 3ebe be8d 773d
00000120: 7aaf 8a3c feb9 a13d 37b0 f5be b6cd 10be
00000130: 2f32 c3bd c012 543d a071 533e ded5 d13d
00000140: ec16 333d 354c d03d 7fec 87be 04b4 ac3e
00000150: 0095 93be cf74 063e 2840 a4be 91d3 533e
00000160: f48c cb3d 3172 30be 45eb c63b 791a 64be
00000170: 978a 603c 7abd 06be 8f35 053e c1c6 b7be
00000180: 73d8 8b3e 5241 6a3e 4bbc 04bd a4db 8cbc
00000190: ece3 0f3e fc55 4abe 4048 df3d b47a e33d
000001a0: 0510 53be 0853 9f3e e4f5 6e3c 103e 13be
000001b0: fc3d 9c3e 0139 dc3d 93f8 3dbd 7b60 a03d
000001c0: 48cd 2ebe f526 80bd 451c 97bd 8700 0c3d
000001d0: 7567 83be bd85 63be ab6e c23d 8672 c1be
000001e0: 9f78 59be 965e ba3c aca1 963c d1ef 593d
000001f0: a612 c73d c6ea 923e 54dc 9b3e 40fa b0be
00000200: 2024 aabd b39a 653e dd7c 423e a7e6 c2be
00000210: ed16 9e3e bd31 17bb 397c a0be e270 03be
00000220: 3be2 423e 8927 ebbe 34a6 9b3d e2f1 8dbe
00000230: 3c27 4dbd 915e d33e 5632 ab3d 2da3 00be
00000240: 56a3 5f3e 070e 353e ebeb 96be 0bde 56bd
00000250: cabf 76be 75f9 943e 148c bbbe da50 bb3e
00000260: 5ec2 54bd b83d 80be b3b4 00bd 6b5a 003e
00000270: 7a20 d73d b5ac a7be 637d a3be b44c b33d
00000280: d22b af3e c4a0 883e 1215 d5bc 47ea af3e
00000290: 1159 273d 5fff 8f3d 708b f9bd befc 75bd
000002a0: fd03 9fbc 877c 7fbe f825 8ebc b844 753e
000002b0: 243e 373e 4067 e13d af2c 0bbf 7831 8dbe
000002c0: 39b1 9c3d dd38 313e 48a9 903d 9fad 023e
000002d0: dab8 ef3c 596d b2be 32b8 873e 50be 41be
000002e0: 6559 d93b a29d 1c3e 4e70 56be 55e2 0839
000002f0: 6275 533e ebf4 33be c43b 9b3e ad06 9c3e
00000300: 914c ed3d ed1f fdbd 309b 85be 3b6d b13d
00000310: 6402 32bd 8ff9 93be 8f59 d83d ad0a bd3d
00000320: e1aa 6dbe d50a c93e 80aa 84be 8e1f ebbd
00000330: 831d 8ebe 0dd1 bc3d 5441 853e 41a2 03be
00000340: 1abf 3abd 0ed2 753d d4a5 7cbd 33c8 4cbe
00000350: 25de 943e 302c 81be 8ebe 023d 1a39 8e3e
00000360: 0c29 73be 9153 09be 6e39 763e 3750 97be
00000370: 6eff 6ebd 2f89 7c3e 5814 11be 89c1 6c3e
00000380: 80d3 ea3d d5e4 9b3e fe1d 85be 2c50 f4bd
00000390: 25ee 913e 2a19 dabe 26ea 6c3e 8fd2 1d3d
000003a0: a6f9 b0be 078e 843e 278f bfbd e0bd c0be
000003b0: 19e1 5bbe 61b2 b43e dab7 83be b9d9 2bbd
000003c0: 1ca7 ecbd c946 913e 5ed8 dcbb 895a b2be
000003d0: b5a0 7abe 0b8f ad3d 4375 263c f688 823c
000003e0: 957c 1dbe 51ed 003e 15f7 a6bd 37cb 963e
000003f0: 48b1 92be 63a8 713e 3598 d53e 6359 81be

conv1.bias f4 [32]
-0.008524746 0.20334646 0.32634804 -0.09047695 0.26311862 0.22438115 0.27427965 0.20836775
0.23579054 0.17327416 0.17800991 0.12560585 0.30210945 0.11303797 0.119106196 -0.1984404
0.10755411 0.42866445 -0.3414217 0.046383888 0.22720309 -0.04245502 0.40630543 -0.055180233
0.14633687 0.030102964 -0.20680825 0.14811191 0.16328923 0.0019955682 -0.30448428 0.14576897
00000000: 60ab 0bbc 0e3a 503e 1717 a73e fb4b b9bd
00000010: 7cb7 863e 2cc4 653e 626e 8c3e 5b5e 553e
00000020: 1373 713e c86e 313e 3b48 363e d29e 003e
00000030: 17ae 9a3e 7480 e73d f3ed f33d f633 4bbe
00000040: 5445 dc3d e879 db3e d3ce aebe 08fd 3d3d
00000050: eda7 683e 51e5 2dbd 4407 d03e ab04 62bd
00000060: 55d9 153e 7e9a f63c 8bc5 53be a6aa 173e
00000070: 4b35 273e 14c8 023b 5de5 9bbe 7644 153e

BN1.weight f4 [32]
1.1435496 0.55120325 1.006533 0.95361817 0.8855667 0.8617722 1.0820441 1.1332557
0.93502533 0.887145 0.9352625 0.5988645 0.98674875 0.95408505 1.054485 0.85100245
0.8354404 0.66602826 0.85143626 0.76457673 1.0593313 0.9301827 1.0582169 1.0292002
0.9745154 1.2260052 0.85881597 0.99852735 1.0379556 0.97749835 1.0196819 0.94024444
00000000: d55f 923f a81b 0d3f 13d6 803f 5220 743f
00000010: 80b4 623f 1a9d 5c3f 6c80 8a3f 860e 913f
00000020: d25d 6f3f ef1b 633f 5d6d 6f3f 2f4f 193f
00000030: 919b 7c3f eb3e 743f 5df9 863f 4cdb 593f
00000040: 6cdf 553f d480 2a3f baf7 593f 4dbb 433f
00000050: 2b98 873f 7420 6e3f a773 873f d5bc 833f
00000060: d779 793f bded 9c3f 5ddb 5b3f 7d9f 7f3f
00000070: bbdb 843f 553d 7a3f f084 823f dcb3 703f

BN1.bias f4 [32]
-0.14044587 -0.12811676 -0.24872084 -0.17391558 -0.27312523 -0.24373814 -0.116889834 -0.070044704
-0.29991075 -0.27845845 -0.3306217 -0.14702517 -0.11862509 -0.2344944 -0.14191535 -0.41865632
-0.4990363 -0.15108249 -0.25191578 -0.3797816 -0.2116475 -0.25752348 -0.6350145 -0.08051964
-0.033112906 -0.27508083 -0.36355102 -0.13862014 -0.10032043 -0.08353619 -0.36174184 -0.19620408
00000000: 0bd1 0fbe 0a31 03be adb0 7ebe ed16 32be
00000010: 12d7 8bbe 7e96 79be f063 efbd 9973 8fbd
00000020: e78d 99be 1b92 8ebe 3f47 a9be c48d 16be
00000030: b6f1 f2bd 4d1f 70be 4252 11be 1f5a d6be
00000040: b081 ffbe 5eb5 1abe 1bfb 80be bc72 c2be
00000050: 1fba 58be 1eda 83be 4f90 22bf 7be7 a4bd
00000060: 66a1 07bd 65d7 8cbe 5c23 babe 70f2 0dbe
00000070: cc74 cdbd 0615 abbd 3a36 b9be b9e9 48be

BN1.running_mean f4 [32]
-0.027400596 0.47872487 0.31124747 -0.09961768 0.2806211 0.070987664 0.27943283 0.20797281
0.18564735 0.13227986 0.1538677 0.15327995 0.28355682 0.058352027 0.09808581 -0.2622552
0.11915393 0.4220014 -0.35099152 0.07644992 0.20728669 -0.061299015 0.4199805 -0.0617649
0.13670221 0.021067234 -0.31235427 0.07940385 0.14054981 -0.058564 -0.31134424 0.1272862
00000000: 3777 e0bc 6d1b f53e d45b 9f3e 5b04 ccbd
00000010: 92ad 8f3e fb61 913d d211 8f3e d3f6 543e
00000020: 571a 3e3e 5f74 073e 7f8f 1d3e 6bf5 1c3e
00000030: 5c2e 913e 8902 6f3d 37e1 c83d 5046 86be
00000040: fa06 f43d 9110 d83e 29b5 b3be c791 9c3d
00000050: f642 543e ad14 7bbd af07 d73e 31fd 7cbd
00000060: aafb 0b3e 3195 ac3c e6ec 9fbe 7c9e a23d
00000070: 4aec 0f3e cee0 6fbd 8368 9fbe 5057 023e

BN1.running_var f4 [32]
0.0030665593 0.07877012 0.003078272 0.0028085066 0.001084298 0.026296187 0.002799553 0.0028847947
0.0070731197 0.003395023 0.005076574 0.0022857264 0.004558891 0.0101779355 0.0035020562 0.0099257985
0.0006772225 0.0070906687 0.0036205514 0.005010837 0.001603634 0.0050626993 0.00068866217 0.0015927497
0.0028428824 0.0018551592 0.01702783 0.010470627 0.0062541757 0.008321461 0.0006974387 0.011948109
00000000: 54f8 483b 3b52 a13d d6bc 493b ec0e 383b
00000010: 011f 8e3a 1a6b d73c b578 373b d30e 3d3b
00000020: a1c5 e73b 097f 5e3b 6459 a63b 20cc 153b
00000030: c062 953b 5bc1 263c c182 653b d19f 223c
00000040: a287 313a d758 e83b c646 6d3b f331 a43b
00000050: 0731 d23a 00e5 a53b 5687 343a d0c3 d03a
00000060: a74f 3a3b d028 f33a f37d 8b3c fe8c 2b3c
00000070: d4ef cc3b bd56 083c 52d4 363a 00c2 433c

conv2.weight f4 [64, 32, 3, 3]
-0.07454224 0.08692677 -0.09169055 0.016797012 0.015381451 -0.21294157 -0.04549092 0.09223669
-0.095336676 -0.05448858 -0.043141328 -0.02428148 -0.055099312 -0.13174735 -0.077762194 0.035714045
0.012728407 -0.016475817 0.06840676 0.1233336 0.058566224 -0.03004641 -0.01825568 -0.04097105
-0.015850646 0.08192966 0.1477975 -0.10465879 0.15572587 0.013867541 -0.16806832 0.12100889
0.02546406 -0.026106516 0.17232887 0.095387615 0.062453967 -0.029521013 -0.0942031 -0.04886506
-0.065545544 -0.05621571 0.017472591 0.0433898 0.0640981 -0.1369917 -0.07385156 -0.11718851
-0.00131224 -0.019777361 0.018075502 0.12954827 0.09353167 0.0558198 0.09618585 0.10131796
-0.10356248 0.00074179424 0.06166152 0.113472655 -0.16658832 -0.12019733 -0.20928892 -0.05134474
0.03521528 0.009694859 0.023825487 0.017109858 -0.03638006 0.05375418 0.06175275 0.14402688
-0.06606087 0.0005914 -0.072327346 -0.012999577 0.075529955 0.018049182 -0.041743837 0.049929567
-0.027242014 -0.0899559 -0.0834588 -0.20881748 -0.1625474 -0.049062874 -0.09020705 -0.062444504
-0.09160438 -0.106324375 0.22808261 0.19910213 0.122675635 0.01627301 0.10941713 0.10937418
-0.06235668 0.02602059 0.05337466 -0.103676125 -0.015276396 -0.026013676 -0.040526167 0.045309
0.005655771 0.07381704 0.04834151 0.07170083 -0.022247957 0.06802409 -0.010741737 0.14171483
0.023785103 -0.15681715 -0.03778873 0.064374 0.12481399 0.0024445078 -0.07557465 -0.14012073
-0.0042212023 0.04108131 -0.023380274 -0.02678428 0.12012301 0.056505207 -0.13222788 -0.021316772
-0.045495473 0.03797401 0.0011221168 -0.14031322 -0.04845209 0.050977003 0.061612334 -0.058490727
0.04589955 -0.13735425 -0.07807115 0.05682186 0.020655649 -0.05310669 0.028103044 -0.06733945
-0.17865552 -0.13989928 -0.13435751 0.03720951 0.03793183 -0.071081676 -0.14103399 -0.031573065
0.026508112 0.1711008 0.08638659 0.16819216 0.02954512 0.073813796 0.095252685 0.0943849
0.13596718 0.07566798 -0.05658111 0.037054874 0.09776201 -0.087418444 -0.2107419 -0.23860432
0.07314074 0.060780805 0.07270778 -0.06558664 0.043879967 0.016090227 -0.04005499 -0.08918034
-0.107966155 0.028295748 -0.023897722 0.0701525 0.15013361 -0.027472276 -0.17924498 -0.1683291
-0.12484818 -0.12707584 0.0035496103 0.014777904 -0.020430142 0.107482344 0.21736708 0.19874507
-0.075839624 0.026785785 0.043127008 0.066975996 0.21922559 0.14727533 0.033002313 0.105463
0.13651387 -0.07561657 -0.10401328 -0.042647723 -0.011369284 -0.12016279 -0.07313639 0.02167217
-0.01767839 -0.032213222 -0.115485415 -0.056866504 -0.1025508 -0.102832876 -0.014239248 -0.044264283
0.08022689 0.038509246 0.0941443 -0.07747272 -0.07012311 0.016059082 -0.008603999 0.050156955
0.07688399 0.00024714292 -0.13238765 -0.18223995 -0.028710132 -0.051214848 -0.051145047 -0.27112556
-0.32985914 -0.330191 -0.12937567 -0.11978121 -0.13457024 -0.16851594 -0.08044505 -0.09179242
-0.13040549 -0.1702243 -0.17575043 -0.06895444 -0.1195555 -0.26251942 0.042755842 0.019832218
0.08976406 -0.004326081 0.042646147 0.033058614 -0.020025764 0.097138196 0.18087478 -0.06355914
00000000: 9aa9 98bd aa06 b23d 41c8 bbbd e399 893c
00000010: 7b02 7c3c 5b0d 5abe b054 3abd 97e6 bc3d
00000020: e03f c3bd 6b2f 5fbd f6b4 30bd f4e9 c6bc
00000030: d1af 61bd c7e8 06be c941 9fbd e448 123d
00000040: cf8a 503c 4bf8 86bc d818 8c3d 5496 fc3d
00000050: 23e3 6f3d e423 f6bc f08c 95bc 42d1 27bd
00000060: 37d9 81bc bdca a73d 3a58 173e 5957 d6bd
00000070: 9a76 1f3e af34 633c 1a1a 2cbe 82d3 f73d
00000080: 019a d03c 55dd d5bc fb76 303e 955a c33d
00000090: bbcf 7f3d 0dd6 f1bc 8eed c0bd bb26 48bd
000000a0: be3c 86bd 7242 66bd ae22 8f3c 81b9 313d
000000b0: dd45 833d 8d47 0cbe 7d3f 97bd 8800 f0bd
000000c0: 78ff abba 2204 a2bc 1313 943c 4da8 043e
000000d0: 888d bf3d 4da3 643d 16fd c43d ca7f cf3d
000000e0: 9118 d4bd f874 423a ca90 7c3d 5a64 e83d
000000f0: 2196 2abe 052a f6bd d64f 56be dd4e 52bd
00000100: e63d 103d 30d7 1e3c ab2d c33c f929 8c3c
00000110: 4203 15bd 582d 5c3d 74f0 7c3d c87b 133e
00000120: ec4a 87bd 2f08 1b3a 5c20 94bd 2efc 54bc
00000130: 73af 9a3d e1db 933c 96fb 2abd f282 4c3d
00000140: a52a dfbc cd3a b8bd 73ec aabd 40d4 55be
00000150: d372 26be 27f6 48bd 79be b8bd cfc5 7fbd
00000160: 149b bbbd 98c0 d9bd 7d8e 693e 6ee1 4b3e
00000170: 5d3d fb3d fa4e 853c 1716 e03d 92ff df3d
00000180: b869 7fbd 2229 d53c 639f 5a3d 2654 d4bd
00000190: d949 7abc a21a d5bc c4fe 25bd ee95 393d
000001a0: 0c54 b93b 632d 973d bf01 463d e2d7 923d
000001b0: 5941 b6bc 3750 8b3d 1cfe 2fbc b11d 113e
000001c0: fad8 c23c ad94 20be 5bc8 1abd 84d6 833d
000001d0: 7a9e ff3d 0934 203b e2c6 9abd cf7b 0fbe
000001e0: 0352 8abb e044 283d fd87 bfbc b56a dbbc
000001f0: 0d03 f63d 0172 673d bf66 07be 83a0 aebc
00000200: 7659 3abd a38a 1b3d fe13 933a 45ae 0fbe
00000210: b375 46bd 43cd 503d 375d 7c3d f993 6fbd
00000220: 2b01 3c3d 98a6 0cbe c4e3 9fbd 0abe 683d
00000230: 0936 a93c 6786 59bd 5b38 e63c 44e9 89bd
00000240: 79f1 36be c241 0fbe 0495 09be 0069 183d
00000250: 685e 1b3d 4593 91bd 376b 10be c252 01bd
00000260: 8a27 d93c 0c35 2f3e 74eb b03d 913a 2c3e
00000270: 9c08 f23c b02b 973d d713 c33d df4c c13d
00000280: fb3a 0b3e d0f7 9a3d 98c1 67bd dac6 173d
00000290: 7337 c83d 7108 b3bd bacc 57be b154 74be
000002a0: d0ca 953d 4bf5 783d d1e7 943d 4a52 86bd
000002b0: 7bbb 333d a7cf 833c b410 24bd 2fa4 b6bd
000002c0: 5c1d ddbd 7ccc e73c 28c5 c3bc 1dac 8f3d
000002d0: a0bc 193e 8a0d e1bc ff8b 37be 775e 2cbe
000002e0: 67b0 ffbd 2b20 02be 94a0 683b 061f 723c
000002f0: 1d5d a7bc b41f dc3d 7a95 5e3e d483 4b3e
00000300: ce51 9bbd dd6d db3c f2a5 303d b62a 893d
00000310: ac7c 603e 58cf 163e 6f2d 073d fcfc d73d
00000320: 4bca 0b3e dcdc 9abd ea04 d5bd 61af 2ebd
00000330: 3c46 3abc e917 f6bd 88c8 95bd d689 b13c
00000340: 45d2 90bc 03f2 03bd 9e83 ecbd daec 68bd
00000350: 2706 d2bd 0b9a d2bd bc4b 69bc 774e 35bd
00000360: ff4d a43d dfbb 1d3d bace c03d 04aa 9ebd
00000370: b59c 8fbd 568e 833c caf7 0cbc 6171 4d3d
00000380: 5a75 9d3d f692 8139 a190 07be 1c9d 3abe
00000390: 8331 ebbc a9c6 51bd 787d 51bd f8d0 8abe
000003a0: 4ce3 a8be cb0e a9be 0e7b 04be da4f f5bd
000003b0: c8cc 09be 718f 2cbe 60c0 a4bd aafd bbbd
000003c0: 0489 05be 474f 2ebe ecf7 33be fc37 8dbd
000003d0: 84d9 f4bd f268 86be c020 2f3d 2d77 a23c
000003e0: 38d6 b73d ccc1 8dbb baad 2e3d 7868 073d
000003f0: 120d a4bc 64f0 c63d 3d37 393e 4b2b 82bd

conv2.bias f4 [64]
-0.018098488 0.016646767 -0.014982648 -0.018640883 0.0326997 -0.0012015374 0.012776912 0.07610779
-0.0044936263 -0.0368419 0.019316727 0.02226264 0.045627438 -0.02361154 0.029425908 -0.046684287
0.01545331 -0.055691637 -0.026485454 0.041990247 0.11068436 0.015966903 -0.018545903 -0.006735348
-0.009018413 0.014472948 0.00420787 0.040261984 -0.04983743 0.032662462 -0.0046270266 0.05924347
0.01051822 0.0069097965 0.02756963 -0.047765095 0.025951277 0.0048516886 -0.05536677 -0.05762601
0.048480414 -0.020223243 -0.02064614 -0.012848417 -0.017975857 0.03151163 0.015159209 -0.067954265
0.019799966 0.014818321 -0.06861256 0.019161591 0.029664788 0.019121096 0.043606948 0.084860906
-0.007323951 0.015630577 -0.037223186 -0.011877659 0.064446375 0.04974698 0.0172906 -0.027351702
00000000: 4843 94bc cd5e 883c c879 75bc c4b4 98bc
00000010: 1ff0 053d e87c 9dba 4156 513c 67de 9b3d
00000020: 453f 93bb 88e7 16bd 1d3e 9e3c 2460 b63c
00000030: d6e3 3a3d fd6c c1bc 9a0e f13c 0638 3fbd
00000040: e12f 7d3c ea1c 64bd 06f8 d8bc f7fd 2b3d
00000050: 7bae e23d 06cd 823c 94ed 97bc 32b4 dcbb
00000060: f7c1 13bc f21f 6d3c 2ce2 893b c0e9 243d
00000070: 5522 4cbd 13c9 053d 509e 97bb 48a9 723d
00000080: 9d54 2c3c 936b e23b b4d9 e13c 55a5 43bd
00000090: c697 d43c eafa 9e3b 44c8 62bd 4009 6cbd
000000a0: 6693 463d 37ab a5bc 1822 a9bc 2b82 52bc
000000b0: 1b42 93bc 5712 013d 555e 783c 9b2b 8bbd
000000c0: 8a33 a23c 8bc8 723c be84 8cbd c5f8 9c3c
000000d0: 9203 f33c d8a3 9c3c 339d 323d 8ecb ad3d
000000e0: c1fd efbb b20b 803c 5777 18bd 839a 42bc
000000f0: 76fc 833d 7dc3 4b3d 04a5 8d3c ad10 e0bc

BN2.weight f4 [64]
1.197798 1.0682683 1.1478629 1.0983324 0.9923559 1.1552553 0.89984715 1.0466468
1.1086543 1.2622772 1.0494866 1.0319535 1.1964718 1.1392832 1.1454575 1.0261866
1.1505772 1.129674 1.1816167 1.3871188 1.0781677 1.0065963 1.335203 1.1200131
1.1255183 1.5840018 1.0343626 1.2316457 1.143005 1.1379877 1.2227048 1.0222067
1.0456545 0.9673659 1.0233065 1.3125725 1.1388463 0.9731226 0.958219 1.1414279
1.1036556 0.9891638 1.00044 1.1072292 1.2645762 1.1911024 1.0700405 1.0389546
1.2713342 1.1402346 0.98062766 1.0197966 1.1628591 0.9847864 1.1587806 1.1434265
1.0706125 1.3188965 1.0484273 0.99512386 1.0851139 1.2230569 1.1702689 1.2062666
00000000: 7251 993f 04bd 883f 2ced 923f 2896 8c3f
00000010: 090b 7e3f 68df 933f 625c 663f 86f8 853f
00000020: 62e8 8d3f 4d92 a13f 9455 863f 0d17 843f
00000030: fd25 993f 08d4 913f 5a9e 923f 155a 833f
00000040: 1d46 933f 2899 903f 373f 973f 1c8d b13f
00000050: 6601 8a3f 26d8 803f efe7 aa3f 975c 8f3f
00000060: fc10 903f 92c0 ca3f fe65 843f 91a6 9d3f
00000070: fd4d 923f 95a9 913f 9781 9c3f abd7 823f
00000080: 02d8 853f 4ba5 773f b5fb 823f 6002 a83f
00000090: b7c5 913f 901e 793f d74d 753f 4f1a 923f
000000a0: 9644 8d3f d739 7d3f 6b0e 803f b0b9 8d3f
000000b0: a2dd a13f 0b76 983f 16f7 883f 77fc 843f
000000c0: 14bb a23f 35f3 913f 6a0a 7b3f b288 823f
000000d0: 91d8 943f f61a 7c3f ec52 943f cd5b 923f
000000e0: d509 893f 9ad1 a83f de32 863f 70c0 7e3f
000000f0: 03e5 8a3f 218d 9c3f 5fcb 953f f266 9a3f

BN2.bias f4 [64]
-0.32071272 -0.20801477 -0.406942 -0.2771433 -0.26053447 -0.3165023 -0.2224301 -0.31061256
-0.29152393 -0.38862157 -0.17975411 -0.296608 -0.3130303 -0.28670695 -0.27041712 -0.2909794
-0.29784778 -0.34665865 -0.33457392 -0.4716215 -0.2856365 -0.40896207 -0.3894516 -0.26555708
-0.2358853 -0.3619015 -0.40809315 -0.3135128 -0.3775004 -0.33020636 -0.26075515 -0.25004947
-0.34514523 -0.32521182 -0.2785551 -0.22005524 -0.31460533 -0.26517382 -0.099487185 -0.35857913
-0.22664829 -0.2514948 -0.29068303 -0.42025205 -0.2972957 -0.2905554 -0.3247562 -0.3421937
-0.2595848 -0.24963774 -0.30913645 -0.35529003 -0.41106036 -0.12392224 -0.3474165 -0.25161824
-0.1850553 -0.4075285 -0.3251955 -0.2440212 -0.2942993 -0.33039135 -0.31201854 -0.33095655
00000000: 7534 a4be d301 55be b45a d0be bae5 8dbe
00000010: c664 85be 970c a2be b7c4 63be 9c08 9fbe
00000020: a042 95be 68f9 c6be 7611 38be 01dd 97be
00000030: 8245 a0be 41cb 92be 1d74 8abe 40fb 94be
00000040: 817f 98be 3e7d b1be 464d abbe 6078 f1be
00000050: f33e 92be 7a63 d1be 3366 c7be 19f7 87be
00000060: eb8b 71be 274b b9be 96f1 d0be c084 a0be
00000070: bc47 c1be cf10 a9be b381 85be 7c06 80be
00000080: e0b6 b0be 2a82 a6be c69e 8ebe 2956 61be
00000090: f313 a1be ddc4 87be f0bf cbbd af97 b7be
000000a0: 7d16 68be edc3 80be 68d4 94be 472b d7be
000000b0: 2437 98be adc3 94be 7246 a6be 0334 afbe
000000c0: 4de8 84be 09a1 7fbe 2247 9ebe 93e8 b5be
000000d0: 8176 d2be f2ca fdbd 93e0 b1be 1bd4 80be
000000e0: 237f 3dbe 93a7 d0be 0680 a6be b2e0 79be
000000f0: 66ae 96be 0e29 a9be e5c0 9fbe 2373 a9be

BN2.running_mean f4 [64]
-0.5774068 -1.3730435 -0.33662143 -1.1617709 -0.9798395 0.02656259 -0.2109222 -0.8175693
-0.39288703 -0.42853767 -1.5101203 -1.1615627 -0.34183955 -0.602063 0.18144317 0.29867473
-0.14073214 -0.98891234 -0.10595148 -0.10980546 -1.1124947 -0.89249575 -0.12642772 -0.56152153
-0.67435455 -0.08613655 -0.88074005 -0.35340214 -0.04948355 -0.15755528 -0.6855047 -0.7732061
-0.57466483 -0.34421292 -1.1782322 -0.25209576 -0.5705143 -1.3010738 0.19741204 0.23537377
-0.6745028 -0.88766146 -0.73327905 -0.1622349 -0.6440777 -0.09694204 -0.27534172 -0.23452131
-0.52663684 -0.27645507 -1.3561457 -1.1330811 -0.22373684 0.22905423 -0.14801265 0.12711045
-1.6438649 -0.40332425 -1.3284967 -1.2274919 -0.21432395 -0.39432454 -0.3387725 0.23471047
00000000: efd0 13bf e4bf afbf a559 acbe e9b4 94bf
00000010: c3d6 7abf ca99 d93c fdfb 57be 394c 51bf
00000020: 7d28 c9be 4a69 dbbe 9f4b c1bf 16ae 94bf
00000030: 9805 afbe cd20 1abf 3dcc 393e e5eb 983e
00000040: 161c 10be 5c29 7dbf 17fd d8bd afe1 e0bd
00000050: 3a66 8ebf 9a7a 64bf 4576 01be e0bf 0fbf
00000060: 80a2 2cbf 5c68 b0bd 2e78 61bf 20f1 b4be
00000070: 43af 4abd 2c56 21be 3c7d 2fbf d6f0 45bf
00000080: 3c1d 13bf ad3c b0be 50d0 96bf b212 81be
00000090: 3a0d 12bf 9689 a6bf 6226 4a3e d205 713e
000000a0: 37ac 2cbf c83d 63bf 2db8 3bbf e820 26be
000000b0: 47e2 24bf 8c89 c6bd 97f9 8cbe 5b26 70be
000000c0: acd1 06bf 858b 8dbe 2f96 adbf cd08 91bf
000000d0: 451b 65be 318d 6a3e a190 17be 3e29 023e
000000e0: 2a6a d2bf 8480 cebe 2e0c aabf 741e 9dbf
000000f0: bd77 5bbe e8e4 c9be 9773 adbe f157 703e

BN2.running_var f4 [64]
1.1331835 4.7003636 2.634585 2.7601244 2.0468893 0.75474286 2.184495 1.963681
2.2676454 1.964159 5.0588107 3.2096872 2.155976 1.5505439 2.373677 1.4709613
1.4498533 0.9879671 0.6133872 0.53573036 4.281103 2.5120673 0.59466153 3.0253537
5.1695848 0.8225956 1.9339577 2.3523457 1.2046319 1.402542 2.9048765 3.1812632
1.843596 1.2965678 3.5481122 1.8428445 3.0802665 3.1075125 3.2192132 0.85673445
3.7257726 2.6147783 2.3764305 0.44570127 2.3549006 1.7588946 1.0622749 1.4069229
3.7192504 2.764585 2.1349592 3.158531 1.4945015 3.193916 1.3828493 0.7180928
5.4530463 1.2468454 1.8373551 2.666174 1.1591778 0.94574684 1.5847853 0.955799
00000000: 280c 913f 6169 9640 0a9d 2840 e1a5 3040
00000010: 3c00 0340 d436 413f c4ce 0b40 e659 fb3f
00000020: 1a21 1140 9069 fb3f c7e1 a140 846b 4d40
00000030: 83fb 0940 3978 c63f 53ea 1740 7648 bc3f
00000040: cb94 b93f 69eb 7c3f f206 1d3f a025 093f
00000050: ccfe 8840 b6c5 2040 bd3b 183f 659f 4140
00000060: 3d6d a540 a095 523f ed8b f73f d58c 1640
00000070: 6131 9a3f 7f86 b33f 7fe9 3940 d199 4b40
00000080: f4fa eb3f eff5 a53f 4514 6340 54e2 eb3f
00000090: 1623 4540 7ce1 4640 9707 4e40 f352 5b3f
000000a0: 0f73 6e40 8758 2740 7017 1840 f532 e43e
000000b0: b1b6 1640 7523 e13f a0f8 873f 0d16 b43f
000000c0: 3308 6e40 f6ee 3040 2ca3 0840 5f25 4a40
000000d0: d34b bf3f 1f69 4c40 3501 b13f eed4 373f
000000e0: 5b7f ae40 a198 9f3f 742e eb3f 98a2 2a40
000000f0: f05f 943f 771c 723f 3fda ca3f 3eaf 743f

fc1.weight f4 [128, 1024]
-0.0013794283 -0.03071892 -0.012555347 -0.020488491 -0.00078105176 -0.009513141 -0.03547275 -0.007853119
-0.029326625 -0.017449105 0.009207134 0.023725988 0.005390879 0.017481465 0.019017946 -0.035462484
-0.012611282 -0.013438031 0.009495336 -0.015995976 -0.0006753754 -0.010362061 -0.012299116 0.013813245
0.013892157 -0.007868636 -0.028206194 0.004391563 -0.0016448444 -0.027991733 -0.018988393 0.0031031088
0.0010460888 -0.02276056 0.015338772 -0.015340787 0.0121873235 -0.0200361 -0.02922228 0.0016071543
0.02463431 0.013198701 -0.021127932 -0.03000736 -0.013014363 -0.017011201 0.006063958 -0.0343745
-0.016604798 -0.010441827 0.014904053 0.006053587 0.022328883 -0.0046937075 -0.019620784 0.0021138922
-0.0025178343 -0.03294417 -0.026199473 -0.031164104 -0.013302252 -0.03380005 -0.002069263 0.013822817
0.009853566 0.022872452 -0.016180195 -0.021814192 -0.005158855 -0.0073632584 0.019485448 -0.03387704
-0.036590748 -0.029991066 -0.019787678 0.010287367 -0.013998146 0.0048903953 -0.028832646 0.024681816
0.0027254398 0.0029000773 0.024241181 0.008411535 0.0045713484 -0.008011166 0.0020678435 -0.008217371
-0.005177515 -0.027253607 0.01799752 0.010446023 -0.022644795 0.018306304 -0.02273144 -0.009252847
-0.016466603 0.009232698 0.002878606 -0.020208407 0.0044673057 0.0059954384 -0.0014711764 0.010313295
-0.01060589 0.010492986 0.023361342 -0.019258037 0.0074900035 0.007210709 -0.0056204973 -0.014599528
0.009251049 0.011218656 0.015163276 -0.011705279 -0.033552196 -0.016986892 -0.03414555 0.02395109
-0.035359345 0.01163664 -0.025785416 -0.032256234 0.009953532 -0.03037639 -0.028011668 0.001220467
-0.03193786 0.019503139 -0.0013190999 -0.0058554416 0.022073725 -0.020862034 -0.023226002 -0.003225331
0.013300852 0.00038775094 0.009406554 -0.036122274 -0.01173711 -0.00047752052 0.010321811 -0.02107967
-0.021982431 -0.0017319027 -0.01009959 -0.015610171 0.018285586 -0.020694602 0.008561692 0.018386828
-0.021444617 0.017410483 0.0059444997 -0.004077379 -0.034478027 0.0040289117 0.01933911 -0.00876382
0.018492866 -0.0063155396 -0.013261183 -0.014655858 -0.008151379 -0.018945679 -0.0053305766 -0.006387784
-0.03203619 -0.020590773 0.022802133 -0.0058823857 -0.0060385605 0.009442328 0.01798272 -0.03693626
-0.035070315 -0.00852266 -0.01726651 -0.031892203 -0.030344002 0.006231367 0.0109011205 -0.007877199
-0.0036346014 -0.028007256 -0.027321374 -0.033126365 -0.007439348 -0.03566368 -0.0064324546 0.01649391
-0.017654981 -0.03224951 -0.024234785 0.0087488545 -0.024018975 -0.023523457 -0.022016663 -0.02163998
0.018063935 -0.015755754 0.022940483 0.008694423 -0.010655363 -0.03161459 0.017120948 0.02100808
-0.009894612 0.019331452 -0.011685158 -0.03328361 -0.035317827 -0.016207661 0.0045612818 0.015553012
0.020890562 0.023256281 0.005990676 -0.031841874 0.0055995504 -0.007570959 -0.012964621 0.019155094
-0.006686675 -0.02204469 0.021876158 0.011916981 -0.0015469141 0.018222328 -0.03053108 -0.0063742492
-0.032486588 -0.0027445464 0.0029218758 -0.0010494686 -0.03214438 -0.026310159 -0.034509763 0.02008757
-0.01891657 0.017738102 -0.030654658 -0.0010939797 0.022138914 -0.012189849 -0.027341135 -0.010001719
0.0044646217 -0.011800499 0.002781561 -0.0038906913 -0.031085286 -0.0102558555 -0.018137617 0.021473467
00000000: efcd b4ba 3fa6 fbbc f1b4 4dbc 7bd7 a7bc
00000010: 7fbf 4cba 01dd 1bbc e04b 11bd 5eaa 00bc
00000020: 643e f0bc 6df1 8ebc 85d9 163c 015d c23c
00000030: f9a5 b03b 4a35 8f3c 86cb 9b3c 1c41 11bd
00000040: 8d9f 4ebc 302b 5cbc 5392 1b3c fe09 83bc
00000050: ad0b 31ba a2c5 29bc 3b82 49bc f350 623c
00000060: ee9b 633c 74eb 00bc ad10 e7bc 1ae7 8f3b
00000070: d297 d7ba eb4e e5bc 8c8d 9bbc 875d 4b3b
00000080: ea1c 893a 5b74 babc 794f 7b3c ed57 7bbc
00000090: 57ad 473c bf22 a4bc 9063 efbc 26a7 d23a
000000a0: e4cd c93c 5d3f 583c 7c14 adbc ffd1 f5bc
000000b0: 323a 55bc 135b 8bbc 2bb4 c63b 47cc 0cbd
000000c0: c906 88bc 3214 2bbc 2130 743c 2b5d c63b
000000d0: 10eb b63c accd 99bb c4bb a0bc 3a89 0a3b
000000e0: 4002 25bb 77f0 06bd 47a0 d6bc dd4b ffbc
000000f0: b0f1 59bc ec71 0abd 799c 07bb 1979 623c
00000100: da70 213c 025f bb3c 548c 84bc adb3 b2bc
00000110: 9d0b a9bb 7d47 f1bb f29f 9f3c a7c2 0abd
00000120: 2ee0 15bd d3af f5bc c519 a2bc 588c 283c
00000130: 7b58 65bc 9c3f a03b 7132 ecbc 8531 ca3c
00000140: 4b9d 323b 390f 3e3b 7195 c63c 89d0 093c
00000150: 40cb 953b 4441 03bc a884 073b 27a2 06bc
00000160: 25a8 a9bb f542 dfbc 896f 933c cc25 2b3c
00000170: 9481 b9bc 1af7 953c 4937 babc 4199 17bc
00000180: f8e4 86bc be44 173c ffa6 3c3b 1a8c a5bc
00000190: 7a62 923b 6275 c43b 7dd4 c0ba 18f9 283c
000001a0: 54c4 2dbc c6ea 2b3c 4960 bf3c 08c3 9dbc
000001b0: b46e f53b d047 ec3b 262c b8bb dc32 6fbc
000001c0: b691 173c 74ce 373c 646f 783c 80c7 3fbc
000001d0: 076e 09bd 1828 8bbc 34dc 0bbd 1435 c43c
000001e0: f6d4 10bd 9ba7 3e3c f03b d3bc 1d1f 04bd
000001f0: 2414 233c e8d7 f8bc ba78 e5bc 14f8 9f3a
00000200: 46d1 02bd 0cc5 9f3c a6e5 acba 01df bfbb
00000210: f5d3 b43c dbe6 aabc 7544 bebc 1360 53bb
00000220: d1eb 593c 0d4b cb39 f21d 1a3c f3f4 13bd
00000230: 024d 40bc b85b fab9 d01c 293c 46af acbc
00000240: 8014 b4bc 0301 e3ba c078 25bc cdc1 7fbc
00000250: a7cb 953c ba87 a9bc 5746 0c3c f99f 963c
00000260: 9fac afbc 6ea0 8e3c 14ca c23b 899b 85bb
00000270: d538 0dbd f604 843b 0e6d 9e3c 2096 0fbc
00000280: 5a7e 973c 96f2 cebb 6f45 59bc 201f 70bc
00000290: 5d8d 05bc f833 9bbc 1eac aebb 9e50 d1bb
000002a0: 6138 03bd fbad a8bc 8acb ba3c 07c1 c0bb
000002b0: 1edf c5bb feb3 1a3c 7f50 933c 7a4a 17bd
000002c0: e4a5 0fbd a0a2 0bbc 7f72 8dbc 66a1 02bd
000002d0: fc93 f8bc 7f30 cc3b 9d9a 323c 5e0f 01bc
000002e0: 7e32 6ebb 796f e5bc 13d1 dfbc 83af 07bd
000002f0: c6c5 f3bb 1414 12bd 57c7 d2bb 3d1e 873c
00000300: 2ea1 90bc 1018 04bd 0788 c6bc 5b57 0f3c
00000310: 71c3 c4bc 44b4 c0bc 4a5c b4bc 5446 b1bc
00000320: d1fa 933c 3612 81bc aeed bb3c 0e73 0e3c
00000330: d593 2ebc 4d7e 01bd 3b41 8c3c 2319 ac3c
00000340: 031d 22bc fe5c 9e3c 1b73 3fbc 6554 08bd
00000350: 6da9 10bd eec5 84bc ce76 953b 0fd2 7e3c
00000360: af22 ab3c f583 be3c 6f4d c43b a06c 02bd
00000370: 6f7c b73b cf15 f8bb 9069 54bc 25eb 9c3c
00000380: e51b dbbb 1197 b4bc a135 b33c 713f 433c
00000390: d3c1 caba fe46 953c 511c fabc 14df d0bb
000003a0: a810 05bd d9dd 33bb f17c 3f3b 538e 89ba
000003b0: d3a9 03bd 6788 d7bc 1c5a 0dbd b08e a43c
000003c0: ecf6 9abc 7f4f 913c 7a1f fbbc de63 8fba
000003d0: ab5c b53c efb7 47bc 84fa dfbc 40de 23bc
000003e0: f64b 923b e156 41bc da4a 363b f8fa 7ebb
000003f0: 92a6 febc 2d08 28bc 5795 94bc 20e9 af3c

fc1.bias f4 [128]
0.0102592455 -0.012652707 0.05095187 0.02963669 0.006766152 0.024286177 0.0012751527 -0.013363294
-0.0154196285 0.002154832 0.01964014 0.033004083 0.013641885 -0.03132205 -0.04307668 0.0063856407
-0.025155373 -0.018046916 -0.0126938615 -0.03576347 -0.03530801 -0.01364204 0.10671445 0.01797998
0.021824844 0.10582031 -0.020208774 0.021895738 -0.023570145 0.011135584 -0.02398627 -0.035729103
0.015860066 0.0042432994 -0.020329412 0.022441225 0.1434033 -0.0345615 -0.011938493 -0.029004684
-0.0104768155 -0.013054734 0.0101533085 0.0045977663 0.025697231 -0.02197917 -0.014145319 -0.005126155
0.0082567 -0.0014558823 -0.025133913 -0.015840858 0.016951272 -0.0046098577 0.12089434 -0.008295751
-0.03367625 0.022571562 0.021953348 0.008357566 0.040810477 0.0016691316 0.040379893 -0.02866201
0.0018263183 0.039557956 0.006687473 -0.006280392 0.018273003 0.008157259 0.018032378 0.0035162168
-0.03602201 0.012024634 -0.00082669884 0.0503063 -0.014747418 -0.009001473 0.006917476 -0.011242229
0.054794475 0.019982632 0.0067866025 -0.016771162 -0.035392735 0.009835864 -0.005034096 -0.02593079
0.008435319 0.0076332884 -0.0055674035 0.08782359 -0.03512413 -0.0041373647 -0.034745887 -0.023564862
-0.027449945 -0.030575207 0.03209429 -0.018646866 0.15398528 0.047032304 -0.03464747 -0.00875854
0.010358338 -0.03525896 0.018239884 -0.01884185 0.08936019 -0.03446238 0.12352916 -0.029057054
-0.021381745 0.018559266 -0.00691049 -0.01648801 0.030995028 0.020506267 -0.0017839229 -0.036331907
0.16125579 0.024414653 0.017882032 0.08170645 0.003999439 -0.01758046 -0.019158872 0.071881376
00000000: 6516 283c 4d4d 4fbc e8b2 503d a5c8 f23c
00000010: 99b6 dd3b cef3 c63c 0623 a73a b8f1 5abc
00000020: 9ca2 7cbc 1538 0d3b 5ce4 a03c 4a2f 073d
00000030: 3682 5f3c 8d4b 00bd 2c71 30bd a33e d13b
00000040: a412 cebc 20d7 93bc eaf9 4fbc b77c 12bd
00000050: 229f 10bd dd82 5fbc 1b8d da3d c04a 933c
00000060: 04ca b23c 52b8 d83d df8c a5bc b15e b33c
00000070: 2d16 c1bc 0672 363c db7e c4bc ae58 12bd
00000080: f8ec 813c 600b 8b3b de89 a6bc a9d6 b73c
00000090: 51d8 123e 5c90 0dbd ab99 43bc 3b9b edbc
000000a0: f3a6 2bbc 86e3 55bc 105a 263c dca8 963b
000000b0: 0083 d23c a90d b4bc c5c1 67bc 4ef9 a7bb
000000c0: 1c47 073c 4ed3 beba a3e5 cdbc b0c4 81bc
000000d0: 65dd 8a3c 4a0e 97bb 7497 f73d e7ea 07bc
000000e0: 1cf0 09bd ffe7 b83c 82d7 b33c 2cee 083c
000000f0: e328 273d c3c6 da3a 6365 253d 97cc eabc
00000100: 1361 ef3a 8607 223d 9722 db3b bfcb cdbb
00000110: 44b1 953c 06a6 053c a3b8 933c 5470 663b
00000120: d18b 13bd f802 453c d2b6 58ba fb0d 4e3d
00000130: 289f 71bc ea7a 13bc ffab e23b 5331 38bc
00000140: 2c70 603d 9eb2 a33c 2662 de3b ad63 89bc
00000150: f9f7 10bd 9b26 213c 0ff5 a4bb cf6c d4bc
00000160: 4b34 0a3c aa20 fa3b c46e b6bb dbdc b33d
00000170: 52de 0fbd bb92 87bb b451 0ebd 190b c1bc
00000180: b5de e0bc db78 fabc 4d75 033d 50c1 98bc
00000190: 51ae 1d3e f2a4 403d 81ea 0dbd fb7f 0fbc
000001a0: 05b6 293c b36b 10bd cf6b 953c 395a 9abc
000001b0: 7a02 b73d 6d28 0dbd dbfc fc3d 0f09 eebc
000001c0: c528 afbc 9a09 983c 6471 e2bb dd11 87bc
000001d0: 49e9 fd3c c2fc a73c 85d2 e9ba c4d0 14bd
000001e0: 3d20 253e 3d01 c83c 577d 923c b655 a73d
000001f0: ba0d 833b e604 90bc 11f3 9cbc 8b36 933d

fc2.weight f4 [4, 128]
-0.054088812 -0.04066941 0.039766118 -0.4189856 -0.059518036 0.065740265 0.032707848 0.014805833
0.064046964 -0.07979923 0.03457468 0.22777933 -0.036955673 -0.016443595 0.1946261 0.03657354
0.02168705 0.021436952 0.039171908 0.018564971 -0.0045615155 -0.06117874 -0.19000039 0.05166799
-0.024389664 0.1394033 -0.022327494 0.21076341 -0.0016652524 -0.07181856 -0.024835648 0.014776718
0.012316892 0.006003699 0.019319637 -0.07890056 0.12834539 -0.027445514 -0.05623672 -0.040159438
-0.0668954 -0.010998018 0.049479276 0.06372835 -0.29954243 -0.022016268 0.07704018 -0.038325176
-0.06996694 0.004090557 -0.05025934 -0.071244374 0.051329724 -0.06226455 0.25305226 -0.00944327
-0.0033914095 0.0067622624 -0.0815725 0.17094268 0.2233318 0.01936391 -0.2886554 -0.04192296
-0.009926463 0.19216923 -0.07423377 -0.05884533 -0.016288066 -0.06113709 -0.02761291 -0.30639437
0.0329061 0.0335539 0.052282523 0.12557603 -0.060280114 0.0656877 0.06636447 -0.0760143
-0.23429321 -0.01354063 -0.074135534 0.20597495 -0.014567237 0.01665997 -0.051756784 0.0237055
-0.05032237 0.07283412 0.049798343 0.2874802 -0.03136575 -0.06461038 0.013770253 -0.015871119
-0.020920273 -0.065360725 0.036856536 0.0034306082 0.17248155 0.1357087 0.011530457 0.0060927984
0.031580977 -0.03070459 -0.08265766 0.0641061 -0.45996332 0.04492784 -0.057578687 0.059374202
0.13885567 -0.017308895 -0.24709255 -0.046923168 0.20195672 0.23717335 0.03354291 -0.015473613
0.12298209 -0.08163341 -0.07389804 0.25983438 -0.07591959 -0.033064198 -0.04914566 -0.18053527
-0.06594212 -0.03144972 0.088408954 0.17589962 -0.025899224 -0.045609307 -0.044253368 -0.0441784
0.025633397 -0.00026371135 0.06652781 -0.2647996 0.036995474 -0.061442796 -0.31521654 0.06200673
-0.042436756 0.01793649 0.15284333 0.02819661 0.056318056 0.019877372 -0.034416825 0.04533575
0.0041257143 0.1576838 0.021081068 -0.26332745 -0.030479295 0.07310202 0.015605252 0.0084379455
-0.07311592 0.013505936 0.07036202 -0.055378642 -0.09311007 0.024061242 -0.060824096 -0.058050543
0.016075088 -0.030707294 0.04822559 -0.04145465 0.17000993 0.00095714745 -0.034396116 -0.05726273
0.069910355 0.053502973 -0.058016967 -0.06659366 0.050170317 0.011470295 -0.07338348 0.0089563895
0.022526415 0.046924654 0.06985211 -0.24567533 0.07129201 0.047667097 0.049482185 -0.015336825
0.052732736 -0.28191113 -0.05360103 -0.038141713 0.015919268 0.052436285 -0.0076213344 0.08393886
0.03761618 0.029418843 -0.035036087 -0.45686758 0.016760105 -0.00010798093 0.01620703 0.058069546
-0.29854843 -0.26083896 -0.010172699 -0.24707021 0.06358716 -0.06100801 0.038959812 -0.016544668
-0.039746255 0.028729754 -0.07766703 -0.21338402 -0.03963117 0.026215056 0.10173907 0.017117757
0.08204224 0.059620358 0.2055885 0.051927283 0.026497845 0.11759312 -0.025820928 -0.0009915079
-0.0023070134 0.06490734 0.065282896 0.020685218 -0.023555085 -0.052655373 0.12874807 -0.014588464
0.08585898 -0.0450149 0.27536452 0.028640335 -0.055337287 -0.2149861 0.033136263 -0.059732027
-0.0041747983 -0.06677437 -0.03235373 -0.18875629 -0.07567409 0.017611736 -0.034832634 -0.12589815
00000000: 3b8c 5dbd f894 26bd cce1 223d 4885 d6be
00000010: 2fc9 73bd d5a2 863d aaf8 053d 2a94 723c
00000020: 0e2b 833d c76d a3bd 2e9e 0d3d fc3e 693e
00000030: d55e 17bd b8b4 86bc 104c 473e 23ce 153d
00000040: 0aa9 b13c 8c9c af3c b972 203d 9115 983c
00000050: c478 95bb 8f96 7abd 768f 42be d0a1 533d
00000060: d5cc c7bc bdbf 0e3e 26e8 b6bc 5dd2 573e
00000070: 9944 daba 9c15 93bd 2174 cbbc 0c1a 723c
00000080: cacc 493c adba c43b 3744 9e3c 9e96 a1bd
00000090: f96c 033e 6ad5 e0bc 7a58 66bd 397e 24bd
000000a0: 7500 89bd 0831 34bc c8aa 4a3d 0284 823d
000000b0: a05d 99be 765b b4bc 3ec7 9d3d dcfa 1cbd
000000c0: d44a 8fbd 140a 863b bddc 4dbd 92e8 91bd
000000d0: 1e3f 523d 1d09 7fbd 1190 813e f2b7 1abc
000000e0: 6942 5ebb f895 dd3b 7c0f a7bd 990b 2f3e
000000f0: 17b1 643e 10a1 9e3c a4ca 93be 69b7 2bbd
00000100: 9aa2 22bc 03c8 443e e007 98bd cd07 71bd
00000110: 8d6e 85bc e36a 7abd 7834 e2bc b9df 9cbe
00000120: 8cc8 063d d06f 093d 3326 563d 0197 003e
00000130: 48e8 76bd 4687 863d 18ea 873d 63ad 9bbd
00000140: 8fea 6fbe 85d9 5dbc 5fd4 97bd 19eb 523e
00000150: 6cab 6ebc 7d7a 883c ecfe 53bd 0932 c23c
00000160: d41e 4ebd 0e2a 953d 59f9 4b3d 9b30 933e
00000170: 5f79 00bd 7252 84bd a19c 613c 2604 82bc
00000180: fe60 abbc d8db 85bd e1f6 163d 0ed4 603b
00000190: 019f 303e 39f7 0a3e 3eea 3c3c 19a6 c73b
000001a0: 0e5b 013d 3188 fbbc 6b48 a9bd 0f4a 833d
000001b0: 5080 ebbe 4106 383d a1d7 6bbd 5d32 733d
000001c0: 2e30 0e3e 62cb 8dbc d405 7dbe 8232 40bd
000001d0: becd 4e3e 92dd 723e 4a64 093d 0985 7dbc
000001e0: 09de fb3d 6b2f a7bd db57 97bd 0309 853e
000001f0: bb7b 9bbd 536e 07bd f64c 49bd 3dde 38be
00000200: aa0c 87bd 6cd1 00bd c10f b53d 081f 343e
00000210: 9c2a d4bc d3d0 3abd 0543 35bd 69f4 34bd
00000220: 21fd d13c bd42 8ab9 bc3f 883d d093 87be
00000230: 9188 173d 71ab 7bbd 1064 a1be c5fa 7d3d
00000240: 2ad2 2dbd 8cef 923c f682 1c3e 94fc e63c
00000250: c3ad 663d dfd5 a23c a8f8 0cbd fbb1 393d
00000260: 0031 873b dd77 213e 34b2 ac3c dbd2 86be
00000270: b7af f9bc 83b6 953d 2cad 7f3c 4f3f 0a3c
00000280: cdbd 95bd 0048 5d3c f619 903d b7d4 62bd
00000290: 7eb0 bebd 151c c53c b022 79bd 68c6 6dbd
000002a0: e7af 833c dd8d fbbc 3288 453d 5acc 29bd
000002b0: 1517 2e3e 14e9 7a3a f1e2 0cbd 538c 6abd
000002c0: 292d 8f3d ef25 5b3d 33a3 6dbd 4262 88bd
000002d0: 647f 4d3d e7ed 3b3c 144a 96bd d2bd 123c
000002e0: 5189 b83c 1134 403d a00e 8f3d 5092 7bbe
000002f0: 8c01 923d 933e 433d d5ad 4a3d 4e47 7bbc
00000300: 48fe 573d a856 90be c18c 5bbd 7c3a 1cbd
00000310: 2069 823c 6ec7 563d 63bc f9bb 23e8 ab3d
00000320: 6c13 1a3d c9ff f03c 0082 0fbd 8cea e9be
00000330: 7d4c 893c d273 e2b8 9bc4 843c 55da 6d3d
00000340: 57db 98be af8c 85be 64ab 26bc f9ff 7cbe
00000350: fc39 823d 89e3 79bd 5394 1f3d af88 87bc
00000360: f8cc 22bd a95a eb3c e40f 9fbd 5781 5abe
00000370: 4b54 22bd f5c0 d63c 935c d03d 8a3a 8c3c
00000380: c305 a83d 7a34 743d cb85 523e b4b1 543d
00000390: 0212 d93c a9d4 f03d 6986 d3bc 7cf5 81ba
000003a0: 4331 17bb 24ee 843d 0ab3 853d 0c74 a93c
000003b0: 98f6 c0bc 29ad 57bd 89d6 033e 7404 6fbc
000003c0: d5d6 af3d 8b61 38bd 94fc 8c3e 239f ea3c
000003d0: 5aa9 62bd 5125 5cbe e4b9 073d 92a9 74bd
000003e0: bfcc 88bb 00c1 88bd 5885 04bd 5449 41be
000003f0: 04fb 9abd 7d46 903c aaac 0ebd 72eb 00be

fc2.bias f4 [4]
0.03794416 0.0028121974 -0.13989551 -0.00885931
00000000: 566b 1b3d d84c 383b c540 0fbe a426 11bc
