cnn saved models/cnn_epoch18.pt (torch, 609343 bytes, 16 tensors)

conv1.weight f4 [32, 1, 3, 3]
0	0x3eb219e3	0.34785375
1	0x3ec57083	0.38562402
2	0xbe7ebfa5	-0.24877794
3	0xbebdd86d	-0.37079182
4	0xbea244e5	-0.31693187
5	0xbe6aadbc	-0.22917837
6	0x3d763cd6	0.06011661
7	0x3c54ac98	0.012980603
8	0x3eaee1bc	0.34156597
9	0x3f558163	0.83400553
10	0xbe2576b2	-0.1615856
11	0x3ed8fd27	0.4238064
12	0xbe14a764	-0.1451698
13	0xbdd2f439	-0.10300488
14	0xbe821088	-0.25403237
15	0x3c5a0dc2	0.013308944
16	0x3e91e5c2	0.28495604
17	0xbe086357	-0.13319145
18	0x3db7b308	0.089696944
19	0x3ce6f970	0.028195113
20	0x3ec8a866	0.39190978
21	0xbe8f1e9f	-0.2795305
22	0xbf074ae7	-0.52848667
23	0x3dca01eb	0.09863647
24	0x3e89db5a	0.26925164
25	0x3ea0db2b	0.31417212
26	0xbeba1d9f	-0.36350724
27	0xbd99c923	-0.07509067
28	0x3ed36d7e	0.41294473
29	0x3e841404	0.2579652
30	0x3d6e3188	0.058152705
31	0xbe7e981b	-0.24862711
32	0xbf046b13	-0.5172588
33	0xbe00d93a	-0.12582865
34	0x3e951fbf	0.29125783
35	0xbe10cddb	-0.14141028
36	0xbde7d7b3	-0.11320438
37	0xbe606977	-0.21915232
38	0x3e5ee648	0.21767533
39	0xbea85321	-0.32875922
40	0x3e6ff9e6	0.23435172
41	0x3e135b60	0.14390326
42	0x3eb292bc	0.34877574
43	0x3ddc097e	0.10743998
44	0xbea68c83	-0.32529077
45	0x3e2351e6	0.1594921
46	0xbeb69c66	-0.35666198
47	0xbf02a1cd	-0.5102814
48	0x3e2bc82b	0.16775577
49	0x3ea155d8	0.31510806
50	0xbd41d063	-0.047317874
51	0xbea27a69	-0.31734017
52	0xbda9fbe8	-0.083000004
53	0xbf10f269	-0.5661989
54	0x3e1c2e45	0.15252025
55	0xbe82122f	-0.25404498
56	0xbe9142f9	-0.2837141
57	0x3e093c94	0.13402015
58	0x3e9791e2	0.29603487
59	0x3edc4302	0.43019873
60	0xbee342e6	-0.44386977
61	0x3d0c81ed	0.034303594
62	0xbda210ae	-0.07913338
63	0x3ec99cac	0.39377344
64	0xbea1b517	-0.31583473
65	0xbeb0c9d7	-0.34528992
66	0x3ea481e9	0.32130364
67	0xbe00bb21	-0.12571384
68	0xbeba05ee	-0.3633265
69	0x3e8b8333	0.27248535
70	0xbccf3c3c	-0.025297277
71	0x3e458b7d	0.19291492
72	0x3dc32469	0.09528429
73	0xbe062e2d	-0.13103552
74	0xbf478f69	-0.779532
75	0xbce9f93c	-0.028561227
76	0x3c5f3ba1	0.0136250565
77	0x3d74a343	0.05972601
78	0x3e87b4a7	0.26505014
79	0x3e0474d7	0.12935196
80	0xbc9685c9	-0.01837434
81	0x3e7ebafd	0.24876018
82	0xbeaa2765	-0.3323318
83	0x3f01fe50	0.50778675
84	0xbe7d3c77	-0.24730097
85	0xbdc2dc0d	-0.095146276
86	0xbf016c10	-0.50555515
87	0x3e7371ca	0.23773876
88	0x3e2bf578	0.16792858
89	0xbdd02582	-0.10163404
90	0xbcee2cf5	-0.029074172
91	0xbe824bc3	-0.25448427
92	0xbd9dba85	-0.077015914
93	0xbe8fb63d	-0.28068724
94	0x3dde78ad	0.10862861
95	0xbeefafab	-0.46813712
96	0x3ea0e2ba	0.3142298
97	0x3ec99873	0.39374122
98	0xbc99ca2a	-0.018773157
99	0xbe3cfaf0	-0.184551
100	0x3e755329	0.23957504
101	0xbe1b93ce	-0.15193102
102	0x3e009e52	0.12560394
103	0x3e85ab99	0.2610748
104	0xbe4aea91	-0.19816042
105	0x3f019f59	0.5063377
106	0xbe5fbfc3	-0.21850495
107	0xbe83d783	-0.2575036
108	0x3efad1fe	0.48988336
109	0x3e20d0b6	0.15704617
110	0x3c81f15d	0.015862161
111	0x3e572f67	0.21014176
112	0xbe5aabd7	-0.21354614
113	0xbe39fd3e	-0.1816301
114	0xbe7cdb46	-0.24693021
115	0xbdb8df00	-0.09026909
116	0xbe8b99b2	-0.27265698
117	0xbeecc5ae	-0.46244568
118	0xbc644798	-0.013933085
119	0xbed74509	-0.42044857
120	0xbe7efe2c	-0.24901646
121	0x3e1461d2	0.1449044
122	0x3d3c4ae6	0.045969866
123	0x3c6791ab	0.014133851
124	0x3e32c8ad	0.17459364
125	0x3ec60dc0	0.38682365
126	0x3ed021ee	0.40650886
127	0xbec9eaa0	-0.39436817
128	0xbd98daf3	-0.07463636
129	0x3e8abf7d	0.2709922
130	0x3e3e0120	0.18555117
131	0xbef71deb	-0.48265013
132	0x3ec08f99	0.37609556
133	0x3dab7986	0.08372788
134	0xbecc1465	-0.3985931
135	0x3cb04a82	0.021519903
136	0xbd469de7	-0.04849043
137	0xbf1a188f	-0.60193723
138	0x3deda538	0.116037786
139	0xbec1b818	-0.37835765
140	0xbddd31a1	-0.108004816
141	0x3f0b2068	0.54346323
142	0x3df9526f	0.12173926
143	0xbe0c91d2	-0.13727501
144	0x3ea26c3a	0.31723195
145	0x3e230a23	0.15921836
146	0xbecec04c	-0.40381086
147	0xbdf80bfb	-0.1211166
148	0xbe49661a	-0.19667855
149	0x3ed80002	0.42187506
150	0xbef1cb50	-0.47225428
151	0x3ed2a869	0.41144112
152	0xbd9c52e1	-0.076329954
153	0xbe725cc4	-0.236682
154	0xbcc65349	-0.024209635
155	0x3e01a4e2	0.12660554
156	0x3d97eb3a	0.07417913
157	0xbf0b708f	-0.54468626
158	0xbecb22f4	-0.39675105
159	0x3e6be213	0.23035459
160	0x3ec5228e	0.38502926
161	0x3ea49b4f	0.3214974
162	0x3e3c1d7a	0.1837062
163	0x3ee87a35	0.45405737
164	0x3dbd6d27	0.09249335
165	0x3e66f87e	0.2255573
166	0xbe705ae3	-0.2347217
167	0xbe14bce8	-0.14525187
168	0xbd9b0f82	-0.07571317
169	0xbeca63a4	-0.39529145
170	0xbcbd649f	-0.023119269
171	0x3ec9e22c	0.39430368
172	0x3e7da1fa	0.2476882
173	0x3d31cb46	0.043406747
174	0xbf1c3b1c	-0.61027694
175	0xbee299bc	-0.44257915
176	0x3d960fb1	0.07327212
177	0x3e352d12	0.17692974
178	0x3e17afde	0.14813182
179	0x3e82bc14	0.25534117
180	0x3cfa1b3e	0.030530568
181	0xbefcbb72	-0.4936176
182	0x3eda89a3	0.42683133
183	0xbeb3dcf5	-0.35129514
184	0xbe20e356	-0.15711722
185	0x3e69bb32	0.22825316
186	0xbe103054	-0.14080936
187	0xbc8ccbae	-0.017186966
188	0x3e6cf9e6	0.23142204
189	0xbeb382aa	-0.35060626
190	0x3ea74c33	0.32675323
191	0x3edad6e9	0.42742088
192	0x3e260739	0.16213693
193	0xbde163bf	-0.11005353
194	0xbe332730	-0.17495418
195	0x3e3fb8a5	0.1872278
196	0xbd959ace	-0.07304917
197	0xbee5035f	-0.44729134
198	0x3e108685	0.14113815
199	0xbe53d9e0	-0.20688581
200	0xbe67aab6	-0.22623715
201	0x3ed4a1e1	0.41529754
202	0xbdce6880	-0.100785255
203	0xbe22997a	-0.15878859
204	0xbf00a300	-0.5024872
205	0x3e97fe75	0.29686323
206	0x3eb0170c	0.34392583
207	0xbe457c55	-0.1928571
208	0xbc82fb66	-0.015989017
209	0x3da16240	0.07880068
210	0xbd6feac3	-0.058573496
211	0xbe79ac40	-0.24382114
212	0x3eb00b81	0.34383777
213	0xbecfb8c7	-0.4057066
214	0xbc86260f	-0.01637557
215	0x3efaacb3	0.48959884
216	0xbeb6967d	-0.35661688
217	0xbdc217da	-0.094772056
218	0x3eadc42a	0.33938724
219	0xbef97ed7	-0.48729584
220	0xbdabdda2	-0.083918825
221	0x3e8ff341	0.28115276
222	0x3d17217f	0.03689718
223	0x3eb72251	0.3576837
224	0x3d0ab57a	0.033864476
225	0x3e5e280f	0.21694969
226	0xbe92602a	-0.28588992
227	0x3d770608	0.060308486
228	0x3e9684a3	0.2939807
229	0xbf29e842	-0.6637002
230	0x3eb6157f	0.35563275
231	0x3e2a9354	0.16657764
232	0xbecef1e1	-0.40418914
233	0x3e69cb14	0.22831374
234	0x3e05890f	0.13040565
235	0xbf089602	-0.53353894
236	0xbe9d2f50	-0.3070016
237	0x3e6d6c45	0.23185833
238	0xbed7b6d2	-0.42131668
239	0xbe38f552	-0.18062332
240	0xbdf61e82	-0.12017538
241	0x3ed56e6e	0.41685814
242	0x3e1e446c	0.15455788
243	0xbf0b22c9	-0.5434995
244	0xbec87f7f	-0.39159772
245	0x3e459080	0.19293404
246	0x3dd84c1c	0.10561392
247	0xbcec79ab	-0.02886661
248	0xbdac7e65	-0.08422545
249	0x3e43a0a8	0.19104254
250	0xbe09b701	-0.13448717
251	0x3eb1d43c	0.34732234
252	0xbea05e36	-0.31321877
253	0x3e893528	0.26798368
254	0x3efeef2b	0.49791846
255	0xbec2cbbc	-0.38046062

conv1.bias f4 [32]
0	0x3e9f8bc3	0.31161317
1	0x3e9ff206	0.31239337
2	0x3ca20ca5	0.01978142
3	0xbea5e566	-0.3240158
4	0x3f069547	0.5257153
5	0x3ee7692a	0.4519742
6	0x3cf70fb9	0.030158864
7	0x3e0f8bcf	0.14018176
8	0x3eb0615b	0.34449276
9	0x3e4dc9b9	0.20096482
10	0x3e7254ec	0.23665208
11	0x3f3ec46e	0.7451848
12	0x3f00afa0	0.5026798
13	0x3e9cc219	0.30616835
14	0xbe0e2358	-0.1388067
15	0xbd4b9490	-0.049702227
16	0x3cec3e4c	0.0288383
17	0x3ee7339d	0.45156565
18	0xbf54cc6b	-0.8312442
19	0x3e948ebc	0.29015148
20	0x3e0dfa59	0.13865031
21	0xbd718e42	-0.05897356
22	0x3ed0257c	0.40653598
23	0xbe1b7b75	-0.15183814
24	0x3f2de88a	0.6793295
25	0xbea6ac03	-0.3255311
26	0x3cd248fa	0.025669564
27	0xbdd9697f	-0.10615825
28	0x3e396916	0.18106493
29	0xbd033862	-0.032036193
30	0xbeb422b0	-0.35182714
31	0xbc0b07e4	-0.008485768

BN1.weight f4 [32]
0	0x3fae283f	1.3606032
1	0x3ec44167	0.38331148
2	0x3f953153	1.1655678
3	0x3f5b8f91	0.8576594
4	0x3f65a19d	0.8969973
5	0x3f415828	0.7552514
6	0x3f8b3006	1.087403
7	0x3f2a7d3d	0.6659735
8	0x3f78e8e7	0.9723038
9	0x3fb0788c	1.3786788
10	0x3f65c1b6	0.89748704
11	0x3eddfb98	0.43356013
12	0x3f70cdae	0.9406384
13	0x3f6023a3	0.8755438
14	0x3f28c4ed	0.65925485
15	0x3f865077	1.0493306
16	0x3f5ebd0a	0.870072
17	0x3ecb5ea6	0.3972065
18	0x3f39124e	0.72293556
19	0x3f50922d	0.81473047
20	0x3f7e960b	0.994477
21	0x3f713362	0.9421903
22	0x3f8738e4	1.0564237
23	0x3ef51e34	0.47874606
24	0x3f13e81e	0.5777606
25	0x3f9e81f3	1.2383407
26	0x3f9d01d8	1.2266188
27	0x3f3f3f08	0.74705553
28	0x3f7742ff	0.965866
29	0x3f2ea0a1	0.6821385
30	0x3f5f06d0	0.8711977
31	0x3f60bde6	0.8778976

BN1.bias f4 [32]
0	0xbed82c45	-0.42221275
1	0xbe30db93	-0.17271261
2	0xbe5bd903	-0.21469502
3	0xbdd42825	-0.103592195
4	0xbf8ac54f	-1.0841464
5	0xbeb039df	-0.34419152
6	0xbe00b04e	-0.12567255
7	0xbdb63689	-0.088971205
8	0xbf10bdde	-0.56539714
9	0xbf3aae5c	-0.729223
10	0xbeda667c	-0.42656314
11	0xbe186a90	-0.148844
12	0xbbccd10b	-0.006250506
13	0xbed63415	-0.4183661
14	0xbdb1e117	-0.086855106
15	0xbf488cad	-0.78339654
16	0xbf5d0aa0	-0.8634434
17	0xbda0930f	-0.07840549
18	0xbf1c9ab5	-0.61173564
19	0xbf1af39d	-0.60527974
20	0xbf0a34ce	-0.53986824
21	0xbef8e67b	-0.48613343
22	0xbfa18441	-1.2618486
23	0xbd4776cc	-0.048697278
24	0xbda7e893	-0.08198657
25	0xbebf2d78	-0.37339377
26	0xbf55b1a2	-0.8347417
27	0xbdba55f6	-0.09098427
28	0xbd5110a5	-0.051041264
29	0xbd2ca693	-0.042151045
30	0xbf37e72a	-0.71837103
31	0xbe1a9a0e	-0.1509783

BN1.running_mean f4 [32]
0	0x3e9b3c0c	0.3031925
1	0x3ee84e23	0.45372114
2	0x3c940993	0.018070972
3	0xbeb00c92	-0.3438459
4	0x3f09da86	0.53849065
5	0x3e60065b	0.21877424
6	0x3d06a380	0.03287077
7	0x3e0ec443	0.13942055
8	0x3e8afb96	0.2714507
9	0x3e310912	0.17288616
10	0x3e33888a	0.17532554
11	0x3f453e83	0.7704851
12	0x3ef35cdd	0.47531787
13	0x3e70848f	0.23488067
14	0xbe12ec9c	-0.14348072
15	0xbe110b6d	-0.14164515
16	0x3d1d3a81	0.03838587
17	0x3ede3e1a	0.43406755
18	0xbf515d23	-0.8178274
19	0x3ead5853	0.3385645
20	0x3db329cb	0.08748206
21	0xbd8e2191	-0.06939996
22	0x3ed0ed87	0.4080622
23	0xbe20ed75	-0.15715583
24	0x3f2ec89f	0.68274873
25	0xbeac2fe7	-0.33630297
26	0xbdc781bb	-0.09741541
27	0xbe321d9d	-0.17394109
28	0x3e0cd572	0.13753298
29	0xbda492d5	-0.080358185
30	0xbeb3bd43	-0.35105333
31	0xbcf10504	-0.029421337

BN1.running_var f4 [32]
0	0x3bae801b	0.00532533
1	0x3cda1968	0.026623443
2	0x3b856bf9	0.0040717092
3	0x3bb92682	0.0056503424
4	0x3a615667	0.0008595944
5	0x3d6e8a83	0.058237564
6	0x3ba9789d	0.005171849
7	0x3bd347d8	0.0064477734
8	0x3c7edb42	0.015555205
9	0x3bb93b1a	0.0056527974
10	0x3c6eb122	0.014568599
11	0x3b0d4b20	0.002155967
12	0x3c374f77	0.0111883795
13	0x3c9967e3	0.018726295
14	0x3b8aaa52	0.0042317295
15	0x3ca9f382	0.020745996
16	0x3a92ed2d	0.00112096
17	0x3c59ba91	0.01328911
18	0x3c1dfd64	0.009642933
19	0x3c0dd59b	0.008656885
20	0x3ba69773	0.005083972
21	0x3b86e6d4	0.0041168723
22	0x3afdf195	0.0019374365
23	0x3b293673	0.0025819808
24	0x3b94d2e4	0.0045417417
25	0x3b130cf5	0.0022438143
26	0x3cd22bbb	0.025655618
27	0x3c56e587	0.013116247
28	0x3c4a0418	0.012330078
29	0x3c12555d	0.008931485
30	0x394b3f6b	0.00019383214
31	0x3c9ade91	0.018904956

conv2.weight f4 [64, 32, 3, 3]
0	0xbe228589	-0.15871252
1	0x3e57d973	0.21079044
2	0xbdab582d	-0.083664276
3	0xbb8a0c05	-0.0042128586
4	0x3d3e973b	0.046530943
5	0xbe8a884c	-0.2705711
6	0xbd8651c2	-0.06558563
7	0x3d9b77aa	0.075911835
8	0xbde24519	-0.110483356
9	0xbd6c09f4	-0.05762668
10	0x3c3b0aa2	0.011416109
11	0x3d75152f	0.059834655
12	0xbeb4bfec	-0.35302675
13	0xbede72e3	-0.43447027
14	0xbeccdc76	-0.40011948
15	0x3e43be1a	0.19115487
16	0x3e17abac	0.14811581
17	0x3e4a43da	0.19752446
18	0xbc7bf3f8	-0.015377991
19	0x3d312683	0.04324962
20	0x3de4a3c6	0.1116405
21	0xbd9daa40	-0.07698488
22	0xbce49632	-0.02790365
23	0xbd16a32a	-0.0367767
24	0xbd6ace9e	-0.05732595
25	0xbdb2a418	-0.08722705
26	0x3d91df9e	0.0712273
27	0xbe8eb668	-0.2787354
28	0x3d367041	0.044540647
29	0x3e67fbfe	0.22654721
30	0xbef05837	-0.46942303
31	0x3d08d096	0.033402048
32	0xbe2e3dfd	-0.17015834
33	0xbd322cb1	-0.043499652
34	0x3e9172a7	0.28407785
35	0x3dc9b39b	0.0984871
36	0x3eae4339	0.34035662
37	0xbe90a3ae	-0.28249878
38	0xbe579c3d	-0.21055694
39	0xbd411e8d	-0.047148276
40	0xbe8f1d7c	-0.27952182
41	0xbe62d270	-0.22150588
42	0xbd81003f	-0.06298875
43	0xbe7371c9	-0.23773874
44	0xbe4473b1	-0.19184758
45	0xbe8519ce	-0.2599625
46	0xbd43c453	-0.04779465
47	0xbe4ae971	-0.19815613
48	0xbe8a9d9a	-0.27073365
49	0xbdd54551	-0.10413612
50	0xbe32fcfe	-0.17479321
51	0x3e44aa78	0.19205654
52	0x3e7740f5	0.24145873
53	0x3e65d0e9	0.22442974
54	0xbd8d8486	-0.069100425
55	0xbdfcdcc1	-0.12346793
56	0xbe6cc276	-0.23121056
57	0x3c383fd6	0.011245688
58	0x3dde2b90	0.10848153
59	0x3e69e199	0.22839965
60	0xbe994302	-0.29933935
61	0xbea0b591	-0.31388524
62	0xbe6b4a58	-0.22977579
63	0xbd4b1cff	-0.0495882
64	0x3e030e82	0.12798503
65	0x3db7b051	0.089691766
66	0xbe015219	-0.12628974
67	0xbd438288	-0.047731906
68	0xbebf92f9	-0.3741682
69	0x3e4f263d	0.2022943
70	0x3e5085b2	0.203635
71	0x3e689460	0.2271285
72	0xbe9376c2	-0.28801543
73	0xbbca9851	-0.0061827083
74	0xbe5cacfc	-0.21550363
75	0xbe606ff4	-0.21917707
76	0x3e0231ec	0.12714356
77	0xbe8cc481	-0.2749367
78	0x3e59e410	0.21278405
79	0x3e7783f4	0.2417143
80	0xbcb489bb	-0.022038331
81	0xbf000015	-0.50000125
82	0xbf2b5387	-0.6692433
83	0xbf1e5af6	-0.61857545
84	0x3ea6c859	0.32574728
85	0x3e4bb2fd	0.19892497
86	0x3d4e258a	0.05032877
87	0xbeb82acf	-0.3597016
88	0xbee577ed	-0.4481806
89	0xbf0f0aef	-0.5587606
90	0x3ebf2e5e	0.37340063
91	0x3e8f094e	0.27936786
92	0x3e37c967	0.17947923
93	0xbdfcd864	-0.12345961
94	0xbd87d355	-0.06632105
95	0xbeab8bf9	-0.33505228
96	0x3d9cb67e	0.07651995
97	0x3d556630	0.052099407
98	0xbbf5fa54	-0.007506648
99	0xbc9d091f	-0.019169388
100	0x3dcac235	0.09900323
101	0xbd866f2d	-0.06564174
102	0xbe1c885c	-0.15286392
103	0xbbeca884	-0.007222237
104	0xbe8ea78c	-0.27862203
105	0x3e9388a3	0.28815183
106	0x3dc0ba1f	0.094105
107	0xbe149d8b	-0.14513223
108	0x3e82e130	0.2556243
109	0x3e74ff99	0.23925628
110	0x3cc4ddd7	0.024031563
111	0x3e298957	0.16556297
112	0xbd6d5f78	-0.057952374
113	0xbf36df8e	-0.7143487
114	0xbded0650	-0.1157347
115	0x3ddd19c4	0.1079593
116	0x3e39944d	0.18122979
117	0x3d13b026	0.03605666
118	0xbcba186f	-0.022716729
119	0xbe489f7b	-0.19592087
120	0xbe4761fe	-0.19470975
121	0x3c3165cc	0.010827493
122	0xbe99d42a	-0.3004468
123	0xbd8197c0	-0.06327772
124	0x3c7d5ae7	0.015463567
125	0x3d4a9a39	0.049463484
126	0xbd10cacb	-0.03534965
127	0x3d0f80cf	0.03503495
128	0xbd9d8dad	-0.07693038
129	0x3d23a96a	0.039956488
130	0x3c17406b	0.009231667
131	0xbefb1d2c	-0.49045694
132	0xbce15a4f	-0.027508883
133	0x3d35a327	0.044345047
134	0xbe79236a	-0.24329916
135	0xbeeb534b	-0.45961985
136	0xbe3693cd	-0.17829819
137	0xbf25c97f	-0.64760584
138	0x3c761f2d	0.015022081
139	0x3d5ac0a8	0.053406388
140	0xbd190490	-0.037357867
141	0x3e840edd	0.2579259
142	0x3d4b8b61	0.04969347
143	0xbea34c48	-0.31894135
144	0xbf1657ae	-0.5872754
145	0xbe9722f4	-0.29518855
146	0xbecbe250	-0.398211
147	0x3e6269ce	0.22110674
148	0x3e775bd1	0.24156119
149	0x3d7250ff	0.059159275
150	0xbdce54a9	-0.100747414
151	0xbdfb5b34	-0.12273255
152	0x3e69783a	0.22799769
153	0x3ed1be4a	0.40965492
154	0x3e96de2e	0.29466385
155	0x3ed5404a	0.4165061
156	0xbe0c0e94	-0.13677436
157	0xbe1c4e3f	-0.15264224
158	0xbd87b8db	-0.06627055
159	0x3d871a66	0.06596832
160	0x3dbcd2dd	0.092199065
161	0x3e1aa24e	0.15100977
162	0xbec7c90b	-0.3902057
163	0xbe8c5d0f	-0.27414748
164	0x3d62c2f7	0.055361714
165	0x3d90f79f	0.0707848
166	0xbeacd4ea	-0.3375619
167	0xbf055416	-0.5208143
168	0x3e2eb75e	0.17062137
169	0x3e31c3e9	0.1735989
170	0x3e76d4fd	0.24104686
171	0xbec71bdb	-0.3888844
172	0xbdeb4ce9	-0.11489279
173	0xbdc8e153	-0.09808602
174	0xbc96bdba	-0.018401016
175	0xbdc96f8e	-0.098357305
176	0xbe69e1ed	-0.2284009
177	0x3e61350c	0.21992892
178	0x3e1810e3	0.14850192
179	0x3ea8157b	0.32828888
180	0x3ed3a039	0.41333178
181	0x3e4231a1	0.18964244
182	0xbcec82cd	-0.028870964
183	0xbe7ea6b1	-0.24868275
184	0xbd9d7e43	-0.07690098
185	0xbeaf58c6	-0.34247416
186	0xbea79da2	-0.32737452
187	0x3d0f5aba	0.034998633
188	0xbee47406	-0.4461977
189	0xbe4fdcd3	-0.20299082
190	0xbd522529	-0.05130497
191	0x3e7121cc	0.23548049
192	0xbee50beb	-0.44735655
193	0xbeaaa2d1	-0.33327344
194	0xbeed2786	-0.46319216
195	0xbe0b431b	-0.13599817
196	0x3e779025	0.2417608
197	0x3e4650e2	0.19366792
198	0xbe13328c	-0.14374751
199	0x3d8c83ee	0.06861101
200	0x3e27e78e	0.16396925
201	0x3e521017	0.2051395
202	0x3c426834	0.011865664
203	0xbd47ed8a	-0.04881052
204	0xbdcec052	-0.10095276
205	0xbe21276d	-0.15737696
206	0x3c609f11	0.013709799
207	0x3e5218b8	0.20517242
208	0x3d92debf	0.07171392
209	0x3e3d9119	0.18512382
210	0xbdd41955	-0.10356394
211	0xbd36a94a	-0.04459504
212	0xbe02929e	-0.12751243
213	0xbe94f100	-0.29090118
214	0xbd656fe5	-0.056014914
215	0xbe92b645	-0.28654686
216	0x3e402c3d	0.18766876
217	0xbd59c53e	-0.05316662
218	0x3e516286	0.2044774
219	0xbe5daaac	-0.21647137
220	0xbe805166	-0.25062102
221	0xbe63aa1e	-0.22232863
222	0xbcfb6fb9	-0.030692922
223	0x3dad8255	0.084721245
224	0x3e86bcb4	0.26315844
225	0x3e29d408	0.1658479
226	0x3d94f336	0.07272951
227	0x3d8889a9	0.066668816
228	0x3d518660	0.05115354
229	0xbcab88dd	-0.020939285
230	0x3d62c5b6	0.055364333
231	0xbe8f07e0	-0.27935696
232	0xbed0c80b	-0.4077762
233	0xbf1733fc	-0.59063697
234	0xbf7d6837	-0.98987144
235	0xbf8ec818	-1.1154814
236	0xbf94f46f	-1.1637095
237	0xbe27c7f1	-0.16384865
238	0xbe163321	-0.14667942
239	0xbdfee23d	-0.12445495
240	0xbe972a95	-0.29524675
241	0xbedeac76	-0.43490952
242	0xbee57fea	-0.44824153
243	0x3dd76047	0.1051641
244	0xbe2efc5c	-0.17088455
245	0xbef73c6c	-0.48288286
246	0xbe7f1942	-0.24911979
247	0xbe65b67f	-0.22432898
248	0xbe118fa0	-0.14214945
249	0x3e1dacbe	0.15397927
250	0x3e7059ca	0.23471752
251	0x3e814db6	0.252546
252	0x3e5c8fed	0.21539278
253	0x3e2a6f73	0.16644077
254	0x3f1a5598	0.60286856
255	0xbdac4f91	-0.084136136

conv2.bias f4 [64]
0	0xbccc8882	-0.024967436
1	0x3cb2edbb	0.021841874
2	0x3bddc910	0.0067683533
3	0xbd0755a2	-0.03304065
4	0x3dd88fe0	0.10574317
5	0x3b16b36b	0.0022995125
6	0x3d4f0aef	0.050547536
7	0x3da3f76c	0.08006176
8	0x3cb869f4	0.02251146
9	0xbd38b863	-0.04509772
10	0x3dbffcc9	0.09374387
11	0x3c829ab8	0.015942916
12	0x3d412268	0.047151953
13	0xbe713f55	-0.23559316
14	0x3cb987f0	0.022647828
15	0x3d39f2b4	0.045397475
16	0xbc4dc4e2	-0.012559148
17	0xbdd470ab	-0.10373052
18	0xbd7f3c82	-0.062313564
19	0x3d3bc737	0.045844283
20	0x3dd8d906	0.10588269
21	0x3c6249db	0.013811554
22	0xbe0e133c	-0.13874525
23	0xbe220e31	-0.15825726
24	0xbcd06e5a	-0.025443245
25	0xbd3e7220	-0.046495557
26	0x3d07eba8	0.033183724
27	0x3c76a59e	0.015054135
28	0x3d2f48dc	0.042794093
29	0x3c8fddd7	0.017561836
30	0x3d83897e	0.06422709
31	0x3da7a485	0.081856765
32	0x3cc5be76	0.02413867
33	0x3c05afb3	0.008159566
34	0xbca2fc0e	-0.01989558
35	0xbd99b4fa	-0.07505222
36	0x3dc0fdf4	0.09423438
37	0xbd3eb87b	-0.046562653
38	0xbdbeddd2	-0.093196526
39	0xbd95bb3a	-0.07311101
40	0x3d234300	0.039858818
41	0xbce0a805	-0.027423868
42	0x3d0e0996	0.03467711
43	0x3c8f6397	0.017503543
44	0x380f0654	3.409975e-05
45	0xbc602d9a	-0.013682747
46	0x3cc96422	0.02458388
47	0xbdca304c	-0.09872493
48	0x3d6033fe	0.054737084
49	0xbd32a889	-0.04361776
50	0xbd234e02	-0.039869316
51	0x3cbe5283	0.023232704
52	0x3d92be71	0.0716523
53	0x3d63d817	0.055626
54	0x3d04dd4f	0.03243762
55	0x3e22dc2e	0.15904304
56	0x3e13b079	0.14422788
57	0x3cec01ac	0.028809391
58	0x3a943fb9	0.0011310495
59	0xbd4c2904	-0.049843803
60	0x3d8b001c	0.0678713
61	0xbd3ee7b0	-0.046607673
62	0x3d1b7bba	0.03795979
63	0xbd394717	-0.045233812

BN2.weight f4 [64]
0	0x3fa99f7d	1.3251797
1	0x3f8e4dd6	1.1117504
2	0x3fa0ea0d	1.2571427
3	0x3fa104ab	1.257955
4	0x3f87a34e	1.0596712
5	0x3fa8de48	1.3192835
6	0x3f599926	0.8499931
7	0x3f887659	1.0661117
8	0x3f9c34c4	1.2203603
9	0x3fa85a59	1.3152572
10	0x3f8f3632	1.1188414
11	0x3f9915fc	1.1959834
12	0x3fa50814	1.289309
13	0x3fb6dca6	1.4286087
14	0x3f91e2d5	1.1397349
15	0x3f8c6b99	1.0970336
16	0x3fae531a	1.361911
17	0x3fac663d	1.3468701
18	0x3fda5b52	1.7059119
19	0x40124d37	2.2859628
20	0x3f9b0c16	1.2113063
21	0x3faeaef3	1.364714
22	0x40098ec6	2.1493392
23	0x3fa427b5	1.2824618
24	0x3fa803e9	1.3126193
25	0x40028bf5	2.0397923
26	0x3fadf5ea	1.3590672
27	0x3fad4576	1.3536823
28	0x3fba5afb	1.4559015
29	0x3fa5fa19	1.2966949
30	0x3fb759ec	1.4324317
31	0x3f94ef05	1.1635443
32	0x3fbaa2fe	1.4580991
33	0x3fb0c151	1.3808995
34	0x3fa163e7	1.2608613
35	0x3fa68f32	1.301245
36	0x3fee828c	1.863359
37	0x3f895917	1.0730313
38	0x3f497851	0.78699213
39	0x3f94e21f	1.1631507
40	0x3f886496	1.0655696
41	0x3f7ae08f	0.979989
42	0x3f95956c	1.1686225
43	0x3ff42cb7	1.9076146
44	0x3fce9501	1.6139222
45	0x3fa7ccaa	1.3109334
46	0x3fc089ae	1.5042017
47	0x3f787367	0.9705109
48	0x3fcf22d0	1.6182499
49	0x3f90de89	1.1317912
50	0x3fa1fd12	1.2655356
51	0x3fab29a4	1.3372083
52	0x3fc09af5	1.5047289
53	0x3f6e8d72	0.9318458
54	0x3fa1fba1	1.2654916
55	0x3f964c4d	1.1742035
56	0x3f8e7eab	1.1132406
57	0x3fb44ac9	1.4085323
58	0x3f978b9c	1.183948
59	0x3f852655	1.0402323
60	0x3fc09893	1.5046562
61	0x3fb88806	1.4416511
62	0x3fdbef56	1.7182415
63	0x3fa36834	1.2766175

BN2.bias f4 [64]
0	0xbf26582e	-0.649783
1	0xbf15f8fc	-0.58583045
2	0xbf19d60e	-0.60092247
3	0xbf1de829	-0.61682373
4	0xbf19b402	-0.60040295
5	0xbf2a87e6	-0.66613615
6	0xbed80447	-0.42190763
7	0xbefab576	-0.4896657
8	0xbf1d5332	-0.6145507
9	0xbf262044	-0.64892983
10	0xbeff139c	-0.49819648
11	0xbf1c2829	-0.6099878
12	0xbf2078d8	-0.6268439
13	0xbf2b2490	-0.66852665
14	0xbf07a00b	-0.5297858
15	0xbf01601e	-0.5053729
16	0xbf1489fe	-0.5802306
17	0xbf2efc6d	-0.6835392
18	0xbf8dcf54	-1.1078897
19	0xbfd95d30	-1.6981564
20	0xbf051e07	-0.51998943
21	0xbf32f47c	-0.69904304
22	0xbfb9a4b4	-1.4503388
23	0xbf0dd059	-0.5539604
24	0xbf17a563	-0.59236735
25	0xbf9bd829	-1.2175342
26	0xbf3ca4c9	-0.7368894
27	0xbf2785f7	-0.6543879
28	0xbf381372	-0.7190467
29	0xbf10ba2e	-0.5653409
30	0xbf34b2a0	-0.7058506
31	0xbf1b1ebf	-0.6059379
32	0xbf696c81	-0.9118119
33	0xbf34c5b7	-0.7061419
34	0xbf08330a	-0.5320288
35	0xbf167a38	-0.5878024
36	0xbf838a14	-1.0276513
37	0xbeec927d	-0.46205512
38	0xbecde000	-0.4020996
39	0xbf136011	-0.5756846
40	0xbef2d45a	-0.47427636
41	0xbeda7799	-0.4266937
42	0xbf19ba7d	-0.60050184
43	0xbfbb736d	-1.46446
44	0xbf43ef23	-0.7653677
45	0xbf27368f	-0.65317625
46	0xbf4ea106	-0.8071445
47	0xbef25cbe	-0.47336382
48	0xbf39b3ad	-0.7253979
49	0xbf1d5808	-0.6146245
50	0xbf237191	-0.63845164
51	0xbf267e17	-0.6503615
52	0xbf4de3db	-0.80425805
53	0xbeee96f0	-0.4659953
54	0xbf18b6de	-0.59654033
55	0xbf2395ec	-0.6390064
56	0xbef74859	-0.48297384
57	0xbf33ba09	-0.7020574
58	0xbf09815d	-0.5371302
59	0xbefb4ddc	-0.4908284
60	0xbf6b0987	-0.9181141
61	0xbf42a38c	-0.760308
62	0xbf8cffb6	-1.1015537
63	0xbf0fbbd7	-0.56145996

BN2.running_mean f4 [64]
0	0xbf9d05df	-1.2267417
1	0xbfdcccfc	-1.7250056
2	0xbfb888da	-1.4416764
3	0xbfdde3f1	-1.7335187
4	0xc005a593	-2.0882308
5	0xbfa91e39	-1.3212348
6	0xbf65a979	-0.8971172
7	0xbfafdadd	-1.3738667
8	0xbf893934	-1.0720582
9	0xbfa6e02e	-1.3037164
10	0xbff86369	-1.9405338
11	0xbfc7f06b	-1.5620245
12	0xc0001091	-2.0010111
13	0xbf856572	-1.0421584
14	0xbff40089	-1.9062663
15	0xbf0b7407	-0.5447392
16	0xbfb0a07b	-1.3798975
17	0xbfb3d9ea	-1.4050877
18	0xbf5546b5	-0.83311015
19	0xbf360356	-0.7109884
20	0xbfe2d7d0	-1.7722111
21	0xbfcade4c	-1.584909
22	0xbf62bdd8	-0.8857093
23	0xbfd2b5ce	-1.6461732
24	0xbfe53167	-1.7905701
25	0xbf45b3d5	-0.77227527
26	0xbfd7d476	-1.6861713
27	0xbfbd5a7b	-1.4793237
28	0xbf9afd7f	-1.2108611
29	0xbf979397	-1.1841916
30	0xbfb12df5	-1.384215
31	0xbfdbc48c	-1.7169356
32	0xbf64e9e0	-0.89419365
33	0xbf439882	-0.76404583
34	0xbfbfad86	-1.497483
35	0xbfdd5a8e	-1.729326
36	0xbf482f89	-0.7819753
37	0xc02f09cf	-2.7349737
38	0xbf994b13	-1.1976036
39	0xbfb237f6	-1.3923328
40	0xbfdc84fe	-1.7228086
41	0xbffc6ccf	-1.9720706
42	0xbfa08e78	-1.2543478
43	0xbf1dc5dd	-0.6163004
44	0xbf878ccc	-1.0589843
45	0xbf69e781	-0.9136887
46	0xbf7ea89d	-0.99476033
47	0xbfea4ff6	-1.8305652
48	0xbf8a06b0	-1.0783291
49	0xbf91914f	-1.137247
50	0xbfe66d7c	-1.8002162
51	0xbfb5e658	-1.421092
52	0xbfcc561c	-1.5963778
53	0xbf909eba	-1.129844
54	0xbf97668e	-1.1828172
55	0xbf1da032	-0.61572564
56	0xc007b751	-2.1205637
57	0xbfba2083	-1.4541172
58	0xc003ef4b	-2.0614803
59	0xbfdf3b88	-1.7440042
60	0xbf23b1cb	-0.63943166
61	0xbf924427	-1.1427048
62	0xbf2be9a0	-0.6715336
63	0xbfb41f8c	-1.4072127

BN2.running_var f4 [64]
0	0x412e0b48	10.877754
1	0x41521b56	13.131674
2	0x411257d5	9.146443
3	0x412c7d73	10.780627
4	0x41338c90	11.221817
5	0x411d830b	9.844493
6	0x4117019a	9.437891
7	0x413dd8b0	11.865402
8	0x40b712c5	5.721041
9	0x410f5645	8.958562
10	0x417eae6f	15.917586
11	0x41433cba	12.202326
12	0x4150bee8	13.046608
13	0x408fe52c	4.496725
14	0x41bb0ca1	23.381166
15	0x412c7022	10.777376
16	0x4169e69d	14.618802
17	0x40c9eda7	6.3102603
18	0x4023589a	2.5522828
19	0x4021154b	2.5169246
20	0x418100f9	16.125475
21	0x413bd0ff	11.738524
22	0x404550bb	3.0830524
23	0x40f536c1	7.662934
24	0x41633bb1	14.202073
25	0x4064603d	3.568374
26	0x4137e38f	11.493056
27	0x40f03ead	7.507651
28	0x413cb6dd	11.794644
29	0x41360c75	11.378041
30	0x4120481d	10.017606
31	0x415472cd	13.278028
32	0x407190c8	3.7744617
33	0x407f9e23	3.994027
34	0x412bf58b	10.747447
35	0x4125b74f	10.357253
36	0x406f846c	3.7424574
37	0x41a5fc31	20.74814
38	0x41288ab3	10.533862
39	0x4113b56e	9.231794
40	0x41403cb2	12.014818
41	0x4194663b	18.549917
42	0x40e6a5b5	7.207728
43	0x40317af9	2.7731307
44	0x409b5be7	4.8549685
45	0x40954dfd	4.66577
46	0x409f2323	4.973039
47	0x416846cb	14.517283
48	0x41260602	10.376467
49	0x410206f6	8.126699
50	0x40d5544b	6.6665397
51	0x4111da5c	9.11581
52	0x41277fc8	10.468697
53	0x4162486d	14.142682
54	0x41125201	9.1450205
55	0x40f9115e	7.78337
56	0x4195699d	18.676569
57	0x4115026e	9.313093
58	0x4155f4c4	13.372257
59	0x414560db	12.336146
60	0x403b60d8	2.9277859
61	0x40b1df7d	5.5585313
62	0x4013b390	2.3078346
63	0x415a24ce	13.6339855

fc1.weight f4 [128, 1024]
0	0xbab4cdef	-0.0013794283
1	0xbcfba63f	-0.03071892
2	0xbc4db4f1	-0.012555347
3	0xbca7d77b	-0.020488491
4	0xba4cbf7f	-0.00078105176
5	0xbc1bdd01	-0.009513141
6	0xbd114be0	-0.03547275
7	0xbc00aa5e	-0.007853119
8	0xbcf03e64	-0.029326625
9	0xbc8ef16d	-0.017449105
10	0x3c16d985	0.009207134
11	0x3cc25d01	0.023725988
12	0x3bb0a5f9	0.005390879
13	0x3c8f354a	0.017481465
14	0x3c9bcb86	0.019017946
15	0xbd11411c	-0.035462484
16	0xbc4e9f8d	-0.012611282
17	0xbc5c2b30	-0.013438031
18	0x3c1b9253	0.009495336
19	0xbc8309fe	-0.015995976
20	0xba310bad	-0.0006753754
21	0xbc29c5a2	-0.010362061
22	0xbc49823b	-0.012299116
23	0x3c6250f3	0.013813245
24	0x3c639bee	0.013892157
25	0xbc00eb74	-0.007868636
26	0xbce710ad	-0.028206194
27	0x3b8fe71a	0.004391563
28	0xbad797d2	-0.0016448444
29	0xbce54eeb	-0.027991733
30	0xbc9b8d8c	-0.018988393
31	0x3b4b5d87	0.0031031088
32	0x3a891cea	0.0010460888
33	0xbcba745b	-0.02276056
34	0x3c7b4f79	0.015338772
35	0xbc7b57ed	-0.015340787
36	0x3c47ad57	0.0121873235
37	0xbca422bf	-0.0200361
38	0xbcef6390	-0.02922228
39	0x3ad2a726	0.0016071543
40	0x3cc9cde4	0.02463431
41	0x3c583f5d	0.013198701
42	0xbcad147c	-0.021127932
43	0xbcf5d1ff	-0.03000736
44	0xbc553a32	-0.013014363
45	0xbc8b5b13	-0.017011201
46	0x3bc6b42b	0.006063958
47	0xbd0ccc47	-0.0343745
48	0xbc8806c9	-0.016604798
49	0xbc2b1432	-0.010441827
50	0x3c743021	0.014904053
51	0x3bc65d2b	0.006053587
52	0x3cb6eb10	0.022328883
53	0xbb99cdac	-0.0046937075
54	0xbca0bbc4	-0.019620784
55	0x3b0a893a	0.0021138922
56	0xbb250240	-0.0025178343
57	0xbd06f077	-0.03294417
58	0xbcd6a047	-0.026199473
59	0xbcff4bdd	-0.031164104
60	0xbc59f1b0	-0.013302252
61	0xbd0a71ec	-0.03380005
62	0xbb079c79	-0.002069263
63	0x3c627919	0.013822817
64	0x3c2170da	0.009853566
65	0x3cbb5f02	0.022872452
66	0xbc848c54	-0.016180195
67	0xbcb2b3ad	-0.021814192
68	0xbba90b9d	-0.005158855
69	0xbbf1477d	-0.0073632584
70	0x3c9f9ff2	0.019485448
71	0xbd0ac2a7	-0.03387704
72	0xbd15e02e	-0.036590748
73	0xbcf5afd3	-0.029991066
74	0xbca219c5	-0.019787678
75	0x3c288c58	0.010287367
76	0xbc65587b	-0.013998146
77	0x3ba03f9c	0.0048903953
78	0xbcec3271	-0.028832646
79	0x3cca3185	0.024681816
80	0x3b329d4b	0.0027254398
81	0x3b3e0f39	0.0029000773
82	0x3cc69571	0.024241181
83	0x3c09d089	0.008411535
84	0x3b95cb40	0.0045713484
85	0xbc034144	-0.008011166
86	0x3b0784a8	0.0020678435
87	0xbc06a227	-0.008217371
88	0xbba9a825	-0.005177515
89	0xbcdf42f5	-0.027253607
90	0x3c936f89	0.01799752
91	0x3c2b25cc	0.010446023
92	0xbcb98194	-0.022644795
93	0x3c95f71a	0.018306304
94	0xbcba3749	-0.02273144
95	0xbc179941	-0.009252847
96	0xbc86e4f8	-0.016466603
97	0x3c1744be	0.009232698
98	0x3b3ca6ff	0.002878606
99	0xbca58c1a	-0.020208407
100	0x3b92627a	0.0044673057
101	0x3bc47562	0.0059954384
102	0xbac0d47d	-0.0014711764
103	0x3c28f918	0.010313295
104	0xbc2dc454	-0.01060589
105	0x3c2beac6	0.010492986
106	0x3cbf6049	0.023361342
107	0xbc9dc308	-0.019258037
108	0x3bf56eb4	0.0074900035
109	0x3bec47d0	0.007210709
110	0xbbb82c26	-0.0056204973
111	0xbc6f32dc	-0.014599528
112	0x3c1791b6	0.009251049
113	0x3c37ce74	0.011218656
114	0x3c786f64	0.015163276
115	0xbc3fc780	-0.011705279
116	0xbd096e07	-0.033552196
117	0xbc8b2818	-0.016986892
118	0xbd0bdc34	-0.03414555
119	0x3cc43514	0.02395109
120	0xbd10d4f6	-0.035359345
121	0x3c3ea79b	0.01163664
122	0xbcd33bf0	-0.025785416
123	0xbd041f1d	-0.032256234
124	0x3c231424	0.009953532
125	0xbcf8d7e8	-0.03037639
126	0xbce578ba	-0.028011668
127	0x3a9ff814	0.001220467
128	0xbd02d146	-0.03193786
129	0x3c9fc50c	0.019503139
130	0xbaace5a6	-0.0013190999
131	0xbbbfdf01	-0.0058554416
132	0x3cb4d3f5	0.022073725
133	0xbcaae6db	-0.020862034
134	0xbcbe4475	-0.023226002
135	0xbb536013	-0.003225331
136	0x3c59ebd1	0.013300852
137	0x39cb4b0d	0.00038775094
138	0x3c1a1df2	0.009406554
139	0xbd13f4f3	-0.036122274
140	0xbc404d02	-0.01173711
141	0xb9fa5bb8	-0.00047752052
142	0x3c291cd0	0.010321811
143	0xbcacaf46	-0.02107967
144	0xbcb41480	-0.021982431
145	0xbae30103	-0.0017319027
146	0xbc2578c0	-0.01009959
147	0xbc7fc1cd	-0.015610171
148	0x3c95cba7	0.018285586
149	0xbca987ba	-0.020694602
150	0x3c0c4657	0.008561692
151	0x3c969ff9	0.018386828
152	0xbcafac9f	-0.021444617
153	0x3c8ea06e	0.017410483
154	0x3bc2ca14	0.0059444997
155	0xbb859b89	-0.004077379
156	0xbd0d38d5	-0.034478027
157	0x3b8404f6	0.0040289117
158	0x3c9e6d0e	0.01933911
159	0xbc0f9620	-0.00876382
160	0x3c977e5a	0.018492866
161	0xbbcef296	-0.0063155396
162	0xbc59456f	-0.013261183
163	0xbc701f20	-0.014655858
164	0xbc058d5d	-0.008151379
165	0xbc9b33f8	-0.018945679
166	0xbbaeac1e	-0.0053305766
167	0xbbd1509e	-0.006387784
168	0xbd033861	-0.03203619
169	0xbca8adfb	-0.020590773
170	0x3cbacb8a	0.022802133
171	0xbbc0c107	-0.0058823857
172	0xbbc5df1e	-0.0060385605
173	0x3c1ab3fe	0.009442328
174	0x3c93507f	0.01798272
175	0xbd174a7a	-0.03693626
176	0xbd0fa5e4	-0.035070315
177	0xbc0ba2a0	-0.00852266
178	0xbc8d727f	-0.01726651
179	0xbd02a166	-0.031892203
180	0xbcf893fc	-0.030344002
181	0x3bcc307f	0.006231367
182	0x3c329a9d	0.0109011205
183	0xbc010f5e	-0.007877199
184	0xbb6e327e	-0.0036346014
185	0xbce56f79	-0.028007256
186	0xbcdfd113	-0.027321374
187	0xbd07af83	-0.033126365
188	0xbbf3c5c6	-0.007439348
189	0xbd121414	-0.03566368
190	0xbbd2c757	-0.0064324546
191	0x3c871e3d	0.01649391
192	0xbc90a12e	-0.017654981
193	0xbd041810	-0.03224951
194	0xbcc68807	-0.024234785
195	0x3c0f575b	0.0087488545
196	0xbcc4c371	-0.024018975
197	0xbcc0b444	-0.023523457
198	0xbcb45c4a	-0.022016663
199	0xbcb14654	-0.02163998
200	0x3c93fad1	0.018063935
201	0xbc811236	-0.015755754
202	0x3cbbedae	0.022940483
203	0x3c0e730e	0.008694423
204	0xbc2e93d5	-0.010655363
205	0xbd017e4d	-0.03161459
206	0x3c8c413b	0.017120948
207	0x3cac1923	0.02100808
208	0xbc221d03	-0.009894612
209	0x3c9e5cfe	0.019331452
210	0xbc3f731b	-0.011685158
211	0xbd085465	-0.03328361
212	0xbd10a96d	-0.035317827
213	0xbc84c5ee	-0.016207661
214	0x3b9576ce	0.0045612818
215	0x3c7ed20f	0.015553012
216	0x3cab22af	0.020890562
217	0x3cbe83f5	0.023256281
218	0x3bc44d6f	0.005990676
219	0xbd026ca0	-0.031841874
220	0x3bb77c6f	0.0055995504
221	0xbbf815cf	-0.007570959
222	0xbc546990	-0.012964621
223	0x3c9ceb25	0.019155094
224	0xbbdb1be5	-0.006686675
225	0xbcb49711	-0.02204469
226	0x3cb335a1	0.021876158
227	0x3c433f71	0.011916981
228	0xbacac1d3	-0.0015469141
229	0x3c9546fe	0.018222328
230	0xbcfa1c51	-0.03053108
231	0xbbd0df14	-0.0063742492
232	0xbd0510a8	-0.032486588
233	0xbb33ddd9	-0.0027445464
234	0x3b3f7cf1	0.0029218758
235	0xba898e53	-0.0010494686
236	0xbd03a9d3	-0.03214438
237	0xbcd78867	-0.026310159
238	0xbd0d5a1c	-0.034509763
239	0x3ca48eb0	0.02008757
240	0xbc9af6ec	-0.01891657
241	0x3c914f7f	0.017738102
242	0xbcfb1f7a	-0.030654658
243	0xba8f63de	-0.0010939797
244	0x3cb55cab	0.022138914
245	0xbc47b7ef	-0.012189849
246	0xbcdffa84	-0.027341135
247	0xbc23de40	-0.010001719
248	0x3b924bf6	0.0044646217
249	0xbc4156e1	-0.011800499
250	0x3b364ada	0.002781561
251	0xbb7efaf8	-0.0038906913
252	0xbcfea692	-0.031085286
253	0xbc28082d	-0.0102558555
254	0xbc949557	-0.018137617
255	0x3cafe920	0.021473467

fc1.bias f4 [128]
0	0x3c281665	0.0102592455
1	0xbd954cee	-0.07290064
2	0x3e5a3466	0.21309051
3	0x3e32ee5f	0.17473744
4	0x3bddb699	0.006766152
5	0xbd2616c8	-0.04054907
6	0x3aa72306	0.0012751527
7	0xbd114c2f	-0.035473045
8	0xbc7ca29c	-0.0154196285
9	0x3b0d3815	0.002154832
10	0xbc1d90f4	-0.009617079
11	0x3dd2a65b	0.10285636
12	0x3c5f8236	0.013641885
13	0xbd5e73cb	-0.054309648
14	0x3d1dc25d	0.038515437
15	0x3bd13ea3	0.0063856407
16	0xbcce12a4	-0.025155373
17	0xbc93d720	-0.018046916
18	0x3c221240	0.009892046
19	0xbd127cb7	-0.03576347
20	0xbdb450af	-0.08804452
21	0xbc5f82dd	-0.01364204
22	0x3ea8a481	0.32938007
23	0xbc60b00f	-0.013713851
24	0x3cb2ca04	0.021824844
25	0x3e46f7f2	0.19430521
26	0xbca58cdf	-0.020208774
27	0x3dbb0561	0.09131885
28	0xbcc1162d	-0.023570145
29	0xbc723ca8	-0.014784969
30	0xbcc47edb	-0.02398627
31	0xbd1258ae	-0.035729103
32	0x3c81ecf8	0.015860066
33	0x3b8b0b60	0.0042432994
34	0xbd5529bb	-0.05204175
35	0xbb929de3	-0.004474388
36	0x3e9691ad	0.29408017
37	0xbd0d905c	-0.0345615
38	0xbc4399ab	-0.011938493
39	0xbced9b3b	-0.029004684
40	0xbc2ba6f3	-0.0104768155
41	0xbc55e386	-0.013054734
42	0x3c265a10	0.0101533085
43	0x3b96a8dc	0.0045977663
44	0x3e41bbf1	0.1891935
45	0xbcb40da9	-0.02197917
46	0xbc67c1c5	-0.014145319
47	0xbda5fa63	-0.08104398
48	0x3c07471c	0.0082567
49	0xbabed34e	-0.0014558823
50	0xbccde5a3	-0.025133913
51	0xbc81c4b0	-0.015840858
52	0xbbeadb4c	-0.0071672555
53	0xbd19ef16	-0.037581526
54	0x3e72b234	0.23700792
55	0xbcfb6ab9	-0.030690538
56	0xbd09f01c	-0.03367625
57	0xbc167303	-0.009182694
58	0x3cb3d782	0.021953348
59	0x3e092cdb	0.13396017
60	0x3e121ee8	0.14269602
61	0x3adac6c3	0.0016691316
62	0x3e5a833a	0.21339121
63	0xbd1413e8	-0.036151797
64	0x3aef6113	0.0018263183
65	0x3df43c90	0.11925614
66	0x3bdb2297	0.006687473
67	0xbd00b4ea	-0.031422533
68	0x3cc090ce	0.023506548
69	0x3c05a606	0.008157259
70	0x3c93b8a3	0.018032378
71	0x3e1917fd	0.14950557
72	0xbd138bd1	-0.03602201
73	0xbd48ab52	-0.04899151
74	0x3cc01300	0.02344656
75	0x3d1a430b	0.037661593
76	0xbc719f28	-0.014747418
77	0x3d32f7f0	0.043693483
78	0x3be2abff	0.006917476
79	0xbc383153	-0.011242229
80	0x3e24f8bb	0.16110508
81	0x3e0087db	0.12551825
82	0xbccc4679	-0.024935948
83	0x3d670f7f	0.056411263
84	0xbd10f7f9	-0.035392735
85	0x3c21269b	0.009835864
86	0xbba4f50f	-0.005034096
87	0xbcd46ccf	-0.02593079
88	0x3c0a344b	0.008435319
89	0xbcefb800	-0.029262543
90	0xbbb66ec4	-0.0055674035
91	0x3e06ff13	0.1318324
92	0xbd0fde52	-0.03512413
93	0xbb8792bb	-0.0041373647
94	0x3cad5295	0.021157542
95	0xbcc10b19	-0.023564862
96	0xbce0deb5	-0.027449945
97	0xbcfa78db	-0.030575207
98	0x3dde28b8	0.1084761
99	0xbc98c150	-0.018646866
100	0x3e8f6743	0.2800847
101	0x3deab91e	0.114610896
102	0xbd0dea81	-0.03464747
103	0xbc0f7ffb	-0.00875854
104	0xbcd2d6b2	-0.02573714
105	0xbd106bb3	-0.03525896
106	0xbc06141a	-0.0081835035
107	0xbd4e8edf	-0.05042922
108	0x3e998c39	0.29989794
109	0xbe093fc2	-0.13403228
110	0x3e7ae714	0.24502212
111	0xbcee090f	-0.029057054
112	0xbd78dd4d	-0.060757924
113	0x3c027fd8	0.007965051
114	0xbd96e0d8	-0.07367104
115	0xbc8711dd	-0.01648801
116	0x3e6ce7a5	0.2313524
117	0x3d76f80c	0.06029515
118	0xbae9d285	-0.0017839229
119	0xbd14d0c4	-0.036331907
120	0x3e8c6562	0.274211
121	0x390e383e	0.00013563127
122	0xbc156360	-0.009117931
123	0x3e3d175e	0.18465945
124	0x3b830dba	0.003999439
125	0xbc9004e6	-0.01758046
126	0xbc9cf311	-0.019158872
127	0x3e681cc0	0.22667217

fc2.weight f4 [4, 128]
0	0xbd5d8c3b	-0.054088812
1	0xbce0ca2e	-0.027440157
2	0x3d414d75	0.04719301
3	0xbf93a43e	-1.1534498
4	0xbd73c92f	-0.059518036
5	0x3ce3aeee	0.027793374
6	0x3d05f8aa	0.032707848
7	0x3bfa2fbe	0.007635086
8	0x3d832b0e	0.064046964
9	0xbda36dc7	-0.07979923
10	0x3c83c017	0.016082807
11	0x3f3340ee	0.7002095
12	0xbd175ed5	-0.036955673
13	0x3c0163fa	0.007897371
14	0x3eaabb27	0.3334591
15	0x3d15ce23	0.03657354
16	0x3cb1a90a	0.02168705
17	0x3caf9c8c	0.021436952
18	0x3d8183f5	0.06323997
19	0x3c981591	0.018564971
20	0xbd270521	-0.040776376
21	0xbd7a968f	-0.06117874
22	0xbfa65e36	-1.2997501
23	0x3d477c8e	0.04870277
24	0xbcc7ccd5	-0.024389664
25	0x3eb4dede	0.35326284
26	0xbcb6e826	-0.022327494
27	0x3f2dc8b2	0.6788436
28	0xbada4499	-0.0016652524
29	0xbda1b810	-0.07896435
30	0xbccb7421	-0.024835648
31	0x3c721a0c	0.014776718
32	0x3c49ccca	0.012316892
33	0x3bc4baad	0.006003699
34	0x3d50e142	0.050996073
35	0xbde1f003	-0.11032107
36	0x3f19d786	0.6009449
37	0xbce0d56a	-0.027445514
38	0xbd66587a	-0.05623672
39	0xbd247e39	-0.040159438
40	0xbd890075	-0.0668954
41	0xbc343108	-0.010998018
42	0x3d4aaac8	0.049479276
43	0x3d828402	0.06372835
44	0xbf8e4c70	-1.1117077
45	0xbcb45b76	-0.022016268
46	0x3d9dc73e	0.07704018
47	0xbd0cb198	-0.034349054
48	0xbd8f4ad4	-0.06996694
49	0x3b860a14	0.004090557
50	0xbd4ddcbd	-0.05025934
51	0xbd91e892	-0.071244374
52	0x3cac7c58	0.021055385
53	0xbd15733b	-0.036486845
54	0x3f9d5d6b	1.2294134
55	0xbcb01258	-0.021493122
56	0xbb5e4269	-0.0033914095
57	0xbc30a915	-0.0107825
58	0xbda70f7c	-0.0815725
59	0x3ed094d6	0.40738553
60	0x3f7db886	0.99109685
61	0x3c9ea110	0.01936391
62	0xbf9d3ac0	-1.2283554
63	0xbd0c2a44	-0.034219995
64	0xbc22a29a	-0.009926463
65	0x3ed7fad7	0.42183563
66	0xbd9807e0	-0.07423377
67	0xbd0ff10b	-0.035141986
68	0xbc1af541	-0.009457887
69	0xbd7a6ae3	-0.06113709
70	0xbce23478	-0.02761291
71	0xbf8250b0	-1.0180874
72	0x3d06c88c	0.0329061
73	0x3ea05359	0.3131359
74	0x3ea7902b	0.3272718
75	0x3e2c9cbb	0.16856663
76	0xbd76e848	-0.060280114
77	0x3ebc13d1	0.3673387
78	0x3d87ea18	0.06636447
79	0xbd9bad63	-0.0760143
80	0xbf2b1878	-0.6683421
81	0xbe4b5342	-0.19855979
82	0xbd2e62f3	-0.042574834
83	0x3e175fef	0.1478269
84	0xbc6eab6c	-0.014567237
85	0x3c887a7d	0.01665997
86	0xbd53feec	-0.051756784
87	0x3cc23209	0.0237055
88	0xbd4e1ed4	-0.05032237
89	0x3da1b2dd	0.078954436
90	0x3d4bf959	0.049798343
91	0x3f6e5a0c	0.9310615
92	0xbd00795f	-0.03136575
93	0xbd845272	-0.06461038
94	0xbe408462	-0.188005
95	0xbc820426	-0.015871119
96	0xbcab60fe	-0.020920273
97	0xbd85dbd8	-0.065360725
98	0x3da5430c	0.08069429
99	0x3b60d40e	0.0034306082
100	0x3f56e296	0.8393949
101	0x3e940f35	0.28917852
102	0x3c3cea3e	0.011530457
103	0x3bc7a619	0.0060927984
104	0x3ccab5a7	0.024744822
105	0xbcfb8831	-0.03070459
106	0xbda9cae6	-0.08290653
107	0x3d82d618	0.063884914
108	0xbfe9a9ce	-1.8254945
109	0xbd193445	-0.037403364
110	0xbe276e39	-0.1635064
111	0x3d73325d	0.059374202
112	0x3e09eefc	0.13470072
113	0xbcf57c28	-0.029966429
114	0xbf8b6cf0	-1.089262
115	0xbd403282	-0.046923168
116	0x3f330398	0.6992736
117	0x3f26faad	0.6522625
118	0x3d09644a	0.03354291
119	0xbc7d8509	-0.015473613
120	0x3e85be0e	0.26121563
121	0xbde7fdf3	-0.11327734
122	0xbd97cc46	-0.07412009
123	0x3fa2f0cf	1.2729739
124	0xbd9b7bbb	-0.07591959
125	0xbd076e53	-0.033064198
126	0xbd494cf6	-0.04914566
127	0xbfb6b2b0	-1.4273281
128	0xbd870caa	-0.06594212
129	0x3cca1f5e	0.02467316
130	0x3f593c71	0.8485785
131	0x3f3796f0	0.7171469
132	0xbcd42a9c	-0.025899224
133	0xbd47db63	-0.048793208
134	0xbd354305	-0.044253368
135	0xbd585766	-0.052817725
136	0x3cd1fd21	0.025633397
137	0xb98a42bd	-0.00026371135
138	0x3cca0a75	0.02466319
139	0xbfacaae4	-1.3489652
140	0x3d178891	0.036995474
141	0xbd3d39e0	-0.046197772
142	0xbf8e90ed	-1.1137978
143	0x3d7dfac5	0.06200673
144	0xbd2dd22a	-0.042436756
145	0x3c92ef8c	0.01793649
146	0x3ec19511	0.3780904
147	0x3ce6fc94	0.02819661
148	0x3c1f1db8	0.009711675
149	0x3ca2d5df	0.019877372
150	0xbeea6033	-0.4577652
151	0x3c8df163	0.017327016
152	0x3b873100	0.0041257143
153	0x3f6a655b	0.91560906
154	0x3cacb234	0.021081068
155	0xbffdcde2	-1.9828455
156	0xbcf9afb7	-0.030479295
157	0x3d98f8f7	0.07469361
158	0x3c7fad2c	0.015605252
159	0x3c0a3f4f	0.0084379455
160	0xbd95bdcd	-0.07311592
161	0x3c5d4800	0.013505936
162	0x3d1e82a2	0.0386988
163	0xbcc21c5d	-0.023695165
164	0xbe39ad10	-0.18132424
165	0x3cc51c15	0.024061242
166	0xbd7922b0	-0.060824096
167	0xbd6dc668	-0.058050543
168	0x3c83afe7	0.016075088
169	0xbcfb8ddd	-0.030707294
170	0x3d458832	0.04822559
171	0xbd29cc5a	-0.04145465
172	0x3f1a262e	0.6021451
173	0x3a7ae914	0.00095714745
174	0xbd0ce2f1	-0.034396116
175	0xbd55190c	-0.05202584
176	0x3d8f2d29	0.069910355
177	0x3d5b25ef	0.053502973
178	0xbd6da333	-0.058016967
179	0xbd886242	-0.06659366
180	0x3c989689	0.018626468
181	0xbbd1c29e	-0.006401374
182	0x3dd737d7	0.105086975
183	0xbd1ae807	-0.037818935
184	0x3cb88951	0.022526415
185	0x3c97b2ff	0.01851797
186	0x3d8f0ea0	0.06985211
187	0xbf95275f	-1.165264
188	0xbe2bb6a2	-0.16768888
189	0x3d433e93	0.047667097
190	0x3e78b9f3	0.24289684
191	0xbc95e8aa	-0.01829942
192	0x3d57fe48	0.052732736
193	0xbfd42755	-1.6574503
194	0xbd5b8cc1	-0.05360103
195	0xbd702b27	-0.058634903
196	0xba648931	-0.0008717953
197	0x3d56c76e	0.052436285
198	0xbbf9bc63	-0.0076213344
199	0x3ea11861	0.31463912
200	0x3d1a136c	0.03761618
201	0xbf1300b6	-0.5742296
202	0xbe11466a	-0.14187017
203	0xbfaebbf8	-1.3651114
204	0x3c894c7d	0.016760105
205	0xbe67718e	-0.22601911
206	0x3c84c49b	0.01620703
207	0x3d6dda55	0.058069546
208	0xbf7b6e02	-0.98214734
209	0xbfcfde69	-1.6239749
210	0xbd2b7c86	-0.0418668
211	0xbf763254	-0.96170545
212	0x3d8239fc	0.06358716
213	0xbd79e389	-0.06100801
214	0x3d1f9453	0.038959812
215	0xbc8788af	-0.016544668
216	0xbd22ccf8	-0.039746255
217	0x3d0f9b44	0.035060182
218	0xbd9f0fe4	-0.07766703
219	0xbf84fe31	-1.0390073
220	0xbd22544b	-0.03963117
221	0x3cd6c0f5	0.026215056
222	0x3f57804d	0.84180146
223	0x3c8c3a8a	0.017117757
224	0x3da805c3	0.08204224
225	0x3d74347a	0.059620358
226	0x3f374412	0.7158824
227	0x3d54b1b4	0.051927283
228	0x3d64f8a1	0.055901174
229	0x3f104f6c	0.5637119
230	0xbcd38669	-0.025820928
231	0xba81f57c	-0.0009915079
232	0x3b2a0d78	0.002594797
233	0x3d84ee24	0.06490734
234	0x3d665231	0.056230728
235	0xbc04d834	-0.0081081875
236	0x3e96b29d	0.29433146
237	0x3b30d38c	0.002698156
238	0x3f132d36	0.5749086
239	0xbc6f0474	-0.014588464
240	0x3d6b42bc	0.05743669
241	0x3af55b25	0.001871918
242	0x3f7a2d05	0.97724944
243	0x3cea9f23	0.028640335
244	0xbd45a669	-0.048254404
245	0xbf653bf0	-0.8954458
246	0x3d07b9e4	0.033136263
247	0xbd74a992	-0.059732027
248	0xbc2068db	-0.0097906245
249	0xbd87af5d	-0.06625245
250	0xbd0c9809	-0.03432468
251	0xbf91a6b1	-1.1378995
252	0xbd9afb04	-0.07567409
253	0x3c90467d	0.017611736
254	0xbd0eacaa	-0.034832634
255	0xbf535436	-0.8255037

fc2.bias f4 [4]
0	0xbd5615c1	-0.05226684
1	0x3d869219	0.06570835
2	0xbdeeccd1	-0.116601594
3	0xbb4450be	-0.0029955353
