cnn saved models/cnn_epoch23.pt (torch, 609343 bytes, 16 tensors)

conv1.weight f4 [32, 1, 3, 3]
000000 c7 e5 af 3e d8 a8 da 3e 22 35 8a be 52 24 cc be
       0.34354994 0.42706943 -0.26993662 -0.3987146
000010 1c 24 b4 be 56 86 78 be 74 4b 99 3d d8 0b 0b 3d
       -0.351838 -0.24269995 0.07485095 0.033946842
000020 85 42 ba 3e c6 12 5e 3f ac 19 48 be c7 46 ae 3e
       0.36378875 0.86747396 -0.19541043 0.34038374
000030 31 af 5e be 08 58 ed bd 7b bd aa be d9 04 07 3d
       -0.21746518 -0.11589056 -0.33347687 0.032963607
000040 32 34 ab 3e 1d e0 f6 bd d2 7c e2 3d 51 bc 21 3d
       0.3343826 -0.12054465 0.11058964 0.039486233
000050 3b fd c8 3e 5d 95 97 be 86 01 18 bf 34 f6 c0 3d
       0.392557 -0.29606143 -0.59377325 0.094219595
000060 0a 91 91 3e c8 94 9e 3e 22 ec c9 be a9 d3 2f bd
       0.2843097 0.30972886 -0.39437968 -0.042926464
000070 84 0b eb 3e 14 5e 8c 3e a2 c1 45 3d 17 75 83 be
       0.45907223 0.27415526 0.048280366 -0.2567527
000080 1a 41 13 bf 8d 5f f8 bd 00 b4 98 3e 34 d8 fa bd
       -0.5752121 -0.121276 0.2982483 -0.12248269
000090 7a 7c 0d be 3b af 52 be 42 f9 84 3e 8b ee b1 be
       -0.13817015 -0.20574658 0.2597142 -0.34752306
0000a0 02 c2 83 3e 01 90 2f 3e be 2c ce 3e 57 ca c9 3d
       0.25733954 0.17144777 0.4026851 0.098530464
0000b0 1d f6 ae be d4 e5 1d 3e 7b ed c4 be 5b a1 1e bf
       -0.34172145 0.15419704 -0.38462433 -0.6196496
0000c0 0a ec 4c 3e eb 2d ad 3e d2 2d 2e bd b7 de 9c be
       0.20011917 0.33824095 -0.042524166 -0.30638668
0000d0 d3 30 a2 bd fb cf 13 bf a9 c5 19 3e 6a 44 9e be
       -0.07919469 -0.5773923 0.15016808 -0.3091157
0000e0 41 01 92 be f3 f1 15 3e 8a e7 a2 3e 0a 88 e3 3e
       -0.28516582 0.14643078 0.31817275 0.44439727
0000f0 73 1a f7 be 16 df 7e 3d 4d fa 91 bd 48 d1 dd 3e
       -0.48262367 0.06222447 -0.07127819 0.4332373
000100 a8 5e b6 be 4a b5 be be 2f ff a5 3e c6 08 2b be
       -0.35619092 -0.37247688 0.32421252 -0.16702566
000110 e4 f4 c3 be f4 4b 89 3e 7e 2e 70 bc c5 c7 5a 3e
       -0.38272774 0.2681576 -0.014659522 0.21365269
000120 96 37 ff 3d b7 5f 28 be 2e 0c 5b bf 1c ba 12 bd
       0.12461774 -0.16442762 -0.8556546 -0.03582202
000130 cb 5e f1 3c 4f 76 94 3d 78 17 88 3e d8 7c 08 3e
       0.029464146 0.07249128 0.26580405 0.13328874
000140 8d 16 dc bc dc fe 83 3e 27 34 c2 be ef a2 08 3f
       -0.026866222 0.2578038 -0.37930414 0.53373617
000150 4c 5b 54 be 93 ee 1b be 22 d0 0d bf d3 42 63 3e
       -0.20737952 -0.15227728 -0.5539571 0.2219346
000160 c9 5b 3e 3e c5 65 c3 bd 85 61 eb bc 18 5f 85 be
       0.18589701 -0.095408954 -0.028733024 -0.26049113
000170 a1 49 b7 bd e2 69 9f be bf 11 e2 3d b2 e8 fb be
       -0.089495905 -0.3113547 0.11038541 -0.4920097
000180 da 5c a8 3e 76 a7 e2 3e a6 06 83 bc e2 9a 5f be
       0.3288334 0.44268388 -0.015994381 -0.21836427
000190 43 fe 59 3e d9 bb f0 bd c9 4d fb 3d c1 46 8a 3e
       0.212884 -0.11754579 0.12270696 0.27007106
0001a0 ea 21 3a be e9 49 16 3f dd e3 8a be 2b 59 99 be
       -0.18177 0.5870653 -0.2712697 -0.29950842
0001b0 be 25 06 3f b0 60 29 3e a1 3d 14 3d c4 83 5e 3e
       0.5240134 0.1654079 0.036191586 0.21729952
0001c0 3b ed 6b be 0b ac 53 be 0d 73 98 be 1b 89 09 be
       -0.23039715 -0.20671098 -0.29775277 -0.13431208
0001d0 c3 6b 96 be 7e 57 02 bf 33 9b e5 bc 9c 1c dd be
       -0.2937909 -0.5091475 -0.028028106 -0.4318589
0001e0 a1 bf 8b be 51 61 2b 3e 47 0c f5 3c f1 01 b0 3a
       -0.2729464 0.16736342 0.02991308 0.0013428313
0001f0 6f ce 46 3e e6 e7 d1 3e 9c 81 de 3e de 09 d2 be
       0.19414686 0.40997237 0.4345826 -0.41023153
000200 9e db a9 bd fa ed 93 3e 36 e7 3d 3e a0 b3 02 bf
       -0.08293842 0.288925 0.18545231 -0.51055336
000210 2c 94 c4 3e 55 ab ab 3d 40 72 de be db 05 32 3d
       0.38394296 0.08382288 -0.4344654 0.043462615
000220 c6 96 d8 bd b6 6a 1b bf b1 28 11 3e 80 c4 ce be
       -0.10575633 -0.607097 0.14175679 -0.40384293
000230 5d a2 d1 bd ce 54 16 3f 2c 08 04 3e 0c 23 07 be
       -0.102360465 0.5872315 0.12893742 -0.13196963
000240 c8 26 ba 3e cf 08 36 3e f8 a9 d2 be d1 3b 0c be
       0.36357713 0.17776798 -0.411453 -0.13694693
000250 e9 cc 46 be 21 c1 f1 3e 3a 23 ff be 4a c7 cd 3e
       -0.19414105 0.47217658 -0.49831563 0.40191108
000260 66 6a 65 bd 94 0c 72 be 19 69 b3 ba 70 34 20 3e
       -0.056009673 -0.2363761 -0.0013687938 0.15645003
000270 63 e0 9b 3d 56 f9 15 bf 8a 48 cd be e1 d4 87 3e
       0.07611158 -0.5858358 -0.40094405 0.265296
000280 29 3e cd 3e 92 82 ab 3e de d0 8c 3e 82 9c 01 3f
       0.40086487 0.33498055 0.27503103 0.50629437
000290 dd 50 dd 3d 93 a2 7e 3e 18 7a 83 be 01 fe 45 be
       0.10806439 0.24866705 -0.25679088 -0.19335176
0002a0 a8 68 58 bd d8 72 c1 be 65 70 94 bc 75 25 dc 3e
       -0.052834183 -0.3778293 -0.01812 0.42997327
0002b0 1b 8e 81 3e e5 cb de 3c 11 e5 24 bf d7 94 01 bf
       0.2530373 0.027196834 -0.6441203 -0.50617737
0002c0 35 5c 76 3d a5 1d 13 3e 81 94 0a 3e 39 dd 84 3e
       0.06014653 0.14366777 0.13533212 0.2595003
0002d0 19 1a 0b 3d 11 3d 09 bf 98 ef e9 3e 66 63 c8 be
       0.033960436 -0.53608805 0.45690608 -0.39138335
0002e0 62 06 42 be 80 15 86 3e 5b c4 f1 bd f6 ac a4 bc
       -0.18947747 0.26188278 -0.1180503 -0.020102005
0002f0 af f2 71 3e 0c 9e cb be 28 2c b1 3e ad a8 eb 3e
       0.23627733 -0.39769018 0.34604 0.46027127
000300 e1 e1 1e 3e b5 96 00 be 88 fe 25 be 02 f5 45 3e
       0.15515853 -0.1255749 -0.16210377 0.19331744
000310 c5 b3 84 bd 66 ab f7 be 2e ce 33 3e ab d9 6d be
       -0.06479601 -0.48372954 0.1755912 -0.23227565
000320 bf 8b 53 be 44 59 e5 3e d7 e9 94 bd b7 9e 1e be
       -0.20658778 0.44794667 -0.07271164 -0.15490232
000330 44 9c 02 bf cb ce a9 3e 0a a9 c5 3e e1 5e 57 be
       -0.5101969 0.33165583 0.3860553 -0.21032287
000340 d1 4f 2d bc 79 ce dd 3d 0b bd 65 bd c4 2b 87 be
       -0.010578112 0.10830397 -0.05608849 -0.26400578
000350 27 bf aa 3e 59 2f e0 be b9 dd 9b bc 60 0d 0c 3f
       0.33348963 -0.43786123 -0.019026624 0.5470791
000360 54 35 c0 be 7a 4b c7 bd 84 11 b8 3e 90 a6 0b bf
       -0.37540686 -0.09731193 0.35950863 -0.5455103
000370 85 22 ea bd 7b 21 90 3e 7b 67 76 3d 2f 9c be 3e
       -0.11432365 0.28150544 0.06015728 0.37228534
000380 07 da eb 3c dd fa 5e 3e 44 6e 8e be 7b 57 99 3d
       0.028790487 0.21775384 -0.278185 0.07487389
000390 f3 84 9d 3e b6 6d 35 bf ec 32 c8 3e 52 bf 34 3e
       0.30765495 -0.7087053 0.3910135 0.17651108
0003a0 2d ec d4 be d5 a4 77 3e 31 eb 29 3e 9e f6 0d bf
       -0.41586438 0.24183972 0.16593625 -0.5545443
0003b0 f3 e5 aa be 22 8c 55 3e 39 95 e6 be 4c fa 71 be
       -0.33378562 0.20854238 -0.45035723 -0.23630637
0003c0 62 0c f7 bd 95 0b e4 3e f0 8d 2c 3e 84 a4 15 bf
       -0.12062909 0.44540086 0.1685102 -0.58454156
0003d0 b5 2f cd be 76 f8 71 3e e3 fe 06 3e f8 44 7a bd
       -0.4007546 0.23629937 0.13183169 -0.06110093
0003e0 c3 f0 c5 bd 64 f7 5a 3e 19 ad 16 be 37 7d be 3e
       -0.09665062 0.21383435 -0.14714469 0.37204906
0003f0 32 b3 98 be 3b 61 8f 3e 57 82 08 3f 69 66 cb be
       -0.29824215 0.28003868 0.5332388 -0.3972657

conv1.bias f4 [32]
000000 e4 c1 e4 3e 5f 72 bb 3e 0b ef 22 bd d4 d8 dc be
       0.44679177 0.36610696 -0.03977875 -0.43134177
000010 04 11 14 3f 97 dc 89 3e d6 ea 8d bd 04 ab a1 bc
       0.57838464 0.2692611 -0.06929557 -0.019734867
000020 6b f7 03 3f 13 43 30 3e 3f 61 b2 3d 93 b1 0a 3f
       0.51549405 0.17213087 0.087099545 0.54177207
000030 de 3e f8 3e 46 92 7e 3e c3 7f 24 be 76 ce 16 be
       0.48485464 0.24860486 -0.16064362 -0.14727196
000040 24 f5 d9 bd aa a7 01 3f 8a d5 76 bf ea f8 ab 3e
       -0.1064246 0.5064646 -0.96419585 0.33588344
000050 ff c9 90 3c ec 43 35 3d 45 9c dd 3e 1b 4b f4 bd
       0.017674444 0.04425423 0.43283287 -0.11928388
000060 bc a4 3e 3f a7 ec 5d be bc 72 a6 bd ec f1 10 3d
       0.74470115 -0.21672307 -0.081273526 0.035386965
000070 20 4d 0c 3e d8 d5 54 bd 69 a7 aa be c8 1f 1f 3e
       0.13701296 -0.05196175 -0.3333085 0.15539467

BN1.weight f4 [32]
000000 75 46 ac 3f 67 6c dc 3e 3b 21 97 3f 27 4a 5d 3f
       1.3459002 0.43051454 1.1807016 0.8644127
000010 66 51 67 3f 14 0d 43 3f 9a 31 7d 3f 2d 16 21 3f
       0.9035858 0.7619183 0.9890381 0.6292446
000020 ad 05 81 3f b3 34 ba 3f cd 19 65 3f 76 10 e3 3e
       1.0079857 1.4547333 0.89492494 0.44348496
000030 b1 d9 65 3f 3b 43 5a 3f f2 fb 1f 3f 67 64 8b 3f
       0.89785296 0.85258836 0.62493813 1.0890015
000040 80 d5 5a 3f 34 62 d2 3e 6c 61 3a 3f 34 d2 59 3f
       0.85482025 0.41090548 0.72804904 0.8508637
000050 c0 77 85 3f 5a 9d 82 3f 4e 7a 84 3f 5a 39 e3 3e
       1.042717 1.020427 1.0349824 0.44379693
000060 e1 7d 08 3f fb 22 9f 3f f4 28 a7 3f b8 40 3e 3f
       0.53317076 1.243255 1.3059373 0.743175
000070 7d 66 6f 3f 7a 89 33 3f 77 90 57 3f 45 0c 6e 3f
       0.9351576 0.7013165 0.8420481 0.9298747

BN1.bias f4 [32]
000000 6c 0a d6 be da 22 25 be 2f 63 62 be 52 27 ba bd
       -0.41804826 -0.16126576 -0.22108148 -0.09089531
000010 95 50 8d bf a9 df ab be 73 68 05 be 7c 60 af bd
       -1.1040217 -0.33569077 -0.13028125 -0.08563325
000020 23 e3 1a bf f1 b9 48 bf a1 34 eb be 44 1d 28 be
       -0.60502833 -0.78408724 -0.4593859 -0.16417414
000030 26 e5 4f 3c 2f 4e d9 be ea 99 94 bd f2 83 58 bf
       0.012688911 -0.42442462 -0.07255919 -0.8457633
000040 bf 01 59 bf 7a 92 ae bd 19 9d 3f bf 50 d2 1f bf
       -0.8476829 -0.08524032 -0.74849087 -0.62430286
000050 e1 e4 0e bf b3 6b 09 bf 9d 9a 9b bf 39 e6 ea bc
       -0.5581799 -0.5367996 -1.2156559 -0.028674232
000060 d8 5c 66 bd 47 68 da be 66 5a 68 bf ae a7 ad bd
       -0.056240886 -0.42657682 -0.9076294 -0.08479248
000070 38 28 4b bd 3f b9 4d bd c2 5d 3d bf 0e c2 10 be
       -0.049598902 -0.050225493 -0.7397119 -0.14136526

BN1.running_mean f4 [32]
000000 b3 20 e1 3e 62 22 f2 3e ea cc 56 bd 4f c0 e0 be
       0.4397026 0.47291857 -0.052441515 -0.4389672
000010 e1 79 1b 3f f7 1d fd 3c f9 fc 8f bd c9 eb 07 bd
       0.6073285 0.030898077 -0.070306726 -0.033183847
000020 14 30 dc 3e 6c 46 08 3e 04 f6 d0 3c 8f ed 0f 3f
       0.4300543 0.13308114 0.025507934 0.5622186
000030 04 70 e4 3e 09 c2 2a 3e 20 ee 30 be da 43 6f be
       0.4461671 0.16675581 -0.17278337 -0.23365727
000040 b2 4e a9 bd e8 90 00 3f 13 6d 6b bf 14 88 b8 3e
       -0.08266963 0.5022111 -0.9196331 0.3604132
000050 4b 41 10 bd 0e 33 fe 3c e9 fa ec 3e 38 60 fa bd
       -0.03521852 0.031030204 0.4628518 -0.122253835
000060 0a 9c 3c 3f c4 e9 60 be fc b2 5c be b7 f4 f4 bc
       0.73675597 -0.21964175 -0.21552652 -0.029901845
000070 41 57 da 3d 73 1d b9 bd f4 04 a7 be 0f 2b 0a 3e
       0.106611736 -0.0903882 -0.32620966 0.13492988

BN1.running_var f4 [32]
000000 6d d8 70 3b 70 48 8a 3c 05 02 79 3b f7 d5 aa 3b
       0.0036750094 0.016880244 0.0037995589 0.005213495
000010 fe 77 e7 3a 09 76 79 3d 09 e8 44 3b 15 ec bb 3b
       0.0017659662 0.060903583 0.003004553 0.0057349303
000020 16 8b 8a 3c 78 fb a7 3b 15 8f 3c 3c 83 61 0f 3b
       0.016912024 0.005126413 0.011508723 0.002187819
000030 c4 3b 52 3c 5c 41 9e 3c 9f 86 99 3b 6b cb 91 3c
       0.012831632 0.019318275 0.0046852375 0.017797193
000040 8c 0d ea 3a 96 25 e6 3b c9 31 3e 3c 7d c5 a9 3b
       0.001785682 0.0070235236 0.011608549 0.005181013
000050 46 af bb 3b 0d 83 85 3b 47 d7 4f 3b 51 c0 46 3b
       0.0057276813 0.0040744604 0.0031714009 0.0030327032
000060 92 a7 8c 3b 55 f7 ce 3a 44 c4 e0 3c 51 19 43 3c
       0.004292437 0.0015790263 0.027437337 0.011907891
000070 e0 5b 31 3c a9 d4 cd 3b d0 91 a0 39 08 a1 7e 3c
       0.010825127 0.0062814546 0.00030626217 0.0155413225

conv2.weight f4 [64, 32, 3, 3]
000000 40 b1 86 bd 03 a3 81 3e 59 fb b6 bd 6e cb 9d 3d
       -0.065767765 0.2531968 -0.089346595 0.07704817
000010 3b a8 a9 3d 2a cb 8f be 05 d4 8f bd 2c 43 88 3d
       0.082840405 -0.2808469 -0.070228614 0.06653437
000020 91 4e 96 bd ad 1e 1e be 18 91 08 be 8b 12 99 bd
       -0.07339204 -0.1544139 -0.13336599 -0.0747424
000030 3c bf a6 be 91 db ea be e2 a1 e2 be a1 2a 97 3e
       -0.32567775 -0.4587064 -0.44264132 0.2952471
000040 95 4b 59 3e 49 19 92 3e 11 e8 e4 3b 5b b8 ac 3d
       0.21220239 0.28534916 0.0069856723 0.084336005
000050 6c 5f 30 3e d1 58 de bd aa 69 cb bc 96 85 5d 3d
       0.172239 -0.10856784 -0.024830658 0.054082476
000060 6f fe 53 bd d1 c3 9b bd d7 d7 bc 3d 31 91 87 be
       -0.05175632 -0.076057084 0.09220856 -0.2647796
000070 c7 1f a4 3c 88 0d 80 3e 9d ec 06 bf e3 55 cb 3c
       0.020034684 0.25010324 -0.52704793 0.024821227
000080 b0 ea 0e be ef 45 b6 bd 7c e5 8d 3e 34 71 af 3d
       -0.13956714 -0.089000575 0.27714145 0.08566514
000090 bf 59 b8 3e cb 28 aa be 08 23 3f be aa 92 2f be
       0.3600597 -0.33234248 -0.18665707 -0.17145792
0000a0 ba cd a5 be e2 d5 77 be 13 51 a0 bd 6a 4d 8b be
       -0.3238352 -0.24202684 -0.07827964 -0.272075
0000b0 e2 5f 73 be 45 3e 96 be 42 4f d5 3a 1f 5f 7e be
       -0.23767045 -0.29344383 0.0016274231 -0.24840973
0000c0 ac 19 86 be 76 b9 16 bd d2 d9 26 be 74 63 49 3e
       -0.2619146 -0.036797963 -0.1629403 0.19666845
0000d0 a5 46 9d 3e 69 f5 6b 3e 54 d4 13 be b8 60 1e be
       0.3071796 0.23042835 -0.14436466 -0.15466583
0000e0 36 a8 84 be 32 0e 27 3d 0b c8 30 3e ef 99 9c 3e
       -0.25909585 0.040785022 0.1726381 0.30586192
0000f0 3c c6 ae be 21 d5 94 be 0f cb 3e be 1f 92 52 bd
       -0.34135616 -0.29068854 -0.18632148 -0.051408883
000100 80 e1 f2 3d 67 6f 13 3e 0e f2 5d be 32 8b 03 be
       0.11859417 0.14397965 -0.21674368 -0.12846068
000110 3a 56 03 bf 38 8d 27 3e 65 ec 29 3e 1b 48 7d 3e
       -0.51303446 0.16362464 0.16594084 0.24734537
000120 df ad 93 be ed 46 03 bc 68 cd 34 be 39 72 5a be
       -0.2884359 -0.0080125155 -0.17656481 -0.21332635
000130 3e 12 f1 3d c9 2a a8 be 65 23 8f 3e 9a e9 80 3e
       0.117710575 -0.32845142 0.2795669 0.25178224
000140 f4 a8 16 bd bc 6b f1 be 79 e6 33 bf ae ad 2b bf
       -0.03678222 -0.47152507 -0.7027355 -0.6706189
000150 de e9 cf 3e 60 e5 73 3e 0b 9a 77 3d 53 9e b5 be
       0.40608114 0.23817968 0.06044964 -0.35472354
000160 77 77 d4 be 3b af 04 bf 3f a0 01 3f 4e 8a af 3e
       -0.41497394 -0.5182988 0.5063514 0.34285206
000170 05 53 87 3e 0c 9b 2d be 12 b9 04 be 7b df f1 be
       0.26430526 -0.16953677 -0.12961224 -0.47240815
000180 ef 84 eb 3d ae da 25 3d 2d 34 04 bc 94 60 27 3d
       0.114999644 0.040491752 -0.00806908 0.04086359
000190 d3 80 b9 3d 97 dd a3 bd 6d 1b 3f be db 9d 89 bc
       0.090577744 -0.08001249 -0.18662806 -0.016798904
0001a0 49 da 6a be 27 26 a2 3e 5f 0e 99 3d b9 78 68 be
       -0.22934832 0.31669733 0.07473444 -0.22702302
0001b0 72 da b6 3e 60 bd 82 3e 37 fa 4d bd 67 4d f5 3d
       0.35713536 0.25535107 -0.05028745 0.11977654
0001c0 78 40 e2 bd e1 4d 6e bf da 78 dc bd 66 25 b8 3d
       -0.11047453 -0.93087584 -0.10765238 0.08991508
0001d0 b9 48 38 3e 32 f1 09 3d 84 57 05 3d 2b 57 0e be
       0.17996491 0.033677287 0.032554165 -0.1390044
0001e0 38 37 60 be b0 9c 08 3d 48 bf b0 be 78 30 1a bd
       -0.21896064 0.033352554 -0.34520936 -0.03764388
0001f0 45 6c 72 3b e3 49 49 3d c4 90 51 bb 20 ec 03 3d
       0.0036990803 0.04914273 -0.0031977156 0.03220761
000200 09 ff ff bd 78 1f 69 bc 35 f8 a4 bc 54 c7 29 bf
       -0.12499816 -0.014228694 -0.020137886 -0.66319776
000210 c7 ab 20 bd df a7 af 3c e8 c8 9e be 48 c5 d4 be
       -0.03922632 0.021442352 -0.31012654 -0.41556764
000220 92 13 51 be 2c 78 29 bf 7a b2 b8 bc d5 bd b3 3c
       -0.20417622 -0.6619899 -0.022546042 0.021941105
000230 1f 12 30 bd 27 bb 9b 3e 16 b0 f8 3c ad 12 b4 be
       -0.04298603 0.30416223 0.030357402 -0.35170498
000240 2e d1 36 bf dd 88 88 be e9 da c7 be 6b 60 42 3e
       -0.7141293 -0.26666918 -0.39034203 0.18982093
000250 18 70 89 3e 5e 45 3b 3d e7 a9 c4 bd ed d6 26 be
       0.26843333 0.04572045 -0.09602719 -0.16292925
000260 e0 e3 4a 3e d7 17 dd 3e 3d a0 9f 3e fc 14 e8 3e
       0.1981349 0.4318225 0.3117694 0.4532851
000270 c3 11 f6 bd 67 fe 09 be 85 dd 89 bd 83 32 50 3d
       -0.120151065 -0.13475953 -0.067317046 0.05082942
000280 47 83 bd 3d a1 2a 4c 3e 80 f5 eb be a5 45 dd be
       0.09253555 0.19938137 -0.4608574 -0.43217197
000290 21 94 dc bd e9 88 3a 3e 17 ce a0 be 26 cd 14 bf
       -0.10770441 0.1821629 -0.31407234 -0.5812553
0002a0 72 67 95 3e 93 8c 91 3e 8e e7 bd 3e 13 86 dd be
       0.29180485 0.28427562 0.37090725 -0.43266353
0002b0 a8 2a 23 be fc 4e 56 be 40 f5 b2 3c b7 71 61 bc
       -0.15934241 -0.20928568 0.02184546 -0.013760022
0002c0 1b b9 47 be cc ea 63 3e 5e a0 15 3e bb f2 c4 3e
       -0.19504206 0.22257537 0.14611956 0.3846644
0002d0 13 e4 d7 3e de af 40 3e f6 3a 38 bd 7a 88 6a be
       0.42166194 0.18817088 -0.044978105 -0.22903624
0002e0 0a 0e ba bd 75 37 c4 be 4e 2d d0 be 46 48 f2 bc
       -0.09084709 -0.3832356 -0.40659565 -0.029575478
0002f0 d7 fd 27 bf bb cf d8 be ca 82 66 be 1b 2f 65 3e
       -0.65621704 -0.42345986 -0.2251083 0.2238125
000300 9b 41 06 bf e7 3b dd be e2 41 00 bf a5 3e 11 be
       -0.52443856 -0.43209764 -0.5010053 -0.14184053
000310 fa 77 a1 3e ee e9 89 3e 00 67 0e be 26 b3 ef 3d
       0.31536847 0.26936287 -0.13906479 0.11704092
000320 4d 2a 8a 3e 6c 0d c6 3e 6c f2 ac 3d 53 59 77 bd
       0.26985398 0.38682115 0.08444676 -0.06038792
000330 9f e2 e4 bd 1a 78 ed bc 48 b7 e5 3d 20 3e 73 3e
       -0.11176037 -0.028987933 0.11216599 0.23754168
000340 39 dc 0c 3e 92 d4 8b 3e 25 c0 cb bd 5d 07 b0 3c
       0.13755883 0.27310616 -0.09948758 0.021487886
000350 ab fc 36 bd b5 f1 bf be b2 64 9e bc 41 60 93 be
       -0.044674557 -0.37489095 -0.019335125 -0.28784373
000360 db c2 34 3e 8a 89 49 3d 9e d8 a4 3e 6c ff 78 be
       0.17652456 0.049203433 0.32196516 -0.24316186
000370 ee 71 30 be 51 10 53 be 0f d1 40 bd 47 b8 17 3e
       -0.1723096 -0.20611693 -0.047074374 0.1481639
000380 e9 08 a5 3e d3 11 40 3e 5d 46 3b 3e ef 00 c3 3d
       0.3223336 0.187568 0.1828856 0.095216624
000390 f1 68 7a 3d 29 7d a2 3c 44 6e 8f 3d 26 cb 86 be
       0.061135236 0.019835072 0.070034534 -0.26326865
0003a0 47 18 c0 be b6 73 15 bf 95 cb 75 bf 5b 51 92 bf
       -0.37518522 -0.58379686 -0.96013767 -1.1431078
0003b0 ed 2e a1 bf db c1 f2 bd 33 b7 11 be 0a 73 14 be
       -1.2592446 -0.11853381 -0.14230041 -0.14497009
0003c0 bc 6f 6a be dd 5a be be 2c a5 c3 be 26 a5 1b 3e
       -0.22894186 -0.37178698 -0.38211954 0.15199718
0003d0 7f c7 28 be 8b 20 f6 be 84 a8 c1 be 35 a2 a4 be
       -0.16482352 -0.48071703 -0.3782388 -0.32155004
0003e0 3d 18 77 be f9 3c 67 3e 8f 69 98 3e f9 9f 97 3e
       -0.2413034 0.22581853 0.29768035 0.29614237
0003f0 60 b4 85 3e 42 cf 40 3e 42 85 29 3f 28 6c d9 bd
       0.26114178 0.18829063 0.6621896 -0.10616332

conv2.bias f4 [64]
000000 90 a8 27 bd 1a 2d ff 3c d9 81 a4 3c d6 26 f0 bc
       -0.040932238 0.031149436 0.020081447 -0.029315393
000010 b4 28 ca 3d ca 55 1f 3c a5 63 45 3d eb c3 8e 3d
       0.09871045 0.009725044 0.04819073 0.06970962
000020 4d 6d c9 3c 20 66 3c bd d1 c3 65 3d c8 7b 23 3c
       0.024588251 -0.04599583 0.05609495 0.009978242
000030 20 15 58 3d 5c 87 60 be 38 d9 94 3c d5 b0 60 3d
       0.05275452 -0.21926636 0.018169984 0.05485614
000040 6f 2b fe 3c 20 17 08 be e4 6a 4d bd 58 08 80 3d
       0.03102657 -0.13290071 -0.050150767 0.062515914
000050 38 f0 cb 3d 42 8e dd 3c 8f 96 2b be 0e 49 19 be
       0.099579275 0.027045373 -0.16756652 -0.14969274
000060 88 03 56 bd 3c 51 1a bd bc de 47 3d a4 68 aa 3c
       -0.05224946 -0.037675127 0.0487964 0.02080185
000070 de 82 46 3d 05 a1 b4 3c 9f 8d 1f 3d 35 4e 84 3d
       0.04846465 0.022049436 0.03895342 0.06460229
000080 3b 0c 1a 3d 46 fa 03 bd 7c e8 27 bd 74 92 fd bd
       0.03760932 -0.0322211 -0.0409932 -0.12381449
000090 0b 0d 56 3d 5f cf a1 bc 08 7d f3 bd 12 9f d4 bd
       0.052258532 -0.019752203 -0.11889082 -0.10381903
0000a0 e6 e7 85 3c e7 43 d4 bc 25 a8 36 3d ee fd 8f 3b
       0.01634593 -0.025911285 0.04459395 0.0043942844
0000b0 8d bb e7 3c 87 82 85 bd 83 61 1e 3d f8 1a b9 bd
       0.028287673 -0.06519037 0.038667213 -0.09038347
0000c0 2a 5a 5f 3d d2 eb 3f bd 35 3b 1c bb 6d 12 ef ba
       0.054529347 -0.046855755 -0.0023839 -0.0018239744
0000d0 22 e0 a2 3d 99 76 8a 3d db 58 0f 3c 83 b5 3f 3e
       0.07952906 0.06760902 0.008749212 0.18721585
0000e0 1a 7a 4f 3e 66 32 15 3d 61 f5 ca bc 41 73 68 bd
       0.20261422 0.036425017 -0.024775209 -0.05675054
0000f0 95 c8 68 3d 95 21 90 bc a1 3f a5 3c 5a cd 82 bd
       0.056831915 -0.017594138 0.020171942 -0.06386824

BN2.weight f4 [64]
000000 c2 58 ad 3f 52 1f 92 3f 06 d6 a3 3f 63 c3 a7 3f
       1.3542712 1.1415808 1.279969 1.3106502
000010 2f 02 8c 3f d8 d9 a9 3f 46 7e 5c 3f ff 28 8b 3f
       1.0938166 1.3269606 0.8613018 1.0871886
000020 31 9e a8 3f 0e b9 aa 3f 83 18 91 3f 3b 45 9f 3f
       1.3173276 1.3337724 1.1335605 1.2443002
000030 9d df ac 3f 58 38 c0 3f 7a 29 97 3f 2a 68 8c 3f
       1.3505741 1.5017195 1.1809533 1.0969288
000040 2a ee b1 3f b6 48 b1 3f c5 e3 e4 3f e1 f6 1c 40
       1.3900807 1.3850315 1.788201 2.4525683
000050 51 e8 a0 3f d8 ac b6 3f 10 51 11 40 e7 20 a6 3f
       1.2570897 1.4271498 2.2705727 1.2978791
000060 06 f3 ab 3f 5f 1b 06 40 1e ad ba 3f ad 64 b2 3f
       1.343354 2.0954206 1.4584081 1.3936974
000070 b1 00 bc 3f 6c f1 ab 3f 8f 82 be 3f 32 62 9d 3f
       1.4687711 1.3433051 1.4883593 1.2295592
000080 cf 6a c3 3f 71 8d bc 3f d6 72 a8 3f eb df ad 3f
       1.526697 1.4730664 1.3160045 1.3583959
000090 72 f5 f8 3f 25 2d 8f 3f 47 9a 4c 3f 27 b9 99 3f
       1.9449904 1.1185652 0.7992291 1.2009629
0000a0 0b 0d 8c 3f 78 c9 80 3f 13 bf 9d 3f 3a 5b 02 40
       1.094148 1.0061483 1.2323936 2.036818
0000b0 4c 8f d4 3f e5 bd b0 3f a0 73 c9 3f a5 72 74 3f
       1.6606231 1.3807951 1.5738411 0.95487434
0000c0 99 56 d9 3f ef 9f 9b 3f 8f 78 a7 3f 81 1d b3 3f
       1.6979553 1.2158183 1.3083667 1.3993379
0000d0 f3 5e c5 3f 4b 4f 78 3f 57 e8 a3 3f a2 59 9d 3f
       1.5419601 0.9699599 1.280528 1.2292979
0000e0 d0 84 90 3f 76 8c b9 3f fc f1 98 3f d1 80 89 3f
       1.1290531 1.449599 1.1948848 1.0742437
0000f0 17 59 cb 3f 08 98 c0 3f e0 55 ed 3f a4 48 a2 3f
       1.5886563 1.5046396 1.8541832 1.2678418

BN2.bias f4 [64]
000000 1c 82 2f bf c1 52 1d bf 16 44 1f bf a1 57 35 bf
       -0.68557906 -0.614544 -0.62213266 -0.70836836
000010 e5 04 1f bf eb f7 30 bf f4 d8 dc be f6 dd fb be
       -0.62116843 -0.6912829 -0.43134272 -0.4919278
000020 f8 dc 22 bf 8f 70 2b bf af eb 0b bf 10 3b 25 bf
       -0.6361842 -0.66968626 -0.546565 -0.6454325
000030 70 bc 26 bf 0a 8f 36 bf 69 ad 0f bf 6c 04 00 bf
       -0.6513128 -0.7131201 -0.5612398 -0.5000675
000040 31 70 18 bf 89 48 3c bf 16 60 96 bf 4a f6 eb bf
       -0.5954619 -0.7354818 -1.1748073 -1.8434536
000050 a3 e3 0d bf 6d 4a 3c bf ec 4f c7 bf 78 01 1d bf
       -0.5542547 -0.73551065 -1.5571265 -0.61330366
000060 e6 43 28 bf 70 86 a7 bf a7 ea 41 bf e8 b1 2b bf
       -0.65728605 -1.3087902 -0.75748676 -0.6706834
000070 30 ce 45 bf ba 3e 11 bf c6 19 42 bf 75 ec 19 bf
       -0.7726774 -0.5673634 -0.7582058 -0.6012643
000080 1b 5f 81 bf df 90 4a bf 13 63 11 bf cb ae 27 bf
       -1.0107149 -0.79127306 -0.567918 -0.6550109
000090 bd 29 90 bf 8c 71 e3 be f2 05 ea be b2 72 1c bf
       -1.1262738 -0.44422567 -0.4570766 -0.6111251
0000a0 11 8f f5 be 08 8a ea be 47 86 26 bf 9f a6 c2 bf
       -0.47960714 -0.45808434 -0.6504864 -1.5207099
0000b0 46 7b 5c bf d9 85 35 bf 3e 17 5a bf 10 12 fd be
       -0.861256 -0.7090736 -0.85191715 -0.49427843
0000c0 57 45 4e bf c1 41 27 bf 98 86 32 bf ea ed 33 bf
       -0.80574554 -0.6533471 -0.69736624 -0.70284903
0000d0 ea 59 5b bf 39 83 f9 be 21 18 19 bf 3b e8 2b bf
       -0.8568407 -0.48732927 -0.5980244 -0.6715123
0000e0 88 e2 00 bf 7f 63 3e bf 02 29 0d bf c5 cb 0a bf
       -0.5034566 -0.7437057 -0.551407 -0.5421718
0000f0 e2 da 81 bf 63 2b 4a bf 76 4d 98 bf 39 48 12 bf
       -1.0144923 -0.7897245 -1.1898639 -0.57141453

BN2.running_mean f4 [64]
000000 23 ae b8 bf 99 2a 13 c0 f2 08 c9 bf d8 47 c3 bf
       -1.4428142 -2.299475 -1.5705855 -1.52563
000010 7d c3 18 c0 aa d6 b7 bf a0 87 90 bf ec 95 d6 bf
       -2.3869317 -1.4362385 -1.129139 -1.6764503
000020 14 28 8c bf 0f 5c cb bf 79 b9 21 c0 3a e3 f9 bf
       -1.0949731 -1.5887469 -2.5269454 -1.9522469
000030 13 1d e0 bf 93 12 a2 bf d9 0c 03 c0 63 fc 8c bf
       -1.7508873 -1.2661918 -2.0476592 -1.1014522
000040 07 1a c7 bf e1 99 d5 bf ab 15 68 bf 95 d9 44 bf
       -1.5554818 -1.6687585 -0.9065806 -0.76894504
000050 5e db ef bf b3 48 f3 bf b0 2e 94 bf 23 77 e5 bf
       -1.873882 -1.9006561 -1.1576748 -1.7926983
000060 f5 83 05 c0 af 3e 6e bf a7 6c b9 bf 18 53 ca bf
       -2.086179 -0.930644 -1.4486283 -1.5806608
000070 e7 b5 ae bf 3c 60 b3 bf 08 d4 d2 bf 32 a6 e6 bf
       -1.3649262 -1.4013743 -1.6470957 -1.8019469
000080 f2 7a 7a bf 46 8d 8a bf e8 3a cc bf ad 86 db bf
       -0.9784385 -1.0824363 -1.5955477 -1.7150475
000090 53 47 68 bf 71 e2 44 c0 13 8a fa bf 98 4e 8e bf
       -0.9073383 -3.076321 -1.9573387 -1.1117735
0000a0 08 ba ec bf 15 58 09 c0 e3 2d 9f bf 60 ff 43 bf
       -1.8494272 -2.146001 -1.2435879 -0.76561546
0000b0 e1 b8 b5 bf 53 52 98 bf c5 c4 95 bf 4d be 27 c0
       -1.4197046 -1.1900123 -1.1700674 -2.62099
0000c0 00 7a 90 bf 6a 01 b7 bf 27 1f 08 c0 6c 5f d2 bf
       -1.1287231 -1.4297307 -2.1269014 -1.643537
0000d0 68 ea e3 bf d8 f8 f2 bf e8 21 e2 bf 42 48 61 bf
       -1.780591 -1.8982191 -1.7666597 -0.8800088
0000e0 08 aa 31 c0 15 83 da bf 10 9a 3a c0 2c 37 00 c0
       -2.776003 -1.7071253 -2.9156532 -2.0033674
0000f0 f4 ea 3c bf fa ef 94 bf 6a 8f 3b bf 45 5d df bf
       -0.7379601 -1.1635735 -0.7326571 -1.7450339

BN2.running_var f4 [64]
000000 33 0b 1d 41 65 fa 9e 41 da b7 58 41 0d 59 14 41
       9.815234 19.872263 13.544886 9.271741
000010 a0 44 3e 41 5a 36 64 41 00 b4 46 41 b0 c7 76 41
       11.891754 14.263269 12.418945 15.423752
000020 ff 99 be 40 11 33 8a 41 c0 b4 b6 41 45 1e 88 41
       5.9562984 17.274935 22.838257 17.01478
000030 be f0 32 41 d0 12 ba 40 07 61 da 41 39 b2 a2 41
       11.183775 5.8147964 27.297377 20.337023
000040 20 04 a0 41 63 76 25 41 5a 37 5e 40 60 e4 5f 40
       20.002014 10.341403 3.4721284 3.498314
000050 a5 42 87 41 a7 72 5b 41 ed 43 90 40 73 e8 20 41
       16.907541 13.715491 4.5082917 10.05675
000060 b2 8d 9d 41 73 c0 aa 40 52 3b 1d 41 69 09 0e 41
       19.694187 5.3359923 9.8269825 8.877297
000070 78 95 81 41 7a d9 6d 41 7a 5f 43 41 20 52 70 41
       16.197983 14.865595 12.21081 15.02005
000080 58 3c 89 40 81 bb bb 40 10 21 34 41 3c 29 52 41
       4.288616 5.8666387 11.258072 13.135067
000090 4a 43 9d 40 15 7a bb 41 fb cd 84 41 c2 64 cc 40
       4.914464 23.43461 16.600576 6.3872995
0000a0 04 df 56 41 cc 19 a0 41 03 7a e1 40 5b cb 5b 40
       13.429447 20.012596 7.046144 3.4342868
0000b0 c5 4c 04 41 5f b2 d6 40 17 35 cd 40 12 d0 bd 41
       8.268743 6.709274 6.4127307 23.726597
0000c0 4d f9 39 41 ae 30 22 41 7a b3 2f 41 ba e3 22 41
       11.623364 10.136885 10.9813175 10.180597
0000d0 a4 47 7e 41 95 5d a6 41 59 2b 86 41 e8 73 60 41
       15.89249 20.795694 16.771166 14.028297
0000e0 91 67 e6 41 a1 d2 4e 41 38 b0 b5 41 98 50 49 41
       28.80057 12.926423 22.711044 12.582176
0000f0 cd 63 71 40 ef d8 b8 40 16 ff 43 40 a2 e7 a0 41
       3.7717164 5.776481 3.0624442 20.113102

fc1.weight f4 [128, 1024]
000000 ef cd b4 ba 3f a6 fb bc f1 b4 4d bc 7b d7 a7 bc
       -0.0013794283 -0.03071892 -0.012555347 -0.020488491
000010 7f bf 4c ba 01 dd 1b bc e0 4b 11 bd 5e aa 00 bc
       -0.00078105176 -0.009513141 -0.03547275 -0.007853119
000020 64 3e f0 bc 6d f1 8e bc 85 d9 16 3c 01 5d c2 3c
       -0.029326625 -0.017449105 0.009207134 0.023725988
000030 f9 a5 b0 3b 4a 35 8f 3c 86 cb 9b 3c 1c 41 11 bd
       0.005390879 0.017481465 0.019017946 -0.035462484
000040 8d 9f 4e bc 30 2b 5c bc 53 92 1b 3c fe 09 83 bc
       -0.012611282 -0.013438031 0.009495336 -0.015995976
000050 ad 0b 31 ba a2 c5 29 bc 3b 82 49 bc f3 50 62 3c
       -0.0006753754 -0.010362061 -0.012299116 0.013813245
000060 ee 9b 63 3c 74 eb 00 bc ad 10 e7 bc 1a e7 8f 3b
       0.013892157 -0.007868636 -0.028206194 0.004391563
000070 d2 97 d7 ba eb 4e e5 bc 8c 8d 9b bc 87 5d 4b 3b
       -0.0016448444 -0.027991733 -0.018988393 0.0031031088
000080 ea 1c 89 3a 5b 74 ba bc 79 4f 7b 3c ed 57 7b bc
       0.0010460888 -0.02276056 0.015338772 -0.015340787
000090 57 ad 47 3c bf 22 a4 bc 90 63 ef bc 26 a7 d2 3a
       0.0121873235 -0.0200361 -0.02922228 0.0016071543
0000a0 e4 cd c9 3c 5d 3f 58 3c 7c 14 ad bc ff d1 f5 bc
       0.02463431 0.013198701 -0.021127932 -0.03000736
0000b0 32 3a 55 bc 13 5b 8b bc 2b b4 c6 3b 47 cc 0c bd
       -0.013014363 -0.017011201 0.006063958 -0.0343745
0000c0 c9 06 88 bc 32 14 2b bc 21 30 74 3c 2b 5d c6 3b
       -0.016604798 -0.010441827 0.014904053 0.006053587
0000d0 10 eb b6 3c ac cd 99 bb c4 bb a0 bc 3a 89 0a 3b
       0.022328883 -0.0046937075 -0.019620784 0.0021138922
0000e0 40 02 25 bb 77 f0 06 bd 47 a0 d6 bc dd 4b ff bc
       -0.0025178343 -0.03294417 -0.026199473 -0.031164104
0000f0 b0 f1 59 bc ec 71 0a bd 79 9c 07 bb 19 79 62 3c
       -0.013302252 -0.03380005 -0.002069263 0.013822817
000100 da 70 21 3c 02 5f bb 3c 54 8c 84 bc ad b3 b2 bc
       0.009853566 0.022872452 -0.016180195 -0.021814192
000110 9d 0b a9 bb 7d 47 f1 bb f2 9f 9f 3c a7 c2 0a bd
       -0.005158855 -0.0073632584 0.019485448 -0.03387704
000120 2e e0 15 bd d3 af f5 bc c5 19 a2 bc 58 8c 28 3c
       -0.036590748 -0.029991066 -0.019787678 0.010287367
000130 7b 58 65 bc 9c 3f a0 3b 71 32 ec bc 85 31 ca 3c
       -0.013998146 0.0048903953 -0.028832646 0.024681816
000140 4b 9d 32 3b 39 0f 3e 3b 71 95 c6 3c 89 d0 09 3c
       0.0027254398 0.0029000773 0.024241181 0.008411535
000150 40 cb 95 3b 44 41 03 bc a8 84 07 3b 27 a2 06 bc
       0.0045713484 -0.008011166 0.0020678435 -0.008217371
000160 25 a8 a9 bb f5 42 df bc 89 6f 93 3c cc 25 2b 3c
       -0.005177515 -0.027253607 0.01799752 0.010446023
000170 94 81 b9 bc 1a f7 95 3c 49 37 ba bc 41 99 17 bc
       -0.022644795 0.018306304 -0.02273144 -0.009252847
000180 f8 e4 86 bc be 44 17 3c ff a6 3c 3b 1a 8c a5 bc
       -0.016466603 0.009232698 0.002878606 -0.020208407
000190 7a 62 92 3b 62 75 c4 3b 7d d4 c0 ba 18 f9 28 3c
       0.0044673057 0.0059954384 -0.0014711764 0.010313295
0001a0 54 c4 2d bc c6 ea 2b 3c 49 60 bf 3c 08 c3 9d bc
       -0.01060589 0.010492986 0.023361342 -0.019258037
0001b0 b4 6e f5 3b d0 47 ec 3b 26 2c b8 bb dc 32 6f bc
       0.0074900035 0.007210709 -0.0056204973 -0.014599528
0001c0 b6 91 17 3c 74 ce 37 3c 64 6f 78 3c 80 c7 3f bc
       0.009251049 0.011218656 0.015163276 -0.011705279
0001d0 07 6e 09 bd 18 28 8b bc 34 dc 0b bd 14 35 c4 3c
       -0.033552196 -0.016986892 -0.03414555 0.02395109
0001e0 f6 d4 10 bd 9b a7 3e 3c f0 3b d3 bc 1d 1f 04 bd
       -0.035359345 0.01163664 -0.025785416 -0.032256234
0001f0 24 14 23 3c e8 d7 f8 bc ba 78 e5 bc 14 f8 9f 3a
       0.009953532 -0.03037639 -0.028011668 0.001220467
000200 46 d1 02 bd 0c c5 9f 3c a6 e5 ac ba 01 df bf bb
       -0.03193786 0.019503139 -0.0013190999 -0.0058554416
000210 f5 d3 b4 3c db e6 aa bc 75 44 be bc 13 60 53 bb
       0.022073725 -0.020862034 -0.023226002 -0.003225331
000220 d1 eb 59 3c 0d 4b cb 39 f2 1d 1a 3c f3 f4 13 bd
       0.013300852 0.00038775094 0.009406554 -0.036122274
000230 02 4d 40 bc b8 5b fa b9 d0 1c 29 3c 46 af ac bc
       -0.01173711 -0.00047752052 0.010321811 -0.02107967
000240 80 14 b4 bc 03 01 e3 ba c0 78 25 bc cd c1 7f bc
       -0.021982431 -0.0017319027 -0.01009959 -0.015610171
000250 a7 cb 95 3c ba 87 a9 bc 57 46 0c 3c f9 9f 96 3c
       0.018285586 -0.020694602 0.008561692 0.018386828
000260 9f ac af bc 6e a0 8e 3c 14 ca c2 3b 89 9b 85 bb
       -0.021444617 0.017410483 0.0059444997 -0.004077379
000270 d5 38 0d bd f6 04 84 3b 0e 6d 9e 3c 20 96 0f bc
       -0.034478027 0.0040289117 0.01933911 -0.00876382
000280 5a 7e 97 3c 96 f2 ce bb 6f 45 59 bc 20 1f 70 bc
       0.018492866 -0.0063155396 -0.013261183 -0.014655858
000290 5d 8d 05 bc f8 33 9b bc 1e ac ae bb 9e 50 d1 bb
       -0.008151379 -0.018945679 -0.0053305766 -0.006387784
0002a0 61 38 03 bd fb ad a8 bc 8a cb ba 3c 07 c1 c0 bb
       -0.03203619 -0.020590773 0.022802133 -0.0058823857
0002b0 1e df c5 bb fe b3 1a 3c 7f 50 93 3c 7a 4a 17 bd
       -0.0060385605 0.009442328 0.01798272 -0.03693626
0002c0 e4 a5 0f bd a0 a2 0b bc 7f 72 8d bc 66 a1 02 bd
       -0.035070315 -0.00852266 -0.01726651 -0.031892203
0002d0 fc 93 f8 bc 7f 30 cc 3b 9d 9a 32 3c 5e 0f 01 bc
       -0.030344002 0.006231367 0.0109011205 -0.007877199
0002e0 7e 32 6e bb 79 6f e5 bc 13 d1 df bc 83 af 07 bd
       -0.0036346014 -0.028007256 -0.027321374 -0.033126365
0002f0 c6 c5 f3 bb 14 14 12 bd 57 c7 d2 bb 3d 1e 87 3c
       -0.007439348 -0.03566368 -0.0064324546 0.01649391
000300 2e a1 90 bc 10 18 04 bd 07 88 c6 bc 5b 57 0f 3c
       -0.017654981 -0.03224951 -0.024234785 0.0087488545
000310 71 c3 c4 bc 44 b4 c0 bc 4a 5c b4 bc 54 46 b1 bc
       -0.024018975 -0.023523457 -0.022016663 -0.02163998
000320 d1 fa 93 3c 36 12 81 bc ae ed bb 3c 0e 73 0e 3c
       0.018063935 -0.015755754 0.022940483 0.008694423
000330 d5 93 2e bc 4d 7e 01 bd 3b 41 8c 3c 23 19 ac 3c
       -0.010655363 -0.03161459 0.017120948 0.02100808
000340 03 1d 22 bc fe 5c 9e 3c 1b 73 3f bc 65 54 08 bd
       -0.009894612 0.019331452 -0.011685158 -0.03328361
000350 6d a9 10 bd ee c5 84 bc ce 76 95 3b 0f d2 7e 3c
       -0.035317827 -0.016207661 0.0045612818 0.015553012
000360 af 22 ab 3c f5 83 be 3c 6f 4d c4 3b a0 6c 02 bd
       0.020890562 0.023256281 0.005990676 -0.031841874
000370 6f 7c b7 3b cf 15 f8 bb 90 69 54 bc 25 eb 9c 3c
       0.0055995504 -0.007570959 -0.012964621 0.019155094
000380 e5 1b db bb 11 97 b4 bc a1 35 b3 3c 71 3f 43 3c
       -0.006686675 -0.02204469 0.021876158 0.011916981
000390 d3 c1 ca ba fe 46 95 3c 51 1c fa bc 14 df d0 bb
       -0.0015469141 0.018222328 -0.03053108 -0.0063742492
0003a0 a8 10 05 bd d9 dd 33 bb f1 7c 3f 3b 53 8e 89 ba
       -0.032486588 -0.0027445464 0.0029218758 -0.0010494686
0003b0 d3 a9 03 bd 67 88 d7 bc 1c 5a 0d bd b0 8e a4 3c
       -0.03214438 -0.026310159 -0.034509763 0.02008757
0003c0 ec f6 9a bc 7f 4f 91 3c 7a 1f fb bc de 63 8f ba
       -0.01891657 0.017738102 -0.030654658 -0.0010939797
0003d0 ab 5c b5 3c ef b7 47 bc 84 fa df bc 40 de 23 bc
       0.022138914 -0.012189849 -0.027341135 -0.010001719
0003e0 f6 4b 92 3b e1 56 41 bc da 4a 36 3b f8 fa 7e bb
       0.0044646217 -0.011800499 0.002781561 -0.0038906913
0003f0 92 a6 fe bc 2d 08 28 bc 57 95 94 bc 20 e9 af 3c
       -0.031085286 -0.0102558555 -0.018137617 0.021473467

fc1.bias f4 [128]
000000 65 16 28 3c 7e bb 39 bd 90 e8 53 3e b9 3a 4c 3e
       0.0102592455 -0.045344822 0.20694184 0.19944276
000010 99 b6 dd 3b c8 16 26 bd 06 23 a7 3a 2f 4c 11 bd
       0.006766152 -0.04054907 0.0012751527 -0.035473045
000020 9c a2 7c bc 15 38 0d 3b f4 90 1d bc 79 7f c1 3d
       -0.0154196285 0.002154832 -0.009617079 0.094481416
000030 36 82 5f 3c cb 73 5e bd 6c 4a 9b 3d a3 3e d1 3b
       0.013641885 -0.054309648 0.07582554 0.0063856407
000040 a4 12 ce bc 20 d7 93 bc 17 69 3b 3d b7 7c 12 bd
       -0.025155373 -0.018046916 0.04575452 -0.03576347
000050 af 50 b4 bd dd 82 5f bc 41 8d aa 3e 0f b0 60 bc
       -0.08804452 -0.01364204 0.33310893 -0.013713851
000060 4b 8b 20 bc e6 43 58 3e df 8c a5 bc 37 18 c9 3d
       -0.009798835 0.21119651 -0.020208774 0.09819072
000070 2d 16 c1 bc a8 3c 72 bc db 7e c4 bc ae 58 12 bd
       -0.023570145 -0.014784969 -0.02398627 -0.035729103
000080 f8 ec 81 3c 60 0b 8b 3b bb 29 55 bd e3 9d 92 bb
       0.015860066 0.0042432994 -0.05204175 -0.004474388
000090 8f 9b a2 3e 5c 90 0d bd ab 99 43 bc 3b 9b ed bc
       0.31759307 -0.0345615 -0.011938493 -0.029004684
0000a0 f3 a6 2b bc 86 e3 55 bc 10 5a 26 3c dc a8 96 3b
       -0.0104768155 -0.013054734 0.0101533085 0.0045977663
0000b0 de 38 3e 3e a9 0d b4 bc c5 c1 67 bc d9 bd af bd
       0.1857638 -0.02197917 -0.014145319 -0.085811324
0000c0 1c 47 07 3c 4e d3 be ba a3 e5 cd bc b0 c4 81 bc
       0.0082567 -0.0014558823 -0.025133913 -0.015840858
0000d0 4c db ea bb 16 ef 19 bd 11 ec 74 3e b9 6a fb bc
       -0.0071672555 -0.037581526 0.23918177 -0.030690538
0000e0 1c f0 09 bd 03 73 16 bc 79 51 1d bc cf 13 44 3e
       -0.03367625 -0.009182694 -0.009601944 0.19148181
0000f0 00 38 ce 3d c3 c6 da 3a 19 ed 58 3e e8 13 14 bd
       0.10069275 0.0016691316 0.21184196 -0.036151797
000100 13 61 ef 3a a0 8c 12 3e 97 22 db 3b ea b4 00 bd
       0.0018263183 0.14311457 0.006687473 -0.031422533
000110 c2 46 e2 bb 06 a6 05 3c a3 b8 93 3c 23 11 46 3e
       -0.0069054076 0.008157259 0.018032378 0.19342475
000120 d1 8b 13 bd 2c 69 36 bd a2 9b 1a 3d 0f ec 3e ba
       -0.03602201 -0.044533893 0.03774608 -0.00072831
000130 28 9f 71 bc bc 4b 2e 3e ff ab e2 3b 53 31 38 bc
       -0.014747418 0.17021078 0.006917476 -0.011242229
000140 7a 19 1b 3e a6 92 1e 3e 79 46 cc bc 8d 87 d5 3d
       0.15146437 0.1548563 -0.024935948 0.10426245
000150 f9 f7 10 bd 9b 26 21 3c 0f f5 a4 bb cf 6c d4 bc
       -0.035392735 0.009835864 -0.005034096 -0.02593079
000160 4b 34 0a 3c 00 b8 ef bc 6b 8c 16 bd bc c7 0c 3e
       0.008435319 -0.029262543 -0.036755007 0.13748068
000170 52 de 0f bd bb 92 87 bb c6 fa 4d 3d 19 0b c1 bc
       -0.03512413 -0.0041373647 0.050287984 -0.023564862
000180 b5 de e0 bc db 78 fa bc 86 6e 06 3e 50 c1 98 bc
       -0.027449945 -0.030575207 0.13128099 -0.018646866
000190 ae d4 79 3e 4a fb fa 3d 81 ea 0d bd fb 7f 0f bc
       0.24397537 0.12254961 -0.03464747 -0.00875854
0001a0 e7 02 0a bd b3 6b 10 bd 1a 14 06 bc df 8e 4e bd
       -0.033694174 -0.03525896 -0.0081835035 -0.05042922
0001b0 5d ac 9b 3e c2 3f 09 be 4e 91 82 3e b3 4e 38 bd
       0.3040494 -0.13403228 0.25501484 -0.04499693
0001c0 04 85 e6 bc d8 7f 02 3c 44 ca 5c bd dd 11 87 bc
       -0.028139599 0.007965051 -0.053903833 -0.01648801
0001d0 7c 8d 7b 3e d3 73 29 3d 85 d2 e9 ba c4 d0 14 bd
       0.24565691 0.041370224 -0.0017839229 -0.036331907
0001e0 a2 48 83 3e 3e 38 0e 39 60 63 15 bc f9 41 47 3e
       0.25641352 0.00013563127 -0.009117931 0.1945876
0001f0 ca 3a 91 bc e6 04 90 bc 11 f3 9c bc 98 42 66 3e
       -0.017728228 -0.01758046 -0.019158872 0.22486341

fc2.weight f4 [4, 128]
000000 3b 8c 5d bd 7d e5 17 3c 06 66 6d 3d 7e 48 a6 bf
       -0.054088812 0.009271023 0.057958625 -1.2990873
000010 2f c9 73 bd ee ae e3 3c aa f8 05 3d be 2f fa 3b
       -0.059518036 0.027793374 0.032707848 0.007635086
000020 0e 2b 83 3d c7 6d a3 bd 17 c0 83 3c 02 9d 45 3f
       0.064046964 -0.07979923 0.016082807 0.771927
000030 d5 5e 17 bd fa 63 01 3c a4 51 bd 3e 23 ce 15 3d
       -0.036955673 0.007897371 0.3697635 0.03657354
000040 0a a9 b1 3c 8c 9c af 3c ce 86 59 3d 91 15 98 3c
       0.02168705 0.021436952 0.053107075 0.018564971
000050 21 05 27 bd 8f 96 7a bd 75 d4 b9 bf 8e 7c 47 3d
       -0.040776376 -0.06117874 -1.4517962 0.04870277
000060 19 97 39 bd fd a7 c6 3e 26 e8 b6 bc 35 40 42 3f
       -0.045310114 0.3880004 -0.022327494 0.7587922
000070 99 44 da ba 10 b8 a1 bd 21 74 cb bc 0c 1a 72 3c
       -0.0016652524 -0.07896435 -0.024835648 0.014776718
000080 ca cc 49 3c ad ba c4 3b 42 e1 50 3d 03 f0 e1 bd
       0.012316892 0.006003699 0.050996073 -0.11032107
000090 ef ff 47 3f 6a d5 e0 bc 7a 58 66 bd 39 7e 24 bd
       0.781249 -0.027445514 -0.05623672 -0.040159438
0000a0 75 00 89 bd 08 31 34 bc c8 aa 4a 3d 02 84 82 3d
       -0.0668954 -0.010998018 0.049479276 0.06372835
0000b0 f2 6a b4 bf 76 5b b4 bc 3e c7 9d 3d 24 9e 8a bd
       -1.4095137 -0.022016268 0.07704018 -0.06768444
0000c0 d4 4a 8f bd 14 0a 86 3b bd dc 4d bd 92 e8 91 bd
       -0.06996694 0.004090557 -0.05025934 -0.071244374
0000d0 58 7c ac 3c 3b 73 15 bd e2 da bc 3f 58 12 b0 bc
       0.021055385 -0.036486845 1.4754298 -0.021493122
0000e0 69 42 5e bb 15 a9 30 bc ab 50 73 bd 45 2c fd 3e
       -0.0033914095 -0.0107825 -0.059403103 0.49447837
0000f0 e5 99 8f 3f 10 a1 9e 3c 8e d0 c2 bf 44 2a 0c bd
       1.121884 0.01936391 -1.5219896 -0.034219995
000100 9a a2 22 bc 5a 9c e6 3e e0 07 98 bd 0b f1 0f bd
       -0.009926463 0.45041162 -0.07423377 -0.035141986
000110 6d 74 18 bc e3 6a 7a bd 78 34 e2 bc cd d8 af bf
       -0.009305102 -0.06113709 -0.02761291 -1.3738037
000120 8c c8 06 3d da b8 01 3f 04 99 39 3f 2f 14 02 3e
       0.0329061 0.50672686 0.7249911 0.12703012
000130 48 e8 76 bd 92 92 27 3f 18 ea 87 3d 63 ad 9b bd
       -0.060280114 0.65458024 0.06636447 -0.0760143
000140 20 b8 4b bf 70 65 7c be f3 62 2e bd 44 54 18 3e
       -0.7957783 -0.2464807 -0.042574834 0.14875895
000150 6c ab 6e bc 7d 7a 88 3c ec fe 53 bd 09 32 c2 3c
       -0.014567237 0.01665997 -0.051756784 0.0237055
000160 d4 1e 4e bd dd b2 a1 3d 80 33 a6 3c ae fd 87 3f
       -0.05032237 0.078954436 0.020288229 1.0624292
000170 5f 79 00 bd 72 52 84 bd 78 1f 68 be 26 04 82 bc
       -0.03136575 -0.06461038 -0.22668254 -0.015871119
000180 fe 60 ab bc d8 db 85 bd b4 20 80 3d 0e d4 60 3b
       -0.020920273 -0.065360725 0.062562376 0.0034306082
000190 88 ff 7d 3f 87 2c 97 3e 3e ea 3c 3c 19 a6 c7 3b
       0.99218035 0.2952616 0.011530457 0.0060927984
0001a0 17 fb af bc 31 88 fb bc e6 ca a9 bd 18 d6 82 3d
       -0.021482034 -0.03070459 -0.08290653 0.063884914
0001b0 bb 94 00 c0 45 34 19 bd 87 7e 19 be ae fd 24 3c
       -2.0090778 -0.037403364 -0.14989673 0.010070248
0001c0 59 5b 13 3e 28 7c f5 bc 66 df a4 bf 82 32 40 bd
       0.14390315 -0.029966429 -1.2880676 -0.046923168
0001d0 dc 6e 4d 3f ef 5c 42 3f 4a 64 09 3d 09 85 7d bc
       0.80247283 0.75923055 0.03354291 -0.015473613
0001e0 7b 80 93 3e f3 fd e7 bd 46 cc 97 bd 29 61 b3 3f
       0.2880896 -0.11327734 -0.07412009 1.4014026
0001f0 47 1c 99 bd 53 6e 07 bd f6 4c 49 bd e8 73 df bf
       -0.074760966 -0.033064198 -0.04914566 -1.7457247
000200 aa 0c 87 bd cb ef 81 bc 80 df 77 3f 59 ec 4f 3f
       -0.06594212 -0.015861413 0.9682541 0.8122001
000210 9c 2a d4 bc 63 db 47 bd 05 43 35 bd 66 57 58 bd
       -0.025899224 -0.048793208 -0.044253368 -0.052817725
000220 21 fd d1 3c bd 42 8a b9 75 0a ca 3c 46 2f cb bf
       0.025633397 -0.00026371135 0.02466319 -1.5873802
000230 91 88 17 3d e0 39 3d bd 37 af a1 bf c5 fa 7d 3d
       0.036995474 -0.046197772 -1.2631596 0.06200673
000240 2a d2 2d bd 8c ef 92 3c 65 b8 dc 3e 94 fc e6 3c
       -0.042436756 0.01793649 0.43109432 0.02819661
000250 b8 1d 1f 3c df d5 a2 3c b6 c6 20 bf 63 f1 8d 3c
       0.009711675 0.019877372 -0.6280321 0.017327016
000260 7b e2 a0 bc ac 85 85 3f 34 b2 ac 3c 9a 8f 16 c0
       -0.019639244 1.0431418 0.021081068 -2.3525147
000270 b7 af f9 bc f7 f8 98 3d 2c ad 7f 3c 4f 3f 0a 3c
       -0.030479295 0.07469361 0.015605252 0.0084379455
000280 cd bd 95 bd 00 48 5d 3c a2 82 1e 3d 5d 1c c2 bc
       -0.07311592 0.013505936 0.0386988 -0.023695165
000290 76 f8 5e be 15 1c c5 3c b0 22 79 bd 68 c6 6d bd
       -0.21774468 0.024061242 -0.060824096 -0.058050543
0002a0 e7 af 83 3c dd 8d fb bc 32 88 45 3d 5a cc 29 bd
       0.016075088 -0.030707294 0.04822559 -0.04145465
0002b0 94 94 3d 3f 14 e9 7a 3a f1 e2 0c bd df d6 a5 bd
       0.7405484 0.00095714745 -0.034396116 -0.08097624
0002c0 29 2d 8f 3d ef 25 5b 3d 33 a3 6d bd 42 62 88 bd
       0.069910355 0.053502973 -0.058016967 -0.06659366
0002d0 89 96 98 3c 9e c2 d1 bb 63 29 34 3e 07 e8 1a bd
       0.018626468 -0.006401374 0.17593913 -0.037818935
0002e0 51 89 b8 3c ff b2 97 3c 10 c3 57 3d 2b 08 b5 bf
       0.022526415 0.01851797 0.05267626 -1.4143118
0002f0 9c 86 50 be 93 3e 43 3d 0e 46 9f 3e aa e8 95 bc
       -0.2036385 0.047667097 0.31108135 -0.01829942
000300 48 fe 57 3d 7b d4 f7 bf c1 8c 5b bd 27 2b 70 bd
       0.052732736 -1.9361719 -0.05360103 -0.058634903
000310 38 1c 14 bd 6e c7 56 3d 63 bc f9 bb 6b e7 b5 3e
       -0.036159724 0.052436285 -0.0076213344 0.3552812
000320 6c 13 1a 3d 93 45 62 bf 0c fa b9 be 68 f8 c7 bf
       0.03761618 -0.8838741 -0.36323583 -1.5622683
000330 7d 4c 89 3c a3 88 b1 be 9b c4 84 3c 55 da 6d 3d
       0.016760105 -0.34674558 0.01620703 0.058069546
000340 51 01 8a bf bf db f4 bf 86 7c 2b bd 70 45 8f bf
       -1.0781652 -1.9129561 -0.0418668 -1.1193066
000350 fc 39 82 3d 89 e3 79 bd 53 94 1f 3d af 88 87 bc
       0.06358716 -0.06100801 0.038959812 -0.016544668
000360 f8 cc 22 bd 44 9b 0f 3d 85 10 9f bd 2a d8 a1 bf
       -0.039746255 0.035060182 -0.07766823 -1.2644093
000370 4b 54 22 bd f5 c0 d6 3c 04 a0 80 3f 8a 3a 8c 3c
       -0.03963117 0.026215056 1.0048833 0.017117757
000380 c3 05 a8 3d 7a 34 74 3d ac 8d 57 3f b4 b1 54 3d
       0.08204224 0.059620358 0.8420055 0.051927283
000390 62 dd 40 3d 88 dd 26 3f 69 86 d3 bc 7c f5 81 ba
       0.047086127 0.6518178 -0.025820928 -0.0009915079
0003a0 d8 cb e7 3b 24 ee 84 3d 31 52 66 3d 34 d8 04 bc
       0.0070738606 0.06490734 0.056230728 -0.0081081875
0003b0 2c dc e6 3e 8c d3 30 3b db f3 25 3f 09 d3 44 ba
       0.45089853 0.002698156 0.6482522 -0.00075082533
0003c0 1d dd 29 3d 25 5b f5 3a 1a ff 91 3f 23 9f ea 3c
       0.041470636 0.001871918 1.1405976 0.028640335
0003d0 9e 00 e3 bc 80 60 82 bf e4 b9 07 3d 92 a9 74 bd
       -0.027710255 -1.01857 0.033136263 -0.059732027
0003e0 a8 26 84 3a 5d af 87 bd 09 98 0c bd 14 a0 a3 bf
       0.0010082321 -0.06625245 -0.03432468 -1.2783227
0003f0 a5 6a 9d bd 7d 46 90 3c aa ac 0e bd 72 74 77 bf
       -0.076863565 0.017611736 -0.034832634 -0.96662056

fc2.bias f4 [4]
000000 09 b2 cf bd 4a cb a5 3d 1c 4c 84 bd 5c 82 b1 bc
       -0.101413794 0.08095415 -0.06459829 -0.021668606
