cnn saved models/cnn_epoch8.pt (torch, 609323 bytes, 16 tensors)

conv1.weight f4 [32, 1, 3, 3]
0.33230376 0.30862528 -0.2387506 -0.332627 -0.20809653 -0.19527164 0.06532758 -0.006883306
0.26392195 0.49193937 -0.17665292 0.52870774 -0.051708553 -0.11274883 -0.14913355 0.050119817
0.24928698 -0.12290921 0.09158951 -0.016826509 0.3394772 -0.24517173 -0.41491145 0.07734351
0.20732592 0.26791486 -0.35530522 -0.1263977 0.3161524 0.26642892 0.08636097 -0.21548113
-0.34118563 -0.14672124 0.25539556 -0.15256293 -0.05364924 -0.18821646 0.14679156 -0.2656341
0.23078561 0.08312248 0.23359646 0.10946136 -0.2598852 0.19078101 -0.31381607 -0.3417702
0.11489932 0.25402528 -0.08617435 -0.3029279 -0.05208848 -0.56686807 0.12437791 -0.16047621
-0.2831619 0.12739663 0.2203706 0.3852142 -0.361955 0.019798473 -0.067123584 0.29535094
-0.22934443 -0.28541955 0.29502377 -0.05634519 -0.32097346 0.2804873 -0.10320124 0.1233483
0.054321244 0.006957184 -0.6216638 -0.06278836 -0.027743269 0.02200139 0.22991754 0.12097354
0.015541353 0.16098447 -0.29025206 0.41769102 -0.31536332 0.05776013 -0.3870139 0.22395287
0.121711046 -0.14296204 -0.010782354 -0.20752299 -0.054519154 -0.18637678 0.14194474 -0.4269676
0.28078318 0.2932377 -0.043237265 -0.09156945 0.245142 -0.19683604 0.05777238 0.21163443
-0.19942968 0.37629357 -0.09037485 -0.17836264 0.3865376 0.12123001 -0.03828696 0.14734702
-0.19004282 -0.13031371 -0.15116312 -0.0147491265 -0.24933787 -0.35760656 0.04978467 -0.3802076
-0.22778289 0.09106078 0.059079785 0.019887883 0.11572149 0.319323 0.34975058 -0.36287382
-0.044565976 0.2418093 0.18511963 -0.41574946 0.33219483 0.04739292 -0.35270274 -0.028434524
0.10864324 -0.53814065 0.093732044 -0.30800515 -0.0865676 0.46725667 0.11220516 -0.13011184
0.24578433 0.1378142 -0.33711505 -0.063705094 -0.20774317 0.3853139 -0.40493697 0.392582
-0.075269565 -0.23801135 -0.027238287 0.1153769 0.07972086 -0.42200115 -0.35501024 0.14202668
0.37606293 0.30452916 0.055156156 0.3783183 0.070658974 0.17090516 -0.15179119 -0.06563433
-0.062670805 -0.33516288 -0.004000347 0.29946685 0.20123573 0.04971187 -0.5707252 -0.3595697
0.022949247 0.22462757 0.1060541 0.141565 0.07283001 -0.40606093 0.334752 -0.25852588
-0.07591599 0.18090282 -0.18540722 0.002022938 0.2184653 -0.2532379 0.30792737 0.35330266
0.13648883 -0.08996262 -0.21655418 0.117587835 -0.07794854 -0.3687751 0.09399008 -0.05971775
-0.22208689 0.40119368 -0.14760835 -0.10778323 -0.43068492 0.21881795 0.29002333 -0.13276647
-0.045675606 0.046701875 -0.061835997 -0.22243926 0.31869808 -0.29721063 0.0140236225 0.38451433
-0.28134266 -0.1203773 0.29800576 -0.37258753 -0.08802549 0.26324552 -0.034516677 0.29171363
0.07355087 0.2273482 -0.28229278 0.014209589 0.2779595 -0.5399485 0.29873618 0.13365385
-0.37749913 0.23996165 -0.032047603 -0.46792287 -0.2488157 0.24374156 -0.36026236 -0.11058352
-0.08607556 0.36755705 0.10621394 -0.4365248 -0.3227928 0.09732322 0.033502717 0.011549892
-0.111907616 0.15863794 -0.08417146 0.32443315 -0.30524564 0.24835823 0.47033322 -0.3121787
00000000: b823 aa3e 2204 9e3e 0a7b 74be 164e aabe
00000010: 4217 55be 4af5 47be 77ca 853d 5b8d e1bb
00000020: c720 873e 7adf fb3e 81e4 34be 6459 073f
00000030: 59cc 53bd dce8 e6bd 77b6 18be 704a 4d3d
00000040: 1645 7f3e d3b7 fbbd 4893 bb3d bfd7 89bc
00000050: f5cf ad3e 4c0e 7bbe 466f d4be 4666 9e3d
00000060: 3f4d 543e 232c 893e 91ea b5be 666e 01be
00000070: bade a13e 5f69 883e 05de b03d 16a7 5cbe
00000080: e2af aebe 183e 16be 35c3 823e 7539 1cbe
00000090: 4ebf 5bbd d1bb 40be 8750 163e 3101 88be
000000a0: 1053 6c3e 1e3c aa3d e933 6f3e 472d e03d
000000b0: ac0f 85be 195c 433e 80ac a0be 81fc aebe
000000c0: 5650 eb3d 9a0f 823e 2d7c b0bd 5e19 9bbe
000000d0: bb5a 55bd 441e 11bf d8b9 fe3d e053 24be
000000e0: 99fa 90be 4374 023e d5a8 613e cc3a c53e
000000f0: 2a52 b9be 6830 a23c 1778 89bd 3d38 973e
00000100: 44d9 6abe 8322 92be 5b0d 973e 37ca 66bd
00000110: a256 a4be 089c 8f3e 2c5b d3bd 099e fc3d
00000120: f47f 5e3d 17f9 e33b 5c25 1fbf 2f97 80bd
00000130: da45 e3bc 423c b43c 816f 6b3e fac0 f73d
00000140: 29a1 7e3c 1dd9 243e eb9b 94be 99db d53e
00000150: 4d77 a1be e395 6c3d b026 c6be e753 653e
00000160: a443 f93d a464 12be 78a8 30bc e880 54be
00000170: 7a4f 5fbd 8ed9 3ebe f659 113e 7f9b dabe
00000180: d0c2 8f3e 4023 963e 8f19 31bd c488 bbbd
00000190: 8106 7b3e 638f 49be bba2 6c3d b2b6 583e
000001a0: 4b37 4cbe 8da9 c03e 7316 b9bd b2a4 36be
000001b0: 42e8 c53e 7147 f83d cad2 1cbd 23e2 163e
000001c0: 969a 42be f570 05be 81ca 1abe 52a6 71bc
000001d0: 6d52 7fbe 3518 b7be 03eb 4b3d 92aa c2be
000001e0: eb3f 69be 137e ba3d a5fd 713d eaeb a23c
000001f0: 63ff ec3d 4e7e a33e 8212 b33e 99ca b9be
00000200: d08a 36bd db9c 773e 0090 3d3e 1ddd d4be
00000210: 7115 aa3e 141f 423d 7495 b4be 85ef e8bc
00000220: 5980 de3d 96c3 09bf 96f6 bf3d dab2 9dbe
00000230: 5b4a b1bd 443c ef3e d2cb e53d 0a3c 05be
00000240: e3ae 7b3e 2a1f 0d3e 589a acbe d177 82bd
00000250: a0ba 54be dd47 c53e e653 cfbe 8200 c93e
00000260: ee26 9abd 3fb9 73be d422 dfbc b94a ec3d
00000270: b144 a33d 8910 d8be e7c3 b5be 716f 113e
00000280: 528b c03e 3feb 9b3e 6ceb 613d f0b2 c13e
00000290: a7b5 903d c301 2f3e 266f 1bbe 4b6b 86bd
000002a0: 8d59 80bd 789a abbe 5815 83bb b853 993e
000002b0: bd10 4e3e ac9e 4b3d 0c1b 12bf 8519 b8be
000002c0: 0f00 bc3c c504 663e e432 d93d 6af6 103e
000002d0: e627 953d 38e7 cfbe 9d64 ab3e 815d 84be
000002e0: d879 9bbd 973e 393e 64db 3dbe 4593 043b
000002f0: 5eb5 5f3e 66a8 81be a8a8 9d3e 16e4 b43e
00000300: bac3 0b3e 523e b8bd 61c0 5dbe e4d1 f03d
00000310: 7ca3 9fbd 17d0 bcbe df7d c03d 999a 74bd
00000320: bf6a 63be 4269 cd3e a526 17be 74bd dcbd
00000330: bc82 dcbe d011 603e f07d 943e eff3 07be
00000340: 5816 3bbd 774a 3f3d be47 7dbd 1ec7 63be
00000350: 652c a33e fe2b 98be 56c3 653c 10df c43e
00000360: 250c 90be 6088 f6bd 3694 983e cbc3 bebe
00000370: b546 b4bd 1ec8 863e 5c61 0dbd 7d5b 953e
00000380: d7a1 963d f7cd 683e ae88 90be 56cf 683c
00000390: b550 8e3e 113a 0abf f3f3 983e 8edc 083e
000003a0: 9147 c1be 82b8 753e 5944 03bd 9693 efbe
000003b0: 8bc9 7ebe 6397 793e 4f74 b8be 9d79 e2bd
000003c0: 6248 b0bd 7030 bc3e b286 d93d 2e80 dfbe
000003d0: 1945 a5be 6551 c73d 253a 093d c23b 3d3c
000003e0: d22f e5bd fc71 223e 1662 acbd 1a1c a63e
000003f0: 2849 9cbe 9f51 7e3e 84cf f03e e3d5 9fbe

conv1.bias f4 [32]
0.21436067 0.3205998 0.12680218 -0.20014724 0.35575446 0.35899165 0.12915659 -0.069153644
0.1373431 0.15406433 0.114368774 0.4357526 0.37258825 0.24329755 -0.04805003 -0.2581901
-0.015193615 0.55663157 -0.4469498 0.14177798 0.24716084 -0.25062758 0.3437604 -0.1485239
0.43327206 -0.076151654 -0.07499462 0.06784653 0.111626476 -0.018453365 -0.26726434 0.036966637
00000000: 5d81 5b3e a825 a43e 6ed8 013e 66f3 4cbe
00000010: 7325 b63e c1cd b73e a041 043e 6da0 8dbd
00000020: aba3 0c3e 0ac3 1d3e 2d3a ea3d f71a df3e
00000030: e3c3 be3e fe22 793e 1cd0 44bd 7e31 84be
00000040: a4ee 78bc 687f 0e3f 9bd6 e4be 3f2e 113e
00000050: bb17 7d3e 4252 80be 5d01 b03e a616 18be
00000060: d6d5 dd3e 66f5 9bbd c896 99bd 1ff3 8a3d
00000070: 6c9c e43d 832b 97bc dfd6 88be 546a 173d

BN1.weight f4 [32]
1.3079157 0.39951468 1.082821 0.8441616 0.9113924 0.79502493 1.2278678 0.90287364
0.8850239 1.0397913 0.88594604 0.4041358 0.9586113 0.89461434 0.867986 0.97967297
0.86074597 0.4802432 0.6886268 0.7779246 0.9566111 0.8720513 1.0670323 0.67671573
0.71641195 1.3014442 1.0179561 0.8462273 1.0153337 0.70252216 0.87056303 0.81982464
00000000: c869 a73f 308d cc3e e199 8a3f fa1a 583f
00000010: 0351 693f c186 4b3f c62a 9d3f ba22 673f
00000020: ed90 623f e217 853f 5ccd 623f e3ea ce3e
00000030: 8d67 753f 7205 653f 5534 5e3f d9cb 7a3f
00000040: d959 5c3f 70e2 f53e d949 303f 1126 473f
00000050: 77e4 743f c13e 5f3f 8494 883f 3e3d 2d3f
00000060: c666 373f b995 a63f 634c 823f 5aa2 583f
00000070: 74f6 813f 7ed8 333f 38dd 5e3f 07e0 513f

BN1.bias f4 [32]
-0.39260656 -0.17979245 -0.25071394 -0.087108776 -0.8521555 -0.31360963 -0.1529929 -0.11107916
-0.4771496 -0.5280596 -0.42680097 -0.18058291 -0.025958683 -0.3974315 -0.16505486 -0.6655019
-0.871634 -0.07648787 -0.42405158 -0.5440288 -0.41236717 -0.29282174 -1.1974585 -0.060173996
-0.06851743 -0.31604484 -0.65554965 -0.106394276 -0.090117455 -0.07442306 -0.57818615 -0.20152733
00000000: ba03 c9be 831b 38be 945d 80be 1666 b2bd
00000010: dd26 5abf 7191 a0be 2caa 1cbe 787d e3bd
00000020: f44c f4be ea2e 07bf a885 dabe baea 38be
00000030: 4ea7 d4bc 247c cbbe 2404 29be 555e 2abf
00000040: 6823 5fbf aca5 9cbd 4a1d d9be 7945 0bbf
00000050: ca21 d3be bbec 95be 5246 99bf 0279 76bd
00000060: de52 8cbd a1d0 a1be 1ad2 27bf 3ee5 d9bd
00000070: 808f b8bd 1e6b 98bd 0204 14bf 2e5d 4ebe

BN1.running_mean f4 [32]
0.20888163 0.44992724 0.116075926 -0.21072203 0.36236268 0.1583894 0.13305356 -0.07177498
0.087328754 0.12290998 0.07259124 0.46197727 0.35089672 0.18497492 -0.05246047 -0.31765673
0.0001959871 0.5477038 -0.4348357 0.15848392 0.22275427 -0.26605403 0.35037133 -0.1484639
0.43814698 -0.08160608 -0.18788521 0.0037938524 0.08886523 -0.06948589 -0.27211714 0.016987804
00000000: 11e5 553e dd5c e63e 37b9 ed3d 84c7 57be
00000010: 9a87 b93e d530 223e 313f 083e c3fe 92bd
00000020: 6bd9 b23d 3ab8 fb3d b7aa 943d 4988 ec3e
00000030: bca8 b33e 116a 3d3e cae0 56bd e7a3 a2be
00000040: e381 4d39 5136 0c3f c9a2 debe 9c49 223e
00000050: b219 643e 3c38 88be df63 b33e ec06 18be
00000060: cd54 e03e 1721 a7bd fb64 40be 48a2 783b
00000070: f9fe b53d 9e4e 8ebd f052 8bbe 022a 8b3c

BN1.running_var f4 [32]
0.002728365 0.020743052 0.0025697963 0.0030171813 0.00048579864 0.045148883 0.0024404663 0.0041945092
0.0078088148 0.0031349945 0.006343349 0.0022817573 0.00559855 0.01067896 0.004256122 0.010144615
0.00089743355 0.006090726 0.004529695 0.004084999 0.002806091 0.0038247905 0.0009853903 0.0025541738
0.0035645913 0.0026093666 0.020621816 0.01056032 0.0068184747 0.007688533 0.0002495796 0.011056958
00000000: 5ece 323b 55ed a93c 076a 283b e7bb 453b
00000010: cab2 fe39 09ee 383d 3bf0 1f3b 1872 893b
00000020: 16e1 ff3b 7b74 4d3b dedb cf3b 8989 153b
00000030: 0b74 b73b cef6 2e3c f076 8b3b 9935 263c
00000040: bf41 6b3a b694 c73b d66d 943b 75db 853b
00000050: 65e6 373b 56a9 7a3b 3628 813a ed63 273b
00000060: eb9b 693b e801 2b3b 15ef a83c 3105 2d3c
00000070: 836d df3b 17f0 fb3b 02da 8239 3e28 353c

conv2.weight f4 [64, 32, 3, 3]
-0.16405556 0.049992293 -0.072349675 -0.05549271 -0.07214541 -0.21680394 -0.079213716 0.057482608
-0.07225313 -0.026708042 0.03217344 0.09063816 -0.1678724 -0.22090575 -0.14965412 0.1187804
0.11184424 0.1173819 0.08125482 0.08977548 0.08926152 -0.13567226 -0.06287799 -0.13378061
-0.077588454 -0.023194166 0.13934544 -0.32792306 0.04978621 0.03146166 -0.35243148 0.040073015
-0.2617745 -0.010939609 0.2944876 0.216334 0.21090838 -0.10995811 -0.09641543 -0.07951272
-0.22374654 -0.18295957 -0.04266734 -0.08978698 -0.07624399 -0.18832558 -0.06373205 -0.12767597
-0.12662005 -0.06552229 -0.05827509 0.14091809 0.15110458 0.13822764 0.054359693 0.004285995
-0.12608927 0.012508685 0.07710003 0.16285618 -0.17653383 -0.19521692 -0.2626191 -0.06049244
0.032670915 -0.0011080727 -0.04031431 -0.043886323 -0.13130213 0.07483503 0.0626225 0.152804
-0.2510488 -0.035414718 -0.2160316 -0.08791499 0.10945019 -0.07433845 -0.005606211 0.111996114
-0.05323872 -0.2838586 -0.38055474 -0.4979723 -0.046488106 0.040794864 -0.028476553 -0.36242744
-0.3701972 -0.45596248 0.2639521 0.22757283 0.13972288 -0.0226963 0.065568 0.035184827
-0.029416796 0.028253702 0.0068048546 -0.08344907 0.034961287 -0.032745343 -0.077312216 0.021334784
-0.14901488 0.13663794 0.07066854 -0.0018701919 -0.0772311 0.06806216 -0.09023444 0.14355768
-0.0056064185 -0.39159244 -0.09700117 0.1032053 0.16452663 0.0680801 -0.027393194 -0.12360833
0.0025048025 0.033797637 -0.08078242 -0.016173236 0.10221949 0.0962674 -0.13877949 0.0041460916
-0.05443357 0.09513095 0.013423 -0.22872296 -0.039495226 0.057163 -0.0776568 -0.2731071
-0.022428943 -0.35913154 -0.017270852 0.09932445 0.06704461 0.059738625 0.06173573 -0.15776487
-0.41704097 -0.28453144 -0.29730138 0.23732772 0.18441553 0.036744326 -0.15481398 -0.12007217
0.10393061 0.3764482 0.2569059 0.32276887 0.015064585 0.03423395 0.10791869 0.05533776
0.08789354 0.08042635 -0.08006515 0.041743584 0.22357312 -0.039272595 -0.3163921 -0.4055521
0.09707085 0.11215932 0.17328225 -0.296656 -0.10652458 -0.06354363 -0.054674815 -0.102651745
-0.15255135 0.05059579 0.030618135 0.19652988 0.31895056 0.11311215 -0.069430485 -0.25290102
-0.10890115 -0.2089314 -0.1688497 0.024546232 -0.19930358 0.065595455 0.22037172 0.26207405
-0.28484562 -0.10025241 -0.21611372 -0.012537023 0.2997429 0.23986886 -0.033915717 0.068045124
0.117019236 -0.031178948 -0.096256986 -0.08366609 0.03200071 -0.18090095 -0.012041089 0.13607052
0.076117314 0.124550566 -0.16455697 -0.076211706 -0.21014935 -0.19848299 -0.021471031 -0.13145818
0.099813916 0.017487304 0.12604411 -0.14679226 -0.12943141 -0.089072876 -0.032501344 0.094521075
0.15434124 0.09607931 -0.10432331 -0.07907614 0.059455905 -0.03260032 0.02925393 -0.35653117
-0.46199557 -0.51457953 -0.475995 -0.44942465 -0.4780244 -0.17470093 -0.08960228 -0.07860789
-0.36334774 -0.4236986 -0.42779008 -0.014380618 -0.14885187 -0.378194 -0.058627136 -0.07080147
0.01084997 7.460826e-05 0.07080832 0.11954885 0.07653702 0.12544283 0.40782297 -0.13208577
00000000: 2efe 27be b8c4 4c3d 112c 94bd 534c 63bd
00000010: f9c0 93bd da01 5ebe cd3a a2bd e272 6b3d
00000020: 73f9 93bd d3ca dabc 4cc8 033d 80a0 b93d
00000030: bee6 2bbe 1e35 62be ee3e 19be 2343 f33d
00000040: 980e e53d ec65 f03d ed68 a63d 35dc b73d
00000050: bece b63d abed 0abe 2dc6 80bd c9fd 08be
00000060: b2e6 9ebd b101 bebc 92b0 0e3e 88e5 a7be
00000070: a0ec 4b3d f1dd 003d e671 b4be 9a23 243d
00000080: 4f07 86be 0c3c 33bc 14c7 963e a986 5d3e
00000090: 5ef8 573e b831 e1bd 7475 c5bd 91d7 a2bd
000000a0: d01d 65be c159 3bbe f3c3 2ebd 3ce2 b7bd
000000b0: cf25 9cbd 6cd8 40be f385 82bd 7dbd 02be
000000c0: b0a8 01be 8d30 86bd dcb1 6ebd d54c 103e
000000d0: 29bb 1a3e 8c8b 0d3e 45a8 5e3d 8871 8c3b
000000e0: 8c1d 01be 3af1 4c3c 9fe6 9d3d c5c3 263e
000000f0: 49c5 34be f2e6 47be 0376 86be ecc6 77bd
00000100: f0d1 053d c03c 91ba 9e20 25bd 25c2 33bd
00000110: 1174 06be 1c43 993d 3a40 803d a778 1c3e
00000120: 7889 80be 060f 11bd 6337 5dbe c60c b4bd
00000130: 6c27 e03d c23e 98bd 4eb4 b7bb 385e e53d
00000140: d810 5abd ea55 91be 12d8 c2be 3af6 febe
00000150: 506a 3ebd 8418 273d a947 e9bc 1790 b9be
00000160: 7d8a bdbe ea73 e9be bb24 873e da08 693e
00000170: 8413 0f3e 97ed b9bc 8448 863d f71d 103d
00000180: 7efb f0bc 4f74 e73c 42fb de3b 59e7 aabd
00000190: 9133 0f3d fb1f 06bd de55 9ebd 49c6 ae3c
000001a0: 5b97 18be d1ea 0b3e abba 903d 3a21 f5ba
000001b0: 572b 9ebd 2c64 8b3d d6cc b8bd c900 133e
000001c0: 0cb6 b7bb ce7e c8be 8da8 c6bd 4d5d d33d
000001d0: ab79 283e 946d 8b3d b167 e0bc 5d26 fdbd
000001e0: 9d27 243b 646f 0a3d 4171 a5bd bc7d 84bc
000001f0: 7458 d13d d827 c53d 361c 0ebe f0db 873b
00000200: bcf5 5ebd 04d4 c23d 25ec 5b3c 5a36 6abe
00000210: bfc5 21bd c023 6a3d 870a 9fbd b2d4 8bbe
00000220: e7bc b7bc 17e0 b7be 9a7b 8dbc 9e6a cb3d
00000230: af4e 893d 7db0 743d 9bde 7c3d 1d8d 21be
00000240: 6586 d5be 1bae 91be e337 98be 0a06 733e
00000250: 6dd7 3c3e 3881 163d 8e87 1ebe 66e8 f5bd
00000260: 92d9 d43d d2bd c03e 2c89 833e f641 a53e
00000270: 73d1 763c e638 0c3d 7904 dd3d d9a9 623d
00000280: 8701 b43d 92b6 a43d 33f9 a3bd 52fb 2a3d
00000290: 5af0 643e 4ddc 20bd 25fe a1be 86a4 cfbe
000002a0: 15cd c63d c9b3 e53d e770 313e 4ce3 97be
000002b0: 8f29 dabd 2a23 82bd b3f2 5fbd 143b d2bd
000002c0: 6c36 1cbe 883d 4f3d e2d2 fa3c 213f 493e
000002d0: 7d4d a33e 58a7 e73d 9231 8ebd 3e7c 81be
000002e0: 9107 dfbd 1df2 55be f0e6 2cbe 2e15 c93c
000002f0: 3d16 4cbe e956 863d 20a9 613e 922e 863e
00000300: 49d7 91be 2351 cdbd ea4c 5dbe 1668 4dbc
00000310: e777 993e 2fa0 753e 35eb 0abd 3e5b 8b3d
00000320: c8a7 ef3d fe6a ffbc 6222 c5bd 2159 abbd
00000330: 2d13 033d 193e 39be fd47 45bc 1256 0b3e
00000340: 65e3 9b3d 5e14 ff3d 9f81 28be e214 9cbd
00000350: 6431 57be 203f 4bbe 04e4 afbc f99c 06be
00000360: 3d6b cc3d 8941 8f3c b511 013e b650 16be
00000370: ab89 04be d76b b6bd 2120 05bd 4494 c13d
00000380: a10b 1e3e 3bc5 c43d 76a7 d5bd acf2 a1bd
00000390: 0988 733d ea87 05bd f0a5 ef3c 418b b6be
000003a0: af8a ecbe 7cbb 03bf 9eb5 f3be fd1a e6be
000003b0: 9dbf f4be cde4 32be 6681 b7bd 2cfd a0bd
000003c0: b708 babe 06ef d8be 4d07 dbbe af9c 6bbc
000003d0: a06c 18be a5a2 c1be 0223 70bd 5c00 91bd
000003e0: 13c4 313c 0177 9c38 f403 913d 07d6 f43d
000003f0: 71bf 9c3d 1674 003e 2cce d03e 7e41 07be

conv2.bias f4 [64]
-0.0015598058 -0.0074592284 -0.009171596 -0.024224777 0.055588398 -0.002596645 0.04254932 0.04412974
0.021743312 -0.049017984 0.049006045 0.0023539956 0.041439652 -0.058531333 0.029350044 0.00237296
0.008756434 -0.064520694 -0.04454662 0.040830016 0.09747355 0.0014685491 -0.08438461 -0.05993422
-0.02193656 -0.028650686 0.035887446 0.06224166 -0.01872962 0.027579784 0.021614956 0.065012395
0.054019667 -0.029639961 -0.005883558 -0.081568904 0.016785381 -0.015242361 -0.061439805 -0.06866778
0.06551109 -0.039754346 0.031465445 0.00096150767 -0.0070908517 0.050662827 0.029829135 -0.079479374
0.010310309 -0.037937853 -0.06723565 -0.019870961 0.055020615 0.060426548 0.07634202 0.096523546
0.06311871 0.014812763 0.01939364 -0.04122311 0.10486918 -0.04058446 0.016342659 -0.005029735
00000000: 6672 ccba 8b6c f4bb 7644 16bc 0a73 c6bc
00000010: a9b0 633d 792c 2abb 3248 2e3d 63c1 343d
00000020: 081f b23c 15c7 48bd 90ba 483d 7e45 1a3b
00000030: a0bc 293d 8dbe 6fbd 816f f03c aa83 1b3b
00000040: 2577 0f3c 6d23 84bd 8476 36bd 603d 273d
00000050: 36a0 c73d 557c c03a d7d1 acbd 967d 75bd
00000060: 4db4 b3bc d8b4 eabc b7fe 123d 1cf1 7e3d
00000070: dc6e 99bc 00ef e13c d911 b13c 3825 853d
00000080: ba43 5d3d 81cf f2bc ddca c0bb 990d a7bd
00000090: 7f81 893c 19bb 79bc 4ea8 7bbd b1a1 8cbd
000000a0: ae2a 863d 74d5 22bd e9e1 003d b00d 7c3a
000000b0: 605a e8bb d383 4f3d 3b5c f43c 15c6 a2bd
000000c0: 92ec 283c b964 1bbd d8b2 89bd 6dc8 a2bc
000000d0: 4c5d 613d d481 773d 3459 9c3d 23ae c53d
000000e0: 6244 813d 3bb1 723c 69df 9e3c 90d9 28bd
000000f0: a7c5 d63d e43b 26bd 0ae1 853c 7ad0 a4bb

BN2.weight f4 [64]
1.2498819 1.0638481 1.1637788 1.1223146 0.9867416 1.2333437 0.8269781 1.0691419
1.1473999 1.251587 1.1020375 1.0948374 1.1763247 1.2316488 1.1292778 1.1150223
1.2894071 1.1993136 1.4453658 1.8875585 1.1393819 1.1748496 1.7906761 1.1719767
1.1293813 1.8546808 1.1110643 1.3045142 1.3026592 1.223732 1.2462621 1.0811659
1.2403426 1.1084687 1.100712 1.1889098 1.5561512 1.049179 0.8159417 1.1259208
1.02087 0.9430718 1.0222895 1.5381758 1.4044656 1.2157629 1.2698686 0.96458966
1.455685 1.05451 1.0935483 1.107048 1.3429143 0.8687155 1.2214316 1.0898864
1.1059657 1.3752477 1.1742746 0.95168495 1.3116634 1.3056539 1.3110707 1.3081596
00000000: 21fc 9f3f 2d2c 883f b4f6 943f 01a8 8f3f
00000010: 199b 7c3f 35de 9d3f d6b4 533f a4d9 883f
00000020: 00de 923f 0134 a03f 910f 8d3f a223 8c3f
00000030: cf91 963f aba6 9d3f 2d8c 903f 0db9 8e3f
00000040: 4b0b a53f 1c83 993f bf01 b93f 849b f13f
00000050: 44d7 913f 7961 963f e034 e53f 5503 963f
00000060: 918f 903f 2e66 ed3f 5b37 8e3f 52fa a63f
00000070: 89bd a63f 40a3 9c3f 8485 9f3f a563 8a3f
00000080: 8cc3 9e3f 4de2 8d3f 21e4 8c3f 322e 983f
00000090: f62f c73f 7f4b 863f 8ee1 503f 2c1e 903f
000000a0: deab 823f 276d 713f 62da 823f f2e2 c43f
000000b0: 87c5 b33f 1e9e 9b3f 0e8b a23f 59ef 763f
000000c0: e353 ba3f 2ffa 863f 64f9 8b3f c0b3 8d3f
000000d0: 9ee4 ab3f 2464 5e3f df57 9c3f 6681 8b3f
000000e0: 4990 8d3f 1e08 b03f a14e 963f a0a1 733f
000000f0: 96e4 a73f ab1f a73f 2ad1 a73f c671 a73f

BN2.bias f4 [64]
-0.5361908 -0.47707555 -0.5252961 -0.4563157 -0.48845917 -0.5851968 -0.37397 -0.42648014
-0.5053468 -0.59337 -0.36338788 -0.4590789 -0.5276243 -0.51419705 -0.4267147 -0.44188404
-0.49353212 -0.58052313 -0.8755914 -1.2745175 -0.3945065 -0.5769557 -1.1239872 -0.44884554
-0.46721095 -0.9886239 -0.6478428 -0.5124836 -0.6303091 -0.45659652 -0.5159071 -0.46979627
-0.6728809 -0.4927563 -0.44075814 -0.46098953 -0.6864374 -0.3852861 -0.25853226 -0.46281517
-0.4244967 -0.357059 -0.46776578 -1.2057813 -0.57776153 -0.51313937 -0.65875775 -0.47705722
-0.50514495 -0.47730076 -0.4779201 -0.53119206 -0.6527912 -0.35623497 -0.5143015 -0.49004152
-0.38230732 -0.56632096 -0.43458614 -0.4104019 -0.6674571 -0.6283656 -0.8263706 -0.49962318
00000000: cd43 09bf 3f43 f4be ce79 06bf 36a2 e9be
00000010: 5217 fabe 75cf 15bf ff78 bfbe 9b5b dabe
00000020: 685e 01bf 19e7 17bf fa0d babe 640c ebbe
00000030: 6312 07bf 6ba2 03bf 597a dabe a03e e2be
00000040: 3eb0 fcbe 2a9d 14bf c226 60bf 6423 a3bf
00000050: c2fc c9be 5eb3 13bf d0de 8fbf 15cf e5be
00000060: 4636 efbe 7516 7dbf 07d9 25bf 2032 03bf
00000070: f05b 21bf 05c7 e9be 7d12 04bf 2389 f0be
00000080: ec41 2cbf 8e4a fcbe 0dab e1be d206 ecbe
00000090: 5dba 2fbf 3844 c5be 575e 84be 1cf6 ecbe
000000a0: a257 d9be 70d0 b6be ff7e efbe 0b57 9abf
000000b0: 2ee8 13bf 1a5d 03bf 59a4 28bf d840 f4be
000000c0: 2e51 01bf c460 f4be f1b1 f4be 34fc 07bf
000000d0: 531d 27bf 6e64 b6be 43a9 03bf b9e6 fabe
000000e0: c9bd c3be 69fa 10bf 1382 debe 3320 d2be
000000f0: 78de 2abf 91dc 20bf 068d 53bf 9cce ffbe

BN2.running_mean f4 [64]
-0.76263744 -1.3084533 -0.8094798 -1.2710391 -1.2945626 -0.5897085 -0.47609973 -0.70730925
-0.7207679 -0.9466363 -1.4906193 -0.96132165 -0.8580705 -0.6201997 -0.6555027 -0.08176636
-0.47340852 -1.0877678 -0.3379521 -0.3653939 -1.6001735 -1.2909384 -0.3970864 -0.85240465
-1.2483815 -0.38492107 -0.89638925 -0.9521119 -0.49175453 -0.6205194 -0.75532484 -0.939
-0.41191804 -0.7600916 -1.3735632 -0.98300934 -0.32717934 -1.9138181 -1.049462 -0.5528283
-1.1882983 -1.1223984 -1.0858886 -0.14975332 -0.9742229 -0.5490918 -0.548083 -0.79514533
-0.6202972 -0.5474308 -1.120581 -1.1200836 -0.75598824 -0.40788567 -0.6497394 -0.06572222
-1.4777923 -0.97770554 -1.5500187 -1.5156459 -0.21147276 -0.42037502 -0.33597815 -0.15902576
00000000: 353c 43bf 667b a7bf 113a 4fbf 69b1 a2bf
00000010: 3ab4 a5bf 23f7 16bf 58c3 f3be 3812 35bf
00000020: 3f84 38bf c256 72bf 9dcc bebf 2d19 76bf
00000030: 82aa 5bbf 68c5 1ebf 06cf 27bf 1f75 a7bd
00000040: 9a62 f2be fa3b 8bbf 0f08 adbe e914 bbbe
00000050: 7cd2 ccbf 783d a5bf e94e cbbe 3137 5abf
00000060: f7ca 9fbf 6014 c5be c479 65bf 9bbd 73bf
00000070: 40c7 fbbe 5cda 1ebf f85c 41bf 4e62 70bf
00000080: ece6 d2be 5d95 42bf ebd0 afbf 80a6 7bbf
00000090: 0d84 a7be fef7 f4bf c554 86bf 2886 0dbf
000000a0: 291a 98bf c0aa 8fbf 66fe 8abf ef58 19be
000000b0: ac66 79bf 4891 0cbf 2b4f 0cbf a58e 4bbf
000000c0: cccb 1ebf 6d24 0cbf 336f 8fbf e65e 8fbf
000000d0: 7288 41bf 64d6 d0be 5255 26bf 5f99 86bd
000000e0: 4c28 bdbf e94a 7abf 0367 c6bf af00 c2bf
000000f0: 518c 58be 653b d7be 5405 acbe a6d7 22be

BN2.running_var f4 [64]
3.4571745 7.615622 5.762028 4.5285897 4.382285 3.9326787 5.6884985 3.8688822
4.7185507 4.1179457 10.607438 4.799312 3.7606173 2.1885545 7.774608 3.0846095
4.437766 3.0673041 1.0928942 1.2195752 10.067576 5.3352404 1.0199218 6.204648
8.57313 1.3612379 3.1168833 7.739077 3.2486048 3.9260795 3.9815502 4.1905665
1.6474646 3.1197276 6.5963492 5.721591 1.5828629 8.56972 9.17203 3.7281203
6.675438 8.672022 4.3563895 0.7633162 3.8498747 4.549645 2.1135607 5.2542567
5.8558483 6.4920454 2.9598727 4.390492 3.5168853 5.6992793 4.1361666 2.8756595
10.538579 4.966304 7.7239704 6.045317 1.0255673 1.9352858 1.1352085 3.5447843
00000000: 5942 5d40 2db3 f340 8962 b840 35ea 9040
00000010: ae3b 8c40 02b1 7b40 2e08 b640 c49b 7740
00000020: 5efe 9640 36c6 8340 11b8 2941 f793 9940
00000030: f4ad 7040 4711 0c40 97c9 f840 3e6a 4540
00000040: 2e02 8e40 b64e 4440 f5e3 8b3f 0a1b 9c3f
00000050: cb14 2141 4aba aa40 cc8c 823f 7a8c c640
00000060: 8a2b 0941 0b3d ae3f 047b 4740 85a6 f740
00000070: 24e9 4f40 e344 7b40 b8d1 7e40 1f19 8640
00000080: 1fe0 d23f 9ea9 4740 4b15 d340 4617 b740
00000090: 409b ca3f 931d 0941 a3c0 1241 8699 6e40
000000a0: 309d d540 9ac0 0a41 8b67 8b40 b168 433f
000000b0: 5964 7640 b196 9140 9444 0740 df22 a840
000000c0: 1c63 bb40 d6be cf40 8e6e 3d40 e97e 8c40
000000d0: a614 6140 7f60 b640 7a5b 8440 ce0a 3840
000000e0: 059e 2841 f6eb 9e40 c42a f740 3d73 c140
000000f0: ca45 833f 72b7 f73f 834e 913f bfdd 6240

fc1.weight f4 [128, 1024]
-0.0013794283 -0.03071892 -0.012555347 -0.020488491 -0.00078105176 -0.009513141 -0.03547275 -0.007853119
-0.029326625 -0.017449105 0.009207134 0.023725988 0.005390879 0.017481465 0.019017946 -0.035462484
-0.012611282 -0.013438031 0.009495336 -0.015995976 -0.0006753754 -0.010362061 -0.012299116 0.013813245
0.013892157 -0.007868636 -0.028206194 0.004391563 -0.0016448444 -0.027991733 -0.018988393 0.0031031088
0.0010460888 -0.02276056 0.015338772 -0.015340787 0.0121873235 -0.0200361 -0.02922228 0.0016071543
0.02463431 0.013198701 -0.021127932 -0.03000736 -0.013014363 -0.017011201 0.006063958 -0.0343745
-0.016604798 -0.010441827 0.014904053 0.006053587 0.022328883 -0.0046937075 -0.019620784 0.0021138922
-0.0025178343 -0.03294417 -0.026199473 -0.031164104 -0.013302252 -0.03380005 -0.002069263 0.013822817
0.009853566 0.022872452 -0.016180195 -0.021814192 -0.005158855 -0.0073632584 0.019485448 -0.03387704
-0.036590748 -0.029991066 -0.019787678 0.010287367 -0.013998146 0.0048903953 -0.028832646 0.024681816
0.0027254398 0.0029000773 0.024241181 0.008411535 0.0045713484 -0.008011166 0.0020678435 -0.008217371
-0.005177515 -0.027253607 0.01799752 0.010446023 -0.022644795 0.018306304 -0.02273144 -0.009252847
-0.016466603 0.009232698 0.002878606 -0.020208407 0.0044673057 0.0059954384 -0.0014711764 0.010313295
-0.01060589 0.010492986 0.023361342 -0.019258037 0.0074900035 0.007210709 -0.0056204973 -0.014599528
0.009251049 0.011218656 0.015163276 -0.011705279 -0.033552196 -0.016986892 -0.03414555 0.02395109
-0.035359345 0.01163664 -0.025785416 -0.032256234 0.009953532 -0.03037639 -0.028011668 0.001220467
-0.03193786 0.019503139 -0.0013190999 -0.0058554416 0.022073725 -0.020862034 -0.023226002 -0.003225331
0.013300852 0.00038775094 0.009406554 -0.036122274 -0.01173711 -0.00047752052 0.010321811 -0.02107967
-0.021982431 -0.0017319027 -0.01009959 -0.015610171 0.018285586 -0.020694602 0.008561692 0.018386828
-0.021444617 0.017410483 0.0059444997 -0.004077379 -0.034478027 0.0040289117 0.01933911 -0.00876382
0.018492866 -0.0063155396 -0.013261183 -0.014655858 -0.008151379 -0.018945679 -0.0053305766 -0.006387784
-0.03203619 -0.020590773 0.022802133 -0.0058823857 -0.0060385605 0.009442328 0.01798272 -0.03693626
-0.035070315 -0.00852266 -0.01726651 -0.031892203 -0.030344002 0.006231367 0.0109011205 -0.007877199
-0.0036346014 -0.028007256 -0.027321374 -0.033126365 -0.007439348 -0.03566368 -0.0064324546 0.01649391
-0.017654981 -0.03224951 -0.024234785 0.0087488545 -0.024018975 -0.023523457 -0.022016663 -0.02163998
0.018063935 -0.015755754 0.022940483 0.008694423 -0.010655363 -0.03161459 0.017120948 0.02100808
-0.009894612 0.019331452 -0.011685158 -0.03328361 -0.035317827 -0.016207661 0.0045612818 0.015553012
0.020890562 0.023256281 0.005990676 -0.031841874 0.0055995504 -0.007570959 -0.012964621 0.019155094
-0.006686675 -0.02204469 0.021876158 0.011916981 -0.0015469141 0.018222328 -0.03053108 -0.0063742492
-0.032486588 -0.0027445464 0.0029218758 -0.0010494686 -0.03214438 -0.026310159 -0.034509763 0.02008757
-0.01891657 0.017738102 -0.030654658 -0.0010939797 0.022138914 -0.012189849 -0.027341135 -0.010001719
0.0044646217 -0.011800499 0.002781561 -0.0038906913 -0.031085286 -0.0102558555 -0.018137617 0.021473467
00000000: efcd b4ba 3fa6 fbbc f1b4 4dbc 7bd7 a7bc
00000010: 7fbf 4cba 01dd 1bbc e04b 11bd 5eaa 00bc
00000020: 643e f0bc 6df1 8ebc 85d9 163c 015d c23c
00000030: f9a5 b03b 4a35 8f3c 86cb 9b3c 1c41 11bd
00000040: 8d9f 4ebc 302b 5cbc 5392 1b3c fe09 83bc
00000050: ad0b 31ba a2c5 29bc 3b82 49bc f350 623c
00000060: ee9b 633c 74eb 00bc ad10 e7bc 1ae7 8f3b
00000070: d297 d7ba eb4e e5bc 8c8d 9bbc 875d 4b3b
00000080: ea1c 893a 5b74 babc 794f 7b3c ed57 7bbc
00000090: 57ad 473c bf22 a4bc 9063 efbc 26a7 d23a
000000a0: e4cd c93c 5d3f 583c 7c14 adbc ffd1 f5bc
000000b0: 323a 55bc 135b 8bbc 2bb4 c63b 47cc 0cbd
000000c0: c906 88bc 3214 2bbc 2130 743c 2b5d c63b
000000d0: 10eb b63c accd 99bb c4bb a0bc 3a89 0a3b
000000e0: 4002 25bb 77f0 06bd 47a0 d6bc dd4b ffbc
000000f0: b0f1 59bc ec71 0abd 799c 07bb 1979 623c
00000100: da70 213c 025f bb3c 548c 84bc adb3 b2bc
00000110: 9d0b a9bb 7d47 f1bb f29f 9f3c a7c2 0abd
00000120: 2ee0 15bd d3af f5bc c519 a2bc 588c 283c
00000130: 7b58 65bc 9c3f a03b 7132 ecbc 8531 ca3c
00000140: 4b9d 323b 390f 3e3b 7195 c63c 89d0 093c
00000150: 40cb 953b 4441 03bc a884 073b 27a2 06bc
00000160: 25a8 a9bb f542 dfbc 896f 933c cc25 2b3c
00000170: 9481 b9bc 1af7 953c 4937 babc 4199 17bc
00000180: f8e4 86bc be44 173c ffa6 3c3b 1a8c a5bc
00000190: 7a62 923b 6275 c43b 7dd4 c0ba 18f9 283c
000001a0: 54c4 2dbc c6ea 2b3c 4960 bf3c 08c3 9dbc
000001b0: b46e f53b d047 ec3b 262c b8bb dc32 6fbc
000001c0: b691 173c 74ce 373c 646f 783c 80c7 3fbc
000001d0: 076e 09bd 1828 8bbc 34dc 0bbd 1435 c43c
000001e0: f6d4 10bd 9ba7 3e3c f03b d3bc 1d1f 04bd
000001f0: 2414 233c e8d7 f8bc ba78 e5bc 14f8 9f3a
00000200: 46d1 02bd 0cc5 9f3c a6e5 acba 01df bfbb
00000210: f5d3 b43c dbe6 aabc 7544 bebc 1360 53bb
00000220: d1eb 593c 0d4b cb39 f21d 1a3c f3f4 13bd
00000230: 024d 40bc b85b fab9 d01c 293c 46af acbc
00000240: 8014 b4bc 0301 e3ba c078 25bc cdc1 7fbc
00000250: a7cb 953c ba87 a9bc 5746 0c3c f99f 963c
00000260: 9fac afbc 6ea0 8e3c 14ca c23b 899b 85bb
00000270: d538 0dbd f604 843b 0e6d 9e3c 2096 0fbc
00000280: 5a7e 973c 96f2 cebb 6f45 59bc 201f 70bc
00000290: 5d8d 05bc f833 9bbc 1eac aebb 9e50 d1bb
000002a0: 6138 03bd fbad a8bc 8acb ba3c 07c1 c0bb
000002b0: 1edf c5bb feb3 1a3c 7f50 933c 7a4a 17bd
000002c0: e4a5 0fbd a0a2 0bbc 7f72 8dbc 66a1 02bd
000002d0: fc93 f8bc 7f30 cc3b 9d9a 323c 5e0f 01bc
000002e0: 7e32 6ebb 796f e5bc 13d1 dfbc 83af 07bd
000002f0: c6c5 f3bb 1414 12bd 57c7 d2bb 3d1e 873c
00000300: 2ea1 90bc 1018 04bd 0788 c6bc 5b57 0f3c
00000310: 71c3 c4bc 44b4 c0bc 4a5c b4bc 5446 b1bc
00000320: d1fa 933c 3612 81bc aeed bb3c 0e73 0e3c
00000330: d593 2ebc 4d7e 01bd 3b41 8c3c 2319 ac3c
00000340: 031d 22bc fe5c 9e3c 1b73 3fbc 6554 08bd
00000350: 6da9 10bd eec5 84bc ce76 953b 0fd2 7e3c
00000360: af22 ab3c f583 be3c 6f4d c43b a06c 02bd
00000370: 6f7c b73b cf15 f8bb 9069 54bc 25eb 9c3c
00000380: e51b dbbb 1197 b4bc a135 b33c 713f 433c
00000390: d3c1 caba fe46 953c 511c fabc 14df d0bb
000003a0: a810 05bd d9dd 33bb f17c 3f3b 538e 89ba
000003b0: d3a9 03bd 6788 d7bc 1c5a 0dbd b08e a43c
000003c0: ecf6 9abc 7f4f 913c 7a1f fbbc de63 8fba
000003d0: ab5c b53c efb7 47bc 84fa dfbc 40de 23bc
000003e0: f64b 923b e156 41bc da4a 363b f8fa 7ebb
000003f0: 92a6 febc 2d08 28bc 5795 94bc 20e9 af3c

fc1.bias f4 [128]
0.0102592455 -0.012652707 0.21328706 0.079222865 0.006766152 0.024286177 0.0012751527 -0.035473045
-0.0154196285 0.002154832 -0.009617079 0.0717025 0.013641885 -0.03132205 -0.10626242 0.0063856407
-0.025155373 -0.018046916 -0.046635233 -0.03576347 -0.08804452 -0.01364204 0.2752156 0.01797998
0.021824844 0.17890559 -0.020208774 0.037015215 -0.023570145 0.011135584 -0.02398627 -0.035729103
0.015860066 0.0042432994 -0.020329412 -0.004474388 0.31663778 -0.0345615 -0.011938493 -0.029004684
-0.0104768155 -0.013054734 0.0101533085 0.0045977663 0.11581578 -0.02197917 -0.014145319 -0.005126155
0.0082567 -0.0014558823 -0.025133913 -0.015840858 -0.0071672555 -0.0046098577 0.23523764 -0.030690538
-0.03367625 0.022571562 0.021953348 -0.0023996162 0.107798114 0.0016691316 0.12132768 -0.02866201
0.0018263183 0.07736394 0.006687473 -0.006280392 0.018273003 0.008157259 0.018032378 0.014803242
-0.03602201 0.012024634 -0.00082669884 0.05703865 -0.014747418 -0.009001473 0.006917476 -0.011242229
0.13117993 0.0032871237 -0.024935948 -0.07093267 -0.035392735 0.009835864 -0.005034096 -0.02593079
0.008435319 -0.019229183 -0.0055674035 0.17571893 -0.03512413 -0.0041373647 -0.031526294 -0.023564862
-0.027449945 -0.030575207 0.027354946 -0.018646866 0.29769328 0.10146583 -0.03464747 -0.00875854
-0.02573714 -0.03525896 -0.0081835035 -0.05042922 0.2543686 -0.03446238 0.2967253 -0.029057054
-0.1344724 0.007965051 -0.040399957 -0.01648801 0.08915439 -0.01197997 -0.0017839229 -0.036331907
0.3178319 0.024414653 0.017882032 0.16826853 0.003999439 -0.01758046 -0.019158872 0.22487201
00000000: 6516 283c 4d4d 4fbc ec67 5a3e 993f a23d
00000010: 99b6 dd3b cef3 c63c 0623 a73a 2f4c 11bd
00000020: 9ca2 7cbc 1538 0d3b f490 1dbc c3d8 923d
00000030: 3682 5f3c 8d4b 00bd 1da0 d9bd a33e d13b
00000040: a412 cebc 20d7 93bc 9604 3fbd b77c 12bd
00000050: af50 b4bd dd82 5fbc 0fe9 8c3e c04a 933c
00000060: 04ca b23c 0733 373e df8c a5bc 449d 173d
00000070: 2d16 c1bc 0672 363c db7e c4bc ae58 12bd
00000080: f8ec 813c 600b 8b3b de89 a6bc e39d 92bb
00000090: 591e a23e 5c90 0dbd ab99 43bc 3b9b edbc
000000a0: f3a6 2bbc 86e3 55bc 105a 263c dca8 963b
000000b0: d330 ed3d a90d b4bc c5c1 67bc 4ef9 a7bb
000000c0: 1c47 073c 4ed3 beba a3e5 cdbc b0c4 81bc
000000d0: 4cdb eabb 4a0e 97bb 23e2 703e b96a fbbc
000000e0: 1cf0 09bd ffe7 b83c 82d7 b33c e142 1dbb
000000f0: 42c5 dc3d c3c6 da3a a67a f83d 97cc eabc
00000100: 1361 ef3a fc70 9e3d 9722 db3b bfcb cdbb
00000110: 44b1 953c 06a6 053c a3b8 933c 4c89 723c
00000120: d18b 13bd f802 453c d2b6 58ba 5ca1 693d
00000130: 289f 71bc ea7a 13bc ffab e23b 5331 38bc
00000140: 0854 063e c96c 573b 7946 ccbc 2645 91bd
00000150: f9f7 10bd 9b26 213c 0ff5 a4bb cf6c d4bc
00000160: 4b34 0a3c 8586 9dbc c46e b6bb aaef 333e
00000170: 52de 0fbd bb92 87bb b721 01bd 190b c1bc
00000180: b5de e0bc db78 fabc 7b17 e03c 50c1 98bc
00000190: 416b 983e 51cd cf3d 81ea 0dbd fb7f 0fbc
000001a0: b2d6 d2bc b36b 10bd 1a14 06bc df8e 4ebd
000001b0: 9a3c 823e 6d28 0dbd 61ec 973e 0f09 eebc
000001c0: 22b3 09be d87f 023c 6d7a 25bd dd11 87bc
000001d0: 9496 b63d a347 44bc 85d2 e9ba c4d0 14bd
000001e0: ddba a23e 3d01 c83c 577d 923c 964e 2c3e
000001f0: ba0d 833b e604 90bc 11f3 9cbc d944 663e

fc2.weight f4 [4, 128]
-0.054088812 -0.04066941 0.040379863 -0.7720187 -0.059518036 0.065740265 0.032707848 0.007635086
0.064046964 -0.07979923 0.016082807 0.42326984 -0.036955673 -0.016443595 0.27681872 0.03657354
0.02168705 0.021436952 0.04816787 0.018564971 -0.040776376 -0.06117874 -0.7058023 0.05166799
-0.024389664 0.22920656 -0.022327494 0.41298217 -0.0016652524 -0.07181856 -0.024835648 0.014776718
0.012316892 0.006003699 0.019319637 -0.11032107 0.3398685 -0.027445514 -0.05623672 -0.040159438
-0.0668954 -0.010998018 0.049479276 0.06372835 -0.5725865 -0.022016268 0.07704018 -0.038325176
-0.06996694 0.004090557 -0.05025934 -0.071244374 0.021055385 -0.06226455 0.6262699 -0.021493122
-0.0033914095 0.0067622624 -0.0815725 0.23811702 0.54014397 0.01936391 -0.5872149 -0.04192296
-0.009926463 0.33436203 -0.07423377 -0.05884533 -0.016288066 -0.06113709 -0.02761291 -0.6131438
0.0329061 0.0335539 0.052282523 0.16673362 -0.060280114 0.0656877 0.06636447 -0.0760143
-0.46133646 -0.12001678 -0.042574834 0.18954353 -0.014567237 0.01665997 -0.051756784 0.0237055
-0.05032237 0.079090334 0.049798343 0.610997 -0.03136575 -0.06461038 -0.11478924 -0.015871119
-0.020920273 -0.065360725 0.077770464 0.0034306082 0.41571072 0.19010451 0.011530457 0.0060927984
0.024744822 -0.03070459 -0.08290653 0.063884914 -1.173194 0.04492784 -0.17614064 0.059374202
0.13791779 -0.029966429 -0.60816747 -0.046923168 0.39404243 0.40984702 0.03354291 -0.015473613
0.1961185 -0.08163341 -0.07389804 0.7409577 -0.07591959 -0.033064198 -0.04914566 -0.7263693
-0.06594212 -0.03144972 0.46805602 0.4490932 -0.025899224 -0.045609307 -0.044253368 -0.052817725
0.025633397 -0.00026371135 0.02466319 -0.6876558 0.036995474 -0.061442796 -0.7275429 0.06200673
-0.042436756 0.01793649 0.24408378 0.02819661 0.009711675 0.019877372 -0.120826006 0.04533575
0.0041257143 0.5002618 0.021081068 -0.9406039 -0.030479295 0.07310202 0.015605252 0.0084379455
-0.07311592 0.013505936 0.07036202 -0.023695165 -0.16179018 0.024061242 -0.060824096 -0.058050543
0.016075088 -0.030707294 0.04822559 -0.04145465 0.3291975 0.00095714745 -0.034396116 -0.05726273
0.069910355 0.053502973 -0.058016967 -0.06659366 0.018626468 0.011470295 -0.016633302 -0.037818935
0.022526415 0.046924654 0.06985211 -0.642513 0.006030174 0.047667097 0.08347694 -0.015336825
0.052732736 -0.91268045 -0.05360103 -0.038141713 0.015919268 0.052436285 -0.0076213344 0.20948337
0.03761618 0.029418843 -0.035036087 -0.89936984 0.016760105 -0.00010798093 0.01620703 0.058069546
-0.5856554 -0.8628228 -0.0418668 -0.5851467 0.06358716 -0.06100801 0.038959812 -0.016544668
-0.039746255 0.03508602 -0.07766703 -0.5839793 -0.03963117 0.026215056 0.4733202 0.017117757
0.08204224 0.059620358 0.42157835 0.051927283 0.06997958 0.32294294 -0.025820928 -0.0009915079
0.002594797 0.06490734 0.056230728 -0.0081081875 -0.00019392675 -0.052655373 0.40247056 -0.014588464
0.060819983 0.001871918 0.6094976 0.028640335 -0.08899169 -0.5072694 0.033136263 -0.059732027
-0.006344601 -0.06677437 -0.03235373 -0.6476676 -0.07567409 0.017611736 -0.034832634 -0.41161534
00000000: 3b8c 5dbd f894 26bd 5b65 253d 04a3 45bf
00000010: 2fc9 73bd d5a2 863d aaf8 053d be2f fa3b
00000020: 0e2b 833d c76d a3bd 17c0 833c d3b6 d83e
00000030: d55e 17bd b8b4 86bc 2fbb 8d3e 23ce 153d
00000040: 0aa9 b13c 8c9c af3c ac4b 453d 9115 983c
00000050: 2105 27bd 8f96 7abd 76af 34bf d0a1 533d
00000060: d5cc c7bc 20b5 6a3e 26e8 b6bc 6672 d33e
00000070: 9944 daba 9c15 93bd 2174 cbbc 0c1a 723c
00000080: cacc 493c adba c43b 3744 9e3c 03f0 e1bd
00000090: 3e03 ae3e 6ad5 e0bc 7a58 66bd 397e 24bd
000000a0: 7500 89bd 0831 34bc c8aa 4a3d 0284 823d
000000b0: 0795 12bf 765b b4bc 3ec7 9d3d dcfa 1cbd
000000c0: d44a 8fbd 140a 863b bddc 4dbd 92e8 91bd
000000d0: 587c ac3c 1d09 7fbd 3953 203f 5812 b0bc
000000e0: 6942 5ebb f895 dd3b 7c0f a7bd f3d4 733e
000000f0: e046 0a3f 10a1 9e3c b753 16bf 69b7 2bbd
00000100: 9aa2 22bc 8031 ab3e e007 98bd cd07 71bd
00000110: 8d6e 85bc e36a 7abd 7834 e2bc fef6 1cbf
00000120: 8cc8 063d d06f 093d 3326 563d 38bc 2a3e
00000130: 48e8 76bd 4687 863d 18ea 873d 63ad 9bbd
00000140: 4b34 ecbe 5ccb f5bd f362 2ebd b317 423e
00000150: 6cab 6ebc 7d7a 883c ecfe 53bd 0932 c23c
00000160: d41e 4ebd 1dfa a13d 59f9 4b3d 4d6a 1c3f
00000170: 5f79 00bd 7252 84bd 9f16 ebbd 2604 82bc
00000180: fe60 abbc d8db 85bd 1f46 9f3d 0ed4 603b
00000190: 09d8 d43e c2aa 423e 3eea 3c3c 19a6 c73b
000001a0: a7b5 ca3c 3188 fbbc e6ca a9bd 18d6 823d
000001b0: 392b 96bf 4106 383d 365e 34be 5d32 733d
000001c0: 523a 0d3e 287c f5bc ddb0 1bbf 8232 40bd
000001d0: eebf c93e 78d7 d13e 4a64 093d 0985 7dbc
000001e0: 4ad3 483e 6b2f a7bd db57 97bd 67af 3d3f
000001f0: bb7b 9bbd 536e 07bd f64c 49bd 57f3 39bf
00000200: aa0c 87bd 6cd1 00bd 0aa5 ef3e 8bef e53e
00000210: 9c2a d4bc d3d0 3abd 0543 35bd 6657 58bd
00000220: 21fd d13c bd42 8ab9 750a ca3c 360a 30bf
00000230: 9188 173d 71ab 7bbd 4040 3abf c5fa 7d3d
00000240: 2ad2 2dbd 8cef 923c 19f1 793e 94fc e63c
00000250: b81d 1f3c dfd5 a23c a073 f7bd fbb1 393d
00000260: 0031 873b 2811 003f 34b2 ac3c 6bcb 70bf
00000270: b7af f9bc 83b6 953d 2cad 7f3c 4f3f 0a3c
00000280: cdbd 95bd 0048 5d3c f619 903d 5d1c c2bc
00000290: 53ac 25be 151c c53c b022 79bd 68c6 6dbd
000002a0: e7af 833c dd8d fbbc 3288 453d 5acc 29bd
000002b0: 938c a83e 14e9 7a3a f1e2 0cbd 538c 6abd
000002c0: 292d 8f3d ef25 5b3d 33a3 6dbd 4262 88bd
000002d0: 8996 983c e7ed 3b3c 9042 88bc 07e8 1abd
000002e0: 5189 b83c 1134 403d a00e 8f3d bb7b 24bf
000002f0: c498 c53b 933e 433d f5f5 aa3d 4e47 7bbc
00000300: 48fe 573d 6da5 69bf c18c 5bbd 7c3a 1cbd
00000310: 2069 823c 6ec7 563d 63bc f9bb cf82 563e
00000320: 6c13 1a3d c9ff f03c 0082 0fbd 1a3d 66bf
00000330: 7d4c 893c d273 e2b8 9bc4 843c 55da 6d3d
00000340: 83ed 15bf f4e1 5cbf 867c 2bbd 2dcc 15bf
00000350: fc39 823d 89e3 79bd 5394 1f3d af88 87bc
00000360: f8cc 22bd 5cb6 0f3d e40f 9fbd ab7f 15bf
00000370: 4b54 22bd f5c0 d63c 0657 f23e 8a3a 8c3c
00000380: c305 a83d 7a34 743d 1ed9 d73e b4b1 543d
00000390: 7451 8f3d c758 a53e 6986 d3bc 7cf5 81ba
000003a0: 780d 2a3b 24ee 843d 3152 663d 34d8 04bc
000003b0: d158 4bb9 29ad 57bd 9f10 ce3e 7404 6fbc
000003c0: 601e 793d 255b f53a 0908 1c3f 239f ea3c
000003d0: 4641 b6bd 68dc 01bf e4b9 073d 92a9 74bd
000003e0: 5fe6 cfbb 00c1 88bd 5885 04bd 8bcd 25bf
000003f0: 04fb 9abd 7d46 903c aaac 0ebd 3fbf d2be

fc2.bias f4 [4]
0.03297753 0.03073499 -0.20168884 0.028777001
00000000: 7213 073d f2c7 fb3c 8587 4ebe bfbd eb3c
