cnn saved models/cnn_epoch14.pt (torch, 609343 bytes, 16 tensors)

conv1.weight f4 [32, 1, 3, 3]
0	0x3ead50be	0.33850664
1	0x3eb69d35	0.35666814
2	0xbe8006f4	-0.25005305
3	0xbeb93d02	-0.36179358
4	0xbe8a6489	-0.27029827
5	0xbe5fe91d	-0.2186627
6	0x3d88263d	0.066479184
7	0x3c1cb4fd	0.009564635
8	0x3e9f6330	0.31130362
9	0x3f36292f	0.7115659
10	0xbe539c42	-0.20665076
11	0x3eefaca0	0.4681139
12	0xbdbf1f70	-0.09332168
13	0xbde3e8d4	-0.11128393
14	0xbe5defd6	-0.21673521
15	0x3d120f7f	0.03565931
16	0x3e8c4305	0.27394882
17	0xbdffaa34	-0.124836355
18	0x3db85093	0.08999743
19	0x3c60ad2f	0.013713165
20	0x3ec2f07e	0.38074106
21	0xbe8ab679	-0.2709234
22	0xbeff4395	-0.49856248
23	0x3da8dc56	0.08245151
24	0x3e729f5c	0.23693603
25	0x3e90f71c	0.2831353
26	0xbeb5d6c3	-0.35515413
27	0xbdb9c83a	-0.09071393
28	0x3ebd7cbe	0.37009233
29	0x3e85de63	0.2614623
30	0x3d8b10dc	0.06790325
31	0xbe7aed25	-0.24504526
32	0xbee911ec	-0.45521486
33	0xbdff3683	-0.12461569
34	0x3e95483e	0.2915668
35	0xbe0aaef6	-0.13543305
36	0xbdd0e4da	-0.101999
37	0xbe5895b2	-0.21150854
38	0x3e4a9b93	0.1978591
39	0xbe9bc5c1	-0.30424312
40	0x3e6d1e83	0.2315617
41	0x3e0720eb	0.13196151
42	0x3e957924	0.29193985
43	0x3dd09409	0.101844855
44	0xbe9d21de	-0.306899
45	0x3e3c2215	0.18372376
46	0xbeb5c213	-0.3549963
47	0xbedb6a65	-0.4285461
48	0x3e1e99f4	0.15488416
49	0x3e8befa6	0.27331275
50	0xbd7a6cb3	-0.06113882
51	0xbe9f6b70	-0.31136656
52	0xbdcf640e	-0.10126506
53	0xbf0f37b9	-0.559444
54	0x3e1f388e	0.15548918
55	0xbe590856	-0.21194586
56	0xbe92974a	-0.2863105
57	0x3e088860	0.13333273
58	0x3e89818d	0.26856652
59	0x3ecf4a96	0.40486592
60	0xbed52ab0	-0.4163413
61	0x3c922218	0.017838523
62	0xbdadab7d	-0.084799744
63	0x3eb3eca7	0.3514149
64	0xbe8ff5f7	-0.28117344
65	0xbea6605c	-0.3249539
66	0x3e9e7c17	0.30954048
67	0xbdcb7d69	-0.099360295
68	0xbeb7b198	-0.3587768
69	0x3e90ef99	0.28307799
70	0xbd5b34a1	-0.053516988
71	0x3e1b6856	0.1517652
72	0x3d97deef	0.07415568
73	0xbdb2f630	-0.08738363
74	0xbf39101c	-0.72290206
75	0xbd31fd62	-0.043454535
76	0xbae4b57d	-0.0017449107
77	0x3d2b7708	0.041861564
78	0x3e8119b9	0.25214937
79	0x3e0108c2	0.12600997
80	0xbb8800fc	-0.004150508
81	0x3e5a9047	0.213441
82	0xbea6cbcc	-0.3257736
83	0x3eed3893	0.46332225
84	0xbe9394bc	-0.28824413
85	0xbd487d5f	-0.04894769
86	0xbeef0032	-0.46679837
87	0x3e6c8950	0.23099256
88	0x3e1b9a2e	0.15195534
89	0xbddb76e6	-0.107160375
90	0xbc7dbd6d	-0.015487057
91	0xbe6f0838	-0.23342979
92	0xbd847f99	-0.0646965
93	0xbe727ab1	-0.23679616
94	0x3e019a02	0.12656406
95	0xbee6d323	-0.4508296
96	0x3e9bef5e	0.3045606
97	0x3eb73352	0.35781342
98	0xbcd13579	-0.025538193
99	0xbe303990	-0.17209458
100	0x3e7e3242	0.2482386
101	0xbe395185	-0.18097503
102	0x3dcb06f0	0.099134326
103	0x3e83e464	0.25760186
104	0xbe453dda	-0.19261876
105	0x3ee2a8b5	0.44269338
106	0xbe31904c	-0.17340201
107	0xbe671abf	-0.22568797
108	0x3ee69948	0.4503882
109	0x3e1bb6ea	0.15206495
110	0xbb23212d	-0.00248916
111	0x3e407672	0.18795183
112	0xbe45fefd	-0.19335552
113	0xbe252637	-0.16127859
114	0xbe5e69ba	-0.21720019
115	0xbd797008	-0.060897857
116	0xbe8b0191	-0.27149633
117	0xbede884f	-0.4346337
118	0x3baed375	0.0053352662
119	0xbecf9cb3	-0.4054924
120	0xbe7966e0	-0.2435565
121	0x3df0c55f	0.117563955
122	0x3d508462	0.0509075
123	0x3c1853df	0.00929734
124	0x3e12e2b9	0.143443
125	0x3eb71c92	0.35763985
126	0x3ec629a8	0.38703656
127	0xbec5a7ff	-0.38604733
128	0xbd5b2ddb	-0.053510528
129	0x3e82f5e6	0.2557823
130	0x3e33b708	0.1755029
131	0xbeea7714	-0.45793974
132	0x3ebd2317	0.36940834
133	0x3d93774b	0.07200488
134	0xbebe42c0	-0.371603
135	0x3ab058ca	0.0013454196
136	0x3b971a73	0.0046113073
137	0xbf13d418	-0.57745504
138	0x3dc0b5f2	0.09409703
139	0xbeb7b509	-0.35880306
140	0xbdc0c114	-0.09411827
141	0x3f04d5f0	0.5188894
142	0x3dffb60a	0.12485893
143	0xbdf98b2f	-0.1218475
144	0x3e99329c	0.29921424
145	0x3e25dee7	0.16198312
146	0xbeb065a6	-0.34452552
147	0xbdcb46ff	-0.09925651
148	0xbe4ae819	-0.198151
149	0x3ed6b91a	0.41938096
150	0xbeea9d4e	-0.4582314
151	0x3ececde2	0.4039145
152	0xbd82681c	-0.063675135
153	0xbe6ccf95	-0.23126061
154	0xbce4c3aa	-0.027925331
155	0x3de2e18c	0.11078176
156	0x3da50f5b	0.080595694
157	0xbefe32be	-0.49648088
158	0xbec49abd	-0.38399306
159	0x3e4f64a6	0.20253238
160	0x3ec34aa2	0.38142878
161	0x3ea1cbab	0.316007
162	0x3df64257	0.12024372
163	0x3ed2cdb1	0.41172555
164	0x3db7e571	0.08979309
165	0x3e5e70ce	0.21722719
166	0xbe4ea7cb	-0.20181195
167	0xbdc3ed8f	-0.09566795
168	0xbd9bd9d2	-0.07609905
169	0xbec82489	-0.39090374
170	0xbc82cf6e	-0.01596805
171	0x3ebf879f	0.37408158
172	0x3e6bf472	0.23042467
173	0x3d340df4	0.04395862
174	0xbf197f30	-0.599597
175	0xbed6bae9	-0.41939476
176	0x3d229d41	0.03970075
177	0x3e3efd76	0.18651375
178	0x3df95e27	0.12176161
179	0x3e46c4c6	0.19411
180	0x3d8e3213	0.06943145
181	0xbee5e593	-0.44901714
182	0x3ed1b6fb	0.40959916
183	0xbe97d5df	-0.29655358
184	0xbdf252b1	-0.118321784
185	0x3e5ffbad	0.2187335
186	0xbe0fb786	-0.14034852
187	0x3b7b7a04	0.0038372288
188	0x3e73d2e9	0.23810925
189	0xbe9c8784	-0.3057214
190	0x3ea4d01c	0.32190025
191	0x3ed15b32	0.4088989
192	0x3e16cd2e	0.14726707
193	0xbdd31ba5	-0.10308007
194	0xbe3e52d1	-0.1858628
195	0x3e25fc4f	0.1620953
196	0xbdaab916	-0.083360836
197	0xbed30664	-0.41215813
198	0x3e0230c6	0.12713918
199	0xbe19aa5c	-0.15006393
200	0xbe4aa687	-0.19790088
201	0x3edb2778	0.4280355
202	0xbdd259ca	-0.10271032
203	0xbe03e853	-0.12881593
204	0xbef3223c	-0.47487056
205	0x3e8de730	0.27715445
206	0x3ea6eb61	0.32601455
207	0xbe32dbe5	-0.17466696
208	0xbcf4a536	-0.029863935
209	0x3d7fd048	0.06245449
210	0xbd530452	-0.051517792
211	0xbe6a3469	-0.22871555
212	0x3eb063ae	0.3445105
213	0xbeb246b1	-0.34819558
214	0x3b694043	0.0035591281
215	0x3eeb3d76	0.45945328
216	0xbeaaad64	-0.33335412
217	0xbdc21787	-0.09477144
218	0x3eab2d49	0.33432987
219	0xbee1c811	-0.4409795
220	0xbdad3568	-0.08457452
221	0x3e876f11	0.26451924
222	0x3c5c25c6	0.01343674
223	0x3eac2bda	0.33627206
224	0x3d20957b	0.039205056
225	0x3e594a33	0.21219711
226	0xbe905e1b	-0.28196797
227	0x3d703de3	0.05865277
228	0x3e909032	0.28235012
229	0xbf1e1a9f	-0.6175937
230	0x3eaf21c5	0.34205452
231	0x3e27bffc	0.1638183
232	0xbec76778	-0.38946128
233	0x3e7430d6	0.23846754
234	0x3dd093ec	0.10184464
235	0xbefe8d8f	-0.49717376
236	0xbe8f583f	-0.27997014
237	0x3e7b4e52	0.24541596
238	0xbecb38e4	-0.39691842
239	0xbe1f722d	-0.15570898
240	0xbddafc12	-0.1069261
241	0x3ecdfda4	0.40232575
242	0x3e0d895a	0.13821927
243	0xbf007b2f	-0.50187963
244	0xbec298b9	-0.38007143
245	0x3e0e8c98	0.1392082
246	0x3d9f9f24	0.077940255
247	0xbb1b17e3	-0.002366536
248	0xbd9a7ba9	-0.075431176
249	0x3e36ef13	0.17864637
250	0xbde58743	-0.1120744
251	0x3eaf86da	0.3428257
252	0xbe979b5e	-0.29610723
253	0x3e8c1d90	0.27366304
254	0x3efee27d	0.49782172
255	0xbeb11813	-0.3458868

conv1.bias f4 [32]
0	0x3e7e3728	0.24825728
1	0x3ea95729	0.3307431
2	0x3db816f1	0.08988751
3	0xbebb4c1b	-0.365815
4	0x3f1d55cb	0.61459035
5	0x3ecb54f3	0.3971325
6	0x3e254f35	0.16143496
7	0x3db5498c	0.088519186
8	0x3eb3439f	0.35012528
9	0x3ec80a00	0.3907013
10	0x3e2823ef	0.16419958
11	0x3f1f9521	0.6233693
12	0x3ec733ff	0.38906857
13	0x3e84ca6f	0.25935695
14	0xbe8fb0a0	-0.28064442
15	0xbe0ada3d	-0.13559814
16	0x3db82604	0.08991626
17	0x3f05d3ee	0.52276504
18	0xbf599abc	-0.8500173
19	0x3de9c753	0.11414971
20	0x3e733dc7	0.23754035
21	0xbe594dd0	-0.2122109
22	0x3e570b23	0.21000342
23	0xbdb921d1	-0.09039653
24	0x3f1c70f1	0.61109835
25	0xbec3c054	-0.38232672
26	0x3d0974aa	0.033558525
27	0x3cd0df88	0.025497213
28	0x3de9a829	0.11409027
29	0x3d152e18	0.03642091
30	0xbec5012a	-0.3847745
31	0xbc5f5cdd	-0.01363298

BN1.weight f4 [32]
0	0x3faf8974	1.3713822
1	0x3ec82c0f	0.39096114
2	0x3f91edc5	1.1400687
3	0x3f5a0df3	0.85177535
4	0x3f69409b	0.91114205
5	0x3f409e2d	0.7524136
6	0x3f901e6c	1.1259284
7	0x3f3c49d8	0.73550177
8	0x3f70f36a	0.9412142
9	0x3fa231f0	1.267149
10	0x3f62b99a	0.88564456
11	0x3ed290a0	0.41125965
12	0x3f7952a4	0.97391725
13	0x3f617dba	0.8808247
14	0x3f387d6f	0.72066396
15	0x3f830015	1.02344
16	0x3f5b1a6d	0.855872
17	0x3ed62e53	0.41832218
18	0x3f2fcd4a	0.6867262
19	0x3f478812	0.77942
20	0x3f7a16df	0.9769115
21	0x3f64fd15	0.8944867
22	0x3f87dfeb	1.0615209
23	0x3f0365a4	0.51326966
24	0x3f211f94	0.6293881
25	0x3fa1f21a	1.2652009
26	0x3f91f8b8	1.1404028
27	0x3f3fe729	0.749621
28	0x3f7a3d4c	0.9774978
29	0x3f24b263	0.64334697
30	0x3f631630	0.8870573
31	0x3f5a0ced	0.85175973

BN1.bias f4 [32]
0	0xbec8629f	-0.39137742
1	0xbe3b2dc3	-0.18279175
2	0xbe6b9709	-0.23006834
3	0xbdd1215b	-0.1021144
4	0xbf841719	-1.0319549
5	0xbeb396dc	-0.35076034
6	0xbe0b92d8	-0.13630235
7	0xbde96205	-0.11395649
8	0xbf0592e6	-0.52177274
9	0xbf2bd6f3	-0.6712486
10	0xbee65afe	-0.44991297
11	0xbe3f4c5d	-0.18681474
12	0xbb3aef87	-0.0028524117
13	0xbee20e05	-0.4415132
14	0xbdf49db1	-0.1194414
15	0xbf3c0a0b	-0.73452824
16	0xbf5d61c2	-0.8647729
17	0xbda37a87	-0.079823546
18	0xbf0ec467	-0.55768436
19	0xbf184edb	-0.59495324
20	0xbefe679d	-0.49688426
21	0xbed758d7	-0.42059967
22	0xbfa0a2f8	-1.2549734
23	0xbd4a4035	-0.04937764
24	0xbdb99cc9	-0.090631075
25	0xbeb4155e	-0.35172552
26	0xbf4a1745	-0.78941756
27	0xbdbe3df6	-0.09289162
28	0xbd7dde46	-0.061979555
29	0xbd42664f	-0.04746085
30	0xbf34f9f6	-0.7069391
31	0xbe2d18be	-0.1690397

BN1.running_mean f4 [32]
0	0x3e77a8fe	0.24185559
1	0x3ee7f189	0.45301464
2	0x3da4105a	0.08010931
3	0xbec17542	-0.37784773
4	0x3f1ecb0c	0.62028575
5	0x3e48ad24	0.19597298
6	0x3e25b6a9	0.1618296
7	0x3daad207	0.08340841
8	0x3e9436f6	0.28948182
9	0x3eb709be	0.3574962
10	0x3dfc052b	0.12305673
11	0x3f247bbd	0.6425131
12	0x3ebccd9b	0.36875615
13	0x3e4576e5	0.19283636
14	0xbe902fc5	-0.28161445
15	0xbe51c68e	-0.20485899
16	0x3de4786c	0.11155781
17	0x3f02c4cc	0.5108154
18	0xbf576893	-0.8414394
19	0x3e0db89d	0.13839956
20	0x3e658dbf	0.22417353
21	0xbe626ef3	-0.22112636
22	0x3e69a380	0.22816277
23	0xbdafb636	-0.08579676
24	0x3f1d95bc	0.615566
25	0xbec4ecad	-0.3846182
26	0xbd75fc52	-0.060055085
27	0xbd02ff1d	-0.031981576
28	0x3dbe3182	0.092867866
29	0xbc6442c5	-0.013931935
30	0xbec43ad7	-0.3832614
31	0xbce4f00c	-0.027946495

BN1.running_var f4 [32]
0	0x3b57c36f	0.0032922884
1	0x3c9a5eb8	0.018843994
2	0x3b38c4f5	0.0028193567
3	0x3b51026f	0.003189232
4	0x3a0e1901	0.0005420596
5	0x3d36d68f	0.044638213
6	0x3b4cda03	0.0031257875
7	0x3b862a6f	0.004094414
8	0x3c2890bf	0.010288416
9	0x3b88e86a	0.0041780965
10	0x3c0573fd	0.00814533
11	0x3abc4026	0.001436238
12	0x3befdb77	0.0073198634
13	0x3c5deffa	0.013545984
14	0x3b3fd2fe	0.0029270048
15	0x3c53fae3	0.012938234
16	0x3aabc4a8	0.0013104873
17	0x3c0e9578	0.008702628
18	0x3bc6c1c5	0.0060655796
19	0x3b9ce839	0.0047884253
20	0x3ada5db6	0.0016660008
21	0x3b5bb883	0.0033526726
22	0x3ac9a2c6	0.0015383593
23	0x3b00696a	0.0019594082
24	0x3b53500f	0.0032243764
25	0x3a9a94cb	0.0011793611
26	0x3c84c194	0.016205586
27	0x3c225951	0.00990899
28	0x3be73945	0.0070563876
29	0x3bf94bb3	0.007607901
30	0x393b0a10	0.00017837458
31	0x3c5155a3	0.012776765

conv2.weight f4 [64, 32, 3, 3]
0	0xbdf322bc	-0.118718594
1	0x3e361dd7	0.1778482
2	0xbd503a38	-0.05083677
3	0xbccf61b8	-0.02531515
4	0xb9ee16f7	-0.00045412008
5	0xbe6425b0	-0.22280002
6	0xbd3e8d35	-0.046521384
7	0x3d9b5fd8	0.0758664
8	0xbddfd340	-0.109289646
9	0xbcc00ad1	-0.023442658
10	0x3d163d94	0.03667982
11	0x3db43a51	0.088001855
12	0xbe978c9c	-0.29599464
13	0xbebcc9f4	-0.36872828
14	0xbe9e69eb	-0.30940184
15	0x3e35484a	0.17703357
16	0x3e154a53	0.14579134
17	0x3e348f11	0.176327
18	0x3ceb6c02	0.028738026
19	0x3d5de074	0.054169133
20	0x3db24286	0.087040946
21	0xbdf3ff41	-0.1191392
22	0xbd57a107	-0.052643802
23	0xbd9b7f41	-0.07592631
24	0xbd64d02f	-0.0558626
25	0xbda9f2f1	-0.082982905
26	0x3d6fe124	0.05856432
27	0xbea5b8dd	-0.32367602
28	0x3d04651b	0.032322984
29	0x3e15d081	0.14630319
30	0xbef310c2	-0.47473723
31	0x3d08a1bd	0.03335737
32	0xbe741ba2	-0.23838666
33	0xbb364bc8	-0.0027816165
34	0x3e9788e9	0.29596642
35	0x3e112943	0.14175896
36	0x3ea99a94	0.33125746
37	0xbe3fb2ff	-0.18720625
38	0xbe1a9e21	-0.15099384
39	0x3afb1e6f	0.001915885
40	0xbe76d517	-0.24104725
41	0xbe1daaa4	-0.15397125
42	0xbc0fb711	-0.008771674
43	0xbe1298b4	-0.14316064
44	0xbe2d438b	-0.16920297
45	0xbe8a1372	-0.2696796
46	0xbdc6e5bf	-0.09711789
47	0xbe2bbc8e	-0.16771147
48	0xbe82380a	-0.2543338
49	0xbe0b9e96	-0.13634714
50	0xbe10e4b3	-0.14149742
51	0x3e1a197c	0.15048784
52	0x3e30b878	0.17257869
53	0x3e5c9298	0.21540296
54	0xbc6d1ae2	-0.014471741
55	0xbda9d7a4	-0.08293083
56	0xbe313a6b	-0.17307441
57	0x3cbebe5b	0.023284128
58	0x3db9492b	0.09047159
59	0x3e4a619b	0.19763796
60	0xbe7a130f	-0.24421333
61	0xbe8600d8	-0.2617252
62	0xbe55cb53	-0.20878343
63	0xbcb67327	-0.022271706
64	0x3dff229d	0.12457774
65	0x3d7abd7d	0.061215866
66	0xbdb28419	-0.08716602
67	0xbd082952	-0.03324253
68	0xbe80699d	-0.25080577
69	0x3e39125d	0.18073411
70	0x3e32512f	0.17413782
71	0x3e60cd91	0.21953417
72	0xbe7fd984	-0.2498532
73	0xbd44bf3f	-0.04803395
74	0xbe526239	-0.20545281
75	0xbe5b7da2	-0.21434644
76	0x3d52a0f1	0.051423017
77	0xbe6335fb	-0.2218856
78	0x3e0e2508	0.13881314
79	0x3e1d3c13	0.15354948
80	0xbd026bfe	-0.03184127
81	0xbee0fb7e	-0.43941873
82	0xbf06541b	-0.52472085
83	0xbf0e2658	-0.5552726
84	0x3e4a9712	0.19784191
85	0x3e1d57dc	0.15365547
86	0x3da5b9ae	0.08092056
87	0xbec27d8f	-0.3798642
88	0xbee884d4	-0.4541384
89	0xbf171a1c	-0.59024215
90	0x3eba4b3c	0.36385524
91	0x3e8cb92b	0.27485022
92	0x3e31c13b	0.17358868
93	0xbdc5307c	-0.09628388
94	0xbc9175df	-0.0177564
95	0xbe35f020	-0.17767382
96	0x3d939422	0.072059885
97	0x3d7561a7	0.05990758
98	0x3c0fe461	0.008782477
99	0x3bc70084	0.0060730595
100	0x3d931320	0.07181382
101	0xbaeaa2d1	-0.0017901306
102	0xbe228d52	-0.15874222
103	0xbd6f8749	-0.058478627
104	0xbe8bc367	-0.27297518
105	0x3e7ab571	0.24483277
106	0x3d3f31da	0.0466784
107	0xbda2f8d2	-0.07957615
108	0x3dbd859e	0.09254001
109	0x3e11b33d	0.1422853
110	0xbd8f2b62	-0.069906965
111	0x3ddc2ef9	0.10751147
112	0xbd900fbf	-0.07034253
113	0xbf1f6ba0	-0.622736
114	0xbdd4479c	-0.10365221
115	0x3df20662	0.11817624
116	0x3e4113c0	0.1885519
117	0x3daf0f2e	0.08547817
118	0xb9913d56	-0.00027702254
119	0xbe20fc0e	-0.15721151
120	0xbe11f5a7	-0.14253865
121	0x3cbb85ce	0.022890951
122	0xbe57e1af	-0.21082185
123	0xbd04355c	-0.03227745
124	0x3d6357ed	0.055503774
125	0x3dac62bd	0.0841727
126	0xbcdb9f3a	-0.026809324
127	0x3d3649d8	0.044504017
128	0xbd217321	-0.039416436
129	0x3d4f6ddd	0.050641883
130	0x3c5d352a	0.013501445
131	0xbebef606	-0.37297076
132	0xbd46e573	-0.048558664
133	0x3d300320	0.04297173
134	0xbe4ba05d	-0.19885392
135	0xbea87bde	-0.32907003
136	0xbded221b	-0.11578771
137	0xbf00a35c	-0.50249267
138	0x3b885489	0.004160468
139	0x3d395a12	0.045251913
140	0x3ce09771	0.027415963
141	0x3e73806b	0.23779456
142	0x3d843d88	0.06457049
143	0xbe6edd95	-0.23326714
144	0xbf00ab7b	-0.5026166
145	0xbeb85d70	-0.36008787
146	0xbeca63be	-0.39529222
147	0x3e6c78cc	0.23092955
148	0x3e61630b	0.22010438
149	0x3d8ef0c9	0.0697952
150	0xbe0c2721	-0.13686801
151	0xbdd66586	-0.10468583
152	0x3e883236	0.26600808
153	0x3edbd53a	0.42936116
154	0x3e9fc649	0.31205967
155	0x3ed276ca	0.41106254
156	0xbd3ddbfd	-0.046352375
157	0xbc98b22e	-0.01863965
158	0x3daa0d81	0.08303357
159	0x3db71e68	0.089413464
160	0x3deb2251	0.11481155
161	0x3e1b911c	0.15192074
162	0xbe6fa4d0	-0.23402715
163	0xbde9f318	-0.114233196
164	0x3e228363	0.15870433
165	0x3d336129	0.04379383
166	0xbea6797e	-0.32514566
167	0xbef15a0c	-0.47139013
168	0x3dfed09c	0.12442133
169	0x3dfe619a	0.1242096
170	0x3e3b882d	0.18313666
171	0xbeae8c67	-0.34091493
172	0xbdc53398	-0.09628981
173	0xbd549186	-0.051896594
174	0xbd61af85	-0.05509903
175	0xbdedc525	-0.11609868
176	0xbe42a5d1	-0.19008566
177	0x3e2419e6	0.16025504
178	0x3dd6bac7	0.10484844
179	0x3e834875	0.25641218
180	0x3ed448d5	0.41461816
181	0x3e287142	0.16449454
182	0xbc916f3a	-0.017753232
183	0xbe7e0dba	-0.24809924
184	0xbdcb48a0	-0.099259615
185	0xbe92b3cc	-0.286528
186	0xbe8fb463	-0.28067312
187	0x3bc3b471	0.005972438
188	0xbebcda43	-0.3688527
189	0xbda6439a	-0.08118363
190	0x3caaa29c	0.020829491
191	0x3e732979	0.2374629
192	0xbee17d2d	-0.44040814
193	0xbe9fe9e0	-0.3123312
194	0xbed4acc5	-0.41538063
195	0xbdb2fb5d	-0.0873935
196	0x3e68f7b7	0.22750746
197	0x3e3643f1	0.17799355
198	0xbde14cb5	-0.11000959
199	0x3d360fb2	0.044448562
200	0x3df5bde0	0.119991064
201	0x3e07a748	0.13247406
202	0xbb89513f	-0.0041905935
203	0xbd8538c9	-0.065049715
204	0xbdbd6a4f	-0.092487924
205	0xbe3bc923	-0.18338446
206	0x3d099a4e	0.033594422
207	0x3e52f7c1	0.20602323
208	0x3dc5c3c5	0.09656481
209	0x3e3a2042	0.18176368
210	0xbda50f1a	-0.08059521
211	0xbce3f90e	-0.02782872
212	0xbe1871c3	-0.14887147
213	0xbe7fbd8f	-0.24974655
214	0xbd0c882e	-0.03430956
215	0xbe6d4160	-0.2316947
216	0x3e5d87c5	0.21633823
217	0x3c7f4d9a	0.0155824665
218	0x3e603b9f	0.21897744
219	0xbe1ec5e3	-0.15505175
220	0xbe2e90d0	-0.17047429
221	0xbded2148	-0.115786135
222	0x3c48b1f9	0.012249463
223	0x3e008de1	0.12554123
224	0x3e8489e6	0.25886458
225	0x3e0c26a6	0.13686618
226	0xbc10bfd9	-0.008834803
227	0x3add15ef	0.0016867499
228	0x3d61cad9	0.05512509
229	0xbd1c8010	-0.038208067
230	0x3cda35f1	0.02663705
231	0xbea8a9af	-0.32941958
232	0xbef463ab	-0.4773229
233	0xbf13ae7c	-0.5768812
234	0xbf5591cd	-0.834256
235	0xbf645b51	-0.8920184
236	0xbf702b91	-0.9381648
237	0xbdf7efde	-0.12106298
238	0xbd8565aa	-0.065135315
239	0xbd664fee	-0.05622857
240	0xbebdb4d7	-0.37052032
241	0xbef34408	-0.4751284
242	0xbef3db98	-0.47628474
243	0x3da84389	0.08216006
244	0xbdf34c0d	-0.1187974
245	0xbecf7aab	-0.40523276
246	0xbe427e93	-0.18993597
247	0xbe1de41c	-0.15419048
248	0xbd883081	-0.066498764
249	0x3dbfd2c9	0.09366376
250	0x3e2f82ec	0.17139786
251	0x3e5e5650	0.21712613
252	0x3e453d9f	0.19261788
253	0x3e27b34d	0.16376992
254	0x3f0bd1af	0.54616827
255	0xbd97af11	-0.07406438

conv2.bias f4 [64]
0	0x383c7d4d	4.493939e-05
1	0xbb3031c6	-0.0026885136
2	0xbbff33ac	-0.007788142
3	0xbcadfc46	-0.021238457
4	0x3dcc24b0	0.09967935
5	0x3914016c	0.0001411491
6	0x3d1e2c2d	0.038616348
7	0x3cae6e88	0.02129294
8	0x3c60c62e	0.013719125
9	0xbd347413	-0.04405601
10	0x3ddcd28a	0.10782345
11	0x3cc66141	0.024216296
12	0x3d6508c9	0.05591658
13	0xbe24caf0	-0.1609304
14	0x3cf7d9a3	0.030255144
15	0x3c281949	0.010259935
16	0xbc36b6a9	-0.011151948
17	0xbdfca740	-0.12336588
18	0xbd6c1261	-0.057634715
19	0x3d6374f4	0.055531457
20	0x3df8b471	0.121437915
21	0x3cba99a5	0.022778342
22	0xbde784ed	-0.113046505
23	0xbe0cd649	-0.13753618
24	0xbcd86940	-0.026417375
25	0xbd089c25	-0.033352036
26	0x3d00f7af	0.03148621
27	0x3d25ab46	0.040446542
28	0x3c86d4e3	0.016458934
29	0x3a0bddb6	0.00053354667
30	0x3d588281	0.052858833
31	0x3d3a947c	0.045551762
32	0x3d13f6dd	0.0361241
33	0xbc6c3b72	-0.01441847
34	0xba4af8a0	-0.00077427365
35	0xbd9c38fc	-0.076280564
36	0x3c0497f8	0.008092873
37	0xbccd9225	-0.025094101
38	0xbdbe3ced	-0.092889644
39	0xbda41ad9	-0.08012933
40	0x3d24ad12	0.040204115
41	0xbcadd2df	-0.021218715
42	0x3d0b204c	0.033966348
43	0x3c6637eb	0.014051418
44	0xbcfeed77	-0.031119091
45	0x3c8c5950	0.017132431
46	0x3d00ab3c	0.0314133
47	0xbdcf65d1	-0.10126842
48	0x3d06fd51	0.032956425
49	0xbd19c396	-0.03754004
50	0xbcfa508d	-0.030555988
51	0x3ce83114	0.028343715
52	0x3dc0aed8	0.09408349
53	0x3d843c48	0.0645681
54	0x3d335934	0.043786243
55	0x3e1288a9	0.14309944
56	0x3dcf4939	0.10121388
57	0x3ca16763	0.019702619
58	0x3da49771	0.08036698
59	0xbd193b8a	-0.037410296
60	0x3d43e12c	0.047822163
61	0xbc9fb067	-0.019493295
62	0x3c40318d	0.011730564
63	0xbc2ef446	-0.0106783565

BN2.weight f4 [64]
0	0x3fa7d11c	1.311069
1	0x3f8b6a50	1.0891819
2	0x3f9dcb28	1.2327623
3	0x3f9819de	1.1882894
4	0x3f845e11	1.0341207
5	0x3fa61e35	1.2977968
6	0x3f5892b9	0.8459888
7	0x3f8ab5c0	1.0836716
8	0x3f96c4be	1.1778791
9	0x3fa54056	1.2910259
10	0x3f8f1b7f	1.1180266
11	0x3f927b45	1.1443869
12	0x3f9d3621	1.2282144
13	0x3faf6cfd	1.3705136
14	0x3f8fdff3	1.1240219
15	0x3f8c8526	1.0978134
16	0x3fac69aa	1.3469746
17	0x3fa6867e	1.3009794
18	0x3fce57a9	1.6120502
19	0x400a4902	2.160706
20	0x3f96fbfc	1.179565
21	0x3fa783ef	1.3087138
22	0x400184ba	2.023726
23	0x3f9f5695	1.2448298
24	0x3f9dbe46	1.2323692
25	0x3ffd6980	1.9797821
26	0x3fa36208	1.2764292
27	0x3fa9885d	1.324474
28	0x3fb03141	1.3765031
29	0x3fa423ce	1.2823427
30	0x3faf3732	1.3688719
31	0x3f924d11	1.1429769
32	0x3fb2851c	1.3946872
33	0x3fa37e6f	1.277296
34	0x3f97bd6e	1.1854684
35	0x3f9f2f4f	1.2436312
36	0x3fe1dd5c	1.7645679
37	0x3f86bd5f	1.0526541
38	0x3f47b8a1	0.78016096
39	0x3f939627	1.1530198
40	0x3f87a639	1.0597602
41	0x3f74a561	0.9556485
42	0x3f8cee6d	1.1010262
43	0x3fe2fa97	1.7732724
44	0x3fc691fc	1.5513301
45	0x3fa1e763	1.2648739
46	0x3fb751d9	1.4321853
47	0x3f7430a8	0.95386744
48	0x3fc79f7a	1.5595543
49	0x3f898b9d	1.0745732
50	0x3f9a68da	1.2063248
51	0x3fa21797	1.2663449
52	0x3fba85b2	1.457205
53	0x3f68fd2b	0.91011304
54	0x3fa10a98	1.2581358
55	0x3f8cc67a	1.099807
56	0x3f8e5498	1.1119566
57	0x3fb0aa06	1.3801887
58	0x3f97cc16	1.1859157
59	0x3f7ffc24	0.9999411
60	0x3fb9c4d2	1.451319
61	0x3fb2f7e4	1.39819
62	0x3fc9f71c	1.5778537
63	0x3fa5874f	1.2931918

BN2.bias f4 [64]
0	0xbf1c47df	-0.61047167
1	0xbf0f51d6	-0.55984247
2	0xbf1917b2	-0.5980178
3	0xbf10b5ec	-0.5652759
4	0xbf0fae88	-0.5612569
5	0xbf20ff5e	-0.6288966
6	0xbec9da2f	-0.39424273
7	0xbee6d1ac	-0.45081842
8	0xbf178e2e	-0.59201324
9	0xbf23fa69	-0.6405397
10	0xbee712e4	-0.451316
11	0xbf13590e	-0.5755776
12	0xbf1a11d9	-0.60183483
13	0xbf1caae1	-0.6119824
14	0xbf00069d	-0.5001009
15	0xbefe7f78	-0.49706626
16	0xbf106850	-0.5640917
17	0xbf291023	-0.6604025
18	0xbf86a09e	-1.0517766
19	0xbfc75a75	-1.557448
20	0xbef0b251	-0.47011045
21	0xbf24db42	-0.6439706
22	0xbfab43f2	-1.338011
23	0xbf05e3a5	-0.52300483
24	0xbf0df622	-0.55453694
25	0xbf936fba	-1.1518471
26	0xbf340de9	-0.70333725
27	0xbf1d7794	-0.61510587
28	0xbf374ca6	-0.7160133
29	0xbf096117	-0.5366377
30	0xbf2671e5	-0.6501754
31	0xbf0f86fb	-0.5606534
32	0xbf515ecf	-0.8178529
33	0xbf2531d5	-0.6452916
34	0xbf0385e1	-0.5137616
35	0xbf0cfc4f	-0.5507249
36	0xbf7111ac	-0.9416759
37	0xbee609ab	-0.4492925
38	0xbebcd8aa	-0.36884052
39	0xbf096045	-0.5366252
40	0xbee86e64	-0.4539672
41	0xbece8a72	-0.4034
42	0xbf0f4227	-0.55960315
43	0xbfb08e3e	-1.3793409
44	0xbf3103ef	-0.6914663
45	0xbf1b5089	-0.6066976
46	0xbf4390e9	-0.7639299
47	0xbef72cd6	-0.48276395
48	0xbf27b310	-0.655076
49	0xbf0deb73	-0.5543739
50	0xbf18967f	-0.5960464
51	0xbf1be3c5	-0.60894424
52	0xbf44d0a7	-0.7688088
53	0xbedaba5e	-0.42720312
54	0xbf13ed6a	-0.5778414
55	0xbf21f048	-0.63257265
56	0xbee81b5e	-0.4533338
57	0xbf29cb40	-0.6632576
58	0xbf036d28	-0.51338434
59	0xbeeab57f	-0.45841596
60	0xbf53b921	-0.8270436
61	0xbf371cf4	-0.71528554
62	0xbf81eab9	-1.0149757
63	0xbf085993	-0.5326168

BN2.running_mean f4 [64]
0	0xbf77c36b	-0.9678256
1	0xc002e1c8	-2.0450306
2	0xbfa8c569	-1.3185245
3	0xbfc117d2	-1.5085394
4	0xbfd2499c	-1.6428714
5	0xbf7c07ae	-0.9844922
6	0xbf803911	-1.0017415
7	0xbf8d0a7e	-1.1018827
8	0xbf560db1	-0.8361464
9	0xbfa6e007	-1.3037118
10	0xbfe6b74e	-1.802469
11	0xbfc86202	-1.565491
12	0xbfb5863b	-1.4181589
13	0xbf4f97f2	-0.81091225
14	0xbfa5388d	-1.2907883
15	0xbf09e510	-0.53865147
16	0xbf850733	-1.0392822
17	0xbfa31a5f	-1.2742423
18	0xbf3e9b61	-0.7445584
19	0xbf0b46cf	-0.5440492
20	0xbfddba18	-1.7322416
21	0xbfd66a6c	-1.6751227
22	0xbf6693b9	-0.90069157
23	0xbfa36417	-1.276492
24	0xbfc9e875	-1.5774065
25	0xbf37e978	-0.7184062
26	0xbfb4f619	-1.4137603
27	0xbfb91111	-1.4458333
28	0xbf8f2a92	-1.1184866
29	0xbfa31180	-1.2739716
30	0xbf87cff1	-1.0610334
31	0xbf846c9c	-1.0345645
32	0xbf2f64bd	-0.6851309
33	0xbf4976ff	-0.786972
34	0xbfb5704b	-1.4174894
35	0xbfa238fc	-1.267364
36	0xbf2221e2	-0.6333295
37	0xc00cf459	-2.2024138
38	0xbfa24d7e	-1.2679899
39	0xbf87d292	-1.0611136
40	0xbfbca19a	-1.4736817
41	0xbfba85f8	-1.4572134
42	0xbf8d97c2	-1.1061938
43	0xbf09e3c1	-0.5386315
44	0xbf9299aa	-1.1453145
45	0xbf6604da	-0.8985115
46	0xbf6a6722	-0.9156362
47	0xbfe0b5b4	-1.7555451
48	0xbf78322d	-0.9695156
49	0xbf6b8da3	-0.92012995
50	0xbfdaba2b	-1.7088064
51	0xbfa53e71	-1.2909681
52	0xbf87dac9	-1.0613643
53	0xbf71f28f	-0.9451074
54	0xbf8c4a18	-1.0960112
55	0xbe9f7130	-0.31141043
56	0xc0065761	-2.0990832
57	0xbfcde982	-1.6086886
58	0xbfe8b830	-1.818121
59	0xbff023ab	-1.8760885
60	0xbf0c24bb	-0.54743546
61	0xbf638e00	-0.8888855
62	0xbf244bbd	-0.6417807
63	0xbf836097	-1.0263852

BN2.running_var f4 [64]
0	0x40dd8103	6.9219985
1	0x4172229d	15.1334505
2	0x40f87c5d	7.765181
3	0x41098b2b	8.596477
4	0x40d9b6d3	6.8035674
5	0x40e0ad69	7.021168
6	0x41258b6c	10.346539
7	0x40ffc987	7.9933505
8	0x409e4630	4.946068
9	0x41096333	8.586719
10	0x416f5014	14.95705
11	0x41375e9f	11.460601
12	0x410e9ba9	8.913003
13	0x40663cd1	3.597462
14	0x418284fa	16.31493
15	0x410b7473	8.71593
16	0x412ef0aa	10.933756
17	0x40a8d4a1	5.2759557
18	0x4023c5ea	2.5589547
19	0x401cb7f5	2.4487278
20	0x415e4d79	13.893914
21	0x414a3a98	12.639305
22	0x4051be28	3.2772312
23	0x40b1ccc7	5.556247
24	0x41446f9a	12.277246
25	0x4049a71f	3.1508253
26	0x410a21ad	8.633222
27	0x40f805a7	7.75069
28	0x41262ee5	10.386449
29	0x4119d226	9.613806
30	0x40f20bca	7.563939
31	0x410c9db4	8.788502
32	0x4044f4ce	3.0774417
33	0x4064545e	3.5676494
34	0x411b5bbd	9.709897
35	0x40e1c5ea	7.0554094
36	0x4044a42f	3.072521
37	0x416de8aa	14.869303
38	0x41197221	9.5903635
39	0x40e3bfe0	7.1171722
40	0x4118265f	9.509368
41	0x4165a073	14.351672
42	0x40baac91	5.833565
43	0x40038d32	2.0554929
44	0x4098f2e8	4.7796516
45	0x40951519	4.6588254
46	0x408d32ec	4.412466
47	0x413f306f	11.949325
48	0x413b0e3e	11.690977
49	0x40dcca09	6.8996625
50	0x40d9c3ec	6.8051662
51	0x40f0ab5c	7.520918
52	0x40c287d3	6.07908
53	0x412f02d4	10.93819
54	0x40e9be8f	7.3045115
55	0x409729e6	4.7238646
56	0x418b2a12	17.395542
57	0x412b91fb	10.72314
58	0x4137b221	11.4809885
59	0x413fc646	11.985907
60	0x40100d07	2.2507951
61	0x4072de16	3.794805
62	0x40191edc	2.3925085
63	0x41297bbe	10.5927105

fc1.weight f4 [128, 1024]
0	0xbab4cdef	-0.0013794283
1	0xbcfba63f	-0.03071892
2	0xbc4db4f1	-0.012555347
3	0xbca7d77b	-0.020488491
4	0xba4cbf7f	-0.00078105176
5	0xbc1bdd01	-0.009513141
6	0xbd114be0	-0.03547275
7	0xbc00aa5e	-0.007853119
8	0xbcf03e64	-0.029326625
9	0xbc8ef16d	-0.017449105
10	0x3c16d985	0.009207134
11	0x3cc25d01	0.023725988
12	0x3bb0a5f9	0.005390879
13	0x3c8f354a	0.017481465
14	0x3c9bcb86	0.019017946
15	0xbd11411c	-0.035462484
16	0xbc4e9f8d	-0.012611282
17	0xbc5c2b30	-0.013438031
18	0x3c1b9253	0.009495336
19	0xbc8309fe	-0.015995976
20	0xba310bad	-0.0006753754
21	0xbc29c5a2	-0.010362061
22	0xbc49823b	-0.012299116
23	0x3c6250f3	0.013813245
24	0x3c639bee	0.013892157
25	0xbc00eb74	-0.007868636
26	0xbce710ad	-0.028206194
27	0x3b8fe71a	0.004391563
28	0xbad797d2	-0.0016448444
29	0xbce54eeb	-0.027991733
30	0xbc9b8d8c	-0.018988393
31	0x3b4b5d87	0.0031031088
32	0x3a891cea	0.0010460888
33	0xbcba745b	-0.02276056
34	0x3c7b4f79	0.015338772
35	0xbc7b57ed	-0.015340787
36	0x3c47ad57	0.0121873235
37	0xbca422bf	-0.0200361
38	0xbcef6390	-0.02922228
39	0x3ad2a726	0.0016071543
40	0x3cc9cde4	0.02463431
41	0x3c583f5d	0.013198701
42	0xbcad147c	-0.021127932
43	0xbcf5d1ff	-0.03000736
44	0xbc553a32	-0.013014363
45	0xbc8b5b13	-0.017011201
46	0x3bc6b42b	0.006063958
47	0xbd0ccc47	-0.0343745
48	0xbc8806c9	-0.016604798
49	0xbc2b1432	-0.010441827
50	0x3c743021	0.014904053
51	0x3bc65d2b	0.006053587
52	0x3cb6eb10	0.022328883
53	0xbb99cdac	-0.0046937075
54	0xbca0bbc4	-0.019620784
55	0x3b0a893a	0.0021138922
56	0xbb250240	-0.0025178343
57	0xbd06f077	-0.03294417
58	0xbcd6a047	-0.026199473
59	0xbcff4bdd	-0.031164104
60	0xbc59f1b0	-0.013302252
61	0xbd0a71ec	-0.03380005
62	0xbb079c79	-0.002069263
63	0x3c627919	0.013822817
64	0x3c2170da	0.009853566
65	0x3cbb5f02	0.022872452
66	0xbc848c54	-0.016180195
67	0xbcb2b3ad	-0.021814192
68	0xbba90b9d	-0.005158855
69	0xbbf1477d	-0.0073632584
70	0x3c9f9ff2	0.019485448
71	0xbd0ac2a7	-0.03387704
72	0xbd15e02e	-0.036590748
73	0xbcf5afd3	-0.029991066
74	0xbca219c5	-0.019787678
75	0x3c288c58	0.010287367
76	0xbc65587b	-0.013998146
77	0x3ba03f9c	0.0048903953
78	0xbcec3271	-0.028832646
79	0x3cca3185	0.024681816
80	0x3b329d4b	0.0027254398
81	0x3b3e0f39	0.0029000773
82	0x3cc69571	0.024241181
83	0x3c09d089	0.008411535
84	0x3b95cb40	0.0045713484
85	0xbc034144	-0.008011166
86	0x3b0784a8	0.0020678435
87	0xbc06a227	-0.008217371
88	0xbba9a825	-0.005177515
89	0xbcdf42f5	-0.027253607
90	0x3c936f89	0.01799752
91	0x3c2b25cc	0.010446023
92	0xbcb98194	-0.022644795
93	0x3c95f71a	0.018306304
94	0xbcba3749	-0.02273144
95	0xbc179941	-0.009252847
96	0xbc86e4f8	-0.016466603
97	0x3c1744be	0.009232698
98	0x3b3ca6ff	0.002878606
99	0xbca58c1a	-0.020208407
100	0x3b92627a	0.0044673057
101	0x3bc47562	0.0059954384
102	0xbac0d47d	-0.0014711764
103	0x3c28f918	0.010313295
104	0xbc2dc454	-0.01060589
105	0x3c2beac6	0.010492986
106	0x3cbf6049	0.023361342
107	0xbc9dc308	-0.019258037
108	0x3bf56eb4	0.0074900035
109	0x3bec47d0	0.007210709
110	0xbbb82c26	-0.0056204973
111	0xbc6f32dc	-0.014599528
112	0x3c1791b6	0.009251049
113	0x3c37ce74	0.011218656
114	0x3c786f64	0.015163276
115	0xbc3fc780	-0.011705279
116	0xbd096e07	-0.033552196
117	0xbc8b2818	-0.016986892
118	0xbd0bdc34	-0.03414555
119	0x3cc43514	0.02395109
120	0xbd10d4f6	-0.035359345
121	0x3c3ea79b	0.01163664
122	0xbcd33bf0	-0.025785416
123	0xbd041f1d	-0.032256234
124	0x3c231424	0.009953532
125	0xbcf8d7e8	-0.03037639
126	0xbce578ba	-0.028011668
127	0x3a9ff814	0.001220467
128	0xbd02d146	-0.03193786
129	0x3c9fc50c	0.019503139
130	0xbaace5a6	-0.0013190999
131	0xbbbfdf01	-0.0058554416
132	0x3cb4d3f5	0.022073725
133	0xbcaae6db	-0.020862034
134	0xbcbe4475	-0.023226002
135	0xbb536013	-0.003225331
136	0x3c59ebd1	0.013300852
137	0x39cb4b0d	0.00038775094
138	0x3c1a1df2	0.009406554
139	0xbd13f4f3	-0.036122274
140	0xbc404d02	-0.01173711
141	0xb9fa5bb8	-0.00047752052
142	0x3c291cd0	0.010321811
143	0xbcacaf46	-0.02107967
144	0xbcb41480	-0.021982431
145	0xbae30103	-0.0017319027
146	0xbc2578c0	-0.01009959
147	0xbc7fc1cd	-0.015610171
148	0x3c95cba7	0.018285586
149	0xbca987ba	-0.020694602
150	0x3c0c4657	0.008561692
151	0x3c969ff9	0.018386828
152	0xbcafac9f	-0.021444617
153	0x3c8ea06e	0.017410483
154	0x3bc2ca14	0.0059444997
155	0xbb859b89	-0.004077379
156	0xbd0d38d5	-0.034478027
157	0x3b8404f6	0.0040289117
158	0x3c9e6d0e	0.01933911
159	0xbc0f9620	-0.00876382
160	0x3c977e5a	0.018492866
161	0xbbcef296	-0.0063155396
162	0xbc59456f	-0.013261183
163	0xbc701f20	-0.014655858
164	0xbc058d5d	-0.008151379
165	0xbc9b33f8	-0.018945679
166	0xbbaeac1e	-0.0053305766
167	0xbbd1509e	-0.006387784
168	0xbd033861	-0.03203619
169	0xbca8adfb	-0.020590773
170	0x3cbacb8a	0.022802133
171	0xbbc0c107	-0.0058823857
172	0xbbc5df1e	-0.0060385605
173	0x3c1ab3fe	0.009442328
174	0x3c93507f	0.01798272
175	0xbd174a7a	-0.03693626
176	0xbd0fa5e4	-0.035070315
177	0xbc0ba2a0	-0.00852266
178	0xbc8d727f	-0.01726651
179	0xbd02a166	-0.031892203
180	0xbcf893fc	-0.030344002
181	0x3bcc307f	0.006231367
182	0x3c329a9d	0.0109011205
183	0xbc010f5e	-0.007877199
184	0xbb6e327e	-0.0036346014
185	0xbce56f79	-0.028007256
186	0xbcdfd113	-0.027321374
187	0xbd07af83	-0.033126365
188	0xbbf3c5c6	-0.007439348
189	0xbd121414	-0.03566368
190	0xbbd2c757	-0.0064324546
191	0x3c871e3d	0.01649391
192	0xbc90a12e	-0.017654981
193	0xbd041810	-0.03224951
194	0xbcc68807	-0.024234785
195	0x3c0f575b	0.0087488545
196	0xbcc4c371	-0.024018975
197	0xbcc0b444	-0.023523457
198	0xbcb45c4a	-0.022016663
199	0xbcb14654	-0.02163998
200	0x3c93fad1	0.018063935
201	0xbc811236	-0.015755754
202	0x3cbbedae	0.022940483
203	0x3c0e730e	0.008694423
204	0xbc2e93d5	-0.010655363
205	0xbd017e4d	-0.03161459
206	0x3c8c413b	0.017120948
207	0x3cac1923	0.02100808
208	0xbc221d03	-0.009894612
209	0x3c9e5cfe	0.019331452
210	0xbc3f731b	-0.011685158
211	0xbd085465	-0.03328361
212	0xbd10a96d	-0.035317827
213	0xbc84c5ee	-0.016207661
214	0x3b9576ce	0.0045612818
215	0x3c7ed20f	0.015553012
216	0x3cab22af	0.020890562
217	0x3cbe83f5	0.023256281
218	0x3bc44d6f	0.005990676
219	0xbd026ca0	-0.031841874
220	0x3bb77c6f	0.0055995504
221	0xbbf815cf	-0.007570959
222	0xbc546990	-0.012964621
223	0x3c9ceb25	0.019155094
224	0xbbdb1be5	-0.006686675
225	0xbcb49711	-0.02204469
226	0x3cb335a1	0.021876158
227	0x3c433f71	0.011916981
228	0xbacac1d3	-0.0015469141
229	0x3c9546fe	0.018222328
230	0xbcfa1c51	-0.03053108
231	0xbbd0df14	-0.0063742492
232	0xbd0510a8	-0.032486588
233	0xbb33ddd9	-0.0027445464
234	0x3b3f7cf1	0.0029218758
235	0xba898e53	-0.0010494686
236	0xbd03a9d3	-0.03214438
237	0xbcd78867	-0.026310159
238	0xbd0d5a1c	-0.034509763
239	0x3ca48eb0	0.02008757
240	0xbc9af6ec	-0.01891657
241	0x3c914f7f	0.017738102
242	0xbcfb1f7a	-0.030654658
243	0xba8f63de	-0.0010939797
244	0x3cb55cab	0.022138914
245	0xbc47b7ef	-0.012189849
246	0xbcdffa84	-0.027341135
247	0xbc23de40	-0.010001719
248	0x3b924bf6	0.0044646217
249	0xbc4156e1	-0.011800499
250	0x3b364ada	0.002781561
251	0xbb7efaf8	-0.0038906913
252	0xbcfea692	-0.031085286
253	0xbc28082d	-0.0102558555
254	0xbc949557	-0.018137617
255	0x3cafe920	0.021473467

fc1.bias f4 [128]
0	0x3c281665	0.0102592455
1	0xbc4f4d4d	-0.012652707
2	0x3e7d0531	0.24709012
3	0x3e134017	0.14379917
4	0x3bddb699	0.006766152
5	0xbd2616c8	-0.04054907
6	0x3aa72306	0.0012751527
7	0xbd114c2f	-0.035473045
8	0xbc7ca29c	-0.0154196285
9	0x3b0d3815	0.002154832
10	0xbc1d90f4	-0.009617079
11	0x3dd95141	0.10611201
12	0x3c5f8236	0.013641885
13	0xbd004b8d	-0.03132205
14	0xbbf73a45	-0.007544788
15	0x3bd13ea3	0.0063856407
16	0xbcce12a4	-0.025155373
17	0xbc93d720	-0.018046916
18	0xb9e6e884	-0.00044042256
19	0xbd127cb7	-0.03576347
20	0xbdb450af	-0.08804452
21	0xbc5f82dd	-0.01364204
22	0x3ea18cee	0.31552833
23	0x3c934ac0	0.01797998
24	0x3cb2ca04	0.021824844
25	0x3e43bc0e	0.19114706
26	0xbca58cdf	-0.020208774
27	0x3d7a1a62	0.061060317
28	0xbcc1162d	-0.023570145
29	0x3c367206	0.011135584
30	0xbcc47edb	-0.02398627
31	0xbd1258ae	-0.035729103
32	0x3c81ecf8	0.015860066
33	0x3b8b0b60	0.0042432994
34	0xbca689de	-0.020329412
35	0xbb929de3	-0.004474388
36	0x3e9ce2f1	0.30641893
37	0xbd0d905c	-0.0345615
38	0xbc4399ab	-0.011938493
39	0xbced9b3b	-0.029004684
40	0xbc2ba6f3	-0.0104768155
41	0xbc55e386	-0.013054734
42	0x3c265a10	0.0101533085
43	0x3b96a8dc	0.0045977663
44	0x3e272974	0.16324407
45	0xbcb40da9	-0.02197917
46	0xbc67c1c5	-0.014145319
47	0xbd139fef	-0.036041196
48	0x3c07471c	0.0082567
49	0xbabed34e	-0.0014558823
50	0xbccde5a3	-0.025133913
51	0xbc81c4b0	-0.015840858
52	0xbbeadb4c	-0.0071672555
53	0xbb970e4a	-0.0046098577
54	0x3e712277	0.23548304
55	0xbcfb6ab9	-0.030690538
56	0xbd09f01c	-0.03367625
57	0xbc165ceb	-0.009177427
58	0x3cb3d782	0.021953348
59	0x3db12d06	0.08651166
60	0x3e066afd	0.1312675
61	0x3adac6c3	0.0016691316
62	0x3e3f3025	0.1867071
63	0xbceacc97	-0.02866201
64	0x3aef6113	0.0018263183
65	0x3dc6769f	0.09690594
66	0x3bdb2297	0.006687473
67	0xbd00b4ea	-0.031422533
68	0x3c95b144	0.018273003
69	0x3c05a606	0.008157259
70	0x3c93b8a3	0.018032378
71	0x3dbf3df1	0.09337986
72	0xbd138bd1	-0.03602201
73	0xbd313069	-0.04325906
74	0xbc7c5845	-0.0154019045
75	0x3d3360fa	0.043793656
76	0xbc719f28	-0.014747418
77	0xbd03c3cf	-0.03216916
78	0x3be2abff	0.006917476
79	0xbc383153	-0.011242229
80	0x3e2263b8	0.15858352
81	0x3d92fc4e	0.071770296
82	0xbccc4679	-0.024935948
83	0x3c8fd557	0.017557783
84	0xbd10f7f9	-0.035392735
85	0x3c21269b	0.009835864
86	0xbba4f50f	-0.005034096
87	0xbcd46ccf	-0.02593079
88	0x3c0a344b	0.008435319
89	0xbcefb800	-0.029262543
90	0xbbb66ec4	-0.0055674035
91	0x3e044654	0.12917453
92	0xbd0fde52	-0.03512413
93	0xbb8792bb	-0.0041373647
94	0x3b10c8d3	0.0022092357
95	0xbcc10b19	-0.023564862
96	0xbce0deb5	-0.027449945
97	0xbcfa78db	-0.030575207
98	0x3da4cc38	0.08046764
99	0xbc98c150	-0.018646866
100	0x3e9a1050	0.3009057
101	0x3df3f990	0.11912835
102	0xbd0dea81	-0.03464747
103	0xbc0f7ffb	-0.00875854
104	0xbcd2d6b2	-0.02573714
105	0xbd106bb3	-0.03525896
106	0xbc06141a	-0.0081835035
107	0xbd4e8edf	-0.05042922
108	0x3e8fba29	0.28071716
109	0xbd0d286d	-0.03446238
110	0x3e847ba1	0.2587557
111	0xbcee090f	-0.029057054
112	0xbda2a2c7	-0.079412036
113	0x3c027fd8	0.007965051
114	0xbd70399e	-0.058648698
115	0xbc8711dd	-0.01648801
116	0x3e2f49b1	0.17117955
117	0x3c97e0b4	0.018539764
118	0xbae9d285	-0.0017839229
119	0xbd14d0c4	-0.036331907
120	0x3e97cb36	0.29647225
121	0x3cc8013d	0.024414653
122	0x3c927d57	0.017882032
123	0x3e40512b	0.18780963
124	0x3b830dba	0.003999439
125	0xbc9004e6	-0.01758046
126	0xbc9cf311	-0.019158872
127	0x3e730d8c	0.23735636

fc2.weight f4 [4, 128]
0	0xbd5d8c3b	-0.054088812
1	0xbd2694f8	-0.04066941
2	0x3d53ec6a	0.051739134
3	0xbf80c4e2	-1.0060084
4	0xbd73c92f	-0.059518036
5	0x3ce3aeee	0.027793374
6	0x3d05f8aa	0.032707848
7	0x3bfa2fbe	0.007635086
8	0x3d832b0e	0.064046964
9	0xbda36dc7	-0.07979923
10	0x3c83c017	0.016082807
11	0x3f174347	0.5908703
12	0xbd175ed5	-0.036955673
13	0xbc86b4b8	-0.016443595
14	0x3e9d4995	0.307202
15	0x3d15ce23	0.03657354
16	0x3cb1a90a	0.02168705
17	0x3caf9c8c	0.021436952
18	0x3d661617	0.05617341
19	0x3c981591	0.018564971
20	0xbd270521	-0.040776376
21	0xbd7a968f	-0.06117874
22	0xbf8fda39	-1.1238471
23	0x3d53a1d0	0.05166799
24	0xbcc7ccd5	-0.024389664
25	0x3e9f93f3	0.31167564
26	0xbcb6e826	-0.022327494
27	0x3f147f3d	0.5800665
28	0xbada4499	-0.0016652524
29	0xbd93159c	-0.07181856
30	0xbccb7421	-0.024835648
31	0x3c721a0c	0.014776718
32	0x3c49ccca	0.012316892
33	0x3bc4baad	0.006003699
34	0x3c9e4437	0.019319637
35	0xbde1f003	-0.11032107
36	0x3efe2c69	0.49643257
37	0xbce0d56a	-0.027445514
38	0xbd66587a	-0.05623672
39	0xbd247e39	-0.040159438
40	0xbd890075	-0.0668954
41	0xbc343108	-0.010998018
42	0x3d4aaac8	0.049479276
43	0x3d828402	0.06372835
44	0xbf6fb7e8	-0.93639994
45	0xbcb45b76	-0.022016268
46	0x3d9dc73e	0.07704018
47	0xbcf16c8a	-0.0294707
48	0xbd8f4ad4	-0.06996694
49	0x3b860a14	0.004090557
50	0xbd4ddcbd	-0.05025934
51	0xbd91e892	-0.071244374
52	0x3cac7c58	0.021055385
53	0xbd7f091d	-0.06226455
54	0x3f810c1b	1.0081819
55	0xbcb01258	-0.021493122
56	0xbb5e4269	-0.0033914095
57	0xbc309d1a	-0.010779643
58	0xbda70f7c	-0.0815725
59	0x3eae408a	0.34033614
60	0x3f53d3af	0.8274488
61	0x3c9ea110	0.01936391
62	0xbf801e01	-1.0009156
63	0xbd2bb769	-0.04192296
64	0xbc22a29a	-0.009926463
65	0x3ec9a0dd	0.3938054
66	0xbd9807e0	-0.07423377
67	0xbd0ff10b	-0.035141986
68	0xbc856e8d	-0.016288066
69	0xbd7a6ae3	-0.06113709
70	0xbce23478	-0.02761291
71	0xbf54346c	-0.8289249
72	0x3d06c88c	0.0329061
73	0x3e223d9a	0.15843812
74	0x3e09c6fe	0.13454816
75	0x3e4b5b1b	0.19858973
76	0xbd76e848	-0.060280114
77	0x3e3aa9d4	0.18228847
78	0x3d87ea18	0.06636447
79	0xbd9bad63	-0.0760143
80	0xbf15ec7a	-0.5856396
81	0xbe296f3f	-0.16546343
82	0xbd2e62f3	-0.042574834
83	0x3e2bb7b4	0.16769296
84	0xbc6eab6c	-0.014567237
85	0x3c887a7d	0.01665997
86	0xbd53feec	-0.051756784
87	0x3cc23209	0.0237055
88	0xbd4e1ed4	-0.05032237
89	0x3da1b2dd	0.078954436
90	0x3d4bf959	0.049798343
91	0x3f530f79	0.82445484
92	0xbd00795f	-0.03136575
93	0xbd845272	-0.06461038
94	0xbe1ae8e4	-0.15127903
95	0xbc820426	-0.015871119
96	0xbcab60fe	-0.020920273
97	0xbd85dbd8	-0.065360725
98	0x3dca06c6	0.09864573
99	0x3b60d40e	0.0034306082
100	0x3f2a13f9	0.66436726
101	0x3e7dae7f	0.24773596
102	0x3c3cea3e	0.011530457
103	0x3bc7a619	0.0060927984
104	0x3ccab5a7	0.024744822
105	0xbcfb8831	-0.03070459
106	0xbda9cae6	-0.08290653
107	0x3d82d618	0.063884914
108	0xbfc40190	-1.5312977
109	0x3d380641	0.04492784
110	0xbe50dc4f	-0.20396541
111	0x3d73325d	0.059374202
112	0x3e0865ee	0.13320133
113	0xbcf57c28	-0.029966429
114	0xbf666735	-0.9000123
115	0xbd403282	-0.046923168
116	0x3f1c098a	0.60952055
117	0x3f0a1c1a	0.5394913
118	0x3d09644a	0.03354291
119	0xbc7d8509	-0.015473613
120	0x3e719db8	0.23595321
121	0xbda72f6b	-0.08163341
122	0xbd9757db	-0.07389804
123	0x3f8fa597	1.1222409
124	0xbd9b7bbb	-0.07591959
125	0xbd076e53	-0.033064198
126	0xbd494cf6	-0.04914566
127	0xbf96ceba	-1.1781838
128	0xbd870caa	-0.06594212
129	0xbd00d16c	-0.03144972
130	0x3f398b48	0.7247815
131	0x3f212533	0.62947387
132	0xbcd42a9c	-0.025899224
133	0xbd47db63	-0.048793208
134	0xbd354305	-0.044253368
135	0xbd585766	-0.052817725
136	0x3cd1fd21	0.025633397
137	0xb98a42bd	-0.00026371135
138	0x3cca0a75	0.02466319
139	0xbf8d4731	-1.1037351
140	0x3d178891	0.036995474
141	0xbd7bab71	-0.061442796
142	0xbf7ab8ec	-0.9793842
143	0x3d7dfac5	0.06200673
144	0xbd2dd22a	-0.042436756
145	0x3c92ef8c	0.01793649
146	0x3eab90a3	0.33508787
147	0x3ce6fc94	0.02819661
148	0x3c1f1db8	0.009711675
149	0x3ca2d5df	0.019877372
150	0xbea19e72	-0.31566197
151	0x3d39b1fb	0.04533575
152	0x3b873100	0.0041257143
153	0x3f4933e6	0.78594816
154	0x3cacb234	0.021081068
155	0xbfd344a8	-1.6505327
156	0xbcf9afb7	-0.030479295
157	0x3d95b683	0.07310202
158	0x3c7fad2c	0.015605252
159	0x3c0a3f4f	0.0084379455
160	0xbd95bdcd	-0.07311592
161	0x3c5d4800	0.013505936
162	0x3d9019f6	0.07036202
163	0xbcc21c5d	-0.023695165
164	0xbe3862b2	-0.180064
165	0x3cc51c15	0.024061242
166	0xbd7922b0	-0.060824096
167	0xbd6dc668	-0.058050543
168	0x3c83afe7	0.016075088
169	0xbcfb8ddd	-0.030707294
170	0x3d458832	0.04822559
171	0xbd29cc5a	-0.04145465
172	0x3efecff6	0.49768037
173	0x3a7ae914	0.00095714745
174	0xbd0ce2f1	-0.034396116
175	0xbd28fd4d	-0.04125719
176	0x3d8f2d29	0.069910355
177	0x3d5b25ef	0.053502973
178	0xbd6da333	-0.058016967
179	0xbd886242	-0.06659366
180	0x3c989689	0.018626468
181	0x3c3bede7	0.011470295
182	0x3d7d153c	0.06178783
183	0xbd1ae807	-0.037818935
184	0x3cb88951	0.022526415
185	0x3c97bcd3	0.018522656
186	0x3d8f0ea0	0.06985211
187	0xbf8009db	-1.0003008
188	0xbded1ef6	-0.11578171
189	0x3d433e93	0.047667097
190	0x3e36bfa7	0.17846547
191	0xbc7b474e	-0.015336825
192	0x3d57fe48	0.052732736
193	0xbfb23f37	-1.3925542
194	0xbd5b8cc1	-0.05360103
195	0xbd702b27	-0.058634903
196	0x3c826920	0.015919268
197	0x3d56c76e	0.052436285
198	0xbbf9bc63	-0.0076213344
199	0x3e91e630	0.28495932
200	0x3d1a136c	0.03761618
201	0xbeae26a4	-0.34013855
202	0xbc2b9564	-0.010472629
203	0xbf9d818c	-1.230516
204	0x3c894c7d	0.016760105
205	0xbd1caccf	-0.03825074
206	0x3c84c49b	0.01620703
207	0x3d6dda55	0.058069546
208	0xbf5551cd	-0.83327943
209	0xbfb00fc9	-1.3754817
210	0xbd2b7c86	-0.0418668
211	0xbf5a6571	-0.8531104
212	0x3d8239fc	0.06358716
213	0xbd79e389	-0.06100801
214	0x3d1f9453	0.038959812
215	0xbc8788af	-0.016544668
216	0xbd22ccf8	-0.039746255
217	0x3d0f9b44	0.035060182
218	0xbd9f0fe4	-0.07766703
219	0xbf5763d0	-0.84136677
220	0xbd22544b	-0.03963117
221	0x3cd6c0f5	0.026215056
222	0x3f2eed42	0.68330777
223	0x3c8c3a8a	0.017117757
224	0x3da805c3	0.08204224
225	0x3d74347a	0.059620358
226	0x3f1b783a	0.60730326
227	0x3d54b1b4	0.051927283
228	0x3dc2193c	0.09477469
229	0x3efcd000	0.4937744
230	0xbcd38669	-0.025820928
231	0xba81f57c	-0.0009915079
232	0x3b2a0d78	0.002594797
233	0x3d84ee24	0.06490734
234	0x3d665231	0.056230728
235	0xbc04d834	-0.0081081875
236	0x3e1a01b1	0.15039708
237	0xbd57ad29	-0.052655373
238	0x3f046162	0.51711094
239	0xbc6f0474	-0.014588464
240	0x3d622544	0.05521132
241	0x3af55b25	0.001871918
242	0x3f5bcf87	0.85863537
243	0x3cea9f23	0.028640335
244	0xbd5fa1bf	-0.054597612
245	0xbf3ab051	-0.7292529
246	0x3d07b9e4	0.033136263
247	0xbd74a992	-0.059732027
248	0xbc613394	-0.013745207
249	0xbd88c100	-0.06677437
250	0xbd048558	-0.03235373
251	0xbf7ee0f7	-0.9956202
252	0xbd9afb04	-0.07567409
253	0x3c90467d	0.017611736
254	0xbd0eacaa	-0.034832634
255	0xbf302973	-0.68813246

fc2.bias f4 [4]
0	0xbcbdae6a	-0.023154456
1	0x3d7701c8	0.060304433
2	0xbe10e54b	-0.14149968
3	0xbb5d2644	-0.0033744732
