cnn saved models/cnn_epoch24.pt (torch, 609343 bytes, 16 tensors)

conv1.weight f4 [32, 1, 3, 3]
000000 1b da b8 3e 77 e9 e2 3e 63 81 8a be bd 0f cb be
       0.361039 0.44318745 -0.2705184 -0.39660445
000010 07 f3 b6 be b4 c1 7a be a0 4a 88 3d 32 20 cb 3c
       -0.3573229 -0.24487954 0.066548586 0.024795625
000020 9f 2a b8 3e 62 07 66 3f 82 1d 2e be 52 4e bc 3e
       0.35970017 0.89855015 -0.17003444 0.36778504
000030 87 94 71 be 49 39 e2 bd fd c0 9f be 3a ae b6 3c
       -0.23591815 -0.110460825 -0.31201926 0.022299875
000040 dd 9b ac 3e 07 52 ed bd 6f 8d e3 3d e7 33 32 3d
       0.33712664 -0.11587911 0.11110961 0.04350653
000050 13 a9 c9 3e 46 04 9c be 61 81 19 bf 48 6e cb 3d
       0.39386806 -0.3047201 -0.5996304 0.09933144
000060 df 84 93 3e 54 86 a1 3e 6f 79 cb be 77 f9 29 bd
       0.2881231 0.31547797 -0.39741084 -0.041497674
000070 f5 29 ee 3e c3 d6 8c 3e e3 7e 1d 3d 68 df 86 be
       0.46516386 0.275076 0.038451087 -0.2634232
000080 c2 63 16 bf 79 91 fc bd 0e 51 97 3e 9f 95 fb bd
       -0.5874597 -0.12332434 0.29554027 -0.12284397
000090 0e b9 1a be bb be 55 be 20 e2 81 3e 87 4d bb be
       -0.15109655 -0.20873539 0.25367832 -0.36582586
0000a0 17 a7 84 3e 03 ae 19 3e 68 ea ce 3e 1a 37 c8 3d
       0.2590873 0.15007786 0.40413213 0.09776135
0000b0 9f 15 b8 be 8e 37 16 3e fb bd d3 be 1b 11 20 bf
       -0.35953996 0.1466963 -0.4135588 -0.625261
0000c0 67 77 5a 3e ca 10 aa 3e ef 31 9d bc 42 03 9d be
       0.21334611 0.33215934 -0.01918885 -0.30666548
0000d0 1b 06 c2 bd 80 79 0e bf aa 9b 1b 3e 91 c1 a7 be
       -0.09473821 -0.55654144 0.151961 -0.32764867
0000e0 cb db 94 be 16 74 1a 3e 56 3a a1 3e 99 35 e2 3e
       -0.2907394 0.15083346 0.3148982 0.44181517
0000f0 89 d4 fa be 22 3c 70 3d 0d c3 a6 bd e7 2c e5 3e
       -0.48990276 0.058651097 -0.08142672 0.4476082
000100 f9 db b4 be 1d 00 bf be aa 0a af 3e 58 e6 20 be
       -0.35324076 -0.37304774 0.34187824 -0.15712869
000110 e4 6d be be 63 e7 8b 3e 8f 25 9c bb 46 7f 68 3e
       -0.37193215 0.27324972 -0.0047652195 0.22704801
000120 1d 27 01 3e b6 59 2f be d3 88 5e bf 3b 59 2a bd
       0.12612577 -0.17124066 -0.8692753 -0.041589003
000130 16 83 fe 3c 59 96 96 3d be 80 87 3e 1d 48 0e 3e
       0.031068366 0.07352895 0.2646541 0.13894697
000140 8c 94 d2 bc 8f 51 83 3e a9 06 c4 be 6a 8b 0a 3f
       -0.025705598 0.25648162 -0.3828633 0.5411898
000150 8a bd 5b be 1d 24 2a be 6d 57 11 bf c1 86 53 3e
       -0.21459022 -0.16615339 -0.56774026 0.20656873
000160 66 27 3a 3e ec 38 d6 bd 03 b9 64 bc a3 06 83 be
       0.18179092 -0.10460076 -0.013960126 -0.25591
000170 b0 21 d2 bd 1d d7 9d be 3f 78 df 3d bf 66 01 bf
       -0.10260332 -0.3082818 0.10911607 -0.50547403
000180 e8 88 ab 3e 42 dc e3 3e 94 33 e8 bc b3 55 67 be
       0.3350289 0.4450398 -0.028344907 -0.22591285
000190 cc e4 50 3e 51 05 e7 bd 70 7f f7 3d e8 b6 8a 3e
       0.20399779 -0.11280311 0.12084854 0.2709267
0001a0 c4 27 36 be f7 98 19 3f b0 32 90 be 9d 70 9b be
       -0.17788607 0.5999903 -0.28163671 -0.30359355
0001b0 ba ed 07 3f 62 be 29 3e 16 13 1e 3d 7a b7 69 3e
       0.53097117 0.16576532 0.03859242 0.22823897
0001c0 00 a0 6b be e8 f0 5b be c4 70 9a be 6f d4 0c be
       -0.23010254 -0.21478617 -0.30164158 -0.13752912
0001d0 84 05 97 be 1b b2 03 bf 85 c4 ce bc 84 71 d8 be
       -0.29496396 -0.5144364 -0.025240192 -0.42274106
0001e0 04 01 87 be 78 be 3e 3e fb 83 0a 3d 79 46 05 3c
       -0.26367962 0.18627346 0.033817273 0.008134478
0001f0 2c 4d 55 3e 8c 7a d8 3e 52 f8 e0 3e 24 04 d6 be
       0.2083022 0.42280996 0.43939453 -0.41800034
000200 43 37 b8 bd 4d ca 95 3e f4 8b 3f 3e c4 55 02 bf
       -0.08994915 0.29255906 0.18705732 -0.5091212
000210 b0 48 ca 3e b2 72 bf 3d e4 40 dc be 6f 9d 3c 3d
       0.3950858 0.09348048 -0.43018258 0.046048578
000220 8d d5 fd bd 67 c3 1c bf 9b 9e 0f 3e 6f 77 d4 be
       -0.12394247 -0.6123566 0.14025347 -0.4149737
000230 28 79 cd bd e8 56 17 3f da ed 01 3e 72 ae 01 be
       -0.10032874 0.59116983 0.1268839 -0.12664202
000240 80 9f b7 3e 64 7b 2d 3e 32 fb db be 97 a9 19 be
       0.35863876 0.16941601 -0.42965084 -0.150061
000250 6d b5 51 be a1 c7 ec 3e b6 c1 03 bf b9 fc ca 3e
       -0.20479365 0.46246055 -0.51467454 0.39645937
000260 01 5f 79 bd bf c2 78 be 05 de a3 bb bb fd 1e 3e
       -0.06088162 -0.2429304 -0.005000832 0.15526478
000270 1c 3d 97 3d 5d 76 19 bf 97 a1 ce be bc cf 88 3e
       0.073847026 -0.59946233 -0.40357658 0.2672099
000280 6d 3d cc 3e 3c 89 ac 3e ca 16 98 3e 85 b4 05 3f
       0.39890614 0.33698452 0.29704887 0.52228576
000290 8e 3c ee 3d 1a 76 81 3e 3d 83 82 be 8a 86 46 be
       0.11632644 0.25285417 -0.25490752 -0.1938726
0002a0 6b a4 5e bd e6 3c c0 be af 74 1f bc 33 31 d9 3e
       -0.05435602 -0.37546462 -0.009732409 0.4242035
0002b0 35 42 7e 3e 03 5d 00 3d 97 79 27 bf c1 55 04 bf
       0.24829943 0.031338703 -0.65419906 -0.5169335
0002c0 fa 89 94 3d 50 6f 06 3e a4 1e 08 3e 3b 5e 8d 3e
       0.072528794 0.131284 0.13292938 0.27610955
0002d0 24 0b f2 3c e4 91 08 bf 1b 45 ef 3e e0 cf cf be
       0.029546328 -0.5334761 0.4673241 -0.40588284
0002e0 21 59 40 be ef 86 8c 3e 93 b7 e8 bd 4f e4 81 bc
       -0.18784 0.27446696 -0.11363139 -0.015855936
0002f0 a4 00 73 3e 43 73 d7 be f8 40 ac 3e df a3 e3 3e
       0.23730713 -0.42080125 0.33643317 0.4446096
000300 ca 90 27 3e ad 79 fd bd b4 df 30 be 52 08 4d 3e
       0.16363826 -0.123767234 -0.17272836 0.20022705
000310 c8 35 6c bd 76 3f 00 bf 5c a7 3e 3e 3b 13 6c be
       -0.057668477 -0.50096834 0.1861853 -0.23054211
000320 19 7e 52 be d7 26 e4 3e ce 05 af bd 88 62 35 be
       -0.20555915 0.44560882 -0.08546029 -0.17713368
000330 e7 eb 04 bf 49 35 a8 3e 8c df c4 3e 73 8e 67 be
       -0.5192246 0.32853153 0.38451803 -0.22612934
000340 b6 8f 20 bc a0 12 e6 3d e9 b4 55 bd 90 53 83 be
       -0.009799888 0.11234021 -0.052174482 -0.2564969
000350 f3 0c ad 3e d2 7f e8 be eb 15 b6 bc 2b 9f 0b 3f
       0.33798942 -0.4541002 -0.022227248 0.54539746
000360 c4 6f c4 be 83 7d b5 bd d5 de b8 3e 95 84 0c bf
       -0.3836652 -0.0886183 0.36107507 -0.54889804
000370 f7 0f c8 bd 7a 59 92 3e 08 1c 89 3d 26 df c6 3e
       -0.0976867 0.2858389 0.066948 0.38842124
000380 99 87 ce 3c a0 c9 6c 3e 97 8f 88 be 46 0c 97 3d
       0.025211142 0.23123789 -0.2667205 0.07375388
000390 76 48 9d 3e 81 9f 37 bf 6f 15 ca 3e f1 0e 3b 3e
       0.30719346 -0.7172776 0.39469478 0.18267418
0003a0 6c fa d4 be d9 1c 80 3e ea 39 39 3e 3b fa 0d bf
       -0.41597307 0.2502201 0.18088499 -0.55459946
0003b0 72 04 ab be 22 d1 50 3e 63 62 eb be 5f 0a 7a be
       -0.3340183 0.20392278 -0.459735 -0.24418019
0003c0 85 1f 02 be 56 eb e4 3e 5f 75 30 3e d2 d2 18 bf
       -0.12707336 0.44710797 0.17232274 -0.59696686
0003d0 ad 47 cc be dd ac 77 3e 16 ee 09 3e c8 02 87 bd
       -0.39898434 0.24187036 0.13469729 -0.06592327
0003e0 9b 30 c2 bd ff cf 5d 3e 32 7d 17 be 52 dc c2 3e
       -0.09481927 0.21661375 -0.14793852 0.38058716
0003f0 d7 f4 93 be 17 73 96 3e 70 0c 0b 3f e3 92 cb be
       -0.28897735 0.29384682 0.54315853 -0.39760503

conv1.bias f4 [32]
000000 c6 c8 ed 3e f4 27 c8 3e 43 31 29 bd 99 1b fa be
       0.4644224 0.39092982 -0.041306745 -0.4884918
000010 40 34 10 3f a9 55 9e 3e 0f 1f 5a bd 7e cc 0a bd
       0.5632973 0.3092473 -0.053252276 -0.033886425
000020 28 62 fd 3e a0 9b 0a 3e de 9c 2b 3e a3 64 f1 3e
       0.4948895 0.13535929 0.16759059 0.47147092
000030 ff e4 09 3f ec d4 89 3e f6 92 de bd 4a 8c 4f be
       0.53865045 0.2692026 -0.10867874 -0.2026836
000040 47 8e c0 bd 7f 57 00 3f f3 48 77 bf fe 0f 9f 3e
       -0.09402137 0.5013351 -0.96595687 0.3106689
000050 f8 d1 1e 3d 40 a7 48 3d 5e 79 c9 3e d5 2f bf bd
       0.03877446 0.048987627 0.39350408 -0.09335295
000060 74 2b 43 3f e4 c9 64 be 4d 2f 8b bd d9 94 b1 bb
       0.7623818 -0.2234264 -0.06796131 -0.0054193554
000070 eb ae 70 3d 0e db 79 bd e1 49 b8 be c3 a8 82 3d
       0.058760565 -0.060999922 -0.35993865 0.06379845

BN1.weight f4 [32]
000000 6d 12 ac 3f ed 5f d8 3e a0 06 96 3f b1 5f 61 3f
       1.3443123 0.42260686 1.1720772 0.8803664
000010 22 23 64 3f 63 3e 40 3f 8a b6 7e 3f 25 a1 1b 3f
       0.8911611 0.75095195 0.9949728 0.6079276
000020 d8 c1 81 3f f2 01 bd 3f 0c b0 68 3f de b9 e3 3e
       1.0137281 1.4766219 0.90893626 0.44477743
000030 0b db 65 3f c5 6a 5a 3f 0c 95 1c 3f 3b 5a 8d 3f
       0.8978736 0.8531917 0.6116493 1.1043161
000040 61 d8 5a 3f f9 a5 cd 3e 86 0a 3c 3f bb 15 57 3f
       0.8548642 0.4016569 0.7345356 0.84017533
000050 e3 f2 82 3f 2c 14 84 3f ee c2 83 3f 79 7d ea 3e
       1.0230373 1.0318656 1.0293863 0.45798853
000060 34 09 04 3f 47 82 a0 3f 65 f3 aa 3f 5e 93 3c 3f
       0.5157654 1.2539757 1.3355528 0.73662364
000070 a0 fe 6b 3f 58 7f 37 3f 86 31 5c 3f 4f 2c 6f 3f
       0.921854 0.71678686 0.86013067 0.93426985

BN1.bias f4 [32]
000000 fd ae da be 58 2f 21 be 03 7c 60 be 8a 0d b4 bd
       -0.4271163 -0.15740716 -0.21922307 -0.08791645
000010 7d d8 8f bf c7 32 af be 1d c6 00 be 49 82 dd bd
       -1.1237942 -0.34218428 -0.12575574 -0.108158655
000020 5d 31 1b bf 87 d5 45 bf 13 a9 e4 be 58 ca 32 be
       -0.606222 -0.7727894 -0.44660243 -0.1746
000030 65 aa 85 3c 72 ad d9 be eb dc ad bd ad 7f 54 bf
       0.016316602 -0.4251514 -0.084894024 -0.8300732
000040 83 43 5c bf b7 4e cd bd e5 a9 40 bf a5 18 25 bf
       -0.86040515 -0.10024779 -0.7525924 -0.6449073
000050 52 98 19 bf f3 b2 0a bf ef b7 9c bf 48 a8 e5 bc
       -0.5999805 -0.54179305 -1.2243632 -0.028034344
000060 62 2f 9a bd 50 bf c7 be bb 6b 6d bf ab 90 e3 bd
       -0.07528569 -0.39013147 -0.9274251 -0.111115776
000070 dd 2f 7b bd 3f d1 32 bd 90 4d 37 bf d3 f0 0f be
       -0.061324943 -0.043656584 -0.71602726 -0.14056711

BN1.running_mean f4 [32]
000000 f4 fb e9 3e d3 a2 04 3f 5a 11 64 bd 62 53 00 bf
       0.45700037 0.5181095 -0.05568061 -0.5012723
000010 30 24 14 3f eb 8c 7e 3d 53 f9 79 bd eb e5 0b bd
       0.5786772 0.06214611 -0.06102879 -0.034154814
000020 b2 b9 cd 3e d9 00 a9 3d 12 96 cc 3d 7c cd fa 3e
       0.40180737 0.08252115 0.09989561 0.48984897
000030 7b 0f 00 3f 64 7c 49 3e b2 c8 f1 bd c7 7b 99 be
       0.5002362 0.19676358 -0.11805858 -0.29977247
000040 74 c5 b0 bd e3 50 fa 3e bd 23 68 bf 19 fc a9 3e
       -0.08631411 0.48889837 -0.9067953 0.33200148
000050 5a b0 33 bc bc 38 d3 3c da ad d5 3e b3 52 ca bd
       -0.010967338 0.025783889 0.417342 -0.09879055
000060 f4 06 43 3f 23 15 62 be 8e 2a 58 be 23 35 95 bd
       0.76182485 -0.22078376 -0.21109983 -0.07285526
000070 ae 62 1f 3d fe 57 e0 bd 31 dd b6 be 11 01 34 3d
       0.038912468 -0.10954283 -0.3571563 0.04394633

BN1.running_var f4 [32]
000000 00 e1 c3 3b ad 96 dc 3c ae cc be 3b c0 99 09 3c
       0.00597775 0.026927317 0.0058227396 0.008398473
000010 a6 8d 92 3a 2f 0d 93 3d b4 11 9e 3b 6e 8f d6 3b
       0.001118113 0.07180249 0.0048238877 0.00654786
000020 23 5e b6 3c c3 a3 14 3c d2 3e 75 3c 67 68 1a 3b
       0.022261685 0.009072247 0.014968591 0.0023560764
000030 5a 05 87 3c 3e e0 b6 3c e9 a9 9e 3b 9c 85 bf 3c
       0.016482044 0.022323724 0.004842032 0.02337914
000040 ff 76 a8 3a b9 6d 22 3c 6b 43 8c 3c 89 dc 05 3c
       0.0012852846 0.009913855 0.017121991 0.008170255
000050 dc 3e cf 3b 0f c8 a2 3b ab ef 44 3b ff e9 5d 3b
       0.006324632 0.0049676965 0.003005008 0.0033861396
000060 77 c8 99 3b f6 ef 20 3b f2 6e 08 3d 3c 16 76 3c
       0.0046930867 0.002455709 0.03330893 0.0150199495
000070 59 bb 56 3c 6a 4a 16 3c d7 96 5b 39 b3 f2 a4 3c
       0.013106191 0.009173015 0.0002094166 0.02013526

conv2.weight f4 [64, 32, 3, 3]
000000 30 55 91 bd 38 53 85 3e b2 5b ac bd 14 c6 b8 3d
       -0.07096326 0.26040053 -0.08415927 0.090221554
000010 f5 7f e7 3d 11 ac 83 be f6 b3 8d bd 8a c2 8d 3d
       0.11303703 -0.25717214 -0.069190904 0.06921871
000020 02 2f 87 bd 12 e4 08 be 6c cc de bd d9 db 7b bd
       -0.06600763 -0.13368252 -0.10878834 -0.06148896
000030 ae d7 99 be c7 93 e2 be e5 e3 df be 0a 1f 95 3e
       -0.30047363 -0.4425337 -0.43728557 0.29125243
000040 ce f6 51 3e 6e f3 8b 3e 3c 26 cb 3c 9a 99 df 3d
       0.20504305 0.2733416 0.024798505 0.10917969
000050 e0 16 34 3e c9 26 f1 bd 79 ab 2b bd 23 f7 40 3d
       0.17586851 -0.11774976 -0.041911576 0.047110688
000060 b3 e2 af bd 49 dd e0 bd 67 7c 65 3d 15 9f 69 be
       -0.08588161 -0.10979707 0.056026842 -0.22814591
000070 4a 63 dd 3c 5e 35 8d 3e 0d dd 09 bf 2c 6e 14 3c
       0.027024884 0.27579778 -0.5385292 0.00905947
000080 36 f4 10 be 58 41 c6 bd 82 48 87 3e 29 8d af 3d
       -0.14155659 -0.09680432 0.26422507 0.08571846
000090 e5 9f b8 3e b3 3f b7 be 81 81 52 be 05 dd 3c be
       0.3605949 -0.35790786 -0.20557214 -0.18443687
0000a0 24 fd a3 be fc 33 76 be 89 00 c1 bd 9d 56 96 be
       -0.32029068 -0.24043268 -0.0942393 -0.29362956
0000b0 d5 58 7d be a7 44 8f be 2a c5 c8 3c 17 8c 86 be
       -0.24740918 -0.27982065 0.024508078 -0.26278755
0000c0 2c 17 8c be 68 43 ec bc 48 1d 4a be 09 da 51 3e
       -0.2736143 -0.028840736 -0.19737732 0.2049333
0000d0 90 79 a8 3e a1 e1 61 3e 1f d6 51 be 1f c1 46 be
       0.32905245 0.22058727 -0.20491837 -0.19409607
0000e0 91 4a 8e be d2 12 bd 3c 01 7a 11 3e b6 30 8a 3e
       -0.27791265 0.023080263 0.14206697 0.26990288
0000f0 8b 0c b3 be 73 fd 93 be 44 c0 3a be 3d 93 aa bd
       -0.34970507 -0.28904304 -0.18237406 -0.08328865
000100 78 fe fc 3d 48 86 ba 3d c9 f7 78 be 39 3d 9a bd
       0.123532236 0.09107643 -0.24313273 -0.075312085
000110 de 3f 0b bf 3c 72 15 3e f9 43 4e 3e 4d 59 77 3e
       -0.5439433 0.14594358 0.20143117 0.2415516
000120 af 84 9e be cc e0 44 bc 1e d2 5b be 90 d9 65 be
       -0.30960605 -0.012016486 -0.21466872 -0.22446275
000130 c8 be 09 3e c6 0e ab be 79 42 8c 3e 32 ed 85 3e
       0.13451684 -0.3340971 0.27394465 0.26157528
000140 74 08 16 bd fc 0c 01 bf 11 68 3b bf 42 05 34 bf
       -0.036629155 -0.5041044 -0.7320567 -0.7032052
000150 1a f5 bf 3e ed 74 46 3e 95 7a 2a 3c 14 e2 cd be
       0.37491685 0.19380541 0.010405202 -0.40211546
000160 b7 d9 e6 be f4 f8 0c bf 15 90 fc 3e d5 05 b0 3e
       -0.45087978 -0.5506737 0.49328676 0.3437945
000170 02 2f 83 3e cd 4c 48 be 04 a8 02 be f5 dc 03 bf
       0.25621802 -0.19560547 -0.12759405 -0.5150903
000180 07 9c 05 3e cf f6 69 3d be 12 53 bb 50 e9 2e 3d
       0.13047801 0.05712014 -0.0032207216 0.042702973
000190 ff da c4 3d 91 63 c6 bd d4 2a 4c be 17 e2 4c 3b
       0.09612083 -0.096869595 -0.19938213 0.003126269
0001a0 df 95 5d be 4b bb 9c 3e c2 16 96 3d c7 2d 80 be
       -0.21639203 0.30611643 0.073285595 -0.25034925
0001b0 2d 00 d0 3e 84 c3 98 3e 2b 9e e5 bc 4f ca ee 3d
       0.40625134 0.29836667 -0.028029522 0.11659681
0001c0 f5 41 e7 bd cd 43 7e bf 3d ff 01 be 55 87 8a 3d
       -0.11291877 -0.99322206 -0.12695022 0.06764094
0001d0 d1 4f 10 3e 4d f3 cd 3c bf 27 04 3d ba 19 10 be
       0.14092948 0.025140429 0.032264467 -0.14072314
0001e0 c7 9a 85 be c1 5b d1 3b 7a 90 bd be 8f 77 4f bb
       -0.26094648 0.0063891117 -0.3702429 -0.0031656956
0001f0 ad 8e de 3c ae 78 8e 3d 4a a9 6f 3c ce 05 61 3d
       0.027167642 0.069566116 0.014627764 0.054937176
000200 92 d0 0c be d3 d5 2f bd fa 47 8b 3b ec 22 2c bf
       -0.13751438 -0.042928528 0.0042505236 -0.67240787
000210 fd 6d 88 bd bb 36 37 3d e7 0e a3 be 50 3f e4 be
       -0.066616036 0.04472993 -0.31847307 -0.44579554
000220 0a e4 42 be d2 02 36 bf 97 1b 93 bd 76 01 6b 3d
       -0.19032302 -0.71098053 -0.07182997 0.05737444
000230 6c 0e 53 bd 77 75 93 3e 2f 74 12 3d 22 18 bf be
       -0.051527426 0.28800556 0.035755333 -0.373231
000240 c6 0d 41 bf 90 7e 8b be 99 ad bd be b8 02 30 3e
       -0.7541164 -0.27244997 -0.37046507 0.17188537
000250 ad c4 80 3e af da d9 3c 1d 18 63 bd f0 86 14 be
       0.25150052 0.026593534 -0.055442918 -0.145046
000260 7c 65 49 3e 10 e2 d8 3e a9 d3 96 3e cb 77 de 3e
       0.1966762 0.42359972 0.2945836 0.4345077
000270 81 89 19 be ed ae 27 be e8 94 a0 bd 3c 0c 46 3d
       -0.1499386 -0.16375323 -0.078409016 0.04835151
000280 f4 6c bc 3d a9 e3 50 3e f9 cc 07 bf 06 14 fc be
       0.09200469 0.20399345 -0.5304714 -0.49234027
000290 ad 2a 2c be ed ae 44 3e fd 8f 98 be 68 34 10 bf
       -0.16813155 0.19207354 -0.29797354 -0.56329966
0002a0 c1 48 9e 3e 7a a3 96 3e b8 7f c1 3e dc 11 e8 be
       0.30914882 0.29421598 0.37792754 -0.45326126
0002b0 90 17 2b be ee 1d 62 be 7b 91 01 3b 4c 4d 62 bc
       -0.16708207 -0.2208173 0.001977055 -0.013812374
0002c0 1a cf 3e be 89 ac 3f 3e 0b d4 de 3d 70 e0 b4 3e
       -0.1863369 0.1871816 0.10880288 0.35327482
0002d0 a3 62 c0 3e 31 66 2b 3e cc 0a c3 bd 76 68 9a be
       0.37575254 0.16738202 -0.09523544 -0.30157822
0002e0 02 65 d9 bd 5c 14 e1 be 4b 80 f1 be c4 98 1c bd
       -0.10614969 -0.43960845 -0.47168192 -0.038231626
0002f0 b7 83 2b bf 96 0f d5 be 5e c0 65 be 8a 7b 67 3e
       -0.66997856 -0.41613454 -0.22436664 0.2260572
000300 b5 f3 05 bf 83 b2 db be 87 35 00 bf e2 17 11 be
       -0.5232499 -0.4290963 -0.50081676 -0.14169267
000310 c4 99 a3 3e 81 7e 90 3e 8d 11 0b be c3 18 e0 3d
       0.3195325 0.28221515 -0.13580914 0.10942223
000320 0a 79 89 3e f2 f3 d6 3e f1 f8 cd 3d 3c 64 81 bd
       0.26850158 0.4198299 0.100572474 -0.06317946
000330 3a 07 db bd af 1c 08 bd 64 cd f8 3d 19 35 5f 3e
       -0.10694738 -0.03323048 0.1214855 0.21797599
000340 97 d4 e9 3d 49 4b 77 3e a5 0f 1e be 26 7b 80 bb
       0.114175014 0.24149813 -0.15435655 -0.0039209304
000350 f4 a6 a7 bd 7b 32 da be bd 27 37 bd b2 a7 a0 be
       -0.08186141 -0.4261664 -0.04471563 -0.3137794
000360 f5 00 3a 3e fb 8b 83 3d 94 a1 9c 3e 0b 14 6e be
       0.18164428 0.064231835 0.30592024 -0.23249833
000370 ec 64 26 be 68 52 79 be a3 f3 64 bd 0a 68 19 3e
       -0.16249436 -0.24347842 -0.055896413 0.14981094
000380 9a 5f a0 3e be 36 2e 3e c3 7d 31 3e 04 ee 7f 3d
       0.31322938 0.1701307 0.1733313 0.06248285
000390 bb be e1 3c 44 f7 be bc 1a 6d 2b 3d 4c 79 92 be
       0.027556768 -0.023311265 0.041852094 -0.28608167
0003a0 b7 04 d3 be a9 c4 17 bf 30 36 7b bf 25 e9 96 bf
       -0.41214535 -0.59284455 -0.9812956 -1.17899
0003b0 9d bb a5 bf bc a9 0e be 48 c8 3d be 60 95 42 be
       -1.294788 -0.13931936 -0.18533432 -0.19002295
0003c0 2b 26 66 be dc b6 bf be 27 de cb be 1d 2f 1a 3e
       -0.22475497 -0.37444198 -0.39817926 0.15057035
0003d0 e2 9c 3b be 09 ce f8 be 41 c1 d7 be cf 88 bf be
       -0.18321565 -0.48594692 -0.4213963 -0.37409064
0003e0 83 83 89 be 4b 68 75 3e 46 a7 9a 3e 16 02 9d 3e
       -0.26858148 0.23965566 0.30205745 0.30665654
0003f0 c2 2b 9a 3e 43 d7 52 3e 81 94 28 3f 8b 41 eb bd
       0.3011151 0.20589928 0.658516 -0.11487111

conv2.bias f4 [64]
000000 7a 18 32 bd 4f d4 2b 3d 4d 67 43 3c 79 09 c1 bc
       -0.043480374 0.04195052 0.011926484 -0.023564087
000010 38 32 b4 3d 61 1c e0 3b a5 5f 47 3d 9b 96 27 3d
       0.08798641 0.0068393205 0.048675198 0.040915113
000020 73 19 e9 3c 6e bf 2a bd 2f ca 4c 3d df 38 7d 3c
       0.028454518 -0.041686468 0.049997505 0.015455454
000030 49 88 7b 3d f3 b7 77 be 35 42 9d 3c 1f 0e 47 3d
       0.06140927 -0.24191265 0.019196609 0.04859745
000040 d3 7e 06 3d 62 f0 0b be 88 35 38 bd c5 43 61 3d
       0.032835793 -0.13665918 -0.044972926 0.05499627
000050 fa 93 c9 3d 73 3f a5 3c bb 9f 3c be 90 13 f4 bd
       0.098426774 0.020171857 -0.18420307 -0.11917794
000060 95 e7 5c bd 4d ee 12 bd 22 e5 11 3d 12 80 ac 3c
       -0.05393179 -0.035871793 0.03561891 0.021057162
000070 41 9f 5d 3d ee 48 70 3c 63 e1 e2 3c 52 0a 8f 3d
       0.054106954 0.014665825 0.027695363 0.0698439
000080 e7 ee 28 3d 75 fa 1d bd 2f 58 15 bd 9e e9 0d be
       0.04124346 -0.038568933 -0.03646105 -0.13858649
000090 4e f7 70 3d 07 0b e4 3b 94 3f f4 bd 95 94 dc bd
       0.058829598 0.0069593224 -0.11926189 -0.10770527
0000a0 8d 1e d9 3c 64 84 d7 bc 3d ff 32 3d 3f bc b8 3b
       0.026503826 -0.026308246 0.043700445 0.005637675
0000b0 a7 1b a1 3c 44 79 9f bd ba 51 49 3d f2 a1 bb bd
       0.019666506 -0.077868015 0.049150206 -0.09161748
0000c0 d0 45 58 3d b8 48 5c bd 59 56 43 bc 89 7e 6c 3c
       0.052800953 -0.053780288 -0.011922442 0.014434465
0000d0 db 0f 8c 3d d0 02 93 3d 71 0a fc 3b ee d7 3c 3e
       0.06838962 0.07178271 0.0076916744 0.18441746
0000e0 1d a5 5c 3e da 81 1f 3d 02 7b f8 bc d7 cc 64 bd
       0.2154736 0.038942195 -0.030332092 -0.055859413
0000f0 82 ae 6a 3d e9 41 71 bc bd a5 b6 3c ae ed 86 bd
       0.05729533 -0.014725187 0.022295827 -0.065883026

BN2.weight f4 [64]
000000 f4 84 ae 3f 6f 5c 94 3f aa 1a a2 3f 71 f8 aa 3f
       1.3634324 1.1590708 1.2664387 1.3357068
000010 42 31 8d 3f c9 5b aa 3f ec bb 59 3f 61 e1 8c 3f
       1.1030657 1.3309261 0.8505237 1.100628
000020 04 f7 a5 3f 4a dc aa 3f e2 0c 93 3f 51 13 a0 3f
       1.2966008 1.3348477 1.1488307 1.2505895
000030 39 10 af 3f 6d d9 c1 3f 00 08 98 3f 9b 24 8d 3f
       1.3676826 1.5144478 1.1877441 1.1026796
000040 d1 d1 b3 3f fa d6 b3 3f 21 d9 e5 3f 4b dc 1e 40
       1.4048406 1.4049981 1.7956887 2.4821956
000050 30 c8 a0 3f f4 23 b7 3f bd 86 12 40 4f 60 a9 3f
       1.2561092 1.4307847 2.2894738 1.3232516
000060 58 4a b0 3f 52 9e 05 40 86 86 bd 3f 7e 3e b0 3f
       1.3772688 2.087788 1.4806678 1.3769071
000070 48 6a bd 3f 17 21 ad 3f 26 c1 c0 3f 7c 76 9d 3f
       1.479806 1.3525723 1.5058944 1.2301784
000080 4b da c3 3f 96 15 be 3f 80 93 a6 3f d4 d2 b0 3f
       1.5300993 1.4850338 1.3013763 1.381434
000090 b6 0c fb 3f c5 bf 8c 3f 15 b1 49 3f 63 1a 9a 3f
       1.9613254 1.0996023 0.7878583 1.2039303
0000a0 a0 ec 8a 3f 61 39 82 3f 6c e7 9e 3f de 5a 03 40
       1.0853462 1.0173761 1.2414374 2.052421
0000b0 b7 bc d5 3f 2b c9 b1 3f 7f 2b c9 3f 18 3f 77 3f
       1.6698216 1.3889517 1.5716399 0.9658065
0000c0 4e d8 db 3f 76 23 9b 3f 38 14 a9 3f 89 82 b3 3f
       1.7175386 1.2120197 1.3209295 1.4024211
0000d0 54 6a c8 3f 91 0d 7c 3f 3b 7c a3 3f dd 27 a1 3f
       1.5657449 0.984582 1.2772287 1.259029
0000e0 77 d8 90 3f 14 bd bb 3f 26 21 9b 3f 11 56 8d 3f
       1.131606 1.4667077 1.2119491 1.104189
0000f0 d4 9e cc 3f 6c e7 be 3f 5b 39 f0 3f 94 3f a3 3f
       1.598597 1.4914374 1.8767503 1.2753778

BN2.bias f4 [64]
000000 b7 0e 2f bf bc 03 1b bf 37 28 24 bf 28 1e 33 bf
       -0.6838183 -0.60552573 -0.64123863 -0.6996789
000010 0e 1b 1f bf dc 38 33 bf 9d 5c e2 be 2b 7a f8 be
       -0.6215066 -0.70008636 -0.44211283 -0.48530707
000020 57 ab 2f bf 90 1c 2e bf a4 2e 0c bf c1 b8 26 bf
       -0.6862082 -0.6801233 -0.5475867 -0.6512566
000030 02 09 26 bf 3d 7f 38 bf 25 5c 12 bf 11 99 fd be
       -0.64857495 -0.7206915 -0.5717185 -0.49530843
000040 96 7c 19 bf 6b 70 3a bf 61 e7 98 bf 38 0e ee bf
       -0.5995573 -0.72827786 -1.1945611 -1.8598089
000050 ce 3c 12 bf 79 b0 3f bf 1f dd c9 bf a2 90 17 bf
       -0.5712403 -0.7487865 -1.5770606 -0.5920507
000060 d0 2f 23 bf 47 99 ab bf 24 ce 43 bf 66 3e 31 bf
       -0.6374483 -1.3406152 -0.7648642 -0.6923584
000070 86 77 47 bf 34 14 11 bf 7e c3 42 bf c4 d9 1f bf
       -0.77916753 -0.5667145 -0.7607955 -0.6244166
000080 8a 29 84 bf 95 b8 4f bf e4 99 1a bf c7 0d 25 bf
       -1.0325177 -0.81141025 -0.6039107 -0.6447415
000090 46 5a 93 bf 47 1f ef be ca 7d f0 be 3d 8d 1c bf
       -1.1511924 -0.4670355 -0.4697097 -0.6115301
0000a0 b7 da fd be 98 6f e9 be dc fa 29 bf 3f 12 c5 bf
       -0.4958093 -0.45592952 -0.66398406 -1.5396193
0000b0 75 7b 61 bf 5b 94 3a bf 66 00 60 bf 2b 93 fa be
       -0.88079005 -0.7288262 -0.8750061 -0.48940405
0000c0 af 4b 50 bf 37 0e 2e bf f5 64 33 bf ba 5b 39 bf
       -0.81365484 -0.6799044 -0.70075923 -0.7240559
0000d0 fa 16 5b bf 88 7e f8 be d4 8b 1b bf f9 9f 28 bf
       -0.85581934 -0.48534036 -0.60760236 -0.658691
0000e0 91 4a 02 bf 67 ab 3c bf 81 ca 0a bf 74 9a 06 bf
       -0.5089503 -0.7369904 -0.54215246 -0.52579427
0000f0 c9 62 85 bf 33 95 4f bf 71 2c 99 bf d9 c1 0e bf
       -1.0420772 -0.81087035 -1.1966687 -0.5576454

BN2.running_mean f4 [64]
000000 90 bc bb bf c0 75 02 c0 dd ad e0 bf 25 0a db bf
       -1.466692 -2.038437 -1.7553059 -1.7112471
000010 1b 9b 1d c0 dd 3c ae bf f3 ec 8c bf 39 83 98 bf
       -2.462592 -1.3612324 -1.1009811 -1.1915046
000020 76 5c 89 bf 32 36 b6 bf 67 43 13 c0 98 3b de bf
       -1.0731342 -1.4235289 -2.300989 -1.7361937
000030 4f 06 f1 bf 27 a8 8e bf 01 d0 02 c0 85 43 4b bf
       -1.883005 -1.1145066 -2.0439456 -0.793999
000040 09 32 86 bf 82 00 d2 bf 94 bb 62 bf f7 cc 39 bf
       -1.048402 -1.6406405 -0.8856747 -0.72578377
000050 27 ed df bf d6 81 fa bf c3 6a 90 bf c6 1a eb bf
       -1.7494248 -1.9570873 -1.1282581 -1.8367546
000060 09 01 07 c0 9f 34 61 bf ba f7 bb bf 1b 8b cf bf
       -2.1094382 -0.8797092 -1.4684975 -1.6214327
000070 f1 06 8f bf 3d 63 b7 bf 3d 91 c0 bf f5 fe e3 bf
       -1.1173993 -1.432716 -1.5044323 -1.7812182
000080 2a 52 71 bf cd 89 93 bf a8 9d c1 bf 7e 20 e5 bf
       -0.94266 -1.1526428 -1.5126238 -1.7900541
000090 4e 12 50 bf ca f2 44 c0 5c 05 d0 bf db a0 97 bf
       -0.8127793 -3.0773187 -1.6251636 -1.1845964
0000a0 68 84 eb bf 09 31 08 c0 42 29 a3 bf 2b aa 48 bf
       -1.8399782 -2.1279929 -1.2746966 -0.78384656
0000b0 57 d4 b6 bf 75 ec 82 bf b0 10 8f bf 24 29 1f c0
       -1.4283551 -1.0228411 -1.1176968 -2.486886
0000c0 18 2e a9 bf 6f 4f c5 bf 22 a4 04 c0 f9 e9 c3 bf
       -1.3217192 -1.5414866 -2.0725179 -1.5305778
0000d0 29 09 c4 bf 5f b7 c1 bf 06 63 d2 bf b7 eb 43 bf
       -1.5315295 -1.5134085 -1.643647 -0.7653155
0000e0 21 a8 16 c0 6c 18 cf bf 9b 2e 2b c0 3c 98 f2 bf
       -2.3540118 -1.6179328 -2.6747196 -1.8952708
0000f0 9b f1 1e bf 9c 16 b9 bf 1a 92 48 bf 47 89 af bf
       -0.6208741 -1.4460025 -0.78347933 -1.3713769

BN2.running_var f4 [64]
000000 26 77 3e 41 f2 b0 91 41 e5 a1 86 41 05 e8 34 41
       11.904089 18.2114 16.82905 11.306645
000010 2d 26 63 41 d0 f4 6a 41 73 75 3e 41 44 25 28 41
       14.19682 14.684769 11.903674 10.509098
000020 ba 7d ce 40 75 2b 67 41 9e 05 9d 41 72 64 82 41
       6.4528475 14.44811 19.627743 16.299046
000030 39 c8 63 41 9b f5 96 40 09 3c e4 41 d9 f4 6f 41
       14.2363825 4.717481 28.529314 14.997277
000040 ff 97 84 41 45 a2 1c 41 db 75 6e 40 19 f8 65 40
       16.574217 9.789617 3.7259433 3.5932677
000050 3e 43 93 41 c0 75 81 41 3d 47 94 40 9c 9d 4e 41
       18.407833 16.182495 4.633696 12.913479
000060 94 eb af 41 07 5a ad 40 d6 3c 36 41 71 c1 37 41
       21.990028 5.4172397 11.389853 11.484727
000070 3f 1c 5f 41 08 cf 80 41 f8 0f 45 41 80 4e 49 41
       13.944396 16.10109 12.316399 12.581665
000080 50 8e 92 40 5b 7c c5 40 9b aa 41 41 8f d1 5f 41
       4.579872 6.17143 12.104152 13.988662
000090 ed a9 8b 40 fd 55 da 41 85 48 51 41 84 25 ef 40
       4.364493 27.291986 13.080205 7.4733295
0000a0 49 13 69 41 dd f0 a3 41 18 18 07 41 0d f4 70 40
       14.567208 20.492609 8.443382 3.7648957
0000b0 42 09 04 41 6e 50 c1 40 29 79 d7 40 3e b2 eb 41
       8.25226 6.041068 6.73354 29.462032
0000c0 63 c9 33 41 df cf 43 41 54 1d 36 41 35 03 34 41
       11.236667 12.23825 11.38216 11.250783
0000d0 18 70 56 41 7e 13 77 41 3a 2c 88 41 fd ba 4e 41
       13.402367 15.442259 17.021595 12.920651
0000e0 87 b5 c3 41 26 ed 41 41 ba a7 a4 41 e1 5b 56 41
       24.463636 12.120398 20.581898 13.397431
0000f0 05 fc 4a 40 60 0e 0d 41 04 a6 56 40 05 41 9c 41
       3.171632 8.8160095 3.3538828 19.531748

fc1.weight f4 [128, 1024]
000000 ef cd b4 ba 3f a6 fb bc f1 b4 4d bc 7b d7 a7 bc
       -0.0013794283 -0.03071892 -0.012555347 -0.020488491
000010 7f bf 4c ba 01 dd 1b bc e0 4b 11 bd 5e aa 00 bc
       -0.00078105176 -0.009513141 -0.03547275 -0.007853119
000020 64 3e f0 bc 6d f1 8e bc 85 d9 16 3c 01 5d c2 3c
       -0.029326625 -0.017449105 0.009207134 0.023725988
000030 f9 a5 b0 3b 4a 35 8f 3c 86 cb 9b 3c 1c 41 11 bd
       0.005390879 0.017481465 0.019017946 -0.035462484
000040 8d 9f 4e bc 30 2b 5c bc 53 92 1b 3c fe 09 83 bc
       -0.012611282 -0.013438031 0.009495336 -0.015995976
000050 ad 0b 31 ba a2 c5 29 bc 3b 82 49 bc f3 50 62 3c
       -0.0006753754 -0.010362061 -0.012299116 0.013813245
000060 ee 9b 63 3c 74 eb 00 bc ad 10 e7 bc 1a e7 8f 3b
       0.013892157 -0.007868636 -0.028206194 0.004391563
000070 d2 97 d7 ba eb 4e e5 bc 8c 8d 9b bc 87 5d 4b 3b
       -0.0016448444 -0.027991733 -0.018988393 0.0031031088
000080 ea 1c 89 3a 5b 74 ba bc 79 4f 7b 3c ed 57 7b bc
       0.0010460888 -0.02276056 0.015338772 -0.015340787
000090 57 ad 47 3c bf 22 a4 bc 90 63 ef bc 26 a7 d2 3a
       0.0121873235 -0.0200361 -0.02922228 0.0016071543
0000a0 e4 cd c9 3c 5d 3f 58 3c 7c 14 ad bc ff d1 f5 bc
       0.02463431 0.013198701 -0.021127932 -0.03000736
0000b0 32 3a 55 bc 13 5b 8b bc 2b b4 c6 3b 47 cc 0c bd
       -0.013014363 -0.017011201 0.006063958 -0.0343745
0000c0 c9 06 88 bc 32 14 2b bc 21 30 74 3c 2b 5d c6 3b
       -0.016604798 -0.010441827 0.014904053 0.006053587
0000d0 10 eb b6 3c ac cd 99 bb c4 bb a0 bc 3a 89 0a 3b
       0.022328883 -0.0046937075 -0.019620784 0.0021138922
0000e0 40 02 25 bb 77 f0 06 bd 47 a0 d6 bc dd 4b ff bc
       -0.0025178343 -0.03294417 -0.026199473 -0.031164104
0000f0 b0 f1 59 bc ec 71 0a bd 79 9c 07 bb 19 79 62 3c
       -0.013302252 -0.03380005 -0.002069263 0.013822817
000100 da 70 21 3c 02 5f bb 3c 54 8c 84 bc ad b3 b2 bc
       0.009853566 0.022872452 -0.016180195 -0.021814192
000110 9d 0b a9 bb 7d 47 f1 bb f2 9f 9f 3c a7 c2 0a bd
       -0.005158855 -0.0073632584 0.019485448 -0.03387704
000120 2e e0 15 bd d3 af f5 bc c5 19 a2 bc 58 8c 28 3c
       -0.036590748 -0.029991066 -0.019787678 0.010287367
000130 7b 58 65 bc 9c 3f a0 3b 71 32 ec bc 85 31 ca 3c
       -0.013998146 0.0048903953 -0.028832646 0.024681816
000140 4b 9d 32 3b 39 0f 3e 3b 71 95 c6 3c 89 d0 09 3c
       0.0027254398 0.0029000773 0.024241181 0.008411535
000150 40 cb 95 3b 44 41 03 bc a8 84 07 3b 27 a2 06 bc
       0.0045713484 -0.008011166 0.0020678435 -0.008217371
000160 25 a8 a9 bb f5 42 df bc 89 6f 93 3c cc 25 2b 3c
       -0.005177515 -0.027253607 0.01799752 0.010446023
000170 94 81 b9 bc 1a f7 95 3c 49 37 ba bc 41 99 17 bc
       -0.022644795 0.018306304 -0.02273144 -0.009252847
000180 f8 e4 86 bc be 44 17 3c ff a6 3c 3b 1a 8c a5 bc
       -0.016466603 0.009232698 0.002878606 -0.020208407
000190 7a 62 92 3b 62 75 c4 3b 7d d4 c0 ba 18 f9 28 3c
       0.0044673057 0.0059954384 -0.0014711764 0.010313295
0001a0 54 c4 2d bc c6 ea 2b 3c 49 60 bf 3c 08 c3 9d bc
       -0.01060589 0.010492986 0.023361342 -0.019258037
0001b0 b4 6e f5 3b d0 47 ec 3b 26 2c b8 bb dc 32 6f bc
       0.0074900035 0.007210709 -0.0056204973 -0.014599528
0001c0 b6 91 17 3c 74 ce 37 3c 64 6f 78 3c 80 c7 3f bc
       0.009251049 0.011218656 0.015163276 -0.011705279
0001d0 07 6e 09 bd 18 28 8b bc 34 dc 0b bd 14 35 c4 3c
       -0.033552196 -0.016986892 -0.03414555 0.02395109
0001e0 f6 d4 10 bd 9b a7 3e 3c f0 3b d3 bc 1d 1f 04 bd
       -0.035359345 0.01163664 -0.025785416 -0.032256234
0001f0 24 14 23 3c e8 d7 f8 bc ba 78 e5 bc 14 f8 9f 3a
       0.009953532 -0.03037639 -0.028011668 0.001220467
000200 46 d1 02 bd 0c c5 9f 3c a6 e5 ac ba 01 df bf bb
       -0.03193786 0.019503139 -0.0013190999 -0.0058554416
000210 f5 d3 b4 3c db e6 aa bc 75 44 be bc 13 60 53 bb
       0.022073725 -0.020862034 -0.023226002 -0.003225331
000220 d1 eb 59 3c 0d 4b cb 39 f2 1d 1a 3c f3 f4 13 bd
       0.013300852 0.00038775094 0.009406554 -0.036122274
000230 02 4d 40 bc b8 5b fa b9 d0 1c 29 3c 46 af ac bc
       -0.01173711 -0.00047752052 0.010321811 -0.02107967
000240 80 14 b4 bc 03 01 e3 ba c0 78 25 bc cd c1 7f bc
       -0.021982431 -0.0017319027 -0.01009959 -0.015610171
000250 a7 cb 95 3c ba 87 a9 bc 57 46 0c 3c f9 9f 96 3c
       0.018285586 -0.020694602 0.008561692 0.018386828
000260 9f ac af bc 6e a0 8e 3c 14 ca c2 3b 89 9b 85 bb
       -0.021444617 0.017410483 0.0059444997 -0.004077379
000270 d5 38 0d bd f6 04 84 3b 0e 6d 9e 3c 20 96 0f bc
       -0.034478027 0.0040289117 0.01933911 -0.00876382
000280 5a 7e 97 3c 96 f2 ce bb 6f 45 59 bc 20 1f 70 bc
       0.018492866 -0.0063155396 -0.013261183 -0.014655858
000290 5d 8d 05 bc f8 33 9b bc 1e ac ae bb 9e 50 d1 bb
       -0.008151379 -0.018945679 -0.0053305766 -0.006387784
0002a0 61 38 03 bd fb ad a8 bc 8a cb ba 3c 07 c1 c0 bb
       -0.03203619 -0.020590773 0.022802133 -0.0058823857
0002b0 1e df c5 bb fe b3 1a 3c 7f 50 93 3c 7a 4a 17 bd
       -0.0060385605 0.009442328 0.01798272 -0.03693626
0002c0 e4 a5 0f bd a0 a2 0b bc 7f 72 8d bc 66 a1 02 bd
       -0.035070315 -0.00852266 -0.01726651 -0.031892203
0002d0 fc 93 f8 bc 7f 30 cc 3b 9d 9a 32 3c 5e 0f 01 bc
       -0.030344002 0.006231367 0.0109011205 -0.007877199
0002e0 7e 32 6e bb 79 6f e5 bc 13 d1 df bc 83 af 07 bd
       -0.0036346014 -0.028007256 -0.027321374 -0.033126365
0002f0 c6 c5 f3 bb 14 14 12 bd 57 c7 d2 bb 3d 1e 87 3c
       -0.007439348 -0.03566368 -0.0064324546 0.01649391
000300 2e a1 90 bc 10 18 04 bd 07 88 c6 bc 5b 57 0f 3c
       -0.017654981 -0.03224951 -0.024234785 0.0087488545
000310 71 c3 c4 bc 44 b4 c0 bc 4a 5c b4 bc 54 46 b1 bc
       -0.024018975 -0.023523457 -0.022016663 -0.02163998
000320 d1 fa 93 3c 36 12 81 bc ae ed bb 3c 0e 73 0e 3c
       0.018063935 -0.015755754 0.022940483 0.008694423
000330 d5 93 2e bc 4d 7e 01 bd 3b 41 8c 3c 23 19 ac 3c
       -0.010655363 -0.03161459 0.017120948 0.02100808
000340 03 1d 22 bc fe 5c 9e 3c 1b 73 3f bc 65 54 08 bd
       -0.009894612 0.019331452 -0.011685158 -0.03328361
000350 6d a9 10 bd ee c5 84 bc ce 76 95 3b 0f d2 7e 3c
       -0.035317827 -0.016207661 0.0045612818 0.015553012
000360 af 22 ab 3c f5 83 be 3c 6f 4d c4 3b a0 6c 02 bd
       0.020890562 0.023256281 0.005990676 -0.031841874
000370 6f 7c b7 3b cf 15 f8 bb 90 69 54 bc 25 eb 9c 3c
       0.0055995504 -0.007570959 -0.012964621 0.019155094
000380 e5 1b db bb 11 97 b4 bc a1 35 b3 3c 71 3f 43 3c
       -0.006686675 -0.02204469 0.021876158 0.011916981
000390 d3 c1 ca ba fe 46 95 3c 51 1c fa bc 14 df d0 bb
       -0.0015469141 0.018222328 -0.03053108 -0.0063742492
0003a0 a8 10 05 bd d9 dd 33 bb f1 7c 3f 3b 53 8e 89 ba
       -0.032486588 -0.0027445464 0.0029218758 -0.0010494686
0003b0 d3 a9 03 bd 67 88 d7 bc 1c 5a 0d bd b0 8e a4 3c
       -0.03214438 -0.026310159 -0.034509763 0.02008757
0003c0 ec f6 9a bc 7f 4f 91 3c 7a 1f fb bc de 63 8f ba
       -0.01891657 0.017738102 -0.030654658 -0.0010939797
0003d0 ab 5c b5 3c ef b7 47 bc 84 fa df bc 40 de 23 bc
       0.022138914 -0.012189849 -0.027341135 -0.010001719
0003e0 f6 4b 92 3b e1 56 41 bc da 4a 36 3b f8 fa 7e bb
       0.0044646217 -0.011800499 0.002781561 -0.0038906913
0003f0 92 a6 fe bc 2d 08 28 bc 57 95 94 bc 20 e9 af 3c
       -0.031085286 -0.0102558555 -0.018137617 0.021473467

fc1.bias f4 [128]
000000 65 16 28 3c a1 9b 7f bd 25 69 33 3e 05 4b 4f 3e
       0.0102592455 -0.06240428 0.17520578 0.20243461
000010 99 b6 dd 3b c8 16 26 bd 06 23 a7 3a 2f 4c 11 bd
       0.006766152 -0.04054907 0.0012751527 -0.035473045
000020 9c a2 7c bc 15 38 0d 3b f4 90 1d bc 3e 04 e3 3d
       -0.0154196285 0.002154832 -0.009617079 0.110847935
000030 36 82 5f 3c cb 73 5e bd a6 5f ae 3d a3 3e d1 3b
       0.013641885 -0.054309648 0.08514337 0.0063856407
000040 a4 12 ce bc 20 d7 93 bc 49 03 2c 3d b7 7c 12 bd
       -0.025155373 -0.018046916 0.04199532 -0.03576347
000050 af 50 b4 bd dd 82 5f bc 3c 4c a7 3e 0f b0 60 bc
       -0.08804452 -0.01364204 0.3267535 -0.013713851
000060 4b 8b 20 bc 59 10 54 3e df 8c a5 bc 0c 84 f2 3d
       -0.009798835 0.20709361 -0.020208774 0.11841592
000070 2d 16 c1 bc a8 3c 72 bc db 7e c4 bc ae 58 12 bd
       -0.023570145 -0.014784969 -0.02398627 -0.035729103
000080 f8 ec 81 3c 60 0b 8b 3b bb 29 55 bd e3 9d 92 bb
       0.015860066 0.0042432994 -0.05204175 -0.004474388
000090 09 c3 9e 3e 5c 90 0d bd ab 99 43 bc 3b 9b ed bc
       0.31008175 -0.0345615 -0.011938493 -0.029004684
0000a0 f3 a6 2b bc 86 e3 55 bc 10 5a 26 3c dc a8 96 3b
       -0.0104768155 -0.013054734 0.0101533085 0.0045977663
0000b0 3b ce 40 3e a9 0d b4 bc c5 c1 67 bc d9 bd af bd
       0.1882867 -0.02197917 -0.014145319 -0.085811324
0000c0 1c 47 07 3c 4e d3 be ba a3 e5 cd bc b0 c4 81 bc
       0.0082567 -0.0014558823 -0.025133913 -0.015840858
0000d0 4c db ea bb 16 ef 19 bd cc c5 73 3e b9 6a fb bc
       -0.0071672555 -0.037581526 0.23805922 -0.030690538
0000e0 1c f0 09 bd 03 73 16 bc 79 51 1d bc dd e1 48 3e
       -0.03367625 -0.009182694 -0.009601944 0.1961741
0000f0 c3 d1 c3 3d c3 c6 da 3a e9 83 51 3e e8 13 14 bd
       0.09561493 0.0016691316 0.20460476 -0.036151797
000100 13 61 ef 3a 35 83 28 3e 97 22 db 3b ea b4 00 bd
       0.0018263183 0.16456302 0.006687473 -0.031422533
000110 c2 46 e2 bb 06 a6 05 3c a3 b8 93 3c bd 58 54 3e
       -0.0069054076 0.008157259 0.018032378 0.20736976
000120 d1 8b 13 bd 63 c7 04 bd 03 2c 43 3c 3d bf ab 3b
       -0.03602201 -0.032416712 0.011912349 0.0052413032
000130 28 9f 71 bc 3e ea 26 3e ff ab e2 3b 53 31 38 bc
       -0.014747418 0.16300294 0.006917476 -0.011242229
000140 aa 8a 26 3e e9 38 28 3e 79 46 cc bc 34 9c d3 3d
       0.16263834 0.1642796 -0.024935948 0.10332528
000150 f9 f7 10 bd 9b 26 21 3c 0f f5 a4 bb cf 6c d4 bc
       -0.035392735 0.009835864 -0.005034096 -0.02593079
000160 4b 34 0a 3c 00 b8 ef bc 6b 8c 16 bd 2e fa 0e 3e
       0.008435319 -0.029262543 -0.036755007 0.13962623
000170 52 de 0f bd bb 92 87 bb 7a 94 51 3d 19 0b c1 bc
       -0.03512413 -0.0041373647 0.05116699 -0.023564862
000180 b5 de e0 bc db 78 fa bc b9 cb 04 3e 50 c1 98 bc
       -0.027449945 -0.030575207 0.12968339 -0.018646866
000190 05 41 77 3e 25 e3 e3 3d 81 ea 0d bd fb 7f 0f bc
       0.24145897 0.11127309 -0.03464747 -0.00875854
0001a0 e7 02 0a bd b3 6b 10 bd 1a 14 06 bc df 8e 4e bd
       -0.033694174 -0.03525896 -0.0081835035 -0.05042922
0001b0 11 66 9d 3e c2 3f 09 be f0 e0 82 3e b3 4e 38 bd
       0.30741933 -0.13403228 0.2556224 -0.04499693
0001c0 cb c7 bd bc d8 7f 02 3c ac 74 8d bd dd 11 87 bc
       -0.023166558 0.007965051 -0.06907019 -0.01648801
0001d0 c8 cd 74 3e 32 b5 49 3d 85 d2 e9 ba c4 d0 14 bd
       0.23906624 0.049245067 -0.0017839229 -0.036331907
0001e0 04 73 76 3e 3e 38 0e 39 60 63 15 bc ac 69 53 3e
       0.24067312 0.00013563127 -0.009117931 0.2064578
0001f0 ca 3a 91 bc e6 04 90 bc 11 f3 9c bc 28 77 6d 3e
       -0.017728228 -0.01758046 -0.019158872 0.23189986

fc2.weight f4 [4, 128]
000000 3b 8c 5d bd 5e 8f 41 3c 31 a5 14 3d 74 1f ab bf
       -0.054088812 0.011813967 0.03629035 -1.3368974
000010 2f c9 73 bd ee ae e3 3c aa f8 05 3d be 2f fa 3b
       -0.059518036 0.027793374 0.032707848 0.007635086
000020 0e 2b 83 3d c7 6d a3 bd 17 c0 83 3c e9 5e 47 3f
       0.064046964 -0.07979923 0.016082807 0.77879196
000030 d5 5e 17 bd fa 63 01 3c 7d 84 bc 3e 23 ce 15 3d
       -0.036955673 0.007897371 0.3681983 0.03657354
000040 0a a9 b1 3c 8c 9c af 3c 12 ae 51 3d 91 15 98 3c
       0.02168705 0.021436952 0.051191397 0.018564971
000050 21 05 27 bd 8f 96 7a bd 7c 23 c6 bf 8e 7c 47 3d
       -0.040776376 -0.06117874 -1.5479579 0.04870277
000060 19 97 39 bd 64 76 cc 3e 26 e8 b6 bc 09 51 48 3f
       -0.045310114 0.39934075 -0.022327494 0.7824865
000070 99 44 da ba 10 b8 a1 bd 21 74 cb bc 0c 1a 72 3c
       -0.0016652524 -0.07896435 -0.024835648 0.014776718
000080 ca cc 49 3c ad ba c4 3b 42 e1 50 3d 03 f0 e1 bd
       0.012316892 0.006003699 0.050996073 -0.11032107
000090 5c 41 4b 3f 6a d5 e0 bc 7a 58 66 bd 39 7e 24 bd
       0.79396605 -0.027445514 -0.05623672 -0.040159438
0000a0 75 00 89 bd 08 31 34 bc c8 aa 4a 3d 02 84 82 3d
       -0.0668954 -0.010998018 0.049479276 0.06372835
0000b0 3d b8 b9 bf 76 5b b4 bc 3e c7 9d 3d 24 9e 8a bd
       -1.450935 -0.022016268 0.07704018 -0.06768444
0000c0 d4 4a 8f bd 14 0a 86 3b bd dc 4d bd 92 e8 91 bd
       -0.06996694 0.004090557 -0.05025934 -0.071244374
0000d0 58 7c ac 3c 3b 73 15 bd 37 01 c2 3f 58 12 b0 bc
       0.021055385 -0.036486845 1.5156621 -0.021493122
0000e0 69 42 5e bb 15 a9 30 bc ab 50 73 bd 3a 20 01 3f
       -0.0033914095 -0.0107825 -0.059403103 0.504398
0000f0 c8 73 93 3f 10 a1 9e 3c 84 86 c7 bf 44 2a 0c bd
       1.1519709 0.01936391 -1.5587926 -0.034219995
000100 9a a2 22 bc 9e 1c e5 3e e0 07 98 bd 0b f1 0f bd
       -0.009926463 0.44748396 -0.07423377 -0.035141986
000110 6d 74 18 bc e3 6a 7a bd 78 34 e2 bc b1 1d b8 bf
       -0.009305102 -0.06113709 -0.02761291 -1.4384061
000120 8c c8 06 3d d6 31 15 3f 12 2c 38 3f 0f 53 f0 3d
       0.0329061 0.5827917 0.71942246 0.11734592
000130 48 e8 76 bd e6 36 40 3f 18 ea 87 3d 63 ad 9b bd
       -0.060280114 0.7508377 0.06636447 -0.0760143
000140 a3 d2 4a bf c9 69 81 be f3 62 2e bd 52 98 18 3e
       -0.79227656 -0.2527602 -0.042574834 0.14901856
000150 6c ab 6e bc 7d 7a 88 3c ec fe 53 bd 09 32 c2 3c
       -0.014567237 0.01665997 -0.051756784 0.0237055
000160 d4 1e 4e bd dd b2 a1 3d 80 33 a6 3c aa aa 8b 3f
       -0.05032237 0.078954436 0.020288229 1.0911458
000170 5f 79 00 bd 72 52 84 bd be 09 73 be 26 04 82 bc
       -0.03136575 -0.06461038 -0.23734185 -0.015871119
000180 fe 60 ab bc d8 db 85 bd b9 05 94 3d 0e d4 60 3b
       -0.020920273 -0.065360725 0.07227654 0.0034306082
000190 f2 46 80 3f 7b 8e 99 3e 3e ea 3c 3c 19 a6 c7 3b
       1.0021651 0.29991516 0.011530457 0.0060927984
0001a0 17 fb af bc 31 88 fb bc e6 ca a9 bd 18 d6 82 3d
       -0.021482034 -0.03070459 -0.08290653 0.063884914
0001b0 eb 01 02 c0 45 34 19 bd 42 1d ff bd 30 fe 24 3c
       -2.031367 -0.037403364 -0.12456752 0.010070369
0001c0 70 d6 19 3e 28 7c f5 bc 0e 79 ab bf 82 32 40 bd
       0.15023208 -0.029966429 -1.3396318 -0.046923168
0001d0 66 11 50 3f c0 23 48 3f 4a 64 09 3d 09 85 7d bc
       0.8127655 0.7817955 0.03354291 -0.015473613
0001e0 96 90 9d 3e f3 fd e7 bd 46 cc 97 bd 02 d8 b5 3f
       0.30774373 -0.11327734 -0.07412009 1.4206545
0001f0 47 1c 99 bd 53 6e 07 bd f6 4c 49 bd 79 97 e7 bf
       -0.074760966 -0.033064198 -0.04914566 -1.8093101
000200 aa 0c 87 bd ab 53 d8 bc de cf 80 3f d6 8d 56 3f
       -0.06594212 -0.026407083 1.0063436 0.83810174
000210 9c 2a d4 bc 63 db 47 bd 05 43 35 bd 66 57 58 bd
       -0.025899224 -0.048793208 -0.044253368 -0.052817725
000220 21 fd d1 3c bd 42 8a b9 75 0a ca 3c 2b ad d3 bf
       0.025633397 -0.00026371135 0.02466319 -1.6537222
000230 91 88 17 3d e0 39 3d bd 49 0b a6 bf c5 fa 7d 3d
       0.036995474 -0.046197772 -1.2972194 0.06200673
000240 2a d2 2d bd 8c ef 92 3c 7a c9 e4 3e 94 fc e6 3c
       -0.042436756 0.01793649 0.44684964 0.02819661
000250 b8 1d 1f 3c df d5 a2 3c ff 54 23 bf 63 f1 8d 3c
       0.009711675 0.019877372 -0.6380157 0.017327016
000260 7b e2 a0 bc bd 98 88 3f 34 b2 ac 3c f8 ea 1b c0
       -0.019639244 1.0671612 0.021081068 -2.4362164
000270 b7 af f9 bc f7 f8 98 3d 2c ad 7f 3c 4f 3f 0a 3c
       -0.030479295 0.07469361 0.015605252 0.0084379455
000280 cd bd 95 bd 00 48 5d 3c a2 82 1e 3d 5d 1c c2 bc
       -0.07311592 0.013505936 0.0386988 -0.023695165
000290 56 ac 5b be 15 1c c5 3c b0 22 79 bd 68 c6 6d bd
       -0.2145246 0.024061242 -0.060824096 -0.058050543
0002a0 e7 af 83 3c dd 8d fb bc 32 88 45 3d 5a cc 29 bd
       0.016075088 -0.030707294 0.04822559 -0.04145465
0002b0 96 2a 45 3f 14 e9 7a 3a f1 e2 0c bd df d6 a5 bd
       0.77018106 0.00095714745 -0.034396116 -0.08097624
0002c0 29 2d 8f 3d ef 25 5b 3d 33 a3 6d bd 42 62 88 bd
       0.069910355 0.053502973 -0.058016967 -0.06659366
0002d0 89 96 98 3c 9e c2 d1 bb fc e9 50 3e 07 e8 1a bd
       0.018626468 -0.006401374 0.20401758 -0.037818935
0002e0 51 89 b8 3c ff b2 97 3c 10 c3 57 3d c9 79 bd bf
       0.022526415 0.01851797 0.05267626 -1.4802791
0002f0 53 a3 51 be 93 3e 43 3d 09 a0 a5 3e aa e8 95 bc
       -0.2047246 0.047667097 0.3234866 -0.01829942
000300 48 fe 57 3d fc 66 00 c0 c1 8c 5b bd 27 2b 70 bd
       0.052732736 -2.0062857 -0.05360103 -0.058634903
000310 38 1c 14 bd 6e c7 56 3d 63 bc f9 bb 50 d0 bc 3e
       -0.036159724 0.052436285 -0.0076213344 0.3687768
000320 6c 13 1a 3d ee b4 6e bf 59 ef af be 96 ce c9 bf
       0.03761618 -0.93244827 -0.34362295 -1.576617
000330 7d 4c 89 3c ce d1 d4 be 9b c4 84 3c 55 da 6d 3d
       0.016760105 -0.41566318 0.01620703 0.058069546
000340 a8 24 8e bf 63 23 fe bf 86 7c 2b bd 71 2d 90 bf
       -1.1104937 -1.9854549 -0.0418668 -1.1263868
000350 fc 39 82 3d 89 e3 79 bd 53 94 1f 3d af 88 87 bc
       0.06358716 -0.06100801 0.038959812 -0.016544668
000360 f8 cc 22 bd 44 9b 0f 3d 85 10 9f bd 6f d6 a5 bf
       -0.039746255 0.035060182 -0.07766823 -1.2956065
000370 4b 54 22 bd f5 c0 d6 3c 29 63 86 3f 8a 3a 8c 3c
       -0.03963117 0.026215056 1.0499011 0.017117757
000380 c3 05 a8 3d 7a 34 74 3d 8b 80 5b 3f b4 b1 54 3d
       0.08204224 0.059620358 0.85743016 0.051927283
000390 73 2e aa 3d e9 c4 2b 3f 69 86 d3 bc 7c f5 81 ba
       0.08309641 0.67097336 -0.025820928 -0.0009915079
0003a0 d8 cb e7 3b 24 ee 84 3d 31 52 66 3d 34 d8 04 bc
       0.0070738606 0.06490734 0.056230728 -0.0081081875
0003b0 aa a9 ee 3e 8c d3 30 3b b4 41 29 3f 2a d3 44 ba
       0.46613818 0.002698156 0.6611588 -0.00075082725
0003c0 86 c8 23 3d 25 5b f5 3a 3d 06 97 3f 23 9f ea 3c
       0.039986156 0.001871918 1.1798779 0.028640335
0003d0 0c 4d 08 bd 74 f7 85 bf e4 b9 07 3d 92 a9 74 bd
       -0.033276603 -1.0466142 0.033136263 -0.059732027
0003e0 39 c3 1d 3c 5d af 87 bd 09 98 0c bd 1b 19 a5 bf
       0.009629064 -0.06625245 -0.03432468 -1.2898287
0003f0 a5 6a 9d bd 7d 46 90 3c aa ac 0e bd 86 2d 7b bf
       -0.076863565 0.017611736 -0.034832634 -0.9811634

fc2.bias f4 [4]
000000 81 80 dc bd 05 bc a4 3d a4 ad 5e bd 00 7e d2 bc
       -0.10766698 0.080436744 -0.054364815 -0.025694847
