cnn saved models/cnn_epoch15.pt (torch, 609343 bytes, 16 tensors)

conv1.weight f4 [32, 1, 3, 3]
000000 0a 3c ab 3e cc e0 b6 3e dd 1d 71 be 60 3d be be
       0.33444244 0.3571838 -0.23546548 -0.371562
000010 5d 04 96 be 2d ab 5d be e0 20 89 3d 22 42 2d 3c
       -0.29300204 -0.2164733 0.066957235 0.010574849
000020 3c 34 a8 3e f6 57 36 3f 4b 4a 5f be 63 1e f0 3e
       0.32852352 0.7122797 -0.21805684 0.46898183
000030 8c 39 e4 bd e6 13 f1 bd 93 25 6a be bd 9a 22 3d
       -0.11143789 -0.117713735 -0.22865896 0.03969835
000040 9f cb 92 3e 5c 97 f0 bd 46 b0 b7 3d 77 ad 92 3c
       0.28670976 -0.117476195 0.08969168 0.01790498
000050 cf f7 c2 3e 11 fc 8c be 25 da 01 bf ca 8b a7 3d
       0.38079688 -0.2753606 -0.5072349 0.081809595
000060 f2 1a 78 3e f6 64 93 3e 89 92 ba be 13 28 ba bd
       0.24229029 0.28787965 -0.36439922 -0.09089675
000070 4c 2a c0 3e 40 17 82 3e 24 d8 82 3d 1e 8d 7f be
       0.3753227 0.25408363 0.06388882 -0.24956176
000080 58 ec f4 be 81 00 07 be a6 ef 91 3e bf 40 13 be
       -0.47836566 -0.13183786 0.2850315 -0.14380167
000090 b0 1b bf bd 5a 43 52 be 56 1b 5d 3e dd 42 9b be
       -0.09331453 -0.20533505 0.21592459 -0.3032445
0000a0 98 00 6f 3e 68 18 09 3e 74 49 9e 3e bd 06 d2 3d
       0.2334007 0.13388216 0.30915415 0.102551915
0000b0 2b 8c a1 be cd 7a 3c 3e 6a 07 b3 be d0 91 f8 be
       -0.31552252 0.1840622 -0.34966594 -0.48548746
0000c0 45 44 2e 3e 6a 0c 94 3e dd 52 b4 bd c9 49 8f be
       0.1701823 0.2891572 -0.088048674 -0.2798598
0000d0 d1 aa 8b bd cb 2a 0d bf de 40 0e 3e 2c 5c 68 be
       -0.0681969 -0.5514342 0.13891932 -0.22691411
0000e0 58 71 94 be 20 b9 05 3e ce b1 8e 3e e6 7f d2 3e
       -0.28992724 0.13058901 0.2787003 0.41113204
0000f0 fe 8c d7 be e4 8c c2 3c c1 4f ad bd df 87 b7 3e
       -0.42099756 0.023748823 -0.084624775 0.3584585
000100 dc 10 93 be e1 07 af be e1 16 9e 3e 2c 42 d2 bd
       -0.287238 -0.341857 0.3087683 -0.102665275
000110 fe fb bc be dd f1 8c 3e 6b 03 33 bd 98 ef 1e 3e
       -0.36911005 0.27528277 -0.04370443 0.15521085
000120 88 5f a2 3d 67 1e cc bd c6 50 3c bf fe 47 22 bd
       0.079283774 -0.09966736 -0.7356075 -0.03961944
000130 4e 46 7c ba 51 3e 31 3d 45 ec 83 3e d3 02 02 3e
       -0.00096235133 0.04327232 0.25766197 0.1269639
000140 33 42 11 bc 82 c3 5f 3e b0 65 ac be d4 64 ed 3e
       -0.008865881 0.21851924 -0.3367133 0.46365988
000150 f9 5f 8c be fa a3 8e bd 77 5f f9 be 27 41 6f 3e
       -0.2741697 -0.0696487 -0.48705646 0.23364697
000160 c6 8a 15 3e 63 25 f3 bd e7 5e e6 bc 1a 90 76 be
       0.14603719 -0.11872365 -0.028121425 -0.24078408
000170 2c 06 7d bd a1 46 83 be 33 a6 f1 3d 47 c0 e6 be
       -0.061773464 -0.25639823 0.11799278 -0.4506857
000180 d8 c9 9c 3e c0 c3 bd 3e 97 f5 8d bc 52 06 37 be
       0.30622745 0.37063408 -0.01732902 -0.17873505
000190 2b 50 77 3e fe 64 2f be 2b df ef 3d 90 a4 89 3e
       0.24151675 -0.17128369 0.11712488 0.26883364
0001a0 5e ea 3d be 06 27 ef 3e 53 7f 38 be b0 af 64 be
       -0.18546435 0.4670946 -0.1801732 -0.22332644
0001b0 a0 9c e9 3e 76 8b 16 3e 9c f2 ca ba 38 59 44 3e
       0.45627308 0.14701638 -0.001548368 0.19174659
0001c0 51 1f 52 be b1 e9 31 be 43 86 64 be 82 a4 96 bd
       -0.20519759 -0.17374302 -0.22316842 -0.07355596
0001d0 0b c1 8e be 15 f8 e3 be 2c 81 44 3b 58 c0 d3 be
       -0.27881655 -0.4452521 0.002998422 -0.41357684
0001e0 63 51 81 be 69 23 f7 3d db 9e 30 3d 64 bb 09 3b
       -0.25257406 0.12067301 0.043120246 0.0021016235
0001f0 16 a8 14 3e 20 41 b8 3e e2 1f cb 3e 10 45 c5 be
       0.14517245 0.35987186 0.39672762 -0.38529253
000200 26 ee 67 bd 74 45 84 3e cb 04 35 3e cd f6 ed be
       -0.0566236 0.2583424 0.1767761 -0.46477357
000210 ab 3f ba 3e 81 db 8b 3d 10 95 c5 be 44 2c bd 3b
       0.363767 0.068289764 -0.38590288 0.005773099
000220 d7 e0 04 bc a3 62 14 bf 23 e7 c6 3d fd 43 bc be
       -0.008110247 -0.5796301 0.097120546 -0.3677062
000230 b3 1a c9 bd f1 16 07 3f e2 be fe 3d c1 09 fe bd
       -0.098195456 0.5276938 0.12438752 -0.12404204
000240 83 91 9a 3e fb dd 23 3e 96 31 b8 be 1d ff b7 bd
       0.30189142 0.16002648 -0.3597533 -0.08984206
000250 87 3c 38 be b8 0c df 3e 1e 14 ec be 6c 0a d0 3e
       -0.1799184 0.4356439 -0.46109098 0.4063295
000260 68 ee 8e bd 93 87 6a be b0 31 dc bc 41 05 ee 3d
       -0.06979066 -0.2290328 -0.026879162 0.11622096
000270 03 11 a3 3d 47 d9 01 bf 62 ea c2 be 10 40 55 3e
       0.07962229 -0.50722164 -0.38069445 0.20825219
000280 75 a6 c4 3e a0 73 a7 3e 83 83 1c 3e f3 c5 df 3e
       0.38408247 0.32705402 0.15284543 0.4370571
000290 27 f6 d5 3d 07 45 6c 3e 7a bb 4e be e5 59 c4 bd
       0.104473405 0.23073207 -0.20188704 -0.095874585
0002a0 b1 7d 73 bd 9c 89 c0 be 57 13 be 3a ed f2 cb 3e
       -0.05944604 -0.37604988 0.0014501613 0.39833775
0002b0 3e 28 7a 3e d6 be 38 3d 7f 05 18 bf e2 e3 d8 be
       0.24429414 0.04510387 -0.59383386 -0.4236136
0002c0 85 3c 47 3d db 29 41 3e 9d c4 fd 3d 12 18 4e 3e
       0.0486417 0.18863623 0.12391017 0.2012637
0002d0 59 74 80 3d 47 99 e8 be 56 ac d8 3e 8a ec a1 be
       0.062721916 -0.4542944 0.42318982 -0.31625777
0002e0 52 c2 07 be 78 bd 61 3e 4e d0 25 be b9 3a ab bc
       -0.13257721 0.22044933 -0.16192743 -0.020902025
0002f0 cd 4b 60 3e b2 ed a7 be cf 04 a3 3e 64 fe cf 3e
       0.21903916 -0.32798535 0.31839606 0.40623772
000300 74 80 1b 3e f2 59 d3 bd 1b 67 42 be be 69 32 3e
       0.1518572 -0.1031989 -0.18984644 0.1742315
000310 ca 7e a0 bd f9 1d d8 be 55 cc f4 3d bd 75 37 be
       -0.07836683 -0.42210367 0.11953036 -0.17916007
000320 c9 0b 4d be 56 e4 d9 3e 8a fa c4 bd d7 78 ee bd
       -0.20024027 0.4255702 -0.09618099 -0.11644142
000330 25 1b f8 be 01 0e 90 3e 57 68 ad 3e 82 f3 32 be
       -0.4845821 0.28135684 0.33868667 -0.17475703
000340 c0 f0 bd bc 96 62 8b 3d 86 2b 53 bd 4f 0a 70 be
       -0.023186088 0.06805913 -0.05155518 -0.23441432
000350 fe db af 3e a3 43 bc be 5a 97 f4 bb 97 00 ed 3e
       0.34347528 -0.36770353 -0.0074643316 0.46289513
000360 38 95 af be 84 7c cb bd ef 1c ab 3e 86 b2 e6 be
       -0.34293532 -0.09935859 0.33420512 -0.45058078
000370 62 97 ad bd 1d 2e 8b 3e 42 6b a4 3c 75 96 ae 3e
       -0.084761396 0.2718362 0.020070676 0.34099165
000380 a1 d7 20 3d cd 69 58 3e 2d 95 90 be 65 52 85 3d
       0.03926814 0.2113411 -0.28238812 0.06509856
000390 42 c1 90 3e f2 fb 20 bf 7d 0f b3 3e 34 64 1e 3e
       0.28272444 -0.6288444 0.34972754 0.15467912
0003a0 6e 5c c9 be ab 02 79 3e cc 69 d0 3d 47 22 02 bf
       -0.3932833 0.24317424 0.10176429 -0.50833553
0003b0 75 ed 92 be ba 04 70 3e 48 37 d1 be 0f f6 28 be
       -0.2869679 0.23439303 -0.4086249 -0.16500114
0003c0 ea 53 ed bd a0 c1 ce 3e d4 21 11 3e 88 73 01 bf
       -0.11588271 0.403821 0.1417306 -0.5056691
0003d0 e2 d3 c5 be 79 64 18 3e ed 2a b7 3d 09 ec 39 bc
       -0.38638216 0.14882077 0.08943734 -0.011347779
0003e0 8a 6d a5 bd 94 7d 3c 3e f0 aa ef bd 45 2b b1 3e
       -0.080775335 0.18407279 -0.117025256 0.34603325
0003f0 a3 cb 9a be 81 19 8c 3e 23 07 ff 3e 8c 62 b7 be
       -0.30233487 0.27363208 0.49810132 -0.35817373

conv1.bias f4 [32]
000000 8c ee 85 3e b1 24 b1 3e 16 d0 09 3e 8f 78 cc be
       0.2615856 0.34598306 0.13458285 -0.3993573
000010 2c 8e 18 3f 15 0a ea 3e 8b 21 27 3e 6a 1a e3 3d
       0.5959194 0.45710817 0.1632139 0.110890225
000020 3f 23 ab 3e 60 5b a0 3e df 00 2d 3e bf 4b 26 3f
       0.33425328 0.31319714 0.16894864 0.6495933
000030 b3 2e a6 3e b4 6d 8a 3e e1 88 ae be 32 de b1 bd
       0.32457504 0.27036822 -0.34088805 -0.086849585
000040 c3 19 c1 3c 58 23 fc 3e b3 dc 5b bf a0 3b 12 3e
       0.023571854 0.49245715 -0.85883635 0.14280558
000050 cb 36 52 3e 71 16 6e be 51 4f 5a 3e c9 bc a3 bd
       0.20528714 -0.23250748 0.2131932 -0.07994992
000060 f9 f2 1c 3f 0a 81 b2 be 83 61 1f 3d bb 9e 94 3c
       0.61308247 -0.34864074 0.038911354 0.018142095
000070 13 b2 f5 3d a7 ab 32 3d 18 63 c5 be f1 4c 6b bd
       0.119968556 0.04362073 -0.38552165 -0.057446424

BN1.weight f4 [32]
000000 9b 79 ac 3f 0a 83 c2 3e 7e d8 8e 3f 54 d0 5e 3f
       1.3474611 0.379906 1.1159818 0.87036633
000010 54 23 68 3f 75 4d 45 3f 03 27 8f 3f 6c cb 37 3f
       0.90678906 0.77071315 1.118378 0.7179477
000020 82 aa 70 3f 65 a7 a4 3f 50 18 65 3f ef 4a d3 3e
       0.94010174 1.2863585 0.8949022 0.41268107
000030 1a 76 73 3f e2 9b 5f 3f d6 9a 32 3f 8a 6c 83 3f
       0.95102084 0.87347233 0.6976751 1.0267498
000040 21 fd 5c 3f ff fd d0 3e 63 57 2c 3f e0 cf 48 3f
       0.86323744 0.40818784 0.6732084 0.7844219
000050 d8 e1 7c 3f b5 db 6e 3f 47 0b 8a 3f c0 c1 00 3f
       0.9878211 0.93303996 1.0784692 0.5029564
000060 3b 2e 21 3f 1d 43 a0 3f 4a 37 92 3f 20 91 42 3f
       0.6296117 1.2520481 1.1423123 0.76002693
000070 e6 9f 7a 3f 93 26 25 3f e7 f5 62 3f 9e d6 5f 3f
       0.97900236 0.64511985 0.8865647 0.87436855

BN1.bias f4 [32]
000000 c0 24 d1 be 55 79 3b be 41 cb 81 be 2c 04 b8 bd
       -0.4084835 -0.18308003 -0.25350383 -0.08985171
000010 83 dc 88 bf 64 ad aa be 98 a6 10 be ce 36 e1 bd
       -1.0692295 -0.33335412 -0.1412605 -0.10996781
000020 73 21 0b bf 0b 95 34 bf 54 59 dc be d5 31 30 be
       -0.54347914 -0.7053992 -0.43036902 -0.1720651
000030 dc a0 09 bd b5 e0 e6 be 90 be e8 bd 9a 2f 3d bf
       -0.033600673 -0.45093313 -0.11364472 -0.7390076
000040 95 a2 5e bf 5c 19 bb bd 4b b1 15 bf c1 3c 19 bf
       -0.8696683 -0.09135696 -0.5847365 -0.5985833
000050 80 a0 00 bf fb 8e de be 93 5c 9e bf cf 28 2a bd
       -0.50244904 -0.4346846 -1.2372001 -0.041542824
000060 23 b3 90 bd 88 d1 b5 be c1 b5 4f bf f9 2c 9e bd
       -0.070654176 -0.35511422 -0.8113671 -0.077234216
000070 51 58 92 bd 4a 03 5b bd 4f f4 38 bf d2 6f 32 be
       -0.07145751 -0.053469934 -0.72247785 -0.17425469

BN1.running_mean f4 [32]
000000 97 7d 81 3e 0d bf f5 3e 74 37 f8 3d 64 0a d9 be
       0.2529113 0.47997323 0.12119952 -0.4239074
000010 f9 9f 1c 3f 0b 36 70 3e 4e fb 23 3e b2 b2 cc 3d
       0.611816 0.23458116 0.16013834 0.09995021
000020 cb 8c 86 3e 45 a5 87 3e a5 d5 ee 3d 53 99 2e 3f
       0.26279292 0.26493278 0.11661843 0.68202704
000030 1e a4 95 3e 20 5c 3f 3e e4 d9 b0 be f6 ef 2c be
       0.29226774 0.18687487 -0.34541237 -0.16888413
000040 e6 f2 59 3d c0 cc f6 3e 20 94 52 bf 48 ac 39 3e
       0.05321016 0.48203087 -0.8225727 0.18132126
000050 98 74 2e 3e 56 d2 7b be 21 77 6c 3e d6 68 a1 bd
       0.17036664 -0.24591956 0.23092319 -0.07881324
000060 fc e1 1d 3f 48 d0 b4 be f3 da a1 bd c3 2d 46 bd
       0.6167295 -0.35315156 -0.079030894 -0.048383486
000070 9d 98 bb 3d fd 94 89 bc 0d a9 c4 be a1 71 8e bd
       0.09159968 -0.016794676 -0.38410226 -0.06955267

BN1.running_var f4 [32]
000000 0c e2 8e 3b 97 05 a8 3c 53 27 74 3b 9d be a3 3b
       0.004360443 0.020510478 0.0037254884 0.004997088
000010 c0 34 54 3a 88 0e 41 3d 50 f7 78 3b 78 05 cb 3b
       0.00080950186 0.047133 0.0037989207 0.0061957203
000020 d9 df 5e 3c 83 c1 cd 3b e2 14 37 3c cf a4 26 3b
       0.013603174 0.006279172 0.011174412 0.0025427823
000030 ce 56 2d 3c 34 ce 97 3c 47 b7 93 3b 53 d2 8b 3c
       0.010579778 0.018530942 0.0045079323 0.017068064
000040 bf ff fd 3a 0b e3 31 3c 31 d1 19 3c f3 88 d0 3b
       0.0019378586 0.010857354 0.009388254 0.006363982
000050 32 03 58 3b f5 50 86 3b 46 ef 03 3b b6 bd 2f 3b
       0.003296089 0.0040990063 0.0020131632 0.0026815957
000060 b9 31 96 3b 5e a3 21 3b 86 82 b5 3c ba 8f 4e 3c
       0.004583564 0.0024664025 0.022156965 0.012607509
000070 1d 98 22 3c 36 38 27 3c 99 6f 4c 39 8a bf 8c 3c
       0.009923962 0.010206273 0.0001949653 0.017181177

conv2.weight f4 [64, 32, 3, 3]
000000 f4 e5 1b be c4 34 25 3e 44 52 97 bd ce e8 f9 bc
       -0.15224439 0.1613341 -0.07388738 -0.030506518
000010 c1 88 25 bb 06 d8 77 be 66 74 1c bd 19 c0 b1 3d
       -0.0025258514 -0.242035 -0.038196944 0.08679218
000020 8d 25 bc bd 97 4f ad bc fc c8 1b 3d e2 86 a7 3d
       -0.0918685 -0.021156115 0.03803347 0.08180024
000030 33 89 97 be b4 4f ba be 38 21 a1 be 4e 8a 5e 3e
       -0.29596862 -0.36388934 -0.31470656 0.21732447
000040 6c 04 42 3e 85 fa 63 3e af a4 30 3b e8 c8 06 3d
       0.18947 0.22263534 0.0026953628 0.032906443
000050 e7 09 a3 3d 49 32 d5 bd 01 bb 33 bd 16 a8 58 bd
       0.07960873 -0.10409982 -0.043879513 -0.052894674
000060 52 be 61 bd 88 3c 9c bd aa 11 9f 3d 89 d0 91 be
       -0.055113144 -0.07628733 0.07767041 -0.28479412
000070 35 29 88 3d 6d 6e 49 3e 55 0b e6 be 1e d9 5f 3d
       0.066484846 0.1967103 -0.4493052 0.05465042
000080 86 14 4d be 63 3b 0b bb 7b af a4 3e 9c 39 21 3e
       -0.2002736 -0.0021245114 0.3216513 0.15744632
000090 b0 bc a5 3e ad 8b 51 be eb 75 15 be d0 43 c7 3c
       0.3237052 -0.20463438 -0.14595763 0.024324328
0000a0 6d d6 6c be e4 71 1f be f8 f9 a2 bd b9 7e 45 be
       -0.23128672 -0.1557079 -0.07957834 -0.19286622
0000b0 58 a3 43 be d0 01 80 be a8 5a 9f bd b0 3c 1b be
       -0.1910528 -0.25001383 -0.07780963 -0.15159869
0000c0 2c 39 7d be dc 2e fc bd f0 ef 02 be 94 9f 2b 3e
       -0.2472884 -0.12313625 -0.12786841 0.16760093
0000d0 be a5 44 3e e4 24 76 3e e1 a0 1e bd 7d 2f be bd
       0.1920385 0.2403751 -0.038727645 -0.092864014
0000e0 55 a6 33 be d6 db f0 3c 6b e1 cd 3d 0f 9c 58 3e
       -0.1754392 0.029401701 0.10052761 0.21153282
0000f0 a0 30 68 be f6 e2 88 be 11 b1 5b be 85 d5 8e bc
       -0.22674799 -0.26735657 -0.21454264 -0.017435798
000100 d3 27 0d 3e c6 c0 b8 3d 6a d4 05 be 31 72 72 bd
       0.13784723 0.090211436 -0.13069311 -0.059190933
000110 9f 4e 97 be 44 fe 2b 3e 7a ef 22 3e 11 f3 4c 3e
       -0.2955217 0.16796213 0.15911666 0.20014597
000120 b2 17 68 be 05 2f df bc 86 a6 2f be 28 c3 56 be
       -0.22665289 -0.0272441 -0.17153367 -0.20972884
000130 db fc 6e 3d c2 a8 5c be b3 cf 35 3e db bf 39 3e
       0.05834661 -0.21548751 0.17755012 0.18139593
000140 18 4e dc bb 69 a6 f7 be 51 26 19 bf f4 0e 14 bf
       -0.0067231767 -0.48369148 -0.5982409 -0.57835317
000150 3a 22 72 3e 01 6a 33 3e e2 19 cd 3d bd 35 be be
       0.23645869 0.17520906 0.100147024 -0.37150374
000160 79 83 e8 be d2 34 14 bf e0 41 ca 3e e4 ab 91 3e
       -0.45412806 -0.578931 0.39503384 0.28451455
000170 ba df 48 3e 90 1f 05 be 2d c0 65 bd 19 af 5e be
       0.19616595 -0.13000321 -0.056091476 -0.21746482
000180 e7 cb 88 3d 61 b0 54 3d 89 ae 33 3b 19 74 a4 3b
       0.06679516 0.05192602 0.0027417263 0.0050187227
000190 da 53 a1 3d 48 89 9e 3b 42 eb f8 bd 86 c8 16 bd
       0.078773215 0.0048381425 -0.12154247 -0.036812328
0001a0 83 c6 7b be 43 57 81 3e 8d 96 5c 3d c9 28 b9 bd
       -0.24587445 0.25261888 0.053854514 -0.09040982
0001b0 7c 24 e2 3d f3 a1 1c 3e 1f 4a a3 bd e3 0b d8 3d
       0.11042115 0.15296154 -0.07973122 0.10549142
0001c0 4d 4a 8c bd 1c 3f 23 bf 35 44 c4 bd 34 c3 0f 3e
       -0.06850109 -0.6376817 -0.09583322 0.14039308
0001d0 b4 70 5d 3e b6 56 b7 3d a1 08 a8 3c 63 38 20 be
       0.21625024 0.08952086 0.020511927 -0.1564651
0001e0 fb 0c 38 be 34 b0 e8 3c 91 6b 71 be 10 c5 0b bd
       -0.17973702 0.028404333 -0.2357619 -0.03412348
0001f0 c4 37 7a 3d 0f 8a ab 3d a4 a3 78 bd a4 f1 a1 3c
       0.06108834 0.08375942 -0.060702935 0.019768544
000200 85 f2 05 bd b2 bb 29 3c 6e 6a 66 bc 39 44 c5 be
       -0.032701988 0.010359691 -0.014063461 -0.38528612
000210 b9 a2 86 bd b5 88 85 3c 72 cc 54 be d9 53 c2 be
       -0.06574006 0.016300539 -0.20781115 -0.37954596
000220 e8 3b 21 be b1 8f 0f bf d7 3f 9f bc 13 af ae 3c
       -0.15745509 -0.5607863 -0.01943962 0.021323716
000230 f4 e5 58 3b 75 c8 7d 3e 6c 07 60 3d 5d 7b 82 be
       0.0033096047 0.247835 0.054694578 -0.25484744
000240 44 b4 0a bf e1 7c b0 be 19 40 da be 53 85 53 3e
       -0.54181314 -0.34470275 -0.42627028 0.20656328
000250 c7 bb 56 3e 9d 91 2f 3d 23 7f 34 be 7f cb 0e be
       0.20970069 0.042863477 -0.17626624 -0.13944815
000260 c9 9c 7b 3e 1e 92 df 3e 16 d4 a1 3e b4 16 d8 3e
       0.24571528 0.43666166 0.3160712 0.4220482
000270 59 83 aa bd f9 25 82 bd 78 d3 22 3d 78 dd b9 3d
       -0.08325834 -0.06354899 0.039752454 0.09075445
000280 a4 c4 e9 3d ac 6a 1e 3e a3 e2 8c be 14 2c 23 be
       0.11414459 0.1547038 -0.2751666 -0.15934783
000290 96 20 f5 3d df 98 50 3d 22 f8 a9 be 77 de f8 be
       0.11969106 0.05092704 -0.33197123 -0.48607227
0002a0 7c 2e 15 3e 74 3c 1b 3e ba 9d 55 3e d8 e7 c1 be
       0.14568514 0.1515978 0.20860949 -0.37872195
0002b0 bf 6e 09 be e0 d7 b5 bd 7d 2e 31 bd 9a 6d eb bd
       -0.13421153 -0.088790655 -0.043257225 -0.11495514
0002c0 b3 7c 56 be 36 0b 4b 3e b8 33 0f 3e 6d e7 9c 3e
       -0.20946006 0.19828495 0.13984573 0.30645314
0002d0 1c 3c e3 3e a5 bd 3b 3e 49 04 81 bc dc e0 70 be
       0.44381797 0.18334062 -0.015749114 -0.23523277
0002e0 13 7d b1 bd 97 bb 97 be c8 dc 91 be 01 6c b2 3c
       -0.08666434 -0.29635307 -0.28488755 0.021780016
0002f0 d8 90 c5 be 35 84 0f be f1 c9 df bc 8e 08 55 3e
       -0.3858707 -0.14015277 -0.027317973 0.20804045
000300 8b 73 ea be 60 37 a3 be b2 3f da be db 69 d2 bd
       -0.45791277 -0.31878185 -0.4262672 -0.102740966
000310 09 43 64 3e 59 19 2a 3e 0c 83 e7 bd 70 6a 80 3d
       0.22291197 0.16611232 -0.11304292 0.06270301
000320 69 c0 16 3e b3 51 19 3e 20 2b 05 3b fc a8 6f bd
       0.14721836 0.14972572 0.0020319894 -0.058510765
000330 d6 b0 ca bd 12 3a 46 be 42 56 5c 3c cc c2 4f 3e
       -0.0989701 -0.1935809 0.0134483 0.20289153
000340 63 44 da 3d e4 55 2c 3e 1d ca d4 bd 02 10 da bc
       0.10657575 0.1682964 -0.103901125 -0.026618961
000350 46 cb 2a be 47 ef 8c be 76 57 f0 bc b6 81 80 be
       -0.16679105 -0.27526304 -0.02933858 -0.25098962
000360 f8 21 4d 3e 03 83 d5 3c 1b 00 6b 3e f0 5d 58 be
       0.2003249 0.026063448 0.22949259 -0.21129584
000370 12 5f 42 be 58 b8 28 be 5c 43 f7 bb 41 0c 0a 3e
       -0.18981579 -0.16476572 -0.0075458717 0.13481237
000380 22 3c 8a 3e bb 09 14 3e b3 9c 7f 3b 3f b9 01 3d
       0.26999003 0.14456837 0.0039003312 0.031670805
000390 b6 67 26 3d 6c 98 3b bd 70 f6 ff 3c 8f f6 a6 be
       0.04062625 -0.045799658 0.03124544 -0.32609984
0003a0 aa ea e8 be d7 c2 0d bf 9e ef 58 bf d5 38 6f bf
       -0.45491534 -0.55375427 -0.84740627 -0.93446094
0003b0 63 dc 7c bf fa 78 f3 bd b4 bc 8a bd 98 12 57 bd
       -0.98773783 -0.11888309 -0.067742735 -0.052507967
0003c0 a4 c9 99 be 08 87 d6 be 14 8f db be df fe c7 3d
       -0.30036652 -0.41899896 -0.42882597 0.0976541
0003d0 a5 4b fa bd 8e 90 da be e3 b8 5e be 43 55 40 be
       -0.12221459 -0.4268841 -0.21750216 -0.18782525
0003e0 91 b2 cb bd d9 f7 ca 3d 1f 51 35 3e 6f de 62 3e
       -0.09946168 0.099105544 0.17706726 0.22155164
0003f0 09 f3 3c 3e da a6 2f 3e 57 cf 09 3f 50 a0 a9 bd
       0.18452086 0.17153493 0.53832 -0.0828253

conv2.bias f4 [64]
000000 0b b7 07 bc 5f e3 2f 3c d6 f8 e0 bb 69 fe ff bc
       -0.008283387 0.010735362 -0.006865601 -0.031249242
000010 84 8a da 3d bf a2 77 3c 19 89 38 3d dd 07 3a 3d
       0.10670951 0.015114485 0.04505262 0.045417655
000020 b8 b2 2d 3c 5e 15 31 bd 53 c6 df 3d d1 68 a4 3c
       0.010601692 -0.043233268 0.10926499 0.020069512
000030 34 53 5c 3d 13 67 34 be 46 36 f4 3c 2c 21 e4 3c
       0.053790286 -0.17617445 0.029811036 0.027847849
000040 10 6c 63 bc 68 25 c3 bd ad 17 92 bd 53 06 5a 3d
       -0.013880745 -0.09528619 -0.07133422 0.053228687
000050 e0 94 f6 3d 9d ac a8 3c b1 6f 04 be 99 64 19 be
       0.120401144 0.02059012 -0.12933232 -0.14979781
000060 1c d9 b4 bc 8f 4d f9 bc f1 3f 19 3d 64 dd ad 3c
       -0.022076182 -0.03043249 0.037414495 0.021223731
000070 b0 39 f4 3c de d4 f7 ba 4b 9a 30 3d 6d 84 6d 3d
       0.029812664 -0.0018908044 0.043115895 0.05798762
000080 82 d1 b8 3c 50 da c7 bc c2 63 3a bc 23 c9 98 bd
       0.022560839 -0.024396092 -0.011376323 -0.07460239
000090 54 0d 45 3d 8d 6b a0 bc 57 ab b1 bd 58 e8 95 bd
       0.048108414 -0.019582534 -0.086752586 -0.07319707
0000a0 ee ae 3d 3d c3 0d 49 bc 2e 95 c2 3c 01 50 82 3c
       0.046309404 -0.012271347 0.023752775 0.01590729
0000b0 1d b5 7d bc f5 3d 81 3c 89 8a ba 3c fd 5f d1 bd
       -0.015485075 0.015776614 0.022771137 -0.102233864
0000c0 fd 47 26 3d d3 af 0d bd 79 05 1c bd 2a 72 01 3d
       0.040595997 -0.034591507 -0.038091157 0.031603016
0000d0 57 b4 a7 3d 59 2a 84 3d b8 08 df 3c 52 bd 20 3e
       0.08188694 0.0645339 0.027225837 0.1569722
0000e0 b2 d2 03 3e 1d 7e a3 3c e9 22 3c 3d 31 ce 65 bd
       0.12873343 0.019957596 0.04593173 -0.056104843
0000f0 6c 9c 46 3d 29 d5 09 bd 55 a7 e4 3c b8 dd 8f bc
       0.04848902 -0.03365055 0.027911821 -0.017561778

BN2.weight f4 [64]
000000 83 cc a7 3f 22 52 8c 3f b5 a7 9d 3f b4 b0 99 3f
       1.3109287 1.0962565 1.2316805 1.200705
000010 e4 52 86 3f 36 dd a6 3f fb 59 55 3f 26 f4 89 3f
       1.0494046 1.3036258 0.83340424 1.0777633
000020 dd 66 97 3f d4 16 a9 3f 1e 2d 8e 3f eb 57 94 3f
       1.1828266 1.3210092 1.1107519 1.158933
000030 12 87 9e 3f 68 d8 b1 3f 64 9a 8f 3f e5 f3 8b 3f
       1.238497 1.3894167 1.1218991 1.0933806
000040 12 8e ae 3f 68 86 a8 3f e4 ed d1 3f 66 ba 0b 40
       1.3637106 1.3166018 1.6400723 2.1832519
000050 94 1a 98 3f 80 b6 a7 3f b5 51 03 40 b1 de a0 3f
       1.1883111 1.310257 2.051862 1.256796
000060 17 dc 9f 3f 1e ef fe 3f 1e e9 a9 3f 90 e2 ab 3f
       1.2489041 1.9916723 1.3274267 1.3428516
000070 8a 75 b5 3f 48 a3 a5 3f 86 f4 b1 3f 07 f5 95 3f
       1.4176495 1.2940454 1.3902748 1.1715401
000080 3d 4d b3 3f 61 1d a9 3f 1c 60 9a 3f 73 03 a3 3f
       1.4007946 1.3212091 1.206058 1.2735428
000090 aa d7 e6 3f 1c c0 88 3f bb 21 44 3f 57 ec 94 3f
       1.8034565 1.0683627 0.7661397 1.1634625
0000a0 77 33 87 3f 1f b0 75 3f f8 2a 8f 3f 7c 3b e8 3f
       1.0562581 0.95971864 1.1184988 1.8143153
0000b0 99 33 c8 3f 69 dc a3 3f 6f 86 b9 3f 85 a1 74 3f
       1.5640746 1.2801639 1.4494151 0.9555896
0000c0 40 e6 ca 3f e4 27 8c 3f 01 60 9d 3f 25 a9 a3 3f
       1.5851517 1.0949674 1.2294923 1.2785994
0000d0 b3 c0 bb 3f e8 03 6c 3f b8 85 a0 3f 27 0f 93 3f
       1.4668182 0.9219346 1.2540808 1.1488999
0000e0 12 55 8f 3f 4b 00 b3 3f a3 34 98 3f 90 f6 7f 3f
       1.1197836 1.3984464 1.1891063 0.999856
0000f0 5d ce ba 3f 77 bf b2 3f bc ef ce 3f 7b aa a4 3f
       1.4594227 1.396468 1.6166911 1.2864527

BN2.bias f4 [64]
000000 fb 23 21 bf 6b 72 11 bf 14 65 1b bf 5e c6 15 bf
       -0.62945527 -0.5681521 -0.6070111 -0.5850581
000010 07 cc 10 bf 3b 24 25 bf 14 31 d4 be a0 f3 ed be
       -0.5656132 -0.6450841 -0.41443694 -0.46474934
000020 a6 55 17 bf b7 dc 21 bf 14 e4 f1 be 52 8d 15 bf
       -0.59115064 -0.6322741 -0.47244322 -0.5841876
000030 64 9f 1b bf 2f 38 20 bf 80 a6 01 bf 7d dd 00 bf
       -0.60790086 -0.6258573 -0.50644684 -0.50337964
000040 6b e9 0e bf 21 b7 2a bf 08 f3 87 bf cb 70 cb bf
       -0.5582492 -0.6668568 -1.0621042 -1.5893797
000050 dc a1 f8 be 2c 93 2b bf 6a cd ae bf 04 5f 07 bf
       -0.4856099 -0.6702144 -1.3656437 -0.5287936
000060 89 c0 11 bf 0a f3 95 bf 25 3d 2f bf 47 2c 1e bf
       -0.5693441 -1.1714795 -0.68452674 -0.6178631
000070 c7 28 32 bf 9e e6 08 bf 79 7f 29 bf 2a 09 0a bf
       -0.6959347 -0.53476894 -0.6621013 -0.53920233
000080 c9 86 5b bf 44 b8 25 bf 0b 2f 05 bf a3 c2 0b bf
       -0.8575254 -0.6473429 -0.52024907 -0.5459387
000090 f3 f7 73 bf 2d 14 e2 be 08 75 c9 be 75 53 08 bf
       -0.95300215 -0.44156018 -0.393471 -0.53252345
0000a0 a8 b6 ed be d0 ea d5 be 01 4b 10 bf 48 48 b4 bf
       -0.46428418 -0.4178071 -0.56364447 -1.4084558
0000b0 61 38 39 bf 1d 04 1c bf 26 58 47 bf 85 0c f5 be
       -0.7235165 -0.60943776 -0.7786888 -0.47861114
0000c0 5c e7 28 bf 89 96 10 bf 55 2c 18 bf 96 bb 1d bf
       -0.65978026 -0.564797 -0.59442645 -0.6161436
0000d0 0b 8d 47 bf f8 6e dd be 46 1d 16 bf 99 52 19 bf
       -0.7794959 -0.43248725 -0.5863842 -0.5989166
0000e0 5f a7 e7 be e3 8d 29 bf dc 0e 04 bf 0c 74 f3 be
       -0.45244882 -0.66232127 -0.51585174 -0.47549474
0000f0 68 05 5b bf 7a e3 3e bf a5 fb 83 bf c9 d1 0b bf
       -0.85555124 -0.7456585 -1.0311171 -0.5461698

BN2.running_mean f4 [64]
000000 1d c1 8b bf e2 72 d8 bf 98 fa b4 bf 98 71 aa bf
       -1.0918308 -1.691006 -1.4138975 -1.3315916
000010 c2 47 d7 bf 23 8e 82 bf 89 29 9a bf c0 a4 72 bf
       -1.6818774 -1.0199627 -1.2043926 -0.9478264
000020 db aa 95 bf 80 57 6c bf 0f ee 02 c0 89 89 be bf
       -1.1692766 -0.92321014 -2.04578 -1.4885722
000030 5a 71 c4 bf 7b 0f 6b bf 8e 3a f6 bf b9 08 43 bf
       -1.5347092 -0.91820496 -1.923662 -0.76185185
000040 46 29 86 bf 6a 57 b4 bf d5 b4 19 bf 30 41 1a bf
       -1.0481346 -1.4089177 -0.6004155 -0.6025572
000050 5e e3 dc bf a8 1e d9 bf 33 0c 41 bf c5 61 c2 bf
       -1.7256887 -1.696248 -0.7540924 -1.5186087
000060 af 53 da bf 85 61 3d bf 23 b3 b5 bf fc fb aa bf
       -1.7056788 -0.7397693 -1.4195293 -1.335815
000070 2e 43 84 bf e0 27 92 bf 05 ad a8 bf 4a 2f b5 bf
       -1.0333002 -1.1418419 -1.3177801 -1.4155056
000080 80 7a 43 bf f4 f0 60 bf 68 22 c5 bf e7 43 c0 bf
       -0.76358795 -0.87867665 -1.5401125 -1.5020722
000090 d1 d5 27 bf 53 63 1e c0 b2 61 be bf c5 31 8f bf
       -0.6556063 -2.4748123 -1.4873564 -1.1187063
0000a0 7a a6 ea bf dc 16 af bf 1f b5 93 bf c2 6c fd be
       -1.8332055 -1.3678851 -1.1539649 -0.49497038
0000b0 2d d2 9a bf 0d a0 78 bf 2a 9c 6f bf 92 d3 cb bf
       -1.209539 -0.9711922 -0.9359766 -1.5923941
0000c0 a7 90 8d bf 74 d9 7d bf 22 71 db bf 72 64 a8 bf
       -1.1059769 -0.9915993 -1.71439 -1.3155653
0000d0 a6 5f be bf ee 06 84 bf d5 a7 94 bf 7e c0 12 be
       -1.487294 -1.0314615 -1.1613718 -0.14331242
0000e0 40 54 14 c0 8d 34 a3 bf c7 1a f5 bf 42 59 f3 bf
       -2.3176422 -1.2750412 -1.9148797 -1.9011614
0000f0 a4 0e 1d bf 3d e9 8f bf 8b 60 01 bf 75 09 8e bf
       -0.61350465 -1.1243054 -0.5053794 -1.1096636

BN2.running_var f4 [64]
000000 6c 1d f9 40 e7 4b 3b 41 c0 7c 03 41 12 b7 d1 40
       7.7848415 11.706031 8.217957 6.5535975
000010 2c b8 e1 40 45 03 c5 40 28 45 4d 41 e5 29 ca 40
       7.053732 6.156649 12.829384 6.317614
000020 3a 4c d0 40 16 b1 c7 40 64 e9 7e 41 c5 11 2d 41
       6.509305 6.240367 15.93198 10.816838
000030 7a 8a 08 41 33 9e 5d 40 ce c4 b2 41 5e 29 40 41
       8.533808 3.4627807 22.346096 12.010099
000040 36 e4 1a 41 71 24 be 40 57 f7 f5 3f 08 68 27 40
       9.680716 5.9419484 1.9216107 2.6157246
000050 04 84 48 41 c4 22 2f 41 0b b3 2e 40 e6 cd d8 40
       12.53223 10.945988 2.729678 6.775134
000060 8a ac 40 41 6d aa 51 40 75 04 e2 40 fa 25 de 40
       12.042124 3.276027 7.063044 6.942136
000070 d3 e7 11 41 20 6a 0c 41 72 12 02 41 bc 46 1e 41
       9.119098 8.775909 8.129503 9.892269
000080 eb 94 4f 40 8d 1c 6c 40 3b 2b 15 41 a0 36 f7 40
       3.2434642 3.6892426 9.323054 7.725418
000090 62 ca 3c 40 31 2d 67 41 98 db 45 41 0d e5 e3 40
       2.9498525 14.448533 12.366112 7.1217103
0000a0 b2 a5 47 41 44 1e 3c 41 ae ad aa 40 99 97 02 40
       12.477953 11.757389 5.333701 2.0405028
0000b0 fe a6 ab 40 5c e5 af 40 cd 5c 84 40 d8 d3 37 41
       5.364135 5.496748 4.136328 11.48922
0000c0 86 dc 2c 41 a0 31 f8 40 10 dd b3 40 d3 c2 dc 40
       10.803839 7.7560577 5.620735 6.8987823
0000d0 35 00 01 41 8b 09 3b 41 da 48 db 40 61 0d 90 40
       8.062551 11.68983 6.852643 4.501633
0000e0 b5 e6 99 41 41 6d 00 41 55 5d 3b 41 a5 51 3a 41
       19.23765 8.026673 11.710286 11.644933
0000f0 fa 69 24 40 36 10 9e 40 1d 4a d8 3f e1 3a 19 41
       2.5689683 4.939479 1.6897618 9.576875

fc1.weight f4 [128, 1024]
000000 ef cd b4 ba 3f a6 fb bc f1 b4 4d bc 7b d7 a7 bc
       -0.0013794283 -0.03071892 -0.012555347 -0.020488491
000010 7f bf 4c ba 01 dd 1b bc e0 4b 11 bd 5e aa 00 bc
       -0.00078105176 -0.009513141 -0.03547275 -0.007853119
000020 64 3e f0 bc 6d f1 8e bc 85 d9 16 3c 01 5d c2 3c
       -0.029326625 -0.017449105 0.009207134 0.023725988
000030 f9 a5 b0 3b 4a 35 8f 3c 86 cb 9b 3c 1c 41 11 bd
       0.005390879 0.017481465 0.019017946 -0.035462484
000040 8d 9f 4e bc 30 2b 5c bc 53 92 1b 3c fe 09 83 bc
       -0.012611282 -0.013438031 0.009495336 -0.015995976
000050 ad 0b 31 ba a2 c5 29 bc 3b 82 49 bc f3 50 62 3c
       -0.0006753754 -0.010362061 -0.012299116 0.013813245
000060 ee 9b 63 3c 74 eb 00 bc ad 10 e7 bc 1a e7 8f 3b
       0.013892157 -0.007868636 -0.028206194 0.004391563
000070 d2 97 d7 ba eb 4e e5 bc 8c 8d 9b bc 87 5d 4b 3b
       -0.0016448444 -0.027991733 -0.018988393 0.0031031088
000080 ea 1c 89 3a 5b 74 ba bc 79 4f 7b 3c ed 57 7b bc
       0.0010460888 -0.02276056 0.015338772 -0.015340787
000090 57 ad 47 3c bf 22 a4 bc 90 63 ef bc 26 a7 d2 3a
       0.0121873235 -0.0200361 -0.02922228 0.0016071543
0000a0 e4 cd c9 3c 5d 3f 58 3c 7c 14 ad bc ff d1 f5 bc
       0.02463431 0.013198701 -0.021127932 -0.03000736
0000b0 32 3a 55 bc 13 5b 8b bc 2b b4 c6 3b 47 cc 0c bd
       -0.013014363 -0.017011201 0.006063958 -0.0343745
0000c0 c9 06 88 bc 32 14 2b bc 21 30 74 3c 2b 5d c6 3b
       -0.016604798 -0.010441827 0.014904053 0.006053587
0000d0 10 eb b6 3c ac cd 99 bb c4 bb a0 bc 3a 89 0a 3b
       0.022328883 -0.0046937075 -0.019620784 0.0021138922
0000e0 40 02 25 bb 77 f0 06 bd 47 a0 d6 bc dd 4b ff bc
       -0.0025178343 -0.03294417 -0.026199473 -0.031164104
0000f0 b0 f1 59 bc ec 71 0a bd 79 9c 07 bb 19 79 62 3c
       -0.013302252 -0.03380005 -0.002069263 0.013822817
000100 da 70 21 3c 02 5f bb 3c 54 8c 84 bc ad b3 b2 bc
       0.009853566 0.022872452 -0.016180195 -0.021814192
000110 9d 0b a9 bb 7d 47 f1 bb f2 9f 9f 3c a7 c2 0a bd
       -0.005158855 -0.0073632584 0.019485448 -0.03387704
000120 2e e0 15 bd d3 af f5 bc c5 19 a2 bc 58 8c 28 3c
       -0.036590748 -0.029991066 -0.019787678 0.010287367
000130 7b 58 65 bc 9c 3f a0 3b 71 32 ec bc 85 31 ca 3c
       -0.013998146 0.0048903953 -0.028832646 0.024681816
000140 4b 9d 32 3b 39 0f 3e 3b 71 95 c6 3c 89 d0 09 3c
       0.0027254398 0.0029000773 0.024241181 0.008411535
000150 40 cb 95 3b 44 41 03 bc a8 84 07 3b 27 a2 06 bc
       0.0045713484 -0.008011166 0.0020678435 -0.008217371
000160 25 a8 a9 bb f5 42 df bc 89 6f 93 3c cc 25 2b 3c
       -0.005177515 -0.027253607 0.01799752 0.010446023
000170 94 81 b9 bc 1a f7 95 3c 49 37 ba bc 41 99 17 bc
       -0.022644795 0.018306304 -0.02273144 -0.009252847
000180 f8 e4 86 bc be 44 17 3c ff a6 3c 3b 1a 8c a5 bc
       -0.016466603 0.009232698 0.002878606 -0.020208407
000190 7a 62 92 3b 62 75 c4 3b 7d d4 c0 ba 18 f9 28 3c
       0.0044673057 0.0059954384 -0.0014711764 0.010313295
0001a0 54 c4 2d bc c6 ea 2b 3c 49 60 bf 3c 08 c3 9d bc
       -0.01060589 0.010492986 0.023361342 -0.019258037
0001b0 b4 6e f5 3b d0 47 ec 3b 26 2c b8 bb dc 32 6f bc
       0.0074900035 0.007210709 -0.0056204973 -0.014599528
0001c0 b6 91 17 3c 74 ce 37 3c 64 6f 78 3c 80 c7 3f bc
       0.009251049 0.011218656 0.015163276 -0.011705279
0001d0 07 6e 09 bd 18 28 8b bc 34 dc 0b bd 14 35 c4 3c
       -0.033552196 -0.016986892 -0.03414555 0.02395109
0001e0 f6 d4 10 bd 9b a7 3e 3c f0 3b d3 bc 1d 1f 04 bd
       -0.035359345 0.01163664 -0.025785416 -0.032256234
0001f0 24 14 23 3c e8 d7 f8 bc ba 78 e5 bc 14 f8 9f 3a
       0.009953532 -0.03037639 -0.028011668 0.001220467
000200 46 d1 02 bd 0c c5 9f 3c a6 e5 ac ba 01 df bf bb
       -0.03193786 0.019503139 -0.0013190999 -0.0058554416
000210 f5 d3 b4 3c db e6 aa bc 75 44 be bc 13 60 53 bb
       0.022073725 -0.020862034 -0.023226002 -0.003225331
000220 d1 eb 59 3c 0d 4b cb 39 f2 1d 1a 3c f3 f4 13 bd
       0.013300852 0.00038775094 0.009406554 -0.036122274
000230 02 4d 40 bc b8 5b fa b9 d0 1c 29 3c 46 af ac bc
       -0.01173711 -0.00047752052 0.010321811 -0.02107967
000240 80 14 b4 bc 03 01 e3 ba c0 78 25 bc cd c1 7f bc
       -0.021982431 -0.0017319027 -0.01009959 -0.015610171
000250 a7 cb 95 3c ba 87 a9 bc 57 46 0c 3c f9 9f 96 3c
       0.018285586 -0.020694602 0.008561692 0.018386828
000260 9f ac af bc 6e a0 8e 3c 14 ca c2 3b 89 9b 85 bb
       -0.021444617 0.017410483 0.0059444997 -0.004077379
000270 d5 38 0d bd f6 04 84 3b 0e 6d 9e 3c 20 96 0f bc
       -0.034478027 0.0040289117 0.01933911 -0.00876382
000280 5a 7e 97 3c 96 f2 ce bb 6f 45 59 bc 20 1f 70 bc
       0.018492866 -0.0063155396 -0.013261183 -0.014655858
000290 5d 8d 05 bc f8 33 9b bc 1e ac ae bb 9e 50 d1 bb
       -0.008151379 -0.018945679 -0.0053305766 -0.006387784
0002a0 61 38 03 bd fb ad a8 bc 8a cb ba 3c 07 c1 c0 bb
       -0.03203619 -0.020590773 0.022802133 -0.0058823857
0002b0 1e df c5 bb fe b3 1a 3c 7f 50 93 3c 7a 4a 17 bd
       -0.0060385605 0.009442328 0.01798272 -0.03693626
0002c0 e4 a5 0f bd a0 a2 0b bc 7f 72 8d bc 66 a1 02 bd
       -0.035070315 -0.00852266 -0.01726651 -0.031892203
0002d0 fc 93 f8 bc 7f 30 cc 3b 9d 9a 32 3c 5e 0f 01 bc
       -0.030344002 0.006231367 0.0109011205 -0.007877199
0002e0 7e 32 6e bb 79 6f e5 bc 13 d1 df bc 83 af 07 bd
       -0.0036346014 -0.028007256 -0.027321374 -0.033126365
0002f0 c6 c5 f3 bb 14 14 12 bd 57 c7 d2 bb 3d 1e 87 3c
       -0.007439348 -0.03566368 -0.0064324546 0.01649391
000300 2e a1 90 bc 10 18 04 bd 07 88 c6 bc 5b 57 0f 3c
       -0.017654981 -0.03224951 -0.024234785 0.0087488545
000310 71 c3 c4 bc 44 b4 c0 bc 4a 5c b4 bc 54 46 b1 bc
       -0.024018975 -0.023523457 -0.022016663 -0.02163998
000320 d1 fa 93 3c 36 12 81 bc ae ed bb 3c 0e 73 0e 3c
       0.018063935 -0.015755754 0.022940483 0.008694423
000330 d5 93 2e bc 4d 7e 01 bd 3b 41 8c 3c 23 19 ac 3c
       -0.010655363 -0.03161459 0.017120948 0.02100808
000340 03 1d 22 bc fe 5c 9e 3c 1b 73 3f bc 65 54 08 bd
       -0.009894612 0.019331452 -0.011685158 -0.03328361
000350 6d a9 10 bd ee c5 84 bc ce 76 95 3b 0f d2 7e 3c
       -0.035317827 -0.016207661 0.0045612818 0.015553012
000360 af 22 ab 3c f5 83 be 3c 6f 4d c4 3b a0 6c 02 bd
       0.020890562 0.023256281 0.005990676 -0.031841874
000370 6f 7c b7 3b cf 15 f8 bb 90 69 54 bc 25 eb 9c 3c
       0.0055995504 -0.007570959 -0.012964621 0.019155094
000380 e5 1b db bb 11 97 b4 bc a1 35 b3 3c 71 3f 43 3c
       -0.006686675 -0.02204469 0.021876158 0.011916981
000390 d3 c1 ca ba fe 46 95 3c 51 1c fa bc 14 df d0 bb
       -0.0015469141 0.018222328 -0.03053108 -0.0063742492
0003a0 a8 10 05 bd d9 dd 33 bb f1 7c 3f 3b 53 8e 89 ba
       -0.032486588 -0.0027445464 0.0029218758 -0.0010494686
0003b0 d3 a9 03 bd 67 88 d7 bc 1c 5a 0d bd b0 8e a4 3c
       -0.03214438 -0.026310159 -0.034509763 0.02008757
0003c0 ec f6 9a bc 7f 4f 91 3c 7a 1f fb bc de 63 8f ba
       -0.01891657 0.017738102 -0.030654658 -0.0010939797
0003d0 ab 5c b5 3c ef b7 47 bc 84 fa df bc 40 de 23 bc
       0.022138914 -0.012189849 -0.027341135 -0.010001719
0003e0 f6 4b 92 3b e1 56 41 bc da 4a 36 3b f8 fa 7e bb
       0.0044646217 -0.011800499 0.002781561 -0.0038906913
0003f0 92 a6 fe bc 2d 08 28 bc 57 95 94 bc 20 e9 af 3c
       -0.031085286 -0.0102558555 -0.018137617 0.021473467

fc1.bias f4 [128]
000000 65 16 28 3c bf bd e6 bc a5 d1 6c 3e db d1 23 3e
       0.0102592455 -0.02816665 0.23126848 0.15998022
000010 99 b6 dd 3b c8 16 26 bd 06 23 a7 3a 2f 4c 11 bd
       0.006766152 -0.04054907 0.0012751527 -0.035473045
000020 9c a2 7c bc 15 38 0d 3b f4 90 1d bc b7 9f d2 3d
       -0.0154196285 0.002154832 -0.009617079 0.102843694
000030 36 82 5f 3c 8d 4b 00 bd 8e 73 07 3b a3 3e d1 3b
       0.013641885 -0.03132205 0.0020668241 0.0063856407
000040 a4 12 ce bc 20 d7 93 bc 41 88 aa 3a b7 7c 12 bd
       -0.025155373 -0.018046916 0.0013010578 -0.03576347
000050 af 50 b4 bd dd 82 5f bc 9f 76 9f 3e c0 4a 93 3c
       -0.08804452 -0.01364204 0.31145188 0.01797998
000060 04 ca b2 3c bb 46 48 3e df 8c a5 bc 99 ac 93 3d
       0.021824844 0.19558232 -0.020208774 0.07210655
000070 2d 16 c1 bc 06 72 36 3c db 7e c4 bc ae 58 12 bd
       -0.023570145 0.011135584 -0.02398627 -0.035729103
000080 f8 ec 81 3c 60 0b 8b 3b de 89 a6 bc e3 9d 92 bb
       0.015860066 0.0042432994 -0.020329412 -0.004474388
000090 c3 c4 9c 3e 5c 90 0d bd ab 99 43 bc 3b 9b ed bc
       0.30618867 -0.0345615 -0.011938493 -0.029004684
0000a0 f3 a6 2b bc 86 e3 55 bc 10 5a 26 3c dc a8 96 3b
       -0.0104768155 -0.013054734 0.0101533085 0.0045977663
0000b0 bc 4e 33 3e a9 0d b4 bc c5 c1 67 bc de aa 56 bd
       0.17510504 -0.02197917 -0.014145319 -0.052409045
0000c0 1c 47 07 3c 4e d3 be ba a3 e5 cd bc b0 c4 81 bc
       0.0082567 -0.0014558823 -0.025133913 -0.015840858
0000d0 4c db ea bb 4a 0e 97 bb a0 ce 6a 3e b9 6a fb bc
       -0.0071672555 -0.0046098577 0.22930384 -0.030690538
0000e0 1c f0 09 bd 03 73 16 bc 82 d7 b3 3c e3 b4 c8 3d
       -0.03367625 -0.009182694 0.021953348 0.098001264
0000f0 b2 8f 0a 3e c3 c6 da 3a b7 8c 46 3e e8 13 14 bd
       0.13531378 0.0016691316 0.19389616 -0.036151797
000100 13 61 ef 3a 42 ff cc 3d 97 22 db 3b ea b4 00 bd
       0.0018263183 0.10009624 0.006687473 -0.031422533
000110 44 b1 95 3c 06 a6 05 3c a3 b8 93 3c b4 46 ea 3d
       0.018273003 0.008157259 0.018032378 0.11439267
000120 d1 8b 13 bd d9 bf 59 bc 40 77 93 bc b8 1d 2c 3d
       -0.03602201 -0.013290369 -0.018001199 0.04202053
000130 28 9f 71 bc fb 65 66 bc ff ab e2 3b 53 31 38 bc
       -0.014747418 -0.0140624 0.006917476 -0.011242229
000140 7f 24 25 3e e6 bf b3 3d 79 46 cc bc 9d 07 df 3c
       0.16127203 0.08776836 -0.024935948 0.02722531
000150 f9 f7 10 bd 9b 26 21 3c 0f f5 a4 bb cf 6c d4 bc
       -0.035392735 0.009835864 -0.005034096 -0.02593079
000160 4b 34 0a 3c 00 b8 ef bc c4 6e b6 bb bb b7 0f 3e
       0.008435319 -0.029262543 -0.0055674035 0.14034931
000170 52 de 0f bd bb 92 87 bb 48 f0 c4 3b 19 0b c1 bc
       -0.03512413 -0.0041373647 0.006010089 -0.023564862
000180 b5 de e0 bc db 78 fa bc 6f 11 b5 3d 50 c1 98 bc
       -0.027449945 -0.030575207 0.08841216 -0.018646866
000190 2d d4 95 3e e6 54 e9 3d 81 ea 0d bd fb 7f 0f bc
       0.2926344 0.11393146 -0.03464747 -0.00875854
0001a0 b2 d6 d2 bc b3 6b 10 bd 1a 14 06 bc df 8e 4e bd
       -0.02573714 -0.03525896 -0.0081835035 -0.05042922
0001b0 0e bb 93 3e 8c 39 09 be bc 35 84 3e 0f 09 ee bc
       0.2885365 -0.13400859 0.25822246 -0.029057054
0001c0 b7 25 8e bd d8 7f 02 3c be b4 7e bd dd 11 87 bc
       -0.06940787 0.007965051 -0.062184088 -0.01648801
0001d0 e4 f9 3a 3e 2d 6d bc 3c 85 d2 e9 ba c4 d0 14 bd
       0.18259388 0.023001278 -0.0017839229 -0.036331907
0001e0 60 0c 95 3e 3d 01 c8 3c 57 7d 92 3c 51 ba 35 3e
       0.29111004 0.024414653 0.017882032 0.17746855
0001f0 ba 0d 83 3b e6 04 90 bc 11 f3 9c bc 4b 08 70 3e
       0.003999439 -0.01758046 -0.019158872 0.23440664

fc2.weight f4 [4, 128]
000000 3b 8c 5d bd 13 0e 4d bd 64 e6 76 3d 20 a9 84 bf
       -0.054088812 -0.05006225 0.06027831 -1.0364113
000010 2f c9 73 bd ee ae e3 3c aa f8 05 3d be 2f fa 3b
       -0.059518036 0.027793374 0.032707848 0.007635086
000020 0e 2b 83 3d c7 6d a3 bd 17 c0 83 3c 72 1f 1c 3f
       0.064046964 -0.07979923 0.016082807 0.6098548
000030 d5 5e 17 bd b8 b4 86 bc a2 08 a2 3e 23 ce 15 3d
       -0.036955673 -0.016443595 0.3164721 0.03657354
000040 0a a9 b1 3c 8c 9c af 3c 0e f5 8b 3d 91 15 98 3c
       0.02168705 0.021436952 0.0683385 0.018564971
000050 21 05 27 bd 8f 96 7a bd 52 c9 98 bf d0 a1 53 3d
       -0.040776376 -0.06117874 -1.1936438 0.05166799
000060 d5 cc c7 bc 85 03 a3 3e 26 e8 b6 bc d6 14 1f 3f
       -0.024389664 0.31838623 -0.022327494 0.6214117
000070 99 44 da ba 9c 15 93 bd 21 74 cb bc 0c 1a 72 3c
       -0.0016652524 -0.07181856 -0.024835648 0.014776718
000080 ca cc 49 3c ad ba c4 3b 37 44 9e 3c 03 f0 e1 bd
       0.012316892 0.006003699 0.019319637 -0.11032107
000090 84 ff 02 3f 6a d5 e0 bc 7a 58 66 bd 39 7e 24 bd
       0.51171136 -0.027445514 -0.05623672 -0.040159438
0000a0 75 00 89 bd 08 31 34 bc c8 aa 4a 3d 02 84 82 3d
       -0.0668954 -0.010998018 0.049479276 0.06372835
0000b0 ba b2 7b bf 76 5b b4 bc 3e c7 9d 3d 9f 79 ed bc
       -0.9831959 -0.022016268 0.07704018 -0.028988658
0000c0 d4 4a 8f bd 14 0a 86 3b bd dc 4d bd 92 e8 91 bd
       -0.06996694 0.004090557 -0.05025934 -0.071244374
0000d0 58 7c ac 3c 1d 09 7f bd 10 3a 89 3f 58 12 b0 bc
       0.021055385 -0.06226455 1.0720844 -0.021493122
0000e0 69 42 5e bb 15 a9 30 bc 7c 0f a7 bd cf 89 b4 3e
       -0.0033914095 -0.0107825 -0.0815725 0.3526139
0000f0 a1 a4 5f 3f 10 a1 9e 3c 4d 42 8b bf 44 2a 0c bd
       0.8736058 0.01936391 -1.0879608 -0.034219995
000100 9a a2 22 bc 30 17 ca 3e e0 07 98 bd 0b f1 0f bd
       -0.009926463 0.39470816 -0.07423377 -0.035141986
000110 8d 6e 85 bc e3 6a 7a bd 78 34 e2 bc 1e ba 5f bf
       -0.016288066 -0.06113709 -0.02761291 -0.8739337
000120 8c c8 06 3d 2d 05 38 3e f0 81 08 3e c8 cf 38 3e
       0.0329061 0.17970724 0.13330817 0.18048012
000130 48 e8 76 bd 6b b8 2e 3e 18 ea 87 3d 63 ad 9b bd
       -0.060280114 0.17062537 0.06636447 -0.0760143
000140 59 f4 19 bf d7 0e 25 be f3 62 2e bd e7 e1 25 3e
       -0.6013847 -0.16118942 -0.042574834 0.16199456
000150 6c ab 6e bc 7d 7a 88 3c ec fe 53 bd 09 32 c2 3c
       -0.014567237 0.01665997 -0.051756784 0.0237055
000160 d4 1e 4e bd dd b2 a1 3d 59 f9 4b 3d a7 d2 5e 3f
       -0.05032237 0.078954436 0.049798343 0.8704018
000170 5f 79 00 bd 72 52 84 bd f4 2b 16 be 26 04 82 bc
       -0.03136575 -0.06461038 -0.14665204 -0.015871119
000180 fe 60 ab bc d8 db 85 bd 94 3a b0 3d 0e d4 60 3b
       -0.020920273 -0.065360725 0.08604923 0.0034306082
000190 b2 48 37 3f ed 80 81 3e 3e ea 3c 3c 19 a6 c7 3b
       0.715953 0.25293675 0.011530457 0.0060927984
0001a0 a7 b5 ca 3c 31 88 fb bc e6 ca a9 bd 18 d6 82 3d
       0.024744822 -0.03070459 -0.08290653 0.063884914
0001b0 c5 15 d0 bf c0 32 19 bd 92 b1 59 be 5d 32 73 3d
       -1.6256644 -0.037401915 -0.21259144 0.059374202
0001c0 27 85 06 3e 28 7c f5 bc ef d0 77 bf 82 32 40 bd
       0.13136731 -0.029966429 -0.9680318 -0.046923168
0001d0 2f 39 27 3f a7 28 12 3f 4a 64 09 3d 09 85 7d bc
       0.6532163 0.5709328 0.03354291 -0.015473613
0001e0 62 ff 88 3e 6b 2f a7 bd db 57 97 bd e0 62 96 3f
       0.26757342 -0.08163341 -0.07389804 1.1748924
0001f0 bb 7b 9b bd 53 6e 07 bd f6 4c 49 bd a4 75 a2 bf
       -0.07591959 -0.033064198 -0.04914566 -1.2692151
000200 aa 0c 87 bd 26 c5 68 3c f6 e2 42 3f 77 3a 26 3f
       -0.06594212 0.01420716 0.76127565 0.6493296
000210 9c 2a d4 bc 63 db 47 bd 05 43 35 bd 66 57 58 bd
       -0.025899224 -0.048793208 -0.044253368 -0.052817725
000220 21 fd d1 3c bd 42 8a b9 75 0a ca 3c 67 dd 90 bf
       0.025633397 -0.00026371135 0.02466319 -1.1317567
000230 91 88 17 3d 71 ab 7b bd d7 41 83 bf c5 fa 7d 3d
       0.036995474 -0.061442796 -1.0254468 0.06200673
000240 2a d2 2d bd 8c ef 92 3c 6f 94 ad 3e 94 fc e6 3c
       -0.042436756 0.01793649 0.33902308 0.02819661
000250 b8 1d 1f 3c df d5 a2 3c af bf ab be fb b1 39 3d
       0.009711675 0.019877372 -0.3354468 0.04533575
000260 00 31 87 3b 27 1f 51 3f 34 b2 ac 3c 64 0f df bf
       0.0041257143 0.8168816 0.021081068 -1.7426572
000270 b7 af f9 bc 83 b6 95 3d 2c ad 7f 3c 4f 3f 0a 3c
       -0.030479295 0.07310202 0.015605252 0.0084379455
000280 cd bd 95 bd 00 48 5d 3c f6 19 90 3d 5d 1c c2 bc
       -0.07311592 0.013505936 0.07036202 -0.023695165
000290 10 fd 3b be 15 1c c5 3c b0 22 79 bd 68 c6 6d bd
       -0.18358254 0.024061242 -0.060824096 -0.058050543
0002a0 e7 af 83 3c dd 8d fb bc 32 88 45 3d 5a cc 29 bd
       0.016075088 -0.030707294 0.04822559 -0.04145465
0002b0 1f 7d 06 3f 14 e9 7a 3a f1 e2 0c bd e3 7c 77 bd
       0.5253467 0.00095714745 -0.034396116 -0.060421836
0002c0 29 2d 8f 3d ef 25 5b 3d 33 a3 6d bd 42 62 88 bd
       0.069910355 0.053502973 -0.058016967 -0.06659366
0002d0 89 96 98 3c e7 ed 3b 3c cf be 73 3d 07 e8 1a bd
       0.018626468 0.011470295 0.05950814 -0.037818935
0002e0 51 89 b8 3c ff b2 97 3c a0 0e 8f 3d b2 68 84 bf
       0.022526415 0.01851797 0.06985211 -1.034445
0002f0 35 14 ed bd 93 3e 43 3d fc b6 46 3e aa e8 95 bc
       -0.1157612 0.047667097 0.1940574 -0.01829942
000300 48 fe 57 3d 4d f3 b8 bf c1 8c 5b bd 27 2b 70 bd
       0.052732736 -1.444925 -0.05360103 -0.058634903
000310 20 69 82 3c 6e c7 56 3d 63 bc f9 bb 8c 1e 92 3e
       0.015919268 0.052436285 -0.0076213344 0.2853893
000320 6c 13 1a 3d e5 5e c2 be 16 ac 23 bc eb b9 a0 bf
       0.03761618 -0.37963024 -0.009989759 -1.2556738
000330 7d 4c 89 3c 66 dd f0 bc 9b c4 84 3c 55 da 6d 3d
       0.016760105 -0.029402446 0.01620703 0.058069546
000340 c7 5d 5c bf f9 ea b8 bf 86 7c 2b bd 7a f0 5c bf
       -0.8608059 -1.4446708 -0.0418668 -0.8630444
000350 fc 39 82 3d 89 e3 79 bd 53 94 1f 3d af 88 87 bc
       0.06358716 -0.06100801 0.038959812 -0.016544668
000360 f8 cc 22 bd 44 9b 0f 3d e4 0f 9f bd a3 7f 6a bf
       -0.039746255 0.035060182 -0.07766703 -0.9160101
000370 4b 54 22 bd f5 c0 d6 3c 2b 82 3a 3f 8a 3a 8c 3c
       -0.03963117 0.026215056 0.7285487 0.017117757
000380 c3 05 a8 3d 7a 34 74 3d 87 8e 25 3f b4 b1 54 3d
       0.08204224 0.059620358 0.64670604 0.051927283
000390 89 51 90 3d 43 94 03 3f 69 86 d3 bc 7c f5 81 ba
       0.070468016 0.51398104 -0.025820928 -0.0009915079
0003a0 78 0d 2a 3b 24 ee 84 3d 31 52 66 3d 34 d8 04 bc
       0.002594797 0.06490734 0.056230728 -0.0081081875
0003b0 ef d8 3a 3e c0 d5 30 3b 02 be 08 3f 74 04 6f bc
       0.18246816 0.0026982874 0.5341493 -0.014588464
0003c0 d4 dc 92 3d 25 5b f5 3a 4a 3d 6a 3f 23 9f ea 3c
       0.07171026 0.001871918 0.9149977 0.028640335
0003d0 71 9a 8c bd f9 84 4a bf e4 b9 07 3d 92 a9 74 bd
       -0.06865395 -0.7910915 0.033136263 -0.059732027
0003e0 46 45 e0 bc 00 c1 88 bd 58 85 04 bd fa a1 84 bf
       -0.027376782 -0.06677437 -0.03235373 -1.0361931
0003f0 04 fb 9a bd 7d 46 90 3c aa ac 0e bd 94 ef 35 bf
       -0.07567409 0.017611736 -0.034832634 -0.7106869

fc2.bias f4 [4]
000000 c4 90 08 bd 47 3f 7e 3d 5a 6c 09 be 41 32 ed ba
       -0.033341184 0.062072065 -0.13420239 -0.0018096642
