cnn saved models/cnn_epoch26.pt (torch, 609343 bytes, 16 tensors)

conv1.weight f4 [32, 1, 3, 3]
00000000: 906d bc3e 78a4 e63e b1e6 92be 4f11 d0be
00000010: 8f70 babe 0afa 83be 726b 993d e6b4 0c3d
00000020: 366f ba3e 46d2 693f 4d4f 36be 5e7d aa3e
00000030: 1477 88be bd75 e1bd 38c5 a5be 3eab e73c
00000040: 0b02 b73e 862b e3bd 2c27 e23d 699c 5e3d
00000050: c83d cc3e a1a2 a2be 701b 1cbf 56bc e33d
00000060: 8e4f 9d3e 25d0 a93e 1628 c8be b72e dfbc
00000070: aeee ee3e 108d 883e 701a 453d df4c 90be
00000080: a70f 21bf e7ec d7bd fee7 913e 217e 05be
00000090: 99db 1fbe 8af7 64be bbe3 7e3e 860b bebe
000000a0: 3430 893e ed41 213e 5b6a d93e 9e3b b53d
000000b0: b9b9 bdbe 7907 103e e697 d9be 124f 1abf
000000c0: f3a7 4e3e c4f9 9e3e a575 14bd 3c8b abbe
000000d0: 793a 0cbe 9d7a 22bf 02b7 283e df64 a9be
000000e0: 8c2c 8bbe d194 163e fee8 aa3e 253f e93e
000000f0: 132e 01bf 6e0f a23d 2786 a4bd 48ba ec3e
00000100: 0c42 bcbe 9310 c4be fb7a ad3e 8d9f 35be
00000110: bae1 c7be bcc1 8b3e 7a10 c8bb a564 653e
00000120: 1443 203e 15d7 30be 1c3a 61bf da21 cdbc
00000130: 1021 203d 94cb b03d 8565 913e e974 1c3e
00000140: 475c a4bc 8035 843e d257 cbbe 738b 0b3f
00000150: 3132 47be 9071 35be 393c 16bf 494a 5e3e
00000160: d3ab 503e cdb3 c0bd 5822 b8bc 0aba 84be
00000170: 5f3a c3bd 5043 a5be fd4e e83d 15a5 ffbe
00000180: eb32 b13e 9490 f03e 6ad9 7ebc 9296 7bbe
00000190: e780 483e 3f9d dbbd 8d6c eb3d d18c 8c3e
000001a0: eb2d 33be 166a 1d3f fef4 9cbe fbee a1be
000001b0: f0a7 0b3f 4b39 303e 5418 643d 2003 6c3e
000001c0: fce6 6cbe 77ed 59be 4d2a a8be e602 1fbe
000001d0: 8409 97be 85e0 08bf c842 7bbd 673d e1be
000001e0: ccf5 8dbe dd5e 363e 649a 943c e97d e93b
000001f0: 9d7a 563e 503a dc3e b85e e93e ba52 d8be
00000200: 5d14 b9bd c508 9b3e 8643 413e 8d2b 03bf
00000210: 2168 cc3e 2f4c bb3d 2423 e1be 378a 433d
00000220: bcbf 09be 3142 21bf 3478 103e 869f d4be
00000230: 8a5a c2bd 86e9 193f f4ea 043e 967d 09be
00000240: 5d76 bd3e 719b 3d3e 8ee3 dabe b212 1cbe
00000250: c315 4abe c2a7 fa3e 7baf 05bf 6fb1 cc3e
00000260: 34b3 76bd d751 84be a474 edbb 45f0 183e
00000270: 8228 953d 4875 1ebf c64a d2be 3677 8e3e
00000280: 41c4 ca3e d905 ac3e 02f5 a03e 6a16 0c3f
00000290: 6524 063e c23b 753e 6ee0 88be 547f 55be
000002a0: bfc1 7abd 48b8 bfbe 832b bbba 85d0 e13e
000002b0: 3e0e 823e f6b8 fb3c 575d 27bf 962d 08bf
000002c0: 6402 9c3d cd7d 023e 1515 113e 71cb 973e
000002d0: baf6 943c 3809 0fbf 364b f03e b503 d8be
000002e0: 5380 4fbe a259 923e ab8e d9bd 608b b1bc
000002f0: 4648 723e 3f85 e2be f3f4 b13e ab79 ec3e
00000300: 8a6d 263e 2a53 05be d434 24be 1682 503e
00000310: 54fe 58bd 1bff 01bf a4aa 383e e4da 84be
00000320: 123b 54be a70a e93e 4315 9ebd 9e85 39be
00000330: 9b7b 07bf e880 a73e 68c5 cc3e 7ac9 6fbe
00000340: 0471 cdbb a324 0a3e 3ab8 4abd 2fb9 88be
00000350: 8e60 ac3e 259f eabe b05e d6bc e4cd 113f
00000360: 0a6a cabe 19ef bebd c843 b93e aec8 13bf
00000370: 947b e9bd 1827 8f3e 849b 813d c31c c63e
00000380: 42a7 bb3c 0790 5b3e 4131 90be 8978 7c3d
00000390: 7158 9f3e 8914 3dbf 8738 ca3e 4f4a 373e
000003a0: f6c3 ddbe 5a12 7d3e 1a21 453e 1cbf 12bf
000003b0: 5467 b2be 515b 583e 7da3 ecbe 6eee 7dbe
000003c0: ecd1 fdbd 2908 ea3e f4a6 333e 1a6c 1cbf
000003d0: a2d1 cbbe db5c 883e f7dd 123e a258 afbd
000003e0: 1708 d2bd a845 643e 3838 2abe d7be c23e
000003f0: 5c92 94be dff0 953e fd6c 0c3f 01cb d1be
0.3680234 0.45047355 -0.2869163 -0.40638205 -0.36414 -0.25776702 0.07491197 0.034352206
0.36412972 0.91336477 -0.17803688 0.33298773 -0.2665335 -0.11008785 -0.32377028 0.028279897
0.35743746 -0.11092286 0.11042628 0.054348383 0.39890885 -0.317647 -0.60979366 0.111199066
0.30724758 0.33166614 -0.39093083 -0.027243955 0.46666473 0.26670122 0.048120916 -0.28183648
-0.6291451 -0.105432324 0.28497308 -0.13036396 -0.15611114 -0.22360054 0.2489156 -0.37118167
0.2679459 0.15747805 0.42463955 0.08849262 -0.37055758 0.1406535 -0.42498702 -0.602769
0.20181255 0.3104993 -0.036245007 -0.33504665 -0.1369418 -0.63468343 0.16476062 -0.3308477
-0.27182424 0.14705206 0.33380884 0.45555988 -0.5046093 0.07913099 -0.080334 0.4623587
-0.3676914 -0.38293895 0.3388289 -0.17736645 -0.39039403 0.27296245 -0.00610548 0.22401674
0.15650588 -0.17269547 -0.8797929 -0.025040556 0.03909403 0.086325794 0.28397766 0.15278973
-0.020063533 0.25822067 -0.3971544 0.5450966 -0.1945274 -0.17719102 -0.5868564 0.21708025
0.20378046 -0.09409294 -0.022477314 -0.25923187 -0.09532618 -0.32277918 0.11343191 -0.49930635
0.3460916 0.46985304 -0.015554765 -0.24569157 0.19580422 -0.10723352 0.11495314 0.27451184
-0.17497985 0.6149 -0.30655664 -0.3162764 0.5455313 0.17209356 0.055687264 0.23048067
-0.23134989 -0.21281992 -0.32844773 -0.1552845 -0.29499447 -0.5346759 -0.061342984 -0.4399216
-0.2772659 0.17809625 0.018140025 0.0071256054 0.20945211 0.4301324 0.45580077 -0.42250615
-0.09037087 0.30280128 0.18873414 -0.5123833 0.39923194 0.0914539 -0.43972123 0.047739234
-0.13452047 -0.62991625 0.14108354 -0.41527957 -0.09489925 0.60121953 0.12980253 -0.13426813
0.37004367 0.18516327 -0.42751735 -0.15241507 -0.19734864 0.48956114 -0.52220887 0.3997912
-0.060229495 -0.2584369 -0.0072465707 0.14935406 0.07283117 -0.61897707 -0.41072673 0.27825326
0.39602855 0.3359821 0.31436926 0.547217 0.13099821 0.23948577 -0.26733726 -0.20849353
-0.061219927 -0.37445283 -0.0014279935 0.441044 0.2540149 0.030727845 -0.653768 -0.5319456
0.076176435 0.12743302 0.14168198 0.296474 0.018184055 -0.5587344 0.4693238 -0.42190328
-0.20263796 0.2858401 -0.10622915 -0.021672904 0.23660383 -0.44242284 0.34757194 0.46186575
0.16252723 -0.13020006 -0.16035777 0.20362124 -0.05297692 -0.50779885 0.18033844 -0.2594825
-0.20725659 0.4551594 -0.07718899 -0.18117377 -0.5292298 0.32715535 0.3999436 -0.23416701
-0.006269576 0.13490538 -0.0494921 -0.26703784 0.33667415 -0.45824543 -0.026168197 0.5695479
-0.39534026 -0.09322948 0.36184525 -0.5772809 -0.11400524 0.27959514 0.063284904 0.38693818
0.022906903 0.21441661 -0.28162578 0.06163839 0.31122163 -0.7385946 0.39496252 0.1789944
-0.4331357 0.24714032 0.19250908 -0.5732286 -0.34844458 0.21128584 -0.46218482 -0.24797985
-0.12393555 0.4570935 0.17544156 -0.6110245 -0.39808375 0.26633343 0.14342485 -0.08561827
-0.10255449 0.22292197 -0.16623008 0.38036224 -0.29017913 0.29285333 0.548538 -0.40975192

conv1.bias f4 [32]
00000000: 6e65 b23e b857 e63e deda 48bd 0a82 07bf
00000010: 3c10 103f 2f35 853e bd99 d8bd 11c3 053d
00000020: 9f70 0b3f f49e 103e 26c4 243e 58f9 fc3e
00000030: 50f0 0b3f e8c1 933e bdf0 26be 1ea0 0fbe
00000040: f8db 57bd 6d23 f33e 64f5 84bf 9229 ae3e
00000050: 0998 d33d ef78 8a3d 893d d43e 97b4 04be
00000060: 35c8 343f c558 36be dded 1cbd 524a 803d
00000070: 5495 97bc acff cdbc 22b4 b6be 6e2c 7f3d
0.3484301 0.449888 -0.049036853 -0.529328 0.5627477 0.26017138 -0.10576198 0.032656733
0.5446872 0.14123136 0.1609045 0.49408984 0.5466356 0.28858876 -0.16302772 -0.14025924
-0.052700013 0.47487965 -1.0387387 0.3401609 0.10331733 0.067613475 0.41453198 -0.12959515
0.7061799 -0.178073 -0.03831278 0.062641755 -0.018503822 -0.025146328 -0.35684305 0.06229823

BN1.weight f4 [32]
00000000: f9f6 ab3f b7f2 d83e 4a8f 923f 02bf 603f
00000010: 495d 643f 4d85 423f 7712 813f ec48 1a3f
00000020: b422 863f f18c c13f 6ae0 673f 2dcc e63e
00000030: 5095 643f 593b 5a3f 050a 183f e5f2 903f
00000040: 3229 623f 34b9 d03e 2284 403f f114 5d3f
00000050: 5b6a 873f 6316 853f 17e5 833f a727 e23e
00000060: 3882 073f ca56 9f3f 078d ad3f a4df 413f
00000070: f366 6a3f 3457 3e3f 5141 553f 2774 643f
1.3434745 0.42372677 1.1449978 0.87791455 0.8920484 0.7598465 1.008376 0.6026752
1.047934 1.5121137 0.90576804 0.4507765 0.8929033 0.8524681 0.5939029 1.1324126
0.8834411 0.407663 0.7520162 0.8636008 1.0579332 1.0397457 1.0304288 0.44170877
0.52933073 1.2448361 1.3558663 0.75731874 0.9156334 0.7435181 0.8330279 0.89239734

BN1.bias f4 [32]
00000000: 44d9 dabe bce9 f1bd b7d0 6cbe d3ad cfbd
00000010: ee20 8ebf 222c aabe 12e9 f3bd 80af c5bd
00000020: c262 1cbf f159 4abf 633d e1be e4fc 2cbe
00000030: c0ec 603d cb0e d8be fefd a0bd 6d14 53bf
00000040: 6ac4 5cbf cd01 9abd 27ef 4abf e3ff 1ebf
00000050: 16e2 17bf 3c6d 0dbf 0b33 9abf 46a9 36bd
00000060: 085e 95bd 52df cdbe a688 71bf d84f acbd
00000070: 0d11 44bd 7c26 74bd c1ca 3ebf d6b7 24be
-0.42743886 -0.118121594 -0.23126493 -0.10140576 -1.1103799 -0.33236796 -0.11909689 -0.096526146
-0.6108819 -0.7904349 -0.43992147 -0.16893345 0.054913282 -0.42198786 -0.07860945 -0.8245304
-0.86237204 -0.07519875 -0.7927117 -0.621092 -0.59329355 -0.55244803 -1.2046827 -0.044595025
-0.07293326 -0.40209442 -0.94349134 -0.084136665 -0.047867823 -0.059607014 -0.7452813 -0.16085753

BN1.running_mean f4 [32]
00000000: 73de ad3e 5ce5 0e3f e844 5dbd 8c27 0dbf
00000010: 4b0a 133f da6d ccb9 2884 d0bd c920 cd3c
00000020: 3945 f53e 5b36 c43d 1f89 dd3d 1a32 013f
00000030: 3803 023f 9efc 533e 1d58 2cbe 0db5 69be
00000040: 12d7 15bd 6870 ea3e 040d 7cbf b05d ba3e
00000050: 31e6 3c3d bc33 3f3d 272f de3e 7ce3 06be
00000060: d167 313f 2c53 42be 8464 2cbe 21ff 7aba
00000070: 3586 3cbd 04a4 88bd d5b1 b1be c2ef 303d
0.33958778 0.55818725 -0.054020792 -0.5513847 0.5743758 -0.00038991758 -0.10181457 0.025040047
0.47904375 0.0958068 0.108171694 0.50467074 0.5078616 0.20701835 -0.16830488 -0.22822972
-0.03658206 0.45788884 -0.9845736 0.36399603 0.046117965 0.046680197 0.4339535 -0.13172716
0.69299036 -0.1897704 -0.16835219 -0.00095747603 -0.046026427 -0.066719085 -0.34705988 0.0431974

BN1.running_var f4 [32]
00000000: 17a2 c43b b7b2 8c3c 28be 923b b170 ff3b
00000010: 70f5 903a 51f3 853d 822a 9c3b c21c d23b
00000020: cf2a 823c a80d f33b 7701 6d3c d2c5 d83a
00000030: 7d29 913c a2db ca3c 310a 753b ed0f aa3c
00000040: 94b7 c73a 1a40 533c ea70 863c 80d3 ef3b
00000050: ca22 c13b 9327 943b 7bf4 2b3b 34f2 2a3b
00000060: 466f b53b 44ea da3a c29a e53c 1f4f 563c
00000070: 474f 503c ec61 023c 3602 a939 59ed bd3c
0.006000768 0.017175062 0.004478235 0.0077954163 0.0011059474 0.065405495 0.0047658095 0.0064121196
0.015889553 0.0074173994 0.014465681 0.0016538447 0.017719978 0.024762932 0.0037390108 0.020759547
0.0015237206 0.012893701 0.016411263 0.007318914 0.0058940398 0.004521319 0.002623825 0.0026084306
0.0055369465 0.0016701897 0.028027896 0.013080387 0.012714214 0.007957917 0.0003223584 0.023184465

conv2.weight f4 [64, 32, 3, 3]
00000000: a0ce 74bd d814 9c3e a84b 8ebd 6894 c93d
00000010: bc3c 083e eaa7 7dbe d837 d0bd d564 5f3d
00000020: 0401 a4bd 9923 21be 182d 19be 5d59 c4bd
00000030: 5336 90be f5fa dfbe 5115 e6be 1b1b a33e
00000040: 2bbd 693e a6c6 9e3e a3d5 bab9 cd8d a83d
00000050: 95f9 1e3e d8d4 b5bd b0d2 d8bc 90cb 6e3d
00000060: 3637 8ebd 0fea b2bd ded0 a53d b0b1 73be
00000070: 8367 a63d bf4b 943e d8a8 0ebf 4ca0 853d
00000080: 8a7b 03be b822 a5bd 5b15 ad3e c028 eb3d
00000090: a655 ae3e b495 d7be 12d4 79be c788 40be
000000a0: a5a9 83be 28cb 41be 728f 4ebd 071d 7fbe
000000b0: d83f 26be f0ed a6be 6799 d73c a8a7 aabe
000000c0: 4ed9 a4be 6200 13bd a890 83be dd2f 553e
000000d0: f9ae b63e 3ba7 503e e1d1 72be b9a7 48be
000000e0: 842f 96be db49 0c3b 3984 053e 3251 8a3e
000000f0: 82e2 b6be ac92 9ebe f792 3dbe 52a7 8fbd
00000100: a5da fd3d b9b9 e63d 48b2 72be 3f58 aabd
00000110: db7e 12bf 2ec7 2f3e 364e 623e 917f 773e
00000120: d16b c2be 8be4 6bbd 1601 7ebe b4cb 5dbe
00000130: 6ff6 063e d4a0 babe d367 993e 7013 873e
00000140: 12c5 5abd f481 07bf 9483 42bf bfcf 36bf
00000150: 3585 d03e d96c 493e 4cd0 71bc 2508 c4be
00000160: c92c d7be 314f 01bf 0484 063f 9c93 c03e
00000170: 0a24 8f3e 1554 54be 95a5 ebbd 7ce8 13bf
00000180: 307e 313e 31cf b73d 39a1 363c 7d69 303d
00000190: 8d30 d43d 0f9f e2bd 4cdd 2abe bb20 243d
000001a0: 7629 35be d1df 9c3e f6a6 9d3d e5ee a0be
000001b0: ee8d e13e b7f6 a03e f911 03bc 1866 193e
000001c0: 4d17 c9bd 11dc 7bbf 790c f8bd 20b7 993d
000001d0: cb20 153e 4f76 8cb9 a3b5 8e3c 039d 24be
000001e0: 4746 8dbe 2859 a63b 3400 c5be 0e35 963c
000001f0: cd63 073d 4f1a 993d 6bbe e2bb 965d 263d
00000200: 9ceb 13be b0a4 32bd a3ba 2f3b 76b4 3bbf
00000210: 1268 03bd 8946 533d 681b aabe a021 eabe
00000220: e30a 53be eb5d 43bf e29b 08bd f850 8d3d
00000230: 5f1c 6fbd b45f a93e dd32 4c3d 0b86 c7be
00000240: f74a 44bf 0e6f 57be 234f d5be 99f8 333e
00000250: 043d 933e f01c 823d ff1f b5bd 7aee 17be
00000260: 2049 3e3e 249e e33e b811 9f3e 9f4a e93e
00000270: 4300 3cbe 4d0e 59be e80a f5bd da78 393d
00000280: 02e9 b93d bdaa 543e 4649 13bf b281 0abf
00000290: 2c68 70be 9cf8 803e 6619 82be f8bc 0dbf
000002a0: afe0 983e cf18 923e 99ad bd3e 6557 cabe
000002b0: 0f56 e1bd 2bd9 3abe 6ed8 4e3c effb d7bb
000002c0: 3029 3cbe 30d4 633e 3708 1a3e 8330 d23e
000002d0: 0e98 b63e 34e5 0f3e 0d2f eabd 30a8 aebe
000002e0: 0fd8 f4bd c438 e6be 1ca3 07bf 4e61 2fbd
000002f0: 3a6e 28bf 4faf f7be aa6e 67be dd46 6c3e
00000300: 5bf6 05bf 7083 cbbe 36ce 00bf c20a 36be
00000310: b4bb a43e aa4b 823e aa55 21be 60b0 ca3d
00000320: 1e1f 853e 4b6b c43e f9c1 1e3d 76a1 cabd
00000330: c741 1dbe a438 43bd 6960 e53d ec8f 5f3e
00000340: b494 063e dfee 803e bb75 2dbe 1f1c d23b
00000350: 0678 88bd 7f5c eebe 4ad9 febc 775f 9dbe
00000360: 7ef4 343e 53d3 723d daf6 9a3e a630 84be
00000370: ee3c 4fbe cf18 a9be f199 81bd f6ef 0d3e
00000380: f74b a33e c9b0 583e 6eac 233e 8626 903d
00000390: 9249 c03c c1f3 71bd ea4a 32bc a682 85be
000003a0: ebb8 d6be 64e0 1bbf 4b55 83bf 11d5 9fbf
000003b0: eecd b0bf ad8f 35be fae8 6abe b6da 66be
000003c0: c349 86be 0727 d8be 23eb e8be ce1f 273e
000003d0: e8c9 5fbe 6795 03bf 806d e2be abd4 e3be
000003e0: 698a a8be 0247 973e d5b6 aa3e f4c7 a53e
000003f0: a895 ac3e 1708 553e e899 2d3f c024 cdbd
-0.059767365 0.30484653 -0.06948024 0.09842759 0.13304418 -0.24771085 -0.10166901 0.05453952
-0.08008006 -0.15736236 -0.14958608 -0.09587357 -0.28166446 -0.43746153 -0.44938138 0.31856617
0.22826068 0.31010932 -0.00035635856 0.08230171 0.15524895 -0.08878487 -0.026467651 0.0582996
-0.069441244 -0.087360494 0.08096479 -0.23798251 0.08125212 0.2896404 -0.55726385 0.06524715
-0.12840095 -0.08063263 0.33805355 0.11482382 0.3404972 -0.42106402 -0.24397305 -0.18802176
-0.25715366 -0.18925154 -0.05042977 -0.24913417 -0.16235292 -0.32603407 0.026318265 -0.33331037
-0.3219704 -0.035889037 -0.256963 0.2081904 0.3568037 0.20376293 -0.23712875 -0.19595231
-0.29333127 0.0021406326 0.1303872 0.27015072 -0.35719687 -0.30971277 -0.18513094 -0.07014336
0.12395219 0.112658925 -0.23700821 -0.08317613 -0.57224816 0.17165825 0.22100148 0.24169756
-0.37972882 -0.057591002 -0.24805102 -0.21659738 0.13179944 -0.36450827 0.29962024 0.26382017
-0.053410597 -0.5293267 -0.7598202 -0.71410745 0.4072663 0.19670428 -0.0147591345 -0.38287464
-0.42026356 -0.5051146 0.5254519 0.37612617 0.27957183 -0.207352 -0.11506192 -0.5777662
0.17333293 0.089750655 0.011146837 0.04306935 0.10360823 -0.11065494 -0.1668598 0.040070277
-0.17691597 0.30639508 0.07697861 -0.31432262 0.44053596 0.31438228 -0.0079998905 0.14980352
-0.098188974 -0.9838267 -0.12111754 0.075056314 0.14563291 -0.00026791028 0.017420596 -0.1607552
-0.2759268 0.005076546 -0.38476717 0.018335845 0.03305416 0.07475721 -0.0069196722 0.040616594
-0.14445347 -0.04361409 0.0026814125 -0.73322237 -0.03208167 0.05158094 -0.33224034 -0.4572878
-0.20609622 -0.7631518 -0.033351786 0.06900209 -0.058376666 0.33080828 0.049853195 -0.38969454
-0.7667689 -0.21038458 -0.4166194 0.17575301 0.2875749 0.06353176 -0.088439934 -0.14837065
0.18582582 0.4445659 0.31068206 0.45564744 -0.18359475 -0.21196862 -0.11964971 0.04528127
0.09077646 0.20768256 -0.5753368 -0.5410415 -0.23477238 0.25189674 -0.25410002 -0.5536647
0.2985892 0.28534552 0.37046507 -0.39519802 -0.110027425 -0.18246906 0.012624843 -0.006591312
-0.18375087 0.22248912 0.15042196 0.41052637 0.35662884 0.14052278 -0.114347555 -0.34112692
-0.119552724 -0.44965184 -0.5298326 -0.042817406 -0.6579319 -0.48375937 -0.22600809 0.23073907
-0.52329034 -0.39748716 -0.5031465 -0.17777541 0.32174456 0.25448352 -0.15755334 0.09896922
0.26000303 0.38363108 0.038759205 -0.098940775 -0.15357123 -0.04766144 0.112000294 0.21832246
0.13142663 0.25182244 -0.16939442 0.0064120437 -0.06663518 -0.46554944 -0.03110947 -0.30736896
0.17671391 0.059283566 0.30266458 -0.25818366 -0.20238087 -0.3302674 -0.0632819 0.13861069
0.31893894 0.21161188 0.15983745 0.07038598 0.023472581 -0.059070352 -0.010882119 -0.2607624
-0.41937956 -0.6088927 -1.0260404 -1.2486898 -1.3812845 -0.17730589 -0.22940436 -0.22544369
-0.2622815 -0.42217276 -0.45491895 0.16320726 -0.21854365 -0.51399845 -0.44224167 -0.4449819
-0.329181 0.29546362 0.33342615 0.32379115 0.3370793 0.20803867 0.6781297 -0.10016775

conv2.bias f4 [64]
00000000: 0a1b 5cbd 08e9 1c3d 72f3 3c3c 9665 06bd
00000010: 08cc 943d b460 d73b 0741 973d 271f 133d
00000020: e93a 193d 1907 0ebd 19f1 8d3d d784 dc3c
00000030: 609b 863d 5a4e 71be 0311 743c 4166 6f3d
00000040: 030d fc3c 39e7 26be 390c 38bd ff04 553d
00000050: ca34 d93d 15e8 093d 6c07 44be b4ee d0bd
00000060: 918f 67bd 2b24 babb c90a 283d f4f3 db3c
00000070: e0d7 523d 5e6b 8c3c 2fb3 b23c 95d1 993d
00000080: b9bd 303d 6487 78bd c30c 0abd 7340 05be
00000090: 0421 5f3d 21a5 0cbd 422c 00be f937 cfbd
000000a0: 3129 023d d464 55bc 76e1 323d 061e 933c
000000b0: e96d b43c 5d8d d7bd 9bee 2e3d 917b cbbd
000000c0: 0588 523d ab3d 80bd fb87 663c 9f11 af3b
000000d0: 682b af3d 2c21 ac3d 67ff 2d3c 84b3 4c3e
000000e0: 979e 4b3e 51d7 0a3d c3e1 46bd 410c 21bd
000000f0: 6ecf a63d 3092 3abc b153 18bc f07e 77bd
-0.053736724 0.038308173 0.011532651 -0.032811724 0.072654784 0.006572807 0.0738545 0.03591838
0.037409697 -0.034674738 0.06930751 0.026918812 0.06572604 -0.23565045 0.014896634 0.058447126
0.030767923 -0.16299142 -0.04493353 0.052006718 0.10605772 0.033668596 -0.19143456 -0.10201779
-0.0565334 -0.005680581 0.04102591 0.026849724 0.051475406 0.01714104 0.021813957 0.07510678
0.043149684 -0.060675994 -0.033703577 -0.13012867 0.054474846 -0.034337167 -0.12516883 -0.10118098
0.031777564 -0.013024528 0.043672048 0.017958652 0.022025065 -0.1052501 0.04270802 -0.09935678
0.05139925 -0.06261762 0.014070506 0.005342677 0.08553201 0.084047645 0.010619975 0.19990355
0.19884716 0.033896748 -0.048555147 -0.039318327 0.08145033 -0.011387393 -0.009297297 -0.06042379

BN2.weight f4 [64]
00000000: 8f26 af3f cd2d 953f e375 a53f e8d3 ac3f
00000010: 3b96 8e3f 23ba aa3f 8a94 583f b78a 8a3f
00000020: 8dce a93f 65ce a93f 5dc4 933f f191 a13f
00000030: 26a4 b23f f775 c23f b396 973f b090 893f
00000040: 65a9 b33f 6ce0 b43f f8da e93f 64de 2240
00000050: cab9 a13f 4689 ba3f 1e37 1540 22aa a93f
00000060: 624e b43f d2b3 0740 4693 c03f 65e6 b13f
00000070: 2030 c03f 8d2e ad3f a959 c53f 0e3d 9f3f
00000080: 5607 c73f 8e93 c23f 5a51 ac3f c13e b33f
00000090: 4348 0040 af53 8e3f 1699 4e3f d829 9e3f
000000a0: 5b78 8c3f 4f78 813f 1336 a33f 64cb 0640
000000b0: a5d5 d83f c6c8 b33f af26 cc3f b783 743f
000000c0: 0688 df3f 672a a03f 21a2 ac3f 6b03 b73f
000000d0: 1484 cc3f 7758 763f a2b1 a53f 42dc a23f
000000e0: 11bc 8f3f 6744 ba3f b99c 9a3f 66c4 8e3f
000000f0: 0639 d13f 387a c13f fb6c f53f 0f66 a13f
1.3683642 1.1654602 1.2926601 1.3502169 1.1139597 1.3338054 0.8460165 1.0823582
1.3266159 1.3266112 1.15443 1.2622663 1.3956344 1.519225 1.1842865 1.074728
1.403607 1.4130988 1.8269949 2.5448236 1.2634823 1.4573143 2.331489 1.3255045
1.408642 2.1203504 1.5044944 1.3898436 1.5014687 1.3529831 1.5417987 1.2440507
1.5549114 1.520128 1.3462327 1.4003526 2.0044105 1.1119288 0.8070234 1.235652
1.097423 1.011484 1.2750877 2.106164 1.6940199 1.4045646 1.5949305 0.9551348
1.7463386 1.251294 1.3486978 1.4297918 1.5977807 0.96228737 1.2944834 1.2723467
1.1229268 1.4552125 1.2079078 1.1153686 1.6345527 1.5115423 1.9173883 1.2609271

BN2.bias f4 [64]
00000000: 1723 2fbf fd86 1ebf 8869 22bf 061c 3abf
00000010: 1fa8 1fbf 3442 36bf c1d8 e7be f1e0 03bf
00000020: f38c 30bf 0d92 35bf 4681 10bf 4a71 29bf
00000030: ba02 26bf 283e 3fbf 0e7d 1abf eb39 07bf
00000040: 162d 1fbf 7b2c 40bf cc28 9bbf 9cdf f3bf
00000050: 5742 18bf 7d2b 40bf c478 cebf 6e49 1dbf
00000060: f506 26bf 6a68 aebf b1a3 4bbf 088c 32bf
00000070: b1a1 48bf 176e 17bf d27e 41bf fe7f 24bf
00000080: 2718 87bf 06e2 54bf a227 17bf 27f9 2abf
00000090: fe52 95bf acb4 efbe ba89 ecbe 42d9 1bbf
000000a0: af93 fdbe 2baa f7be 49f1 2bbf 89ec c5bf
000000b0: 0b71 65bf d314 43bf 92ef 61bf 4b98 fabe
000000c0: 7fdf 56bf 28af 2fbf 1c04 33bf 23da 3ebf
000000d0: eba9 5bbf d57d 05bf d3e0 17bf 6f98 33bf
000000e0: 4ea7 06bf fe18 45bf 9e38 0fbf 3ccb 0cbf
000000f0: 5bf6 87bf 3f0d 52bf a31e 9dbf 5d52 13bf
-0.6841292 -0.61924726 -0.6344228 -0.7269901 -0.6236591 -0.7119477 -0.45282558 -0.5151511
-0.6896507 -0.7092598 -0.56447256 -0.6618849 -0.6484791 -0.7470422 -0.6034707 -0.5282275
-0.6217817 -0.7506787 -1.2121825 -1.9052615 -0.59476227 -0.7506636 -1.6130605 -0.6144017
-0.64854366 -1.3625615 -0.7954665 -0.6974492 -0.7837172 -0.5915236 -0.7558414 -0.642578
-1.0554246 -0.83157384 -0.5904485 -0.66786426 -1.1665952 -0.4681753 -0.46198827 -0.60878384
-0.49526736 -0.48372015 -0.67165047 -1.546281 -0.89625615 -0.7620365 -0.8825618 -0.48944315
-0.8393478 -0.6862664 -0.69928145 -0.745516 -0.8580615 -0.5214513 -0.5932743 -0.7015447
-0.52599037 -0.7699126 -0.55945766 -0.5499761 -1.0622057 -0.8205146 -1.2274975 -0.5754755

BN2.running_mean f4 [64]
00000000: 3d1e cebf cca8 0fc0 16f3 edbf f8eb 10c0
00000010: c6fd 2bc0 7643 c8bf 5a49 a9bf e8ce d6bf
00000020: 6152 87bf e9d2 f4bf fb18 25c0 9ba9 0ec0
00000030: f470 0ac0 bbf6 a7bf d5fc 21c0 6651 98bf
00000040: 02f6 c2bf c99b fbbf ca4c 83bf 36da 50bf
00000050: a4d7 0cc0 db62 1fc0 cdb7 a8bf 81e8 ffbf
00000060: 1ba8 17c0 f237 52bf b77f c0bf 1310 e2bf
00000070: e58d bebf 9822 ddbf cdac fdbf cdf3 e0bf
00000080: f806 83bf 68c9 a4bf 924e ebbf 59d6 02c0
00000090: 751d 89bf 8429 61c0 4f15 06c0 7359 b8bf
000000a0: 689f f6bf 2650 1ac0 da8f a2bf 87e8 76bf
000000b0: fb5b cbbf d7a8 a0bf 1474 afbf 5fa9 24c0
000000c0: dfab bbbf 1e7a debf 1b1b 15c0 3894 fabf
000000d0: edc4 03c0 b0a1 d2bf fc33 d1bf f9aa 8cbf
000000e0: f081 28c0 a046 f7bf ac2d 33c0 aad2 13c0
000000f0: 221a 58bf 4e45 b7bf b2ec 50bf a3d4 e3bf
-1.6102978 -2.2446775 -1.8589809 -2.2644024 -2.687364 -1.5645587 -1.322551 -1.6781893
-1.0572015 -1.9126865 -2.5796497 -2.229102 -2.163144 -1.3122171 -2.5310566 -1.1899841
-1.5231326 -1.9656917 -1.0257809 -0.81582963 -2.2006617 -2.4904087 -1.3181092 -1.999283
-2.3696353 -0.82116616 -1.5038975 -1.7661155 -1.4887053 -1.7276182 -1.981836 -1.7574402
-1.0236502 -1.2873964 -1.8383353 -2.0443327 -1.0712115 -3.518159 -2.0950506 -1.4402298
-1.9267397 -2.4111419 -1.270015 -0.9644856 -1.5887445 -1.2551526 -1.3707299 -2.5728376
-1.4661826 -1.7381017 -2.3297794 -1.9576483 -2.0588944 -1.6455593 -1.6343989 -1.0989677
-2.6329308 -1.9318428 -2.7996626 -2.309733 -0.84414876 -1.4318025 -0.8161117 -1.7799267

BN2.running_var f4 [64]
00000000: 0cce 6f41 58b1 9c41 2680 7f41 58d6 8941
00000010: 2f66 6e41 2359 7b41 cc38 8241 ed7e 9741
00000020: 2e74 d940 eaad a141 f05c c041 1dc8 bf41
00000030: d311 8e41 1d50 e140 3295 1042 2477 c741
00000040: 1ce1 af41 429b 4841 0a72 7d40 a98a 8c40
00000050: 1a95 b541 7db9 b841 fbe0 b740 31ad 3941
00000060: 9e99 b541 a7e3 af40 faf2 6341 45a3 3441
00000070: 03f9 9841 c885 ac41 15bd 7e41 04b7 7941
00000080: f79c a940 5fb1 fc40 47e0 6841 360d 6941
00000090: ca32 ce40 1e25 fd41 ce48 9041 8199 2e41
000000a0: 4fed 7341 26a9 de41 b489 0541 8649 9b40
000000b0: 1b63 1d41 3917 de40 5401 0e41 1374 e241
000000c0: 1d00 8041 d679 5b41 25a8 5841 05d6 7941
000000d0: 27df 8d41 03d4 ac41 4fb2 7241 8c96 8541
000000e0: 3ad1 da41 6b15 7e41 1667 b441 4762 a941
000000f0: f907 8f40 ff03 1841 4073 5540 7322 c541
14.987804 19.586594 15.968786 17.22966 14.899947 15.709262 16.277733 18.936975
6.795432 20.209919 24.04538 23.972712 17.758703 7.0410295 36.1457 24.933174
21.984917 12.537905 3.9600854 4.3919263 22.697803 23.09057 5.7462134 11.604783
22.700008 5.4965396 14.24682 11.289861 19.121588 21.565323 15.921163 15.607182
5.3004107 7.8966517 14.554755 14.565725 6.4437 31.643124 18.03555 10.912477
15.245437 27.832592 8.346119 4.852725 9.836696 6.940335 8.875324 28.306677
16.000055 13.717245 13.541051 15.614751 17.733961 21.603521 15.168532 16.69851
27.352161 15.880229 22.550335 21.172987 4.469723 9.500976 3.3351593 24.64182

fc1.weight f4 [128, 1024]
00000000: c76a eebc 184a 6abd ef03 1abd dd33 81bd
00000010: c291 21bd 759d 42bd a7a5 92bd 57bf 38bd
00000020: 975f 9abd 2093 87bd cbca 29bd 813c 72bc
00000030: 73ff f3bc ff71 80bc d3b3 2ebc 587d 64bd
00000040: 54ba e9bc adb9 65bc 829e f83b d8bf e2bc
00000050: 12fb b1bc 622a 0dbd c019 24bd b3e5 4ebc
00000060: 7042 8a3c d38a b83c 4720 273b b8bb 92bb
00000070: a783 38bc 97cb 33bd 106a f2bc 1a9b 27bc
00000080: c033 06bd 3d2d 26bd e4fe 80bc 7dca 4fbd
00000090: 3dbf 72bc d9e6 68bd 0f75 84bd 2a49 e6bc
000000a0: 3e28 9e3c 6bdb e33b af44 37bc e553 2cbc
000000b0: be4d 8dbc d617 43bc 4d97 223c 354d 09bd
000000c0: c923 01bd 2b56 7abc 93fe 7c3c daee ee3c
000000d0: 7e35 c13c 3625 0bbd ec17 6abd ff13 e4bc
000000e0: 2a43 2b3c 624c d4bc b321 f1bc 1ed2 6dbd
000000f0: b4d2 93bb 8e4c 0fbd ecf6 b0ba 6119 5f3c
00000100: c484 ffba a912 553b 76a7 43bd 6f0e 63bd
00000110: 8b89 18bd adab 12bd 1c1a 70bc f2f4 84bd
00000120: ae35 87bd a65e 67bd ca10 29bd e95a 46bc
00000130: c209 17bd 68ba b2bc 34fc 69bd e616 82bb
00000140: fc01 21bc f79f 16bc bd85 363c 39ea 65bc
00000150: 6473 c9bc 7ea6 34bd b371 f4bc b4b0 fcbc
00000160: 7d5c 01bd 724f 48bd c34e e8ba e78b 803c
00000170: 0874 3fbd e8d2 88bb 4dd9 36bd f458 f939
00000180: ad1d 03bd 57db 96bc 86d2 e3bc 1228 19bd
00000190: 5a14 bb3c b45a 6cbc 1cc6 febb d618 d23b
000001a0: 3408 a3bc 5a86 0a3d e889 cf3c ce78 fcbc
000001b0: 33c7 c6bb d36a bcbb e6ab b1bc bb25 f4bc
000001c0: 83bd 60bc 15b1 b0b9 8eea 703b 2c58 15bd
000001d0: b548 90bd 8173 59bd 321d 9bbd a417 6fbc
000001e0: 34d0 92bd 454b d3bc 8cca 82bd 9c79 91bd
000001f0: c20f 7abc 5270 6fbd 733d 6bbd 8e20 083b
00000200: 9123 12bd 0a66 733c c548 63bc 13c3 17bd
00000210: c728 7d3c 049e 36bd f4ac 4ebd bcc2 e2bc
00000220: d789 843c 036d 8bbc f0a1 553c 8edd 32bd
00000230: 58ff 72bc 6d77 22bc 7efa 5c3b d915 10bd
00000240: 53ac 0ebd f510 03bd f375 1ebd a968 78bd
00000250: f22a 7f3c adef e2bc efac 433b 9732 38bc
00000260: 12f4 cebc 7fdd 1c3d 0cb8 103d 5115 01bc
00000270: 9d03 6dbd b09f 97bc 3f02 03bb 35b0 00bd
00000280: 23e5 7bba 95ba e9bc eb80 23bd 74a4 1bbd
00000290: 4420 e0bc 57dc 36bd fac4 07bd 7f03 1ebd
000002a0: 61df 46bd 08e7 47bd 75cb 713c 9a4b e9bb
000002b0: adcc 55bc d161 5438 639f 303c b7ff 11bd
000002c0: 1c66 1bbd 3869 0ebc ba2d 97bc 18c3 94bc
000002d0: bbd2 49bd 4eba d3bc ec4d 9bbc 5c2c f5bc
000002e0: 2864 2c3b 8e1f aabb 9b87 04bc b49d 46bd
000002f0: 38d4 dd3b e52d c6bc a318 b63b 1f15 ec3c
00000300: 4152 17bd 1bd3 62bd cc89 5abd a034 bfbc
00000310: 96b3 30bd 3acd 70bd 8e84 66bd 26ff 63bd
00000320: 7895 ab3c 7f33 31bd 199d 56bb c61b 50bc
00000330: 33b3 85bc bdb5 13bd b0db bf3b 97f7 723c
00000340: 6279 aabc f1f6 df3b 2384 d4bc c465 07bd
00000350: b778 26bd e6d3 1fbd 2f79 83bc e45b 6fbc
00000360: d15b 853c 2780 2e3d 4699 d53c 8bbc 0ebd
00000370: 773f b33b 245a 98bc bea6 f1bc 0bd2 3b3d
00000380: 08f7 ccbc 449a 23bd 1393 f939 fa75 babc
00000390: 1806 83bc ad9b 7e38 77c5 5fbd e939 0fbd
000003a0: 0641 3fbd 5200 96bb 743c d6ba 8982 9a3b
000003b0: 6d15 5cbd 4aba 43bd 9b9c 58bd f258 b23b
000003c0: 5c39 11bd 32f2 9cbb f51a 7dbd a5f9 14bd
000003d0: d029 073c 6bc0 e8bc e105 4fbd ee47 06bd
000003e0: 86e3 e03b 8dbd 0f3c 1986 ad3c 2241 bd3b
000003f0: bdcb 24bd 1db0 a6bc b28b f1bc ee3b 4a3c
-0.02910365 -0.057199568 -0.037601408 -0.0630872 -0.039445646 -0.047513444 -0.07160502 -0.04510435
-0.075377636 -0.06619859 -0.041453164 -0.014784933 -0.029784894 -0.015679358 -0.010662991 -0.0557836
-0.028531231 -0.014021319 0.007587255 -0.027679369 -0.021726165 -0.034464248 -0.04006362 -0.012628007
0.016877383 0.022527134 0.0025501417 -0.004477944 -0.011261857 -0.04389533 -0.02959159 -0.01022985
-0.032764196 -0.040570486 -0.015746541 -0.050730217 -0.014816103 -0.05686078 -0.0646764 -0.02811106
0.019306298 0.006953647 -0.011185809 -0.010518049 -0.017248984 -0.011907538 0.009923768 -0.033520896
-0.031528268 -0.015279333 0.015441555 0.029166628 0.023585077 -0.033971034 -0.05715172 -0.027841566
0.010453025 -0.025915328 -0.029435014 -0.05806171 -0.0045112018 -0.034985118 -0.0013501323 0.013616891
-0.0019494523 0.0032512343 -0.047767125 -0.055433687 -0.037240546 -0.035808254 -0.014654662 -0.06492032
-0.066020355 -0.05648675 -0.041275777 -0.012106636 -0.03687454 -0.021817401 -0.057125285 -0.003970015
-0.009827133 -0.009193412 0.011140284 -0.014032894 -0.024591155 -0.04410409 -0.029839372 -0.030845977
-0.031582344 -0.04890389 -0.0017723668 0.01569171 -0.046741515 -0.0041755326 -0.044640828 0.00047559256
-0.032010723 -0.018415136 -0.027810346 -0.03739173 0.022836853 -0.014425922 -0.0077750813 0.006411652
-0.019901372 0.033819534 0.025334314 -0.030819323 -0.006066227 -0.005750039 -0.021688413 -0.029803148
-0.013717058 -0.00033701272 0.00367609 -0.03646104 -0.07045118 -0.05308867 -0.07573928 -0.014593039
-0.07168618 -0.025792727 -0.06386289 -0.07103273 -0.015262546 -0.058456726 -0.05743165 0.0020771357
-0.03567845 0.014855871 -0.01387233 -0.03705127 0.015451617 -0.04458429 -0.05045791 -0.027680747
0.016179008 -0.017019754 0.013039097 -0.043668322 -0.0148313865 -0.009916169 0.003371864 -0.035177086
-0.03483231 -0.031998593 -0.038686704 -0.060646687 0.015574204 -0.027702177 0.0029857715 -0.01124253
-0.025262866 0.038297173 0.03533177 -0.007878617 -0.057864774 -0.018508762 -0.0019990352 -0.031418044
-0.0009609034 -0.028531352 -0.039917868 -0.03799863 -0.027359135 -0.044643726 -0.033146836 -0.038577553
-0.048552874 -0.048804313 0.014757981 -0.007119608 -0.013049287 5.0635837e-05 0.010780188 -0.03564426
-0.037939176 -0.008692078 -0.018454421 -0.018159434 -0.049273234 -0.025845673 -0.018958054 -0.029928379
0.0026304815 -0.00519175 -0.0080889715 -0.04849024 0.006769683 -0.024191806 0.005557136 0.028818665
-0.036943678 -0.055377107 -0.05335407 -0.023340523 -0.043140016 -0.05878947 -0.056278758 -0.05566325
0.020945296 -0.043262 -0.0032747446 -0.012701934 -0.0163208 -0.03606199 0.005855046 0.014829538
-0.020809833 0.0068348576 -0.025941914 -0.033056036 -0.040642466 -0.03902044 -0.016048996 -0.014609311
0.016279133 0.042602684 0.026074063 -0.034847777 0.005470212 -0.01859767 -0.029498454 0.04585461
-0.025020137 -0.03994204 0.0004760256 -0.022761334 -0.015994117 6.0703303e-05 -0.054631677 -0.034967337
-0.04669287 -0.004577675 -0.0016344921 0.004715268 -0.05373137 -0.04778508 -0.052883726 0.005442732
-0.035455093 -0.004789614 -0.061793286 -0.036370892 0.008249715 -0.028412065 -0.050542716 -0.03278344
0.0068630604 0.00877322 0.021182107 0.0057755867 -0.040233362 -0.02034765 -0.029485557 0.01234339

fc1.bias f4 [128]
00000000: 260c b0bb 6000 45bd 72ba 303e 4119 503e
00000010: 99b6 dd3b c816 26bd 0623 a73a 2f4c 11bd
00000020: 9ca2 7cbc 1538 0d3b f490 1dbc 8092 de3d
00000030: 3682 5f3c cb73 5ebd b124 bd3d a33e d13b
00000040: a412 cebc 20d7 93bc 81aa 3f3d b77c 12bd
00000050: af50 b4bd dd82 5fbc 7ca8 b33e 0fb0 60bc
00000060: 4b8b 20bc c7c5 593e df8c a5bc c9db d03d
00000070: 2d16 c1bc a83c 72bc db7e c4bc ae58 12bd
00000080: f8ec 813c 600b 8b3b bb29 55bd e39d 92bb
00000090: b095 9f3e 5c90 0dbd ab99 43bc 3b9b edbc
000000a0: f3a6 2bbc 86e3 55bc 105a 263c dca8 963b
000000b0: 4f87 4a3e a90d b4bc c5c1 67bc 79c5 f0bd
000000c0: 1c47 073c 4ed3 beba a3e5 cdbc b0c4 81bc
000000d0: 4cdb eabb 16ef 19bd d926 733e b96a fbbc
000000e0: 1cf0 09bd 0373 16bc 7951 1dbc d978 5d3e
000000f0: 6590 d13d c3c6 da3a bc59 4e3e e813 14bd
00000100: 1361 ef3a 9a07 243e 9722 db3b eab4 00bd
00000110: c246 e2bb 06a6 053c a3b8 933c 9770 693e
00000120: d18b 13bd d8a7 0ebd 7852 273d 9008 8d3c
00000130: 289f 71bc c995 403e ffab e23b 5331 38bc
00000140: 6ad0 1d3e 90ae 303e 7946 ccbc bcc8 e53d
00000150: f9f7 10bd 9b26 213c 0ff5 a4bb cf6c d4bc
00000160: 4b34 0a3c 00b8 efbc 6b8c 16bd 8a37 0d3e
00000170: 52de 0fbd bb92 87bb 3058 5a3d 190b c1bc
00000180: b5de e0bc db78 fabc 77ce 0e3e 50c1 98bc
00000190: cb57 733e bc5d e93d 81ea 0dbd fb7f 0fbc
000001a0: e702 0abd b36b 10bd 1a14 06bc df8e 4ebd
000001b0: 4525 9b3e c23f 09be ab2f 863e b34e 38bd
000001c0: 1d76 d4bc d87f 023c cb8f 8bbd dd11 87bc
000001d0: e58c 803e da0c 593d 85d2 e9ba c4d0 14bd
000001e0: 0dd1 6f3e 3e38 0e39 6063 15bc 492f 443e
000001f0: ca3a 91bc e604 90bc 11f3 9cbc 1649 5c3e
-0.005372542 -0.04809606 0.17258623 0.20322134 0.006766152 -0.04054907 0.0012751527 -0.035473045
-0.0154196285 0.002154832 -0.009617079 0.108677864 0.013641885 -0.054309648 0.09235514 0.0063856407
-0.025155373 -0.018046916 0.046793465 -0.03576347 -0.08804452 -0.01364204 0.3508948 -0.013713851
-0.009798835 0.21266852 -0.020208774 0.10198171 -0.023570145 -0.014784969 -0.02398627 -0.035729103
0.015860066 0.0042432994 -0.05204175 -0.004474388 0.3116889 -0.0345615 -0.011938493 -0.029004684
-0.0104768155 -0.013054734 0.0101533085 0.0045977663 0.19778179 -0.02197917 -0.014145319 -0.11756415
0.0082567 -0.0014558823 -0.025133913 -0.015840858 -0.0071672555 -0.037581526 0.23745288 -0.030690538
-0.03367625 -0.009182694 -0.009601944 0.21628131 0.10232619 0.0016691316 0.20151418 -0.036151797
0.0018263183 0.16018525 0.006687473 -0.031422533 -0.0069054076 0.008157259 0.018032378 0.22796856
-0.03602201 -0.034828037 0.040850133 0.017215997 -0.014747418 0.18807139 0.006917476 -0.011242229
0.15411535 0.1725409 -0.024935948 0.11219928 -0.035392735 0.009835864 -0.005034096 -0.02593079
0.008435319 -0.029262543 -0.036755007 0.13790718 -0.03512413 -0.0041373647 0.05330676 -0.023564862
-0.027449945 -0.030575207 0.13945948 -0.018646866 0.23763959 0.113948315 -0.03464747 -0.00875854
-0.033694174 -0.03525896 -0.0081835035 -0.05042922 0.30301872 -0.13403228 0.26208243 -0.04499693
-0.025935227 0.007965051 -0.06814536 -0.01648801 0.25107494 0.05299077 -0.0017839229 -0.036331907
0.2341959 0.00013563127 -0.009117931 0.19158663 -0.017728228 -0.01758046 -0.019158872 0.21512255

fc2.weight f4 [4, 128]
00000000: 58bb d2bc 409a e23c 9bf5 143d 7dfe acbf
00000010: 2fc9 73bd eeae e33c aaf8 053d be2f fa3b
00000020: 0e2b 833d c76d a3bd 17c0 833c 9791 4e3f
00000030: d55e 17bd fa63 013c c3f1 be3e 23ce 153d
00000040: 0aa9 b13c 8c9c af3c 0f3a 703d 9115 983c
00000050: 2105 27bd 8f96 7abd 3494 d4bf 8e7c 473d
00000060: 1997 39bd 5dc6 e03e 26e8 b6bc 2f9f 4a3f
00000070: 9944 daba 10b8 a1bd 2174 cbbc 0c1a 723c
00000080: cacc 493c adba c43b 42e1 503d 03f0 e1bd
00000090: 127d 5c3f 6ad5 e0bc 7a58 66bd 397e 24bd
000000a0: 7500 89bd 0831 34bc c8aa 4a3d 0284 823d
000000b0: 3d9d c9bf 765b b4bc 3ec7 9d3d f375 cbbd
000000c0: d44a 8fbd 140a 863b bddc 4dbd 92e8 91bd
000000d0: 587c ac3c 3b73 15bd 69ac cb3f 5812 b0bc
000000e0: 6942 5ebb 15a9 30bc ab50 73bd 317e 073f
000000f0: 1d42 9c3f 10a1 9e3c 4539 cfbf 442a 0cbd
00000100: 9aa2 22bc 1558 e63e e007 98bd 0bf1 0fbd
00000110: 6d74 18bc e36a 7abd 7834 e2bc a20c c7bf
00000120: 8cc8 063d 9390 253f 77df 653f 41dd c03d
00000130: 48e8 76bd e63f 533f 18ea 873d 63ad 9bbd
00000140: af93 56bf cd3f 83be f362 2ebd b817 153e
00000150: 6cab 6ebc 7d7a 883c ecfe 53bd 0932 c23c
00000160: d41e 4ebd ddb2 a13d 8033 a63c d5c7 933f
00000170: 5f79 00bd 7252 84bd e54c 70be 2604 82bc
00000180: fe60 abbc d8db 85bd 2ec1 823d 0ed4 603b
00000190: 5404 893f 4dc7 a53e 3eea 3c3c 19a6 c73b
000001a0: 17fb afbc 3188 fbbc e6ca a9bd 18d6 823d
000001b0: eff6 08c0 4534 19bd 53cf 08be 30fe 243c
000001c0: d3cb 203e 287c f5bc ff7a b8bf 8232 40bd
000001d0: ce0f 5d3f 72fc 533f 4a64 093d 0985 7dbc
000001e0: 7a3b a43e f3fd e7bd 46cc 97bd b04c bf3f
000001f0: 471c 99bd 536e 07bd f64c 49bd 1dfc f7bf
00000200: 60b9 7cbd b5a1 053d 2632 843f 62f7 593f
00000210: 9c2a d4bc 63db 47bd 0543 35bd 6657 58bd
00000220: 21fd d13c bd42 8ab9 750a ca3c 22b9 e0bf
00000230: 9188 173d e039 3dbd 14a0 adbf c5fa 7d3d
00000240: 2ad2 2dbd 8cef 923c a97b e83e 94fc e63c
00000250: b81d 1f3c dfd5 a23c d3b7 3abf 63f1 8d3c
00000260: 7be2 a0bc 0943 893f 34b2 ac3c e8ef 22c0
00000270: b7af f9bc f7f8 983d 2cad 7f3c 4f3f 0a3c
00000280: cdbd 95bd 0048 5d3c a282 1e3d 5d1c c2bc
00000290: 2fab 6dbe 151c c53c b022 79bd 68c6 6dbd
000002a0: e7af 833c dd8d fbbc 3288 453d 5acc 29bd
000002b0: c3c9 4a3f 14e9 7a3a f1e2 0cbd b894 49bd
000002c0: 292d 8f3d ef25 5b3d 33a3 6dbd 4262 88bd
000002d0: 8996 983c 9ec2 d1bb 047a 743e 07e8 1abd
000002e0: 5189 b83c ffb2 973c 10c3 573d cf19 c8bf
000002f0: 35b1 85be 933e 433d e9ca ad3e aae8 95bc
00000300: 48fe 573d 3888 06c0 c18c 5bbd 272b 70bd
00000310: 381c 14bd 6ec7 563d 63bc f9bb 4e1a c43e
00000320: 6c13 1a3d 515a 86bf aa01 e8be 2d83 cfbf
00000330: 7d4c 893c 0fa9 e9be 9bc4 843c 55da 6d3d
00000340: 107e 96bf 48c9 04c0 867c 2bbd a180 97bf
00000350: fc39 823d 89e3 79bd 5394 1f3d af88 87bc
00000360: f8cc 22bd 449b 0f3d 8510 9fbd 9afa aebf
00000370: 4b54 22bd f5c0 d63c 2f06 8b3f 8a3a 8c3c
00000380: c305 a83d 7a34 743d 919c 623f b4b1 543d
00000390: b1fc 913d ae37 2d3f 6986 d3bc 7cf5 81ba
000003a0: d8cb e73b 24ee 843d 3152 663d 34d8 04bc
000003b0: d43f 033f 8cd3 303b 83bb 2e3f 2ad3 44ba
000003c0: d1e7 1e3d 255b f53a ef63 9c3f 239f ea3c
000003d0: 1d8a 14bd 3b38 8cbf e4b9 073d 92a9 74bd
000003e0: d1b5 5f3b 5daf 87bd 0998 0cbd 510c acbf
000003f0: a56a 9dbd 7d46 903c aaac 0ebd 66b5 81bf
-0.025724098 0.027661443 0.03636704 -1.3515164 -0.059518036 0.027793374 0.032707848 0.007635086
0.064046964 -0.07979923 0.016082807 0.806909 -0.036955673 0.007897371 0.37293825 0.03657354
0.02168705 0.021436952 0.05864912 0.018564971 -0.040776376 -0.06117874 -1.6607728 0.04870277
-0.045310114 0.4390134 -0.022327494 0.79149145 -0.0016652524 -0.07896435 -0.024835648 0.014776718
0.012316892 0.006003699 0.050996073 -0.11032107 0.8612834 -0.027445514 -0.05623672 -0.040159438
-0.0668954 -0.010998018 0.049479276 0.06372835 -1.575111 -0.022016268 0.07704018 -0.099346064
-0.06996694 0.004090557 -0.05025934 -0.071244374 0.021055385 -0.036486845 1.591199 -0.021493122
-0.0033914095 -0.0107825 -0.059403103 0.5292693 1.2207676 0.01936391 -1.6189352 -0.034219995
-0.009926463 0.44989076 -0.07423377 -0.035141986 -0.009305102 -0.06113709 -0.02761291 -1.555073
0.0329061 0.6467373 0.89794105 0.09417201 -0.060280114 0.82519376 0.06636447 -0.0760143
-0.838191 -0.25634614 -0.042574834 0.14559829 -0.014567237 0.01665997 -0.051756784 0.0237055
-0.05032237 0.078954436 0.020288229 1.1545359 -0.03136575 -0.06461038 -0.23466833 -0.015871119
-0.020920273 -0.065360725 0.06384502 0.0034306082 1.0704446 0.32378617 0.011530457 0.0060927984
-0.021482034 -0.03070459 -0.08290653 0.063884914 -2.1400716 -0.037403364 -0.13360338 0.010070369
0.15702753 -0.029966429 -1.4412535 -0.046923168 0.8635224 0.82807076 0.03354291 -0.015473613
0.32076627 -0.11327734 -0.07412009 1.4945278 -0.074760966 -0.033064198 -0.04914566 -1.9373814
-0.061700225 0.03262492 1.0327804 0.851431 -0.025899224 -0.048793208 -0.044253368 -0.052817725
0.025633397 -0.00026371135 0.02466319 -1.7556498 0.036995474 -0.046197772 -1.3564477 0.06200673
-0.042436756 0.01793649 0.45406845 0.02819661 0.009711675 0.019877372 -0.72936743 0.017327016
-0.019639244 1.0723583 0.021081068 -2.5458927 -0.030479295 0.07469361 0.015605252 0.0084379455
-0.07311592 0.013505936 0.0386988 -0.023695165 -0.23209833 0.024061242 -0.060824096 -0.058050543
0.016075088 -0.030707294 0.04822559 -0.04145465 0.79214114 0.00095714745 -0.034396116 -0.049214095
0.069910355 0.053502973 -0.058016967 -0.06659366 0.018626468 -0.006401374 0.2387467 -0.037818935
0.022526415 0.01851797 0.05267626 -1.5632876 -0.2611176 0.047667097 0.3394387 -0.01829942
0.052732736 -2.1020641 -0.05360103 -0.058634903 -0.036159724 0.052436285 -0.0076213344 0.3830132
0.03761618 -1.0496312 -0.4531377 -1.6211907 0.016760105 -0.45636794 0.01620703 0.058069546
-1.1757221 -2.0747852 -0.0418668 -1.183613 0.06358716 -0.06100801 0.038959812 -0.016544668
-0.039746255 0.035060182 -0.07766823 -1.3670228 -0.03963117 0.026215056 1.0861262 0.017117757
0.08204224 0.059620358 0.8852015 0.051927283 0.07128275 0.67663085 -0.025820928 -0.0009915079
0.0070738606 0.06490734 0.056230728 -0.0081081875 0.5126927 0.002698156 0.6825487 -0.00075082725
0.038795296 0.001871918 1.2217997 0.028640335 -0.036264528 -1.095466 0.033136263 -0.059732027
0.003413547 -0.06625245 -0.03432468 -1.3441259 -0.076863565 0.017611736 -0.034832634 -1.0133483

fc2.bias f4 [4]
00000000: f4a0 d8bd 9ecc 8c3d 2694 30bd fec2 e9bc
-0.10577574 0.06874965 -0.043110035 -0.028535362
