cnn saved models/cnn_epoch28.pt (torch, 609343 bytes, 16 tensors)

conv1.weight f4 [32, 1, 3, 3]
000000 3c da b7 3e b3 c5 e5 3e 16 3a 95 be 2e 4a db be
       0.35908687 0.44877395 -0.2914588 -0.42830032
000010 c3 4a cb be f2 6e 85 be d6 2f 85 3d ed f9 10 3d
       -0.39705476 -0.26061207 0.065032646 0.035394598
000020 6d 27 c2 3e f3 85 74 3f 47 45 35 be 49 65 a9 3e
       0.37920704 0.9551689 -0.17702208 0.33085087
000030 1c b7 8c be 35 1d d4 bd 70 63 a5 be ff 4a a0 3c
       -0.2748345 -0.10357133 -0.32302427 0.01956701
000040 48 b2 b9 3e 4e ab eb bd 88 ea e7 3d 45 a5 89 3d
       0.3626883 -0.11507283 0.1132403 0.06720976
000050 28 91 d1 3e d6 41 a9 be ff 26 20 bf 86 8c e0 3d
       0.40931058 -0.3305804 -0.62559503 0.10964303
000060 58 fd 98 3e e9 6e a3 3e b3 b1 d7 be d2 8d 3d bc
       0.29880786 0.31920555 -0.4212776 -0.011569457
000070 e7 6e fc 3e 1d 10 8b 3e a6 2b 46 3d 2f 96 8c be
       0.49303362 0.2716073 0.04838147 -0.2745833
000080 eb 91 25 bf a1 c1 cf bd 92 e8 93 3e 7c 67 ff bd
       -0.6467578 -0.10144354 0.28888375 -0.1247091
000090 93 23 29 be c0 21 5d be 5d f5 88 3e ec 1a c3 be
       -0.16517477 -0.21594906 0.26749697 -0.38106477
0000a0 16 43 8d 3e 64 71 36 3e 33 9f e1 3e 3a df 97 3d
       0.27590245 0.17816693 0.44066772 0.07415624
0000b0 90 1a be be 9d 12 05 3e 5d 26 d9 be a6 64 24 bf
       -0.3712964 0.12995382 -0.4241208 -0.6421608
0000c0 a5 d9 60 3e e6 5f af 3e 91 81 d1 bc ab 84 a4 be
       0.21958025 0.34252852 -0.025574477 -0.32132468
0000d0 c4 61 e5 bd 05 a3 22 bf 2f 0f 1a 3e a6 14 b8 be
       -0.11200288 -0.6353 0.15044855 -0.35953254
0000e0 1e d0 8b be 50 ba 1a 3e d3 d3 ae 3e b0 f7 e9 3e
       -0.27307218 0.15110135 0.34145984 0.45696783
0000f0 a6 7d 05 bf 12 a6 91 3d 49 c6 b7 bd 9d 4c f1 3e
       -0.5214485 0.071117535 -0.08973367 0.47128764
000100 ba 74 c3 be e1 b7 c9 be 06 1a b5 3e 88 39 33 be
       -0.38174993 -0.393981 0.35371417 -0.17502415
000110 b6 1b c8 be 88 76 8a 3e 85 d8 b0 3b 51 ae 77 3e
       -0.39083642 0.27043557 0.005396905 0.2418759
000120 4a 8f 31 3e 1b 19 3d be 41 eb 66 bf 49 85 c5 bc
       0.17339817 -0.18466608 -0.9020272 -0.024111407
000130 fb 12 1b 3d 28 31 c6 3d f3 c8 93 3e c4 3d 1e 3e
       0.037859898 0.096773446 0.2886425 0.15453249
000140 25 5b bf bc c8 ee 91 3e c0 f5 cc be 19 2e 0c 3f
       -0.02335889 0.28502488 -0.40031242 0.5475784
000150 32 e7 3d be ab a3 48 be 1a 4f 1d bf 0d f8 50 3e
       -0.18545225 -0.19593684 -0.61448824 0.20407124
000160 02 70 4e 3e 1d d3 bf bd 8b 86 84 bc 59 4a 8a be
       0.20159915 -0.093664385 -0.016177436 -0.27009848
000170 31 d2 ee bd 7f 98 a5 be 39 ed d2 3d 28 33 05 bf
       -0.116611846 -0.32342908 0.10299153 -0.52031183
000180 d6 65 b6 3e 81 e8 f1 3e b2 d9 14 bd 93 61 71 be
       0.3562457 0.472477 -0.036340423 -0.23572378
000190 a2 7a 3f 3e 1a 90 c6 bd 10 04 f7 3d 89 1e 88 3e
       0.18699124 -0.09695454 0.12061322 0.26585796
0001a0 47 61 39 be 07 f2 20 3f c5 d4 ab be 23 99 ae be
       -0.18103515 0.62869304 -0.33560768 -0.3410121
0001b0 0c 1c 12 3f 8e 97 35 3e cb 8d 84 3d 9f fb 7e 3e
       0.57074046 0.17733595 0.06472357 0.24900673
0001c0 07 51 6d be d1 91 5f be 5d 84 a5 be ec b0 1f be
       -0.2317544 -0.21832968 -0.32327548 -0.15594834
0001d0 10 cb 94 be 0b ed 0e bf df cf 80 bd 93 70 e2 be
       -0.29061174 -0.5583045 -0.06289648 -0.44226512
0001e0 52 47 99 be df c4 37 3e 47 14 e1 b6 40 d5 a4 bb
       -0.29937226 0.17946194 -6.707883e-06 -0.005030304
0001f0 02 17 5c 3e c9 3c de 3e 06 fa ec 3e b9 ad d7 be
       0.21493152 0.4340575 0.46284503 -0.42124727
000200 6c 53 aa bd fd de a4 3e e9 62 4a 3e 32 88 05 bf
       -0.08316693 0.32201377 0.19764294 -0.5216094
000210 bc 98 d1 3e 37 5c c0 3d 30 33 e5 be d7 f6 50 3d
       0.4093684 0.093925886 -0.44765615 0.051016655
000220 1a a8 1c be f2 5e 27 bf 97 c4 0e 3e 3f c9 da be
       -0.152985 -0.6537925 0.1394218 -0.42731664
000230 89 df c9 bd 39 ff 1a 3f 50 a8 f5 3d 37 78 17 be
       -0.09857089 0.6054569 0.11994994 -0.14791952
000240 db 98 c2 3e 83 4b 35 3e 20 8d e0 be 2c 7d 2e be
       0.38007244 0.17704587 -0.4385767 -0.17039937
000250 41 3b 60 be 07 4a fa 3e 14 4c 08 bf 69 a2 ce 3e
       -0.21897604 0.48884603 -0.53241086 0.40358284
000260 fd ae 3b bd 5a 00 7b be b3 eb 6a ba b4 f9 1f 3e
       -0.04582118 -0.24511853 -0.00089615135 0.15622598
000270 5b 16 a5 3d 21 ce 23 bf 59 21 d9 be fb b1 98 3e
       0.080609046 -0.639864 -0.42408255 0.29823288
000280 e7 da cc 3e 63 37 a4 3e 66 4e b3 3e 2d 76 0c 3f
       0.4001076 0.32073507 0.3502075 0.5486782
000290 82 93 0a 3e 6d ae 77 3e 81 3d 97 be 6e 9a 70 be
       0.13532832 0.24187632 -0.2953911 -0.2349641
0002a0 09 94 37 bd 63 d4 bc be f1 e2 03 3c 6b 33 e6 3e
       -0.04481891 -0.36880788 0.0080497125 0.44961104
0002b0 fd ae 89 3e ad 4e 50 3d 22 da 29 bf 91 5c 0b bf
       0.26891318 0.05085628 -0.6634847 -0.5443812
0002c0 39 c6 a4 3d 34 3e 05 3e 66 ce 12 3e 43 75 99 3e
       0.080456205 0.1301201 0.14336547 0.29972276
0002d0 d0 30 c0 3c 64 62 0e bf ad d7 fd 3e 55 88 de be
       0.023460776 -0.5561888 0.4957861 -0.43463388
0002e0 c0 bc 52 be 0c bf 99 3e 19 c5 d1 bd 15 83 aa bc
       -0.20579815 0.3002857 -0.102426715 -0.020814458
0002f0 e8 83 79 3e 23 ea da be 27 6b c2 3e 24 28 f7 3e
       0.24366724 -0.42756757 0.37972376 0.48272812
000300 30 b1 30 3e 3c 7c 01 be 33 6d 21 be 1b c0 58 3e
       0.17255092 -0.12645048 -0.15764312 0.21167032
000310 e5 ec 0e bd b4 7d 04 bf 09 f7 37 3e 1e c2 8b be
       -0.03489389 -0.5175431 0.1796533 -0.27296537
000320 b6 09 4d be a3 63 eb 3e bd 57 94 bd 4c 9d 39 be
       -0.20023236 0.45974454 -0.07243297 -0.1812641
000330 34 a4 0e bf d9 10 a4 3e 7e 1b d1 3e 77 1d 79 be
       -0.55719304 0.32044104 0.40841287 -0.24327646
000340 f4 95 6e 3a a6 fa 0e 3e ae ad 6f bd db 09 8a be
       0.0009101324 0.13962802 -0.058515243 -0.26960644
000350 10 6d aa 3e c6 75 f7 be fb cd 0a bd 36 40 14 3f
       0.33286333 -0.48332042 -0.033887845 0.5791048
000360 6e 5a ca be 75 2e a1 bd cb c9 c2 3e 08 77 19 bf
       -0.39522117 -0.07870189 0.3804458 -0.5994725
000370 14 97 ea bd 5c 3a 95 3e 31 4e 88 3d 5d f7 c5 3e
       -0.11454597 0.29146087 0.06655539 0.38665286
000380 08 83 8a 3c 37 83 5b 3e 1b d9 89 be 45 a5 88 3d
       0.016908184 0.21436773 -0.2692345 0.06672148
000390 9f e8 a3 3e 64 da 41 bf f6 21 cf 3e c4 e0 45 3e
       0.32013413 -0.7572386 0.40455598 0.19324023
0003a0 35 ce dc be 0b 98 87 3e b5 12 4a 3e a5 85 18 bf
       -0.43126073 0.26483187 0.19733699 -0.59578925
0003b0 88 b8 bc be c0 af 5d 3e 42 35 ee be d7 98 7b be
       -0.36859536 0.21649075 -0.46525007 -0.24570023
0003c0 bc 8a ea bd 9a db ee 3e 75 99 41 3e e0 24 20 bf
       -0.11452243 0.46651918 0.18906195 -0.62556267
0003d0 6d 54 cc be 98 2e 92 3e 6a 11 1b 3e 46 1e ba bd
       -0.39908162 0.28551173 0.15143362 -0.090878054
0003e0 7c 33 ce bd 65 a4 66 3e 97 68 2b be df 73 cb 3e
       -0.100684136 0.22523649 -0.16739117 0.3973684
0003f0 ed f0 93 be b6 c0 94 3e 06 ee 0d 3f 35 82 d9 be
       -0.2889475 0.29053277 0.5544132 -0.42482153

conv1.bias f4 [32]
000000 05 51 90 3e 0e 5e ae 3e 8b 85 22 bd 0b 4d f4 be
       0.28186813 0.34056133 -0.039678138 -0.4771503
000010 30 77 1d 3f 6a 42 90 3e b6 fa 3c be e5 4f 20 3d
       0.6150999 0.2817567 -0.18455014 0.039138693
000020 54 9c f4 3e 36 77 90 3e 9e c7 6c 3e 96 71 e6 3e
       0.4777552 0.2821595 0.23123023 0.45008534
000030 2f 89 16 3f 9e 53 84 3e 8b 66 21 be 4d ed 20 be
       0.58803076 0.25845045 -0.15761773 -0.15715523
000040 6e 1b 22 be 10 86 ee 3e ab c5 82 bf b3 b7 b1 3e
       -0.15830776 0.46586657 -1.0216573 0.34710464
000050 05 02 9a 3d 33 32 95 3a 24 1d a7 3e d8 79 38 be
       0.075199164 0.0011382758 0.3263942 -0.1801523
000060 d3 db 3d 3f c0 7f 6d be 8a 66 85 bd d8 0d 17 3d
       0.7416355 -0.23193264 -0.065136984 0.036878437
000070 64 6c 96 bd 58 7a 8f bd 02 9f a7 be ee 20 83 3d
       -0.073448926 -0.07005757 -0.327385 0.06402765

BN1.weight f4 [32]
000000 4c 9e a9 3f 90 88 e5 3e 6c bd 95 3f 44 5b 63 3f
       1.3251433 0.4483075 1.1698432 0.88811135
000010 5b 22 70 3f 2c d7 40 3f 9d fd 78 3f 5d a2 18 3f
       0.9380242 0.75328326 0.97261983 0.59622747
000020 58 93 8a 3f d6 f0 c4 3f 3e 4b 6b 3f 2e 8a e5 3e
       1.0826216 1.5385997 0.91911685 0.44831985
000030 95 88 5b 3f 0a 37 58 3f 5a 2c 10 3f fd 23 91 3f
       0.8575528 0.8445898 0.56317675 1.1339108
000040 db 3e 5c 3f ae 54 ce 3e 77 af 47 3f 6e 47 5f 3f
       0.8603341 0.4029898 0.78002113 0.8721837
000050 3b 64 8a 3f 97 7a 84 3f a4 70 83 3f 32 30 e1 3e
       1.0811838 1.0349911 1.026875 0.43982083
000060 d0 e6 05 3f 07 4e a0 3f 2f bf b4 3f 64 54 3c 3f
       0.52305317 1.2523812 1.4120845 0.7356627
000070 b4 6d 5f 3f 4a 24 39 3f f2 d1 51 3f c5 3f 73 3f
       0.8727677 0.72321 0.81960976 0.9501918

BN1.bias f4 [32]
000000 a8 cc d4 be b4 aa 13 be a1 e6 73 be fe be ad bd
       -0.4156239 -0.14420587 -0.23818447 -0.084836945
000010 6e 14 89 bf 4c ab a8 be 12 af 13 be 39 97 8f bd
       -1.070936 -0.3294319 -0.14422253 -0.07011265
000020 8c fc 1b bf b1 fc 4b bf b9 af e8 be 1d 53 46 be
       -0.6093223 -0.7968245 -0.45446566 -0.19367643
000030 a3 83 55 3d fe b8 ee be 36 51 be bd 99 30 5a bf
       0.05212749 -0.46625513 -0.092928335 -0.85230404
000040 39 ae 63 bf 86 54 a9 bd b9 f6 4f bf 70 17 21 bf
       -0.8893772 -0.08268075 -0.81235844 -0.6292639
000050 cd 22 1b bf ff c9 15 bf 2e 34 9a bf 3b 15 41 bd
       -0.60599977 -0.58511347 -1.2047174 -0.047139388
000060 61 14 71 bd 1b d3 c9 be 3b fe 6e bf 67 63 c8 bd
       -0.058857325 -0.39418873 -0.93356675 -0.097845845
000070 64 e5 b0 bc bf 24 8f bd 63 e4 47 bf 18 53 02 be
       -0.021593757 -0.06989431 -0.78082865 -0.1272701

BN1.running_mean f4 [32]
000000 54 44 84 3e 0a bd f1 3e 1e 5f 6b bd 80 be fb be
       0.2583338 0.47214538 -0.057463758 -0.49168777
000010 ff f1 22 3f ab 31 cc bb 63 1b 45 be 56 7b 16 3d
       0.63650507 -0.006231507 -0.19248728 0.036738716
000020 ec 23 ce 3e 07 79 65 3e 4e b9 21 3e cc 70 e8 3e
       0.4026178 0.2240945 0.15793344 0.45398557
000030 88 3f 0e 3f 6a ae 1a 3e c2 f9 1e be 30 f8 8b be
       0.5556569 0.15105596 -0.15524963 -0.2733779
000040 c7 51 16 be 70 51 e5 3e 02 6f 74 bf 7f 9d c3 3e
       -0.14679633 0.44788694 -0.95481884 0.38206097
000050 0a 20 9f 3c a5 09 24 bb 51 8a b0 3e ed 01 41 be
       0.019424457 -0.0025030163 0.34480527 -0.18848391
000060 61 f5 3a 3f 5d ad 70 be 10 ae 5a be 4a f2 f9 bc
       0.7303067 -0.23503633 -0.21355462 -0.03051104
000070 d6 ff eb bd 96 d5 01 be 05 a8 a3 be bc 1f 37 3d
       -0.11523406 -0.12679133 -0.31964126 0.044708

BN1.running_var f4 [32]
000000 4c cd 0f 3c f6 32 d3 3c 9c 3e d5 3b 9e 60 18 3c
       0.008776974 0.025781136 0.0065077078 0.009300379
000010 41 49 d8 3a 6b d5 b2 3d 2a 1a ca 3b d1 d5 08 3c
       0.0016501324 0.087321125 0.00616767 0.008351759
000020 06 83 9f 3c 85 1c 2b 3c c0 e2 9d 3c 40 e5 0b 3b
       0.019471657 0.010443811 0.019273162 0.002134636
000030 ee 56 a1 3c 42 f9 04 3d b9 e4 b7 3b 1f bf ef 3c
       0.019694772 0.032464273 0.0056119827 0.029265938
000040 39 49 d5 3a 11 7c 72 3c 9f 57 a4 3c d6 16 2a 3c
       0.0016272432 0.014800088 0.020061312 0.010381421
000050 c4 ae e6 3b 32 e3 a9 3b 21 f8 39 3b e3 6c 81 3b
       0.0070398767 0.0051845545 0.0028376656 0.003949748
000060 b0 f1 dd 3b 74 7c 32 3b d8 e7 14 3d 63 ee 78 3c
       0.006773196 0.0027234824 0.036353916 0.015193555
000070 49 c2 88 3c f1 ef 34 3c 39 85 b5 39 f2 f6 d8 3c
       0.016694205 0.011043535 0.0003462227 0.02648494

conv2.weight f4 [64, 32, 3, 3]
000000 ea 35 72 bd 09 e2 93 3e c7 28 63 bd 71 43 c8 3d
       -0.059133448 0.2888339 -0.05545881 0.097784884
000010 b6 29 08 3e c8 ab 76 be 92 ac fd bd 9b 0c 08 3d
       0.13297161 -0.24088967 -0.12386431 0.033215147
000020 ac 21 cc bd dd d6 3e be 6f a6 39 be ec 64 0c be
       -0.0996736 -0.18636651 -0.18129896 -0.13710374
000030 7a e4 89 be 5b d2 da be d9 69 e7 be d9 da b7 3e
       -0.26932126 -0.42738613 -0.45197943 0.35909155
000040 f3 ec 85 3e 71 22 b3 3e 76 f2 ed bc 9a ac 88 3d
       0.2615734 0.34987214 -0.029046278 0.06673546
000050 cd 01 fd 3d f9 2f d1 bd 3c 9c 03 bd 75 44 a7 3d
       0.12353859 -0.10214228 -0.03213142 0.08167354
000060 5f 82 60 bd 46 e6 aa bd 48 0a bf 3d 26 91 9b be
       -0.05481183 -0.083447024 0.09328133 -0.30384177
000070 80 22 8e bb f3 3b 86 3e 50 4d 1c bf 5c be a5 3c
       -0.004337609 0.26217613 -0.6105547 0.020232372
000080 2c c9 03 be df 53 17 be 96 33 83 3e d6 44 57 3d
       -0.1286971 -0.14778088 0.25625294 0.05255588
000090 13 01 c3 3e e6 22 cd be 52 df 69 be bd c9 09 be
       0.38086757 -0.40065688 -0.22839096 -0.13455863
0000a0 ef 90 3d be 85 92 20 be 66 bd f9 bd 6f 18 8e be
       -0.18512319 -0.15680893 -0.12194328 -0.27753016
0000b0 4f 04 2b be bd 61 ae be 45 53 b6 3c 74 b4 b5 be
       -0.16700862 -0.34058943 0.022256503 -0.35489237
0000c0 67 f6 b2 be d6 68 57 bd a2 8a 95 be 1d bf 6b 3e
       -0.34953615 -0.052590214 -0.2920733 0.23022123
0000d0 2e 95 bf 3e e9 8f 64 3e cf 1e 83 be a8 f9 51 be
       0.37418503 0.22320522 -0.25609443 -0.20505393
0000e0 56 e9 96 be d9 f2 7a bb 52 1e 05 3e 27 52 8d 3e
       -0.29474896 -0.003829172 0.12999848 0.2760174
0000f0 5d 16 b2 be 23 6c 90 be c8 d6 14 be a0 c8 0e bd
       -0.34782687 -0.28207502 -0.14535058 -0.0348593
000100 7c d2 24 3e 43 ff 24 3e cb aa 70 be 02 ed 8e bd
       0.16095918 0.16113 -0.23502652 -0.069787994
000110 6a 10 17 bf 6a 77 21 3e a6 31 66 3e a2 d2 77 3e
       -0.5900942 0.15768209 0.22479877 0.24201444
000120 6f 44 ab be ad 0c 84 bd 43 44 77 be 16 c0 7b be
       -0.33450648 -0.0644773 -0.24147134 -0.24584994
000130 94 73 af 3d cc 44 d7 be 50 ef 8b 3e b8 a8 63 3e
       0.08566967 -0.42044675 0.27331018 0.2223233
000140 e5 2a 90 bd 30 eb 02 bf 11 66 3c bf 83 d0 3a bf
       -0.070394315 -0.5114012 -0.7359324 -0.72974414
000150 b3 de d4 3e cf f9 56 3e d0 5b 84 bc 2c db ca be
       0.41576156 0.20993732 -0.01615706 -0.3962034
000160 0a 2a d6 be 23 e3 f6 be d4 68 1b 3f 05 01 d5 3e
       -0.41828948 -0.48220167 0.6070683 0.4160234
000170 da 67 ab 3e 21 e2 86 be 9c b3 32 be 69 b2 26 bf
       0.3347767 -0.26344398 -0.17451328 -0.6511598
000180 e7 52 2a 3e cd 55 9e 3d be a6 db 3c 0b 5a 21 3d
       0.16633187 0.07731209 0.026812907 0.039392512
000190 16 34 87 3d a0 b8 14 be e2 80 2b be d3 21 cb 3b
       0.066017315 -0.14523554 -0.16748384 0.0061991005
0001a0 71 80 2d be 38 69 7b 3e 90 58 24 bc ea d0 e2 be
       -0.16943528 0.24551857 -0.010030881 -0.44300014
0001b0 10 2a db 3e 30 32 8a 3e 8a 49 64 bd e2 cc 20 3e
       0.4280553 0.26991415 -0.055734195 0.15703157
0001c0 bd ee 07 be a3 a7 8a bf 34 16 f8 bd c6 b2 55 3d
       -0.13274665 -1.0832409 -0.1211361 0.052172445
0001d0 11 d0 fb 3d 8f 22 51 bc a3 e0 f5 3c 70 cd 14 be
       0.12295545 -0.012764587 0.030014342 -0.14531493
0001e0 fe 0a b0 be d1 7a ab 3b ec 82 dc be ec 56 06 bc
       -0.34383386 0.0052331467 -0.43068635 -0.008199435
0001f0 ec 25 07 3d 40 c8 ad 3d a3 c3 5a 3d bf fc 6e 3d
       0.03299515 0.0848546 0.05340923 0.058346506
000200 87 38 05 be f8 85 19 bd 92 41 18 3c 75 5c 42 bf
       -0.13009845 -0.03748128 0.009292977 -0.7592233
000210 87 30 14 bd 0f d6 44 3d e5 38 ba be 24 bf d3 be
       -0.03617909 0.048055705 -0.36371532 -0.41356766
000220 dc d1 57 be 31 8a 41 bf 48 56 4a bd 34 a6 16 3d
       -0.21076149 -0.7560149 -0.04939869 0.036779597
000230 73 c1 b6 bd 80 ec a1 3e 48 0e c9 3b c7 94 d9 be
       -0.08923616 0.31625748 0.0061357357 -0.4249632
000240 db e1 53 bf c7 f2 4f be ba 77 f3 be 4c 93 34 3e
       -0.82766503 -0.20307456 -0.47552282 0.17634314
000250 30 ea 9d 3e 0b a3 a5 3d 81 ff 7e bd fc e9 dd bd
       0.30842733 0.080877386 -0.062255386 -0.108356446
000260 e6 37 63 3e b1 c2 e9 3e 82 d6 9c 3e bc ca e7 3e
       0.22189292 0.4565635 0.30632406 0.45271862
000270 82 07 7d be 8a d3 88 be e4 48 1e be 0e 7c 2b bc
       -0.24709895 -0.26723891 -0.15457493 -0.010466589
000280 71 dc 47 3d ad db 3e 3e 3a 5d 16 bf 9d 33 1a bf
       0.048794214 0.18638487 -0.58736 -0.60235006
000290 73 14 8e be f3 7a b3 3e 6b 82 43 be b4 79 05 bf
       -0.27749977 0.3505474 -0.1909272 -0.5213883
0002a0 06 e1 9f 3e 98 da 90 3e 93 e2 bc 3e 74 0b d2 be
       0.31226367 0.28291774 0.36891612 -0.41024363
0002b0 02 4f df bd d3 ea 44 be d8 b1 1c 3c 3f f3 10 bc
       -0.109037414 -0.19230203 0.009563886 -0.008847057
0002c0 bd ae 28 be 9d 46 4d 3e 4c d7 0a 3e 41 ca d2 3e
       -0.16472907 0.20046468 0.13558692 0.41169932
0002d0 bb a2 be 3e 09 86 27 3e e2 69 29 be 4b a8 c3 be
       0.37233528 0.16359724 -0.16544297 -0.38214335
0002e0 6f 37 ab bd d7 c6 f0 be d4 7a 1a bf c1 03 8e ba
       -0.083601825 -0.47026703 -0.6034367 -0.0010834859
0002f0 12 4a 30 bf 7e 78 0c bf 53 95 9a be 89 37 5f 3e
       -0.6886302 -0.54871356 -0.3019205 0.21798529
000300 cb a3 05 bf 77 c3 e4 be 94 00 01 bf db 80 0a be
       -0.52203053 -0.44680378 -0.5039151 -0.13525717
000310 41 da b2 3e 5c 5d a0 3e 6f 6e 28 be b1 18 e7 3d
       0.3493214 0.31321228 -0.16448377 0.112840064
000320 93 b8 8c 3e db 24 c8 3e 88 b1 50 3d 0b ed 9f bd
       0.2748457 0.39090618 0.050950557 -0.07808884
000330 43 66 26 be e6 ee 6d bd a9 09 8d 3d f5 3d 3a 3e
       -0.16249947 -0.05808916 0.06886608 0.18187697
000340 18 f2 ed 3d 86 ef 59 3e bc e4 80 be 87 2b fb bb
       0.11618441 0.21282777 -0.2517451 -0.007665101
000350 7c dc ab bd 89 c2 04 bf 27 9e 13 bd 5f 2f a7 be
       -0.083916634 -0.5185934 -0.036039498 -0.3265333
000360 67 68 2b 3e 35 3d 86 3d c5 65 9f 3e ef 1b a1 be
       0.16739045 0.06554643 0.31132331 -0.31466624
000370 55 41 53 be 67 2e af be a5 13 b9 bd 4b 73 20 3e
       -0.20630391 -0.3421509 -0.0903695 0.15668981
000380 d7 00 c2 3e 8b ed 66 3e 72 1b 15 3e ff 7e 9f 3c
       0.37891266 0.22551553 0.14561251 0.019469736
000390 27 1d c4 3c 31 5c e1 bd d5 1b e4 b9 24 f2 8a be
       0.023939682 -0.11003912 -0.00043508285 -0.27137864
0003a0 dd a3 e1 be d4 82 1d bf 30 c5 81 bf 52 9e a2 bf
       -0.4407033 -0.6152775 -1.0138302 -1.2704566
0003b0 a9 f7 b6 bf 5f c9 50 be c5 64 84 be 3a d1 85 be
       -1.429433 -0.20389317 -0.2585813 -0.2613619
0003c0 f1 e2 99 be 40 18 e7 be f8 13 f5 be 5f f9 30 3e
       -0.30055955 -0.4513569 -0.47866797 0.17282628
0003d0 da 22 7d be 05 99 0c bf b9 29 fb be 04 1b f0 be
       -0.24720326 -0.5492099 -0.4905527 -0.4689561
0003e0 86 f3 ad be be 8e 9c 3e 1a 65 be 3e 37 12 bf 3e
       -0.33974856 0.30577654 0.3718651 0.37318584
0003f0 23 e6 a2 3e c8 a0 63 3e 24 d0 2f 3f a2 f0 ee bd
       0.31816205 0.22229302 0.6867697 -0.11666991

conv2.bias f4 [64]
000000 2f 98 61 bd 7e 46 15 3d b1 a2 85 3b 12 3c 17 bd
       -0.055076774 0.03644418 0.004078232 -0.036922522
000010 cd b3 9d 3d c8 4e 7b 3c 5f 91 8d 3d 76 92 41 3d
       0.0770031 0.015338607 0.06912493 0.047258817
000020 84 cf 0c 3d a1 d4 09 bd c7 91 31 3d 9f 2e 2f 3d
       0.03437759 -0.033650044 0.043351915 0.04276907
000030 6d a9 43 3d 88 b6 77 be b2 e5 b7 3b 1e 19 75 3d
       0.047769 -0.24190724 0.0056120986 0.059838407
000040 10 85 4b 3d b1 2b 30 be 89 58 34 bd 27 7e 59 3d
       0.049687445 -0.17204167 -0.044029746 0.053098824
000050 00 03 f2 3d 61 a9 15 3d 54 6d 53 be 31 ef 1b be
       0.118169785 0.036538485 -0.20647174 -0.15227963
000060 9a 00 57 bd 6b e0 bf bc 0e cb 6f 3d f9 8c fc 3c
       -0.052490808 -0.02342244 0.058543257 0.03082894
000070 83 8a 15 3d 14 fb 9d 3c e0 65 63 3c 82 38 81 3d
       0.03650905 0.019284762 0.013879269 0.06309606
000080 a7 5b 4b 3d 51 a3 94 bd 40 39 32 bd 1a 4c 1c be
       0.049647953 -0.07257713 -0.04351163 -0.15263405
000090 71 36 8d 3d 5e 76 9b bc 1f 5b 09 be aa 08 ca bd
       0.068951495 -0.01897734 -0.13413666 -0.09864934
0000a0 45 c6 f9 3c 53 b3 36 bc 2e 3c 5a 3d 7c b4 18 3d
       0.03049005 -0.011151153 0.053280048 0.0372815
0000b0 f7 2a 69 ba 08 f5 c3 bd a6 eb ec 3c e1 db c8 bd
       -0.0008894647 -0.095682204 0.02892096 -0.098075636
0000c0 7c 03 25 3d 1d 5f 9a bd 9f c6 25 3d 55 ff 32 3c
       0.040286526 -0.07537673 0.040472623 0.010925134
0000d0 70 6c df 3d d7 24 b1 3d 59 54 1b 3a cb 1a 4b 3e
       0.10909355 0.08649605 0.00059253495 0.1983444
0000e0 e9 d2 38 3e d3 e9 60 3d e1 ec 75 bd e0 89 46 bd
       0.18049206 0.054910492 -0.06004036 -0.04847133
0000f0 ff d2 8f 3d 80 3f 8b bb cc d8 e8 bc b9 20 5a bd
       0.07022666 -0.004249513 -0.02842369 -0.053253863

BN2.weight f4 [64]
000000 47 4a ae 3f 97 f4 95 3f 02 36 a8 3f 67 8b ae 3f
       1.3616418 1.1715268 1.3141482 1.3636292
000010 18 9e 8e 3f c5 2a ac 3f 6b 00 60 3f 5b 95 8b 3f
       1.1141996 1.3450552 0.8750064 1.0904955
000020 f7 c6 ab 3f aa e1 ab 3f 07 28 94 3f a7 bd a4 3f
       1.3420094 1.3428242 1.1574715 1.2870377
000030 87 48 b3 3f 82 71 c5 3f d8 b2 9a 3f 6f cf 8a 3f
       1.4006509 1.5425265 1.2085829 1.0844554
000040 43 18 b6 3f c6 bb b7 3f 70 48 ed 3f 7c 36 26 40
       1.4226154 1.4354179 1.8537731 2.5970755
000050 21 ac a5 3f 01 6e ba 3f dc fb 17 40 4c fb a9 3f
       1.2943155 1.456482 2.3747473 1.3279815
000060 aa 64 b5 3f f7 54 09 40 54 87 c4 3f b8 0a b2 3f
       1.4171345 2.1458108 1.5353799 1.3909521
000070 8b 8c c2 3f ac df ae 3f 9c 3a c4 3f 3a 9a a0 3f
       1.519914 1.3662009 1.5330386 1.2547066
000080 dc 96 ca 3f 61 9a c4 3f 40 4a ab 3f 88 6c b6 3f
       1.5827289 1.5359613 1.3382034 1.4251871
000090 5a 41 02 40 af 70 8c 3f 06 f1 52 3f e1 cf 9c 3f
       2.0352387 1.0971888 0.8239902 1.225094
0000a0 70 5a 8e 3f f7 d5 85 3f cc d4 a5 3f 2e e9 08 40
       1.1121349 1.0455922 1.2955565 2.1392322
0000b0 57 66 de 3f 43 fa b6 3f 2f 9c d0 3f 3e 09 74 3f
       1.7374982 1.4295124 1.6297663 0.953266
0000c0 e6 5c e4 3f d8 ee a1 3f 3d 00 ad 3f 8d 54 bb 3f
       1.784085 1.2651014 1.3515698 1.4635178
0000d0 67 a2 cd 3f 8d fb 7b 3f d9 cb a5 3f aa c1 a9 3f
       1.6065186 0.9843071 1.2952834 1.3262227
0000e0 f4 63 91 3f dd 87 bf 3f af f1 9b 3f 85 de 91 3f
       1.1358628 1.4963337 1.2183131 1.1396033
0000f0 35 1e d6 3f 6b f5 c5 3f 3d 7d fa 3f 2d 02 a2 3f
       1.6727968 1.5465521 1.956947 1.2656914

BN2.bias f4 [64]
000000 50 16 34 bf 36 7d 22 bf 6f 96 1d bf ca 9b 44 bf
       -0.70346546 -0.63472307 -0.6155767 -0.76800215
000010 3f 91 24 bf a1 01 3a bf 01 90 e1 be 3f 5b 06 bf
       -0.6428413 -0.72658736 -0.4405518 -0.5248298
000020 4f c5 37 bf 9f 57 32 bf 3d 1e 14 bf 33 52 2a bf
       -0.71785444 -0.6966495 -0.5785864 -0.66531676
000030 2b d7 2b bf 7c 4f 43 bf 12 48 1c bf 36 77 04 bf
       -0.67125195 -0.7629316 -0.6104747 -0.517444
000040 b1 5d 1d bf 41 1c 42 bf e9 d2 9e bf d0 d0 f9 bf
       -0.61471087 -0.7582436 -1.2408115 -1.951685
000050 eb e1 17 bf e4 60 49 bf 82 24 d2 bf 34 62 20 bf
       -0.593291 -0.7866347 -1.6417391 -0.62649846
000060 96 0d 2c bf 97 bc af bf 28 b6 4e bf fb 3d 38 bf
       -0.6720823 -1.3729428 -0.807467 -0.71969575
000070 bd b4 46 bf 51 08 18 bf 7b 2b 4d bf 5b 30 2a bf
       -0.77619535 -0.5938769 -0.8014447 -0.66480035
000080 83 86 8b bf 6c f1 5b bf 21 cc 22 bf 93 7b 2e bf
       -1.0900425 -0.85915256 -0.63592726 -0.6815731
000090 31 da 98 bf d1 4a 00 bf 54 f7 eb be 09 5e 23 bf
       -1.1941587 -0.5011416 -0.46087134 -0.6381536
0000a0 0e ca fc be ed 2b f4 be ca 07 30 bf e4 8d c7 bf
       -0.49372905 -0.47689763 -0.68761885 -1.5590177
0000b0 21 c9 64 bf 23 c7 49 bf cd 73 60 bf f2 11 f5 be
       -0.893694 -0.78819484 -0.876767 -0.47865254
0000c0 d9 b6 59 bf 90 d4 39 bf c1 9c 3a bf 0f 66 40 bf
       -0.8504463 -0.7258997 -0.7289544 -0.7515573
0000d0 2b 68 5f bf 4a 4f 02 bf ea 36 1e bf 3a 47 2e bf
       -0.8726832 -0.50902236 -0.6180254 -0.68077433
0000e0 26 fd 05 bf 39 d7 3f bf e2 89 0e bf ce 03 12 bf
       -0.523394 -0.7493778 -0.5567914 -0.57037055
0000f0 ce 2b 8a bf 30 d3 4e bf a8 87 a0 bf 2c fc 11 bf
       -1.0794618 -0.80790997 -1.2541399 -0.5702541

BN2.running_mean f4 [64]
000000 aa 0b e2 bf 4b ec 1e c0 d1 f9 d3 bf 3d 72 0b c0
       -1.765981 -2.4831722 -1.6560613 -2.1788476
000010 57 97 1d c0 84 a9 c5 bf 3b 47 9d bf fe 2a 9d bf
       -2.462362 -1.5442357 -1.2287363 -1.2278745
000020 3c d7 88 bf 57 f7 e6 bf 4f 7d 1b c0 36 39 14 c0
       -1.0690684 -1.8044232 -2.4295232 -2.3159919
000030 5d 08 23 c0 e9 2c a1 bf 1d 46 1b c0 df ae aa bf
       -2.5473855 -1.259183 -2.4261544 -1.3334616
000040 56 05 c7 bf 87 e8 e9 bf 7f a6 87 bf 3e a8 4b bf
       -1.5548503 -1.8274087 -1.0597686 -0.7955359
000050 be e9 10 c0 40 ca 27 c0 f4 81 a0 bf a0 05 03 c0
       -2.2642665 -2.6217194 -1.2539659 -2.0472183
000060 9e 52 12 c0 28 97 84 bf 6c fb d8 bf 75 e1 ec bf
       -2.2862926 -1.0358629 -1.6951728 -1.8506304
000070 90 92 be bf 02 1b e5 bf ca 1e f5 bf ab 8e b9 bf
       -1.4888477 -1.7898867 -1.9150021 -1.4496664
000080 65 df 93 bf 9a dd a3 bf 8d 86 f6 bf 91 a4 08 c0
       -1.155255 -1.2802002 -1.9259812 -2.1350443
000090 50 04 77 bf a7 fd 63 c0 e0 e9 e9 bf 0e 14 be bf
       -0.96490955 -3.5623567 -1.8274498 -1.484987
0000a0 87 ec 13 c0 fd 51 03 c0 12 30 b7 bf 57 a4 6a bf
       -2.3113115 -2.0518792 -1.4311545 -0.9165701
0000b0 97 75 dc bf 1b 5c 8e bf 0e 92 c4 bf 15 d2 3a c0
       -1.7223386 -1.1121858 -1.5357072 -2.9190724
0000c0 e8 ba c7 bf c7 27 d2 bf b9 87 06 c0 83 2b ee bf
       -1.5603914 -1.6418389 -2.1020339 -1.8607029
0000d0 35 1f f4 bf aa c3 b9 bf 01 f1 f6 bf 2c 96 7a bf
       -1.9072024 -1.4512837 -1.9292299 -0.97885394
0000e0 0f 24 2d c0 d3 cd f6 bf 2c 11 2c c0 72 2c 00 c0
       -2.7053258 -1.9281563 -2.688548 -2.0027127
0000f0 0e d9 3f bf 43 6a 99 bf e6 2c 4b bf 3d 21 e6 bf
       -0.74940574 -1.1985554 -0.79365385 -1.7978894

BN2.running_var f4 [64]
000000 ba 36 83 41 39 52 b4 41 ef 1c 62 41 ac c8 82 41
       16.401722 22.540148 14.132064 16.347984
000010 9c bc 5c 41 1b 1a 53 41 8e 29 49 41 57 c4 4e 41
       13.796047 13.193873 12.572645 12.922935
000020 8d d3 f2 40 d7 06 76 41 3d 19 9e 41 eb 93 c8 41
       7.588324 15.37667 19.762323 25.072226
000030 b2 a1 b0 41 19 d7 c5 40 d9 69 ef 41 bb 7d c1 41
       22.078953 6.182507 29.926683 24.186392
000040 5a 37 ac 41 3e e4 27 41 4f d3 90 40 6d 89 8c 40
       21.527027 10.493223 4.5257945 4.3917756
000050 f1 6c bf 41 84 7a cb 41 c3 b0 b1 40 2b d2 41 41
       23.928194 25.434822 5.5528274 12.113811
000060 09 0f a3 41 1f b5 c1 40 da 2d 5c 41 46 7c 40 41
       20.382341 6.0533595 13.761194 12.03034
000070 df 30 8c 41 1e 9a 9a 41 2b f6 5e 41 02 2f 26 41
       17.523863 19.325253 13.9351 10.3864765
000080 0a cf c5 40 fb a9 fe 40 ad 4e 73 41 2b e7 60 41
       6.1815233 7.9582496 15.206708 14.0564375
000090 d5 c4 a2 40 64 46 00 42 d2 df 62 41 9f ca 26 41
       5.0865273 32.06874 14.179644 10.424468
0000a0 51 f2 a1 41 ba 23 95 41 a4 32 25 41 2a ed 9d 40
       20.243319 18.642445 10.324863 4.9352007
0000b0 b1 53 27 41 f2 8a bc 40 36 4c 1d 41 6b 45 0b 42
       10.457932 5.891961 9.831106 34.81779
0000c0 3c c2 41 41 79 60 3e 41 f3 dc 2a 41 d3 ca 76 41
       12.1099205 11.898553 10.678943 15.424518
0000d0 54 9a 61 41 ca 83 a1 41 24 76 85 41 3e 98 56 41
       14.100178 20.18935 16.682686 13.4121685
0000e0 d4 91 df 41 b1 c0 5c 41 45 80 a9 41 23 25 83 41
       27.946205 13.797044 21.187632 16.393133
0000f0 86 c6 80 40 7b 8e ff 40 c4 87 5e 40 02 7f b2 41
       4.024234 7.9861426 3.4770365 22.312016

fc1.weight f4 [128, 1024]
000000 c7 6a ee bc 18 4a 6a bd ef 03 1a bd dd 33 81 bd
       -0.02910365 -0.057199568 -0.037601408 -0.0630872
000010 c2 91 21 bd 75 9d 42 bd a7 a5 92 bd 57 bf 38 bd
       -0.039445646 -0.047513444 -0.07160502 -0.04510435
000020 97 5f 9a bd 20 93 87 bd cb ca 29 bd 81 3c 72 bc
       -0.075377636 -0.06619859 -0.041453164 -0.014784933
000030 73 ff f3 bc ff 71 80 bc d3 b3 2e bc 58 7d 64 bd
       -0.029784894 -0.015679358 -0.010662991 -0.0557836
000040 54 ba e9 bc ad b9 65 bc 82 9e f8 3b d8 bf e2 bc
       -0.028531231 -0.014021319 0.007587255 -0.027679369
000050 12 fb b1 bc 62 2a 0d bd c0 19 24 bd b3 e5 4e bc
       -0.021726165 -0.034464248 -0.04006362 -0.012628007
000060 70 42 8a 3c d3 8a b8 3c 47 20 27 3b b8 bb 92 bb
       0.016877383 0.022527134 0.0025501417 -0.004477944
000070 a7 83 38 bc 97 cb 33 bd 10 6a f2 bc 1a 9b 27 bc
       -0.011261857 -0.04389533 -0.02959159 -0.01022985
000080 c0 33 06 bd 3d 2d 26 bd e4 fe 80 bc 7d ca 4f bd
       -0.032764196 -0.040570486 -0.015746541 -0.050730217
000090 3d bf 72 bc d9 e6 68 bd 0f 75 84 bd 2a 49 e6 bc
       -0.014816103 -0.05686078 -0.0646764 -0.02811106
0000a0 3e 28 9e 3c 6b db e3 3b af 44 37 bc e5 53 2c bc
       0.019306298 0.006953647 -0.011185809 -0.010518049
0000b0 be 4d 8d bc d6 17 43 bc 4d 97 22 3c 35 4d 09 bd
       -0.017248984 -0.011907538 0.009923768 -0.033520896
0000c0 c9 23 01 bd 2b 56 7a bc 93 fe 7c 3c da ee ee 3c
       -0.031528268 -0.015279333 0.015441555 0.029166628
0000d0 7e 35 c1 3c 36 25 0b bd ec 17 6a bd ff 13 e4 bc
       0.023585077 -0.033971034 -0.05715172 -0.027841566
0000e0 2a 43 2b 3c 62 4c d4 bc b3 21 f1 bc 1e d2 6d bd
       0.010453025 -0.025915328 -0.029435014 -0.05806171
0000f0 b4 d2 93 bb 8e 4c 0f bd ec f6 b0 ba 61 19 5f 3c
       -0.0045112018 -0.034985118 -0.0013501323 0.013616891
000100 c4 84 ff ba a9 12 55 3b 76 a7 43 bd 6f 0e 63 bd
       -0.0019494523 0.0032512343 -0.047767125 -0.055433687
000110 8b 89 18 bd ad ab 12 bd 1c 1a 70 bc f2 f4 84 bd
       -0.037240546 -0.035808254 -0.014654662 -0.06492032
000120 ae 35 87 bd a6 5e 67 bd ca 10 29 bd e9 5a 46 bc
       -0.066020355 -0.05648675 -0.041275777 -0.012106636
000130 c2 09 17 bd 68 ba b2 bc 34 fc 69 bd e6 16 82 bb
       -0.03687454 -0.021817401 -0.057125285 -0.003970015
000140 fc 01 21 bc f7 9f 16 bc bd 85 36 3c 39 ea 65 bc
       -0.009827133 -0.009193412 0.011140284 -0.014032894
000150 64 73 c9 bc 7e a6 34 bd b3 71 f4 bc b4 b0 fc bc
       -0.024591155 -0.04410409 -0.029839372 -0.030845977
000160 7d 5c 01 bd 72 4f 48 bd c3 4e e8 ba e7 8b 80 3c
       -0.031582344 -0.04890389 -0.0017723668 0.01569171
000170 08 74 3f bd e8 d2 88 bb 4d d9 36 bd f4 58 f9 39
       -0.046741515 -0.0041755326 -0.044640828 0.00047559256
000180 ad 1d 03 bd 57 db 96 bc 86 d2 e3 bc 12 28 19 bd
       -0.032010723 -0.018415136 -0.027810346 -0.03739173
000190 5a 14 bb 3c b4 5a 6c bc 1c c6 fe bb d6 18 d2 3b
       0.022836853 -0.014425922 -0.0077750813 0.006411652
0001a0 34 08 a3 bc 5a 86 0a 3d e8 89 cf 3c ce 78 fc bc
       -0.019901372 0.033819534 0.025334314 -0.030819323
0001b0 33 c7 c6 bb d3 6a bc bb e6 ab b1 bc bb 25 f4 bc
       -0.006066227 -0.005750039 -0.021688413 -0.029803148
0001c0 83 bd 60 bc 15 b1 b0 b9 8e ea 70 3b 2c 58 15 bd
       -0.013717058 -0.00033701272 0.00367609 -0.03646104
0001d0 b5 48 90 bd 81 73 59 bd 32 1d 9b bd a4 17 6f bc
       -0.07045118 -0.05308867 -0.07573928 -0.014593039
0001e0 34 d0 92 bd 45 4b d3 bc 8c ca 82 bd 9c 79 91 bd
       -0.07168618 -0.025792727 -0.06386289 -0.07103273
0001f0 c2 0f 7a bc 52 70 6f bd 73 3d 6b bd 8e 20 08 3b
       -0.015262546 -0.058456726 -0.05743165 0.0020771357
000200 91 23 12 bd 0a 66 73 3c c5 48 63 bc 13 c3 17 bd
       -0.03567845 0.014855871 -0.01387233 -0.03705127
000210 c7 28 7d 3c 04 9e 36 bd f4 ac 4e bd bc c2 e2 bc
       0.015451617 -0.04458429 -0.05045791 -0.027680747
000220 d7 89 84 3c 03 6d 8b bc f0 a1 55 3c 8e dd 32 bd
       0.016179008 -0.017019754 0.013039097 -0.043668322
000230 58 ff 72 bc 6d 77 22 bc 7e fa 5c 3b d9 15 10 bd
       -0.0148313865 -0.009916169 0.003371864 -0.035177086
000240 53 ac 0e bd f5 10 03 bd f3 75 1e bd a9 68 78 bd
       -0.03483231 -0.031998593 -0.038686704 -0.060646687
000250 f2 2a 7f 3c ad ef e2 bc ef ac 43 3b 97 32 38 bc
       0.015574204 -0.027702177 0.0029857715 -0.01124253
000260 12 f4 ce bc 7f dd 1c 3d 0c b8 10 3d 51 15 01 bc
       -0.025262866 0.038297173 0.03533177 -0.007878617
000270 9d 03 6d bd b0 9f 97 bc 3f 02 03 bb 35 b0 00 bd
       -0.057864774 -0.018508762 -0.0019990352 -0.031418044
000280 23 e5 7b ba 95 ba e9 bc eb 80 23 bd 74 a4 1b bd
       -0.0009609034 -0.028531352 -0.039917868 -0.03799863
000290 44 20 e0 bc 57 dc 36 bd fa c4 07 bd 7f 03 1e bd
       -0.027359135 -0.044643726 -0.033146836 -0.038577553
0002a0 61 df 46 bd 08 e7 47 bd 75 cb 71 3c 9a 4b e9 bb
       -0.048552874 -0.048804313 0.014757981 -0.007119608
0002b0 ad cc 55 bc d1 61 54 38 63 9f 30 3c b7 ff 11 bd
       -0.013049287 5.0635837e-05 0.010780188 -0.03564426
0002c0 1c 66 1b bd 38 69 0e bc ba 2d 97 bc 18 c3 94 bc
       -0.037939176 -0.008692078 -0.018454421 -0.018159434
0002d0 bb d2 49 bd 4e ba d3 bc ec 4d 9b bc 5c 2c f5 bc
       -0.049273234 -0.025845673 -0.018958054 -0.029928379
0002e0 28 64 2c 3b 8e 1f aa bb 9b 87 04 bc b4 9d 46 bd
       0.0026304815 -0.00519175 -0.0080889715 -0.04849024
0002f0 38 d4 dd 3b e5 2d c6 bc a3 18 b6 3b 1f 15 ec 3c
       0.006769683 -0.024191806 0.005557136 0.028818665
000300 41 52 17 bd 1b d3 62 bd cc 89 5a bd a0 34 bf bc
       -0.036943678 -0.055377107 -0.05335407 -0.023340523
000310 96 b3 30 bd 3a cd 70 bd 8e 84 66 bd 26 ff 63 bd
       -0.043140016 -0.05878947 -0.056278758 -0.05566325
000320 78 95 ab 3c 7f 33 31 bd 19 9d 56 bb c6 1b 50 bc
       0.020945296 -0.043262 -0.0032747446 -0.012701934
000330 33 b3 85 bc bd b5 13 bd b0 db bf 3b 97 f7 72 3c
       -0.0163208 -0.03606199 0.005855046 0.014829538
000340 62 79 aa bc f1 f6 df 3b 23 84 d4 bc c4 65 07 bd
       -0.020809833 0.0068348576 -0.025941914 -0.033056036
000350 b7 78 26 bd e6 d3 1f bd 2f 79 83 bc e4 5b 6f bc
       -0.040642466 -0.03902044 -0.016048996 -0.014609311
000360 d1 5b 85 3c 27 80 2e 3d 46 99 d5 3c 8b bc 0e bd
       0.016279133 0.042602684 0.026074063 -0.034847777
000370 77 3f b3 3b 24 5a 98 bc be a6 f1 bc 0b d2 3b 3d
       0.005470212 -0.01859767 -0.029498454 0.04585461
000380 08 f7 cc bc 44 9a 23 bd 13 93 f9 39 fa 75 ba bc
       -0.025020137 -0.03994204 0.0004760256 -0.022761334
000390 18 06 83 bc ad 9b 7e 38 77 c5 5f bd e9 39 0f bd
       -0.015994117 6.0703303e-05 -0.054631677 -0.034967337
0003a0 06 41 3f bd 52 00 96 bb 74 3c d6 ba 89 82 9a 3b
       -0.04669287 -0.004577675 -0.0016344921 0.004715268
0003b0 6d 15 5c bd 4a ba 43 bd 9b 9c 58 bd f2 58 b2 3b
       -0.05373137 -0.04778508 -0.052883726 0.005442732
0003c0 5c 39 11 bd 32 f2 9c bb f5 1a 7d bd a5 f9 14 bd
       -0.035455093 -0.004789614 -0.061793286 -0.036370892
0003d0 d0 29 07 3c 6b c0 e8 bc e1 05 4f bd ee 47 06 bd
       0.008249715 -0.028412065 -0.050542716 -0.03278344
0003e0 86 e3 e0 3b 8d bd 0f 3c 19 86 ad 3c 22 41 bd 3b
       0.0068630604 0.00877322 0.021182107 0.0057755867
0003f0 bd cb 24 bd 1d b0 a6 bc b2 8b f1 bc ee 3b 4a 3c
       -0.040233362 -0.02034765 -0.029485557 0.01234339

fc1.bias f4 [128]
000000 26 0c b0 bb b7 88 84 3c 29 4b 36 3e 9e 39 47 3e
       -0.005372542 0.016178472 0.17802109 0.19455573
000010 99 b6 dd 3b c8 16 26 bd 06 23 a7 3a 2f 4c 11 bd
       0.006766152 -0.04054907 0.0012751527 -0.035473045
000020 9c a2 7c bc 15 38 0d 3b f4 90 1d bc c1 b8 de 3d
       -0.0154196285 0.002154832 -0.009617079 0.10875083
000030 6f c8 91 bc cb 73 5e bd c6 69 d7 3d a3 3e d1 3b
       -0.01779577 -0.054309648 0.105182216 0.0063856407
000040 a4 12 ce bc 20 d7 93 bc 05 18 4d 3d b7 7c 12 bd
       -0.025155373 -0.018046916 0.050071735 -0.03576347
000050 af 50 b4 bd dd 82 5f bc e7 03 ae 3e 0f b0 60 bc
       -0.08804452 -0.01364204 0.33987352 -0.013713851
000060 4b 8b 20 bc 2a 3a 68 3e df 8c a5 bc 3b 2b d4 3d
       -0.009798835 0.22678438 -0.020208774 0.10359808
000070 2d 16 c1 bc a8 3c 72 bc db 7e c4 bc ae 58 12 bd
       -0.023570145 -0.014784969 -0.02398627 -0.035729103
000080 f8 ec 81 3c 96 de 0e 3c bb 29 55 bd e3 9d 92 bb
       0.015860066 0.008720061 -0.05204175 -0.004474388
000090 fd a8 a3 3e 5c 90 0d bd ab 99 43 bc 4e 95 77 bd
       0.31964865 -0.0345615 -0.011938493 -0.060445122
0000a0 f3 a6 2b bc 86 e3 55 bc 10 5a 26 3c dc a8 96 3b
       -0.0104768155 -0.013054734 0.0101533085 0.0045977663
0000b0 1b 3b 3f 3e a9 0d b4 bc c5 c1 67 bc 79 c5 f0 bd
       0.1867489 -0.02197917 -0.014145319 -0.11756415
0000c0 1c 47 07 3c 4e d3 be ba a3 e5 cd bc b0 c4 81 bc
       0.0082567 -0.0014558823 -0.025133913 -0.015840858
0000d0 4c db ea bb 16 ef 19 bd 02 ea 72 3e b9 6a fb bc
       -0.0071672555 -0.037581526 0.2372208 -0.030690538
0000e0 1c f0 09 bd 03 73 16 bc 79 51 1d bc 04 58 6f 3e
       -0.03367625 -0.009182694 -0.009601944 0.23373419
0000f0 93 52 be 3d c3 c6 da 3a b5 70 42 3e e8 13 14 bd
       0.092930935 0.0016691316 0.18988307 -0.036151797
000100 13 61 ef 3a af 52 1d 3e 97 22 db 3b ea b4 00 bd
       0.0018263183 0.15363573 0.006687473 -0.031422533
000110 c2 46 e2 bb 06 a6 05 3c a3 b8 93 3c 31 82 72 3e
       -0.0069054076 0.008157259 0.018032378 0.23682477
000120 d1 8b 13 bd 5f e2 6d bc a6 81 65 3d ac 7f 88 b8
       -0.03602201 -0.014519303 0.056031846 -6.508766e-05
000130 28 9f 71 bc a4 a7 52 3e ff ab e2 3b 53 31 38 bc
       -0.014747418 0.20571762 0.006917476 -0.011242229
000140 e8 e1 1a 3e 18 ff 3c 3e 79 46 cc bc eb f5 0f 3e
       0.15125239 0.18456686 -0.024935948 0.14058654
000150 f9 f7 10 bd 9b 26 21 3c 0f f5 a4 bb cf 6c d4 bc
       -0.035392735 0.009835864 -0.005034096 -0.02593079
000160 4b 34 0a 3c 00 b8 ef bc 6b 8c 16 bd 4a c6 05 3e
       0.008435319 -0.029262543 -0.036755007 0.13063923
000170 52 de 0f bd bb 92 87 bb 52 d8 83 3d 19 0b c1 bc
       -0.03512413 -0.0041373647 0.06437744 -0.023564862
000180 b5 de e0 bc db 78 fa bc 34 fe 20 3e 50 c1 98 bc
       -0.027449945 -0.030575207 0.15721971 -0.018646866
000190 5f 56 80 3e fa d8 f9 3d 81 ea 0d bd fb 7f 0f bc
       0.25065896 0.12199588 -0.03464747 -0.00875854
0001a0 e7 02 0a bd b3 6b 10 bd 1a 14 06 bc df 8e 4e bd
       -0.033694174 -0.03525896 -0.0081835035 -0.05042922
0001b0 81 5b 98 3e c2 3f 09 be 50 a5 86 3e 3f e1 37 bd
       0.29757312 -0.13403228 0.26297998 -0.044892546
0001c0 ff e1 78 ba d8 7f 02 3c df 72 8e bd dd 11 87 bc
       -0.0009494125 0.007965051 -0.06955504 -0.01648801
0001d0 cd 1a 84 3e d0 83 60 3d 85 d2 e9 ba c4 d0 14 bd
       0.25801697 0.054813206 -0.0017839229 -0.036331907
0001e0 4a 32 73 3e 3e 38 0e 39 60 63 15 bc 82 ea 3e 3e
       0.23749653 0.00013563127 -0.009117931 0.18644145
0001f0 ca 3a 91 bc e6 04 90 bc 11 f3 9c bc d0 bd 4f 3e
       -0.017728228 -0.01758046 -0.019158872 0.20287251

fc2.weight f4 [4, 128]
000000 58 bb d2 bc c1 f2 13 3e 39 77 be 3c 70 21 b2 bf
       -0.025724098 0.14448072 0.02325021 -1.3916454
000010 2f c9 73 bd ee ae e3 3c aa f8 05 3d be 2f fa 3b
       -0.059518036 0.027793374 0.032707848 0.007635086
000020 0e 2b 83 3d c7 6d a3 bd 17 c0 83 3c 07 3d 59 3f
       0.064046964 -0.07979923 0.016082807 0.84858745
000030 81 d5 1d bd fa 63 01 3c 38 7e cb 3e 23 ce 15 3d
       -0.03853369 0.007897371 0.39744735 0.03657354
000040 0a a9 b1 3c 8c 9c af 3c d5 85 5e 3d 91 15 98 3c
       0.02168705 0.021436952 0.05432685 0.018564971
000050 21 05 27 bd 8f 96 7a bd 62 d2 d6 bf 8e 7c 47 3d
       -0.040776376 -0.06117874 -1.6782954 0.04870277
000060 19 97 39 bd f1 90 d9 3e 26 e8 b6 bc da cc 50 3f
       -0.045310114 0.42493394 -0.022327494 0.8156258
000070 99 44 da ba 10 b8 a1 bd 21 74 cb bc 0c 1a 72 3c
       -0.0016652524 -0.07896435 -0.024835648 0.014776718
000080 ca cc 49 3c c2 7d d4 bc 42 e1 50 3d 03 f0 e1 bd
       0.012316892 -0.025938872 0.050996073 -0.11032107
000090 9b dc 67 3f 6a d5 e0 bc 7a 58 66 bd 92 d0 3d bd
       0.9057099 -0.027445514 -0.05623672 -0.046341486
0000a0 75 00 89 bd 08 31 34 bc c8 aa 4a 3d 02 84 82 3d
       -0.0668954 -0.010998018 0.049479276 0.06372835
0000b0 c4 dd d4 bf 76 5b b4 bc 3e c7 9d 3d f3 75 cb bd
       -1.6630177 -0.022016268 0.07704018 -0.099346064
0000c0 d4 4a 8f bd 14 0a 86 3b bd dc 4d bd 92 e8 91 bd
       -0.06996694 0.004090557 -0.05025934 -0.071244374
0000d0 58 7c ac 3c 3b 73 15 bd f4 aa d4 3f 58 12 b0 bc
       0.021055385 -0.036486845 1.6614671 -0.021493122
0000e0 69 42 5e bb 15 a9 30 bc ab 50 73 bd db dd 12 3f
       -0.0033914095 -0.0107825 -0.059403103 0.57369775
0000f0 c0 fc a1 3f 10 a1 9e 3c ba 1e d6 bf 44 2a 0c bd
       1.2655258 0.01936391 -1.6728127 -0.034219995
000100 9a a2 22 bc f7 f4 e9 3e e0 07 98 bd 0b f1 0f bd
       -0.009926463 0.45694706 -0.07423377 -0.035141986
000110 6d 74 18 bc e3 6a 7a bd 78 34 e2 bc f3 42 d8 bf
       -0.009305102 -0.06113709 -0.02761291 -1.6895431
000120 8c c8 06 3d b0 e7 39 3f 84 30 6c 3f 58 11 a3 3d
       0.0329061 0.7261915 0.9226153 0.079622924
000130 48 e8 76 bd 64 4a 6c 3f 18 ea 87 3d 63 ad 9b bd
       -0.060280114 0.9230101 0.06636447 -0.0760143
000140 62 db 67 bf b2 55 90 be f3 62 2e bd 52 b9 1b 3e
       -0.90569127 -0.2819038 -0.042574834 0.15207413
000150 6c ab 6e bc 7d 7a 88 3c ec fe 53 bd 09 32 c2 3c
       -0.014567237 0.01665997 -0.051756784 0.0237055
000160 d4 1e 4e bd dd b2 a1 3d 80 33 a6 3c 70 45 99 3f
       -0.05032237 0.078954436 0.020288229 1.1974316
000170 5f 79 00 bd 72 52 84 bd e1 8e 85 be 26 04 82 bc
       -0.03136575 -0.06461038 -0.2608557 -0.015871119
000180 fe 60 ab bc d8 db 85 bd 3f 46 5a 3d 0e d4 60 3b
       -0.020920273 -0.065360725 0.05328965 0.0034306082
000190 bb 17 8f 3f 9f f8 9b 3e 3e ea 3c 3c 19 a6 c7 3b
       1.1179117 0.3046312 0.011530457 0.0060927984
0001a0 17 fb af bc 31 88 fb bc e6 ca a9 bd 18 d6 82 3d
       -0.021482034 -0.03070459 -0.08290653 0.063884914
0001b0 bd 6c 0c c0 45 34 19 bd c6 64 d9 bd 37 52 28 3c
       -2.1941369 -0.037403364 -0.10614924 0.010273508
0001c0 d4 be 1e 3e 28 7c f5 bc 8c ec bf bf 82 32 40 bd
       0.15502483 -0.029966429 -1.4994063 -0.046923168
0001d0 db 81 62 3f 42 fa 5e 3f 4a 64 09 3d 09 85 7d bc
       0.88479394 0.87100613 0.03354291 -0.015473613
0001e0 65 54 a6 3e f3 fd e7 bd 46 cc 97 bd 05 be c6 3f
       0.32486263 -0.11327734 -0.07412009 1.5526739
0001f0 47 1c 99 bd 53 6e 07 bd f6 4c 49 bd a6 b1 01 c0
       -0.074760966 -0.033064198 -0.04914566 -2.0264678
000200 60 b9 7c bd c1 7d 9f 3d f8 d1 88 3f 12 3d 61 3f
       -0.061700225 0.077876575 1.0689077 0.8798381
000210 9c 2a d4 bc 63 db 47 bd 05 43 35 bd 66 57 58 bd
       -0.025899224 -0.048793208 -0.044253368 -0.052817725
000220 21 fd d1 3c bd 42 8a b9 75 0a ca 3c 67 33 f0 bf
       0.025633397 -0.00026371135 0.02466319 -1.8765687
000230 08 15 14 3d e0 39 3d bd 6d 8f b4 bf c5 fa 7d 3d
       0.03615287 -0.046197772 -1.410627 0.06200673
000240 2a d2 2d bd 8c ef 92 3c a9 f1 f5 3e 94 fc e6 3c
       -0.042436756 0.01793649 0.48035935 0.02819661
000250 b8 1d 1f 3c df d5 a2 3c 25 e8 3d bf 63 f1 8d 3c
       0.009711675 0.019877372 -0.7418235 0.017327016
000260 7b e2 a0 bc 97 81 90 3f 34 b2 ac 3c c5 c4 2a c0
       -0.019639244 1.1289548 0.021081068 -2.6682599
000270 b7 af f9 bc f7 f8 98 3d 2c ad 7f 3c 4f 3f 0a 3c
       -0.030479295 0.07469361 0.015605252 0.0084379455
000280 cd bd 95 bd a5 bc 2e 3d a2 82 1e 3d 5d 1c c2 bc
       -0.07311592 0.042660374 0.0386988 -0.023695165
000290 96 3f 5b be 15 1c c5 3c b0 22 79 bd df 4c 1a be
       -0.21410975 0.024061242 -0.060824096 -0.15068386
0002a0 e7 af 83 3c dd 8d fb bc 32 88 45 3d 5a cc 29 bd
       0.016075088 -0.030707294 0.04822559 -0.04145465
0002b0 4e 18 59 3f 14 e9 7a 3a f1 e2 0c bd b8 94 49 bd
       0.8480271 0.00095714745 -0.034396116 -0.049214095
0002c0 29 2d 8f 3d ef 25 5b 3d 33 a3 6d bd 42 62 88 bd
       0.069910355 0.053502973 -0.058016967 -0.06659366
0002d0 89 96 98 3c 9e c2 d1 bb 42 75 95 3e 07 e8 1a bd
       0.018626468 -0.006401374 0.29191023 -0.037818935
0002e0 51 89 b8 3c ff b2 97 3c 10 c3 57 3d b4 6b d3 bf
       0.022526415 0.01851797 0.05267626 -1.6517243
0002f0 19 51 91 be 93 3e 43 3d 79 a6 b0 3e aa e8 95 bc
       -0.28382185 0.047667097 0.3450201 -0.01829942
000300 48 fe 57 3d 3f 86 0d c0 c1 8c 5b bd 27 2b 70 bd
       0.052732736 -2.2113187 -0.05360103 -0.058634903
000310 38 1c 14 bd 6e c7 56 3d 63 bc f9 bb 02 43 cf 3e
       -0.036159724 0.052436285 -0.0076213344 0.4048081
000320 6c 13 1a 3d 06 8d 94 bf 78 c8 e1 be e7 4c d8 bf
       0.03761618 -1.1605537 -0.44098258 -1.6898469
000330 7d 4c 89 3c 25 7c f9 be 9b c4 84 3c 55 da 6d 3d
       0.016760105 -0.48727527 0.01620703 0.058069546
000340 09 2b 9c bf ab 4f 0b c0 86 7c 2b bd 24 9e 9f bf
       -1.2200633 -2.1767375 -0.0418668 -1.2470136
000350 fc 39 82 3d 89 e3 79 bd 53 94 1f 3d af 88 87 bc
       0.06358716 -0.06100801 0.038959812 -0.016544668
000360 f8 cc 22 bd 44 9b 0f 3d 85 10 9f bd 0c f5 b8 bf
       -0.039746255 0.035060182 -0.07766823 -1.4449782
000370 4b 54 22 bd f5 c0 d6 3c a4 f8 93 3f 8a 3a 8c 3c
       -0.03963117 0.026215056 1.1560254 0.017117757
000380 c3 05 a8 3d 7a 34 74 3d ae b2 70 3f b4 b1 54 3d
       0.08204224 0.059620358 0.94022644 0.051927283
000390 eb cb 91 3d 8c b1 36 3f 69 86 d3 bc 7c f5 81 ba
       0.071189724 0.71364665 -0.025820928 -0.0009915079
0003a0 d8 cb e7 3b 24 ee 84 3d 31 52 66 3d 34 d8 04 bc
       0.0070738606 0.06490734 0.056230728 -0.0081081875
0003b0 a7 f0 18 3f 8c d3 30 3b 94 33 3a 3f b4 cf 46 ba
       0.59742206 0.002698156 0.7273495 -0.0007584051
0003c0 6a 5c da 3c 25 5b f5 3a 78 a2 a0 3f 23 9f ea 3c
       0.026655395 0.001871918 1.2549582 0.028640335
0003d0 68 cf f2 bc d0 8a 94 bf e4 b9 07 3d 92 a9 74 bd
       -0.029639915 -1.1604862 0.033136263 -0.059732027
0003e0 ac 39 46 3c 5d af 87 bd 09 98 0c bd e1 b7 ae bf
       0.012098711 -0.06625245 -0.03432468 -1.3649865
0003f0 a5 6a 9d bd 7d 46 90 3c aa ac 0e bd e6 ab 8a bf
       -0.076863565 0.017611736 -0.034832634 -1.0833709

fc2.bias f4 [4]
000000 9d a5 d5 bd 4a d7 8b 3d 05 e2 30 bd 85 1b f3 bc
       -0.10431979 0.068281725 -0.0431843 -0.029676208
