cnn saved models/cnn_epoch19.pt (torch, 609343 bytes, 16 tensors)

conv1.weight f4 [32, 1, 3, 3]
000000 61 1e b4 3e 7c af c9 3e 3b 18 83 be 02 b1 be be
       0.35179427 0.39391696 -0.25604424 -0.3724442
000010 66 7e a3 be d9 71 68 be ff 28 77 3d 9b 55 8e 3c
       -0.31932372 -0.2269968 0.06034183 0.017374804
000020 dc b2 b2 3e 68 89 5a 3f a4 ac 3d be 8c 8d d6 3e
       0.34902084 0.85365915 -0.18522888 0.41904867
000030 88 dd 20 be c5 3d d2 bd 0c d1 81 be 78 99 c1 3c
       -0.15709507 -0.10265688 -0.25354803 0.02363275
000040 28 a7 98 3e 8f d4 fb bd eb 95 dd 3d 34 1a 1a 3d
       0.2981503 -0.12296402 0.1081961 0.037622645
000050 d7 ab ca 3e c2 d7 8f be 9c 2c 0c bf 44 17 bc 3d
       0.39584228 -0.28094298 -0.5475557 0.09184125
000060 ee 8a 84 3e 51 78 97 3e 05 c6 c4 be 89 f0 90 bd
       0.25887245 0.29583982 -0.38432327 -0.070771284
000070 51 ff d8 3e 24 44 89 3e 94 4d 5e 3d ba f3 80 be
       0.4238229 0.268098 0.054273203 -0.2518595
000080 22 30 06 bf bd 43 04 be 5c 6a 93 3e 74 f4 0a be
       -0.52417195 -0.12916465 0.28792083 -0.13569814
000090 1a 9d e3 bd 98 9e 4e be 21 3f 75 3e 81 d1 a6 be
       -0.11113949 -0.20177686 0.23949863 -0.32581714
0000a0 cb 29 81 3e 9c d5 21 3e 3f 6a b5 3e 57 81 e0 3d
       0.25227198 0.15804142 0.35432622 0.109621696
0000b0 50 eb a8 be 3e e8 22 3e 50 48 b4 be df f0 02 bf
       -0.3299203 0.15908906 -0.3521142 -0.5114879
0000c0 1b bb 32 3e e8 9b a6 3e d9 3c 38 bd c7 a6 a5 be
       0.17454188 0.32540822 -0.044979904 -0.32353804
0000d0 31 42 ae bd 90 ce 17 bf 10 93 15 3e 86 8e 89 be
       -0.08508719 -0.59299564 0.14606881 -0.2686655
0000e0 3f ff 91 be de a1 11 3e 90 ab 9a 3e dc 9d db 3e
       -0.2851505 0.14221904 0.30209017 0.42893875
0000f0 d6 1d e7 be 1b 7a 26 3d 4e ed 9e bd 14 d3 cf 3e
       -0.4513995 0.040643793 -0.07760106 0.40590727
000100 35 10 a6 be dd d3 b5 be 45 da a4 3e 39 23 0c be
       -0.3243424 -0.355132 0.32197776 -0.13685311
000110 de 2e bf be 37 c3 82 3e bc 5f 02 bd be d0 3e 3e
       -0.37340444 0.25539562 -0.03182958 0.18634316
000120 06 5d d3 3d 22 dc 13 be b3 16 4a bf 07 75 cd bc
       0.10320477 -0.14439443 -0.78940886 -0.025080217
000130 1f 7e 9d 3c 41 19 8f 3d 3a 64 89 3e 0b 7e 09 3e
       0.019225178 0.06987239 0.2683428 0.13426988
000140 15 f1 40 bc b5 0c 6f 3e b0 72 b3 be d4 a2 01 3f
       -0.011776228 0.23344691 -0.35048437 0.5063908
000150 7e 03 82 be c6 70 e7 bd 32 81 05 bf 93 84 6c 3e
       -0.2539329 -0.11300807 -0.5215026 0.23097448
000160 42 e8 32 3e 50 db c8 bd 02 76 42 bc 8a c1 81 be
       0.17471412 -0.098074555 -0.011868956 -0.2534297
000170 c1 ad 9b bd 7c 93 8e be 52 61 d0 3d b7 69 f6 be
       -0.076015 -0.27846897 0.101748124 -0.4812753
000180 60 50 a4 3e 95 14 cc 3e ca 79 d4 bc 1d 5d 46 be
       0.3209257 0.39859453 -0.02593698 -0.19371457
000190 b7 58 71 3e 90 56 11 be 23 0d f6 3d c2 1b 87 3e
       0.23568998 -0.14193177 0.120142244 0.26388365
0001a0 36 14 41 be 4b 27 07 3f d4 72 63 be a7 3d 86 be
       -0.18855366 0.5279433 -0.22211772 -0.26218912
0001b0 33 df fc 3e 97 55 22 3e 69 b2 d1 3c 95 bd 56 3e
       0.49389037 0.15852962 0.025597768 0.20970757
0001c0 d1 4c 62 be 97 ea 3f be 47 6d 83 be c2 83 d3 bd
       -0.22099616 -0.18741833 -0.2566931 -0.10327865
0001d0 af d7 8e be c0 84 f2 be 83 91 cd bc 41 ee da be
       -0.2789893 -0.47366905 -0.0250938 -0.42759898
0001e0 4c bb 7d be 3e 27 19 3e b2 eb 32 3d 27 55 63 3c
       -0.2477848 0.14956376 0.043681808 0.013875282
0001f0 d9 41 34 3e f7 ac c7 3e 26 46 d7 3e 27 a1 c7 be
       0.17603244 0.3899915 0.42045707 -0.38990137
000200 6c db 92 bd 53 59 8b 3e e1 6f 3c 3e 7d 51 fb be
       -0.07170758 0.27216586 0.18402053 -0.49085608
000210 cc 39 bd 3e b7 2c 96 3d 26 27 d4 be 84 cd 02 3d
       0.36958158 0.073327474 -0.41436118 0.031934276
000220 78 19 4f bd c2 ed 17 bf 39 67 07 3e ad 01 bf be
       -0.0505614 -0.59347165 0.1322297 -0.37305966
000230 36 98 da bd 4e 25 0f 3f 9e 2b 06 3e 8c 25 0b be
       -0.10673563 0.559163 0.13102576 -0.13588542
000240 90 3f a1 3e 9d 48 29 3e 5c 2f d1 be fd ff f2 bd
       0.31493807 0.16531606 -0.40856445 -0.11865232
000250 bb 2f 37 be fd a4 dc 3e 0b ec f4 be fc 09 d8 3e
       -0.17889301 0.43094626 -0.47836336 0.42195117
000260 4c bc 92 bd e4 01 69 be d2 34 45 bc 84 b0 10 3e
       -0.07164821 -0.22754627 -0.012036519 0.14129835
000270 b3 d9 a7 3d 27 82 0b bf f2 5f c5 be 58 50 7e 3e
       0.0819582 -0.5449547 -0.38549763 0.24835336
000280 aa 28 cb 3e 2e 7c ab 3e 86 6a 54 3e c8 ea f7 3e
       0.39679462 0.3349318 0.2074376 0.4842131
000290 b0 8e 00 3e 91 71 7e 3e a8 9b 5c be 45 69 fc bd
       0.12554431 0.2484801 -0.21543753 -0.12324766
0002a0 0d 28 87 bd be 04 c3 be da 79 89 bb 8a 7d cc 3e
       -0.06599436 -0.38089556 -0.004195434 0.3993953
0002b0 66 4c 73 3e 3a a4 03 3d 03 95 1f bf e9 f6 f0 be
       0.23759612 0.03213904 -0.6233675 -0.47063377
0002c0 ff a0 69 3d 2e c6 2f 3e 24 2d 0a 3e 63 3c 77 3e
       0.057038303 0.17165443 0.13493782 0.2414413
0002d0 ac a6 db 3c 4d a2 01 bf d1 6c db 3e a7 f0 b5 be
       0.026812874 -0.50638276 0.42856458 -0.35535166
0002e0 54 7c 1b be 1d 38 7a 3e 99 56 19 be e0 95 c6 bc
       -0.15184146 0.24435468 -0.1497444 -0.024241388
0002f0 15 83 66 3e 5e 1a ba be 04 15 a9 3e 81 1b dc 3e
       0.22510941 -0.36348242 0.33023846 0.42989734
000300 72 47 1b 3e 17 d6 f5 bd 21 06 3a be f1 9f 3d 3e
       0.15163973 -0.12003725 -0.181664 0.18518044
000310 7a 9b 8f bd 1d 48 ea be c5 e1 1f 3e 32 39 57 be
       -0.07012077 -0.45758143 0.15613468 -0.21017912
000320 ca b7 6a be 4a 4f de 3e e6 e9 a6 bd 8b 13 22 be
       -0.22921672 0.43419868 -0.08150081 -0.15827768
000330 1d 2e 01 bf 0c 59 9a 3e 6e 2b ac 3e ac b8 49 be
       -0.5046099 0.30146062 0.33626884 -0.19699353
000340 07 e4 8d bc d7 b1 ae 3d 02 4a 62 bd d0 fc 7b be
       -0.017320646 0.08530014 -0.05524636 -0.24608159
000350 91 99 b1 3e de ed cf be b3 24 63 bc 54 2e 01 3f
       0.34687474 -0.40611166 -0.01386373 0.50461316
000360 ca 4d b7 be 6b 2b c0 bd 83 12 ae 3e a4 56 02 bf
       -0.35801536 -0.09383281 0.33998498 -0.50913453
000370 82 a2 c1 bd 06 2d 8d 3e 4f 5b 21 3d 07 b4 b6 3e
       -0.09454824 0.27573413 0.03939372 0.35684225
000380 ac 85 c0 3c 32 fb 5e 3e 7b dc 90 be b6 7a 7e 3d
       0.02350124 0.21775511 -0.28293213 0.062128745
000390 0a 45 99 3e 2d 38 2b bf 61 29 bb 3e e2 04 2f 3e
       0.29935485 -0.6688259 0.36555007 0.17091706
0003a0 47 a4 ce be 13 d2 74 3e 6e 59 0d 3e 4a 74 0a bf
       -0.4035971 0.23908262 0.13803646 -0.54083693
0003b0 3c b4 a1 be c8 c1 66 3e 1b ba da be c7 8f 43 be
       -0.3158282 0.22534859 -0.42720112 -0.19097815
0003c0 80 37 01 be f3 a1 d6 3e 78 81 22 3e a3 33 0d bf
       -0.12618828 0.41920432 0.15869701 -0.55156916
0003d0 a1 c3 cb be 30 6f 45 3e 3d 49 e1 3d f6 3e 30 bd
       -0.3979769 0.19280696 0.11000297 -0.043028794
0003e0 2a 82 cb bd 17 e2 4b 3e 94 47 0d be 8f a7 b1 3e
       -0.09936936 0.19910465 -0.13796836 0.3469815
0003f0 22 71 9c be 4f dd 8c 3e ef bd 02 3f 37 db c3 be
       -0.30555063 0.27512595 0.51071066 -0.38253185

conv1.bias f4 [32]
000000 56 0b 88 3e 7d e3 89 3e ba 73 f6 3c 10 93 a9 be
       0.2657115 0.26931372 0.03008448 -0.33120012
000010 f1 fe 0d 3f 4b 31 ec 3e ca 67 66 3d 3e f3 72 3d
       0.55467135 0.46131358 0.056251325 0.059314005
000020 f2 76 be 3e 33 47 5d 3e 9c c6 50 3e 5c ad 40 3f
       0.37200123 0.21609192 0.20388263 0.75264525
000030 86 86 07 3f b4 7c 98 3e b5 5f 46 be 75 a2 ab bd
       0.5293964 0.2978264 -0.19372447 -0.083805956
000040 eb 6c 2d bc 06 de f8 3e b5 1d 5b bf d4 5d ac 3e
       -0.01058505 0.4860689 -0.85592204 0.33665335
000050 bb 24 ed 3d ef f1 94 bd 4e 09 d3 3e 2e 0f 1b be
       0.115792714 -0.07272708 0.41218036 -0.1514251
000060 e2 75 1d 3f 0d d1 93 be 2b ff cd 3c 19 71 c5 bc
       0.61508 -0.2887043 0.025146088 -0.02410178
000070 e0 b5 fa 3d e2 ca 80 bc ac 2b c6 be 7b cd 88 3d
       0.12241721 -0.015721742 -0.38705194 0.06679817

BN1.weight f4 [32]
000000 cd 06 ae 3f 94 b7 cf 3e ad 26 94 3f 8f 63 5e 3f
       1.3595825 0.40569746 1.1574303 0.86870664
000010 56 7e 64 3f 67 15 41 3f 2f c3 87 3f ae e3 2e 3f
       0.89255273 0.7542328 1.060644 0.6831616
000020 56 94 79 3f d8 10 b0 3f 0f c6 65 3f b8 50 d3 3e
       0.9749197 1.375514 0.8975534 0.4127252
000030 1d 99 70 3f 19 a5 5d 3f c2 78 28 3f db 6a 85 3f
       0.9398363 0.86580044 0.6580926 1.0423235
000040 2a 28 5c 3f 26 ac cd 3e 05 a7 33 3f cc 7c 51 3f
       0.85998785 0.401704 0.70176727 0.8183105
000050 33 13 81 3f e7 ad 6e 3f 12 d4 87 3f 9e df fa 3e
       1.0083984 0.93234104 1.0611594 0.4899873
000060 2f 75 0f 3f 5d 2b 9f 3f 7c fa 9d 3f a9 00 44 3f
       0.5603818 1.2435108 1.2342067 0.7656351
000070 0a 2c 7b 3f 70 a9 33 3f d8 c7 61 3f dd b9 65 3f
       0.98114073 0.70180416 0.8819556 0.8973673

BN1.bias f4 [32]
000000 01 3d da be b6 e9 2c be 27 23 65 be c6 54 b4 bd
       -0.42624667 -0.16886029 -0.22376691 -0.08805232
000010 3d f9 8c bf 1f 32 b0 be 30 f2 02 be 9c 12 c2 bd
       -1.1013561 -0.3441324 -0.127877 -0.09476206
000020 55 d3 10 bf 86 77 3f bf 81 9b df be d7 2c 23 be
       -0.5657247 -0.74791753 -0.43673328 -0.15935074
000030 d0 aa 84 3c 3b 05 d7 be 1e fd d4 bd a2 2d 4d bf
       0.016194731 -0.41996178 -0.10399841 -0.80147755
000040 29 0a 60 bf 5d 72 b1 bd 20 39 26 bf 55 01 1b bf
       -0.87515503 -0.08664391 -0.64930916 -0.6054891
000050 0a 4d 0e bf 01 6e 03 bf 73 95 9d bf f8 4b 03 bd
       -0.555863 -0.5133973 -1.2311233 -0.03205487
000060 00 84 b2 bd 85 5d be be bc 15 5b bf 42 7e 9f bd
       -0.08716583 -0.37180725 -0.8558004 -0.07787754
000070 64 16 2f bd bc e3 1f bd 5e 94 33 bf 51 0a 1a be
       -0.042745963 -0.039035544 -0.70148265 -0.15042998

BN1.running_mean f4 [32]
000000 d8 72 86 3e cc e2 d1 3e 23 11 b4 3c 2b 1b b1 be
       0.26259494 0.40993345 0.021980828 -0.3459104
000010 4a d9 14 3f b9 6c 70 3e d1 72 65 3d 7e 33 44 3d
       0.58144057 0.23478974 0.0560177 0.04790067
000020 8d 64 9b 3e e1 c6 35 3e d6 79 15 3e 15 b7 47 3f
       0.30350152 0.17751648 0.14597258 0.78013736
000030 5a 49 00 3f b2 40 66 3e d6 4d 4f be 28 9e 23 be
       0.50111926 0.22485617 -0.20244536 -0.159783
000040 92 d0 a9 3b fd 9d f9 3e b4 36 4e bf 18 e1 ba 3e
       0.005182334 0.48753348 -0.8055222 0.36499858
000050 9b d8 83 3d a7 85 b6 bd 90 04 d8 3e bb 41 1c be
       0.064377986 -0.08912211 0.4219098 -0.15259449
000060 72 fa 1b 3f 48 2c 96 be e4 9b ca bd c0 f3 c3 bd
       0.60929024 -0.2933066 -0.09893015 -0.09567976
000070 5f 9b c0 3d 1e 78 93 bd a4 57 c4 be 36 07 3d 3d
       0.09404635 -0.07200645 -0.38348114 0.046149455

BN1.running_var f4 [32]
000000 cd 6e 6a 3b 7a 36 d9 3c 2c c8 64 3b 0d a5 9b 3b
       0.0035771609 0.026515234 0.003490935 0.0047499
000010 f2 3c c7 3a 19 b8 6c 3d 5e 5a 56 3b 6d 85 bf 3b
       0.0015200658 0.057792757 0.0032707672 0.005844763
000020 27 ce 63 3c cf f4 ab 3b 96 6a 38 3c a0 be 1f 3b
       0.013904131 0.0052476893 0.011255881 0.0024375096
000030 ff dd 30 3c e5 9c 92 3c fa dd 98 3b 36 13 85 3c
       0.0107951155 0.017897079 0.0046651335 0.016244512
000040 2b 39 aa 3a be 95 0a 3c c5 c8 3a 3c 8a 22 af 3b
       0.0012987008 0.008458553 0.011400406 0.0053446935
000050 2d 7b ae 3b 46 d1 82 3b 93 d6 f6 3a 2b 8e 3c 3b
       0.0053247423 0.0039922325 0.0018832259 0.0028771262
000060 b4 d1 92 3b e1 e0 12 3b 1a b6 ce 3c 1a f7 53 3c
       0.004480565 0.002241187 0.025233317 0.012937332
000070 83 33 24 3c 03 fc 14 3c e8 4a 63 39 e9 ef 81 3c
       0.010022047 0.009093287 0.00021676312 0.015861468

conv2.weight f4 [64, 32, 3, 3]
000000 e6 3d 29 be 92 12 44 3e 07 1a dc bd 77 3d 0e 3d
       -0.16527519 0.19147709 -0.10747152 0.034726586
000010 53 00 9f 3d c3 9b 73 be a5 dd 76 bd dd d0 a1 3d
       0.07763734 -0.23789887 -0.06026997 0.07901166
000020 2f 11 ce bd 04 6b ab bd 54 78 4b bb 9b 8e 15 3d
       -0.10061871 -0.08370021 -0.0031047063 0.036512952
000030 f7 75 b6 be 27 69 da be 2c a5 ca be 23 89 6b 3e
       -0.35636875 -0.4265835 -0.3957914 0.23001532
000040 3d e9 43 3e 9a 8c 72 3e 2c ff 13 bc 8e 32 4e 3d
       0.19131942 0.23686448 -0.009033006 0.05034118
000050 24 5c 04 3e b7 fd 99 bd b0 ef c1 bc 71 e0 db bb
       0.12925774 -0.075190954 -0.023673862 -0.006710105
000060 a5 87 13 bd 1e fd 96 bd 3e 43 a6 3d d4 9d 8f be
       -0.036018033 -0.07372497 0.08118294 -0.280501
000070 53 aa e0 3c b9 3c 6d 3e 74 ce fe be 8a b0 a4 3c
       0.027424967 0.23167695 -0.49766886 0.020103712
000080 ad 8a 23 be f8 eb 13 bd 5e 76 91 3e bb da e8 3d
       -0.1597087 -0.03611371 0.2841062 0.113698445
000090 60 f7 b4 3e f8 5a 92 be a0 e7 45 be 91 17 ac bd
       0.35344982 -0.2858503 -0.19326639 -0.084029324
0000a0 3b 5a 9c be 68 a4 5b be ed 07 9f bb a2 39 60 be
       -0.3053759 -0.21449435 -0.0048532397 -0.21896985
0000b0 6e 27 3a be 58 e7 94 be e7 0a 7a bd af df 6c be
       -0.18179104 -0.2908275 -0.061045554 -0.23132204
0000c0 8e e1 8f be 9b 57 d8 bd b7 f1 38 be 3f a7 34 3e
       -0.28101772 -0.105635844 -0.18060957 0.17641924
0000d0 8d de 70 3e 87 cc 57 3e 88 95 8b bd 0f 5f f3 bd
       0.23522396 0.21074115 -0.0681563 -0.11883365
0000e0 34 da 5d be d4 da 34 3d 41 19 0e 3e 7c 1b 87 3e
       -0.21665269 0.044154003 0.13876821 0.26388156
0000f0 dd 57 96 be 3f 7c 97 be b5 96 55 be 73 f8 3b bd
       -0.2936391 -0.2958698 -0.20858271 -0.045891237
000100 7d c7 0a 3e 66 0f ff 3d 77 1b 10 be ad 62 68 bd
       0.13552661 0.12454109 -0.14072977 -0.05673473
000110 33 c7 bc be b6 85 4d 3e ee 70 55 3e 50 27 82 3e
       -0.36870727 0.20070538 0.2084386 0.25420618
000120 65 cb a0 be ac 5a e7 bc 33 83 69 be 26 74 5f be
       -0.31405178 -0.028241478 -0.22803955 -0.21821651
000130 a3 3c f0 3d fb 02 8c be f8 8f 6e 3e 34 f3 7a 3e
       0.117303155 -0.27346024 0.23297107 0.24506837
000140 75 a1 19 bc 05 b1 01 bf d4 48 33 bf 6f 22 25 bf
       -0.009376873 -0.50660735 -0.70033 -0.64505666
000150 21 c7 af 3e 70 9b 59 3e 7b 0b 9b 3d 15 75 ac be
       0.3433161 0.21250701 0.07570549 -0.33683077
000160 1d 24 de be e9 1c 0a bf 0f da de 3e 40 23 9f 3e
       -0.43386927 -0.53950363 0.4352574 0.3108158
000170 8f 9b 75 3e 36 f4 d7 bd d9 41 9a bd 2f d0 ab be
       0.23985122 -0.105446264 -0.07532091 -0.3355727
000180 7a b6 95 3d 2e 47 f4 3c 99 a5 c4 bc ec 26 b9 bc
       0.07310195 0.029819097 -0.024004744 -0.022601567
000190 d2 7c be 3d 79 78 52 bd a9 a0 17 be f7 e4 e9 bb
       0.09301151 -0.051384423 -0.1480738 -0.0071378904
0001a0 a9 f7 6a be a6 2a 9d 3e d1 d3 bd 3d 47 9f fb bd
       -0.22946037 0.306966 0.092689164 -0.12286239
0001b0 d5 39 86 3e a9 42 7a 3e a2 5d 45 3c 95 fb f4 3d
       0.26215997 0.24439491 0.01204625 0.11962048
0001c0 4e f6 9c bd 7e 3c 3f bf 57 63 e9 bd d5 ea df 3d
       -0.076641664 -0.7470168 -0.11395901 0.109334625
0001d0 2e 65 46 3e 68 af 2b 3d 6a ba 9b bc 1c 1f 3b be
       0.19374534 0.041915327 -0.019009788 -0.18273586
0001e0 39 18 28 be d3 9b ec 3c 19 fc 8a be b9 fd 69 bd
       -0.1641549 0.028882897 -0.2714546 -0.057126734
0001f0 d1 b6 05 3c ed 4a 32 3d 1e f9 80 bd 59 e1 c1 3c
       0.008161263 0.043528486 -0.06297515 0.023667024
000200 fd 1a 4b bd e7 c3 62 bb 16 57 c2 bb 32 16 f3 be
       -0.049586285 -0.003460163 -0.0059307916 -0.4747787
000210 67 5e 46 bd 29 de 07 3d ba 13 5f be 16 c8 dc be
       -0.048429873 0.033170853 -0.21784869 -0.43121403
000220 30 11 39 be 04 b8 20 bf 2d ff 92 3c 1b c4 39 3d
       -0.18072963 -0.62780786 0.017943943 0.045353036
000230 dd 7f 44 bc eb 81 8e 3e 66 9b 32 3d e1 42 a3 be
       -0.011993376 0.27833495 0.04360523 -0.31886962
000240 cc 27 15 bf a0 b9 9d be 80 21 be be cf bb 60 3e
       -0.5826385 -0.30805683 -0.37134933 0.21946643
000250 8b 9b 6a 3e 68 11 5d 3d 7d 9e 9c bd a7 b6 00 be
       0.22910897 0.053971678 -0.07647417 -0.12569676
000260 1a 7c 57 3e 45 89 e8 3e a7 19 af 3e 36 72 ee 3e
       0.21043435 0.45417228 0.3419926 0.4657151
000270 23 83 a4 bd b1 59 b7 bd 06 5c 3e bc 37 6d e6 3d
       -0.08032825 -0.08952654 -0.01161862 0.112513
000280 74 c0 0b 3e 0d 21 4e 3e 9b 79 cf be d1 0e 8c be
       0.13647634 0.20129795 -0.40522465 -0.27355054
000290 6c 15 67 3d 6d f0 ff 3d 9f e9 91 be a4 7d f9 be
       0.056416914 0.124970295 -0.2849855 -0.4872867
0002a0 e3 cd 4a 3e 57 3e 50 3e 09 83 89 3e 52 f3 c4 be
       0.19805102 0.20336281 0.26857784 -0.3846689
0002b0 ff 7e e9 bd 59 fb d2 bd 9a 67 8a 3c 7a 5a 68 bd
       -0.11401176 -0.10301847 0.016895104 -0.05672691
0002c0 44 e4 55 be 43 ed 73 3e e0 fd 1a 3e 1a 29 aa 3e
       -0.20887858 0.23820977 0.15135908 0.33234483
0002d0 ab c6 d5 3e bb 51 44 3e ee fd 0d bd 29 12 6d be
       0.41753134 0.19171803 -0.034665994 -0.23151459
0002e0 60 c0 97 bd a1 bd b8 be 1d d3 a6 be 2f f3 fb 3c
       -0.074097395 -0.36082175 -0.32582942 0.030755607
0002f0 10 11 fd be 09 0d 7c be 82 9f cd bd a5 ed 6a 3e
       -0.4942708 -0.24614348 -0.10040189 0.22942217
000300 c6 26 ea be 9b 28 ab be ff 58 e5 be 72 cc 08 be
       -0.45732707 -0.33429417 -0.4479446 -0.1335924
000310 fe bb 82 3e fa 0f 5a 3e cd 44 22 be f1 8f 86 3d
       0.25534052 0.21295157 -0.15846558 0.065704234
000320 8c 96 33 3e af cd 7d 3e a5 09 0a 3d 80 ec 45 bd
       0.17537898 0.24785493 0.033700604 -0.048321247
000330 8e a4 f4 bd a5 3f 0c be e3 34 f2 3c f3 28 7d 3e
       -0.11945449 -0.13696153 0.029566234 0.24722652
000340 17 f6 ef 3d e9 a5 7e 3e c9 5f 6c bd ea 51 f8 3b
       0.1171686 0.24867977 -0.057708535 0.0075781243
000350 7b d4 6f bd 0a 9a 8e be 22 5e e5 bc 66 1a 85 be
       -0.058552247 -0.27851897 -0.027998988 -0.25996703
000360 7e e9 4b 3e 69 66 ac bc 03 c1 71 3e 92 15 48 be
       0.19913289 -0.021044927 0.23608784 -0.19539478
000370 f5 05 5b be b1 1e 3f be 00 15 a4 3c 6f 98 0c 3e
       -0.21388991 -0.18664052 0.020029545 0.13730024
000380 2b 94 9d 3e c9 9d 09 3e a2 57 de 3d de c1 80 3d
       0.30777106 0.13439097 0.108565584 0.06286977
000390 19 ca ef 3c 79 84 47 b9 e2 a6 50 3d 61 0c 9f be
       0.029271172 -0.00019027469 0.0509404 -0.31064132
0003a0 34 c2 d4 be e4 5f 1d bf d6 63 80 bf 1a 20 91 bf
       -0.41554415 -0.6147444 -1.0030468 -1.1337922
0003b0 fd 07 9a bf 26 38 0d be 9b eb 00 be b5 63 dc bd
       -1.2033688 -0.1379095 -0.12589876 -0.10761205
0003c0 40 32 8f be 5d 1a d4 be 52 8c da be 92 e6 16 3e
       -0.27968025 -0.41426364 -0.4268518 0.14736393
0003d0 19 81 fe bd 84 f5 e1 be 84 57 82 be 96 25 4f be
       -0.12426967 -0.44132626 -0.25457394 -0.20229182
0003e0 41 eb 01 be e3 8a 50 3e 10 75 8f 3e 43 1e 92 3e
       -0.12687398 0.20365481 0.28019 0.28538713
0003f0 ab 51 81 3e ce d7 40 3e 98 45 23 3f 9e 1b 27 bd
       0.2525762 0.18832323 0.63778067 -0.040797822

conv2.bias f4 [64]
000000 47 4e 16 bd 63 95 0e 3d 65 62 4a 3b e9 8e 1f bd
       -0.036695745 0.034810435 0.0030881402 -0.03895465
000010 cc 8e e5 3d 49 59 a8 bb b8 f8 2d 3d 6f fa 9a 3d
       0.11208877 -0.0051375967 0.042473525 0.07567298
000020 6c a7 0f 3c c6 a8 36 bd ef d5 d9 3d 9d 89 a0 3c
       0.008767944 -0.04459455 0.10636508 0.01959687
000030 8d 91 1f 3d 5c 40 6b be 71 44 9c 3c c8 04 82 3d
       0.038957167 -0.2297377 0.019075604 0.06348568
000040 03 50 ea bb 21 bc d6 bd ad 25 69 bd b7 da 56 3d
       -0.0071506514 -0.104851015 -0.056920696 0.052454676
000050 7f c9 e3 3d a8 45 a3 3c 7e d6 0f be 8b 24 07 be
       0.11122417 0.019930676 -0.14046666 -0.13197534
000060 6c 6f d2 bc a4 bc 89 bd ef c0 33 3d 5a 9a 8f 3b
       -0.025687896 -0.067254335 0.043885168 0.004382414
000070 1e 07 2c 3d a7 b3 aa 3b 90 9f 96 3d 61 2e a2 3d
       0.041998975 0.0052094045 0.07354653 0.07919002
000080 1f 42 e9 3c 07 73 3b bb 7f d4 a4 bc 95 3b da bd
       0.028473912 -0.0028602497 -0.020120857 -0.106558956
000090 26 2b af 3d cd a6 79 bd ea f5 b3 bd 5f 85 a4 bd
       0.08553152 -0.06095009 -0.08787139 -0.08033251
0000a0 3b 7e 27 3d 3b 26 d0 bc 45 fd 0f 3d 43 30 8a 3c
       0.040891867 -0.025408855 0.035153646 0.016868716
0000b0 5e 38 5d bc db 49 f5 bc eb 71 a2 3c 29 73 c6 bd
       -0.0135022085 -0.029942444 0.019829711 -0.09689934
0000c0 07 d4 22 3d e4 49 33 bd 58 32 fa bc 1b 6d 31 3c
       0.039752986 -0.04377164 -0.030541584 0.010829235
0000d0 26 ae 83 3d 12 ab 66 3d 8a b0 d5 3c c9 ed 24 3e
       0.064297006 0.05631549 0.026085157 0.16106333
0000e0 81 59 47 3e 8c f4 05 3d 79 97 47 3d 67 3c 5b bd
       0.19467737 0.03270392 0.04872844 -0.0535244
0000f0 cc 01 86 3d 6e 29 4c bd 0d eb 12 3d 8e a8 6b bd
       0.065433115 -0.049844198 0.035868693 -0.057533793

BN2.weight f4 [64]
000000 ad 76 ae 3f 08 fe 8d 3f 94 93 a1 3f b3 04 a2 3f
       1.3629967 1.1093149 1.2623162 1.2657684
000010 b5 6c 88 3f 7c 70 a8 3f 03 14 5d 3f c7 28 88 3f
       1.0658175 1.3159328 0.8635866 1.0637444
000020 21 38 9e 3f a6 26 a7 3f 0d 50 90 3f 34 68 9a 3f
       1.2360879 1.305867 1.127443 1.206305
000030 3f 67 a7 3f 2e 9d ba 3f 88 b2 92 3f ac e0 8c 3f
       1.3078383 1.4579217 1.1460733 1.1006064
000040 b6 ac af 3f ad ac ac 3f e4 c4 dd 3f 8a 4d 14 40
       1.3724582 1.3490196 1.7325711 2.3172326
000050 ac d8 9b 3f 5f c0 b2 3f 54 3e 0b 40 80 4c a4 3f
       1.2175498 1.3964957 2.1756792 1.2835846
000060 83 1c a8 3f 4f 79 03 40 5a e4 b2 3f 95 66 ae 3f
       1.3133701 2.054279 1.3975937 1.3625056
000070 84 76 ba 3f 8f 44 aa 3f 5e fd b8 3f fb 79 96 3f
       1.4567418 1.3302172 1.4452322 1.1755975
000080 18 45 bb 3f 28 e0 b2 3f 25 3b a1 3f 61 1c a8 3f
       1.4630461 1.3974657 1.2596174 1.313366
000090 04 94 f1 3f f5 b7 88 3f 98 26 4d 3f 21 55 97 3f
       1.8873296 1.0681139 0.80137014 1.1822854
0000a0 7e f7 89 3f 13 aa 79 3f f7 76 97 3f 2e be f8 3f
       1.0778654 0.9752514 1.183318 1.9433038
0000b0 04 2c cf 3f db 80 a8 3f 3a 90 c1 3f d5 92 79 3f
       1.6185308 1.3164324 1.512214 0.9748967
0000c0 4d 48 d2 3f 16 f7 92 3f 4d a4 a4 3f 89 b3 ab 3f
       1.6428314 1.1481655 1.2862641 1.3414165
0000d0 f6 c3 c3 3f 0a 67 6d 3f f9 4d a1 3f 19 b9 95 3f
       1.5294178 0.9273535 1.260192 1.1697112
0000e0 1a c5 8f 3f cd 57 b6 3f 01 c2 95 3f f3 7f 87 3f
       1.1232026 1.4245545 1.169983 1.0585922
0000f0 13 5d c3 3f 4d 0b b9 3f 3e 4f e0 3f e8 e9 a3 3f
       1.5262779 1.4456574 1.7524183 1.2805758

BN2.bias f4 [64]
000000 90 46 23 bf 63 33 1a bf ca 5f 1b bf cf 26 24 bf
       -0.63779545 -0.6023466 -0.6069304 -0.6412172
000010 b0 ec 1b bf 9b 01 2c bf f9 2f d0 be e0 b6 00 bf
       -0.6090803 -0.6718995 -0.406616 -0.50279045
000020 31 a5 1b bf 0d 81 2b bf 71 24 01 bf 4b f7 1e bf
       -0.6079894 -0.6699379 -0.5044623 -0.6209609
000030 b1 07 20 bf bc 50 2b bf 0c e0 07 bf 2f 23 fa be
       -0.62511736 -0.66920066 -0.53076243 -0.48854968
000040 52 4c 15 bf 5b 74 33 bf 7f e9 8d bf ec 3c dd bf
       -0.5831958 -0.7009942 -1.1086882 -1.7284217
000050 4b db 06 bf c7 7c 2f bf 25 80 bc bf 86 48 12 bf
       -0.52678365 -0.6854977 -1.4726607 -0.5714191
000060 a8 f7 1c bf 1e 89 9d bf 87 1d 38 bf dd c5 29 bf
       -0.61315393 -1.230747 -0.71920055 -0.6631754
000070 de 4e 3c bf 0a 68 0b bf 9c f6 36 bf 11 0c 1a bf
       -0.7355784 -0.54455626 -0.71470046 -0.6017466
000080 50 5a 70 bf 75 0a 3a bf 87 bc 0c bf 03 89 1a bf
       -0.93887806 -0.72672206 -0.5497517 -0.60365313
000090 9e cf 86 bf 9a 1a f2 be 82 89 d0 be 74 49 13 bf
       -1.053211 -0.4728592 -0.4072991 -0.57533956
0000a0 4b 45 f2 be 49 29 e0 be aa e3 1d bf cb 85 bc bf
       -0.4731849 -0.43781498 -0.6167551 -1.472833
0000b0 4c af 4b bf a7 51 29 bf 0c 22 53 bf e3 6c f5 be
       -0.79564357 -0.66140217 -0.82473826 -0.47934636
0000c0 7f 37 3c bf ae d9 1f bf 58 5c 23 bf 3e c9 2b bf
       -0.7352218 -0.6244153 -0.6381278 -0.67103946
0000d0 45 17 4b bf 0f ec f9 be 4d ca 19 bf 48 36 28 bf
       -0.7933238 -0.4881291 -0.6007431 -0.65707827
0000e0 ea 42 f7 be b9 e3 33 bf 78 78 0f bf 95 5a f7 be
       -0.4829324 -0.7026935 -0.56043196 -0.48311296
0000f0 52 43 6e bf f6 aa 45 bf 3d 75 8f bf c3 86 0e bf
       -0.9307147 -0.7721399 -1.1207653 -0.5567438

BN2.running_mean f4 [64]
000000 e6 5f 8c bf 76 81 f6 bf 76 49 9c bf 5b b2 ec bf
       -1.0966766 -1.9258258 -1.2209918 -1.849193
000010 c9 e7 08 c0 e4 e0 b6 bf c6 99 ae bf a6 3d ad bf
       -2.139147 -1.4287381 -1.3640678 -1.3534439
000020 91 6d b5 bf ca ca c4 bf 92 1d 0e c0 86 75 d9 bf
       -1.4174062 -1.5374386 -2.2205548 -1.698899
000030 f3 26 e8 bf 10 4a a3 bf 28 42 09 c0 68 90 72 bf
       -1.8136886 -1.2756977 -2.1446629 -0.94751596
000040 c1 57 b3 bf c0 e8 bb bf da ea 48 bf b4 ad 19 bf
       -1.4011155 -1.4680405 -0.78483355 -0.60030675
000050 06 e6 01 c0 d1 78 06 c0 e1 3a 87 bf 51 ff ce bf
       -2.0296645 -2.101124 -1.0564843 -1.6171666
000060 25 71 e9 bf 96 78 3a bf d6 af b9 bf f8 6c c2 bf
       -1.8237654 -0.7284025 -1.4506786 -1.5189505
000070 de 04 99 bf 2d be 9e bf 52 ae c5 bf 27 01 d9 bf
       -1.195461 -1.2401787 -1.5443823 -1.6953477
000080 7f 89 81 bf ed 49 63 bf 4c 8c ec bf 2d 7c f7 bf
       -1.0120085 -0.88784677 -1.8480315 -1.933477
000090 2d 14 39 bf 38 47 48 c0 a0 84 a3 bf 58 9e 8f bf
       -0.7229641 -3.1293468 -1.2774849 -1.1220198
0000a0 79 a3 c8 bf 6f 4e 04 c0 3e e5 a2 bf 50 b0 25 bf
       -1.5674888 -2.0672872 -1.2726209 -0.64722157
0000b0 9e a9 a7 bf be a4 8c bf a4 c1 86 bf b2 57 00 c0
       -1.3098638 -1.0987775 -1.0527844 -2.0053525
0000c0 fb 58 9a bf 05 24 a4 bf 7c 09 0e c0 42 2e de bf
       -1.2058405 -1.2823492 -2.2193289 -1.7357867
0000d0 05 b0 dc bf c0 b0 a9 bf de c8 b9 bf 91 95 20 bf
       -1.7241217 -1.3257065 -1.4514425 -0.6272822
0000e0 63 1d 13 c0 cf 35 c9 bf 71 90 0c c0 90 2d 0c c0
       -2.2986686 -1.5719546 -2.196316 -2.190281
0000f0 60 2e 3b bf c3 b7 9a bf 7b 48 3e bf ec fb ba bf
       -0.7311764 -1.208733 -0.74329346 -1.460813

BN2.running_var f4 [64]
000000 1e 3d 07 41 1a be 6b 41 f3 d1 11 41 5a 1b 2d 41
       8.452421 14.7339115 9.113757 10.819178
000010 78 70 21 41 b0 93 34 41 47 3e 54 41 36 5b 44 41
       10.089958 11.2860565 13.265204 12.272268
000020 40 79 f4 40 38 d3 42 41 3a 0a 92 41 85 fc 4f 41
       7.639801 12.176567 18.254993 12.99915
000030 6e fa 33 41 7c 34 aa 40 68 a8 d6 41 ea 21 72 41
       11.24864 5.318907 26.83223 15.13328
000040 f3 34 79 41 b2 81 ee 40 4a 27 29 40 78 76 26 40
       15.575427 7.453332 2.643023 2.6009808
000050 80 9f 89 41 dc 64 67 41 3a ad 72 40 fc d9 0e 41
       17.20288 14.462124 3.791823 8.928219
000060 e0 3e 68 41 be 3d 6e 40 fd 50 09 41 f4 ac 02 41
       14.51535 3.7225184 8.582273 8.167225
000070 18 9c 4b 41 ed 76 34 41 f5 4e 25 41 a5 47 4a 41
       12.725609 11.279035 10.331777 12.642491
000080 36 4b 81 40 f9 74 91 40 86 6d 49 41 a6 87 46 41
       4.040431 4.545529 12.589239 12.408117
000090 db 7a 6c 40 05 8b b5 41 75 2e 42 41 c7 b7 ed 40
       3.6949985 22.69288 12.136342 7.4286838
0000a0 41 bd 21 41 19 bd 99 41 8f ba cf 40 ca f6 16 40
       10.108705 19.217333 6.4915233 2.3588128
0000b0 0a 1f cd 40 6d 48 d0 40 0e 68 ac 40 2c 42 76 41
       6.410039 6.508841 5.387702 15.391155
0000c0 68 a8 30 41 56 31 15 41 d4 35 1d 41 13 cb 2d 41
       11.041115 9.324545 9.825642 10.862079
0000d0 ea 67 3d 41 e7 b7 84 41 e9 f7 3b 41 7a 63 16 41
       11.83787 16.589796 11.748025 9.399286
0000e0 9d f7 a2 41 5d 48 23 41 04 c6 65 41 26 f7 45 41
       20.370905 10.205167 14.360844 12.372839
0000f0 fd 2e 53 40 5e f2 c0 40 83 a4 31 40 d6 43 7b 41
       3.299743 6.029586 2.775666 15.7040615

fc1.weight f4 [128, 1024]
000000 ef cd b4 ba 3f a6 fb bc f1 b4 4d bc 7b d7 a7 bc
       -0.0013794283 -0.03071892 -0.012555347 -0.020488491
000010 7f bf 4c ba 01 dd 1b bc e0 4b 11 bd 5e aa 00 bc
       -0.00078105176 -0.009513141 -0.03547275 -0.007853119
000020 64 3e f0 bc 6d f1 8e bc 85 d9 16 3c 01 5d c2 3c
       -0.029326625 -0.017449105 0.009207134 0.023725988
000030 f9 a5 b0 3b 4a 35 8f 3c 86 cb 9b 3c 1c 41 11 bd
       0.005390879 0.017481465 0.019017946 -0.035462484
000040 8d 9f 4e bc 30 2b 5c bc 53 92 1b 3c fe 09 83 bc
       -0.012611282 -0.013438031 0.009495336 -0.015995976
000050 ad 0b 31 ba a2 c5 29 bc 3b 82 49 bc f3 50 62 3c
       -0.0006753754 -0.010362061 -0.012299116 0.013813245
000060 ee 9b 63 3c 74 eb 00 bc ad 10 e7 bc 1a e7 8f 3b
       0.013892157 -0.007868636 -0.028206194 0.004391563
000070 d2 97 d7 ba eb 4e e5 bc 8c 8d 9b bc 87 5d 4b 3b
       -0.0016448444 -0.027991733 -0.018988393 0.0031031088
000080 ea 1c 89 3a 5b 74 ba bc 79 4f 7b 3c ed 57 7b bc
       0.0010460888 -0.02276056 0.015338772 -0.015340787
000090 57 ad 47 3c bf 22 a4 bc 90 63 ef bc 26 a7 d2 3a
       0.0121873235 -0.0200361 -0.02922228 0.0016071543
0000a0 e4 cd c9 3c 5d 3f 58 3c 7c 14 ad bc ff d1 f5 bc
       0.02463431 0.013198701 -0.021127932 -0.03000736
0000b0 32 3a 55 bc 13 5b 8b bc 2b b4 c6 3b 47 cc 0c bd
       -0.013014363 -0.017011201 0.006063958 -0.0343745
0000c0 c9 06 88 bc 32 14 2b bc 21 30 74 3c 2b 5d c6 3b
       -0.016604798 -0.010441827 0.014904053 0.006053587
0000d0 10 eb b6 3c ac cd 99 bb c4 bb a0 bc 3a 89 0a 3b
       0.022328883 -0.0046937075 -0.019620784 0.0021138922
0000e0 40 02 25 bb 77 f0 06 bd 47 a0 d6 bc dd 4b ff bc
       -0.0025178343 -0.03294417 -0.026199473 -0.031164104
0000f0 b0 f1 59 bc ec 71 0a bd 79 9c 07 bb 19 79 62 3c
       -0.013302252 -0.03380005 -0.002069263 0.013822817
000100 da 70 21 3c 02 5f bb 3c 54 8c 84 bc ad b3 b2 bc
       0.009853566 0.022872452 -0.016180195 -0.021814192
000110 9d 0b a9 bb 7d 47 f1 bb f2 9f 9f 3c a7 c2 0a bd
       -0.005158855 -0.0073632584 0.019485448 -0.03387704
000120 2e e0 15 bd d3 af f5 bc c5 19 a2 bc 58 8c 28 3c
       -0.036590748 -0.029991066 -0.019787678 0.010287367
000130 7b 58 65 bc 9c 3f a0 3b 71 32 ec bc 85 31 ca 3c
       -0.013998146 0.0048903953 -0.028832646 0.024681816
000140 4b 9d 32 3b 39 0f 3e 3b 71 95 c6 3c 89 d0 09 3c
       0.0027254398 0.0029000773 0.024241181 0.008411535
000150 40 cb 95 3b 44 41 03 bc a8 84 07 3b 27 a2 06 bc
       0.0045713484 -0.008011166 0.0020678435 -0.008217371
000160 25 a8 a9 bb f5 42 df bc 89 6f 93 3c cc 25 2b 3c
       -0.005177515 -0.027253607 0.01799752 0.010446023
000170 94 81 b9 bc 1a f7 95 3c 49 37 ba bc 41 99 17 bc
       -0.022644795 0.018306304 -0.02273144 -0.009252847
000180 f8 e4 86 bc be 44 17 3c ff a6 3c 3b 1a 8c a5 bc
       -0.016466603 0.009232698 0.002878606 -0.020208407
000190 7a 62 92 3b 62 75 c4 3b 7d d4 c0 ba 18 f9 28 3c
       0.0044673057 0.0059954384 -0.0014711764 0.010313295
0001a0 54 c4 2d bc c6 ea 2b 3c 49 60 bf 3c 08 c3 9d bc
       -0.01060589 0.010492986 0.023361342 -0.019258037
0001b0 b4 6e f5 3b d0 47 ec 3b 26 2c b8 bb dc 32 6f bc
       0.0074900035 0.007210709 -0.0056204973 -0.014599528
0001c0 b6 91 17 3c 74 ce 37 3c 64 6f 78 3c 80 c7 3f bc
       0.009251049 0.011218656 0.015163276 -0.011705279
0001d0 07 6e 09 bd 18 28 8b bc 34 dc 0b bd 14 35 c4 3c
       -0.033552196 -0.016986892 -0.03414555 0.02395109
0001e0 f6 d4 10 bd 9b a7 3e 3c f0 3b d3 bc 1d 1f 04 bd
       -0.035359345 0.01163664 -0.025785416 -0.032256234
0001f0 24 14 23 3c e8 d7 f8 bc ba 78 e5 bc 14 f8 9f 3a
       0.009953532 -0.03037639 -0.028011668 0.001220467
000200 46 d1 02 bd 0c c5 9f 3c a6 e5 ac ba 01 df bf bb
       -0.03193786 0.019503139 -0.0013190999 -0.0058554416
000210 f5 d3 b4 3c db e6 aa bc 75 44 be bc 13 60 53 bb
       0.022073725 -0.020862034 -0.023226002 -0.003225331
000220 d1 eb 59 3c 0d 4b cb 39 f2 1d 1a 3c f3 f4 13 bd
       0.013300852 0.00038775094 0.009406554 -0.036122274
000230 02 4d 40 bc b8 5b fa b9 d0 1c 29 3c 46 af ac bc
       -0.01173711 -0.00047752052 0.010321811 -0.02107967
000240 80 14 b4 bc 03 01 e3 ba c0 78 25 bc cd c1 7f bc
       -0.021982431 -0.0017319027 -0.01009959 -0.015610171
000250 a7 cb 95 3c ba 87 a9 bc 57 46 0c 3c f9 9f 96 3c
       0.018285586 -0.020694602 0.008561692 0.018386828
000260 9f ac af bc 6e a0 8e 3c 14 ca c2 3b 89 9b 85 bb
       -0.021444617 0.017410483 0.0059444997 -0.004077379
000270 d5 38 0d bd f6 04 84 3b 0e 6d 9e 3c 20 96 0f bc
       -0.034478027 0.0040289117 0.01933911 -0.00876382
000280 5a 7e 97 3c 96 f2 ce bb 6f 45 59 bc 20 1f 70 bc
       0.018492866 -0.0063155396 -0.013261183 -0.014655858
000290 5d 8d 05 bc f8 33 9b bc 1e ac ae bb 9e 50 d1 bb
       -0.008151379 -0.018945679 -0.0053305766 -0.006387784
0002a0 61 38 03 bd fb ad a8 bc 8a cb ba 3c 07 c1 c0 bb
       -0.03203619 -0.020590773 0.022802133 -0.0058823857
0002b0 1e df c5 bb fe b3 1a 3c 7f 50 93 3c 7a 4a 17 bd
       -0.0060385605 0.009442328 0.01798272 -0.03693626
0002c0 e4 a5 0f bd a0 a2 0b bc 7f 72 8d bc 66 a1 02 bd
       -0.035070315 -0.00852266 -0.01726651 -0.031892203
0002d0 fc 93 f8 bc 7f 30 cc 3b 9d 9a 32 3c 5e 0f 01 bc
       -0.030344002 0.006231367 0.0109011205 -0.007877199
0002e0 7e 32 6e bb 79 6f e5 bc 13 d1 df bc 83 af 07 bd
       -0.0036346014 -0.028007256 -0.027321374 -0.033126365
0002f0 c6 c5 f3 bb 14 14 12 bd 57 c7 d2 bb 3d 1e 87 3c
       -0.007439348 -0.03566368 -0.0064324546 0.01649391
000300 2e a1 90 bc 10 18 04 bd 07 88 c6 bc 5b 57 0f 3c
       -0.017654981 -0.03224951 -0.024234785 0.0087488545
000310 71 c3 c4 bc 44 b4 c0 bc 4a 5c b4 bc 54 46 b1 bc
       -0.024018975 -0.023523457 -0.022016663 -0.02163998
000320 d1 fa 93 3c 36 12 81 bc ae ed bb 3c 0e 73 0e 3c
       0.018063935 -0.015755754 0.022940483 0.008694423
000330 d5 93 2e bc 4d 7e 01 bd 3b 41 8c 3c 23 19 ac 3c
       -0.010655363 -0.03161459 0.017120948 0.02100808
000340 03 1d 22 bc fe 5c 9e 3c 1b 73 3f bc 65 54 08 bd
       -0.009894612 0.019331452 -0.011685158 -0.03328361
000350 6d a9 10 bd ee c5 84 bc ce 76 95 3b 0f d2 7e 3c
       -0.035317827 -0.016207661 0.0045612818 0.015553012
000360 af 22 ab 3c f5 83 be 3c 6f 4d c4 3b a0 6c 02 bd
       0.020890562 0.023256281 0.005990676 -0.031841874
000370 6f 7c b7 3b cf 15 f8 bb 90 69 54 bc 25 eb 9c 3c
       0.0055995504 -0.007570959 -0.012964621 0.019155094
000380 e5 1b db bb 11 97 b4 bc a1 35 b3 3c 71 3f 43 3c
       -0.006686675 -0.02204469 0.021876158 0.011916981
000390 d3 c1 ca ba fe 46 95 3c 51 1c fa bc 14 df d0 bb
       -0.0015469141 0.018222328 -0.03053108 -0.0063742492
0003a0 a8 10 05 bd d9 dd 33 bb f1 7c 3f 3b 53 8e 89 ba
       -0.032486588 -0.0027445464 0.0029218758 -0.0010494686
0003b0 d3 a9 03 bd 67 88 d7 bc 1c 5a 0d bd b0 8e a4 3c
       -0.03214438 -0.026310159 -0.034509763 0.02008757
0003c0 ec f6 9a bc 7f 4f 91 3c 7a 1f fb bc de 63 8f ba
       -0.01891657 0.017738102 -0.030654658 -0.0010939797
0003d0 ab 5c b5 3c ef b7 47 bc 84 fa df bc 40 de 23 bc
       0.022138914 -0.012189849 -0.027341135 -0.010001719
0003e0 f6 4b 92 3b e1 56 41 bc da 4a 36 3b f8 fa 7e bb
       0.0044646217 -0.011800499 0.002781561 -0.0038906913
0003f0 92 a6 fe bc 2d 08 28 bc 57 95 94 bc 20 e9 af 3c
       -0.031085286 -0.0102558555 -0.018137617 0.021473467

fc1.bias f4 [128]
000000 65 16 28 3c ee 4c 95 bd 51 22 5b 3e 99 ed 3a 3e
       0.0102592455 -0.07290064 0.2139981 0.18254699
000010 99 b6 dd 3b c8 16 26 bd 06 23 a7 3a 2f 4c 11 bd
       0.006766152 -0.04054907 0.0012751527 -0.035473045
000020 9c a2 7c bc 15 38 0d 3b f4 90 1d bc 08 db d6 3d
       -0.0154196285 0.002154832 -0.009617079 0.10490996
000030 36 82 5f 3c cb 73 5e bd 0a b5 6e 3d a3 3e d1 3b
       0.013641885 -0.054309648 0.05827812 0.0063856407
000040 a4 12 ce bc 20 d7 93 bc 7e 5e 62 3c b7 7c 12 bd
       -0.025155373 -0.018046916 0.013816474 -0.03576347
000050 af 50 b4 bd dd 82 5f bc 4c c3 a8 3e 0f b0 60 bc
       -0.08804452 -0.01364204 0.329615 -0.013713851
000060 04 ca b2 3c 40 49 49 3e df 8c a5 bc 1b 3b c4 3d
       0.021824844 0.19656849 -0.020208774 0.09581586
000070 2d 16 c1 bc a8 3c 72 bc db 7e c4 bc ae 58 12 bd
       -0.023570145 -0.014784969 -0.02398627 -0.035729103
000080 f8 ec 81 3c 60 0b 8b 3b bb 29 55 bd e3 9d 92 bb
       0.015860066 0.0042432994 -0.05204175 -0.004474388
000090 11 f2 95 3e 5c 90 0d bd ab 99 43 bc 3b 9b ed bc
       0.29286245 -0.0345615 -0.011938493 -0.029004684
0000a0 f3 a6 2b bc 86 e3 55 bc 10 5a 26 3c dc a8 96 3b
       -0.0104768155 -0.013054734 0.0101533085 0.0045977663
0000b0 06 5f 52 3e a9 0d b4 bc c5 c1 67 bc d9 bd af bd
       0.20544061 -0.02197917 -0.014145319 -0.085811324
0000c0 1c 47 07 3c 4e d3 be ba a3 e5 cd bc b0 c4 81 bc
       0.0082567 -0.0014558823 -0.025133913 -0.015840858
0000d0 4c db ea bb 16 ef 19 bd b6 bc 74 3e b9 6a fb bc
       -0.0071672555 -0.037581526 0.23900113 -0.030690538
0000e0 1c f0 09 bd 03 73 16 bc 82 d7 b3 3c 4c 42 22 3e
       -0.03367625 -0.009182694 0.021953348 0.15845603
0000f0 67 3a 04 3e c3 c6 da 3a 54 f8 58 3e e8 13 14 bd
       0.12912904 0.0016691316 0.2118848 -0.036151797
000100 13 61 ef 3a 5d 29 ee 3d 97 22 db 3b ea b4 00 bd
       0.0018263183 0.11628983 0.006687473 -0.031422533
000110 ce 90 c0 3c 06 a6 05 3c a3 b8 93 3c a4 a1 24 3e
       0.023506548 0.008157259 0.018032378 0.16077286
000120 d1 8b 13 bd 49 19 09 bd 14 3b 92 3c 21 53 ab 3c
       -0.03602201 -0.03347138 0.017850436 0.020913662
000130 28 9f 71 bc 29 a2 06 3e ff ab e2 3b 53 31 38 bc
       -0.014747418 0.13147797 0.006917476 -0.011242229
000140 78 d1 21 3e dd d5 03 3e 79 46 cc bc 8f ad 88 3d
       0.15802562 0.12874551 -0.024935948 0.06673729
000150 f9 f7 10 bd 9b 26 21 3c 0f f5 a4 bb cf 6c d4 bc
       -0.035392735 0.009835864 -0.005034096 -0.02593079
000160 4b 34 0a 3c 00 b8 ef bc c4 6e b6 bb 69 f1 01 3e
       0.008435319 -0.029262543 -0.0055674035 0.12689747
000170 52 de 0f bd bb 92 87 bb 56 63 3a 3d 19 0b c1 bc
       -0.03512413 -0.0041373647 0.04550489 -0.023564862
000180 b5 de e0 bc db 78 fa bc b8 c4 d3 3d 50 c1 98 bc
       -0.027449945 -0.030575207 0.103402555 -0.018646866
000190 73 e9 87 3e 88 cd e6 3d 81 ea 0d bd fb 7f 0f bc
       0.26545295 0.11269671 -0.03464747 -0.00875854
0001a0 b2 d6 d2 bc b3 6b 10 bd 1a 14 06 bc df 8e 4e bd
       -0.02573714 -0.03525896 -0.0081835035 -0.05042922
0001b0 85 9d 9f 3e c2 3f 09 be 1f 92 85 3e a5 9d d2 bc
       0.31174865 -0.13403228 0.26088044 -0.025709936
0001c0 81 c2 5f bd d8 7f 02 3c fa 00 8a bd dd 11 87 bc
       -0.054628853 0.007965051 -0.067384675 -0.01648801
0001d0 2c c4 66 3e 30 51 44 3d 85 d2 e9 ba c4 d0 14 bd
       0.22535771 0.04792899 -0.0017839229 -0.036331907
0001e0 cb c9 8b 3e 3e 38 0e 39 60 63 15 bc f1 f8 3c 3e
       0.27302393 0.00013563127 -0.009117931 0.18454339
0001f0 ba 0d 83 3b e6 04 90 bc 11 f3 9c bc f0 2e 71 3e
       0.003999439 -0.01758046 -0.019158872 0.23553061

fc2.weight f4 [4, 128]
000000 3b 8c 5d bd 2e ca e0 bc 03 56 3b 3d f1 67 98 bf
       -0.054088812 -0.027440157 0.045736324 -1.190672
000010 2f c9 73 bd ee ae e3 3c aa f8 05 3d be 2f fa 3b
       -0.059518036 0.027793374 0.032707848 0.007635086
000020 0e 2b 83 3d c7 6d a3 bd 17 c0 83 3c 5e 67 34 3f
       0.064046964 -0.07979923 0.016082807 0.70470226
000030 d5 5e 17 bd fa 63 01 3c 40 1c af 3e 23 ce 15 3d
       -0.036955673 0.007897371 0.3420124 0.03657354
000040 0a a9 b1 3c 8c 9c af 3c 41 d8 7f 3d 91 15 98 3c
       0.02168705 0.021436952 0.062462095 0.018564971
000050 21 05 27 bd 8f 96 7a bd 0e f8 ac bf 8e 7c 47 3d
       -0.040776376 -0.06117874 -1.35132 0.04870277
000060 d5 cc c7 bc e8 07 b3 3e 26 e8 b6 bc 08 ca 2f 3f
       -0.024389664 0.3496697 -0.022327494 0.6866765
000070 99 44 da ba 10 b8 a1 bd 21 74 cb bc 0c 1a 72 3c
       -0.0016652524 -0.07896435 -0.024835648 0.014776718
000080 ca cc 49 3c ad ba c4 3b 42 e1 50 3d 03 f0 e1 bd
       0.012316892 0.006003699 0.050996073 -0.11032107
000090 50 7a 1f 3f 6a d5 e0 bc 7a 58 66 bd 39 7e 24 bd
       0.6229601 -0.027445514 -0.05623672 -0.040159438
0000a0 75 00 89 bd 08 31 34 bc c8 aa 4a 3d 02 84 82 3d
       -0.0668954 -0.010998018 0.049479276 0.06372835
0000b0 81 db 99 bf 76 5b b4 bc 3e c7 9d 3d 24 9e 8a bd
       -1.2020112 -0.022016268 0.07704018 -0.06768444
0000c0 d4 4a 8f bd 14 0a 86 3b bd dc 4d bd 92 e8 91 bd
       -0.06996694 0.004090557 -0.05025934 -0.071244374
0000d0 58 7c ac 3c 3b 73 15 bd 53 75 a5 3f 58 12 b0 bc
       0.021055385 -0.036486845 1.292643 -0.021493122
0000e0 69 42 5e bb 15 a9 30 bc 7c 0f a7 bd e7 0a db 3e
       -0.0033914095 -0.0107825 -0.0815725 0.42781755
0000f0 0c 25 81 3f 10 a1 9e 3c ef 50 a9 bf 44 2a 0c bd
       1.0089431 0.01936391 -1.3227824 -0.034219995
000100 9a a2 22 bc 4b f1 d9 3e e0 07 98 bd 0b f1 0f bd
       -0.009926463 0.42566904 -0.07423377 -0.035141986
000110 41 f5 1a bc e3 6a 7a bd 78 34 e2 bc a8 68 8c bf
       -0.009457887 -0.06113709 -0.02761291 -1.0969439
000120 8c c8 06 3d cb 15 c0 3e 82 48 d0 3e 20 70 21 3e
       0.0329061 0.37516627 0.4068032 0.15765429
000130 48 e8 76 bd 7d dd f5 3e 18 ea 87 3d 63 ad 9b bd
       -0.060280114 0.48020545 0.06636447 -0.0760143
000140 e6 0f 39 bf 38 42 46 be f3 62 2e bd 4d 06 1e 3e
       -0.72289884 -0.19361198 -0.042574834 0.15432091
000150 6c ab 6e bc 7d 7a 88 3c ec fe 53 bd 09 32 c2 3c
       -0.014567237 0.01665997 -0.051756784 0.0237055
000160 d4 1e 4e bd dd b2 a1 3d 59 f9 4b 3d 97 9b 74 3f
       -0.05032237 0.078954436 0.049798343 0.9554991
000170 5f 79 00 bd 72 52 84 bd c8 4c 3e be 26 04 82 bc
       -0.03136575 -0.06461038 -0.18583977 -0.015871119
000180 fe 60 ab bc d8 db 85 bd 09 be af 3d 0e d4 60 3b
       -0.020920273 -0.065360725 0.08581168 0.0034306082
000190 8f 07 5f 3f 07 37 91 3e 3e ea 3c 3c 19 a6 c7 3b
       0.8712091 0.28362295 0.011530457 0.0060927984
0001a0 a7 b5 ca 3c 31 88 fb bc e6 ca a9 bd 18 d6 82 3d
       0.024744822 -0.03070459 -0.08290653 0.063884914
0001b0 6c 79 ec bf 45 34 19 bd c0 ea 55 be e1 90 a1 3b
       -1.8474555 -0.037403364 -0.20890331 0.004930601
0001c0 55 16 13 3e 28 7c f5 bc 7f 9d 92 bf 82 32 40 bd
       0.14363988 -0.029966429 -1.1454314 -0.046923168
0001d0 32 7e 39 3f ee ba 2c 3f 4a 64 09 3d 09 85 7d bc
       0.72458184 0.6747273 0.03354291 -0.015473613
0001e0 d0 3c 84 3e f3 fd e7 bd 46 cc 97 bd ad 6c a7 3f
       0.25827646 -0.11327734 -0.07412009 1.308004
0001f0 bb 7b 9b bd 53 6e 07 bd f6 4c 49 bd 68 80 bf bf
       -0.07591959 -0.033064198 -0.04914566 -1.4961061
000200 aa 0c 87 bd 5e 1f ca 3c af 90 5f 3f 94 91 3c 3f
       -0.06594212 0.02467316 0.87330145 0.73659635
000210 9c 2a d4 bc 63 db 47 bd 05 43 35 bd 66 57 58 bd
       -0.025899224 -0.048793208 -0.044253368 -0.052817725
000220 21 fd d1 3c bd 42 8a b9 75 0a ca 3c f8 76 b1 bf
       0.025633397 -0.00026371135 0.02466319 -1.3864431
000230 91 88 17 3d e0 39 3d bd ae cb 8e bf c5 fa 7d 3d
       0.036995474 -0.046197772 -1.1155908 0.06200673
000240 2a d2 2d bd 8c ef 92 3c d3 37 c3 3e 94 fc e6 3c
       -0.042436756 0.01793649 0.38128528 0.02819661
000250 b8 1d 1f 3c df d5 a2 3c c8 44 04 bf 63 f1 8d 3c
       0.009711675 0.019877372 -0.5166745 0.017327016
000260 00 31 87 3b bf 84 70 3f 34 b2 ac 3c 37 47 05 c0
       0.0041257143 0.93952554 0.021081068 -2.0824716
000270 b7 af f9 bc f7 f8 98 3d 2c ad 7f 3c 4f 3f 0a 3c
       -0.030479295 0.07469361 0.015605252 0.0084379455
000280 cd bd 95 bd 00 48 5d 3c a2 82 1e 3d 5d 1c c2 bc
       -0.07311592 0.013505936 0.0386988 -0.023695165
000290 f5 d3 3f be 15 1c c5 3c b0 22 79 bd 68 c6 6d bd
       -0.18733199 0.024061242 -0.060824096 -0.058050543
0002a0 e7 af 83 3c dd 8d fb bc 32 88 45 3d 5a cc 29 bd
       0.016075088 -0.030707294 0.04822559 -0.04145465
0002b0 0b 93 22 3f 14 e9 7a 3a f1 e2 0c bd df d6 a5 bd
       0.6350562 0.00095714745 -0.034396116 -0.08097624
0002c0 29 2d 8f 3d ef 25 5b 3d 33 a3 6d bd 42 62 88 bd
       0.069910355 0.053502973 -0.058016967 -0.06659366
0002d0 89 96 98 3c 9e c2 d1 bb e7 91 19 3e 07 e8 1a bd
       0.018626468 -0.006401374 0.14997064 -0.037818935
0002e0 51 89 b8 3c ff b2 97 3c a0 0e 8f 3d e7 b0 9c bf
       0.022526415 0.01851797 0.06985211 -1.2241486
0002f0 dc 28 16 be 93 3e 43 3d dd 2c 85 3e aa e8 95 bc
       -0.14664024 0.047667097 0.2601079 -0.01829942
000300 48 fe 57 3d 2e 94 db bf c1 8c 5b bd 27 2b 70 bd
       0.052732736 -1.7154596 -0.05360103 -0.058634903
000310 31 89 64 ba 6e c7 56 3d 63 bc f9 bb 9a 53 a8 3e
       -0.0008717953 0.052436285 -0.0076213344 0.32876283
000320 6c 13 1a 3d 61 8d 28 bf 1b f5 20 be dc ac b3 bf
       0.03761618 -0.6584073 -0.157185 -1.4037127
000330 7d 4c 89 3c 94 eb 89 be 9b c4 84 3c 55 da 6d 3d
       0.016760105 -0.26937544 0.01620703 0.058069546
000340 70 1c 7f bf 8a 8d d7 bf 86 7c 2b bd 38 31 7e bf
       -0.9965277 -1.6840069 -0.0418668 -0.9929385
000350 fc 39 82 3d 89 e3 79 bd 53 94 1f 3d af 88 87 bc
       0.06358716 -0.06100801 0.038959812 -0.016544668
000360 f8 cc 22 bd 44 9b 0f 3d e4 0f 9f bd 52 eb 89 bf
       -0.039746255 0.035060182 -0.07766703 -1.0774939
000370 4b 54 22 bd f5 c0 d6 3c 99 ae 61 3f 8a 3a 8c 3c
       -0.03963117 0.026215056 0.8815704 0.017117757
000380 c3 05 a8 3d 7a 34 74 3d 4b de 3a 3f b4 b1 54 3d
       0.08204224 0.059620358 0.7299544 0.051927283
000390 e8 41 63 3d b5 38 15 3f 69 86 d3 bc 7c f5 81 ba
       0.055482775 0.58289653 -0.025820928 -0.0009915079
0003a0 78 0d 2a 3b 24 ee 84 3d 31 52 66 3d 34 d8 04 bc
       0.002594797 0.06490734 0.056230728 -0.0081081875
0003b0 65 76 a2 3e 8c d3 30 3b 09 df 17 3f a8 0f a0 3b
       0.31730953 0.002698156 0.593247 0.004884679
0003c0 ed 4c 29 3d 25 5b f5 3a 14 74 82 3f 23 9f ea 3c
       0.041333128 0.001871918 1.0191674 0.028640335
0003d0 92 13 3a bd 56 b4 6e bf e4 b9 07 3d 92 a9 74 bd
       -0.04542882 -0.9324392 0.033136263 -0.059732027
0003e0 17 b3 05 3c 5d af 87 bd 09 98 0c bd 1e 0d 97 bf
       0.008160374 -0.06625245 -0.03432468 -1.1800878
0003f0 04 fb 9a bd 7d 46 90 3c aa ac 0e bd cc 9b 5d bf
       -0.07567409 0.017611736 -0.034832634 -0.8656585

fc2.bias f4 [4]
000000 26 ef 95 bd 4e bf 90 3d 22 c0 ce bd 20 90 35 bb
       -0.073210046 0.070677385 -0.1009524 -0.0027704313
