cnn saved models/cnn_epoch20.pt (torch, 609343 bytes, 16 tensors)

conv1.weight f4 [32, 1, 3, 3]
00000000: 3bb1 b13e 6689 cb3e 1cf0 88be 5cae c1be
00000010: d012 a9be f74b 74be 081f 843d b710 9d3c
00000020: 4c08 b33e f437 5a3f 4491 47be 6c67 c33e
00000030: 9aaf 32be 6a3a e5bd 1b2b 8fbe fb65 043d
00000040: 3e7e a23e c11f e4bd 4ac6 c33d 35d7 103d
00000050: eda8 cb3e f82b 91be 292e 0ebf d4dd cc3d
00000060: ebd8 8a3e e178 9c3e f993 c3be f20c 7bbd
00000070: 58ea dd3e 3426 863e 0f40 773d 707b 80be
00000080: 24bb 0abf 3a25 debd fca5 993e c2bf 06be
00000090: 6955 fbbd 4855 5abe 0c97 6e3e 8e93 a8be
000000a0: b01e 7c3e e79e 1c3e 2974 bf3e 6ef4 e43d
000000b0: f28b aabe fcf3 253e 2e10 c9be 304c 0cbf
000000c0: 8700 2a3e 2a01 933e 1115 94bd e250 a0be
000000d0: f631 dcbd 9d3e 18bf a48c 0e3e 559a 8dbe
000000e0: eafe 95be f4a3 0e3e abeb 9f3e b14d d93e
000000f0: 2648 ecbe 7fe3 6d3d 04bb a4bd df6e d13e
00000100: 350a acbe 08bc b9be cb1f a83e 632a 11be
00000110: 794d c1be d35c 843e 036a f3bc 72a3 3e3e
00000120: fc30 cc3d 1d74 14be 088b 4ebf 7bd6 17bd
00000130: 399d bb3c bca4 913d de76 893e 7c41 0c3e
00000140: 310c 8cbc 37a2 813e 4754 b1be 13ed 053f
00000150: 8e2e 78be 3364 01be 6fe4 07bf 682a 593e
00000160: d03d 2b3e f760 ccbd eb34 c9bc 13e6 83be
00000170: 66f9 93bd 86c3 96be 43e4 da3d de41 f2be
00000180: c32e a73e 7f05 d53e dbe4 7ebc 455c 49be
00000190: 9dfe 653e 6b50 05be b5b2 ef3d 0f18 803e
000001a0: eaeb 49be 5f6e 0c3f 1f23 76be 51d2 8cbe
000001b0: 3a05 023f 7f35 243e 400e 013d f71e 5a3e
000001c0: 5186 67be 8366 3dbe 9da5 88be 57c5 e6bd
000001d0: 6d49 8bbe ec6a f9be be8d 07bd c543 e2be
000001e0: 129d 82be dad3 1a3e 99eb 0a3d 85c8 033c
000001f0: bfcc 353e 1bb1 c63e 5cec db3e 8fa9 cbbe
00000200: 00e5 8ebd 9f06 903e 095e 3f3e 5f67 f9be
00000210: fe7d be3e 11ac 993d 44e3 d5be 957e e23c
00000220: 1f9c 8dbd 5788 19bf 7584 fe3d 48c7 c5be
00000230: 285d d6bd 0ee6 103f 6ccb 053e 3642 05be
00000240: cfff a63e e5df 283e abbb d4be ba32 f8bd
00000250: 437f 3cbe 0edc de3e fa55 f4be feb9 da3e
00000260: f493 84bd 16d9 6cbe dacd 6abc 0881 073e
00000270: e762 a83d 5f15 0fbf d89c ccbe 9bb8 813e
00000280: 3dc1 ca3e 2ae8 a43e b6b4 6d3e 842b 003f
00000290: e370 063e 3ca4 803e c117 62be 59c7 07be
000002a0: 6506 71bd 5220 bfbe c0b1 653b eed6 d63e
000002b0: 926b 803e 3170 3e3d a22a 1ebf 0e37 f0be
000002c0: 846e 933d 80cb 223e e66f 0d3e 4e45 843e
000002d0: 376f 303d fe5d 02bf 00f8 e23e 79c0 b6be
000002e0: 56fa 25be 1c6b 7c3e 431d 06be 926c 71bc
000002f0: b7b3 713e f7b7 bcbe 2296 ad3e 0b2b e73e
00000300: fd0f 1c3e 3c48 fcbd 9f52 31be d1b8 493e
00000310: 3fa7 66bd 7192 e5be eddb 173e 7e05 64be
00000320: 2624 68be 3ad8 da3e f068 a6bd f7ad 26be
00000330: 3136 01bf 89f7 a23e e909 b53e f8bd 48be
00000340: f242 6fbc 4aca b73d dcca 4dbd e063 7ebe
00000350: 2e0a b23e e96d d1be b5f6 28bc cbc3 043f
00000360: 887b b4be 88c6 b2bd d5da b33e c3c6 01bf
00000370: d292 b7bd b587 913e 8706 743d a249 c13e
00000380: 057c 213d b62d 5f3e af71 8ebe ad74 993d
00000390: 06fd 953e 18cd 2fbf 0c1a bd3e 458f 2f3e
000003a0: 9ea6 d1be 5107 6e3e 3d3f 143e facb 09bf
000003b0: d5c7 9cbe 30a5 593e 2217 dfbe e39c 4cbe
000003c0: 3d22 03be e7f3 db3e e7e9 2c3e 7aa0 0ebf
000003d0: c79d cdbe c7d5 4a3e 44a4 ff3d 2e40 2abd
000003e0: 2784 cabd 4384 523e e42a 0fbe f213 b33e
000003f0: ba6f 9ebe 116e 8c3e 6bdf 023f ee17 c8be
0.3470553 0.39753264 -0.2674569 -0.37828338 -0.33022165 -0.23857103 0.06451231 0.01917301
0.34967268 0.8524163 -0.19489008 0.38164842 -0.17449799 -0.11192782 -0.27962574 0.03232382
0.3173694 -0.11138869 0.09559305 0.035361487 0.39777318 -0.28353858 -0.55539185 0.10003248
0.2711862 0.30560973 -0.38198832 -0.061291642 0.43342853 0.26201022 0.060363825 -0.25094175
-0.54191804 -0.10846944 0.3000945 -0.13159087 -0.1227215 -0.21321595 0.23299807 -0.32925075
0.24621081 0.15294991 0.3739331 0.11179434 -0.33309895 0.16206354 -0.39270157 -0.5480375
0.16601764 0.28711826 -0.072305806 -0.3131171 -0.10751717 -0.5947054 0.13920838 -0.27656808
-0.29296046 0.1392973 0.31234488 0.42442086 -0.46148795 0.058078285 -0.08043483 0.409049
-0.33601537 -0.3627627 0.32836756 -0.14176326 -0.3775442 0.2585207 -0.029713636 0.18617037
0.099702805 -0.14497419 -0.80680895 -0.03706978 0.022902118 0.07111499 0.268485 0.13696855
-0.017095657 0.25319073 -0.3463461 0.5231487 -0.24236509 -0.12635879 -0.53082937 0.21207583
0.16722798 -0.09979432 -0.024561366 -0.2576147 -0.07225303 -0.29446048 0.10688069 -0.47315878
0.32652864 0.41605756 -0.015557493 -0.19664104 0.22460409 -0.13018958 0.117040075 0.25018355
-0.197189 0.5485591 -0.24036835 -0.2750421 0.50789225 0.16036032 0.03150773 0.21300875
-0.22609831 -0.18496136 -0.26688853 -0.11268108 -0.27204457 -0.48714387 -0.03309416 -0.4419233
-0.2551046 0.15119877 0.03391609 0.008043413 0.17753886 0.38806996 0.42953765 -0.397778
-0.06977272 0.28130051 0.18688215 -0.48711678 0.372055 0.07503522 -0.41774952 0.02764825
-0.06914543 -0.59973663 0.12427608 -0.38628602 -0.10466987 0.56601036 0.1306588 -0.13013539
0.3261704 0.16491659 -0.4154943 -0.1211905 -0.18407921 0.43527263 -0.47721845 0.42720026
-0.06473532 -0.23129687 -0.014331305 0.13232815 0.08221989 -0.55891985 -0.39963412 0.25336155
0.39600554 0.32208377 0.23213467 0.500664 0.13129 0.251253 -0.22079374 -0.13259639
-0.05884399 -0.37329346 0.0035048574 0.41960853 0.2508207 0.046493713 -0.617838 -0.46917003
0.071988136 0.15897942 0.13812217 0.25834125 0.043074813 -0.5092467 0.44329834 -0.3569372
-0.16208777 0.24650234 -0.130971 -0.014735358 0.23603712 -0.36859104 0.33903605 0.45150027
0.15240474 -0.12318465 -0.17316674 0.19699408 -0.056311842 -0.44838288 0.14829989 -0.2226772
-0.2267004 0.42743093 -0.08125484 -0.162773 -0.50473315 0.3182948 0.35359123 -0.19603717
-0.014603363 0.089741305 -0.05024229 -0.24842787 0.3477339 -0.40904167 -0.010312726 0.51861256
-0.35250497 -0.08729273 0.35127893 -0.5069391 -0.089635506 0.2842385 0.059576537 0.3775149
0.039424915 0.21794781 -0.2782111 0.07492957 0.29294604 -0.68672323 0.36933935 0.17144497
-0.4094743 0.23244978 0.14477248 -0.5382687 -0.3062121 0.2125442 -0.43572336 -0.19981723
-0.1280603 0.4295952 0.16886102 -0.5571362 -0.40159437 0.19808112 0.12482503 -0.041565113
-0.09888487 0.20558266 -0.13981205 0.34976155 -0.30944616 0.27427724 0.5112216 -0.39080757

conv1.bias f4 [32]
00000000: 6f8b d03e fc35 923e 4b0a a73c 0f40 b6be
00000010: 3b2b 133f dce7 cc3e e5f9 293c 9dd0 d23d
00000020: e014 d23e d178 293e 473e 7d3e d44a 333f
00000030: 7ada fb3e 15d5 853e 2b06 fcbd 4857 c1bd
00000040: 84ae fcbc eed0 043f a171 5cbf 88e0 913e
00000050: a65a 8d3d af63 47bd 9a28 d43e c40b 2abe
00000060: 50cb 203f dd54 4fbe dda9 823b b45d 0f3d
00000070: b8e8 9b3d 248b 48bd 2a78 b8be 818d 2e3d
0.4073138 0.28556812 0.02039065 -0.35595748 0.5748784 0.40020645 0.010374521 0.10293696
0.4103155 0.16549994 0.24730788 0.70036054 0.49190122 0.2613913 -0.12305864 -0.09440476
-0.030844934 0.518813 -0.86110884 0.28491616 0.069020554 -0.04867905 0.41437227 -0.1660605
0.6281023 -0.20247217 0.0039875344 0.03500147 0.07612747 -0.04896082 -0.36029178 0.042615417

BN1.weight f4 [32]
00000000: 061c af3f e9a1 d43e 2852 963f 5d07 5f3f
00000010: 020a 663f 853c 413f 95b1 863f b2c6 2d3f
00000020: 3ec4 793f 99d3 b33f 16c3 633f 08f6 d33e
00000030: a33c 743f fae1 583f 0020 283f 6f0e 873f
00000040: 2fb4 5c3f a49b d93e 0c2c 393f 10ad 523f
00000050: ba6b 803f bf6e 763f c34d 873f 5dff e83e
00000060: b78e 0f3f 8866 a03f 57e5 a13f 50d7 3c3f
00000070: 8460 743f eb9b 2e3f 6649 593f 63a7 6d3f
1.3680427 0.41529778 1.1743822 0.8712061 0.8985902 0.7548297 1.0522944 0.6788131
0.97565067 1.404895 0.8896955 0.41398644 0.95405024 0.8471981 0.6567383 1.055128
0.8621244 0.42501557 0.72332835 0.8229532 1.0032876 0.96262735 1.0570606 0.45507327
0.5607714 1.253129 1.2648114 0.7376604 0.9545977 0.6820666 0.8487762 0.92833537

BN1.bias f4 [32]
00000000: daba d5be 84ea 20be 7998 6ebe 0274 adbd
00000010: bbf6 8abf 6778 adbe 1a9c f8bd d522 d7bd
00000020: 8bb3 12bf 082e 40bf 8f2e e4be 66d9 10be
00000030: ec4f 033d 4351 dfbe d6b5 d3bd b8ac 4bbf
00000040: 58f4 5bbf b41a 87bd 6995 2bbf 3767 1ebf
00000050: de75 12bf 5312 04bf fe35 9dbf 5dc4 4bbd
00000060: a2d6 b4bd 9ab9 c3be 1148 5bbf ec7d b6bd
00000070: d772 2bbd a04d 31bd d423 37bf d8d5 0ebe
-0.4174412 -0.1571446 -0.23300351 -0.08469392 -1.0856546 -0.33880922 -0.12139149 -0.105046906
-0.5730521 -0.7507024 -0.4456677 -0.14145431 0.03205864 -0.43616685 -0.10337417 -0.7956042
-0.85919714 -0.0659689 -0.67024857 -0.61876243 -0.572111 -0.5159046 -1.2282102 -0.049747813
-0.088300005 -0.3822754 -0.8565684 -0.089107364 -0.041857567 -0.04328692 -0.71539044 -0.13948762

BN1.running_mean f4 [32]
00000000: a692 cb3e f229 ce3e 49c7 5a3c 389a babe
00000010: 9077 183f 4c37 293e 063a 123c 7a32 ba3d
00000020: fc40 af3e 14a8 033e 4677 493e dfed 373f
00000030: a98d ee3e d127 3d3e 486c 01be bfc2 2ebe
00000040: e1b3 69bc a7c8 023f 774f 4ebf 9983 a53e
00000050: 93e3 003d 4520 5cbd 4feb d83e 7397 26be
00000060: 3282 233f 6810 56be c543 ddbd 6f79 e2bc
00000070: e4ac 343d 5e50 b5bd b14d b9be 1fcb c83c
0.3976032 0.40266377 0.013353177 -0.36445785 0.5955744 0.16525 0.008924967 0.09091659
0.34229267 0.12857085 0.19674405 0.7184734 0.46592453 0.1847222 -0.12638962 -0.17066477
-0.014264078 0.5108742 -0.80590004 0.32326964 0.03146703 -0.053741712 0.42367026 -0.16268711
0.6387054 -0.20904696 -0.10803942 -0.027645795 0.044110194 -0.088532194 -0.36192086 0.024510918

BN1.running_var f4 [32]
00000000: 01f8 963b 2a71 a13c 10b4 743b 5d02 9d3b
00000010: 6757 983a ff46 7d3d 12e8 833b 2ee9 b53b
00000020: 9e3c 693c a4dc c13b 7900 433c 59b0 d63a
00000030: 3cf8 383c e86c 9f3c 7eef 643b ae79 8b3c
00000040: 35dc 953a d465 2b3c 755f 4d3c e097 de3b
00000050: 596a 673b 156d 6a3b 1b0d 043b 0e46 143b
00000060: a34e 8a3b 432a d83a 7d4d bb3c e0ec 443c
00000070: 2a25 273c a2ad f13b 564f 3439 1818 8c3c
0.004607201 0.019707281 0.003733877 0.0047915415 0.0011622728 0.061835285 0.0040254677 0.005551479
0.014235644 0.005916195 0.011901968 0.001637946 0.011289652 0.01946111 0.0034932788 0.017025795
0.0011433425 0.010461289 0.012534966 0.0067930073 0.003531119 0.0035770584 0.0020149413 0.0022624764
0.0042208 0.0016492087 0.022864098 0.012019366 0.010201732 0.007375435 0.00017195693 0.017101333

conv2.weight f4 [64, 32, 3, 3]
00000000: ec80 fdbd 5d3d 663e 8450 cbbd c7a9 4c3d
00000010: 3102 c53d 2e90 76be 6a1a 80bd 4b85 973d
00000020: 745c dabd 2b3f d9bd cc13 41bd 8334 8fbc
00000030: 94c6 bcbe ebb5 edbe 3746 e5be b7c6 6f3e
00000040: c08e 393e b41e 6f3e 7779 48bc 3d16 5e3d
00000050: 795b 0a3e 7073 abbd 6c7c 40bd ef4a 97bc
00000060: f0e3 e6bc 57e1 80bd 1d2c ae3d cc6d 8fbe
00000070: e991 1d3d 0852 603e 1d1f 05bf b10f d33c
00000080: 278c 3dbe b354 92bd 4ca9 903e e809 bb3d
00000090: fc9a c73e 3153 88be a6bf 28be 8e41 d9bd
000000a0: 2cb4 9dbe be7c 53be 7cf0 36bb d7c1 64be
000000b0: 9283 30be 3b42 95be d678 02bd f2cf 79be
000000c0: 3205 94be a1b7 a7bd ffd8 49be 0a48 4d3e
000000d0: 41fa 8d3e 6ae3 6a3e 3492 b4bd a60b 0cbe
000000e0: 6e0f 82be 72da 2f3a 4698 e73d f0a5 7a3e
000000f0: 836a 8abe d421 8bbe 853e 43be e75c aebc
00000100: 1bc6 2b3e 20c7 0e3e 7e1c 27be c0d3 42bd
00000110: 6b0a dbbe e7ac 443e 7874 5b3e af48 743e
00000120: 8c98 8cbe 8f8e a33c 14ca 48be d8f4 86be
00000130: c0e5 fc3d f0a2 b4be 2a59 7f3e d0b5 883e
00000140: d3f1 0dbd 3f91 04bf 10da 37bf 5dce 32bf
00000150: 50d6 b73e a606 563e 66aa 503d e1c1 aebe
00000160: b27a e2be bc05 11bf 4b6e f53e 8302 b33e
00000170: cff4 7c3e e2d9 0bbe 8dad 95bd f02e cbbe
00000180: 510d bd3d 0e3d 3e3d 74c1 b4bc 045f 243d
00000190: 4979 053e d4c1 22bd e4ec 1fbe 5d3f 243c
000001a0: 9c1d 7bbe ccc5 a23e c118 db3d 1cf0 28be
000001b0: 6dcb 9d3e 5c90 8f3e ef71 e0bb be23 1a3e
000001c0: cf63 32bd 9084 48bf 6643 bebd d3bb 093e
000001d0: d0a3 443e 2651 5d3d 22bb 5a3b c80e 26be
000001e0: 58cb 67be 29b9 c1bc 7267 b0be c7c3 42bd
000001f0: b653 373c 8e1d 293d 39aa d6bc 1a14 2e3d
00000200: 3e9d 88bd 76b1 9d3b f3c9 873b 9ded 04bf
00000210: 3cd2 07bd 7596 303d 4069 82be c567 cebe
00000220: 1ef3 1dbe 35fd 22bf 61f9 043d 69ac 903d
00000230: 3c33 1abd 4a54 9a3e 641d 873d 9ec2 a5be
00000240: b241 24bf 2c91 99be 2eab d0be af7d 523e
00000250: eee8 793e 6684 4a3d c98b c4bd d4b6 0bbe
00000260: 68e9 503e 6074 e73e d2c0 a93e 28e4 ea3e
00000270: 7ac9 cbbd 54f2 cfbd e136 d4bc 2f64 c83d
00000280: bf20 f83d dd45 433e 06d2 edbe 9f2b b4be
00000290: 1ee1 b1bc 46dd eb3d b24b a4be 214a 0bbf
000002a0: 623b 4a3e 2479 4c3e 73d3 8a3e d84b cabe
000002b0: 0c02 00be 6c49 f8bd 9757 e9bb cc35 a3bd
000002c0: b0bd 73be e3e0 5a3e 5986 063e 5d57 a73e
000002d0: f4b9 c63e fc2d 303e 8dd2 43bd c098 7fbe
000002e0: e46c c6bd e053 ccbe 0a3b b8be f419 51bb
000002f0: 4bbf 13bf 465a 9cbe 9cba 03be d3df 5d3e
00000300: 87b0 f7be 7f68 bfbe 403b fdbe a60e 1fbe
00000310: a522 823e cdf8 4f3e 516b 22be 476b a83d
00000320: 08bd 4b3e cc87 6f3e 2738 85b9 a1c4 c0bd
00000330: e401 13be ab3e 07be d137 8c3c 05f7 553e
00000340: 2708 b73d 3542 693e 8d13 debd 9bd0 f1bc
00000350: 577c b9bd df34 aebe c256 89bd 6a7d 9cbe
00000360: 2875 343e b41e 3cbd a474 673e f773 69be
00000370: 4c3a 77be bbd8 63be 593f 9c3a 70f4 ff3d
00000380: 4d2d 993e a203 343e 1387 003e 38af af3d
00000390: 7e7c 993d 4831 a23c ddee 8a3d c9a6 82be
000003a0: 41cf c3be 28b6 22bf f1ba 76bf 0063 8dbf
000003b0: b84f 98bf 1ffb f8bd e442 02be 1e8f 0fbe
000003c0: 652b 95be 0f4e dcbe 038a e8be 7590 2a3e
000003d0: df88 f4bd 6fee debe 5865 a3be a283 88be
000003e0: 3683 47be 60e0 5a3e c931 923e 2531 913e
000003f0: 3ec5 7b3e 1170 2b3e 8d42 1e3f b612 a4bd
-0.123781055 0.22484346 -0.099274665 0.0499666 0.096195586 -0.24078438 -0.06255038 0.073984705
-0.10662165 -0.106077515 -0.04713802 -0.017481094 -0.36870253 -0.46427855 -0.44780132 0.23415647
0.18120861 0.23351556 -0.012235991 0.054220427 0.13511457 -0.08371627 -0.046993658 -0.018468348
-0.028184861 -0.0629298 0.08504508 -0.28013456 0.03846923 0.21906292 -0.520006 0.025764318
-0.18510495 -0.07145061 0.28254163 0.09132749 0.3898543 -0.2662597 -0.16479358 -0.10608207
-0.30801523 -0.20653054 -0.0027914336 -0.22339569 -0.1723769 -0.29152092 -0.03185352 -0.24395731
-0.28910214 -0.08189321 -0.19711684 0.20047012 0.2772999 0.22938314 -0.088169485 -0.13676319
-0.25402397 0.0006708271 0.11308341 0.24477363 -0.27034387 -0.27174246 -0.19066818 -0.021284534
0.1677479 0.13943148 -0.16319463 -0.04756522 -0.42781386 0.19206582 0.21431148 0.23855852
-0.27460134 0.019965438 -0.19608337 -0.26358676 0.12348509 -0.3528056 0.24936357 0.26701212
-0.03465445 -0.5178413 -0.7181711 -0.69846135 0.35905695 0.20900974 0.050943755 -0.34132293
-0.44234234 -0.56649375 0.4793571 0.34962854 0.24702762 -0.13657334 -0.07308493 -0.39684248
0.092310555 0.046444945 -0.022064902 0.040129676 0.13034548 -0.03973563 -0.1561771 0.010024873
-0.24523014 0.31791532 0.10698081 -0.16497844 0.30819264 0.28039825 -0.0068495194 0.15052697
-0.043552216 -0.78327274 -0.09290199 0.13450556 0.19203115 0.054032467 0.00333757 -0.16216576
-0.22636163 -0.023647862 -0.34453923 -0.04754999 0.011189392 0.04128795 -0.026204215 0.04249964
-0.066706166 0.0048124148 0.0041439473 -0.5192507 -0.03315948 0.043112237 -0.25470924 -0.40313545
-0.15424773 -0.63667613 0.03246439 0.07064135 -0.037646517 0.30142432 0.06597403 -0.32375044
-0.64162743 -0.2999357 -0.407556 0.20555757 0.24405262 0.04944267 -0.095969744 -0.13643962
0.20401537 0.45205975 0.33154923 0.45877194 -0.09950538 -0.10153642 -0.025905075 0.097847335
0.12115621 0.1906962 -0.46449298 -0.3518953 -0.02171379 0.11516814 -0.32089 -0.54409987
0.19749215 0.19968086 0.27114448 -0.3951099 -0.12500781 -0.12123379 -0.007121037 -0.07969245
-0.23802829 0.2137485 0.13137187 0.3268384 0.38813746 0.17205042 -0.04780822 -0.24960613
-0.09688738 -0.39907742 -0.35982543 -0.0031906338 -0.57713765 -0.30537623 -0.12864155 0.21667413
-0.48376867 -0.37384412 -0.49459267 -0.15532932 0.25417057 0.20309754 -0.1586125 0.082235865
0.19896328 0.23391646 -0.00025409574 -0.09412504 -0.1435619 -0.132075 0.01711646 0.20895012
0.08937102 0.22779162 -0.10843573 -0.029518416 -0.09056919 -0.34024712 -0.06706001 -0.30564433
0.17622817 -0.04592772 0.22603089 -0.22798143 -0.24143332 -0.22250645 0.0011920735 0.12497795
0.29917374 0.17579511 0.12551527 0.08578342 0.07494448 0.01979889 0.06783841 -0.25517872
-0.3824406 -0.635592 -0.96379 -1.1045837 -1.1899328 -0.121572725 -0.12720829 -0.14019439
-0.2913467 -0.43028304 -0.45417795 0.16656668 -0.119401686 -0.43541285 -0.31913257 -0.26662928
-0.19483647 0.21374655 0.28553608 0.28357807 0.2458696 0.16741969 0.618203 -0.08011381

conv2.bias f4 [64]
00000000: 4e7f 1ebd e70c f43c 7f31 033c a66f 12bd
00000010: 6bce ea3d 5021 34ba d05a 3a3d 1d09 b03d
00000020: ded6 573c 0a71 31bd 6c93 c93d 34e5 9e3c
00000030: a866 583d 5b49 74be 9875 8f3c ed90 383d
00000040: 9f6e 5cbc fd0b c5bd 9c8b 98bd 4209 353d
00000050: 54f2 cd3d 95d2 9d3c 5aa0 17be d997 08be
00000060: 4cbc 00bd 5d18 8bbd 662b 4e3d 1284 a4bb
00000070: 8470 283d 9664 d83b 88bf 843d 621a 943d
00000080: bd1e 113d 5f8d 08bc cbaf e0bc f8a9 d6bd
00000090: 0fb0 9d3d 8045 77bd 47c1 bbbd 21fe acbd
000000a0: 7977 483d f2ed 0abd 0667 2e3d 0a86 b83c
000000b0: 01b4 a9bc a686 d0bc 8d39 e83c 0d49 cbbd
000000c0: 6614 2b3d 84da 4fbd 0ea6 86bc 6c6a bc3c
000000d0: 5166 9c3d 0412 5c3d 1b5a bf3c 2a4f 2c3e
000000e0: 9747 443e 94fe 1c3d fcba f23b 3fa1 4abd
000000f0: fff3 6f3d a71e 3abd 5dfa 913c 01b7 75bd
-0.038695626 0.029791309 0.008007406 -0.035751007 0.11465152 -0.0006871419 0.04549676 0.08595488
0.013173787 -0.043320693 0.098425716 0.019396402 0.052832276 -0.23856108 0.017512128 0.045060087
-0.0134541085 -0.09621427 -0.074485034 0.044198282 0.10055986 0.019265452 -0.14807263 -0.13339175
-0.031429574 -0.06791756 0.050334357 -0.005020627 0.04112293 0.0066037877 0.06481844 0.072315946
0.035429705 -0.008334487 -0.027427575 -0.10481638 0.07699596 -0.060369015 -0.09167724 -0.08446909
0.048942063 -0.03391833 0.04257872 0.022524852 -0.020715715 -0.02545483 0.028347755 -0.09926043
0.0417675 -0.050745502 -0.016436603 0.022999965 0.07636703 0.05372812 0.023358395 0.16827074
0.19167934 0.038328722 0.007407544 -0.049470183 0.058582302 -0.04543939 0.017819578 -0.05998898

BN2.weight f4 [64]
00000000: d861 ac3f 87f6 8f3f 1038 a13f f7d9 a33f
00000010: 47a4 893f 9fd5 a83f 9af9 583f bbf5 8c3f
00000020: b671 9e3f f776 ab3f 5d7c 903f 6129 9b3f
00000030: 1ad5 a83f 5414 bb3f e701 943f adef 893f
00000040: 811a ae3f 3dd3 ae3f 3813 df3f 0fbb 1540
00000050: ebc9 9c3f df67 b23f 9b6b 0c40 783f a53f
00000060: 347b a73f f38d 0340 0ecd b33f e1db af3f
00000070: 013c bc3f 469f a83f 7083 bd3f 6b58 983f
00000080: b999 bd3f 3214 b53f 8126 a33f 9d61 aa3f
00000090: 308f f33f cdb9 8a3f 7e53 4a3f 4238 983f
000000a0: 6af3 883f c772 7a3f f1b5 993f 5c34 fc3f
000000b0: af25 d03f 662e ab3f bda5 c33f 5a1d 7c3f
000000c0: 1ccc d43f 7713 953f 4c2c a53f cc65 ac3f
000000d0: 582d c43f a817 733f 0e51 a43f f27e 983f
000000e0: 0652 8e3f 2b32 b73f 296b 9a3f 0868 863f
000000f0: ccc2 c43f 5c4a bd3f 3f02 e33f c16e a33f
1.346736 1.1247109 1.2595234 1.2800893 1.0753258 1.3190192 0.8475586 1.1012491
1.2378452 1.339568 1.1287953 1.2122003 1.3190033 1.4615579 1.156308 1.0776268
1.3601838 1.3658215 1.742774 2.3395422 1.224912 1.3937949 2.1940677 1.2909994
1.3084474 2.055539 1.4046953 1.3738977 1.4705812 1.3173606 1.4805737 1.1901983
1.4812537 1.4146788 1.2746125 1.3311039 1.9028072 1.0837952 0.7903365 1.1892169
1.0699284 0.97831386 1.2008649 1.9703479 1.62615 1.3373535 1.5284954 0.98482287
1.6624789 1.1646565 1.2904143 1.3468566 1.5326338 0.9495797 1.2837236 1.1913741
1.1118782 1.4312185 1.2063953 1.0500498 1.5371947 1.4788318 1.773506 1.2768174

BN2.bias f4 [64]
00000000: 8e61 29bf 924f 19bf 22e7 1bbf bbbb 28bf
00000010: 5db0 1cbf 8550 30bf 0bb0 ddbe aeef ecbe
00000020: b824 23bf 17f1 2abf 7a7d 04bf 4eca 21bf
00000030: 6b65 22bf 59a5 30bf b101 0bbf c949 02bf
00000040: 95fa 1abf ae66 34bf 4d0c 90bf 5125 e3bf
00000050: 3e21 09bf 9f18 35bf f848 c0bf f558 16bf
00000060: 4972 24bf 2098 a1bf eaa5 3cbf 88f4 29bf
00000070: 6570 3abf 5770 10bf a7f9 34bf d23b 1bbf
00000080: 5fd4 73bf 58dc 3ebf 039e 0fbf d5ab 1dbf
00000090: 1ed5 88bf 8569 ebbe b582 dabe 875c 13bf
000000a0: 2803 f9be ab53 e4be 457f 1ebf ab74 bebf
000000b0: 8acc 51bf 5cea 2cbf 1f98 54bf 6b1b ecbe
000000c0: f3a8 40bf a040 20bf 8468 27bf ab43 32bf
000000d0: 7b24 4fbf fe97 f5be 1889 14bf 9c02 27bf
000000e0: 7915 00bf 80bc 36bf 5188 07bf 2817 03bf
000000f0: f964 74bf 59c2 43bf a788 92bf cd0e 10bf
-0.6616448 -0.5988704 -0.60899556 -0.65911454 -0.6120661 -0.68872863 -0.43298373 -0.4627661
-0.63727903 -0.66774124 -0.5175396 -0.6319932 -0.63436 -0.690023 -0.54299456 -0.5089384
-0.6053861 -0.70469177 -1.1253754 -1.7745763 -0.5356635 -0.70740694 -1.5022268 -0.5872949
-0.64236885 -1.262455 -0.73690665 -0.6638875 -0.7282775 -0.56421417 -0.7069344 -0.60638154
-0.9524593 -0.7455497 -0.5610048 -0.6159032 -1.0690038 -0.45978943 -0.42677847 -0.5756306
-0.4863522 -0.44595084 -0.6191295 -1.4879354 -0.81952727 -0.67545104 -0.8304462 -0.46114668
-0.75257796 -0.6259861 -0.65393853 -0.69634503 -0.8091504 -0.47967523 -0.5802169 -0.65238357
-0.50032765 -0.7138138 -0.5294238 -0.5120721 -0.9546657 -0.76468426 -1.1447953 -0.56272584

BN2.running_mean f4 [64]
00000000: 9197 98bf 1c68 ffbf 967c d1bf 8067 debf
00000010: 2639 03c0 2e34 bbbf 7377 c5bf e326 7dbf
00000020: 046f 93bf a25c 91bf 68df 09c0 d13b e6bf
00000030: 7c64 ebbf 9e8f a2bf cf62 f8bf 7083 8abf
00000040: 071d cfbf 4a83 b2bf d78e 38bf a2d1 31bf
00000050: 8a16 e5bf 1df9 f5bf 0550 89bf e23a b1bf
00000060: 44e9 02c0 120f 3ebf 0401 b3bf 3829 bebf
00000070: ad28 87bf 28cd afbf 867d a3bf 1528 d8bf
00000080: b1c2 69bf 8aa5 7dbf d244 c9bf cf8a dcbf
00000090: 2e08 54bf 585f 3dc0 3f29 bbbf 1fb8 b4bf
000000a0: 6eee dcbf 1f7c fabf 9504 97bf 805f 2ebf
000000b0: ccad a5bf de57 77bf f6c3 a0bf 1a46 13c0
000000c0: a22b a1bf ff10 b0bf 2a09 06c0 7da1 cabf
000000d0: 7879 c1bf ed0d 9bbf 1dd5 99bf d70e 2fbf
000000e0: b3e1 13c0 a390 c5bf a40a 0fc0 f309 f3bf
000000f0: 16f0 3abf cb1b 81bf 850a 3cbf 4682 b8bf
-1.1921254 -1.9953647 -1.6366146 -1.7375336 -2.050363 -1.4625299 -1.5427078 -0.9888746
-1.1518254 -1.1356394 -2.1542606 -1.7987005 -1.839004 -1.2700078 -1.9405154 -1.0821362
-1.6180733 -1.3946316 -0.72092956 -0.694605 -1.7897503 -1.9216648 -1.0727545 -1.3846095
-2.0454874 -0.74241745 -1.3984685 -1.4856329 -1.0559288 -1.3734484 -1.2772682 -1.6887232
-0.913127 -0.9908072 -1.5724127 -1.7229861 -0.8282498 -2.9589443 -1.4621962 -1.4118689
-1.7260263 -1.9569129 -1.1798273 -0.6811447 -1.2943664 -0.9661845 -1.2559803 -2.3011537
-1.2591441 -1.3755187 -2.0943093 -1.5830532 -1.5115194 -1.2113625 -1.2018162 -0.6838202
-2.3106506 -1.5434765 -2.2350245 -1.8987411 -0.7302259 -1.0086607 -0.7345355 -1.4414756

BN2.running_var f4 [64]
00000000: 64a0 2441 ca4e 7c41 8bf4 3d41 356b 3541
00000010: 16af 1441 5e41 3441 3be3 7041 021a 1941
00000020: 7139 cc40 776e 0141 6083 8a41 a025 7f41
00000030: 7a51 5c41 3646 c440 3af8 ba41 ef37 8641
00000040: 512b a541 f912 f340 2832 2940 94b5 5240
00000050: 26c3 8241 06fe 7441 7aff 8540 713a dd40
00000060: bc1e 8c41 257d 8040 a540 2741 a5c1 0441
00000070: 9119 4241 5300 5741 5a02 0e41 b8fb 6d41
00000080: e745 7940 e625 a540 d1ae 3841 ebaa 3541
00000090: fbd0 a140 b68e bc41 0a7c 5d41 26da 0f41
000000a0: 2937 4741 a55e ae41 fca0 cf40 0ddf 3840
000000b0: 6a36 df40 c267 a840 26d0 d740 bfd4 9541
000000c0: ed1b 5341 834c 1641 5350 2141 3311 3541
000000d0: 49bd 2541 8045 8141 918f 0841 181b 2041
000000e0: b7aa a841 06ae 3a41 072e 6841 bb73 4a41
000000f0: 0182 6540 d9bc 9b40 7498 3140 73d1 8041
10.289158 15.769236 11.872203 11.338674 9.292746 11.265959 15.055476 9.56885
6.382012 8.089469 17.314148 15.946686 13.769892 6.1335707 23.371204 16.777311
20.64615 7.596066 2.6436863 3.2923326 16.345287 15.312017 4.187436 6.913384
17.515007 4.0152764 10.453282 8.2972765 12.131242 13.437579 8.875574 14.873955
3.8948915 5.1608763 11.54268 11.354228 5.0567603 23.569683 13.842783 8.990759
12.450967 21.796213 6.4884014 2.888614 6.9753923 5.2626657 6.7441587 18.72888
13.194318 9.39368 10.08211 11.316699 10.358712 16.158936 8.53505 10.006615
21.083357 11.667486 14.511237 12.6532545 3.5860598 4.8668027 2.77493 16.10227

fc1.weight f4 [128, 1024]
00000000: efcd b4ba 3fa6 fbbc f1b4 4dbc 7bd7 a7bc
00000010: 7fbf 4cba 01dd 1bbc e04b 11bd 5eaa 00bc
00000020: 643e f0bc 6df1 8ebc 85d9 163c 015d c23c
00000030: f9a5 b03b 4a35 8f3c 86cb 9b3c 1c41 11bd
00000040: 8d9f 4ebc 302b 5cbc 5392 1b3c fe09 83bc
00000050: ad0b 31ba a2c5 29bc 3b82 49bc f350 623c
00000060: ee9b 633c 74eb 00bc ad10 e7bc 1ae7 8f3b
00000070: d297 d7ba eb4e e5bc 8c8d 9bbc 875d 4b3b
00000080: ea1c 893a 5b74 babc 794f 7b3c ed57 7bbc
00000090: 57ad 473c bf22 a4bc 9063 efbc 26a7 d23a
000000a0: e4cd c93c 5d3f 583c 7c14 adbc ffd1 f5bc
000000b0: 323a 55bc 135b 8bbc 2bb4 c63b 47cc 0cbd
000000c0: c906 88bc 3214 2bbc 2130 743c 2b5d c63b
000000d0: 10eb b63c accd 99bb c4bb a0bc 3a89 0a3b
000000e0: 4002 25bb 77f0 06bd 47a0 d6bc dd4b ffbc
000000f0: b0f1 59bc ec71 0abd 799c 07bb 1979 623c
00000100: da70 213c 025f bb3c 548c 84bc adb3 b2bc
00000110: 9d0b a9bb 7d47 f1bb f29f 9f3c a7c2 0abd
00000120: 2ee0 15bd d3af f5bc c519 a2bc 588c 283c
00000130: 7b58 65bc 9c3f a03b 7132 ecbc 8531 ca3c
00000140: 4b9d 323b 390f 3e3b 7195 c63c 89d0 093c
00000150: 40cb 953b 4441 03bc a884 073b 27a2 06bc
00000160: 25a8 a9bb f542 dfbc 896f 933c cc25 2b3c
00000170: 9481 b9bc 1af7 953c 4937 babc 4199 17bc
00000180: f8e4 86bc be44 173c ffa6 3c3b 1a8c a5bc
00000190: 7a62 923b 6275 c43b 7dd4 c0ba 18f9 283c
000001a0: 54c4 2dbc c6ea 2b3c 4960 bf3c 08c3 9dbc
000001b0: b46e f53b d047 ec3b 262c b8bb dc32 6fbc
000001c0: b691 173c 74ce 373c 646f 783c 80c7 3fbc
000001d0: 076e 09bd 1828 8bbc 34dc 0bbd 1435 c43c
000001e0: f6d4 10bd 9ba7 3e3c f03b d3bc 1d1f 04bd
000001f0: 2414 233c e8d7 f8bc ba78 e5bc 14f8 9f3a
00000200: 46d1 02bd 0cc5 9f3c a6e5 acba 01df bfbb
00000210: f5d3 b43c dbe6 aabc 7544 bebc 1360 53bb
00000220: d1eb 593c 0d4b cb39 f21d 1a3c f3f4 13bd
00000230: 024d 40bc b85b fab9 d01c 293c 46af acbc
00000240: 8014 b4bc 0301 e3ba c078 25bc cdc1 7fbc
00000250: a7cb 953c ba87 a9bc 5746 0c3c f99f 963c
00000260: 9fac afbc 6ea0 8e3c 14ca c23b 899b 85bb
00000270: d538 0dbd f604 843b 0e6d 9e3c 2096 0fbc
00000280: 5a7e 973c 96f2 cebb 6f45 59bc 201f 70bc
00000290: 5d8d 05bc f833 9bbc 1eac aebb 9e50 d1bb
000002a0: 6138 03bd fbad a8bc 8acb ba3c 07c1 c0bb
000002b0: 1edf c5bb feb3 1a3c 7f50 933c 7a4a 17bd
000002c0: e4a5 0fbd a0a2 0bbc 7f72 8dbc 66a1 02bd
000002d0: fc93 f8bc 7f30 cc3b 9d9a 323c 5e0f 01bc
000002e0: 7e32 6ebb 796f e5bc 13d1 dfbc 83af 07bd
000002f0: c6c5 f3bb 1414 12bd 57c7 d2bb 3d1e 873c
00000300: 2ea1 90bc 1018 04bd 0788 c6bc 5b57 0f3c
00000310: 71c3 c4bc 44b4 c0bc 4a5c b4bc 5446 b1bc
00000320: d1fa 933c 3612 81bc aeed bb3c 0e73 0e3c
00000330: d593 2ebc 4d7e 01bd 3b41 8c3c 2319 ac3c
00000340: 031d 22bc fe5c 9e3c 1b73 3fbc 6554 08bd
00000350: 6da9 10bd eec5 84bc ce76 953b 0fd2 7e3c
00000360: af22 ab3c f583 be3c 6f4d c43b a06c 02bd
00000370: 6f7c b73b cf15 f8bb 9069 54bc 25eb 9c3c
00000380: e51b dbbb 1197 b4bc a135 b33c 713f 433c
00000390: d3c1 caba fe46 953c 511c fabc 14df d0bb
000003a0: a810 05bd d9dd 33bb f17c 3f3b 538e 89ba
000003b0: d3a9 03bd 6788 d7bc 1c5a 0dbd b08e a43c
000003c0: ecf6 9abc 7f4f 913c 7a1f fbbc de63 8fba
000003d0: ab5c b53c efb7 47bc 84fa dfbc 40de 23bc
000003e0: f64b 923b e156 41bc da4a 363b f8fa 7ebb
000003f0: 92a6 febc 2d08 28bc 5795 94bc 20e9 af3c
-0.0013794283 -0.03071892 -0.012555347 -0.020488491 -0.00078105176 -0.009513141 -0.03547275 -0.007853119
-0.029326625 -0.017449105 0.009207134 0.023725988 0.005390879 0.017481465 0.019017946 -0.035462484
-0.012611282 -0.013438031 0.009495336 -0.015995976 -0.0006753754 -0.010362061 -0.012299116 0.013813245
0.013892157 -0.007868636 -0.028206194 0.004391563 -0.0016448444 -0.027991733 -0.018988393 0.0031031088
0.0010460888 -0.02276056 0.015338772 -0.015340787 0.0121873235 -0.0200361 -0.02922228 0.0016071543
0.02463431 0.013198701 -0.021127932 -0.03000736 -0.013014363 -0.017011201 0.006063958 -0.0343745
-0.016604798 -0.010441827 0.014904053 0.006053587 0.022328883 -0.0046937075 -0.019620784 0.0021138922
-0.0025178343 -0.03294417 -0.026199473 -0.031164104 -0.013302252 -0.03380005 -0.002069263 0.013822817
0.009853566 0.022872452 -0.016180195 -0.021814192 -0.005158855 -0.0073632584 0.019485448 -0.03387704
-0.036590748 -0.029991066 -0.019787678 0.010287367 -0.013998146 0.0048903953 -0.028832646 0.024681816
0.0027254398 0.0029000773 0.024241181 0.008411535 0.0045713484 -0.008011166 0.0020678435 -0.008217371
-0.005177515 -0.027253607 0.01799752 0.010446023 -0.022644795 0.018306304 -0.02273144 -0.009252847
-0.016466603 0.009232698 0.002878606 -0.020208407 0.0044673057 0.0059954384 -0.0014711764 0.010313295
-0.01060589 0.010492986 0.023361342 -0.019258037 0.0074900035 0.007210709 -0.0056204973 -0.014599528
0.009251049 0.011218656 0.015163276 -0.011705279 -0.033552196 -0.016986892 -0.03414555 0.02395109
-0.035359345 0.01163664 -0.025785416 -0.032256234 0.009953532 -0.03037639 -0.028011668 0.001220467
-0.03193786 0.019503139 -0.0013190999 -0.0058554416 0.022073725 -0.020862034 -0.023226002 -0.003225331
0.013300852 0.00038775094 0.009406554 -0.036122274 -0.01173711 -0.00047752052 0.010321811 -0.02107967
-0.021982431 -0.0017319027 -0.01009959 -0.015610171 0.018285586 -0.020694602 0.008561692 0.018386828
-0.021444617 0.017410483 0.0059444997 -0.004077379 -0.034478027 0.0040289117 0.01933911 -0.00876382
0.018492866 -0.0063155396 -0.013261183 -0.014655858 -0.008151379 -0.018945679 -0.0053305766 -0.006387784
-0.03203619 -0.020590773 0.022802133 -0.0058823857 -0.0060385605 0.009442328 0.01798272 -0.03693626
-0.035070315 -0.00852266 -0.01726651 -0.031892203 -0.030344002 0.006231367 0.0109011205 -0.007877199
-0.0036346014 -0.028007256 -0.027321374 -0.033126365 -0.007439348 -0.03566368 -0.0064324546 0.01649391
-0.017654981 -0.03224951 -0.024234785 0.0087488545 -0.024018975 -0.023523457 -0.022016663 -0.02163998
0.018063935 -0.015755754 0.022940483 0.008694423 -0.010655363 -0.03161459 0.017120948 0.02100808
-0.009894612 0.019331452 -0.011685158 -0.03328361 -0.035317827 -0.016207661 0.0045612818 0.015553012
0.020890562 0.023256281 0.005990676 -0.031841874 0.0055995504 -0.007570959 -0.012964621 0.019155094
-0.006686675 -0.02204469 0.021876158 0.011916981 -0.0015469141 0.018222328 -0.03053108 -0.0063742492
-0.032486588 -0.0027445464 0.0029218758 -0.0010494686 -0.03214438 -0.026310159 -0.034509763 0.02008757
-0.01891657 0.017738102 -0.030654658 -0.0010939797 0.022138914 -0.012189849 -0.027341135 -0.010001719
0.0044646217 -0.011800499 0.002781561 -0.0038906913 -0.031085286 -0.0102558555 -0.018137617 0.021473467

fc1.bias f4 [128]
00000000: 6516 283c ee4c 95bd 9ad8 583e b7ae 413e
00000010: 99b6 dd3b c816 26bd 0623 a73a 2f4c 11bd
00000020: 9ca2 7cbc 1538 0d3b f490 1dbc aa17 e73d
00000030: 3682 5f3c cb73 5ebd b95c 743d a33e d13b
00000040: a412 cebc 20d7 93bc e593 cb3c b77c 12bd
00000050: af50 b4bd dd82 5fbc 5359 a73e 0fb0 60bc
00000060: 04ca b23c d071 483e df8c a5bc d9d4 dc3d
00000070: 2d16 c1bc a83c 72bc db7e c4bc ae58 12bd
00000080: f8ec 813c 600b 8b3b bb29 55bd e39d 92bb
00000090: 4c7e 9d3e 5c90 0dbd ab99 43bc 3b9b edbc
000000a0: f3a6 2bbc 86e3 55bc 105a 263c dca8 963b
000000b0: c4b8 423e a90d b4bc c5c1 67bc d9bd afbd
000000c0: 1c47 073c 4ed3 beba a3e5 cdbc b0c4 81bc
000000d0: 4cdb eabb 16ef 19bd c675 723e b96a fbbc
000000e0: 1cf0 09bd 0373 16bc 82d7 b33c 97db 2c3e
000000f0: f1ad 083e c3c6 da3a b029 4b3e e813 14bd
00000100: 1361 ef3a eac7 fb3d 9722 db3b eab4 00bd
00000110: 266c 0b3d 06a6 053c a3b8 933c 6a0e 353e
00000120: d18b 13bd 4f19 15bd 3ffd ffbb 6bfe 8a3c
00000130: 289f 71bc 5939 ea3d ffab e23b 5331 38bc
00000140: 1e63 283e bf15 0f3e 7946 ccbc 7c62 9a3d
00000150: f9f7 10bd 9b26 213c 0ff5 a4bb cf6c d4bc
00000160: 4b34 0a3c 00b8 efbc c46e b6bb fb69 fc3d
00000170: 52de 0fbd bb92 87bb 833a 263d 190b c1bc
00000180: b5de e0bc db78 fabc f179 e23d 50c1 98bc
00000190: 2dd1 8a3e d04f e73d 81ea 0dbd fb7f 0fbc
000001a0: b2d6 d2bc b36b 10bd 1a14 06bc df8e 4ebd
000001b0: 00b0 9a3e c23f 09be 6603 813e 7b94 01bd
000001c0: 3506 3fbd d87f 023c 1d49 9dbd dd11 87bc
000001d0: 780e 6f3e e910 8a3d 85d2 e9ba c4d0 14bd
000001e0: 75d8 7e3e 3e38 0e39 6063 15bc 4f93 383e
000001f0: ba0d 833b e604 90bc 11f3 9cbc 51ea 713e
0.0102592455 -0.07290064 0.21176377 0.18914305 0.006766152 -0.04054907 0.0012751527 -0.035473045
-0.0154196285 0.002154832 -0.009617079 0.112838104 0.013641885 -0.054309648 0.05965874 0.0063856407
-0.025155373 -0.018046916 0.024850795 -0.03576347 -0.08804452 -0.01364204 0.32685336 -0.013713851
0.021824844 0.19574666 -0.020208774 0.10782785 -0.023570145 -0.014784969 -0.02398627 -0.035729103
0.015860066 0.0042432994 -0.05204175 -0.004474388 0.3076042 -0.0345615 -0.011938493 -0.029004684
-0.0104768155 -0.013054734 0.0101533085 0.0045977663 0.19015795 -0.02197917 -0.014145319 -0.085811324
0.0082567 -0.0014558823 -0.025133913 -0.015840858 -0.0071672555 -0.037581526 0.2367774 -0.030690538
-0.03367625 -0.009182694 0.021953348 0.16880642 0.13347603 0.0016691316 0.19840121 -0.036151797
0.0018263183 0.1229399 0.006687473 -0.031422533 0.034038685 0.008157259 0.018032378 0.1768128
-0.03602201 -0.03640109 -0.0078121717 0.016967019 -0.014747418 0.114367194 0.006917476 -0.011242229
0.1644406 0.13973139 -0.024935948 0.07538316 -0.035392735 0.009835864 -0.005034096 -0.02593079
0.008435319 -0.029262543 -0.0055674035 0.12324902 -0.03512413 -0.0041373647 0.040583145 -0.023564862
-0.027449945 -0.030575207 0.11058415 -0.018646866 0.27112713 0.1129452 -0.03464747 -0.00875854
-0.02573714 -0.03525896 -0.0081835035 -0.05042922 0.30212402 -0.13403228 0.25197905 -0.031635743
-0.04663678 0.007965051 -0.07679961 -0.01648801 0.23345363 0.067415066 -0.0017839229 -0.036331907
0.2488726 0.00013563127 -0.009117931 0.18024944 0.003999439 -0.01758046 -0.019158872 0.23624541

fc2.weight f4 [4, 128]
00000000: 3b8c 5dbd 2eca e0bc 947e 3d3d 2e68 9ebf
00000010: 2fc9 73bd eeae e33c aaf8 053d be2f fa3b
00000020: 0e2b 833d c76d a3bd 17c0 833c 1c5a 3a3f
00000030: d55e 17bd fa63 013c cfa9 b03e 23ce 153d
00000040: 0aa9 b13c 8c9c af3c aee0 593d 9115 983c
00000050: 2105 27bd 8f96 7abd e766 b2bf 8e7c 473d
00000060: d5cc c7bc 2058 b93e 26e8 b6bc cbe4 313f
00000070: 9944 daba 10b8 a1bd 2174 cbbc 0c1a 723c
00000080: cacc 493c adba c43b 42e1 503d 03f0 e1bd
00000090: 3ad4 233f 6ad5 e0bc 7a58 66bd 397e 24bd
000000a0: 7500 89bd 0831 34bc c8aa 4a3d 0284 823d
000000b0: 9975 9dbf 765b b4bc 3ec7 9d3d 249e 8abd
000000c0: d44a 8fbd 140a 863b bddc 4dbd 92e8 91bd
000000d0: 587c ac3c 3b73 15bd 3eea ab3f 5812 b0bc
000000e0: 6942 5ebb 15a9 30bc 7c0f a7bd 1901 e43e
000000f0: 03d3 853f 10a1 9e3c ab67 aebf 442a 0cbd
00000100: 9aa2 22bc 3e99 de3e e007 98bd 0bf1 0fbd
00000110: 77ae abbc e36a 7abd 7834 e2bc 19b3 96bf
00000120: 8cc8 063d b206 d03e 09b8 f23e 33b0 113e
00000130: 48e8 76bd d30c 003f 18ea 873d 63ad 9bbd
00000140: 8885 3abf 8815 4cbe f362 2ebd 4091 1c3e
00000150: 6cab 6ebc 7d7a 883c ecfe 53bd 0932 c23c
00000160: d41e 4ebd ddb2 a13d 59f9 4b3d 438c 763f
00000170: 5f79 00bd 7252 84bd 5a1e 49be 2604 82bc
00000180: fe60 abbc d8db 85bd 542b a63d 0ed4 603b
00000190: 5273 673f 5de2 903e 3eea 3c3c 19a6 c73b
000001a0: a7b5 ca3c 3188 fbbc e6ca a9bd 18d6 823d
000001b0: 5ab2 f5bf 4534 19bd 9ccf 2bbe a423 b23b
000001c0: af2d 0c3e 287c f5bc 4954 98bf 8232 40bd
000001d0: e8e3 3e3f 9a49 343f 4a64 093d 0985 7dbc
000001e0: 8a10 883e f3fd e7bd 46cc 97bd 89aa aa3f
000001f0: bb7b 9bbd 536e 07bd f64c 49bd 92f1 c5bf
00000200: aa0c 87bd 5e1f ca3c 9a35 673f bc18 453f
00000210: 9c2a d4bc 63db 47bd 0543 35bd 6657 58bd
00000220: 21fd d13c bd42 8ab9 750a ca3c f2af b9bf
00000230: 9188 173d e039 3dbd 9306 92bf c5fa 7d3d
00000240: 2ad2 2dbd 8cef 923c 4f27 d33e 94fc e63c
00000250: b81d 1f3c dfd5 a23c 8171 0bbf 63f1 8d3c
00000260: 0031 873b 4c2f 783f 34b2 ac3c c1bb 09c0
00000270: b7af f9bc f7f8 983d 2cad 7f3c 4f3f 0a3c
00000280: cdbd 95bd 0048 5d3c a282 1e3d 5d1c c2bc
00000290: 0df6 45be 151c c53c b022 79bd 68c6 6dbd
000002a0: e7af 833c dd8d fbbc 3288 453d 5acc 29bd
000002b0: 815a 273f 14e9 7a3a f1e2 0cbd dfd6 a5bd
000002c0: 292d 8f3d ef25 5b3d 33a3 6dbd 4262 88bd
000002d0: 8996 983c 9ec2 d1bb b877 223e 07e8 1abd
000002e0: 5189 b83c ffb2 973c a00e 8f3d 8463 a1bf
000002f0: fed1 3dbe 933e 433d 4381 873e aae8 95bc
00000300: 48fe 573d fb08 e7bf c18c 5bbd 272b 70bd
00000310: dd07 92bc 6ec7 563d 63bc f9bb 2175 b53e
00000320: 6c13 1a3d df96 34bf 782f 4bbe 3bac b8bf
00000330: 7d4c 893c 633e 92be 9bc4 843c 55da 6d3d
00000340: 100c 84bf a3d4 debf 867c 2bbd 94b6 82bf
00000350: fc39 823d 89e3 79bd 5394 1f3d af88 87bc
00000360: f8cc 22bd 449b 0f3d e40f 9fbd cfaa 8dbf
00000370: 4b54 22bd f5c0 d63c 70e8 6a3f 8a3a 8c3c
00000380: c305 a83d 7a34 743d df39 443f b4b1 543d
00000390: 5ed6 4f3d 77ad 1c3f 6986 d3bc 7cf5 81ba
000003a0: 780d 2a3b 24ee 843d 3152 663d 34d8 04bc
000003b0: 80ec b13e 8cd3 303b 1233 183f f8d9 81ba
000003c0: 0a9b 773d 255b f53a 4a51 893f 239f ea3c
000003d0: 535d e9bc a147 72bf e4b9 073d 92a9 74bd
000003e0: e0dc 8aba 5daf 87bd 0998 0cbd 74f3 9abf
000003f0: 04fb 9abd 7d46 903c aaac 0ebd 6750 61bf
-0.054088812 -0.027440157 0.046263292 -1.2375543 -0.059518036 0.027793374 0.032707848 0.007635086
0.064046964 -0.07979923 0.016082807 0.72793746 -0.036955673 0.007897371 0.34504554 0.03657354
0.02168705 0.021436952 0.053192787 0.018564971 -0.040776376 -0.06117874 -1.3937653 0.04870277
-0.024389664 0.36200047 -0.022327494 0.69489735 -0.0016652524 -0.07896435 -0.024835648 0.014776718
0.012316892 0.006003699 0.050996073 -0.11032107 0.6399571 -0.027445514 -0.05623672 -0.040159438
-0.0668954 -0.010998018 0.049479276 0.06372835 -1.2301513 -0.022016268 0.07704018 -0.06768444
-0.06996694 0.004090557 -0.05025934 -0.071244374 0.021055385 -0.036486845 1.343086 -0.021493122
-0.0033914095 -0.0107825 -0.0815725 0.44532087 1.0455021 0.01936391 -1.3625387 -0.034219995
-0.009926463 0.4347629 -0.07423377 -0.035141986 -0.020957215 -0.06113709 -0.02761291 -1.1773406
0.0329061 0.40630108 0.47406033 0.14227371 -0.060280114 0.5001957 0.06636447 -0.0760143
-0.7286 -0.19930089 -0.042574834 0.15289783 -0.014567237 0.01665997 -0.051756784 0.0237055
-0.05032237 0.078954436 0.049798343 0.9630777 -0.03136575 -0.06461038 -0.19640484 -0.015871119
-0.020920273 -0.065360725 0.08113733 0.0034306082 0.9041034 0.282977 0.011530457 0.0060927984
0.024744822 -0.03070459 -0.08290653 0.063884914 -1.9195054 -0.037403364 -0.16778415 0.0054363776
0.13689302 -0.029966429 -1.1900722 -0.046923168 0.7456651 0.7042481 0.03354291 -0.015473613
0.26575118 -0.11327734 -0.07412009 1.3333293 -0.07591959 -0.033064198 -0.04914566 -1.5464346
-0.06594212 0.02467316 0.90316164 0.76990867 -0.025899224 -0.048793208 -0.044253368 -0.052817725
0.025633397 -0.00026371135 0.02466319 -1.4506819 0.036995474 -0.046197772 -1.1408256 0.06200673
-0.042436756 0.01793649 0.41240928 0.02819661 0.009711675 0.019877372 -0.5447007 0.017327016
0.0041257143 0.9694717 0.021081068 -2.1520846 -0.030479295 0.07469361 0.015605252 0.0084379455
-0.07311592 0.013505936 0.0386988 -0.023695165 -0.19332142 0.024061242 -0.060824096 -0.058050543
0.016075088 -0.030707294 0.04822559 -0.04145465 0.65372473 0.00095714745 -0.034396116 -0.08097624
0.069910355 0.053502973 -0.058016967 -0.06659366 0.018626468 -0.006401374 0.15865982 -0.037818935
0.022526415 0.01851797 0.06985211 -1.2608495 -0.18537137 0.047667097 0.26465806 -0.01829942
0.052732736 -1.8049616 -0.05360103 -0.058634903 -0.017826015 0.052436285 -0.0076213344 0.35440925
0.03761618 -0.7054271 -0.19842327 -1.442756 0.016760105 -0.28563222 0.01620703 0.058069546
-1.0316181 -1.7408642 -0.0418668 -1.0211968 0.06358716 -0.06100801 0.038959812 -0.016544668
-0.039746255 0.035060182 -0.07766703 -1.1067752 -0.03963117 0.026215056 0.9176092 0.017117757
0.08204224 0.059620358 0.76650804 0.051927283 0.050741546 0.61202186 -0.025820928 -0.0009915079
0.002594797 0.06490734 0.056230728 -0.0081081875 0.34750748 0.002698156 0.5945293 -0.0009906879
0.06045059 0.001871918 1.0727932 0.028640335 -0.028486883 -0.9464055 0.033136263 -0.059732027
-0.001059439 -0.06625245 -0.03432468 -1.2105546 -0.07567409 0.017611736 -0.034832634 -0.8801331

fc2.bias f4 [4]
00000000: f1ab a4bd 47e4 a03d 918b c4bd f480 f8bb
-0.08040608 0.078560404 -0.09596933 -0.007583732
