cnn saved models/cnn_epoch3.pt (torch, 609323 bytes, 16 tensors)

conv1.weight f4 [32, 1, 3, 3]
0.31567657 0.27502817 -0.2607023 -0.26829103 -0.13036817 -0.18326727 0.057436086 -0.069603324
0.19882067 0.35650557 0.016668564 0.5079687 0.048228797 0.036407925 0.031808816 0.042551976
0.22348343 -0.13460457 0.1254493 -0.041299663 0.26892403 -0.26009285 -0.35761842 0.079914615
0.12319051 0.255898 -0.34589666 -0.1299453 0.2710996 0.22108665 0.10653534 -0.19174911
-0.27236357 -0.1638798 0.22711843 -0.15500043 -0.035027344 -0.15037356 0.112145014 -0.3256683
0.20463395 0.07258658 0.11949306 0.09558406 -0.08414481 0.22626686 -0.30969414 -0.2074173
0.16182075 0.27207017 0.026863514 -0.3235997 -0.07410194 -0.37976503 0.09909265 -0.10033136
-0.29542026 0.18089361 0.16803907 0.30765572 -0.29782507 -0.0056729256 -0.07494907 0.22646551
-0.2000725 -0.26185763 0.28117296 -0.0040214164 -0.24424393 0.2791543 -0.17300017 0.08335834
0.0281369 0.07359906 -0.5024215 -0.12955469 -0.0836912 0.049699932 0.20719835 0.10675833
0.045355618 0.10226613 -0.27732775 0.35143262 -0.2980468 0.11517302 -0.33004278 0.21826446
0.097547345 -0.17347068 -0.008679702 -0.22247773 -0.0037689505 -0.14810795 0.12893409 -0.3784667
0.26909155 0.23504895 -0.034918297 -0.030572085 0.17943458 -0.18427852 0.09336054 0.14060335
-0.20073234 0.33578485 -0.015497846 -0.14411588 0.31889856 0.11227956 -0.044249464 0.08405545
-0.17561774 -0.07726207 -0.099550165 0.0226604 -0.25627512 -0.25028375 0.097062856 -0.37325242
-0.21679215 0.04019691 0.026173811 0.051319856 0.107813194 0.29149055 0.31624854 -0.343405
-0.06471172 0.22925025 0.18743272 -0.38582873 0.30926654 0.0008033461 -0.32644176 -0.11101245
0.17722748 -0.48534763 0.074760154 -0.2765202 -0.05644611 0.41776422 0.09560268 -0.11876377
0.21848801 0.14968643 -0.307124 -0.038191635 -0.23033622 0.338443 -0.3613211 0.37617987
-0.042132642 -0.24511966 -0.030955698 0.11536643 0.103267744 -0.3434815 -0.335625 0.089938685
0.34812838 0.2706612 -0.016810216 0.3480607 0.047932144 0.0810265 -0.13184132 -0.06728534
-0.035099573 -0.27256274 -0.025174217 0.25231916 0.18080859 0.083951026 -0.5487618 -0.2975298
0.048893154 0.1919661 0.0765205 0.12765957 0.046676844 -0.35715717 0.27629384 -0.19264388
-0.006149108 0.16296032 -0.20366305 0.00044846872 0.2130442 -0.1895191 0.3008796 0.31155035
0.12174709 -0.11990551 -0.25732264 0.087380975 -0.058082324 -0.30330294 0.07221851 0.072234504
-0.25415987 0.4006075 -0.22064959 -0.10744447 -0.31551093 0.1187263 0.26254198 -0.118154205
-0.043480415 0.06740217 -0.057573974 -0.21008386 0.29711616 -0.25651547 0.02532063 0.2973016
-0.2376199 -0.13497393 0.25100043 -0.30393353 -0.06546465 0.25318933 -0.10875414 0.2549638
0.123441555 0.29279664 -0.25600237 -0.07014947 0.28231978 -0.45281923 0.24819134 0.061283827
-0.35342923 0.26221773 -0.10141101 -0.41276348 -0.22184415 0.32496 -0.27840546 -0.044546895
-0.09458617 0.30961418 0.03234543 -0.36283723 -0.25673017 0.08688795 0.014390768 0.021585416
-0.14384158 0.1351156 -0.07515912 0.30333915 -0.3015025 0.23496431 0.42944413 -0.2648507
00000000: 5ca0 a13e 7ed0 8c3e c67a 85be 715d 89be
00000010: 3c7f 05be 6aaa 3bbe 1a42 6b3d 308c 8ebd
00000020: a597 4b3e e687 b63e 838c 883c 3d0a 023f
00000030: 8f8b 453d 7a20 153d f649 023d fb4a 2e3d
00000040: d7d8 643e c8d5 09be c875 003e d629 29bd
00000050: 69b0 893e e42a 85be c319 b7be 46aa a33d
00000060: 4e4b fc3d 1005 833e 5e19 b1be 6110 05be
00000070: 91cd 8a3e 8a64 623e 332f da3d e159 44be
00000080: 3d73 8bbe 1bd0 27be bc91 683e 6fb8 1ebe
00000090: d578 0fbd 87fb 19be 49ac e53d ffbd a6be
000000a0: 908b 513e 46a8 943d c7b8 f43d 93c1 c33d
000000b0: 1d54 acbd 80b2 673e 3b90 9ebe 3365 54be
000000c0: 57b4 253e c84c 8b3e df10 dc3c dcae a5be
000000d0: c2c2 97bd 9070 c2be 16f1 ca3d 877a cdbd
000000e0: 5341 97be 2d3c 393e 6f12 2c3e 0d85 9d3e
000000f0: 877c 98be f3e3 b9bb e67e 99bd 93e6 673e
00000100: cedf 4cbe 3412 86be e7f5 8f3e 16c6 83bb
00000110: 151b 7abe 50ed 8e3e f526 31be c7b7 aa3d
00000120: 5b7f e63c 1bbb 963d b29e 00bf fca9 04be
00000130: 4b66 abbd 2892 4b3d ce2b 543e 1ca4 da3d
00000140: d0c6 393d e870 d13d e7fd 8dbe faee b33e
00000150: 9799 98be d5df eb3d 5efb a8be b880 5f3e
00000160: e7c6 c73d 4ca2 31be 4f35 0ebc 34d1 63be
00000170: 7f00 77bb 9ca9 17be 4c07 043e 63c6 c1be
00000180: 5ec6 893e acb0 703e 7d06 0fbd 4f72 fabc
00000190: b3bd 373e 82b3 3cbe d033 bf3d 53fa 0f3e
000001a0: c78c 4dbe feeb ab3e adea 7dbc 1d93 13be
000001b0: ac46 a33e d3f2 e53d ed3e 35bd 4425 ac3d
000001c0: 23d5 33be 933b 9ebd f5e0 cbbd 4ea2 b93c
000001d0: 7e36 83be 3125 80be e4c8 c63d f11a bfbe
000001e0: c3fe 5dbe 84a5 243d 766a d63c c534 523d
000001f0: 2acd dc3d 403e 953e 54eb a13e c8d2 afbe
00000200: 9487 84bd 94c0 6a3e 5dee 3f3e 588b c5be
00000210: 2f58 9e3e a597 523a 6023 a7be 7f5a e3bd
00000220: 1f7b 353e 7c7f f8be da1b 993d 0e94 8dbe
00000230: 0934 67bd 31e5 d53e 57cb c33d 6b3a f3bd
00000240: 52bb 5f3e 6647 193e 5b3f 9dbe d56e 1cbd
00000250: 42dd 6bbe 6748 ad3e 14ff b8be a69a c03e
00000260: 4793 2cbd a600 7bbe ce96 fdbc 3c45 ec3d
00000270: 0a7e d33d cfdc afbe 0ad7 abbe c631 b83d
00000280: e23d b23e 1b94 8a3e 94b5 89bc 0335 b23e
00000290: 7f54 443d 39f1 a53d 6901 07be e5cc 89bd
000002a0: 92c4 0fbd 588d 8bbe 293a cebc fa2f 813e
000002b0: e325 393e 84ee ab3d a77b 0cbf d355 98be
000002c0: 3044 483d c392 443e c8b6 9c3d 31b9 023e
000002d0: 3830 3f3d 4edd b6be 6376 8d3e 7044 45be
000002e0: 757e c9bb 12df 263e 0c8d 50be 7420 eb39
000002f0: 4228 5a3e 4c11 42be e40c 9a3e 8783 9f3e
00000300: 8a56 f93d 0591 f5bd cbbf 83be ccf4 b23d
00000310: bbe7 6dbd 864a 9bbe 4ce7 933d afef 933d
00000320: 3e21 82be 6d1c cd3e f7f1 61be d90b dcbd
00000330: a68a a1be c626 f33d e76b 863e d5fa f1bd
00000340: 8518 32bd 260a 8a3d b0d2 6bbd 3920 57be
00000350: 9c1f 983e ff55 83be 366d cf3c ea37 983e
00000360: a252 73be 9b36 0abe 2183 803e 2d9d 9bbe
00000370: 5512 86bd 08a2 813e 7eba debd 9d8a 823e
00000380: edce fc3d 71e9 953e be12 83be 86aa 8fbd
00000390: 388c 903e ecd7 e7be df25 7e3e c004 7b3d
000003a0: adf4 b4be 6741 863e 93b0 cfbd bc55 d3be
000003b0: 1d2b 63be 2861 a63e 298b 8ebe ce76 36bd
000003c0: 65b6 c1bd c085 9e3e a47c 043d cdc5 b9be
000003d0: 2372 83be 4ff2 b13d 41c7 6b3c e6d3 b03c
000003e0: 354b 13be be5b 0a3e 06ed 99bd 454f 9b3e
000003f0: 895e 9abe 7c9a 703e 1ae0 db3e 839a 87be

conv1.bias f4 [32]
0.12988265 0.20880277 0.3464052 -0.12268963 0.23791908 0.22264561 0.22771752 0.24655886
0.24040347 0.1314658 0.16259058 0.18834181 0.255691 0.14129889 0.092742406 -0.21591757
0.08037849 0.4263601 -0.39974856 0.0771553 0.23747845 -0.12651655 0.3984093 -0.07967487
0.22274834 0.07082782 -0.22114031 0.1039306 0.19617346 0.0012002403 -0.32826084 0.100725606
00000000: f5ff 043e 65d0 553e 065c b13e b344 fbbd
00000010: 0fa1 733e 36fd 633e c82e 693e ed79 7c3e
00000020: 542c 763e f89e 063e 257e 263e addc 403e
00000030: eee9 823e a8b0 103e bbef bd3d 7f19 5dbe
00000040: 7a9d a43d df4b da3e d8ab ccbe 9903 9e3d
00000050: 8d2d 733e 8e8d 01be 4efc cb3e 942c a3bd
00000060: 2418 643e 2d0e 913d 9b72 62be 91d9 d43d
00000070: b2e1 483e 6251 9d3a ce11 a8be 3a49 ce3d

BN1.weight f4 [32]
1.1916791 0.51699656 1.0204302 0.9028775 0.90270376 0.83753663 1.1491725 1.1355295
0.88092136 0.90009177 0.9164505 0.5604434 0.9639484 0.9271738 1.0318278 0.8799961
0.83011645 0.61129564 0.8316769 0.74164313 1.0056098 0.9090844 1.0605023 0.9578158
0.92010564 1.2989631 0.87391466 0.96698135 1.0291423 0.93252033 0.9848881 0.89857095
00000000: f188 983f e359 043f 759d 823f fb22 673f
00000010: 9817 673f cd68 563f 1618 933f 0859 913f
00000020: 1084 613f 6a6c 663f 809c 6a3f 3879 0f3f
00000030: 53c5 763f 435b 6d3f ef12 843f 6d47 613f
00000040: 8382 543f df7d 1c3f c7e8 543f 53dc 3d3f
00000050: d2b7 803f c1b9 683f 8abe 873f 6b33 753f
00000060: 0b8c 6b3f 6c44 a63f dfb8 5f3f 178c 773f
00000070: efba 833f a7b9 6e3f a021 7c3f bf08 663f

BN1.bias f4 [32]
-0.17891498 -0.12920746 -0.23784618 -0.17166996 -0.42424685 -0.27386755 -0.14868848 -0.04684906
-0.36489117 -0.3165537 -0.37189007 -0.14327179 -0.12788585 -0.27871934 -0.174132 -0.49478185
-0.6633749 -0.16196056 -0.2570737 -0.4692983 -0.2600091 -0.26032707 -0.83373195 -0.089812554
-0.033090737 -0.26061088 -0.42608678 -0.13900298 -0.13493724 -0.07789394 -0.37495974 -0.206124
00000000: 7d35 37be f64e 04be f38d 73be 40ca 2fbe
00000010: e236 d9be 5e38 8cbe cb41 18be cde4 3fbd
00000020: 04d3 babe 5413 a2be 6068 bebe d7b5 12be
00000030: 82f4 02be 4db4 8ebe a94f 32be 0c54 fdbe
00000040: f0d2 29bf fdd8 25be 2a9f 83be de47 f0be
00000050: ea1f 85be 9749 85be 756f 55bf a5ef b7bd
00000060: 278a 07bd ca6e 85be 0c28 dabe cc56 0ebe
00000070: fd2c 0abe dc86 9fbd b9fa bfbe 2b12 53be

BN1.running_mean f4 [32]
0.116588384 0.4117916 0.31616727 -0.13780928 0.23976095 0.11693309 0.2270318 0.24343
0.20356536 0.09515312 0.13274346 0.22101504 0.2355916 0.100362375 0.07899409 -0.26681402
0.09985196 0.41849104 -0.411714 0.09377501 0.22549285 -0.14488395 0.40368962 -0.08071895
0.22719838 0.070772864 -0.3098092 0.052421596 0.1764974 -0.041690454 -0.32243073 0.08297732
00000000: e4c5 ee3d 59d6 d23e ade0 a13e e01d 0dbe
00000010: e583 753e 9e7a ef3d 067b 683e b745 793e
00000020: 7073 503e a4df c23d e7ed 073e c451 623e
00000030: ed3e 713e ca8a cd3d a7c7 a13d d99b 88be
00000040: 2f7f cc3d 7544 d63e 2dcc d2be 1d0d c03d
00000050: 99e7 663e 755c 14be 68b0 ce3e fa4f a5bd
00000060: b1a6 683e 5df1 903d 509f 9ebe 07b8 563d
00000070: bcbb 343e 9cc3 2abd a415 a5be 03f0 a93d

BN1.running_var f4 [32]
0.0019234219 0.0444626 0.0030769233 0.0020552175 0.00041032056 0.0133126965 0.0019962422 0.0027503395
0.004500015 0.0028063382 0.004384577 0.0021456713 0.0033085584 0.0062462264 0.0029531147 0.007269224
0.00087261316 0.0049958196 0.0027566305 0.0032672412 0.0011295349 0.0034234198 0.00067090365 0.0012174597
0.0022206001 0.0013251659 0.013161041 0.0066061625 0.00470399 0.0051457984 0.0005550317 0.007871266
00000000: 541b fc3a 6a1e 363d 35a6 493b d4b0 063b
00000010: 4b20 d739 7f1d 5a3c 63d3 023b 0a3f 343b
00000020: dd74 933b 8bea 373b 7fac 8f3b 649e 0c3b
00000030: 66d4 583b 25ad cc3b 0b89 413b ac32 ee3b
00000040: 14c0 643a f9b3 a33b 96a8 343b 361f 563b
00000050: e70c 943a 745b 603b 95df 2f3a 2b93 9f3a
00000060: 7d87 113b 30b1 ad3a 68a1 573c 8278 d83b
00000070: ee23 9a3b 169e a83b 8c7f 113a 7cf6 003c

conv2.weight f4 [64, 32, 3, 3]
-0.09898128 0.07276511 -0.11425407 0.02229096 0.018940773 -0.19495869 -0.044554785 0.092844084
-0.09190783 -0.03751279 -0.015446133 0.013935421 -0.04398774 -0.12092297 -0.06579656 0.06766357
0.048477266 0.023050187 0.03172006 0.08846354 0.04298049 -0.07549854 -0.05934579 -0.07515304
-0.056994528 0.059363518 0.15672942 -0.18833084 0.14570002 0.00864969 -0.23172489 0.11408135
-0.041094344 -0.03633749 0.20928302 0.13301925 0.08795064 -0.064399295 -0.10508304 -0.045539297
-0.11252316 -0.071211815 -0.015742054 -0.010864328 0.0523968 -0.12231357 -0.054757982 -0.10318015
-0.0021613825 -0.014934713 0.017770443 0.1675059 0.1286627 0.0968685 0.11140716 0.08627373
-0.13369858 -0.007116564 0.08095222 0.15119986 -0.16752218 -0.13839905 -0.22742686 -0.07634795
0.030965565 -0.0066875378 0.0214616 0.014934571 -0.050976492 0.04267513 0.068424806 0.14887735
-0.10720511 0.0007770216 -0.08462642 -0.03686461 0.08321326 0.005007372 -0.07304729 0.04327527
-0.04506503 -0.08423314 -0.089305066 -0.22916098 -0.1496019 -0.016408188 -0.052650634 -0.11179008
-0.12246951 -0.15335144 0.25115788 0.20781921 0.14265646 0.035798516 0.12637596 0.12388727
-0.091213524 0.0023323002 0.031564634 -0.1050695 0.0044721486 -0.014096705 -0.024891406 0.06272787
0.0003226026 0.07561369 0.06343088 0.07541865 -0.07560097 0.05164826 -0.066344865 0.1586936
0.02852727 -0.21414481 -0.058453493 0.07239421 0.13310987 -0.00075361674 -0.08811904 -0.14306496
0.00316431 0.044169616 -0.01564803 -0.045708433 0.107093476 0.062418524 -0.1128392 -0.0165395
-0.047268838 0.073938675 0.0054295654 -0.1709376 -0.044555034 0.057391517 0.050108228 -0.07173558
0.044661585 -0.14286144 -0.06825217 0.074260935 0.04116104 -0.076278426 0.021081727 -0.0876922
-0.24197634 -0.17359969 -0.18035339 0.098266296 0.08962345 -0.03268789 -0.14346537 -0.03594418
0.054806635 0.21446635 0.12314818 0.20904255 0.03634621 0.07644765 0.10662937 0.05835586
0.107038245 0.05972597 -0.08399939 0.028835168 0.13265572 -0.08760675 -0.26163477 -0.29055163
0.07242137 0.08003247 0.11840417 -0.14686756 -0.009615419 -0.015350675 -0.04916542 -0.09840068
-0.12450868 -5.9685193e-05 -0.0321619 0.083577506 0.20943744 -0.0020515718 -0.12011202 -0.16378562
-0.12929893 -0.11616942 0.010580301 0.013369841 -0.026069535 0.08185237 0.22627431 0.23051289
-0.1442304 -0.007086465 -0.01763215 0.020906307 0.22805467 0.16541165 -0.010103912 0.09667815
0.14968003 -0.12745473 -0.16445081 -0.063247524 0.03609937 -0.10902883 -0.04579658 0.05724391
0.00019069265 0.011399414 -0.1288553 -0.068963766 -0.12858965 -0.11595571 -0.022085514 -0.061668836
0.10008418 0.035034902 0.10622371 -0.081208155 -0.08997893 0.003574673 -0.02007248 0.040726803
0.0822304 0.02659734 -0.136202 -0.16534051 -0.025227733 -0.06092724 -0.008593532 -0.2944785
-0.38863522 -0.39416093 -0.16256616 -0.13936254 -0.15508933 -0.17953269 -0.08966041 -0.1028751
-0.18392074 -0.206868 -0.21761955 -0.06799248 -0.13412319 -0.29196426 0.039879125 0.015825974
0.08390561 -0.025675124 0.034564923 0.042663243 -0.03343928 0.09968159 0.24880119 -0.09074351
00000000: b3b6 cabd e005 953d 0afe e9bd 889b b63c
00000010: ae29 9b3c 40a3 47be 147f 36bd 0a25 be3d
00000020: 2c3a bcbd 03a7 19bd c711 7dbc 6451 643c
00000030: 7d2c 34bd 76a6 f7bd 59c0 86bd 3393 8a3d
00000040: 1990 463d bfd3 bc3c e5ec 013d 5f2c b53d
00000050: 4f0c 303d fb9e 9abd 9214 73bd d6e9 99bd
00000060: 1873 69bd 2927 733d ad7d 203e cdd9 40be
00000070: 6332 153e 6eb7 0d3c 4a49 6dbe 7ca3 e93d
00000080: 8b52 28bd 9fd6 14bd 4a4e 563e 3336 083e
00000090: 771f b43d c7e3 83bd c735 d7bd 6a87 3abd
000000a0: 8b72 e6bd 80d7 91bd 7bf5 80bc 4b00 32bc
000000b0: 079e 563d 897f fabd e849 60bd 1d50 d3bd
000000c0: fba5 0dbb bab0 74bc 5293 913c ab86 2b3e
000000d0: 28c0 033e fe62 c63d 7029 e43d 48b0 b03d
000000e0: 48e8 08be 1132 e9bb 47ca a53d 23d4 1a3e
000000f0: ef8a 2bbe 7bb8 0dbe 96e2 68be 505c 9cbd
00000100: 7fab fd3c 2223 dbbb 3dd0 af3c 22b0 743c
00000110: bacc 50bd 1ecc 2e3d 4e22 8c3d 4e73 183e
00000120: 5a8e dbbd 09b1 4b3a 9e50 adbd 58ff 16bd
00000130: b76b aa3d e114 a43b d199 95bd 6941 313d
00000140: 1c96 38bd 6d82 acbd 93e5 b6bd 2da9 6abe
00000150: 3e31 19be 776a 86bc 31a8 57bd 33f2 e4bd
00000160: 4bd1 fabd 2908 1dbe c497 803e 8fce 543e
00000170: 8914 123e 77a1 123d b368 013e 9cb8 fd3d
00000180: 28ce babd 81d9 183b eb49 013d ae2e d7bd
00000190: 1a8b 923b def5 66bc 10e9 cbbc 7877 803d
000001a0: fd22 a939 5adb 9a3d 0de8 813d 1875 9a3d
000001b0: aed4 9abd 208d 533d d1df 87bd 9380 223e
000001c0: 05b2 e93c c748 5bbe ee6c 6fbd 6a43 943d
000001d0: f44d 083e 5d8e 45ba c177 b4bd 9f7f 12be
000001e0: 5060 4f3b 33eb 343d 4c30 80bc c438 3bbd
000001f0: d353 db3d 91aa 7f3d 3d18 e7bd d87d 87bc
00000200: f89c 41bd 296d 973d 7fea b13b 440a 2fbe
00000210: 577f 36bd 5e13 6b3d 493e 4d3d 1bea 92bd
00000220: 11ef 363d 454a 12be cbc7 8bbd 1e16 983d
00000230: 7b98 283d dd37 9cbd 96b3 ac3c f897 b3bd
00000240: a5c8 77be 1ec4 31be 8fae 38be d73f c93d
00000250: 808c b73d bde3 05bd 96e8 12be 343a 13bd
00000260: ec7c 603d 119d 5b3e 1d35 fc3d 400f 563e
00000270: c3df 143d 9690 9c3d 8060 da3d 8e06 6f3d
00000280: de36 db3d 38a3 743d df07 acbd bb37 ec3c
00000290: e7d6 073e 2b6b b3bd fef4 85be 2fc3 94be
000002a0: a851 943d 10e8 a33d e37d f23d 7364 16be
000002b0: fe89 1dbc 6681 7bbc ae61 49bd 4c86 c9bd
000002c0: 68fe febd 7d56 7ab8 32bc 03bd af2a ab3d
000002d0: c576 563e aa73 06bb 4afd f5bd 6bb7 27be
000002e0: f066 04be 3cea edbd 0059 2d3c 2d0d 5b3c
000002f0: c78f d5bc 37a2 a73d 74b4 673e 920b 6c3e
00000300: 22b1 13be 9435 e8bb 4c71 90bc b443 ab3c
00000310: 2a87 693e ac61 293e e18a 25bc 32ff c53d
00000320: b945 193e 7e83 02be cb65 28be eb87 81bd
00000330: efdc 133d 824a dfbd 3295 3bbd 9778 6a3d
00000340: abf4 4739 9cc4 3a3c a5f2 03be e03c 8dbd
00000350: 01ad 03be 307a edbd aeec b4bc 7698 7cbd
00000360: eff8 cc3d c280 0f3d d18b d93d 7650 a6bd
00000370: e046 b8bd 1045 6a3b 0b6f a4bc 26d1 263d
00000380: 6968 a83d aae2 d93c 8978 0bbe 064f 29be
00000390: 64aa cebc d78e 79bd e3cb 0cbc e3c5 96be
000003a0: 32fb c6be 76cf c9be be77 26be 0eb5 0ebe
000003b0: bdcf 1ebe 6bd7 37be e19f b7bd 2eb0 d2bd
000003c0: b855 3cbe 34d5 53be a9d7 5ebe a43f 8bbd
000003d0: 9757 09be 577c 95be 4b58 233d 79a5 813c
000003e0: b4d6 ab3d a354 d2bc f393 0d3d a7bf 2e3d
000003f0: a0f7 08bd dd25 cc3d bdc5 7e3e bcd7 b9bd

conv2.bias f4 [64]
0.04563966 0.010401488 -0.015359293 0.0015089872 0.02116166 0.0007304333 0.022742476 0.072060995
0.004669279 -0.03958456 0.009287935 0.017728183 0.05928461 -0.023663301 0.018168742 -0.039561108
0.021092268 -0.081102915 -0.029414205 0.017271062 0.11997817 0.01585146 -0.035109736 -0.026878463
-0.021999579 0.033552844 0.0012317734 0.04873193 -0.035780758 0.03186739 0.022010716 0.09027557
0.017837266 0.0038817872 0.03355102 -0.05539681 0.0077317785 0.013475723 -0.05716779 -0.06335543
0.035373196 -0.026473865 -0.010480188 -0.010129791 -0.01784059 0.022773448 0.01521441 -0.07078379
0.010174448 0.0047132713 -0.045554396 0.018537315 0.03351263 0.030908745 0.047756728 0.089380234
0.0050630695 0.010100661 -0.0051996955 -0.014642152 0.062984414 0.0148616675 0.0057550683 -0.01688852
00000000: a7f0 3a3d 016b 2a3c 8ba5 7bbc 35c9 c53a
00000010: 385b ad3c 8d7a 3f3a 6e4e ba3c b794 933d
00000020: c000 993b 6b23 22bd 6c2c 183c b23a 913c
00000030: 6bd4 723d 8ad9 c1bc 9dd6 943c d40a 22bd
00000040: b1c9 ac3c 4919 a6bd 0ff6 f0bc 0b7c 8d3c
00000050: 1db7 f53d ecda 813c 3acf 0fbd 3930 dcbc
00000060: 7638 b4bc b56e 093d 7573 a13a 229b 473d
00000070: d88e 12bd 6187 023d d14f b43c 66e2 b83d
00000080: 751f 923c 9565 7e3b cb6c 093d c4e7 62bd
00000090: dc5a fd3b 47c9 5c3c c628 6abd 7ec0 81bd
000000a0: 7ce3 103d b8df d8bc 18b5 2bbc 6cf7 25bc
000000b0: 6e26 92bc 628f ba3c dc45 793c 17f7 90bd
000000c0: bab2 263c c971 9a3b 3f97 3abd 91db 973c
000000d0: 8a44 093d 5634 fd3c 8f9c 433d fc0c b73d
000000e0: 1be8 a53b 3e7d 253c 3562 aabb a3e5 6fbc
000000f0: f9fd 803d 5a7e 733c 0395 bc3b cb59 8abc

BN2.weight f4 [64]
1.1793349 1.0883049 1.1579863 1.0960234 0.9706696 1.170726 0.8829363 1.035544
1.096375 1.2345271 1.05653 1.0441298 1.1988001 1.1616868 1.1384825 1.0538503
1.1831046 1.1228459 1.2246333 1.5002891 1.0970312 1.0174165 1.4334108 1.1070298
1.1288472 1.6958758 1.0366776 1.245186 1.1629453 1.128462 1.1848984 1.035109
1.0888029 1.0004023 1.0467006 1.273898 1.2498877 0.97130644 0.9389582 1.1245401
1.0823538 0.98885894 1.003685 1.2186557 1.3129153 1.1955407 1.1160129 1.0023813
1.3715694 1.1525059 0.9980932 0.99900436 1.1970322 0.9763645 1.1716198 1.1383107
1.100487 1.3269509 1.0578113 0.96864694 1.1386559 1.230735 1.1701378 1.2165425
00000000: 72f4 963f 934d 8b3f e538 943f 7f4a 8c3f
00000010: ce7d 783f 59da 953f 1d08 623f b58c 843f
00000020: 0456 8c3f fc04 9e3f 603c 873f 0ca6 853f
00000030: 4872 993f 27b2 943f cbb9 913f 91e4 863f
00000040: f96f 973f 6ab9 8f3f c9c0 9c3f 7909 c03f
00000050: 856b 8c3f b43a 823f 017a b73f 27b3 8d3f
00000060: 117e 903f 7512 d93f dab1 843f 4162 9f3f
00000070: 64db 943f 7171 903f c0aa 973f 747e 843f
00000080: e55d 8b3f 2f0d 803f 49fa 853f 170f a33f
00000090: 52fc 9f3f 8aa7 783f 915f 703f eef0 8f3f
000000a0: 928a 8a3f dc25 7d3f c078 803f e9fc 9b3f
000000b0: 9c0d a83f 7a07 993f 83d9 8e3f 084e 803f
000000c0: 968f af3f 5085 933f 0983 7f3f c0be 7f3f
000000d0: 5a38 993f 06f3 793f a3f7 953f 2ab4 913f
000000e0: c2dc 8c3f 87d9 a93f 5c66 873f 3ff9 773f
000000f0: 7abf 913f b988 9d3f 13c7 953f aab7 9b3f

BN2.bias f4 [64]
-0.4053373 -0.2667489 -0.42996705 -0.3244678 -0.32928678 -0.3968143 -0.25860128 -0.3597254
-0.37284166 -0.4692645 -0.23477368 -0.34526223 -0.3625424 -0.34664154 -0.31429645 -0.3716834
-0.355057 -0.41482237 -0.47477138 -0.69787806 -0.30783555 -0.47809297 -0.6110065 -0.32237673
-0.30498818 -0.51806766 -0.48281246 -0.37168542 -0.4577361 -0.36962843 -0.3464355 -0.3083294
-0.40960547 -0.36554533 -0.29942656 -0.29158738 -0.3412818 -0.29377556 -0.14476936 -0.40067443
-0.2834731 -0.2768876 -0.32786736 -0.6165493 -0.34351966 -0.35461193 -0.40517026 -0.39963716
-0.28868592 -0.29465464 -0.34476593 -0.426958 -0.44627425 -0.15571302 -0.38148665 -0.29668665
-0.22159629 -0.46241918 -0.36820358 -0.30049533 -0.37514824 -0.41976702 -0.39330417 -0.41693094
00000000: 5f88 cfbe 5093 88be a424 dcbe a520 a6be
00000010: 4798 a8be 3e2b cbbe 6367 84be ed2d b8be
00000020: 1ae5 bebe 7043 f0be 8368 70be 36c6 b0be
00000030: 289f b9be 007b b1be 77eb a0be 494d bebe
00000040: 08ca b5be 9963 d4be 3c15 f3be 23a8 32bf
00000050: 9f9c 9dbe 9ac8 f4be ec6a 1cbf 900e a5be
00000060: 6927 9cbe 15a0 04bf 3233 f7be 8d4d bebe
00000070: 635c eabe f03f bdbe fe5f b1be 5add 9dbe
00000080: cfb7 d1be c228 bbbe 704e 99be f14a 95be
00000090: 7dbc aebe c069 96be 6b3e 14be 3325 cdbe
000000a0: 6323 91be 36c4 8dbe 3bde a7be 2dd6 1dbf
000000b0: cfe1 afbe b28f b5be 7a72 cfbe 3e9d ccbe
000000c0: a4ce 93be f9dc 96be 2985 b0be 3d9a dabe
000000d0: 0f7e e4be 3c73 1fbe 3852 c3be 50e7 97be
000000e0: 23ea 62be 35c2 ecbe 2e85 bcbe 86da 99be
000000f0: 6e13 c0be b4eb d6be 2a5f c9be f977 d5be

BN2.running_mean f4 [64]
-0.5780316 -1.1205801 -0.3862095 -0.9038315 -1.2510284 -0.13347033 -0.29819357 -0.9421893
-0.45832843 -0.4493752 -1.34806 -1.1499838 -0.49727005 -0.5592589 -0.06885861 0.07038266
-0.050338928 -1.2888424 -0.13105547 -0.1513021 -1.1634749 -0.9266392 -0.20796703 -0.69129384
-0.5995433 -0.12244122 -0.73694867 -0.63799274 -0.12916647 -0.43774098 -0.74970424 -0.5849922
-0.4060487 -0.3658265 -1.1914814 -0.5067602 -0.30031037 -1.6033763 -0.17627147 0.012876466
-0.8170657 -0.7832722 -0.81269884 -0.13129532 -0.44123647 -0.3988132 -0.3474975 -0.6407427
-0.20137192 -0.3172207 -1.2013714 -0.92328775 -0.3731922 0.10641377 -0.38367 0.090496205
-1.4253333 -0.2716586 -1.6111807 -1.1978568 -0.17390475 -0.44349164 -0.55518734 0.14476067
00000000: e1f9 13bf 2b6f 8fbf 40bd c5be 8061 67bf
00000010: b321 a0bf 72ac 08be d4ac 98be 5133 71bf
00000020: 06aa eabe 8214 e6be 3b8d acbf ab32 93bf
00000030: 2e9a febe 972b 0fbf be05 8dbd c924 903d
00000040: 3130 4ebd caf8 a4bf 6833 06be f0ee 1abe
00000050: bfec 94bf 3a38 6dbf 4ff5 54be a2f8 30bf
00000060: ab7b 19bf 76c2 fabd aba8 3cbf 7e53 23bf
00000070: 3744 04be 961f e0be 9eec 3fbf 0cc2 15bf
00000080: 9de5 cfbe 9c4d bbbe 7682 98bf 09bb 01bf
00000090: 48c2 99be 6f3b cdbf 8280 34be d0f7 523c
000000a0: 382b 51bf 8784 48bf 080d 50bf 4872 06be
000000b0: bfe9 e1be 3e31 ccbe 31eb b1be b707 24bf
000000c0: 7134 4ebe c06a a2be 8ac6 99bf 965c 6cbf
000000d0: 0c13 bfbe 76ef d93d 6570 c4be 1356 b93d
000000e0: 5271 b6bf d616 8bbe 2b3b cebf 5f53 99bf
000000f0: 1614 32be 5611 e3be c220 0ebf 243c 143e

BN2.running_var f4 [64]
1.6519626 4.78498 3.0801344 2.7247632 2.8918114 1.243651 4.378273 3.1693745
2.7109766 2.71567 6.200516 4.1460032 2.160727 1.504903 4.0987806 2.447173
1.4388521 2.6989996 0.5504686 0.47181132 4.4853086 2.8233666 0.5120473 3.6213825
3.826757 0.7074116 1.6643603 2.8237298 1.6082401 2.326117 3.873724 2.6287403
1.4100199 1.6497416 3.8138046 2.4175947 2.607195 5.158154 4.272183 1.2672558
4.3298755 3.3536777 3.0153573 0.43963614 2.0099182 2.0930336 1.402685 2.6069345
3.4441633 3.5482202 2.2141013 2.7509003 1.6348598 4.18438 1.9937272 1.2106898
6.2492495 1.7502868 4.0261188 4.2566543 1.0805722 1.5001701 2.208129 1.146541
00000000: 8373 d33f 8e1e 9940 ec20 4540 8562 2e40
00000010: 7013 3940 f52f 9f3f d01a 8c40 08d7 4a40
00000020: a480 2d40 8acd 2d40 a16a c640 0fac 8440
00000030: 5a49 0a40 a9a0 c03f 3629 8340 7c9e 1c40
00000040: 4e2c b83f 69bc 2c40 83eb 0c3f 4191 f13e
00000050: a687 8f40 0ab2 3440 8815 033f bbc4 6740
00000060: 96e9 7440 ed18 353f c209 d53f fdb7 3440
00000070: d0da cd3f 1adf 1440 18eb 7740 483d 2840
00000080: 887b b43f bc2a d33f 6015 7440 dfb9 1a40
00000090: 48dc 2640 990f a540 b9b5 8840 7035 a23f
000000a0: 578e 8a40 a8a2 5640 9dfb 4040 fd17 e13e
000000b0: 80a2 0040 43f4 0540 2f8b b33f 04d8 2640
000000c0: 2c6d 5c40 0a16 6340 d6b3 0d40 c00e 3040
000000d0: 1643 d13f 71e6 8540 7432 ff3f e2f7 9a3f
000000e0: daf9 c740 6609 e03f f7d5 8040 8336 8840
000000f0: 3150 8a3f 9305 c03f fc51 0d40 dbc1 923f

fc1.weight f4 [128, 1024]
-0.0013794283 -0.03071892 -0.012555347 -0.020488491 -0.00078105176 -0.009513141 -0.03547275 -0.007853119
-0.029326625 -0.017449105 0.009207134 0.023725988 0.005390879 0.017481465 0.019017946 -0.035462484
-0.012611282 -0.013438031 0.009495336 -0.015995976 -0.0006753754 -0.010362061 -0.012299116 0.013813245
0.013892157 -0.007868636 -0.028206194 0.004391563 -0.0016448444 -0.027991733 -0.018988393 0.0031031088
0.0010460888 -0.02276056 0.015338772 -0.015340787 0.0121873235 -0.0200361 -0.02922228 0.0016071543
0.02463431 0.013198701 -0.021127932 -0.03000736 -0.013014363 -0.017011201 0.006063958 -0.0343745
-0.016604798 -0.010441827 0.014904053 0.006053587 0.022328883 -0.0046937075 -0.019620784 0.0021138922
-0.0025178343 -0.03294417 -0.026199473 -0.031164104 -0.013302252 -0.03380005 -0.002069263 0.013822817
0.009853566 0.022872452 -0.016180195 -0.021814192 -0.005158855 -0.0073632584 0.019485448 -0.03387704
-0.036590748 -0.029991066 -0.019787678 0.010287367 -0.013998146 0.0048903953 -0.028832646 0.024681816
0.0027254398 0.0029000773 0.024241181 0.008411535 0.0045713484 -0.008011166 0.0020678435 -0.008217371
-0.005177515 -0.027253607 0.01799752 0.010446023 -0.022644795 0.018306304 -0.02273144 -0.009252847
-0.016466603 0.009232698 0.002878606 -0.020208407 0.0044673057 0.0059954384 -0.0014711764 0.010313295
-0.01060589 0.010492986 0.023361342 -0.019258037 0.0074900035 0.007210709 -0.0056204973 -0.014599528
0.009251049 0.011218656 0.015163276 -0.011705279 -0.033552196 -0.016986892 -0.03414555 0.02395109
-0.035359345 0.01163664 -0.025785416 -0.032256234 0.009953532 -0.03037639 -0.028011668 0.001220467
-0.03193786 0.019503139 -0.0013190999 -0.0058554416 0.022073725 -0.020862034 -0.023226002 -0.003225331
0.013300852 0.00038775094 0.009406554 -0.036122274 -0.01173711 -0.00047752052 0.010321811 -0.02107967
-0.021982431 -0.0017319027 -0.01009959 -0.015610171 0.018285586 -0.020694602 0.008561692 0.018386828
-0.021444617 0.017410483 0.0059444997 -0.004077379 -0.034478027 0.0040289117 0.01933911 -0.00876382
0.018492866 -0.0063155396 -0.013261183 -0.014655858 -0.008151379 -0.018945679 -0.0053305766 -0.006387784
-0.03203619 -0.020590773 0.022802133 -0.0058823857 -0.0060385605 0.009442328 0.01798272 -0.03693626
-0.035070315 -0.00852266 -0.01726651 -0.031892203 -0.030344002 0.006231367 0.0109011205 -0.007877199
-0.0036346014 -0.028007256 -0.027321374 -0.033126365 -0.007439348 -0.03566368 -0.0064324546 0.01649391
-0.017654981 -0.03224951 -0.024234785 0.0087488545 -0.024018975 -0.023523457 -0.022016663 -0.02163998
0.018063935 -0.015755754 0.022940483 0.008694423 -0.010655363 -0.03161459 0.017120948 0.02100808
-0.009894612 0.019331452 -0.011685158 -0.03328361 -0.035317827 -0.016207661 0.0045612818 0.015553012
0.020890562 0.023256281 0.005990676 -0.031841874 0.0055995504 -0.007570959 -0.012964621 0.019155094
-0.006686675 -0.02204469 0.021876158 0.011916981 -0.0015469141 0.018222328 -0.03053108 -0.0063742492
-0.032486588 -0.0027445464 0.0029218758 -0.0010494686 -0.03214438 -0.026310159 -0.034509763 0.02008757
-0.01891657 0.017738102 -0.030654658 -0.0010939797 0.022138914 -0.012189849 -0.027341135 -0.010001719
0.0044646217 -0.011800499 0.002781561 -0.0038906913 -0.031085286 -0.0102558555 -0.018137617 0.021473467
00000000: efcd b4ba 3fa6 fbbc f1b4 4dbc 7bd7 a7bc
00000010: 7fbf 4cba 01dd 1bbc e04b 11bd 5eaa 00bc
00000020: 643e f0bc 6df1 8ebc 85d9 163c 015d c23c
00000030: f9a5 b03b 4a35 8f3c 86cb 9b3c 1c41 11bd
00000040: 8d9f 4ebc 302b 5cbc 5392 1b3c fe09 83bc
00000050: ad0b 31ba a2c5 29bc 3b82 49bc f350 623c
00000060: ee9b 633c 74eb 00bc ad10 e7bc 1ae7 8f3b
00000070: d297 d7ba eb4e e5bc 8c8d 9bbc 875d 4b3b
00000080: ea1c 893a 5b74 babc 794f 7b3c ed57 7bbc
00000090: 57ad 473c bf22 a4bc 9063 efbc 26a7 d23a
000000a0: e4cd c93c 5d3f 583c 7c14 adbc ffd1 f5bc
000000b0: 323a 55bc 135b 8bbc 2bb4 c63b 47cc 0cbd
000000c0: c906 88bc 3214 2bbc 2130 743c 2b5d c63b
000000d0: 10eb b63c accd 99bb c4bb a0bc 3a89 0a3b
000000e0: 4002 25bb 77f0 06bd 47a0 d6bc dd4b ffbc
000000f0: b0f1 59bc ec71 0abd 799c 07bb 1979 623c
00000100: da70 213c 025f bb3c 548c 84bc adb3 b2bc
00000110: 9d0b a9bb 7d47 f1bb f29f 9f3c a7c2 0abd
00000120: 2ee0 15bd d3af f5bc c519 a2bc 588c 283c
00000130: 7b58 65bc 9c3f a03b 7132 ecbc 8531 ca3c
00000140: 4b9d 323b 390f 3e3b 7195 c63c 89d0 093c
00000150: 40cb 953b 4441 03bc a884 073b 27a2 06bc
00000160: 25a8 a9bb f542 dfbc 896f 933c cc25 2b3c
00000170: 9481 b9bc 1af7 953c 4937 babc 4199 17bc
00000180: f8e4 86bc be44 173c ffa6 3c3b 1a8c a5bc
00000190: 7a62 923b 6275 c43b 7dd4 c0ba 18f9 283c
000001a0: 54c4 2dbc c6ea 2b3c 4960 bf3c 08c3 9dbc
000001b0: b46e f53b d047 ec3b 262c b8bb dc32 6fbc
000001c0: b691 173c 74ce 373c 646f 783c 80c7 3fbc
000001d0: 076e 09bd 1828 8bbc 34dc 0bbd 1435 c43c
000001e0: f6d4 10bd 9ba7 3e3c f03b d3bc 1d1f 04bd
000001f0: 2414 233c e8d7 f8bc ba78 e5bc 14f8 9f3a
00000200: 46d1 02bd 0cc5 9f3c a6e5 acba 01df bfbb
00000210: f5d3 b43c dbe6 aabc 7544 bebc 1360 53bb
00000220: d1eb 593c 0d4b cb39 f21d 1a3c f3f4 13bd
00000230: 024d 40bc b85b fab9 d01c 293c 46af acbc
00000240: 8014 b4bc 0301 e3ba c078 25bc cdc1 7fbc
00000250: a7cb 953c ba87 a9bc 5746 0c3c f99f 963c
00000260: 9fac afbc 6ea0 8e3c 14ca c23b 899b 85bb
00000270: d538 0dbd f604 843b 0e6d 9e3c 2096 0fbc
00000280: 5a7e 973c 96f2 cebb 6f45 59bc 201f 70bc
00000290: 5d8d 05bc f833 9bbc 1eac aebb 9e50 d1bb
000002a0: 6138 03bd fbad a8bc 8acb ba3c 07c1 c0bb
000002b0: 1edf c5bb feb3 1a3c 7f50 933c 7a4a 17bd
000002c0: e4a5 0fbd a0a2 0bbc 7f72 8dbc 66a1 02bd
000002d0: fc93 f8bc 7f30 cc3b 9d9a 323c 5e0f 01bc
000002e0: 7e32 6ebb 796f e5bc 13d1 dfbc 83af 07bd
000002f0: c6c5 f3bb 1414 12bd 57c7 d2bb 3d1e 873c
00000300: 2ea1 90bc 1018 04bd 0788 c6bc 5b57 0f3c
00000310: 71c3 c4bc 44b4 c0bc 4a5c b4bc 5446 b1bc
00000320: d1fa 933c 3612 81bc aeed bb3c 0e73 0e3c
00000330: d593 2ebc 4d7e 01bd 3b41 8c3c 2319 ac3c
00000340: 031d 22bc fe5c 9e3c 1b73 3fbc 6554 08bd
00000350: 6da9 10bd eec5 84bc ce76 953b 0fd2 7e3c
00000360: af22 ab3c f583 be3c 6f4d c43b a06c 02bd
00000370: 6f7c b73b cf15 f8bb 9069 54bc 25eb 9c3c
00000380: e51b dbbb 1197 b4bc a135 b33c 713f 433c
00000390: d3c1 caba fe46 953c 511c fabc 14df d0bb
000003a0: a810 05bd d9dd 33bb f17c 3f3b 538e 89ba
000003b0: d3a9 03bd 6788 d7bc 1c5a 0dbd b08e a43c
000003c0: ecf6 9abc 7f4f 913c 7a1f fbbc de63 8fba
000003d0: ab5c b53c efb7 47bc 84fa dfbc 40de 23bc
000003e0: f64b 923b e156 41bc da4a 363b f8fa 7ebb
000003f0: 92a6 febc 2d08 28bc 5795 94bc 20e9 af3c

fc1.bias f4 [128]
0.0102592455 -0.012652707 0.11030658 0.04333616 0.006766152 0.024286177 0.0012751527 -0.035473045
-0.0154196285 0.002154832 0.01964014 0.03747786 0.013641885 -0.03132205 -0.06933626 0.0063856407
-0.025155373 -0.018046916 -0.017341942 -0.03576347 -0.03530801 -0.01364204 0.15210235 0.01797998
0.021824844 0.1244576 -0.020208774 0.014488511 -0.023570145 0.011135584 -0.02398627 -0.035729103
0.015860066 0.0042432994 -0.020329412 0.022441225 0.1983874 -0.0345615 -0.011938493 -0.029004684
-0.0104768155 -0.013054734 0.0101533085 0.0045977663 0.036661197 -0.02197917 -0.014145319 -0.005126155
0.0082567 -0.0014558823 -0.025133913 -0.015840858 0.016951272 -0.0046098577 0.15186003 -0.008295751
-0.03367625 0.022571562 0.021953348 -0.008933431 0.051703457 0.0016691316 0.05003171 -0.02866201
0.0018263183 0.05694445 0.006687473 -0.006280392 0.018273003 0.008157259 0.018032378 -0.007084715
-0.03602201 0.012024634 -0.00082669884 0.05872518 -0.014747418 -0.009001473 0.006917476 -0.011242229
0.077722006 0.0030937807 0.0067866025 -0.037689995 -0.035392735 0.009835864 -0.005034096 -0.02593079
0.008435319 0.0076332884 -0.0055674035 0.10928481 -0.03512413 -0.0041373647 -0.027369406 -0.023564862
-0.027449945 -0.030575207 0.024398034 -0.018646866 0.18828969 0.054973952 -0.03464747 -0.00875854
0.010358338 -0.03525896 0.018239884 -0.01884185 0.116510995 -0.03446238 0.18171972 -0.029057054
-0.049860664 0.007965051 -0.030051896 -0.01648801 0.034761157 0.015318086 -0.0017839229 -0.036331907
0.21278405 0.024414653 0.017882032 0.105974786 0.003999439 -0.01758046 -0.019158872 0.114445105
00000000: 6516 283c 4d4d 4fbc 6be8 e13d 4281 313d
00000010: 99b6 dd3b cef3 c63c 0623 a73a 2f4c 11bd
00000020: 9ca2 7cbc 1538 0d3b 5ce4 a03c 6282 193d
00000030: 3682 5f3c 8d4b 00bd 2b00 8ebd a33e d13b
00000040: a412 cebc 20d7 93bc b010 8ebc b77c 12bd
00000050: 229f 10bd dd82 5fbc b8c0 1b3e c04a 933c
00000060: 04ca b23c a0e3 fe3d df8c a5bc 3861 6d3c
00000070: 2d16 c1bc 0672 363c db7e c4bc ae58 12bd
00000080: f8ec 813c 600b 8b3b de89 a6bc a9d6 b73c
00000090: 1126 4b3e 5c90 0dbd ab99 43bc 3b9b edbc
000000a0: f3a6 2bbc 86e3 55bc 105a 263c dca8 963b
000000b0: 0d2a 163d a90d b4bc c5c1 67bc 4ef9 a7bb
000000c0: 1c47 073c 4ed3 beba a3e5 cdbc b0c4 81bc
000000d0: 65dd 8a3c 4a0e 97bb 3281 1b3e e7ea 07bc
000000e0: 1cf0 09bd ffe7 b83c 82d7 b33c 865d 12bc
000000f0: 01c7 533d c3c6 da3a 0dee 4c3d 97cc eabc
00000100: 1361 ef3a 953e 693d 9722 db3b bfcb cdbb
00000110: 44b1 953c 06a6 053c a3b8 933c e626 e8bb
00000120: d18b 13bd f802 453c d2b6 58ba d089 703d
00000130: 289f 71bc ea7a 13bc ffab e23b 5331 38bc
00000140: b72c 9f3d 07c1 4a3b 2662 de3b d360 1abd
00000150: f9f7 10bd 9b26 213c 0ff5 a4bb cf6c d4bc
00000160: 4b34 0a3c aa20 fa3b c46e b6bb b7d0 df3d
00000170: 52de 0fbd bb92 87bb ce35 e0bc 190b c1bc
00000180: b5de e0bc db78 fabc 63de c73c 50c1 98bc
00000190: 03cf 403e 5e2c 613d 81ea 0dbd fb7f 0fbc
000001a0: 05b6 293c b36b 10bd cf6b 953c 395a 9abc
000001b0: 519d ee3d 6d28 0dbd bc14 3a3e 0f09 eebc
000001c0: b23a 4cbd d87f 023c 652f f6bc dd11 87bc
000001d0: b761 0e3d b6f8 7a3c 85d2 e9ba c4d0 14bd
000001e0: 10e4 593e 3d01 c83c 577d 923c 4f09 d93d
000001f0: ba0d 833b e604 90bc 11f3 9cbc 3262 ea3d

fc2.weight f4 [4, 128]
-0.054088812 -0.04066941 0.039471157 -0.48055577 -0.059518036 0.065740265 0.032707848 0.007635086
0.064046964 -0.07979923 0.03457468 0.26486412 -0.036955673 -0.016443595 0.19410574 0.03657354
0.02168705 0.021436952 0.03529265 0.018564971 -0.0045615155 -0.06117874 -0.27024513 0.05166799
-0.024389664 0.15619776 -0.022327494 0.23269418 -0.0016652524 -0.07181856 -0.024835648 0.014776718
0.012316892 0.006003699 0.019319637 -0.07890056 0.19024761 -0.027445514 -0.05623672 -0.040159438
-0.0668954 -0.010998018 0.049479276 0.06372835 -0.3262905 -0.022016268 0.07704018 -0.038325176
-0.06996694 0.004090557 -0.05025934 -0.071244374 0.051329724 -0.06226455 0.3213693 -0.00944327
-0.0033914095 0.0067622624 -0.0815725 0.17711118 0.28858963 0.01936391 -0.31359944 -0.04192296
-0.009926463 0.21953067 -0.07423377 -0.05884533 -0.016288066 -0.06113709 -0.02761291 -0.36515638
0.0329061 0.0335539 0.052282523 0.12541026 -0.060280114 0.0656877 0.06636447 -0.0760143
-0.29556087 -0.063573815 -0.074135534 0.20196204 -0.014567237 0.01665997 -0.051756784 0.0237055
-0.05032237 0.07283412 0.049798343 0.363358 -0.03136575 -0.06461038 0.0014492592 -0.015871119
-0.020920273 -0.065360725 0.034608178 0.0034306082 0.19627008 0.13772969 0.011530457 0.0060927984
0.031580977 -0.03070459 -0.08265766 0.0641061 -0.6045736 0.04492784 -0.057337843 0.059374202
0.12209562 -0.029966429 -0.29356045 -0.046923168 0.22923459 0.26207635 0.03354291 -0.015473613
0.15415269 -0.08163341 -0.07389804 0.34190696 -0.07591959 -0.033064198 -0.04914566 -0.28256923
-0.06594212 -0.03144972 0.151118 0.22523864 -0.025899224 -0.045609307 -0.044253368 -0.052817725
0.025633397 -0.00026371135 0.06652781 -0.33300963 0.036995474 -0.061442796 -0.38065946 0.06200673
-0.042436756 0.01793649 0.16683684 0.02819661 0.056318056 0.019877372 -0.04552304 0.04533575
0.0041257143 0.2142598 0.021081068 -0.35189056 -0.030479295 0.07310202 0.015605252 0.0084379455
-0.07311592 0.013505936 0.07036202 -0.055378642 -0.089162886 0.024061242 -0.060824096 -0.058050543
0.016075088 -0.030707294 0.04822559 -0.04145465 0.19966772 0.00095714745 -0.034396116 -0.05726273
0.069910355 0.053502973 -0.058016967 -0.06659366 0.050170317 0.011470295 -0.06232774 0.0089563895
0.022526415 0.046924654 0.06985211 -0.30740687 0.07022491 0.047667097 0.056995448 -0.015336825
0.052732736 -0.37033334 -0.05360103 -0.038141713 0.015919268 0.052436285 -0.0076213344 0.111800596
0.03761618 0.029418843 -0.035036087 -0.52981293 0.016760105 -0.00010798093 0.01620703 0.058069546
-0.3358517 -0.3491977 -0.010172699 -0.32218283 0.06358716 -0.06100801 0.038959812 -0.016544668
-0.039746255 0.028729754 -0.07766703 -0.28597075 -0.03963117 0.026215056 0.1654678 0.017117757
0.08204224 0.059620358 0.24391103 0.051927283 0.052097753 0.15540577 -0.025820928 -0.0009915079
-0.0023070134 0.06490734 0.065282896 0.020685218 -0.023966098 -0.052655373 0.19254225 -0.014588464
0.0805912 0.001871918 0.33098602 0.028640335 -0.05828442 -0.26939347 0.033136263 -0.059732027
-0.009580877 -0.06677437 -0.03235373 -0.24092184 -0.07567409 0.017611736 -0.034832634 -0.13877885
00000000: 3b8c 5dbd f894 26bd 82ac 213d 680b f6be
00000010: 2fc9 73bd d5a2 863d aaf8 053d be2f fa3b
00000020: 0e2b 833d c76d a3bd 2e9e 0d3d 459c 873e
00000030: d55e 17bd b8b4 86bc a8c3 463e 23ce 153d
00000040: 0aa9 b13c 8c9c af3c 078f 103d 9115 983c
00000050: c478 95bb 8f96 7abd 925d 8abe d0a1 533d
00000060: d5cc c7bc 4ef2 1f3e 26e8 b6bc 6247 6e3e
00000070: 9944 daba 9c15 93bd 2174 cbbc 0c1a 723c
00000080: cacc 493c adba c43b 3744 9e3c 9e96 a1bd
00000090: 45d0 423e 6ad5 e0bc 7a58 66bd 397e 24bd
000000a0: 7500 89bd 0831 34bc c8aa 4a3d 0284 823d
000000b0: 8c0f a7be 765b b4bc 3ec7 9d3d dcfa 1cbd
000000c0: d44a 8fbd 140a 863b bddc 4dbd 92e8 91bd
000000d0: 1e3f 523d 1d09 7fbd 848a a43e f2b7 1abc
000000e0: 6942 5ebb f895 dd3b 7c0f a7bd a25c 353e
000000f0: 05c2 933e 10a1 9e3c 1b90 a0be 69b7 2bbd
00000100: 9aa2 22bc a6cc 603e e007 98bd cd07 71bd
00000110: 8d6e 85bc e36a 7abd 7834 e2bc c7f5 babe
00000120: 8cc8 063d d06f 093d 3326 563d 8c6b 003e
00000130: 48e8 76bd 4687 863d 18ea 873d 63ad 9bbd
00000140: c153 97be fd32 82bd 5fd4 97bd 23cf 4e3e
00000150: 6cab 6ebc 7d7a 883c ecfe 53bd 0932 c23c
00000160: d41e 4ebd 0e2a 953d 59f9 4b3d 0f0a ba3e
00000170: 5f79 00bd 7252 84bd 12f5 bd3a 2604 82bc
00000180: fe60 abbc d8db 85bd 4ec1 0d3d 0ed4 603b
00000190: 06fb 483e 0309 0d3e 3eea 3c3c 19a6 c73b
000001a0: 0e5b 013d 3188 fbbc 6b48 a9bd 0f4a 833d
000001b0: 56c5 1abf 4106 383d 16db 6abd 5d32 733d
000001c0: 450d fa3d 287c f5bc 8e4d 96be 8232 40bd
000001d0: 79bc 6a3e df2e 863e 4a64 093d 0985 7dbc
000001e0: 34da 1d3e 6b2f a7bd db57 97bd 6e0e af3e
000001f0: bb7b 9bbd 536e 07bd f64c 49bd eaac 90be
00000200: aa0c 87bd 6cd1 00bd adbe 1a3e f5a4 663e
00000210: 9c2a d4bc d3d0 3abd 0543 35bd 6657 58bd
00000220: 21fd d13c bd42 8ab9 bc3f 883d 3d80 aabe
00000230: 9188 173d 71ab 7bbd cce5 c2be c5fa 7d3d
00000240: 2ad2 2dbd 8cef 923c 47d7 2a3e 94fc e63c
00000250: c3ad 663d dfd5 a23c 5e76 3abd fbb1 393d
00000260: 0031 873b ec66 5b3e 34b2 ac3c 002b b4be
00000270: b7af f9bc 83b6 953d 2cad 7f3c 4f3f 0a3c
00000280: cdbd 95bd 0048 5d3c f619 903d b7d4 62bd
00000290: 089b b6bd 151c c53c b022 79bd 68c6 6dbd
000002a0: e7af 833c dd8d fbbc 3288 453d 5acc 29bd
000002b0: b275 4c3e 14e9 7a3a f1e2 0cbd 538c 6abd
000002c0: 292d 8f3d ef25 5b3d 33a3 6dbd 4262 88bd
000002d0: 647f 4d3d e7ed 3b3c 5f4b 7fbd d2bd 123c
000002e0: 5189 b83c 1134 403d a00e 8f3d 6f64 9dbe
000002f0: 14d2 8f3d 933e 433d 0f74 693d 4e47 7bbc
00000300: 48fe 573d 559c bdbe c18c 5bbd 7c3a 1cbd
00000310: 2069 823c 6ec7 563d 63bc f9bb b6f7 e43d
00000320: 6c13 1a3d c9ff f03c 0082 0fbd d2a1 07bf
00000330: 7d4c 893c d273 e2b8 9bc4 843c 55da 6d3d
00000340: c1f4 abbe 0aca b2be 64ab 26bc 26f5 a4be
00000350: fc39 823d 89e3 79bd 5394 1f3d af88 87bc
00000360: f8cc 22bd a95a eb3c e40f 9fbd c26a 92be
00000370: 4b54 22bd f5c0 d63c 6470 293e 8a3a 8c3c
00000380: c305 a83d 7a34 743d d0c3 793e b4b1 543d
00000390: 7464 553d b122 1f3e 6986 d3bc 7cf5 81ba
000003a0: 4331 17bb 24ee 843d 0ab3 853d 0c74 a93c
000003b0: 8d54 c4bc 29ad 57bd cc29 453e 7404 6fbc
000003c0: 000d a53d 255b f53a 0077 a93e 239f ea3c
000003d0: a5bb 6ebd f1ed 89be e4b9 073d 92a9 74bd
000003e0: 1cf9 1cbc 00c1 88bd 5885 04bd 37b4 76be
000003f0: 04fb 9abd 7d46 903c aaac 0ebd 0b1c 0ebe

fc2.bias f4 [4]
0.03931502 0.0115051 -0.16144152 0.0015448648
00000000: c908 213d e37f 3c3c ed50 25be 107d ca3a
